supervised/saved_models/rnn/M10000_N32_num_layers1_DenseTrue_lr0.01_seed3.pt (torch, 4161 bytes, 12 tensors)

lstm.weight_ih_l0 f4 [8, 1]
00000000: 0fe3 53bc bfc5 f0bf 8e43 80be d63e f2bf
00000010: 6609 253f 8d9f d13f 85bc f4bb a049 09c0
-0.012932553 -1.8810347 -0.2505154 -1.8925426 0.64467466 1.6376816 -0.0074687623 -2.1451187

lstm.weight_hh_l0 f4 [8, 2]
00000000: e78b 6dbe 35e4 4e3e 7dab 143f 6a23 a03f
00000010: 5da3 2c3e b274 973f a57d 233f 1619 9d3f
00000020: 5699 37be 72c0 a63d 8ff2 063f cd12 983f
00000030: 7b33 c9be 87ec a0bf 30a9 223f 2b30 3bbf
-0.231979 0.20204242 0.5807417 1.2510808 0.16859193 1.1832488 0.63863593 1.2273281
-0.17929587 0.08142175 0.52713865 1.1880738 -0.3929709 -1.2572182 0.6353941 -0.73120373

lstm.bias_ih_l0 f4 [8]
00000000: 5c63 863f eb3a 8abf 1488 38bf fd94 25bf
00000010: 768f d3be 5d70 29bf 6065 d13f 571d 773f
1.0499072 -1.079923 -0.7208264 -0.64680463 -0.4132039 -0.6618708 1.6359062 0.96529144

lstm.bias_hh_l0 f4 [8]
00000000: 11bf 7d3f dde0 a2bf ae31 85bf 8160 91bf
00000010: 7ac7 81bd 1d6f 51bf 534e d23f 051d 0c3f
0.9911967 -1.2724873 -1.0405786 -1.1357576 -0.06336875 -0.8181017 1.6430153 0.5473178

Dense.weight f4 [2, 2]
00000000: 6583 dc3f 1894 0340 7a11 0d40 5c9f 60c0
1.7227598 2.055914 2.2041917 -3.5097265

Dense.bias f4 [2]
00000000: 8316 3f3f ac26 49c0
0.74643725 -3.1429853

square_avg f4 [8, 1]
00000000: e228 5b43 84e0 5545 dee0 4741 9217 7d42
00000010: 30a7 3645 b2e7 093f f227 8c41 0c89 5841
219.1597 3422.0322 12.492399 63.273018 2922.4492 0.53869164 17.519505 13.533459

square_avg f4 [8, 2]
00000000: b23a 5a43 6bb2 e641 e52a c944 3708 3343
00000010: 6c53 3844 40b3 c242 c862 0543 992a e741
00000020: c003 cc47 e480 6446 f988 6d40 6c79 d93e
00000030: 77f2 a541 57fc 0a40 97b5 2d42 483c b040
218.22928 28.837118 1609.3405 179.03209 737.30347 97.3501 133.38586 28.8958
104455.5 14624.223 3.7114851 0.4247545 20.743391 2.1716516 43.427334 5.5073586

square_avg f4 [8]
00000000: 05d8 0e45 96f7 9946 e0b8 2945 91af 0044
00000010: c0db 4a49 0740 1343 bf4a 5f43 4330 bc43
2285.5012 19707.793 2715.5547 514.7432 830908.0 147.2501 223.29198 376.37704

square_avg f4 [8]
00000000: 04d8 0e45 97f7 9946 e1b8 2945 91af 0044
00000010: bfdb 4a49 0740 1343 bf4a 5f43 4330 bc43
2285.501 19707.795 2715.555 514.7432 830907.94 147.2501 223.29198 376.37704

square_avg f4 [2, 2]
00000000: eee1 0048 6e7a 1246 f508 9843 31f7 a941
131975.72 9374.607 304.06998 21.245699

square_avg f4 [2]
00000000: 2466 6b49 6082 1d45
964194.25 2520.1484
