supervised/saved_models/rnn/M10000_N50_num_layers1_lr0.1_seed1.pt (torch, 3591 bytes, 10 tensors)

lstm.weight_ih_l0 f4 [8, 1]
000000 c0 74 d1 bf f1 b2 85 3f 97 af b1 bf 82 6c d2 3f
       -1.6363754 1.0445234 -1.3881711 1.6439364
000010 f5 c5 db 3e 70 70 9e 3e eb 26 c9 c0 12 ac 3c 41
       0.42924467 0.30945158 -6.2860007 11.792009

lstm.weight_hh_l0 f4 [8, 2]
000000 fb 18 92 bf 00 b2 75 be 70 a9 ad bf 2e f1 9a 3f
       -1.1413873 -0.23993683 -1.3567333 1.2104852
000010 61 56 0b c0 58 21 e7 3f 00 6b c1 bf a9 42 98 3f
       -2.1771472 1.8057051 -1.5110779 1.1895343
000020 20 c5 c5 37 69 de a0 bf f7 53 49 bf 83 c3 a0 3f
       2.3576024e-05 -1.2567874 -0.78643745 1.2559665
000030 32 24 bd 3d 87 b0 9c bd 14 a2 fe bc 28 68 ce 3c
       0.09235419 -0.076508574 -0.031083144 0.02519615

lstm.bias_ih_l0 f4 [8]
000000 9e db 1e 40 a2 2c 52 40 de c3 3c 40 09 33 06 40
       2.4821544 3.2839742 2.9494548 2.096865
000010 e7 32 3b c0 7c b5 ff 3f 45 98 d5 bf 35 6f a4 c0
       -2.9249818 1.997726 -1.6687094 -5.138575

lstm.bias_hh_l0 f4 [8]
000000 06 3b 4b 40 32 c6 26 40 8b 84 ed 3f 43 8c af 3f
       3.1754775 2.605847 1.8556074 1.371468
000010 30 71 ce bf 23 86 b8 3f 32 25 c8 bf c0 69 c4 c0
       -1.6128292 1.4415935 -1.5636351 -6.137909

Dense.weight f4 [2, 2]
000000 93 9e 31 3f 91 2d 99 be 3a c0 07 3f 3a 30 09 3c
       0.6938259 -0.29917577 0.5302769 0.0083733145

Dense.bias f4 [2]
000000 71 ba be be df 17 ba 3e
       -0.37251619 0.36346337

square_avg f4 [8, 1]
000000 80 4b 10 35 fa ba e5 35 af a0 3d 34 71 11 22 31
       5.375405e-07 1.7116247e-06 1.7660453e-07 2.3584017e-09
000010 fb 86 30 38 17 10 3e 36 e6 ce 9f 3b 2b d6 99 39
       4.208738e-05 2.8321572e-06 0.004876959 0.00029342002

square_avg f4 [8, 2]
000000 7c 7f c6 32 3f 55 b6 33 be 6b 71 2f 32 27 41 30
       2.3108207e-08 8.4905416e-08 2.19571e-10 7.026869e-10
000010 fe ce 07 32 61 32 96 32 f5 78 b2 30 4a 68 d4 30
       7.905099e-09 1.7485208e-08 1.2985583e-09 1.5454671e-09
000020 6e 2c 82 31 c3 ed 81 31 d6 7f 13 31 33 63 03 33
       3.788549e-09 3.7814245e-09 2.1463982e-09 3.0591035e-08
000030 8e 24 f7 3a 9c 70 68 39 3f 0b f5 37 37 ab 74 36
       0.0018855499 0.00022167194 2.9211513e-05 3.6458493e-06

square_avg f4 [8]
000000 d9 89 02 37 1d 01 ab 33 1d 9b 13 35 08 c6 ac 33
       7.780699e-06 7.9630105e-08 5.4987487e-07 8.045396e-08
000010 eb 92 8d 35 5c 0b 87 36 fa 0d bc 3c b1 e7 bc 39
       1.0548077e-06 4.024636e-06 0.022955883 0.00036030778

square_avg f4 [8]
000000 d9 89 02 37 1d 01 ab 33 1d 9b 13 35 08 c6 ac 33
       7.780699e-06 7.9630105e-08 5.4987487e-07 8.045396e-08
000010 eb 92 8d 35 5e 0b 87 36 f9 0d bc 3c b0 e7 bc 39
       1.0548077e-06 4.024637e-06 0.022955881 0.00036030775
