supervised/saved_models/rnn/N10_M10000_num_layers2_DenseTrue_lr0.001_seed1.pt (torch, 6441 bytes, 20 tensors)

lstm.weight_ih_l0 f4 [8, 1]
00000000: 88e2 7cbe 49e1 92bf 91ed b0bd 099b 2bbf
00000010: 6b72 a9be 7c69 3e3f cdbc 6cbe 1529 f9be
-0.2469579 -1.1475002 -0.08639062 -0.6703344 -0.33095106 0.74379706 -0.23118897 -0.48664156

lstm.weight_hh_l0 f4 [8, 2]
00000000: f7f5 c53f fb8f 0cbf 6be5 34bf 5d7d e4bd
00000010: 3b4d 4e3f 8061 b43e f367 9cbf 8801 0f3f
00000020: f04d ffbd 868d 90bd 6dbe 403e 13cb 873e
00000030: 9aaa c83e c753 88bf d667 58bf 1047 81bf
1.5465688 -0.54907197 -0.70662564 -0.11156724 0.80586594 0.35230637 -1.2219223 0.5586171
-0.12466037 -0.070582435 0.18822642 0.2652212 0.3919266 -1.0650567 -0.8453344 -1.0099812

lstm.bias_ih_l0 f4 [8]
00000000: a6b5 e53e 6d62 233f 51ca 69be 487d d23c
00000010: 9f2d 19bf facc c8be 4517 b53f d2e4 bc3f
0.4486515 0.6382206 -0.22831084 0.025694504 -0.5983524 -0.39218885 1.4147726 1.475733

lstm.bias_hh_l0 f4 [8]
00000000: 222c 923f b475 23bd 973c a9bf c31f 33bf
00000010: 8fbb 363f 20c5 72bf 4f8a c23f f1ea f33e
1.1419718 -0.039907172 -1.3221616 -0.6997034 0.7137994 -0.9483204 1.5198458 0.47640184

lstm.weight_ih_l1 f4 [8, 2]
00000000: 636d 563f 7865 94bf 0f03 96bf 1344 9fbf
00000010: a454 8c3f ab50 27bf 713a 9dbf 8031 3c3f
00000020: fc46 a43f 3ac5 8dbf 7d14 edbf 5261 9b3e
00000030: 97f3 643f 22ab bfbf 77c1 87bf e2b9 53bf
0.8376066 -1.1593466 -1.1719683 -1.244265 1.096333 -0.65357465 -1.228346 0.7351303
1.2834163 -1.1075814 -1.8521878 0.30347687 0.8943419 -1.49741 -1.0605916 -0.8270551

lstm.weight_hh_l1 f4 [8, 2]
00000000: 0495 a23e d1e4 cdbe 671c d83f d5c6 8c3f
00000010: f1ae a2bf b624 393f f941 e1bd d7f8 6b3d
00000020: ddb9 e2be 6433 573c ad22 ed3e 94ff 2ebe
00000030: eaac 063e ade9 a53d abb4 d83f aa41 9c3f
0.31754315 -0.40213636 1.6883668 1.0998179 -1.2709638 0.7232164 -0.109989114 0.05761036
-0.44282427 0.013134811 0.46315518 -0.17089683 0.13151899 0.08101211 1.6930135 1.2207539

lstm.bias_ih_l1 f4 [8]
00000000: 586e c93f f22f e03f f4a9 3ebe 4afd 15bf
00000010: 27cf cf3d 9a19 363f d50c 3a3f 9569 0e40
1.5736799 1.7514632 -0.1861952 -0.58589613 0.10146933 0.71132815 0.7267583 2.2251942

lstm.bias_hh_l1 f4 [8]
00000000: f928 3b3f b6bc 963f 2e30 c0be f9a3 5cbf
00000010: f6f2 843e f67c 47bd 77c5 403f 9391 1840
0.73109394 1.177634 -0.37536758 -0.861877 0.25966614 -0.048703156 0.7530131 2.3838851

Dense.weight f4 [2, 2]
00000000: 71b5 bbbf 249a e53f d43e 7ec0 ae91 6bc0
-1.4664747 1.7937665 -3.9725847 -3.6807666

Dense.bias f4 [2]
00000000: 2cb2 7e3e 775f 68be
0.24872655 -0.22692667

square_avg f4 [8, 1]
00000000: 4e7b 2e41 f673 6443 597b 0242 ce95 6b42
00000010: 197d a046 33d0 aa43 b283 193d 11cf 8041
10.905104 228.45297 32.620457 58.896294 20542.549 341.62656 0.03747911 16.101107

square_avg f4 [8, 2]
00000000: 0fb6 133f 596f ab41 006c 0943 4376 cf44
00000010: 8c34 2c42 f198 8f43 a992 6842 3a7a 2144
00000020: 1e75 bc46 5583 9048 d451 ae42 a1b7 7344
00000030: 656f 043e c87d dc3f a17d 4e41 6f5b 2143
0.57699674 21.429369 137.42188 1659.6957 43.051315 287.19485 58.143223 645.9098
24122.559 295962.66 87.15982 974.8692 0.12933119 1.7225885 12.905671 161.35716

square_avg f4 [8]
00000000: 63ac a942 ac01 a745 77b1 2544 c8ae ea44
00000010: 608b 5b49 412f 4245 c17b 9840 741a fd43
84.83669 5344.209 662.7729 1877.4619 899254.0 3106.9534 4.7651067 506.20667

square_avg f4 [8]
00000000: 63ac a942 ad01 a745 78b1 2544 c9ae ea44
00000010: 608b 5b49 422f 4245 c17b 9840 761a fd43
84.83669 5344.2095 662.77295 1877.462 899254.0 3106.9536 4.7651067 506.20673

square_avg f4 [8, 2]
00000000: 97a6 5f3e 8000 2941 1103 a83c 8640 933f
00000010: ce2d 7841 0fa8 3844 5cd0 ca40 2909 2c43
00000020: ba91 3142 8742 b445 462b 4a45 3ffc 7347
00000030: 9111 e13e 0f9f a442 026a b13a e6f6 ab3d
0.21840893 10.562622 0.020509275 1.1504066 15.511183 738.6259 6.3379345 172.03578
44.39231 5768.316 3234.7046 62460.246 0.43958715 82.31066 0.0013535621 0.083967015

square_avg f4 [8, 2]
00000000: b500 a441 7edd a540 5b91 0a40 3667 a63e
00000010: 970e bd44 7cf9 9343 322c 6e43 b42a 0b43
00000020: 0d0a 5346 e5af 1545 c875 b147 f726 d546
00000030: dbee 5a43 3195 0f42 217b 2a3e 9322 da3c
20.500345 5.1832876 2.1651218 0.3250062 1512.4559 295.9491 238.17264 139.16681
13506.513 2394.9934 90859.56 27283.482 218.93303 35.895695 0.16648532 0.026627814

square_avg f4 [8]
00000000: 60a5 2742 9e6a 9f40 fefc 3b45 9182 1344
00000010: 513c d246 ac6b 4948 1bb4 bc43 d962 bb3e
41.9115 4.981765 3007.812 590.0401 26910.158 206254.69 377.40707 0.36598852

square_avg f4 [8]
00000000: 63a5 2742 9f6a 9f40 fefc 3b45 9082 1344
00000010: 523c d246 ac6b 4948 1cb4 bc43 d862 bb3e
41.91151 4.9817653 3007.812 590.04004 26910.16 206254.69 377.4071 0.3659885

square_avg f4 [2, 2]
00000000: 9411 c047 12ea 5a47 cb81 5140 d022 e93f
98339.16 56042.07 3.273547 1.8213749

square_avg f4 [2]
00000000: c813 6748 de73 fb40
236623.12 7.857894
