vae/saved_models/free_endpoints/double_well_free_nepochs20_lr0.005_N20_n2000_b150_s10.pt (torch, 121209 bytes, 36 tensors)

enc_shared.weight f4 [100, 20]
000000 9e dc db 3d 79 e2 dd bd 3b 1d 83 be f4 9b 4b be
       0.10735439 -0.10834212 -0.2560824 -0.1988371
000010 0b 11 c0 3c 1e 63 9f bd 81 fe 56 3e 5f 5d 84 3d
       0.023445627 -0.07782577 0.20995523 0.064631216
000020 a4 9b a8 bd 9e d4 fc bc 5f 04 4c be f6 b5 49 3e
       -0.08232811 -0.030863103 -0.19923542 0.19698319
000030 1e bb 97 3d 65 a1 a7 bd e9 7a 04 be 9c e5 24 be
       0.07408737 -0.081850804 -0.12937512 -0.16103214
000040 98 32 8c 3e 59 7f 4c 3c e8 65 78 bd 65 5e 5b be
       0.2738235 0.012481534 -0.06064406 -0.21422727
000050 20 c5 00 be a0 85 66 bd 5d 78 45 3e 4c 42 81 3e
       -0.12575197 -0.05627978 0.19284196 0.25245893
000060 72 1e 38 3e a9 0b 27 3d 63 0b a4 bd 60 cb 1b bd
       0.17980364 0.040782604 -0.08009984 -0.03803575
000070 b9 c3 dc 3d 66 29 c9 3d 7b 8f 08 be d0 fd 04 be
       0.10779519 0.09822349 -0.13335983 -0.12987447
000080 50 10 29 be 23 72 05 be 31 5a 10 be 58 1a 7c 3e
       -0.16510129 -0.13031821 -0.14096905 0.24619424
000090 69 9b 90 3d 1a a0 39 be 2c 0c 93 3c 1b c1 0d 3e
       0.07060892 -0.1812748 0.01795014 0.13843195
0000a0 95 c0 22 3e ca e2 11 bd 14 63 0c 3e 96 a6 ce 3d
       0.15893777 -0.035616674 0.1370967 0.100903675
0000b0 8b 6f d9 3d e2 bd 35 be 21 62 f5 3d b4 55 ba be
       0.10616978 -0.17748216 0.11981607 -0.3639351
0000c0 ec ff e0 3d ad 17 32 3e 73 0c 21 3e f0 66 fb bd
       0.10986313 0.17391844 0.15727405 -0.12275493
0000d0 61 48 e0 3d db a6 1d 3e 8c ff 29 3e f9 4c 0e bd
       0.10951305 0.15395682 0.1660139 -0.034741376
0000e0 6c 06 8a bd 02 cd 34 3e 93 38 79 be cf 89 1b 3e
       -0.06739506 0.1765633 -0.24337988 0.15189289
0000f0 a7 e7 14 be bc ba e4 bc 78 30 aa bd c1 f7 19 3e
       -0.14541493 -0.027921073 -0.08310026 0.15035917
000100 8d e0 52 be fa 56 99 bd 33 87 32 3e 7c a0 29 bd
       -0.20593472 -0.074872926 0.17434387 -0.041412815
000110 35 3b 60 3e d0 2e 5d 3e 10 43 9f be 48 42 f8 3d
       0.21897586 0.21599889 -0.31105852 0.12122017
000120 9e a9 ce 3c 8c eb 41 be 12 9d 40 bd 9a 16 f1 ba
       0.025227364 -0.1893751 -0.047024794 -0.0018393577
000130 3b 1c 26 3e ca 77 80 bd e5 7e c2 3c aa 88 3e 3e
       0.16221707 -0.06272848 0.023742149 0.1860682
000140 a3 54 44 be c9 6f f9 3d c3 cc f9 3d e2 20 5a bd
       -0.19172911 0.121795245 0.12197258 -0.053254016
000150 59 14 ca 3d 95 97 49 3e 40 b3 0d bd 90 27 c5 bd
       0.09867162 0.1968673 -0.034594774 -0.096266866
000160 06 60 c0 3d 67 52 59 be e2 8b 43 bc 8a 5e 56 bd
       0.09393315 -0.2122284 -0.011935206 -0.052336253
000170 10 62 1a bd fa 7a 0b be 64 e7 0c be 8d dc 8c bd
       -0.037691176 -0.1362113 -0.13760144 -0.06878004
000180 c2 b5 b8 bd d0 36 ad 3d e5 5d db bc 91 9b c3 3b
       -0.090190426 0.0845772 -0.02677817 0.0059694727
000190 79 ae 04 3d 33 31 a6 3d 3b e0 0a be d2 fa 0f be
       0.032392953 0.08114853 -0.135621 -0.14060524
0001a0 99 3b b0 3c 92 9b 6d 3d 4f 1d e0 bd 06 c6 41 3e
       0.021512793 0.05800969 -0.1094309 0.18923196
0001b0 94 d8 21 be 42 97 27 bd ff 03 83 3e 05 cf 49 3e
       -0.15805274 -0.040915735 0.25588986 0.19707878
0001c0 c9 2a 0c be 0f e1 70 3e e5 37 46 be cc ea ce 3d
       -0.13688196 0.23523353 -0.1935726 0.10103378
0001d0 8f 5a 63 be 52 56 ae bd 99 97 44 3c 50 65 a7 3d
       -0.22202514 -0.08512558 0.011999034 0.08173621
0001e0 3e a5 41 3e 64 62 15 be 01 71 f3 bb a6 89 36 3e
       0.18910691 -0.14588314 -0.0074292426 0.17825946
0001f0 b6 92 9e bd 94 bb b7 bd ba 61 2f 3e 58 d9 c5 3d
       -0.07742827 -0.089713246 0.17127123 0.09660596
000200 99 38 22 be 33 7a d5 3d f7 29 66 be d1 72 43 3d
       -0.15841903 0.10423698 -0.22476946 0.04771692
000210 99 d1 16 3e 67 cd 08 3e 37 39 6c be 2a 53 14 3e
       0.14728393 0.13359605 -0.230687 0.1448485
000220 4d c3 69 bd f9 f2 2a 3e 09 06 78 be 2d 4b 06 3e
       -0.05707102 0.16694249 -0.24221052 0.13114615
000230 6a 4c 72 be a9 62 ad bd f8 f9 04 3e fa b4 d6 bd
       -0.23661962 -0.084660836 0.1298598 -0.10483737
000240 95 8b 5c bd ac 01 de 3d f0 ab 84 bd aa cd 63 3d
       -0.053844053 0.10840163 -0.06478107 0.05561606
000250 09 fc 04 3d fb a2 8a 3d dd bf a3 3d 2c 6e 33 bd
       0.032466922 0.06769367 0.079955794 -0.04380624
000260 22 f4 94 3d 68 2f df 3c 7f 9b 26 be 14 d5 80 be
       0.07273127 0.027244285 -0.16270255 -0.25162566
000270 46 bc 01 be 51 d1 80 3d 81 aa 17 3e ac 8c 0f be
       -0.12669477 0.06289924 0.14811136 -0.14018506
000280 db 39 66 be de 8f 15 3e 3f f4 ab bd a8 0e 22 be
       -0.22483008 0.14605662 -0.083961956 -0.15825903
000290 28 d6 95 3c 15 9d 02 3d 09 e9 cc bb a3 e5 13 bb
       0.018290594 0.031888086 -0.006253366 -0.0022567294
0002a0 d5 38 57 be 7b 54 7d be 0f e1 99 be 4f d6 77 3d
       -0.21017773 -0.24739258 -0.3005452 0.060507115
0002b0 8a 0b b0 be 0f bf 26 3c e2 a5 31 bc fb c5 22 be
       -0.34383804 0.010177388 -0.010842772 -0.15895836
0002c0 b6 c8 85 bd 75 78 4f be 08 b7 94 3d 31 41 5e be
       -0.06532423 -0.20260794 0.07261473 -0.21704556
0002d0 f6 2c 03 be 0d 60 9a bc 19 94 3f 3d de 61 89 bd
       -0.1281012 -0.018844629 0.046772096 -0.0670812
0002e0 a0 79 1f 3e 3c a7 5a 3e 46 bb 93 3d 8e f9 9a bd
       0.1557374 0.21352857 0.07213454 -0.0756713
0002f0 e9 94 0e 3e 5f 6e e3 bd c6 6b 55 3d 80 2f ac bd
       0.13923992 -0.11105036 0.052104734 -0.084074974
000300 48 aa 05 3d 07 8c 00 3e 08 8e 0b bd 16 d8 6a 3e
       0.032633096 0.12553416 -0.034071 0.22933993
000310 ee 67 0b 3e 1a 37 a3 bd c1 30 43 3e 54 10 3f be
       0.13613865 -0.07969494 0.19061567 -0.18658572
000320 bb 56 af 3d a2 60 0b 3e 1d ec 5c be cc 4c 03 3d
       0.085614644 0.13611081 -0.21574445 0.03205566
000330 9b e6 bb 3c e4 4e 8d bc e9 be d0 bd c9 a6 17 be
       0.02293711 -0.017249532 -0.10192663 -0.14809717
000340 85 08 64 be d1 2b c1 3d b6 4c 9a 3d 0e 81 13 3e
       -0.22268875 0.094321854 0.07534163 0.14404699
000350 bf 8d b2 bc 66 c5 99 bc 52 b4 00 3e 58 f8 1b 3e
       -0.021796105 -0.018770885 0.12568787 0.15231454
000360 66 0b 15 3e fa 6d 2e be c3 ed 7a be b8 d9 18 3e
       0.1455513 -0.1703414 -0.24504761 0.14926803
000370 18 f8 c9 bd 81 3b 3b be 28 46 84 3d d2 e6 cd 3d
       -0.09861773 -0.18284418 0.06458694 0.10053791
000380 7e c5 bf 3d b1 dc 56 3e e9 d3 33 be 71 c1 b5 bd
       0.093638405 0.20982625 -0.17561306 -0.08874787
000390 c3 4b 1f 3e 5d 90 6b 3d b1 4e 11 3e 66 d7 5a bd
       0.15556245 0.057510722 0.14190175 -0.053428076
0003a0 f2 06 8b 3e a6 66 f4 3d a7 fc 98 bc b8 e2 22 be
       0.27153736 0.11933641 -0.018675162 -0.15906799
0003b0 3b a0 5d 3d 66 56 6b bd 4d 9c 7f 3e a5 3c 1d be
       0.054107886 -0.057455443 0.24961968 -0.15355165
0003c0 ce 8d 40 be f1 31 75 be 5d 9e 7b 3d 9a 28 12 3e
       -0.18804094 -0.23944832 0.061430324 0.14273301
0003d0 91 4d 9a 3d c7 aa 86 be a5 8c cb 3d d8 90 de bd
       0.07534326 -0.26302168 0.09938935 -0.108674705
0003e0 85 00 6a be 28 c9 34 3b f3 d3 bd 3d 48 a5 80 bd
       -0.2285176 0.0027585719 0.09268942 -0.06281525
0003f0 4c 40 51 be a1 fc b7 bd 4d 34 01 3e a2 a3 22 be
       -0.20434684 -0.08983732 0.12617607 -0.15882733

enc_shared.bias f4 [100]
000000 1b 6a db be 9e 6d 24 3e b6 d5 2d 3c 23 97 39 3e
       -0.4285439 0.1605744 0.010610035 0.1812406
000010 ce d7 95 3e 0c 70 0a bf 23 b5 af 3e 8a 72 00 3f
       0.29266208 -0.5407722 0.34317884 0.5017477
000020 87 fa f2 3c c2 2f 66 be 9e b6 03 3e 74 4d ac 3e
       0.029660476 -0.22479156 0.12862632 0.33652842
000030 87 b6 d1 be c1 3e a5 3e 0b 0b a0 3e 38 2d 06 3c
       -0.4095957 0.3227444 0.31258425 0.008189492
000040 6f 6c 65 3d b8 c4 de 3e 08 49 00 bf d9 55 6b bd
       0.056011613 0.4350946 -0.50111437 -0.057454918
000050 8e 76 73 be 1a 28 19 3e 37 68 10 be a0 a0 54 3e
       -0.23775694 0.14956704 -0.14102255 0.20764399
000060 09 c2 85 bd eb d9 a1 bd 6b 92 ef bd c5 6c 55 3f
       -0.0653115 -0.07902893 -0.11697849 0.83369094
000070 36 35 92 be 50 3c b8 be a7 99 c8 3d ff a7 f5 3e
       -0.28556222 -0.35983515 0.09794932 0.47979733
000080 90 4d ec be 45 c0 30 3d a0 29 df 3e 01 39 9a 3c
       -0.46152925 0.043152113 0.43586445 0.01882601
000090 93 6b fa be b0 c0 09 3f f9 f0 c2 3d 3e 3f f1 bd
       -0.48910198 0.5380964 0.09518618 -0.117796406
0000a0 e2 e4 aa 3e 84 d7 fb 3e 53 be e5 be d2 39 99 be
       0.3337775 0.49187863 -0.44871768 -0.29926926
0000b0 f0 1b c0 be 0f 8f 07 bf b4 76 6d be 2e 57 98 3e
       -0.37521315 -0.52952665 -0.23189813 0.29754013
0000c0 c9 94 f1 3d 0d fa a5 be 6e 5c ae bd 59 97 f2 3e
       0.11795957 -0.32417336 -0.08513723 0.47381094
0000d0 17 5a 26 3f e4 5e 0a be bb 68 4d be 8f 08 4b be
       0.64981216 -0.1351276 -0.20059483 -0.19827484
0000e0 20 54 84 3e 05 72 cc be 7e 28 2b be 60 0e be 3e
       0.25845432 -0.3993074 -0.16714665 0.37120342
0000f0 38 1f a5 be fb 3f 74 3e b3 2c c5 3d e1 de 7c 3e
       -0.3225038 0.23852532 0.09627666 0.24694397
000100 c9 95 bd 3e bb c8 25 bd fb 44 eb be ed 99 8d bd
       0.3702834 -0.040474635 -0.45951065 -0.06914125
000110 59 ef f5 3e f5 d0 c4 3e 06 4c 23 bf 2a c1 d2 be
       0.4803417 0.38440672 -0.6378788 -0.41162997
000120 af 58 8c be 13 77 7c bd 3d e3 26 be f7 2d 9a 3d
       -0.2741141 -0.061636996 -0.16297622 0.07528298
000130 a2 04 ad 3e a0 b2 6a 3d 9d a5 ef 3d 6d b2 69 bd
       0.33792597 0.057299256 0.1170151 -0.057054926
000140 12 6a 87 3e 0f 42 5a 3e 66 56 26 bf 39 ee db bd
       0.26448113 0.21314262 -0.64975584 -0.10738797
000150 b0 1a bc be d4 fb f0 3e 3d fe 10 be fe a4 19 bf
       -0.3673911 0.4706713 -0.14159484 -0.60017383
000160 7f 22 d6 3d 3d eb fe bd 2f a9 be 3e 85 c3 82 be
       0.10455798 -0.12447212 0.37238452 -0.25539795
000170 a2 50 ca 3c 6c 70 58 be e6 61 46 bc 02 5e a0 be
       0.024696652 -0.21136636 -0.012108302 -0.31321722
000180 6b fd cf 3e b0 44 7a 3e 80 b3 cb 3e 23 76 bf 3d
       0.4062303 0.24440265 0.39785385 0.09348705

enc_mu.weight f4 [10, 100]
000000 c4 0d 8c 3c fa 48 0a bc 61 43 98 3c 64 df 89 bd
       0.017096408 -0.0084402505 0.018586816 -0.067320615
000010 83 f1 8f 3d 6b 80 0e 3d 78 c0 0b be ad 5e a5 3c
       0.070284866 0.034790438 -0.1364764 0.020186746
000020 a6 33 94 3d b5 52 57 3d 4a 25 8c 3d 7c 4f 70 3d
       0.07236414 0.05256911 0.0684305 0.058669552
000030 ad 1b c7 bd 1a 29 30 bc 98 63 b6 bc 88 de b2 3c
       -0.097220756 -0.010751987 -0.022264287 0.021834627
000040 37 c7 45 3d e5 8e 43 3c 02 96 12 bc c6 a8 71 bd
       0.04828569 0.011935924 -0.008946897 -0.058998846
000050 d2 5b 8d 3d 87 39 16 3c 1b c2 6a bd a3 24 5e bd
       0.06902279 0.009168989 -0.05731402 -0.05423416
000060 45 8b 89 bd f8 57 11 3d 93 86 a2 3d 49 0c 1a 3c
       -0.06716017 0.035484284 0.07935824 0.009402343
000070 9b 0c 23 bd 62 0a 8b 3c 48 a2 9f bd cf 78 3d 3c
       -0.039806943 0.016972724 -0.077946246 0.011564448
000080 ce 29 1d 3d 1c b2 3e ba de 28 e0 3d 86 ab 4f 3d
       0.038369946 -0.0007274465 0.10945295 0.050700687
000090 3e 3e be 3d b4 0c 50 bd 3d 97 20 3d 65 d4 f5 bd
       0.092892155 -0.050793365 0.039206732 -0.12003402
0000a0 88 c7 13 bd ba bf 2f bd 50 01 7d 3d f7 87 ed bc
       -0.03607896 -0.042907454 0.06176883 -0.028995497
0000b0 54 e4 29 bd 56 2a 90 39 67 8a 99 3c 95 54 cd bd
       -0.041477516 0.00027497363 0.018742753 -0.10025898
0000c0 f7 c4 b3 3b f3 a8 f2 bc 33 8f 57 bd 94 a3 60 bd
       0.0054861265 -0.029621577 -0.0526268 -0.0548435
0000d0 16 c1 82 3d 56 74 94 bd 75 02 21 bd 6e 6d 62 3d
       0.063844845 -0.07248752 -0.039308984 0.05528014
0000e0 3f c1 68 3d 7d db 1c bd 1a 60 44 bc 57 c0 00 bb
       0.05682492 -0.038295258 -0.011985803 -0.0019645893
0000f0 76 8d d7 3d 71 5a 69 3d 99 ee 9f 3b 0d da 1c bc
       0.105250284 0.056971017 0.004880738 -0.009573472
000100 a6 5a b4 bd 24 2a 8d 3d 3b 82 a6 3d 6d 1e 8c 3d
       -0.08806352 0.06892803 0.08130308 0.06841741
000110 4e 94 59 3d c2 cb 46 bd 5c 46 74 3d dc 19 61 3d
       0.05311995 -0.048534162 0.059637412 0.054956302
000120 29 35 a7 bc af 82 9b 3c da 6e 42 bd 33 28 88 3d
       -0.02041109 0.018983213 -0.047468998 0.066482924
000130 48 bc 9c 3c f2 6c 55 bd c5 4f b9 3c c1 a1 ce 3d
       0.019132748 -0.05210585 0.022621045 0.10089446
000140 d7 af 62 3d 5e b9 bb 3d 18 38 09 bd aa f4 a9 bb
       0.055343475 0.09166215 -0.03350076 -0.005186637
000150 c1 72 0d 3d 34 fb 59 bd 27 04 3c bc a6 27 94 bd
       0.034533266 -0.05321808 -0.011475599 -0.07234125
000160 43 df 22 bd 5f 05 bc 3d f0 d4 c6 3d 6e 83 4a 3d
       -0.0397637 0.09180712 0.09708583 0.049441747
000170 50 a0 1c bc 99 fb 0d bd f9 86 51 3d d0 36 c0 3d
       -0.009559706 -0.03466377 0.05115411 0.09385455
000180 83 5f 04 bd 23 03 c2 3d 9c d6 f0 3d 02 22 95 3d
       -0.03231765 0.094732545 0.117596835 0.07281877
000190 ec 03 cc bd f9 95 9b 3b b9 10 49 3d 58 ee 15 bd
       -0.099616855 0.0047481027 0.049088214 -0.036604255
0001a0 15 6a 61 3d d9 97 78 3d c3 42 2e be 4d 6d 62 3d
       0.05503281 0.06069169 -0.17017655 0.05528002
0001b0 07 12 29 3d 17 60 bb 3c d6 42 79 bd 0b 9f f7 3c
       0.041276958 0.022872968 -0.060854755 0.030227205
0001c0 68 57 5d 3d 7c a6 d1 bd c3 02 13 bb d6 74 60 3d
       0.054038435 -0.102368325 -0.0022432066 0.054798923
0001d0 1d 91 7d bd 78 f1 08 3d f0 bb e4 bc 54 9f 28 bd
       -0.06190597 0.033433408 -0.027921647 -0.041167572
0001e0 2b b6 f7 3c aa 59 61 bd 66 5c f6 bc 8d 9f c4 bc
       0.030238232 -0.05501715 -0.030073356 -0.024001861
0001f0 1f 2a 8b 3d 58 19 a5 3d 1e 12 0e bd 22 db 6e 3d
       0.06795143 0.080614746 -0.034685247 0.05831445
000200 24 5f 16 bc 3c f3 95 bd 9a 4b 52 bd d5 be 73 3d
       -0.009177957 -0.07321784 -0.05134163 0.059508163
000210 df 1f 1d bd 06 10 fe bb b5 7f 82 3d b0 79 27 3d
       -0.038360473 -0.007753375 0.063720144 0.040887535
000220 31 a0 a9 3d b3 3c ab bd c1 6c 2b bd 2a 4e 35 3d
       0.08282507 -0.08361187 -0.041851763 0.044263996
000230 8e 39 7d bd 3d 8e f5 3c 32 ef 4e bd eb f0 64 bd
       -0.061822467 0.029975051 -0.050521083 -0.05589382
000240 3c 71 80 bd 57 b2 c2 bc af 35 78 bd e6 69 a0 3c
       -0.06271598 -0.02376668 -0.06059807 0.019581746
000250 e4 2c 22 3d cf 67 b8 bc 7d 86 7f bd 57 d9 bd 3c
       0.039593592 -0.022510437 -0.062384117 0.023174925
000260 41 6f f6 bc f0 ac 2f 3d 8a 9e 5d bd fa bb 36 bd
       -0.030082347 0.042889535 -0.054106273 -0.044612862
000270 57 d4 f5 3d 12 57 34 bd 67 5a 04 be 8b 18 cd 39
       0.12003391 -0.04402835 -0.12925111 0.00039118933
000280 39 7b 0f bd 98 4a ac 3d 2c 3b d5 3d e3 31 cb 3b
       -0.035029624 0.08412665 0.10411677 0.0062010153
000290 cc 92 1e bd 3e fd f0 bd 0c 5e 89 bd 36 9e b7 3d
       -0.038714215 -0.11767052 -0.06707391 0.08965723
0002a0 b8 3a 8d bb 93 c5 32 bc a7 7b 0d 3e 8f b7 3c 3d
       -0.0043099783 -0.010911363 0.13816701 0.046073493
0002b0 b6 35 a8 bd 0c 94 4b 3d 2a ee c4 3c a5 7e 6e bd
       -0.082133695 0.049701735 0.024039347 -0.058226246
0002c0 d3 9a 11 bd ca 75 7b 3c df bc 73 bd 4c 84 5a 3d
       -0.035548043 0.015347907 -0.059506293 0.053348824
0002d0 50 38 a7 3c b3 ad cb 3c ff be 71 3d 5d f6 b1 bc
       0.020412594 0.0248631 0.05902004 -0.02172392
0002e0 77 48 85 3d e8 71 87 3d ab 69 52 3c 62 cd e7 3a
       0.06507962 0.06613523 0.012842576 0.001768511
0002f0 b6 d2 d0 bd 18 53 58 bd 72 f2 ba bc 3f 4d 3e 3d
       -0.1019644 -0.05281362 -0.022820685 0.046460386
000300 83 aa 09 be 1b d8 bb 3d 38 c2 50 3b 2b 0d af bd
       -0.13443951 0.09172078 0.0031854045 -0.085474335
000310 a4 47 d1 3d 9e b7 8e bc cb 35 9b 3d 71 24 30 bd
       0.102187425 -0.01742154 0.075786196 -0.043003503
000320 fd 68 50 3d 90 95 ec 3c c0 f7 81 3d 5b 7d a1 bd
       0.050881375 0.02887991 0.06346083 -0.07885238
000330 c7 bb b8 bd eb dd 0c 3d 8b 0d 2e 3d 13 f4 0b bd
       -0.09020191 0.034391325 0.042493384 -0.034168314
000340 78 79 8b 3c 98 49 d5 3c 17 ea 6d 3c c8 31 0a 3c
       0.017025694 0.026036069 0.014521143 0.00843472
000350 73 de a7 bd d2 09 79 3d c6 f4 2c 3d a8 77 84 bd
       -0.08196726 0.06080038 0.04222562 -0.06468135
000360 bf 04 70 3d b2 35 48 3c 4c 94 86 3d 72 4a 01 bd
       0.058598276 0.012219833 0.06571254 -0.031565137
000370 89 6a 07 bd 0b a2 44 3d 96 ca 32 3d 0f 80 65 bc
       -0.033060584 0.0480061 0.043650232 -0.014007582
000380 fe 86 88 bc bd 8c a7 3d e3 30 f9 bc eb 26 aa bd
       -0.016665932 0.081811406 -0.030418819 -0.08308204
000390 88 e0 7b bd ef 03 f2 bc bc b0 98 3c 29 cc a1 bc
       -0.061493427 -0.029542891 0.018638961 -0.019750671
0003a0 80 1b 90 bd 19 f8 08 bd fc 15 14 bc 1b ad 48 bc
       -0.07036495 -0.03343973 -0.009038445 -0.012248303
0003b0 0b 59 50 3d 79 02 85 3d 9e a6 67 bc e0 f5 c1 3b
       0.050866168 0.06494612 -0.014138846 0.005919203
0003c0 1c 8a 5a bd 86 03 07 3d d4 47 98 b9 7a 7f 9b bc
       -0.053354368 0.032962345 -0.00029045215 -0.018981684
0003d0 29 54 27 3d f5 9a 0b bc f2 69 b2 bd 4a 68 a7 3c
       0.040851746 -0.008520831 -0.08711614 0.020435471
0003e0 73 63 83 3b 08 54 d5 bc 88 10 4e 3d 5a e1 93 3d
       0.004009658 -0.026041046 0.050308734 0.07220717
0003f0 e9 e0 ce bc 86 8d 21 3d e3 48 ac 3d 2e 3e 71 3c
       -0.02525373 0.039441608 0.084123395 0.014724297

enc_mu.bias f4 [10]
000000 da e0 eb bc e2 31 c5 3c 57 33 56 3d 21 23 1c bd
       -0.028793741 0.024071638 0.052295055 -0.03811944
000010 08 fa 58 3d 0e b5 7d bd 4b 08 3e bd 6b b8 fd bb
       0.052972823 -0.061940245 -0.046394628 -0.0077429316
000020 73 08 3d bd 22 fa 50 3d
       -0.046150636 0.051019795

enc_log_var.weight f4 [10, 100]
000000 93 05 90 bd f8 a0 c4 3b c0 23 30 bd 5e e2 6f 3c
       -0.07032313 0.0060006343 -0.043002844 0.0146413725
000010 ac df b7 bd e0 ed 12 3d fb 26 51 bd ad b7 dc 3b
       -0.08978209 0.035871387 -0.051062565 0.006735763
000020 88 2c 0b bd 36 f6 44 3b 07 60 c7 3b e0 25 0a bd
       -0.033978015 0.003005398 0.0060844454 -0.033727527
000030 65 6a ef 3c ad ed 9b bc be 62 19 bd 15 33 a2 3d
       0.029225538 -0.019034231 -0.037447684 0.079198994
000040 bd e5 07 bd 7c e8 97 bd 7c ef 41 bd bc cb af bc
       -0.03317808 -0.0741739 -0.04734753 -0.021459453
000050 6f d2 5d bd e0 fc 63 bd 2e de a5 3d 71 80 87 3d
       -0.054155763 -0.055661082 0.08099018 0.06616295
000060 89 d5 1f 3d 53 91 e1 bd 4b 82 28 3c 11 5a 6a 3b
       0.039022002 -0.110140465 0.0102849705 0.003575925
000070 78 aa 64 bd 35 3a b8 3d f7 b5 0a bd f3 4b cb bc
       -0.055826634 0.08995477 -0.03386494 -0.024816489
000080 9d 14 55 3d 57 81 6e bd fc 85 ce bb 33 3c 83 bd
       0.05202161 -0.058228817 -0.0063025933 -0.064079665
000090 9f 25 ec 3c 38 84 9c bc f0 1a a8 3d 2a 73 d1 bd
       0.028826533 -0.019106016 0.08208263 -0.10227044
0000a0 19 81 01 3c c6 fa 20 bd e0 d2 2b bd 47 ff c4 bb
       0.007904314 -0.039301656 -0.041949153 -0.0060118767
0000b0 53 5e 24 3c 93 b2 2d bd a0 6c 16 3d 48 d3 fd 3c
       0.010032254 -0.04240663 0.036724687 0.030984536
0000c0 e2 3c 30 3d e5 78 53 bc f9 5d 81 bc 4a ed 0a bd
       0.043026812 -0.0129072415 -0.01579188 -0.033917703
0000d0 41 9a 6b bc 01 0e 39 bd 7b 57 41 3d 23 16 86 bc
       -0.014380039 -0.04517937 0.04720257 -0.016367977
0000e0 1f 67 a1 bd f6 9f 0a bd a1 91 3d bc a3 86 39 3d
       -0.07880997 -0.033843957 -0.011570365 0.045294415
0000f0 1a ba 1d bd da 2a 91 3c ea 8c 1a bd 96 8d 59 bb
       -0.03850756 0.017720629 -0.037732042 -0.0033195964
000100 df f6 38 bb 9e 16 ba 3d 82 55 7b 3d 66 2f bb bd
       -0.0028223319 0.09086345 0.061360843 -0.091399
000110 1e ad 8e bd a0 72 27 bb d3 d2 66 bc 21 0a bb 3d
       -0.06966613 -0.00255505 -0.01408835 0.09132791
000120 65 ac 74 3c d7 05 89 bd d8 0f 75 3d 74 33 18 bd
       0.01493368 -0.06690567 0.059829563 -0.037158445
000130 69 19 50 bc da 3b 01 3d 01 fb 45 3d 8e 75 7f bc
       -0.012701371 0.03155122 0.04833508 -0.015591992
000140 22 6f 16 bb 36 66 a5 3b 79 f3 7d bd 36 5d 4f 3d
       -0.0022954424 0.005047585 -0.06199977 0.050626002
000150 71 84 a1 3d 2b 86 8c 3a dc 3b 6d ba 7c ed d3 bd
       0.07886589 0.0010721138 -0.0009049752 -0.10348031
000160 17 99 d3 bc 40 1a 49 bd 67 a1 fd bc 80 2c 3a bd
       -0.025829835 -0.0490973 -0.030960752 -0.045452595
000170 78 18 97 3d ea 4c 74 bd 86 dc 99 3d 75 9e 54 bd
       0.07377714 -0.059643663 0.07512765 -0.05190893
000180 05 dc 07 38 1e a9 83 3d a1 51 47 3c 50 45 c7 bd
       3.2391417e-05 0.06428741 0.012165458 -0.09730017
000190 eb 03 87 bc 26 c6 f6 3c b5 04 76 bd 2f 90 39 bd
       -0.01648136 0.030123781 -0.060063083 -0.04530352
0001a0 96 54 02 b9 68 1e 8c 3d 9b a9 39 bd 1c 60 d7 3c
       -0.00012429277 0.06841737 -0.045327764 0.026290946
0001b0 e3 20 34 3c 46 ad ad b9 f5 2b 08 bd d9 5b 98 bc
       0.010994169 -0.0003312623 -0.033245046 -0.018598484
0001c0 a3 a0 8d 3d 42 36 bb 3c d6 61 9d bd c2 5a d2 3a
       0.06915405 0.02285302 -0.07684676 0.0016048776
0001d0 2f a3 6e 3d 9f c2 32 bd c8 39 6a bc 1c 9d a6 3c
       0.058261093 -0.043642636 -0.014296003 0.020338587
0001e0 6e 62 a8 bd e8 1f 20 bd ff 7f 8e 3d 59 b5 49 3d
       -0.08221899 -0.03909293 0.06958007 0.049245212
0001f0 21 11 58 bd 3b 4c 3c 3d 55 a6 e4 3c 8c a5 63 bd
       -0.05275071 0.045971137 0.027911345 -0.0555778
000200 eb 18 b1 3d c6 b5 17 bd a2 66 d3 bb 97 7f 0e be
       0.08647331 -0.037038587 -0.006451444 -0.13915859
000210 0a 54 02 3e af 28 90 bd c3 74 11 bd fd 42 7b 3b
       0.12727371 -0.0703901 -0.035511743 0.0038339489
000220 b2 ba 13 3d 41 08 88 bd ff 4b ed 3c bb 01 29 bd
       0.03606672 -0.06642199 0.028966902 -0.041261416
000230 3b 2e 7d bc f4 c6 40 bd 41 04 37 3b 85 3b 19 3d
       -0.015452917 -0.047064736 0.002792612 0.037410278
000240 ea 39 eb bc 07 b8 13 3c cb 6f f9 3d 8e db 76 bd
       -0.028714139 0.0090160435 0.12179526 -0.060267977
000250 8a 67 4a 3c 4f b3 3c 3d a4 83 29 bc b0 7f c5 3b
       0.012353787 0.04606944 -0.010346327 0.0060271844
000260 62 63 23 be 63 ed 45 bc 6d 24 06 3c e0 27 55 bb
       -0.1595588 -0.012080523 0.0081873955 -0.0032524988
000270 52 91 90 bd 8c 45 ac 3d 25 7f 4a 3d cc de a8 bd
       -0.07058968 0.084117025 0.04943766 -0.0824562
000280 d0 70 2a 3d 6e 4a 2f bd f8 06 54 3d 9a 23 81 bc
       0.041611493 -0.04279559 0.05176446 -0.015764046
000290 3e 97 49 bd 84 46 0c 3c 41 e0 02 3e 16 f7 f0 3d
       -0.0492165 0.008561734 0.12780859 0.11765878
0002a0 1a 85 ca bd c1 e9 fb 3c da e0 3b 3d 1e 57 fa 3c
       -0.09888668 0.030751111 0.045868732 0.030559119
0002b0 f7 e2 4f bd 7f 9c e0 bb 2b 8e ba 39 34 a6 15 bb
       -0.05075356 -0.0068545933 0.00035582608 -0.002283466
0002c0 89 d9 20 be 2c 39 0b bd a1 9f bd 3d 67 53 d0 bc
       -0.15707983 -0.03399007 0.092589624 -0.025430394
0002d0 88 3e cc bd 2d 19 a7 bd 72 06 e0 3d 4a 42 d7 bc
       -0.099728644 -0.08159099 0.10938729 -0.026276726
0002e0 48 97 7f 3d 0f 3c 9c 3c 36 b8 cf bb 61 92 71 bd
       0.062400132 0.019071607 -0.0063390983 -0.05897749
0002f0 25 6d fb bc 86 3e 36 3d 41 bd af 3d b7 ba 70 3d
       -0.030691693 0.04449322 0.08581019 0.058771815
000300 69 2d c1 3d 78 65 f3 bc d0 38 80 3c 40 b2 64 bd
       0.094324894 -0.02971147 0.01565209 -0.055834055
000310 10 9e bd 39 62 30 51 bc 34 2f a3 bd b6 fd 01 bd
       0.00036166655 -0.012767883 -0.07967988 -0.0317361
000320 04 94 9d bd 57 68 82 3d 62 a8 42 bd b1 69 2a bd
       -0.07694247 0.063675575 -0.047523864 -0.0416047
000330 8b ef b6 3c cc b5 b2 3c 7f d1 2a 3d 87 9f 00 bd
       0.02233102 0.021815203 0.041703697 -0.031402137
000340 5f 08 dc 3b 73 b5 37 3d ba d9 4c 3d 78 38 c6 bb
       0.006714865 0.044850778 0.050012328 -0.006049212
000350 09 a9 6b bd d4 bb e4 bc fb 87 75 3d 5e 0d d7 bc
       -0.05753425 -0.027921595 0.059944134 -0.026251491
000360 ff 5a e0 3c 73 06 c5 3c 0d f4 09 bd 14 9c 88 3d
       0.02738714 0.024050927 -0.03368001 0.066703945
000370 e1 ca 8c bd 05 97 12 3d 13 0f 60 bd 33 00 8f 3d
       -0.068746336 0.035788555 -0.054701876 0.0698246
000380 0b e5 4b 3d 0a b9 fa bb da 46 02 3d 83 20 ca 3b
       0.04977898 -0.007651453 0.03180585 0.0061684265
000390 fb 35 e8 3c a2 c8 0e 3d 11 2d e1 bc c0 df e0 bc
       0.028346052 0.034859307 -0.02748731 -0.027450442
0003a0 72 67 a0 bd be aa c3 bd a4 04 37 3d 94 b7 e3 3c
       -0.07832231 -0.09554051 0.04468216 0.027797498
0003b0 0e d8 9d 3c a1 1b 54 3d 66 00 9d 3d 06 90 94 bc
       0.019268062 0.05178416 0.076660916 -0.018135082
0003c0 b3 b7 cd 3c 61 64 f2 bc f4 65 1a bd 0e f5 25 3d
       0.025112009 -0.02958888 -0.037694886 0.040516905
0003d0 25 8e f8 3c 33 a8 e4 3c 24 21 97 3c 8e ee ac bd
       0.030341217 0.027912235 0.01844842 -0.08443938
0003e0 3a 3a 67 bd 12 15 b3 3c fa 11 12 3d 90 32 6f bd
       -0.056452014 0.021860633 0.035661675 -0.05839783
0003f0 3a c1 55 bd 12 2c 0d 3e 1c 3b 68 bd d9 28 7f bc
       -0.05218623 0.13786343 -0.056696996 -0.015573704

enc_log_var.bias f4 [10]
000000 9d ba 03 be 2e e2 a3 be 21 c4 fd bd 1a 9d 19 bf
       -0.12864156 -0.320085 -0.12390924 -0.6000534
000010 bb 52 c0 be 3e 25 c6 bd 25 39 97 be 20 87 73 be
       -0.37563118 -0.09675072 -0.29535785 -0.23782015
000020 d9 ae c7 be 53 3f 94 be
       -0.39000586 -0.28954563

dec_shared.weight f4 [100, 10]
000000 d1 2c 9f 3d 5b 24 c5 3e 87 31 04 3e aa 3c 4e be
       0.0777222 0.385043 0.12909518 -0.20140329
000010 e7 39 cb be 22 62 2f be f9 72 ea 3d 22 ed ab 3d
       -0.39692613 -0.17127278 0.114477105 0.08394839
000020 a6 dd c5 be 71 40 60 3b 65 19 00 bb 56 1b 91 be
       -0.38645667 0.0034218098 -0.0019546386 -0.28341168
000030 64 f2 c5 3d 79 2b df 3e 17 9a fd 3e 96 85 5c 3d
       0.09665373 0.43587855 0.49531624 0.053838335
000040 62 ae 8c 3e f0 c6 dc 3d b7 50 05 3f 67 61 05 3f
       0.27476794 0.10780132 0.52076286 0.5210175
000050 27 e6 de 3c 0d 8d a4 3d 7e 08 ae 3d b5 28 03 bf
       0.027209355 0.08034716 0.084977135 -0.5123399
000060 53 25 ed be 2c b9 d1 bd dc 8d d7 bd 34 f5 a4 3c
       -0.4631754 -0.10240397 -0.105251044 0.020136453
000070 59 79 fa be 13 a5 cc be ec ec 12 3d 63 ba 30 be
       -0.48920706 -0.39969692 0.035870478 -0.17258601
000080 ac 70 20 bd e6 7c e2 3e a7 f0 c9 3e 00 12 a3 3d
       -0.039169952 0.44235915 0.39441416 0.079624176
000090 40 50 ae 3e 84 b1 28 3e 0c da 23 3f a7 ff 04 3f
       0.340456 0.16473967 0.6400459 0.51952595
0000a0 71 6c d1 bb c0 6c 0d 3e 4c 61 8e bd 36 90 88 3e
       -0.006391101 0.13811016 -0.06952152 0.26672524
0000b0 c1 76 88 be 5d de 06 3e 99 8d 05 be da 25 69 3d
       -0.26653102 0.13170762 -0.13042296 0.056920864
0000c0 82 94 0d bd 74 66 8e bd 2c 72 66 bc 44 ae be be
       -0.034565456 -0.06953135 -0.014065307 -0.3724233
0000d0 7a 59 24 be da 64 2e 3d 99 a5 42 bc a5 90 b0 3d
       -0.16049758 0.04257665 -0.011880302 0.08621339
0000e0 b3 c6 3b be d1 eb 18 3e c4 30 28 be fb e6 56 3e
       -0.18337516 0.14933707 -0.16424853 0.2098655
0000f0 33 c8 9b bd 6a a1 fd 3d 79 64 7b be 08 b2 9c 3c
       -0.07606544 0.12384303 -0.24550046 0.01912786
000100 76 ff 83 be f3 a3 c6 bd 38 39 d0 bc fc 9f 2f bc
       -0.2578084 -0.096992396 -0.025417909 -0.010719296
000110 9f b3 98 3d 15 85 9e 3e d6 b8 b6 3c 2d 32 4a 3e
       0.07456135 0.3096091 0.022304934 0.19745703
000120 40 1e c1 bd bb fa 23 bf d6 60 6c be ce 87 a0 bd
       -0.09429598 -0.6405446 -0.23083815 -0.07838403
000130 17 23 a3 be e2 67 22 bd eb 5a fa bd ba 34 ad be
       -0.3186271 -0.03964985 -0.122243725 -0.3382929
000140 e3 2e 1c be 44 f9 7e bd 9c 44 bb bd 36 12 aa 3e
       -0.15252261 -0.062249437 -0.091439456 0.3321702
000150 9f 0f d0 3d d2 cf 45 3d 20 67 96 3e ee df 95 3d
       0.101592295 0.048293896 0.29375553 0.07318102
000160 d7 8b 01 3f eb d5 39 bd 6b 50 19 bc 01 4d 6e 3e
       0.50604004 -0.045370024 -0.009357552 0.23271562
000170 f2 50 91 3d cd b1 f4 bd a8 5f 0f be 7c fb 03 3e
       0.07095517 -0.11947975 -0.14001334 0.12888902
000180 ee b5 50 3e 91 21 4d be 4b da d7 3e 3d ad 5d bc
       0.203819 -0.20032336 0.42158732 -0.013530073
000190 65 f5 8a bc c5 31 bc be 79 eb 64 3c b7 70 ab 3e
       -0.016962716 -0.3675672 0.013972157 0.33484432
0001a0 06 4a 0d 3f 82 c2 98 bd 1f d2 85 3e e8 22 26 3e
       0.55191076 -0.074589744 0.26136872 0.16224253
0001b0 f8 71 e4 3e a6 7f f8 3e c6 90 9c 3c d2 d0 23 3e
       0.446182 0.48534888 0.019112002 0.15997627
0001c0 0b e5 72 bd c9 79 e6 bd 9d d5 04 bd 1d cf f2 bc
       -0.059300464 -0.112536974 -0.03243028 -0.029639775
0001d0 e2 96 b6 3d be 3f af bd 0a 89 4d bd 67 0f 1e be
       0.08915497 -0.0855708 -0.05017952 -0.15435563
0001e0 ff 3e fd bc fb 8e 73 3e 86 68 78 bd 11 28 1c bf
       -0.030913828 0.23785011 -0.060646556 -0.60998636
0001f0 ee 7e 19 bf 48 77 73 bb a3 08 c0 be bf f2 38 be
       -0.59959304 -0.0037149955 -0.3750659 -0.1806135
000200 e6 ab f5 be bc 2b d7 be b5 01 0b bd 1f 23 93 bd
       -0.4798271 -0.42025554 -0.033937175 -0.07184433
000210 6a 28 e6 3d 59 8d 1b 3f 1a 69 ae 3e 9e f8 ab 3d
       0.11238177 0.60762554 0.3406456 0.08397029
000220 0b a2 84 3e 3d 7f d5 bc 90 b3 04 3f 7a c6 a7 3e
       0.2590488 -0.026061649 0.5183649 0.32768613
000230 86 8f fa 3d 30 dd 9d be ab 91 2f 3d 62 1d 2e be
       0.12234406 -0.30832815 0.04286353 -0.17003396
000240 4d 65 64 3e e9 95 1a be 1d 2d 97 3d 93 d3 82 ba
       0.22304268 -0.15096249 0.073816516 -0.0009981267
000250 05 f0 17 3d 5a 40 12 be bc 76 0c 3e 08 b6 4f 3d
       0.037094135 -0.1428236 0.13717169 0.050710708
000260 f0 73 dd 3d 6e 34 0e bf 4a a9 cb be a9 4f 26 3e
       0.10813129 -0.5554875 -0.39777595 0.16241325
000270 21 a5 20 be 79 44 8a bd 1c 04 5c be 5c 5b 81 be
       -0.15687992 -0.067513414 -0.21485943 -0.25265014
000280 0c 9a a9 bd 72 a9 6e 3e 76 f5 b8 bc d0 52 0f bf
       -0.08281335 0.23306826 -0.022577982 -0.55985737
000290 37 c0 0f bc 17 6a 10 3e 86 ee bc 3d 7c 16 15 3e
       -0.008773855 0.1410297 0.09225182 0.14559358
0002a0 52 c1 d0 be 58 9f 7a be 17 31 60 be 90 c4 ff bd
       -0.40772492 -0.24474847 -0.21893726 -0.12488663
0002b0 52 77 98 be 2d b1 31 be c6 39 7b bd 82 61 25 3e
       -0.29778534 -0.17352743 -0.061334394 0.16150478
0002c0 ca 59 5f 3e 78 28 f1 3d 96 83 86 3d 99 f5 ab bd
       0.21811596 0.11775297 0.06568067 -0.083964534
0002d0 ee b6 07 be 7b 60 7d 3e 1c d8 6a 3d 53 0e f1 3d
       -0.13253376 0.24743836 0.057335004 0.1177031
0002e0 a0 d2 87 bc 58 87 c9 3d cf e4 f0 3c 8b 70 b1 bd
       -0.016579926 0.09840268 0.02940598 -0.08664044
0002f0 c5 69 1f 3e d3 e3 45 be 2d a2 cc 3d 73 77 e3 bd
       0.15567692 -0.1932519 0.0999187 -0.111067675
000300 cc d1 68 3e c7 91 0f 3c cf 61 0d 3e bf 4c a9 be
       0.22736281 0.008762783 0.13806842 -0.33066365
000310 d3 c7 8b be 32 2c 8f bd 10 98 8d be dd f5 9f 3d
       -0.2730089 -0.069908515 -0.27655077 0.078105666
000320 c9 f1 bc 3c 68 60 3a 3e 65 8d f2 3b 28 7d 06 bf
       0.02306451 0.18200839 0.0074021094 -0.52534723
000330 94 e8 96 be f1 9d 69 bd 75 22 ae be 46 3f 0e be
       -0.29474318 -0.05703539 -0.34010664 -0.13891324
000340 c8 02 03 bf 0e 3f 9e bd 39 10 2e be 65 d2 df 3e
       -0.5117612 -0.077268705 -0.16998376 0.43715206
000350 19 40 09 be b3 c7 85 be 9b 1c 1b 3e 71 ed c1 bd
       -0.13403358 -0.2612892 0.15147631 -0.094691165
000360 2e e2 22 bd a0 48 00 be f0 ed e5 3d 7c ce 0a be
       -0.039766483 -0.12527704 0.112270236 -0.1355533
000370 8e 87 a7 3d 56 1e be 3e 29 03 5c bd 77 36 c6 be
       0.08180152 0.3713252 -0.05371395 -0.38713428
000380 23 22 e3 be c0 09 f3 bc fd f6 81 be 39 cc b0 bd
       -0.44361982 -0.029667735 -0.2538375 -0.086327024
000390 3c ea 68 be e5 57 11 bf 42 14 21 3e 56 0c 82 3e
       -0.22745603 -0.5677474 0.15730384 0.25400037
0003a0 21 49 58 be b9 f7 a9 3e f9 1d 4f be 80 45 32 3e
       -0.21121646 0.3319681 -0.20226277 0.17409325
0003b0 20 7f 52 3e 9e d2 77 be 36 84 fe 3d 62 4c 81 3e
       0.20556307 -0.24201438 0.12427561 0.25253588
0003c0 f8 5e 0e bd ae 52 89 be 98 6b 88 3c 64 d8 05 3f
       -0.034758538 -0.26820892 0.016652867 0.5228331
0003d0 bb 1f 1a 3f b1 f1 0c 3d 93 05 ad 3e 12 60 05 3e
       0.60204667 0.034410182 0.33793315 0.13024929
0003e0 f0 5e 1a 3f 1e 66 23 3f 19 aa 6c be 36 cd bb bd
       0.60301113 0.63827693 -0.23111762 -0.0917
0003f0 ca f0 b4 3c 18 7c 60 3d 45 0c 94 3c b2 d2 63 be
       0.022087473 0.054805845 0.018072257 -0.22248343

dec_shared.bias f4 [100]
000000 f4 ba 51 be 0e 2d 52 be 59 76 ac 3e 27 52 a0 be
       -0.20481473 -0.20525 0.33684042 -0.31312677
000010 27 ba ba 3e 66 27 83 be 23 9b 5d 3e 5f 78 a0 be
       0.36470148 -0.25615996 0.21641211 -0.31341836
000020 9d 6d 5b 3e ca ae de 3d b0 54 69 3e 89 03 4f 3e
       0.21428533 0.10873182 0.22786212 0.20216192
000030 21 31 b5 bd dc 14 c7 3e 30 00 7d 3e 6a f1 3e be
       -0.08847261 0.38883102 0.24707103 -0.1864678
000040 3c 5b 0c bd d9 22 73 3e 41 db 72 be d0 8a 66 3e
       -0.034266695 0.23743762 -0.23716451 0.2251389
000050 1b 61 bb be 86 85 7f be 3a 83 1c 3a 9c 76 95 bd
       -0.36597523 -0.24953279 0.0005970482 -0.072980136
000060 c1 6c 88 be 1f 24 cc be eb 9e 6f 3e c9 26 03 3e
       -0.26645473 -0.39871308 0.23400466 0.12807764
000070 27 e0 8e be 15 a2 11 be 7f da 48 3d ef aa a0 bd
       -0.2790539 -0.14221986 0.0490365 -0.07845103
000080 29 e6 a4 be c3 a7 98 be 87 74 7f 3e 07 c3 87 bd
       -0.32206848 -0.29815492 0.24946795 -0.066289954
000090 25 21 2a 3e 2b 15 cf be 86 6f 26 3c ec a2 4d be
       0.16614206 -0.40445837 0.010158425 -0.20081681
0000a0 98 3d 2d 3e 83 85 ce 3c d0 db 31 be 2d 6b 35 be
       0.16918027 0.025210148 -0.17369008 -0.17716666
0000b0 26 fe ec bc f7 27 d7 be 22 f3 53 be 91 52 4e be
       -0.028929781 -0.42022678 -0.20698217 -0.20148684
0000c0 e5 a2 3a 3e 6f 1c f1 bd 32 d5 f1 3d 2c 50 a5 be
       0.18226202 -0.117730014 0.11808242 -0.3228773
0000d0 19 6e 1e be 41 0b 73 3d ec 3e f5 3d 02 e4 75 be
       -0.15471686 0.059336904 0.11974892 -0.2401276
0000e0 04 81 94 be 99 e1 97 bc 3f c4 6e 3e a0 39 a8 3e
       -0.2900468 -0.01854019 0.2331705 0.32856464
0000f0 a9 82 fa bd 91 3a 0a 3e 0f 2e 96 bd 00 91 ad bd
       -0.12231953 0.13498904 -0.07333004 -0.08474922
000100 ba 28 99 3c 0b fd 96 be 18 d7 3b 3e ee f1 85 be
       0.018696178 -0.2948993 0.1834377 -0.2616114
000110 18 bc 5d 3e f1 99 3c 3e 6b 60 ec bd 0f 5a 5e be
       0.21653783 0.18418099 -0.11541828 -0.21714042
000120 c3 81 85 bd 80 3b 20 3e 53 e0 26 3e 76 56 1a 3d
       -0.06518891 0.15647697 0.1629651 0.03768011
000130 c2 c3 92 be 13 96 df bc 6b a1 14 3e 67 63 98 bd
       -0.28664976 -0.02729324 0.14514701 -0.074408345
000140 77 89 4a 3e 2a e5 9a be ff 19 ad 3d 78 86 07 3d
       0.19779001 -0.30252963 0.08452224 0.033087224
000150 8a d7 13 be 01 1a 07 be 07 79 d0 bd 48 d2 47 3e
       -0.1443769 -0.13193513 -0.10179334 0.1951381
000160 52 96 6d 3e cf cb 74 bd 30 d8 1f 3e f6 94 d1 be
       0.23201874 -0.05976468 0.15609813 -0.4093396
000170 90 19 3d be 42 7b aa 3e 15 89 5d 3e 77 a3 7c 3e
       -0.18466783 0.33297163 0.21634324 0.24671732
000180 98 c2 7e 3d 74 62 cd 3e b1 93 31 be 3c 1e 46 be
       0.062197298 0.40114176 -0.17341496 -0.19347471

dec_mu.weight f4 [20, 100]
000000 c1 dc 1e 3d 15 2d 3d bd e7 1d 78 3d 33 69 3a be
       0.038784746 -0.04618557 0.060575392 -0.18204193
000010 df 2f 37 bd b9 55 f6 3d b1 ae 1e 3d 86 e2 69 3c
       -0.044723388 0.12028069 0.038740817 0.014275199
000020 5b 84 60 bd 58 3b b7 bd a7 92 73 bd f4 c8 c4 bb
       -0.054813724 -0.08946866 -0.05946603 -0.006005401
000030 74 86 12 3e 93 e5 45 bd 39 25 3b bc 2f 6f d1 3c
       0.14309102 -0.048314642 -0.011422449 0.025565712
000040 fb e9 06 3e b1 54 f2 bc 33 0c a8 3c a3 c0 77 bd
       0.13175194 -0.0295814 0.02051363 -0.060486447
000050 be ba ad 3d fc 4a 0d be 06 a3 79 3c 95 61 55 bd
       0.08482884 -0.13798136 0.015236622 -0.052095015
000060 0a 95 a3 bd fb 8d bd 3b 40 5c bb 3d 49 6d 08 3e
       -0.07987411 0.0057847477 0.09148455 0.13322939
000070 2e a2 e5 3c 36 71 59 3d 83 65 96 3d 14 18 66 3c
       0.028031435 0.053086482 0.073435806 0.014043827
000080 5c ed 6c 3d 7c 3d a6 3d b0 fc b8 3d ad 25 86 3d
       0.05784355 0.08117196 0.09032571 0.06550155
000090 df 1d 8d bd e7 64 82 bd 01 39 14 bb 72 67 6f bd
       -0.06890463 -0.06366902 -0.0022616985 -0.058448263
0000a0 a8 c1 a2 bd 44 19 ad bd 84 d3 78 3c 63 ff c8 3b
       -0.07947093 -0.08452085 0.015187148 0.00613396
0000b0 89 9b 16 be f3 e0 2c bd af b7 be 3c ae 64 1c 3e
       -0.1470777 -0.042206716 0.023280947 0.15272781
0000c0 3a 8d 53 bd ff fd b8 3d 68 0f e2 3d 31 22 72 bc
       -0.051648356 0.09032821 0.11038095 -0.01477866
0000d0 8a bb 19 be 9b 85 e4 3d 3c 4a dc bd fa 36 22 bc
       -0.15012947 0.11158296 -0.107563466 -0.009900803
0000e0 2b 03 a1 3d 2d 12 b6 bd 0c 32 24 be a8 e8 17 be
       0.07861932 -0.088901855 -0.16034716 -0.14834845
0000f0 db 3c c8 bc 9d cc b2 3d 6f 62 9a bd 79 43 22 bd
       -0.02444308 0.08730433 -0.07538306 -0.03961513
000100 4b ec 1e 3e 97 ec c6 bd 99 ae 47 bd 4d fe 2e 3d
       0.15519826 -0.09713095 -0.048750494 0.04272299
000110 9b f3 32 3d 48 22 f8 bd 04 2c c6 3b d6 55 49 bd
       0.04368935 -0.12115914 0.0060477275 -0.049154125
000120 f6 7b 0a bc 9d 59 77 bd e3 42 9a 3d b5 1e 13 3d
       -0.008452406 -0.060388196 0.07532289 0.035917956
000130 7b 5b eb bc e1 ad 4a bd 7b 8b c3 3d 8f 24 cd 3d
       -0.028730145 -0.04948223 0.09548088 0.100167386
000140 f6 38 9a bb 5d b6 32 bd 4d b1 59 bd e4 61 a6 bd
       -0.0047064973 -0.043630946 -0.053147603 -0.0812414
000150 83 d1 06 3e d0 33 10 3e 6e 2d 8d bc e7 03 24 be
       0.1316586 0.14082265 -0.017233577 -0.16017114
000160 7f 28 05 bd 95 2b 1e bd 3e 1a 19 3d b2 07 e8 bd
       -0.032509323 -0.03861578 0.037378542 -0.11329593
000170 89 bd f4 3d 13 d7 e8 3d 18 d2 47 3e 1b db 95 bd
       0.119502135 0.11369147 0.19513738 -0.07317182
000180 2f 26 73 bc 2f 8a 7e bd 68 b6 a3 3d 08 53 96 bd
       -0.014840647 -0.0621435 0.079937756 -0.07340056
000190 96 dd ff 3d 9d 07 0f be a6 ba 91 3d 54 67 5a be
       0.12493436 -0.13967748 0.071156785 -0.21328479
0001a0 3d 35 6f 3c 88 40 08 3d e5 06 fd 3c a7 3d 12 3e
       0.014600095 0.033264667 0.030887077 0.14281331
0001b0 79 01 bc bd 55 5b 0d 3e 6e 0f ce bd 89 c1 30 bd
       -0.091799684 0.13804372 -0.10061537 -0.04315332
0001c0 70 4d 63 3e fa d6 41 bd 29 36 20 3c 0e f7 a3 3d
       0.22197509 -0.04732416 0.009778538 0.08006106
0001d0 7f a4 e0 3d 3b bf c2 bb 2e 8b 72 3d a9 d7 81 bd
       0.10968875 -0.0059432066 0.059214763 -0.06339962
0001e0 f7 d7 e9 3c d2 49 89 bd 1d d1 04 3e 91 ee d8 3d
       0.028545363 -0.06703533 0.12970395 0.10592378
0001f0 c3 16 67 be 4c 44 cd bd 9c 36 c5 3c dd 32 30 3e
       -0.22567277 -0.10022792 0.024073891 0.17206903
000200 4d 67 70 3d 6d c1 8c 3b b4 d5 50 ba e0 3c 0d 3d
       0.058692265 0.004295519 -0.00079664146 0.034481883
000210 db b2 7f bd b8 50 2d 3e 1e b0 b8 bd 91 87 05 3c
       -0.06242643 0.16925323 -0.09017967 0.008149997
000220 20 b2 48 3d be 89 23 bd 9a d4 d4 3c ae 03 bf 3d
       0.048998 -0.039926283 0.025980283 0.09326874
000230 66 44 a7 3c 21 db 94 bd 76 5c e1 3c cb cc 43 bd
       0.020418357 -0.07268358 0.02750991 -0.047802728
000240 90 9e c3 bd 8d f4 26 be 8f fc f7 3c 8d 21 a5 3d
       -0.09551728 -0.16304226 0.030271797 0.0806304
000250 b2 93 12 be a8 ef a5 bd 88 9f de 3d 9b 44 6c bc
       -0.14314154 -0.081023514 0.10870272 -0.014420654
000260 b2 2f 24 bd 7b 8a 91 3d 4f 08 bc 3d 71 4b 13 3d
       -0.04008455 0.07106491 0.09181272 0.03596062
000270 82 0a 3e 3e 69 13 9d bc db 9b 2e be 6d 32 3b 3d
       0.18558696 -0.019174295 -0.17051642 0.045702387
000280 88 01 a1 3c 0e 85 a4 bd 6c 0b 3e bd 95 9f 2f 3d
       0.01965405 -0.08033191 -0.04639761 0.0428768
000290 a4 c4 c4 3c 3e d1 05 be 56 2b 05 be 3b 64 9c 3d
       0.024019547 -0.13068101 -0.13004813 0.07636305
0002a0 0b be 13 bc 79 fd 75 bd 86 03 79 bd ee 12 5a bd
       -0.009017478 -0.060056183 -0.060794376 -0.05324071
0002b0 10 ef 1e 3d d5 e6 0c be df 63 2f 3d bb a8 d0 3d
       0.038802207 -0.1375993 0.042819854 0.10188433
0002c0 d8 79 4c 3d c7 cf 1b bc 09 89 0f 3e e5 80 c8 bd
       0.049920887 -0.009509987 0.14017119 -0.0979021
0002d0 46 a5 18 3e e2 31 50 3d 5e fa 4c 3d c0 38 cd bc
       0.14906797 0.050828822 0.050043456 -0.025051475
0002e0 bd 2f fa 3d 32 8c 05 3e fe 49 31 3e 03 ce d3 bb
       0.122161366 0.13041762 0.17313382 -0.0064637675
0002f0 de 73 3f 3d 54 17 91 bd de 4d 33 3c a1 81 56 3c
       0.04674136 -0.070845276 0.010943858 0.013092429
000300 b0 87 ef bc 17 ed 18 3d 1c 68 a8 3d 0b 6f 48 bd
       -0.029239506 0.03733548 0.08222982 -0.048934024
000310 b2 9b 8c 3b 2e a9 8c bc 96 23 7b 3d fb b3 f9 3b
       0.0042910213 -0.017170515 0.061313234 0.0076203323
000320 06 1f f0 3a 14 13 ed bd 45 9b 2f 3d ed 35 ce bd
       0.0018319793 -0.115759045 0.042872686 -0.10068879
000330 81 69 97 bd df 7f 58 3d 24 af fa 3b 41 49 9e 3d
       -0.0739317 0.052856322 0.007650273 0.07728816
000340 57 07 a9 bd 6b 53 cc bc 44 5b 57 3d 69 84 4d bd
       -0.08253353 -0.02494212 0.052577272 -0.050175104
000350 07 c3 26 3e c0 8f b6 3c 5f 30 96 3d 0f e3 09 3d
       0.16285335 0.022285342 0.07333445 0.033663806
000360 a2 ea 10 3e 03 83 a5 3d bc b3 f8 bb 40 47 ef bc
       0.14152005 0.08081629 -0.0075897854 -0.02920878
000370 0e ff 8b 3d f5 8e dc bd f2 8e 07 bd 84 11 8b bd
       0.06835757 -0.107694544 -0.033095308 -0.0679045
000380 29 d4 eb bd ad b2 21 3d 3f ac c9 3d 0d 69 01 3e
       -0.11515076 0.03947704 0.098473065 0.1263773
000390 2b 9b 92 bc 69 76 bb 3d fc 7a 8f 3c 4a 0f 8c bd
       -0.017896255 0.09153444 0.017514698 -0.06838854
0003a0 ca c3 98 bd 82 ef 28 3e 64 39 06 3d 5b ff d0 3b
       -0.07459219 0.16497615 0.032769576 0.006378097
0003b0 df ef 56 bd be 95 18 be 77 74 95 bc a7 8e 9c 3c
       -0.052474853 -0.14900872 -0.018244011 0.01911099
0003c0 1c 37 59 3d 1c 65 3d 3c a4 70 17 3d ee a6 96 bc
       0.053031072 0.011559751 0.036972657 -0.018390145
0003d0 49 ff 2c bb 3e ea d2 bd eb 87 03 3b 75 ab 19 3e
       -0.002639728 -0.102985844 0.0020070027 0.15006812
0003e0 b8 89 47 bd 29 94 af 3c ee 29 5a bd ed ad bd bd
       -0.048715323 0.021432953 -0.053262644 -0.09261689
0003f0 a5 5c e7 bd 8e fb 28 3e 2d 74 77 b9 9b 1e 76 3d
       -0.112969674 0.1650221 -0.00023599034 0.06008778

dec_mu.bias f4 [20]
000000 ba d6 4c bc 5a 7e 6e 3c 79 23 99 3d 18 b4 0d bd
       -0.012502367 0.014556492 0.07477469 -0.03459558
000010 4b 00 ae bb 3c 78 76 3c c9 a5 58 3d d3 23 2c 3d
       -0.0053100935 0.015043315 0.05289248 0.042026352
000020 3a 95 92 3d 3d 8c 2b 3a 27 8f b6 3b ab 60 5f bd
       0.07157369 0.00065440295 0.0055712643 -0.05453555
000030 f0 1b 60 bd 25 6b 6c 3d 04 46 86 3b d3 83 5b 3d
       -0.054714143 0.05771937 0.004097702 0.053592514
000040 10 86 ed bb 97 38 e5 3b 0f 7b 3a 3c 9d 87 12 bd
       -0.0072486475 0.0069952714 0.0113818785 -0.035773862

dec_log_var.weight f4 [20, 100]
000000 d8 21 0f bd ab 7b 32 be 77 b9 f0 3d df b5 1d be
       -0.034944385 -0.17429988 0.117541246 -0.1540141
000010 82 89 5f be 7a 21 cc bc fe c6 6c bc 86 de 90 bd
       -0.21829799 -0.024918307 -0.01445174 -0.07073693
000020 7c 23 25 bc a3 41 f6 bd f2 68 41 bc 79 f3 a3 3d
       -0.010079261 -0.12024238 -0.011804806 0.08005423
000030 e9 bd 15 be 3b cf d8 3d 93 9b 54 be 4d bf a9 bc
       -0.14623226 0.10586401 -0.20762472 -0.020721102
000040 62 7d 07 3b a3 7c 0a be dd 7a 2c 3e 7b f6 09 be
       0.00206741 -0.13524108 0.16843744 -0.13472931
000050 a3 41 07 be 29 0f fb bc b2 c2 a3 3d 13 a8 99 3c
       -0.13208632 -0.030646877 0.079961196 0.018756902
000060 00 71 0a bd da 18 8e 3d 66 db 2d be a5 a9 a9 3d
       -0.03379917 0.06938334 -0.16978225 0.0828431
000070 10 e8 27 bc af 6c 7f 3d 4a a1 a7 bd 03 8b 02 3d
       -0.010248199 0.062359508 -0.0818506 0.031870853
000080 4b 42 e1 3d 61 8d 26 be e1 2d 0a be d1 eb df 3d
       0.109989725 -0.1626487 -0.13494064 0.1093365
000090 71 18 bf bd 8c 52 b0 bd 50 0a 32 3d 47 ce 4c 3d
       -0.09330834 -0.086094946 0.043466866 0.05000141
0000a0 40 33 7f bd 89 5f 87 bd 9a 93 94 3d a9 c5 1c 3e
       -0.062304735 -0.06610019 0.07254715 0.15309776
0000b0 80 f0 d8 3c d3 83 8d bd 8e cd 06 3d e2 ea b7 bd
       0.026481867 -0.06909909 0.032910876 -0.08980347
0000c0 8f 7d 9f bc 9a 09 41 bc 65 b4 1c bd dd f5 9d bc
       -0.01946905 -0.011782074 -0.038257975 -0.019282276
0000d0 e3 1e f1 3a e3 d9 4b 3d bf 7f f3 bc ea e0 c5 3c
       0.0018396046 0.04976834 -0.029724 0.024155099
0000e0 ff 43 c1 bc 76 9d 19 3d 97 ef 4d 3d 88 c6 f8 bd
       -0.023591993 0.037503682 0.05027732 -0.12147242
0000f0 b1 b5 e6 3c fd ea 97 bd 6c 31 8d bd 48 2c 5c 3d
       0.02816281 -0.07417867 -0.06894192 0.053753167
000100 0b 55 34 ba db 93 16 bc b2 d4 17 be d9 8b da 3d
       -0.00068791275 -0.009190525 -0.1482723 0.10671205
000110 14 79 12 bd 6b 22 8d bd 97 53 bc bd 63 b1 16 bd
       -0.03576 -0.0689133 -0.09195631 -0.036790263
000120 8f 42 97 3c f7 0e 92 3d f7 63 05 be b4 ad e7 3d
       0.018464355 0.071317606 -0.13026415 0.11312428
000130 f0 4e 01 3e 63 50 d2 3c bc 51 8c 3d 62 e9 8c 3d
       0.12627769 0.025673097 0.06851527 0.06880452
000140 04 f4 21 3e aa 18 e2 3d 5b d8 04 3d a6 e0 4e 3c
       0.15815741 0.110398605 0.032432895 0.012626803
000150 fb 13 74 bd 33 f8 cb bd 29 19 b4 3d 14 ba 98 bc
       -0.059589367 -0.099594496 0.087938614 -0.018643416
000160 67 49 55 be 7a 83 a6 bd d4 ad f2 3d 89 24 b0 3d
       -0.20828782 -0.08130546 0.11849561 0.086007185
000170 ff 9f 77 bc cb f7 0f be d1 7d b7 3c 6b ed d7 bd
       -0.01511383 -0.1405937 0.022398861 -0.10543331
000180 01 16 3f bd 9d bf 35 be 6e a4 98 bd f8 39 36 3c
       -0.046651844 -0.17748876 -0.074532375 0.011122219
000190 ff a8 68 bd 9a fa 01 be 2b 93 43 3e b0 b1 58 be
       -0.056801792 -0.12693253 0.19099109 -0.21161532
0001a0 02 e4 14 be 56 8e b8 3c aa 6f 26 be 8f 45 20 be
       -0.14540103 0.022528809 -0.16253534 -0.15651534
0001b0 bf 7d 1f 3d 7c 21 65 3c db 6d 53 3d 18 09 fd 3c
       0.03893828 0.013985034 0.05161844 0.030888125
0001c0 20 37 1a 3d c5 b4 51 3e f2 3e d7 bd ce 8d 78 bd
       0.037650228 0.20479114 -0.10510053 -0.06068211
0001d0 88 22 c9 bc f9 83 08 be 88 ba 21 3e 6d 43 06 be
       -0.024552599 -0.13331594 0.15793812 -0.13111658
0001e0 c5 64 84 be 35 53 ea 3d 17 f3 9a 3c 62 5b 8f bc
       -0.2585813 0.11441652 0.018914742 -0.01749963
0001f0 6b 0f 4f be 61 51 31 3d 69 41 95 bd ca 8a a2 3d
       -0.20220725 0.0432905 -0.072878666 0.07936628
000200 8b 26 99 bd 3a 23 8f bd 61 e2 27 3d b5 25 5b bd
       -0.074780546 -0.06989141 0.040987376 -0.053502757
000210 57 cd 3d 3e 96 ca 71 be 27 8a ea bd ed 49 44 bd
       0.18535362 -0.23612437 -0.11452132 -0.047922064
000220 55 54 92 bd 63 c5 6e be c7 4a 0a 3d e4 d0 7d 3c
       -0.07144991 -0.23317485 0.03376272 0.015491698
000230 2a 19 a4 bd 38 98 dc 3c bc 63 f7 bc 61 4b 88 3d
       -0.08012612 0.026928052 -0.030198924 0.066550024
000240 dc 3c 1b 3d 42 a6 13 be 8b 71 d8 3b c9 3e f2 bd
       0.037899837 -0.14418891 0.0066053323 -0.118283816
000250 ac c6 f7 3d f2 cf ec 3b e5 88 6d 3b db 2d 55 be
       0.120984405 0.0072269375 0.0036244926 -0.20818274
000260 ef 35 00 be 2b c2 58 3d 06 90 5b bd f3 98 d6 ba
       -0.12520574 0.052919548 -0.05360415 -0.0016372487
000270 97 c9 9b bd 42 ce af bc 01 bf 03 3e 68 9f 11 be
       -0.076068096 -0.021460656 0.12865831 -0.14220965
000280 f6 a3 8b bd 5f c8 41 bd d5 67 04 3d 29 39 44 3d
       -0.068183824 -0.04731023 0.032325584 0.047906075
000290 83 e5 6b 3c f9 14 9a 3d f0 2e 8b be b8 ce a2 3d
       0.014397982 0.075235315 -0.27184248 0.07949585
0002a0 a4 44 44 be a0 08 da bd 4f ce 96 bd 50 22 fb bc
       -0.1916681 -0.10646176 -0.07363569 -0.03065601
0002b0 23 64 9c bd 35 39 cc 3d 04 52 b9 bd 19 7e b1 3d
       -0.07636287 0.09971849 -0.09048846 0.08666629
0002c0 50 d9 d1 3d ac b5 89 bd 01 70 78 3d 8f cb d2 3d
       0.10246527 -0.06724104 0.06065369 0.10292732
0002d0 77 fc 28 3e 31 f2 49 3e b5 2e bd bd 60 09 bf 3c
       0.16502558 0.19721295 -0.09237424 0.0233199
0002e0 9a 73 88 bd c6 15 ed 3b 9a f8 a9 3d 0b 45 9e 3c
       -0.06662674 0.0072352616 0.0829937 0.019320032
0002f0 23 4c e8 bd f0 a2 be 3c de 97 e3 3a 58 d6 62 3e
       -0.11342647 0.023271054 0.0017363986 0.22152078
000300 e8 b5 d8 3a dc 79 b7 bd e3 0c d6 bd 19 d7 a9 bd
       0.0016533704 -0.0895879 -0.10451677 -0.0829298
000310 1a cb 83 bc f6 81 82 be e1 4d 6c ba 23 03 39 3d
       -0.016088057 -0.25489777 -0.00090142904 0.045169007
000320 7f 52 d3 bd 17 e8 e0 bd 29 75 10 3e 5a e6 c6 bd
       -0.10318469 -0.109817676 0.14107193 -0.09711905
000330 f3 95 21 be 63 7f 25 3e d5 04 ac bd c4 55 21 be
       -0.15779857 0.16161875 -0.08399359 -0.15755373
000340 5b c7 be 3d d4 a4 01 bd 06 80 fe bc 54 ce 60 bd
       0.09315368 -0.031651333 -0.031066906 -0.05488427
000350 2d af 73 bd a3 b0 00 3e 97 7d 58 be 40 79 11 3d
       -0.059493233 0.12567382 -0.21141659 0.035516024
000360 e7 1b 63 3c 2c 72 20 bd 0f 74 73 3e 1c a4 56 be
       0.013861633 -0.039171383 0.23774742 -0.2096104
000370 88 4a f2 bd 2d ad 36 bd 9d 21 87 bc d4 4d ca 3c
       -0.11830622 -0.044598747 -0.01649552 0.024695314
000380 cf 18 8c bc 00 36 de 3d a3 7a 29 bd 72 f9 31 3c
       -0.017101673 0.108501434 -0.04137672 0.010862695
000390 89 a1 ab 3c 85 08 bc 3c 6f 51 e6 3d 21 0d c5 3d
       0.02095105 0.022953281 0.11246001 0.09621645
0003a0 9c df c9 3c a9 29 79 bd 27 b6 0a be fe d3 20 3d
       0.024642758 -0.060830746 -0.13546048 0.03926467
0003b0 8f 8c c8 bd f0 e6 0d bd 0a 26 b4 3c bf cf b5 3d
       -0.097924344 -0.034644067 0.021990795 0.08877515
0003c0 e0 c0 bd bd 77 ab fc 3c c1 fe bf 3d ca ba 54 3c
       -0.092653036 0.03084348 0.09374762 0.012983987
0003d0 9b e4 cf 3d ad ab 45 be c7 c4 a8 bd f5 ac cb bd
       0.10151025 -0.1930377 -0.08240657 -0.09945098
0003e0 0c ba 64 3d 94 07 8f 3b 8a e0 97 3d e4 29 34 bd
       0.05584149 0.004364917 0.07415874 -0.043985263
0003f0 84 f2 04 bc c7 1f 03 bc a4 4d b5 bb 87 e9 4a bd
       -0.008114461 -0.008003182 -0.005532937 -0.049539115

dec_log_var.bias f4 [20]
000000 0a fa 0d be 12 19 ae bd fd 8d 22 be 8e 10 e3 3c
       -0.13864914 -0.085008755 -0.15874477 0.027717855
000010 ca 33 bb bd a6 9b 39 bd 66 4a 15 bd 99 1c db bc
       -0.09140737 -0.045314454 -0.036447905 -0.026747035
000020 c7 45 21 be 40 ca bb bc 36 57 cc bd 2f 2b 04 3e
       -0.15749274 -0.022923589 -0.09977572 0.12907098
000030 bf 7b 85 bd 41 ad 33 3d 2d 7d 6a bd 41 ec 02 bd
       -0.06517743 0.0438664 -0.057248283 -0.03196359
000040 ff 2c e3 3d 14 ee 88 3b 8f 9f 8c bd a5 6b b4 bd
       0.11092567 0.0041787717 -0.06866371 -0.08809594
