vae/saved_models/free_endpoints/free_nepochs400_lr0.001_N20_n2000_b150_s3_testTrue.pt (torch, 22905 bytes, 36 tensors)

enc_shared.weight f4 [15, 20]
00000000: 2ed1 56bc ad94 0fbe 4338 ca3c 2c93 303d
00000010: e295 833c 7612 923c 73ce fc3e aaee 363c
00000020: e65d 39bd 217f 7aba 5ebf d3bc 5cf5 a2bb
00000030: eff5 733d 26aa 5d3d 5a99 d3bd e979 903d
00000040: fdbc 553c 0e90 4d3c 32b7 af3d f75a 1bbe
00000050: 0322 8fbe b9ed fdb9 1f39 4f3c e918 cb3d
00000060: 6e16 1dbb dc6b b73d 2e2d 05bd 451d 78bd
00000070: 9f8e bf3c 6cff 8b3d b1ed 82bd eff2 aeba
00000080: d78e c73c 6758 b13b b313 aa3d e99c 193d
00000090: fa85 8dbd 1e7e bcbc 03f0 20be e3c5 e3be
000000a0: 69fc f03e 2fb0 8c3d 8c0e 8abd 7735 813d
000000b0: 4b69 9dbd b96a 0ebe a1f6 d23e ef55 f9bd
000000c0: 7de4 04bc deef 9fbc 548e 223c d624 6dbd
000000d0: 2a03 84bc 9c68 3abd 725b a4bc e826 f8bc
000000e0: cd63 febc 7fe0 b93d 738d 99bd 0ef4 833e
000000f0: 2cdb 93be d9ed dabc 5317 7fbd 6ee0 053e
00000100: f032 12be 09f7 133d 7d03 e63d af27 c2bc
00000110: ab12 2e3c 00a4 a43d f736 bdba 058c 013e
00000120: 3d80 49bd 6845 43bd 3cc6 bb3c 5a82 87bd
00000130: 1ed5 1ebd 7de0 d43d f94e 44bd a152 7bbe
00000140: 8217 843e 6c4f 623d 1817 3fbd 01b9 67bc
00000150: 008f 67bd 0349 3c3c 5785 693c 770d 0d3d
00000160: 42d4 3d3c 16e2 513d 9015 783d 7b6a d73d
00000170: 4c09 3ebd e9d1 823c c48a a8bc ca10 5cbd
00000180: 492a 863d bbdd e53c c1ae 34bc ad07 003f
00000190: be46 ba3e 6a3f 6a39 6fbd 143b 8996 35bc
000001a0: f537 d23b ee1d 8d3d d241 ef3e f31e 1fbe
000001b0: bad6 523d d646 a93d 5732 89bc 020c ce3d
000001c0: d0bc 0c3d ec7b aabc 21f0 183d e48c 6c3d
000001d0: 5671 53bc 2420 97bb 59dc 91bd 0ab5 9b3c
000001e0: 9bad 7c3d 2942 ee3d 86ab a2bd 339f 84bd
000001f0: 16aa 43bd 3bd4 09be a986 3cbf 9cbf 84bd
00000200: 9232 153d de51 2dbc f878 833d 7230 17be
00000210: 8823 36bd 9116 d6bd b878 db3d d236 9ebd
00000220: a7f1 20bd 8ed0 7b3a 1663 26bd 10c4 1f3e
00000230: 9365 1fbe 9c38 1abc 68ae 55bd 9bd1 003d
00000240: 50e8 79bd 25fc 35be 4ea8 08bf bff2 153e
00000250: 66b8 5fbd e150 a53b 34b1 dc3d 8b7e 3fbe
00000260: 16f1 71bc 4041 273d eda8 f1bd bf4b dbbd
00000270: d9bd a93d e8ff 473d 37db 903c 47ee 6ebe
00000280: 9e07 5abe 1aa8 4abe 03b6 8ebc 6862 a3bd
00000290: a5d0 11bd 434f bdbd 673f 523e ef4b 473e
000002a0: 1dd9 8ebc 555b 223e bcc0 d73b f354 d6bd
000002b0: 7e21 a83d 0b89 d23c 82e8 623d 9c50 53bc
000002c0: ac20 a4bc bd22 67bd d87f 93bd 67f2 23be
000002d0: 8337 323e e2b5 323d 50ad 46bd e75b 313d
000002e0: 8aa1 78bd 4326 14be 2987 ba3e a6a5 3abd
000002f0: 100e 12bd 279d afbd 70ff 47bc d309 bcbd
00000300: b798 08bd b76a 82bd ffc8 ccbb 236b 07bd
00000310: c1c0 0fbd cb4f b83d 6647 fc3c d9a0 e93e
00000320: 2f39 b93d 86eb 253d d960 143d bd39 8b3d
00000330: 95a7 9e3d 41bd ce3d 7025 47bd e239 273d
00000340: 1eea 9c3d 583f ce3d aa18 f7ba d9ca 37bd
00000350: 04fa 85bc 4198 303e 0b73 2b3e 4642 303d
00000360: f10b e13c 520b 08be 5cca b2bd 5a4d bf3e
00000370: 5eee f6bd 24fe 1f3e add3 07bc ed04 74bd
00000380: 6ac8 22bc 9f55 8ebd 5325 1b3e 2dc9 f8bd
00000390: 9d98 9c3d dcaa 9cbd 3395 a1bc 5ec4 e03d
000003a0: ad25 62bd 239a 823c fa52 24bd f89b 623b
000003b0: 73f6 cd3d ede3 8fbd 9625 70bc 2afe 18be
000003c0: b7fa dc3e 17dc cbbc f848 0ebd e632 8bbd
000003d0: 367d 93bd e93c 913d c24c b1bd c887 b53d
000003e0: 31bd 68bd aba9 af3d d405 233d bb9d 8d3d
000003f0: 396e 713c 93f9 cebd 8c0a 13bd 0b6f bebc
-0.013111396 -0.14021559 0.02468503 0.043109104 0.01606268 0.017831068 0.49376258 0.0111653
-0.045255564 -0.0009555687 -0.025848087 -0.004973097 0.059560712 0.054117344 -0.10331984 0.070545025
0.013045547 0.012546552 0.085798636 -0.15171419 -0.27955636 -0.00048433038 0.012647896 0.099168606
-0.0023969668 0.089561194 -0.03251379 -0.06057479 0.023383437 0.06835827 -0.06392992 -0.0013347546
0.024360104 0.0054121497 0.083045386 0.037503157 -0.069103196 -0.023009356 -0.15716557 -0.44486913
0.47067574 0.06869542 -0.06741056 0.06309026 -0.07686099 -0.13907899 0.41203788 -0.12174594
-0.0081111165 -0.019523557 0.009921629 -0.057896458 -0.01611479 -0.04550992 -0.020063136 -0.03029199
-0.031053448 0.09076022 -0.074976824 0.25772136 -0.28878152 -0.026724743 -0.062278103 0.13073894
-0.14277244 0.036124263 0.11231134 -0.023700563 0.010624568 0.08039093 -0.0014435936 0.1265107
-0.049194563 -0.047673613 0.022921674 -0.066166595 -0.038777463 0.1039438 -0.047926877 -0.24543239
0.25799185 0.055251524 -0.046652883 -0.014143229 -0.05653286 0.011492017 0.014252982 0.03443667
0.011586251 0.051241003 0.06056744 0.105183564 -0.046395585 0.015969234 -0.020573981 -0.05372695
0.06551034 0.02805983 -0.011027993 0.5001171 0.36382097 0.00022339603 0.002269592 -0.011083254
0.006415362 0.06890474 0.46729904 -0.1553915 0.05147431 0.08265464 -0.016747637 0.10060884
0.034359753 -0.020811044 0.03733838 0.05775155 -0.012905439 -0.0046119858 -0.07122106 0.019007225
0.061689 0.11633713 -0.07942872 -0.06475677 -0.04776963 -0.13459866 -0.73642975 -0.06481859
0.03642518 -0.010578601 0.06419557 -0.14764574 -0.04446748 -0.10453523 0.10716385 -0.077253
-0.039292958 0.0009605967 -0.04062184 0.15602136 -0.15566091 -0.009412911 -0.05216828 0.031449895
-0.061012566 -0.17771967 -0.5338181 0.14643382 -0.054619215 0.005045042 0.10775986 -0.18700616
-0.014766952 0.04083371 -0.11799798 -0.10707807 0.08288164 0.048828036 0.017682655 -0.23333083
-0.21291968 -0.19790688 -0.017420774 -0.07977754 -0.03559937 -0.092436336 0.20531999 0.1946256
-0.017437512 0.15855153 0.006584255 -0.104654215 0.08209513 0.025700113 0.055397518 -0.012897637
-0.02003511 -0.056429613 -0.07202119 -0.16010438 0.17403989 0.04363049 -0.048505127 0.043300536
-0.06070093 -0.1446772 0.36431244 -0.04556813 -0.035657942 -0.08574896 -0.012206897 -0.09181561
-0.033348765 -0.063680105 -0.0062495465 -0.033061158 -0.035095934 0.08999594 0.030795764 0.4563053
0.0904411 0.040507816 0.036225174 0.06798122 0.077468075 0.10094691 -0.048619688 0.040826686
0.07661842 0.100706756 -0.0018851955 -0.044871185 -0.016354568 0.1724558 0.16743104 0.043031953
0.027471514 -0.13285568 -0.08730003 0.37363702 -0.12057184 0.1562429 -0.0082902135 -0.05957501
-0.009935478 -0.06949925 0.15150957 -0.12147746 0.07646296 -0.07649776 -0.019724464 0.10974954
-0.05521171 0.015942639 -0.040118195 0.0034577828 0.10056772 -0.07025895 -0.014657399 -0.14940706
0.4316003 -0.02488522 -0.034737557 -0.067968175 -0.072016165 0.07091696 -0.086572185 0.08863789
-0.056821052 0.085772835 0.03980048 0.0691485 0.014735752 -0.10106196 -0.03589873 -0.023246309

enc_shared.bias f4 [15]
00000000: 0a89 253f 0442 10bf 2ac2 4b3f f58d d33e
00000010: 98d7 67bf 5870 05bf 06c1 313f cadd 5fbf
00000020: cae8 bbbd 6167 37bf 3b20 ce3e cb5f 9c3e
00000030: 1953 523f c084 603d 5b2b 18bd
0.6466223 -0.5635073 0.79593146 0.41319242 -0.90563345 -0.5212455 0.69435155 -0.874478
-0.0917526 -0.7164212 0.40258965 0.30541834 0.82158047 0.0548141 -0.037150722

enc_mu.weight f4 [3, 15]
00000000: 4863 63be 0504 46be 9f81 813e e403 42bf
00000010: e3fc 59bd c4bb 10bf 9ef9 813f e178 303f
00000020: 974f 0f3f 8923 0b3f e822 9e3e d5c1 9a3d
00000030: 8048 61be 44ed 5d3f 1d74 3cbf 3e40 c7be
00000040: d8c0 a6be 7f51 7abd c6b5 a5be dd48 dd3e
00000050: e271 fbbd d52c 3a3e 0da3 a93d 0e41 c3be
00000060: d8e0 eabc f50b c53e 6708 f5be 9ce4 cf3e
00000070: bc24 c2be faf1 573e 16ce b0be a186 f73e
00000080: 97fc 0fbf 77a1 943e d003 12bf 8b78 2bbf
00000090: d5c6 363e c04c 903e 8e45 a7bc b504 22bf
000000a0: 4dcc 89be aa9a 4f3e ab29 4abe f593 a5be
000000b0: 253f fdbd
-0.22205842 -0.19337471 0.25294206 -0.75787187 -0.053219687 -0.5653651 1.0154302 0.68934447
0.5598082 0.543511 0.30886006 0.07556502 -0.22000313 0.86690164 -0.73614675 -0.389162
-0.32569003 -0.061112877 -0.32365245 0.43219653 -0.12277581 0.18181165 0.082830526 -0.3813557
-0.028671667 0.38485685 -0.47857973 0.40604103 -0.3791865 0.210884 -0.3453223 0.483449
-0.56244797 0.29029438 -0.5703707 -0.6698081 0.17849286 0.28183556 -0.020418908 -0.6328843
-0.26913682 0.20273843 -0.19742458 -0.32339445 -0.123655595

enc_mu.bias f4 [3]
00000000: 0928 183d 97c2 cc3d 88ee 0bbe
0.037147556 0.099980526 -0.13665211

enc_log_var.weight f4 [3, 15]
00000000: cf8c 6dbe e893 603d 6563 2ebe fc75 aebd
00000010: 901d ba3d d0ca 913e 3b62 9bbe a6ca d23d
00000020: c281 123d f5f9 d13d 47b3 a0bd fe8d febd
00000030: 489b 6fbe cefd 883d d2b7 89bc 5780 afbf
00000040: 1a70 593f 283c 5bbf 8586 43bf b63e a93f
00000050: a45b 9b3f b7a6 8abf 259b 943f 5265 2d3e
00000060: 62c7 923f 2480 45bf c07b 24bf e4f9 cabf
00000070: f1ea 8abd d9e2 f0bd 52a7 80bf 3822 803f
00000080: ea6a 05bf 91ba 4abf fba8 b63f 3ca8 963f
00000090: f3f6 6bbf a324 933f 8bdc 513e adc2 533f
000000a0: 8dd8 3ebf eaab e5be d4de a1bf fe4e e439
000000b0: 29c4 d6bd
-0.23198245 0.054828554 -0.17030104 -0.085185975 0.0908767 0.28475046 -0.3034838 0.10292558
0.035768278 0.10252754 -0.078466944 -0.124294266 -0.23399079 0.066890344 -0.016811285 -1.3711041
0.8493668 -0.85638666 -0.76377136 1.3222263 1.2137341 -1.0832127 1.1609846 0.16933182
1.1467097 -0.7714865 -0.6425133 -1.585751 -0.06783093 -0.11762018 -1.0051062 1.0010443
-0.5211626 -0.7919093 1.4270319 1.1770091 -0.9217369 1.1495556 0.20494287 0.82718927
-0.7454918 -0.44857723 -1.2646127 0.00043546403 -0.10486633

enc_log_var.bias f4 [3]
00000000: 099b 66bf 27bd afbf 03f5 b0bf
-0.90080315 -1.37296 -1.3824772

dec_shared.weight f4 [15, 3]
00000000: 4939 8b3e 9116 b7be 4cf5 2cbe 2924 b33d
00000010: 8aa7 853e d40b b83e 69ad 393e dbc4 aabe
00000020: 3822 aebe 8b99 b13d 631b 2e3b 057a 02bf
00000030: e824 5bbe 0c21 0c3f 7928 603e ebaa 65be
00000040: ee54 c2be ce02 863d 94a8 01be da45 b9b9
00000050: 2e57 263e ccd7 1a3b 2f8b dc3e 83d7 4cbe
00000060: 7b73 26bc 06d1 0e3e dca9 b1be 1141 8fbe
00000070: f4ef f43d 6759 61be bd18 8e3d 03ac 48bf
00000080: 4522 a9be 2cb9 62be bc49 a73e cc2f bbbe
00000090: 05b8 b73d 5ab4 073f 47df e03e 3332 243e
000000a0: b87b 7b3e 36a8 0fbe 4b6c 49be 7d3c d3be
000000b0: 060e f43c
0.27192143 -0.35759404 -0.16890448 0.087471314 0.26104385 0.35946524 0.18132557 -0.33353314
-0.34010482 0.08671864 0.0026566617 -0.5096744 -0.21400797 0.54737926 0.21890439 -0.22428481
-0.3795542 0.06543504 -0.12661964 -0.00035337993 0.16244194 0.002362716 0.4307494 -0.20004086
-0.010159369 0.13946924 -0.34699905 -0.2797933 0.1195983 -0.2200676 0.06938312 -0.7838747
-0.33033958 -0.2214095 0.32673442 -0.36559904 0.08970646 0.5300957 0.43920347 0.16034774
0.24558914 -0.14029011 -0.19670217 -0.41257086 0.029791843

dec_shared.bias f4 [15]
00000000: 4b20 ce3e b3c7 523f 76c9 13bf 6841 693f
00000010: 58b4 2abf db65 333f 685d 93bf 7640 2a3f
00000020: 2fe6 1ebf 261c 323f c163 1dbf 8f09 9abf
00000030: cd4e 48bf 7dcf 4abf 4e7b 6dbf
0.40259013 0.82335967 -0.5772928 0.91115427 -0.6668143 0.70077294 -1.151288 0.6650461
-0.6206998 0.695742 -0.6148034 -1.2034167 -0.7824524 -0.7922285 -0.92766273

dec_mu.weight f4 [20, 15]
00000000: df28 0bbe ca86 7fbe aec6 6e3d a596 cf3e
00000010: ecbb f23d 7f00 bfbe db76 1dbe c249 373e
00000020: 4eb0 bb3e 8818 c93e 8b8c 43be 48f0 753e
00000030: 6ac2 ef3c ac33 a33e 3069 d6be d426 0a3f
00000040: bad6 c63e fd8f b73e 4139 60be fd5c 96be
00000050: bf75 923c 66d7 89be df0a afbe ea9d 11bf
00000060: 62d0 4cbf 1cb2 3d3e 8218 b4be 3286 123e
00000070: f87c 9c3e 60e4 8dbe 4e71 cbbd 80de 343e
00000080: 50e7 36be 8f3f 01bd e29a 823e 45dd eb3c
00000090: 318a 9a3d 0a98 e53d bd65 c7bd bb05 dbbd
000000a0: d774 10be 0083 593d d870 553e 4ee8 893d
000000b0: 664b d13d f14e b4be 0ae1 62be 7e6e 783d
000000c0: 114d 82bc 56c5 983d 7ec9 813e b36b a8bd
000000d0: 7d77 63be 735e dcbc 2ba2 7b3e a6ee b9be
000000e0: 648f b63d a580 ea3c f75c fabd 94d9 493e
000000f0: 0d0c bf3e 8f43 2fbd b39d 423e 8c26 5b3d
00000100: 0e3a d8bd 4b81 09be 5466 ffbd cb09 9e3e
00000110: 9771 0b3d 49eb a3bd 4c41 8d3e 0366 c1bd
00000120: 703e 88be d0c2 0e3c 61d6 263e d983 dbbe
00000130: cd8a 583e 43dc f6be 19ae 6dbe 1cc9 923e
00000140: 74d0 fc3d 6cff 06be d9a8 a63e fd08 813e
00000150: 7818 bb3d fd6f 03bf a713 1a3e 0b22 083f
00000160: 5511 203d 3093 093e 7d25 093d 66b2 19bf
00000170: b740 2d3f 029c 993e 5d23 e2be 0853 b93e
00000180: 2c19 7bbe 6a10 32bd 8598 053e 0539 ef3c
00000190: f0d1 2c3e c6e6 2b3b b6cd 08bf 1595 1dbe
000001a0: b243 1e3f 2047 593d 7abe c33e ef39 c23d
000001b0: 5d57 8a3c 6bfc ebbc 4e7f d3be e89d f3be
000001c0: 09a9 093e eacb 8d3e eba0 1ebf e4df 93bd
000001d0: ec2a ddbe 3093 633e 3ca2 093e de32 5ebe
000001e0: f150 9e3d 9ecb 97be 8c55 ae3d 783a 8fbe
000001f0: a332 5ebb 7875 023f edc2 4a3e c225 3dbd
00000200: 0737 723e 4088 e13e f2a4 c83e e28a 5ebe
00000210: 5cb8 99be 673a 12be 9b9c 263e d0d9 47be
00000220: 9103 4ebe e82a c8bd 6439 163d 1284 753e
00000230: 2b67 b9bd 45df 50bd 79c4 1cbe fe3a 86bd
00000240: ec2a 8d3d b288 81be 3248 dc3c d000 8b3d
00000250: 1e81 263e 958d 463c 87be 1f3f c48d d43d
00000260: 4694 f33e 7943 053e d849 7abe 6d83 cbbd
00000270: 5c7b 0fbf c67d 30be d780 04be 6824 17bf
00000280: c4b1 113d dbd5 74be f8f1 ca3d 02d2 1d3e
00000290: 3ac2 00bd 58dd 01bf 43a0 62be 4453 88be
000002a0: 8dca 613d 63c6 b43e ba39 053f 79a4 ea3d
000002b0: 30dc f8bd 60de 3d3e d565 fe3e cbe4 01bf
000002c0: 114d 1c3e ff24 093e eb12 02bd ef33 c43e
000002d0: de3d 893c 5dc6 95bd aac3 d2bd 718c 34bd
000002e0: 4391 ccbd 4c69 6a3e f299 a93e 5578 db3d
000002f0: c129 cc3d 9347 d53e 25b1 3c3e 25cc 5f3e
00000300: 8268 63bd a060 febd ee10 e93d b8dd 423e
00000310: 6857 f63c b7a4 33be 864e 39bd 7ea3 903d
00000320: 199b 07bb ab80 36be a881 013e 7bf0 3abe
00000330: ff6a 7dbe bd8f 5ebe 9b18 b23d f1a0 a93d
00000340: 2c86 8d3e cfa1 b4bb 2f14 0b3f e953 a5bd
00000350: 1994 e53e 180c 643e 12a0 99be fa71 423d
00000360: cb8b 8bbe f1a2 54bd 7e02 843e 565e f2bb
00000370: e322 763e 0151 153d 9bd0 a7bd 148b 873e
00000380: e8ba 4bbe b0fe 2fbe 0302 2cbe d4e3 bcbe
00000390: 5c30 2ebe 1b87 11bd 0db8 843e eea0 b53e
000003a0: a7e1 76be 2fd1 3ebe 1d3e 373e afb3 1d3e
000003b0: 3152 40bc 645a e8bd 0e8c 9abe e72a 4a3e
000003c0: 767b a5bd fa6b d23e c825 67be 1b9b 883c
000003d0: 623c b93c 0fe9 b5bd f17b 19be 4a74 a03e
000003e0: 58bf 953e faa4 76be 28d4 983d 15b8 3dbe
000003f0: 78c3 ac3e df40 cb3e 9712 44be b3b6 bbbc
-0.1358981 -0.24953762 0.058294944 0.4054462 0.118522495 -0.37305066 -0.15377371 0.1789923
0.36657947 0.39276528 -0.19096582 0.24017441 0.029267509 0.3187536 -0.41877127 0.53965497
0.38835698 0.35852042 -0.2189684 -0.2936782 0.017878411 -0.26922148 -0.3418798 -0.5688158
-0.80005467 0.18524975 -0.35174948 0.14309004 0.30564094 -0.277133 -0.099337205 0.17663002
-0.17861676 -0.031554755 0.2550879 0.028792033 0.07545889 0.1121064 -0.09736202 -0.106944524
-0.14107071 0.053103447 0.20843828 0.06733762 0.10219459 -0.35216478 -0.22156158 0.06065225
-0.015905889 0.07459514 0.2534904 -0.08223667 -0.2221355 -0.026900506 0.24573581 -0.36314887
0.08914068 0.028625796 -0.12224763 0.19711906 0.37313882 -0.04278904 0.1900547 0.053503558
-0.10557948 -0.13428228 -0.124706894 0.30866846 0.034043875 -0.080038615 0.2758888 -0.09443285
-0.26610136 0.008713439 0.16292717 -0.4287403 0.21146698 -0.4821492 -0.23210944 0.2866906
0.12344447 -0.13183373 0.32550696 0.2520217 0.091355264 -0.51342756 0.1504656 0.53176945
0.03907903 0.13435054 0.033483017 -0.6003784 0.6767687 0.30001837 -0.44167605 0.3619616
-0.24521321 -0.043472685 0.13046463 0.029201994 0.1687696 0.002623008 -0.5343889 -0.15388902
0.61822045 0.053046346 0.3823126 0.09483706 0.016887361 -0.028806886 -0.41308063 -0.4758141
0.13443388 0.27694637 -0.6196429 -0.07220438 -0.4319681 0.22224116 0.13440794 -0.21699092
0.07730282 -0.29647535 0.085124105 -0.27974296 -0.0033904694 0.50960493 0.19800921 -0.046178587
0.23653804 0.44049263 0.39188343 -0.21732667 -0.30023468 -0.14280091 0.16270678 -0.19516683
-0.20118548 -0.09773809 0.036675826 0.23976162 -0.09052881 -0.050994176 -0.15309323 -0.065542206
0.06892952 -0.25299603 0.026889894 0.06787264 0.16260192 0.012118717 0.62400097 0.10378602
0.4757406 0.1301402 -0.24442232 -0.09937177 -0.56047606 -0.17235479 -0.12939773 -0.59039927
0.03556992 -0.23909704 0.09909433 0.15412143 -0.03143523 -0.5072837 -0.22131447 -0.26626027
0.055124808 0.35307607 0.5204121 0.11457152 -0.121513724 0.1854186 0.49687067 -0.50739735
0.15263774 0.13393019 -0.031756323 0.38320872 0.016753133 -0.073132254 -0.10291226 -0.044079248
-0.09988644 0.2289173 0.33125263 0.10716311 0.099689014 0.4165617 0.1842695 0.21855219
-0.05551959 -0.124207735 0.11380182 0.19029891 0.030070975 -0.17543302 -0.0452409 0.07062434
-0.002069181 -0.1782252 0.12647116 -0.18255799 -0.24747847 -0.2173452 0.08696099 0.0828265
0.27641428 -0.005512453 0.5432767 -0.08072645 0.44839552 0.22270238 -0.30004936 0.047471978
-0.2725509 -0.051913206 0.2578315 -0.0073964996 0.24036746 0.036454204 -0.08194085 0.26473296
-0.19895518 -0.17187 -0.16797642 -0.3689257 -0.17010635 -0.035529237 0.2592167 0.35474342
-0.24109517 -0.18634485 0.17894788 0.15400575 -0.011738346 -0.11345366 -0.30184978 0.19742928
-0.08080189 0.41098005 -0.22573006 0.016675523 0.0226118 -0.08882343 -0.14988686 0.31338722
0.29247546 -0.24086371 0.074623406 -0.18527253 0.3374288 0.3969793 -0.19147716 -0.022914266

dec_mu.bias f4 [20]
00000000: 35b7 b13c 95da 86be 9e95 4c3e fd5b ac3d
00000010: 05c9 61be 2922 1b3e 603e 633c 3ed1 89be
00000020: d291 a8bb fc1a a53e 13dc b1be b7dd 733e
00000030: e4aa ab3d b13c 86bd 6a32 4dbe 2d68 b53d
00000040: f814 a5bd 2eb5 263e 8ab3 513d c47b 57bd
0.021693805 -0.2633864 0.1997895 0.08415983 -0.22049339 0.1514975 0.013869852 -0.26917452
-0.0051443363 0.3224715 -0.34738216 0.23815046 0.08382204 -0.06554545 -0.20038763 0.088577606
-0.0806064 0.16280052 0.051196612 -0.052608266

dec_log_var.weight f4 [20, 15]
00000000: 2046 f9be b440 4ebf 9e7a 533f 5e1a 33bf
00000010: 8e47 253f 87ea 74bf 1398 683f 722b c4bf
00000020: 4a4f 383f f890 54bf de50 423f 9624 8d3f
00000030: 019a ff3e d9c4 533f 8859 3f3f 784b 89be
00000040: 861d d13c 01b1 a93e a8b9 a73e 989e 3b3f
00000050: cda2 303d 705c 863e 0cdd 57bd 1613 57be
00000060: f6e0 82be 0635 cf3e a507 8abd 049c c0bc
00000070: 233d c53e 0b35 003e e7d5 d3bd 6357 a3bd
00000080: 868a 293e 8002 1dbc 559f e63d c646 373e
00000090: 9ea9 803e d0c8 03bf 2f5b 0b3f 73e0 4fbf
000000a0: 874d d6be 0889 0a3f f12c 98be d32d 9cbd
000000b0: 0d68 713d 935b 163d 1c89 a8be fa62 5ebe
000000c0: 6f44 653e 4b3d aa3d 196b 29bd aa9a 583e
000000d0: 4929 02be 6725 81bc f01c 61be 5814 b73e
000000e0: 4295 9e3e 52bd 053f d9fa 2e3e 41c7 683e
000000f0: cd38 003d f5a5 8cbe 7f44 b5bd eab6 f8be
00000100: dc44 afbe 3471 313e ef98 ae3e 846a 193d
00000110: 06b9 093f 01fc fdbe 722c e1be 4a0d e23d
00000120: 36f9 6fbe 7f80 3b3e 2f67 4b3e daac 1dbe
00000130: cc2d 9cbe 3e19 9c3e 5aee b0be 8775 05bf
00000140: c80e 513d 745e 1e3f 677a 453e 9c46 b8bd
00000150: 124b aabe 684d 01bf d41e ab3e 1f38 fcbd
00000160: cc80 403e 303a 9f3d 4425 b8be db35 22bf
00000170: f84c 803f a0d3 53bf 8037 113f 35cb 42bf
00000180: ad4d 523f 1844 91bf 5270 3a3f f3b4 04bf
00000190: 3b20 763f 6f68 643f 8afd 783f c49b 283f
000001a0: 5910 373f f3ab ffbd 660d f6bd b0b4 6f3e
000001b0: 0041 68be 480f 7f3d e967 3ebc c8fd c13e
000001c0: 1bda a9bd 6993 d43d 3f4c aabc 66c6 73bd
000001d0: d3f6 4a3d 1a49 71bd ea5e 3a3e 0641 5a3e
000001e0: 8d6c 17bc 9f00 003d a60c d3bb 7cd3 8dbd
000001f0: b200 fabd f95a 2c3e 2a86 1d3c 83f2 7ebd
00000200: 220b 7e3e a694 e3bd 6cad 4fbe 26a6 52bc
00000210: 3523 303c 7edb 633d fbb0 3e3e 7206 103c
00000220: bcbc c1be 7058 0fbc 9111 223d fe85 65bd
00000230: 8daf cbbe bbfe 423e 6d65 f1bd b88d 85bd
00000240: 040d 2ebd 90ac eebd ce14 19be 98ba 9d3d
00000250: 742c e83d c7e1 833e 1971 90be 2da0 e5be
00000260: 5782 833e 3d58 223e 2a70 09be 2bcd c4bd
00000270: 55e3 643e a781 59bd a1de cfbe a9d5 99bd
00000280: dcb2 97be 374f 5ebd b682 853d bfbf d23e
00000290: 10b2 b13e 79c3 bd3b 4dd1 f4be 9b28 873e
000002a0: a0f9 0cbe fc98 7d3e 18e1 2ebe 8697 9b3e
000002b0: c1e4 6d3d c498 343d 5bf0 58be a1e7 573e
000002c0: f9d4 0f3e d8d2 0c3f d528 083e 10cf b03e
000002d0: 3d27 99bd 1a51 a3be 0b9f 353e 5f02 9fbe
000002e0: beeb b7be 1954 3d3d 5709 be3e 767c 8f3e
000002f0: d699 143e feb6 66be 6101 1cbe b393 193e
00000300: 23d7 953e 4001 713d af94 8a3e 1474 853c
00000310: 20ad 0fbf c44a dd3e b12d 9d3b 278a f33e
00000320: 10b5 2dbe 3787 613d ef5a c03d 2abd d3be
00000330: fa15 cb3e 12e6 343f 6e06 5dbe f2cb 723f
00000340: 4c29 233e 0c67 16bc e5c0 44be 467e 96be
00000350: 50a6 b5bd 39dc 9e3d b238 0bbe 4678 93be
00000360: 5a8b a53e a9a9 723d 0889 043d fe92 0bbf
00000370: 0938 84be 99fb a43d 4d45 89be e2af 3f3e
00000380: a374 063f 7b66 69bb ffcf c7be ccac 633e
00000390: 2a0e 3abe b4ef debe 50ef 103e 59f5 273f
000003a0: 0690 913e 5478 10bd 3d7b 9abd 3cd1 f1be
000003b0: 4f4c ffbd 7cfb 213e 9fdc cc3e 0e38 d63e
000003c0: 40cc 29bd e76b bbbe 06db a03e 74c3 f73d
000003d0: ed86 4e3f 798f 48be 741b 7e3e 7a5b 1a3f
000003e0: 62f7 a1be a03d 933e 4389 a73f f9c1 bebe
000003f0: d62f a13f ba8f 01be 43a9 833e 1ffb ec3c
-0.48686314 -0.8056748 0.82608974 -0.6996211 0.6456231 -0.9567036 0.90857047 -1.5325758
0.71995986 -0.83033705 0.75904644 1.102679 0.49922183 0.8272224 0.7474599 -0.2681539
0.025526773 0.33142856 0.32758832 0.7328887 0.04312401 0.262424 -0.05270104 -0.21003374
-0.25562257 0.4047014 -0.06739739 -0.023511894 0.38523206 0.12520234 -0.10343533 -0.07975652
0.16556749 -0.009583116 0.11260859 0.17898092 0.25129408 -0.5147829 0.5443601 -0.8120186
-0.41856024 0.54115343 -0.29721788 -0.07625928 0.05893712 0.036708426 -0.32917106 -0.21717444
0.22389387 0.08312472 -0.041361902 0.2115275 -0.12711062 -0.015764905 -0.21983695 0.3575771
0.3097325 0.52242005 0.17087878 0.2273226 0.03130417 -0.27470365 -0.08850955 -0.48577052
-0.34232223 0.1732834 0.34101054 0.037455097 0.5379795 -0.49606326 -0.43979222 0.11037691
-0.2343491 0.18310736 0.1986358 -0.15397969 -0.3050369 0.30488008 -0.34556848 -0.5213246
0.051039487 0.61862874 0.19284974 -0.08997843 -0.332604 -0.5050874 0.33421957 -0.12315392
0.18799132 0.0777477 -0.3596593 -0.63363427 1.0023489 -0.8274479 0.5672531 -0.7609132
0.82149774 -1.1348906 0.7282764 -0.51838607 0.9614293 0.89221853 0.9726187 0.6586268
0.7150932 -0.124839686 -0.12014274 0.2340877 -0.22681046 0.062270433 -0.011621454 0.37888932
-0.082935534 0.10379679 -0.02078831 -0.05951538 0.049551796 -0.058907606 0.1820027 0.21313867
-0.009242189 0.031250592 -0.006440717 -0.06925103 -0.12207164 0.16831578 0.009614507 -0.062242996
0.24808934 -0.11112337 -0.20280999 -0.012856996 0.0107505815 0.055629246 0.186222 0.008790599
-0.37839305 -0.0087491125 0.039567534 -0.056035988 -0.39782372 0.19042484 -0.117869236 -0.06521171
-0.04249288 -0.116540074 -0.14949343 0.077016056 0.11336604 0.25758192 -0.28211287 -0.44848767
0.2568538 0.15853973 -0.13421693 -0.09609445 0.22352345 -0.05310216 -0.4059954 -0.075114556
-0.29628646 -0.054274764 0.06519072 0.41161916 0.34706163 0.0057911244 -0.47815934 0.26398167
-0.137671 0.2476539 -0.17078054 0.3038904 0.058079485 0.044091 -0.21185438 0.21084453
0.14046086 0.5500922 0.13296826 0.34532976 -0.07478187 -0.31897813 0.17736451 -0.31056497
-0.35922045 0.04622278 0.371165 0.28024644 0.14511809 -0.22530743 -0.15234901 0.14997749
0.292657 0.058839083 0.27066562 0.016290702 -0.5612354 0.43221104 0.0047967066 0.4756634
-0.16963601 0.05506059 0.09392344 -0.41355258 0.39665204 0.7066356 -0.21584484 0.94842446
0.15933722 -0.009179842 -0.19214208 -0.29393214 -0.08869612 0.07756848 -0.13595846 -0.288027
0.3233288 0.05924383 0.032357246 -0.5452117 -0.25824 0.08055801 -0.26810685 0.18719438
0.52521724 -0.0035614062 -0.39025876 0.22233886 -0.18169466 -0.43542254 0.1415379 0.65608746
0.28430194 -0.035271004 -0.07543037 -0.47229946 -0.124657266 0.1581859 0.4001207 0.4183964
-0.041454554 -0.3660576 0.31417102 0.120978266 0.8067463 -0.1958598 0.2481516 0.6029583
-0.3163405 0.28757954 1.3088764 -0.37257364 1.2592723 -0.12652484 0.25715074 0.028928338

dec_log_var.bias f4 [20]
00000000: 8900 81bf 344f 30be b1da afbe 6c94 dcbe
00000010: 0bbe f2be 4f3f a0be f819 19bf 3235 00bf
00000020: 7208 dabe 0b3a 1fbf 4f65 2fbf 9f4a 8cbd
00000030: f7fe 9abe b9d4 e4be a759 87be 7d83 acbe
00000040: 1fd2 b53d 4f6a 1dbd e618 283d ca9b 46bf
-1.0078288 -0.17217714 -0.34346536 -0.43081987 -0.47410616 -0.312983 -0.5980525 -0.5008117
-0.42584568 -0.6219794 -0.6851396 -0.0685017 -0.30272648 -0.44693545 -0.26435587 -0.33694068
0.08877968 -0.038431462 0.04103937 -0.77581465

exp_avg f4 [15, 20]
00000000: cc64 1d3c ebfe 8abc 1d75 41bb e85e 35bc
00000010: acd1 aa3b 5952 0cbc f47b d0bd 3e84 2dbc
00000020: 0a9b 08bb 3878 6f3c 6034 b53b 5ca0 393b
00000030: d921 b8bb 7549 47bb e188 05bd 5abc 463c
00000040: d3a9 1f3d 0d15 0cbd 2478 02bd cc64 1d3c
00000050: 9e3d 173d c706 48bd 3c89 f0bb c27b 0e3c
00000060: b4d1 9c3b 86ae e23c 8c85 a6bd 2eb8 1abc
00000070: 05e8 043d bfea 663d dc8c d9bc 93e3 4c3d
00000080: 7602 073d 64ea 523c 9a13 4aba 4b14 d3bb
00000090: 6d44 d33c 8be5 683c a06f 87bd 9e3d 173d
000000a0: 930f 49bb ec83 323d fe5b f53a 47a8 7cbc
000000b0: dac2 d53b 64e2 123c 0ae4 b5bd 32d0 0f3c
000000c0: 0bee 3eba afa0 903a 683a b83c b586 babb
000000d0: 1fbd a8bc 3842 3e3a c741 cbbb b76d 06bd
000000e0: f50c 0d3d 3fd7 c5bc 2dd5 03bc 930f 49bb
000000f0: f9a3 fb3b 75c1 d1bd 8e33 78bc d497 4d3c
00000100: c2fb 2fbb 9170 3fbd 89e9 b9bc ceea 1aba
00000110: a7f3 493d bf52 e53c 0dec 20bc ae42 ba3d
00000120: 72a6 b93c 9ca9 7c3c 4528 7f3c dc30 8f3c
00000130: a472 86bc 76c1 833d c6f6 99bc f9a3 fb3b
00000140: 4cfc 6dbb 077d d33d f4e5 02bd 0d46 f8bb
00000150: babb 25bd fe67 3b3c 61ae 1d3d 3ffc 71b9
00000160: fd94 05bc 70f1 31bc 6d0b 023d 93f5 e6bc
00000170: f899 e8bc 9e4e 55bc 47c6 e53c c119 91bd
00000180: 2717 013d c211 91bc 03f9 383b 4cfc 6dbb
00000190: e880 c9bc 9086 fa3c 9b6b 95bc 063e 8bbc
000001a0: 18d9 bdbb 4102 a2bc 99e6 54bd 8cfb ecbb
000001b0: ac28 c93c 3104 52bc e621 133d 2a5c fabc
000001c0: 9626 ccbc 5916 8ebc d2a2 8cbb 1810 4cbc
000001d0: 2b56 2a3d 8017 a7bc 9565 0ebc e880 c9bc
000001e0: f515 e339 2d6c b43c 5dbd d13a d57a 303b
000001f0: 56d0 26bc 3f46 0f3c 1dee 2e3d 9982 81bb
00000200: d87a 83bb d69a a6bb 43d0 4e3c 3792 64bb
00000210: 87a5 56ba b3c0 9cba 77f6 623b e33b e93a
00000220: 54e4 e0bb 6da7 123c e7df 5b3c f515 e339
00000230: 8078 103a a434 ebbb 9d60 1cbb d886 953b
00000240: 1bc0 59bb 0306 ddbb 59f2 973d 25dc 1abc
00000250: be60 8f3b d8f1 6b3b 4e4d 3c3b 93c2 0bbb
00000260: 2539 383c 6b07 623b 054b 813b 98c9 3f3c
00000270: 7566 73bc 572e 853c 5512 ce3b 8078 103a
00000280: 78f9 04bc eb6a b8bd 60bf f33a 1e20 15bd
00000290: f537 643d 0925 adbd 4b82 82bd 6d1e 3c3d
000002a0: 6ec0 62bc c37a 093d ae84 b6bc 2f59 c3ba
000002b0: fb4d 373d be6d 893a 41ae aa3c 7aed eaba
000002c0: 0f77 763c 2084 35bd 8d38 38bd 78f9 04bc
000002d0: 3f6f 4cbd 1d73 1c3d 87ae afbb b52c c73a
000002e0: 625d 74bb b19f bdbc 8210 32bd 3535 d3b9
000002f0: e67a 4f37 e9e4 0dbd 6ee0 f93b c1c3 3dbd
00000300: 9604 1cbd e756 90bc acfa 03bb c6bd c9bb
00000310: cf17 e83a 6416 7dbc 0c84 8c3b 3f6f 4cbd
00000320: 4226 afbc 74f3 d93d d660 9d3c 69f0 be3c
00000330: 75ae d7bc 8f14 433d 644b d23d 9426 71bc
00000340: 18db 7bbc b1a3 a3bc 331e ad3b b5d9 94bd
00000350: e7ae bebc ce54 d83c 3094 533d 38a8 0a3b
00000360: d641 9fbc e923 20bd 5760 073d 4226 afbc
00000370: dea9 b73c 72c8 e2bc 544e edbc 67e7 8d3b
00000380: af3a 673c 28d7 58bd 1228 e7bc cb60 d2bc
00000390: 615f a83d 4518 ce3c c2ab cfbc 77e0 613d
000003a0: 2fa2 403c f2bb 6abc 4563 79bd e072 433d
000003b0: 96d6 923b cbf5 93bc 4479 b5bd dea9 b73c
000003c0: f203 fbbc f20d ab3c b8e1 1f3c ff7d 1bbc
000003d0: 19d4 08bd d17d 6b3d 5fad 853d e5a2 52bc
000003e0: 6ccd 01bd 955e cbbc 47c6 b139 bf29 5cbc
000003f0: 4c6c 24bd 9592 51bc a0e5 21bb 74de 0a3c
0.009606551 -0.016967257 -0.0029519268 -0.011069991 0.005212983 -0.008564555 -0.10179892 -0.010590611
-0.0020844364 0.014616065 0.005529925 0.0028324341 -0.0056192693 -0.0030408774 -0.03260124 0.012129867
0.038980316 -0.034199763 -0.031852856 0.009606551 0.036923997 -0.04883459 -0.0073405784 0.008696498
0.0047857407 0.02767111 -0.08130941 -0.009443326 0.032447834 0.056376215 -0.026556425 0.05002172
0.03296133 0.012873266 -0.00077086093 -0.006441628 0.025789464 0.014214884 -0.06613088 0.036923997
-0.003067945 0.04358284 0.0018719432 -0.01542098 0.0065234723 0.008965109 -0.088813856 0.008777665
-0.0007283396 0.0011034216 0.022488788 -0.005692328 -0.020597992 0.0007257792 -0.0062029096 -0.032819476
0.034436185 -0.024150489 -0.008046431 -0.003067945 0.007679459 -0.10241977 -0.01514901 0.012548406
-0.002685294 -0.04673821 -0.022694366 -0.00059096224 0.04930463 0.027993558 -0.009821904 0.090947494
0.022662375 0.015421297 0.015573566 0.017479353 -0.016412087 0.06433384 -0.018794429 0.007679459
-0.003631371 0.103265814 -0.03195758 -0.00757671 -0.040462233 0.011438368 0.03849638 -0.0002307752
-0.008153197 -0.010860786 0.031749178 -0.02819327 -0.02839373 -0.013019232 0.028048648 -0.0708499
0.03151622 -0.017708663 0.0028224594 -0.003631371 -0.0245976 0.030581743 -0.018239787 -0.016997349
-0.005793702 -0.019776465 -0.051977728 -0.007232135 0.024555527 -0.012818382 0.035921 -0.030561525
-0.024920743 -0.01734464 -0.0042918706 -0.012455009 0.041586082 -0.020396948 -0.008691211 -0.0245976
0.00043313173 0.022024238 0.0016001869 0.0026928682 -0.010181507 0.008744775 0.04270755 -0.003952336
-0.004012447 -0.005084376 0.012622896 -0.003487719 -0.00081881176 -0.0011959284 0.0034631768 0.0017794337
-0.0068631563 0.00895105 0.013420082 0.00043313173 0.000551112 -0.007177906 -0.0023861297 0.004563194
-0.0033226076 -0.0067451014 0.07419271 -0.009451901 0.0043755462 0.0036002304 0.00287326 -0.0021325692
0.011244093 0.0034489285 0.0039457106 0.011705779 -0.014855971 0.016257448 0.0062888064 0.000551112
-0.008116119 -0.09004768 0.0018596463 -0.036407582 0.055717427 -0.084543295 -0.06372508 0.045927454
-0.013839824 0.03356434 -0.022280063 -0.0014903898 0.044752102 0.0010484976 0.020835044 -0.0017923557
0.015043034 -0.044315457 -0.044975806 -0.008116119 -0.04991078 0.038195718 -0.0053613815 0.0015195819
-0.0037287106 -0.023147436 -0.043472774 -0.00040284698 1.2366776e-05 -0.034642134 0.007625631 -0.046329264
-0.03809031 -0.017619563 -0.0020138426 -0.006156656 0.0017707291 -0.015447233 0.004288202 -0.04991078
-0.021380547 0.10642138 0.019211214 0.023307996 -0.026328305 0.047627028 0.10268286 -0.01471867
-0.01537206 -0.019975515 0.005283141 -0.07268087 -0.02327676 0.026407626 0.051654994 0.0021157395
-0.019440573 -0.039096747 0.03305086 -0.021380547 0.022419866 -0.02768347 -0.028968014 0.004330564
0.014113112 -0.052939564 -0.02821735 -0.02568092 0.08221317 0.025158057 -0.025350455 0.055145707
0.011757418 -0.014327036 -0.060885686 0.047716975 0.004481147 -0.01806154 -0.0886102 0.022419866
-0.03064153 0.020880673 0.009758405 -0.009490489 -0.033405397 0.057493035 0.065272085 -0.01285622
-0.031690046 -0.024825374 0.000339078 -0.013437687 -0.040142342 -0.012791296 -0.0024703518 0.0084758885

exp_avg_sq f4 [15, 20]
00000000: e969 8540 6e54 0541 9459 d73f ce8d b13f
00000010: 72b7 7240 12c5 4541 a83b 0141 e9bf f63f
00000020: 2bf2 2b41 c950 2540 8d00 bf40 f707 8b40
00000030: 9acc 3240 d7a3 c03f 2e24 b040 4c49 c140
00000040: 2626 7640 3b36 8d40 5d40 4b40 e969 8540
00000050: 74a0 aa41 5e3e 2e42 f427 0e41 3e32 ea40
00000060: 3150 a041 fadb 8442 d118 2f42 5137 3541
00000070: c174 6a42 c759 5141 d17e 0242 804d c541
00000080: f59e 6c41 dbd9 0841 6019 fd41 9486 0b42
00000090: 5265 a941 797e c941 7e4d 8441 74a0 aa41
000000a0: beae 0740 9a26 9440 a902 cc3f 47a3 6f3f
000000b0: 0a05 1a40 d431 0b41 f9bc f140 dfb6 a23f
000000c0: b617 bb40 f1f7 c33f 4ad4 5940 92a6 3540
000000d0: a589 c83f 9709 973f 089c 8840 e24f 4640
000000e0: a8e4 8040 aba1 1740 1ae1 ec3f beae 0740
000000f0: ebe9 9441 2b5b 2942 54ec 0141 91f8 c540
00000100: 1128 9141 d391 7a42 569b 2442 8638 0c41
00000110: a3a2 5942 8908 4341 e07f ee41 90fd ab41
00000120: 9522 5841 e71d f740 5dbd d841 6883 db41
00000130: 0e59 9c41 d05a a041 803d 7141 ebe9 9441
00000140: ad98 b841 bf45 3242 fa63 0f41 7ab5 c640
00000150: 097d 9741 8e26 8a42 2053 3a42 2d00 2941
00000160: faf9 5542 c529 5041 0939 f141 967d b441
00000170: 2d59 6341 0416 0a41 d490 fa41 9cc9 f641
00000180: bd71 ba41 57c4 aa41 b762 9441 ad98 b841
00000190: a0cd 5f40 d921 ff40 1f1f 9c3f abf2 823f
000001a0: fc47 2740 ee84 1d41 d87b cf40 dbea c33f
000001b0: c7f0 f740 2934 e83f 3d35 9940 afb5 6e40
000001c0: 38be 0540 ba4e 9c3f 3200 9240 d920 8940
000001d0: dcc4 4440 6368 3e40 8285 3140 a0cd 5f40
000001e0: a637 4a3f c8d4 b63f 071f 773e fa02 633e
000001f0: 9a01 1d3f 673e ee3f cdb0 913f e0c3 cc3e
00000200: 75e0 e83f 2bdd e73e ab72 7b3f cf61 483f
00000210: 74fe d63e 07de 833e 0a82 633f 9904 9c3f
00000220: 7827 083f fe42 603f 232b 053f a637 4a3f
00000230: 4ae0 123e 7e2c a13e 2818 0d3e c5bb 923d
00000240: 615b 473e d38b 283f b3c4 333f 8516 cf3d
00000250: 93af df3e 5078 e73d c103 623e 6976 2a3e
00000260: c1a9 053e 02e2 d53d df2e a23e b1b8 313e
00000270: 525e b13e 06d8 283e 46e1 143e 4ae0 123e
00000280: 4e8a 8441 c927 0942 b162 b140 5c9c a240
00000290: 860b 7c41 f70d 3642 5b9d da41 7d94 1041
000002a0: ff83 4e42 3588 3941 25f8 c941 1c1f 8941
000002b0: 561b 3b41 ee1a c740 4d9a ab41 0e00 ef41
000002c0: 44e8 5041 1e55 ab41 32f7 3d41 4e8a 8441
000002d0: 91d2 8740 e5a0 0c41 1bf2 c43f e95e 9a3f
000002e0: e1d6 5c40 7aae 4341 755f 0141 db0f f43f
000002f0: 0a84 2041 bf43 0d40 e29f b540 51b0 8a40
00000300: c2ca 2840 a58b d13f abbe b340 6fbe b040
00000310: 4eb1 6d40 2d14 7740 c60e 5740 91d2 8740
00000320: 0f2e a441 bbcd 2e42 0680 0941 6349 f140
00000330: 1442 b041 89e3 8742 68f0 2c42 7483 3441
00000340: e654 7f42 7335 5441 eb38 0442 099e c641
00000350: 32ef 7e41 fb30 0d41 949d fc41 cf5b 0f42
00000360: 1147 9f41 cc62 cb41 b116 8141 0f2e a441
00000370: 19fe e341 0009 4642 3e4f 6541 5922 1a41
00000380: e951 e541 8933 ba42 41e8 8142 e0f1 8341
00000390: 16ac 8d42 90dc 8841 84c4 1d42 3438 0342
000003a0: caa0 9c41 7163 4e41 f51d 3442 2072 3c42
000003b0: 2729 0742 4ec8 0a42 6d74 ae41 19fe e341
000003c0: d77a 4141 29d1 b741 8f08 7b40 fed1 5b40
000003d0: 7cf0 1a41 968a fc41 bba8 9d41 a6bc c740
000003e0: cf1d e541 5989 d340 b39e 7e41 d9a4 4341
000003f0: 6ddf ee40 2bb3 8940 1fc7 7b41 e69d 9341
4.1691785 8.333113 1.6824212 1.38714 3.7924466 12.360613 8.0770645 1.9277316
10.746623 2.5830557 5.968817 4.3447223 2.793738 1.505 5.5044165 6.0401974
3.8460784 4.41287 3.1758034 4.1691785 21.328346 43.560905 8.884754 7.318633
20.039156 66.42964 43.774235 11.326005 58.614017 13.084418 32.623844 24.662842
14.788808 8.553187 31.63739 34.881424 21.174473 25.186754 16.537838 21.328346
2.1200404 4.629712 1.5938312 0.93608516 2.4065576 8.699665 7.554318 1.2712058
5.8466444 1.5310041 3.403582 2.8382916 1.5667006 1.1799802 4.269047 3.0986257
4.027912 2.3692424 1.8506196 2.1200404 18.614218 42.33903 8.120197 6.1865926
18.144564 62.642406 41.151695 8.7638 54.408825 12.189584 29.812439 21.49881
13.508443 7.7224 27.092463 27.439163 19.543484 20.044342 15.077515 18.614218
23.074549 44.56811 8.961908 6.209653 18.936052 69.0753 46.581177 10.562543
53.494118 13.010198 30.15285 22.561321 14.209271 8.630375 31.320717 30.848442
23.305536 21.34587 18.5482 23.074549 3.4969254 7.972882 1.2196997 1.0230306
2.6137686 9.844954 6.4838676 1.5306047 7.748142 1.8140918 4.787749 3.729839
2.089735 1.2211525 4.562524 4.2852597 3.0745153 2.9751213 2.7737737 3.4969254
0.7899116 1.4283686 0.2413293 0.22169104 0.6133057 1.8612794 1.138208 0.3999319
1.8193499 0.45285925 0.98221844 0.78274244 0.41991007 0.2575533 0.888703 1.2188903
0.53185225 0.8760222 0.52018946 0.7899116 0.14343372 0.31479257 0.13778746 0.071647204
0.19468452 0.65838355 0.70222014 0.10111717 0.4368864 0.11302245 0.22071745 0.16646732
0.13053037 0.10443498 0.31676385 0.1735561 0.34642273 0.16488656 0.1453906 0.14343372
16.567532 34.288853 5.5432973 5.081587 15.752813 45.513638 27.326834 9.036252
51.628902 11.595754 25.246164 17.14019 11.694174 6.2220373 21.450342 29.875027
13.056705 21.416561 11.87285 16.567532 4.244454 8.789281 1.5386385 1.2060214
3.4506152 12.230097 8.085805 1.9067339 10.032236 2.20726 5.675767 4.334023
2.6373754 1.6370741 5.617025 5.5232463 3.7139468 3.8606064 3.3602767 4.244454
20.52249 43.70091 8.593756 7.5402083 22.032265 67.944405 43.23477 11.282093
63.83291 13.263049 33.055584 24.827166 15.933397 8.824458 31.576942 35.839657
19.9097 25.42324 16.13608 20.52249 28.499071 49.50879 14.331846 9.633386
28.664995 93.100655 64.95362 16.493103 70.836105 17.107697 39.44191 32.804886
19.57851 12.899278 45.029255 47.11145 33.790188 34.69561 21.806849 28.499071
12.09249 22.977129 3.9223974 3.434692 9.683712 31.567669 19.707388 6.2417784
28.639555 6.610516 15.913745 12.227746 7.4647737 4.303121 15.736114 18.452099

exp_avg f4 [15]
00000000: b8ac e13c 8f3c c93d 5026 d8bc b7e3 1f3d
00000010: aada 1b3d bdc6 843c 738b 05bd f16c 86bb
00000020: 8b05 623d 589f e13b bf3c b3bd 0e70 443d
00000030: 56cc cebd 7581 823d 1040 00bd
0.027548179 0.09826004 -0.026385456 0.039035525 0.03805033 0.016208047 -0.032603692 -0.0041023423
0.055181067 0.0068854503 -0.08751821 0.047958426 -0.10097568 0.06372348 -0.031311095

exp_avg_sq f4 [15]
00000000: 3782 1441 5c06 5942 a72c ef40 c84b 2442
00000010: d625 5a42 9eae 0841 802c db3f 46d2 323f
00000020: 6e27 0942 6835 1241 5686 5642 9dba 9642
00000030: 735a fc41 82aa 6c41 2ef3 9941
9.281791 54.25621 7.4742007 41.074005 54.53695 8.542631 1.7122955 0.698521
34.288506 9.138039 53.631187 75.36448 31.544165 14.791628 19.24374

exp_avg f4 [3, 15]
00000000: 472d 153c f407 8b39 b146 1938 37c2 7a3b
00000010: de84 51bb 17b1 593b 3739 91ba 3b09 c6bb
00000020: 57cf 92ba 2b3d 7abb ec91 2f3b 45a5 183b
00000030: 4a01 a93b 0868 dcb9 c8dc 673b ef5c 683d
00000040: 3132 4d3e fa43 8ebd 6400 0c3d 492a 99bc
00000050: a167 2c3e d989 b8be 6af3 173c 4852 833d
00000060: 4ba0 0e3e b39f 33be 13d7 8b3d f196 8cbe
00000070: 802d 0f3e 13af b9bd 7fd1 b53d cc01 44bd
00000080: 875e 173e 7184 693c 05b7 933c 0c96 ef3d
00000090: 205d 8ebd f1d4 17be a208 a03c ca0d d43d
000000a0: 77af cd3c 7ccd 56bc f824 7b3d 1d3d 4cbc
000000b0: 51a7 413d
0.009105033 0.00026518072 3.654388e-05 0.0038262734 -0.0031970064 0.0033217126 -0.0011079673 -0.006043581
-0.0011200708 -0.0038183432 0.0026789857 0.0023291868 0.0051576244 -0.0004203918 0.0035379399 0.056729253
0.20038678 -0.06946559 0.03418006 -0.018696921 0.16836406 -0.3604267 0.009274343 0.06412178
0.13928334 -0.17541389 0.068281315 -0.2745891 0.139822 -0.09066596 0.08877849 -0.047853276
0.14782153 0.014252768 0.018031606 0.11698541 -0.06951356 -0.14827324 0.019535366 0.103541926
0.025108082 -0.013110515 0.061314553 -0.012465742 0.047278706

exp_avg_sq f4 [3, 15]
00000000: 3089 3f3c 2b2d e43b 17cf 3b3c b6fb 063c
00000010: 0c1d 953c 8986 303c 1893 483c 218d 483c
00000020: 6b8a 5b3b 0e5e 4b3c ab2b b93b 51e6 003c
00000030: b7be 443c 6ae2 aa3b 6fcd d03b 2820 c442
00000040: c6d4 a442 ae0e c742 b5bf 9142 ab1f 1d43
00000050: a602 ae42 28df e542 51b6 0243 c237 0342
00000060: e552 0343 ee5c 8e42 69a6 9a42 7f2e 1c43
00000070: 44ff 2942 ad72 2b42 5f03 b541 2be3 ab41
00000080: 59eb c441 ad25 8041 612f 1542 cd24 b941
00000090: d61b f941 fd22 0142 a02b 0a41 472c 0842
000000a0: f280 9341 ce73 8141 fdfc 2742 a254 1841
000000b0: 8343 2141
0.011690423 0.0069633923 0.011462948 0.0082387235 0.018202327 0.010774263 0.012242101 0.012240679
0.0033499252 0.012412561 0.0056509576 0.007867412 0.012008361 0.005214979 0.006372146 98.062805
82.41557 99.52867 72.87443 157.1237 87.00517 114.93585 130.71217 32.80445
131.3238 71.1815 77.32502 156.18163 42.499283 42.861988 22.626646 21.485922
24.614916 16.018396 37.29627 23.14297 31.138592 32.28417 8.635651 34.04324
18.437962 16.181545 41.99706 9.520662 10.078982

exp_avg f4 [3]
00000000: b0a8 bf3b e12b 42be 08c9 0b3c
0.0058489665 -0.18962051 0.008531816

exp_avg_sq f4 [3]
00000000: bf10 073d 705e 9543 b529 9942
0.032974955 298.7378 76.58146

exp_avg f4 [3, 15]
00000000: bcdb 063a 1eb3 8d38 6b4a c2b9 16af 0e39
00000010: d834 b439 e779 b339 e70d bc38 ea47 2fb9
00000020: 77dd d437 f277 373a c69d aa36 ca8d 2bb9
00000030: 0fc9 e3b9 3091 76b9 b7cf 1139 23ce 303c
00000040: bb60 0dbc 3102 1f3c e12b e13b b969 54bc
00000050: 24e5 fdbb c33f 133c 69bc 4cbc ab04 acb9
00000060: a766 08bc 6cb4 b53b 4af6 a33b afb2 443c
00000070: b08e c039 1c69 7339 81de 0b3c 3aca d5bb
00000080: aebf 053c 300f bd3b 395e 34bc b74f c4bb
00000090: ff5e ce3b 44ab 1bbc 57c6 9c39 ed8f d4bb
000000a0: 4f3c 8c3b 5643 883b 34c8 1a3c 348d 053a
000000b0: 67ff 3139
0.00051444373 6.756767e-05 -0.0003705801 0.000136074 0.00034371647 0.00034232365 8.967128e-05 -0.0001671609
2.5375497e-05 0.0006998769 5.084762e-06 -0.00016360651 -0.00043446614 -0.00023514475 0.00013905657 0.010791334
-0.008629019 0.009705112 0.006871686 -0.012964659 -0.007748263 0.00898737 -0.012496092 -0.00032809874
-0.0083252555 0.0055451896 0.005003725 0.012005492 0.00036727404 0.00023213442 0.008536936 -0.0065243514
0.008163376 0.0057696328 -0.011008793 -0.005990948 0.0062979455 -0.009501282 0.00029902413 -0.006486884
0.0042796503 0.0041584177 0.009447146 0.0005094588 0.0001697518

exp_avg_sq f4 [3, 15]
00000000: 1c5e 7539 fcc9 5e39 7117 8439 1c57 0039
00000010: 153b b839 d32e 8639 7cc9 b539 ef53 ae39
00000020: edf0 5738 ec2d c639 0266 1839 ca8a b038
00000030: 20ec b639 2bd1 1838 4c92 0338 2fc7 893a
00000040: cbbc 563a be14 ba3a 5d2c fe39 3f9e ce3a
00000050: 0ac5 2e3a e574 863a 1093 d63a cdfb 2b38
00000060: 412a 8f3a 9472 d939 9e1c 9539 71b7 a63a
00000070: 3792 e937 ce86 c937 2b58 273a ea16 123a
00000080: 5926 713a fbbc 9f39 ad3c 7e3a 822d e239
00000090: 2322 3d3a f098 853a 295d 0238 26a6 323a
000000a0: 4108 9f39 ff73 3539 c4ac 5b3a 03ce ce37
000000b0: 5284 5037
0.00023400079 0.00021246815 0.00025194467 0.00012239482 0.00035139234 0.00025593358 0.00034673128 0.00033250402
5.1484374e-05 0.00037799717 0.0001453385 8.4181855e-05 0.00034889672 3.6434427e-05 3.1369083e-05 0.0010511632
0.00081915845 0.0014196855 0.00048479708 0.0015763714 0.00066669344 0.0010258226 0.0016370732 4.1004085e-05
0.0010922627 0.00041474833 0.00028440816 0.0012719465 2.7843851e-05 2.402384e-05 0.00063836825 0.00055728725
0.00091991347 0.00030467645 0.00096983725 0.00043139985 0.00072148646 0.0010192674 3.1081177e-05 0.0006814919
0.00030332993 0.00017304717 0.0008379931 2.4653045e-05 1.2428574e-05

exp_avg f4 [3]
00000000: 4a5d 2e3b 4592 b73c ce59 8b3c
0.0026605898 0.022408614 0.017010596

exp_avg_sq f4 [3]
00000000: bfe4 853a e3e4 7c3b 3d1e 213b
0.0010215266 0.0038588576 0.0024584674

exp_avg f4 [15, 3]
00000000: d9b1 143b 6b13 ec3d aede e1bd 05a9 3b3d
00000010: 9768 8abc 97ef 4fbe e857 8b3d 0985 003e
00000020: 06cb cd3d d116 083e 3c62 c3bd bb9d bf3d
00000030: a8ba 0bbd 010f e1bd b40c 0cbd 4401 9dbe
00000040: 5b36 523e 969d 893d 5200 84bd dcab cbbb
00000050: 0e1b a0bc 8f43 6c3d b7e0 b1bd b362 5ebc
00000060: a3a1 133e d8cf 16be c94a b13d 2e21 34bd
00000070: ea4e 42be 4e01 e43d 01de a6bc adec 84bb
00000080: edd4 2dbd 2c76 863c 862b a2bd c205 6e3d
00000090: 0363 673d 8402 e0bd 4177 10be 4d54 423e
000000a0: 26fb bebd c972 693d 8668 13be 274f a93e
000000b0: 6c64 dc3c
0.0022689013 0.11527141 -0.11028801 0.045815486 -0.016895575 -0.2030624 0.06803876 0.12550749
0.10048489 0.13289954 -0.09540221 0.093562566 -0.034113556 -0.1098919 -0.034191802 -0.30665028
0.20528547 0.0671951 -0.064453736 -0.0062155556 -0.01954415 0.057681616 -0.08685439 -0.013573336
0.14417128 -0.14727724 0.08656842 -0.043976955 -0.18975416 0.11133061 -0.020369532 -0.0040565343
-0.04243939 0.01641377 -0.07918458 0.05811096 0.05649091 -0.1093798 -0.14107992 0.1897747
-0.093252465 0.056994233 -0.14395341 0.330682 0.026903354

exp_avg_sq f4 [15, 3]
00000000: 6eed 7341 20ee 9e41 4c90 3741 8c0e 9b40
00000010: bb15 eb40 04f7 9640 412d af3f c2ff 2b40
00000020: 2192 bf3f 7863 0542 5071 1042 7b03 df41
00000030: 34ed c240 9d35 0341 fbab 9940 362c 6142
00000040: 7116 9a42 75be 1b42 5065 3a40 4ec3 3f40
00000050: e90e f43f 7cdc a741 c0dd ad41 e236 4441
00000060: 9033 2c42 2141 5b42 ce19 da41 e01a 4f42
00000070: 4ecf 7e42 6769 1242 3a01 5f41 c2b0 4541
00000080: 0f9e fd40 0a4b 2241 b5c2 6341 e629 fc40
00000090: a33b 5f40 5174 bc40 c120 5d40 9a6c 0742
000000a0: 2c02 2e42 e8c0 b241 bc94 7d42 baf7 8242
000000b0: d80a 0842
15.245466 19.866272 11.472729 4.8455257 7.3464026 4.7176533 1.3685685 2.6874852
1.496647 33.347137 36.110657 27.8767 6.0914555 8.200589 4.8022437 56.293175
77.04383 38.935993 2.9124336 2.9962955 1.906705 20.982658 21.733276 12.263399
43.050354 54.813602 27.2626 51.776245 63.702446 36.602932 13.937799 12.355654
7.9255443 10.14332 14.235036 7.8801146 3.488015 5.889199 3.4551241 33.856056
43.50212 22.344193 63.39525 65.48384 34.01059

exp_avg f4 [15]
00000000: 13a3 02bd 229e a5bc 72f9 df3d 6c58 edbd
00000010: d74b 733d 2e67 24bd 5e91 d13d 22a5 61be
00000020: 172e 9e3d 2453 12be 182b 253e f7a5 983d
00000030: e32e 2b3d b22a 983d bbc4 843d
-0.0318938 -0.020217005 0.1093625 -0.11589131 0.0593985 -0.040137462 0.10232805 -0.2203565
0.07723635 -0.14289528 0.1612972 0.0745353 0.04179276 0.074300185 0.06482836

exp_avg_sq f4 [15]
00000000: f79c 9a41 23ba d740 2b65 3540 e020 2942
00000010: 71de 0a41 ee2e 8b42 152d 5140 d4ed c141
00000020: 16a8 4242 12d9 7c42 ac40 5d41 e21d 3941
00000030: f653 b540 9a1c 1742 91bf 7a42
19.326643 6.741472 2.8342998 42.282104 8.679307 69.59166 3.2683766 24.241127
48.664146 63.211983 13.828289 11.569796 5.666499 37.77793 62.687077
