vae/saved_models/free_endpoints/free_nepochs500_lr0.0005_N20_n1000_b150_s10.pt (torch, 121209 bytes, 36 tensors)

enc_shared.weight f4 [100, 20]
0.071263395 -0.14996888 -0.15682553 -0.098139234 -0.022519693 0.054681607 -0.10228746 0.11231185
0.058711562 0.0056327363 -0.124957874 -0.19093873 -0.23946282 0.11468196 0.052136533 0.1581801
0.07674855 -0.102228634 0.12342921 -0.3021832 0.21099563 -0.06609194 0.029484283 0.07642382
0.08688292 0.16090032 -0.01920149 0.059809208 -0.13786156 -0.09554153 0.0015645633 0.12740225
-0.051805113 -0.14784662 -0.023532465 -0.12029624 -0.07970536 0.1820668 0.056640778 0.15505688
0.17179237 -0.10670337 -0.27044612 -0.1991023 0.08135874 0.10451272 0.047738872 0.032340188
0.07075564 -0.057826646 -0.16912565 0.25876975 -0.09638591 -0.26344487 -0.007634526 0.054536946
-0.051623102 -0.03627823 -0.08848919 0.17157336 -0.08745553 -0.06855899 -0.15560779 0.11953337
0.13976137 -0.05937498 -0.008836434 -0.16805193 0.07167318 -0.094510846 -0.020083565 -0.16747513
0.005353233 0.094626635 -0.08721025 -0.056012116 -0.04204593 -0.12169524 0.12554567 -0.10100121
0.24082597 -0.24164654 -0.053027876 -0.12063648 -0.17085497 -0.19228287 0.20631678 -0.20421594
0.104216926 -0.032552313 -0.22205976 -0.06385719 0.19079848 0.16470177 0.18484154 -0.034937356
0.021382352 -0.043933284 0.04654875 -0.085039705 0.22578178 -0.101936 -0.086107194 -0.26056257
-0.13687365 -0.06055952 -0.17409098 0.08347169 -0.059045594 -0.18944097 0.042627856 -0.13771218
0.15296979 -0.09522691 -0.00058282365 -0.07379941 0.10272743 -0.042346515 -0.18294553 0.11231984
-0.12718654 -0.14158157 0.08525194 0.0836391 -0.057989206 -0.13793756 -0.0911191 0.1594088
-0.06988417 0.11081962 -0.19854903 0.037818845 -0.1736434 -0.13873094 0.28455693 0.045700826
-0.12474194 -0.20729956 0.07818088 -0.238382 0.21942739 0.023436818 -0.018141856 0.22962098
0.007690063 0.09312118 0.0330553 0.017108846 -0.0782756 0.14751594 -0.012692429 0.1948369
-0.23946244 -0.004399788 0.17308168 -0.13861677 0.056307957 -0.013939479 -0.16717969 0.2139687
0.21529157 -0.16220976 -0.08791958 0.178145 0.086229675 -0.102404475 0.023840928 0.026118154
-0.093624644 -0.112848125 0.16707656 0.09507108 0.18499044 -0.03086478 -0.08200747 0.15870884
0.0189843 0.040734086 0.23588267 0.114724 0.19584332 0.06408699 -0.018314125 0.27482775
-0.19618218 0.13088451 0.12874015 -0.1649838 -0.19681607 0.10479149 0.22413097 0.15484072
0.1785849 0.08963099 0.1393343 -0.20772246 0.024882404 -0.12178922 -0.14694168 -0.1776391
-0.105632864 -0.019627465 0.14360502 -0.10207238 0.14652923 0.124926485 0.031332586 0.19682367
-0.15542243 -0.028995626 -0.0006352767 -0.17563668 0.164104 -0.055326052 0.0640744 -0.02989932
0.011591563 -0.09405683 -0.15912148 -0.03919947 -0.06870089 0.09358292 -0.05174363 0.17405073
-0.14518322 0.16465166 0.13259934 -0.02111676 -0.21505576 0.04470212 0.009164895 0.055862635
-0.034413796 0.2079671 -0.24122918 0.12918676 -0.08337442 0.20834251 -0.12434212 -0.0887968
-0.013341349 0.025858393 0.11548289 -0.07077743 -0.018459203 -0.015121206 -0.13681269 0.1630019
-0.18403058 0.2078009 -0.041498926 -0.05626054 0.19948731 0.12174942 -0.04564967 -0.21117862
00000000: 8bf2 913d 7191 19be df96 20be 39fd c8bd
00000010: 387b b8bc d2f9 5f3d 167c d1bd c103 e63d
00000020: 897b 703d d192 b83b eae9 ffbd 7185 43be
00000030: be35 75be 60de ea3d 1e8d 553d f7f9 213e
00000040: 582e 9d3d 3f5d d1bd 74c8 fc3d c2b7 9abe
00000050: 3d0f 583e 365b 87bd 0689 f13c 1784 9c3d
00000060: acef b13d 0ec3 243e 714c 9dbc 80fa 743d
00000070: 952b 0dbe 47ab c3bd 0812 cd3a bc75 023e
00000080: 9931 54bd 1b65 17be 28c7 c0bc e05d f6bd
00000090: 903c a3bd b86f 3a3e 2900 683d 3bc7 1e3e
000000a0: 57ea 2f3e 4c87 dabd ea77 8abe 79e1 4bbe
000000b0: 699f a63d c40a d63d d689 433d 2577 043d
000000c0: 55e8 903d a2db 6cbd 462f 2dbe 787d 843e
000000d0: fa65 c5bd 3fe2 86be 0c2b fabb 2262 5f3d
000000e0: bf72 53bd 7b98 14bd d239 b5bd edb0 2f3e
000000f0: e31b b3bd a868 8cbd a657 1fbe e9cd f43d
00000100: 9b1d 0f3e 2e33 73bd b1c6 10bc ce15 2cbe
00000110: 63c9 923d e78e c1bd 4a86 a4bc 9a7e 2bbe
00000120: 2c6a af3b 9ccb c13d 4a9b b2bd f66c 65bd
00000130: 5a38 2cbd 5b3b f9bd 0b8f 003e b9d9 cebd
00000140: 159b 763e 3172 77be c233 59bd 4210 f7bd
00000150: 9bf4 2ebe cde5 44be b544 533e fc1d 51be
00000160: af6f d53d 9355 05bd a263 63be 8fc7 82bd
00000170: ad60 433e 95a7 283e 1a47 3d3e 791a 0fbd
00000180: 0b2a af3c 63f3 33bd e7a9 3e3d 4c29 aebd
00000190: 5733 673e d2c3 d0bd f858 b0bd 7568 85be
000001a0: 9b28 0cbe 420d 78bd e844 32be 35f3 aa3d
000001b0: cbd9 71bd d0fc 41be 8c9a 2e3d 6c04 0dbe
000001c0: 1da4 1c3e 5406 c3bd a2c8 18ba 2524 97bd
000001d0: c262 d23d 8a73 2dbd 1356 3bbe f207 e63d
000001e0: 303d 02be c2fa 10be 9298 ae3d fa4a ab3d
000001f0: 1786 6dbd 813f 0dbe a79c babd 0f3c 233e
00000200: 6f1f 8fbd 66f5 e23d 7050 4bbe efe7 1a3d
00000210: 93cf 31be 7c0f 0ebe 72b1 913e ca30 3b3d
00000220: b478 ffbd 5646 54be 4c1d a03d 691a 74be
00000230: 93b1 603e 92fe bf3c 3b9e 94bc c321 6b3e
00000240: edfc fb3b 51b6 be3d ff64 073d da27 8c3c
00000250: f54e a0bd 6b0e 173e e8f3 4fbc 5383 473e
00000260: a435 75be 192c 90bb 533c 313e 8ef1 0dbe
00000270: 2ca3 663d 6a62 64bc 2731 2bbe 9c1a 5b3e
00000280: 6575 5c3e 511a 26be 2e0f b4bd a56b 363e
00000290: 2f99 b03d 70b9 d1bd 0d4e c33c bdf5 d53c
000002a0: 47be bfbd eb1c e7bd 1e16 2b3e a0b4 c23d
000002b0: 226e 3d3e 23d8 fcbc 88f3 a7bd 9284 223e
000002c0: f684 9b3c c9d8 263d 3a8b 713e 6bf4 ea3d
000002d0: 278b 483e 0a40 833d 8107 96bc 39b6 8c3e
000002e0: fbe3 48be 9706 063e 75d4 033e 83f1 28be
000002f0: 278a 49be ec9c d63d 9782 653e 918e 1e3e
00000300: f6de 363e 7490 b73d a7ad 0e3e 32b5 54be
00000310: 2fd6 cb3c a06c f9bd e177 16be 06e7 35be
00000320: 0b56 d8bd c7c9 a0bc 320d 133e 530b d1bd
00000330: c20b 163e 75d9 ff3d 9956 003d 258c 493e
00000340: 0f27 1fbe 3c88 edbc b388 26ba 1ada 33be
00000350: e10a 283e 929d 62bd 7039 833d 6bef f4bc
00000360: 8aea 3d3c dea0 c0bd bef0 22be a08f 20bd
00000370: 0db3 8cbd 67a8 bf3d 21f1 53bd 5b3a 323e
00000380: e9aa 14be 729a 283e 1fc8 073e 0efd acbc
00000390: 9437 5cbe 9219 373d 5b28 163c 38d0 643d
000003a0: 7bf5 0cbd 54f5 543e c804 77be 8949 043e
000003b0: 35c0 aabd bd57 553e 15a7 febd 19db b5bd
000003c0: ac95 5abc fbd4 d33c 4b82 ec3d c2f3 90bd
000003d0: c137 97bc efbe 77bc a018 0cbe f8e9 263e
000003e0: 8372 3cbe c2c9 543e c7fa 29bd 7471 66bd
000003f0: 6746 4c3e c357 f93d 26fb 3abd 353f 58be

enc_shared.bias f4 [100]
-0.40119287 -0.28472108 0.11595355 -0.48024553 0.4161536 0.07025941 -0.03918983 -0.20096251
0.55606204 0.24946669 -0.39831945 -0.4627534 0.00034543706 0.44424587 -0.37159702 0.5244581
-0.27525577 -0.28600818 -0.5490818 -0.55687535 -0.34392533 0.36442164 0.48579735 -0.23878527
0.44646293 -0.36616924 -0.20712446 0.29609707 0.29785967 0.20972799 -0.23893332 -0.07405281
0.12946242 0.48432043 0.051206354 0.03943368 -0.36725757 0.49161884 -0.299207 -0.11675115
-0.00832048 -0.2592465 -0.55653626 -0.3128859 -0.25625116 0.030733945 -0.013138135 -0.4102613
0.6335824 0.52561015 0.014924244 0.2464021 -0.6833887 0.028129993 0.27857593 -0.005207886
0.3703937 0.265569 -0.31710833 0.48591965 -0.5116326 -0.34831616 -0.08928148 0.44777453
0.08093893 -0.1508091 0.0014130155 0.29535818 0.3518837 -0.09923297 0.62124556 0.18342644
0.06789896 0.3293073 -0.2720486 -0.10358426 -0.41294715 0.15715387 0.3351004 -0.087687135
-0.18362653 -0.24136949 -0.35432735 0.09566675 -0.20154078 0.17051284 -0.34803084 0.110284284
0.07501953 0.003793966 -0.15142527 0.5736341 -0.39625195 0.36775008 -0.009101804 -0.046394236
-0.4505087 -0.34472388 0.33831462 0.39715517
00000000: 2769 cdbe f6c6 91be 0e79 ed3d bee2 f5be
00000010: 1612 d53e 2ae4 8f3d 8485 20bd 1ec9 4dbe
00000020: 155a 0e3f 3274 7f3e 87f0 cbbe 03ee ecbe
00000030: c71b b539 3274 e33e f741 bebe e342 063f
00000040: 53ee 8cbe aa6f 92be a090 0cbf 628f 0ebf
00000050: fb16 b0be 7995 ba3e 6eba f83e 2084 74be
00000060: ca96 e43e 897a bbbe 6f18 54be 099a 973e
00000070: 1081 983e efc2 563e f0aa 74be 00a9 97bd
00000080: cc91 043e d9f8 f73e c1bd 513d 3685 213d
00000090: 2f09 bcbe 77b5 fb3e a931 99be 3a1b efbd
000000a0: 9f52 08bc f5bb 84be 2979 0ebf 9532 a0be
000000b0: 5a33 83be c1c5 fb3c 5541 57bc c50d d2be
000000c0: 7532 223f 638e 063f d184 743c d550 7c3e
000000d0: 90f2 2ebf df70 e63c 81a1 8e3e eaa6 aabb
000000e0: 3ea4 bd3e a9f8 873e 065c a2be 76ca f83e
000000f0: 5bfa 02bf 7f56 b2be 35d9 b6bd b442 e53e
00000100: 4fc3 a53d b36d 1abe ef34 b93a 3039 973e
00000110: 1a2a b43e a83a cbbd f309 1f3f 24d4 3b3e
00000120: 9c0e 8b3d f79a a83e f449 8bbe fc23 d4bd
00000130: cf6d d3be f2ec 203e 4892 ab3e 5095 b3bd
00000140: 9808 3cbe 9029 77be 656a b5be eeec c33d
00000150: b560 4ebe eb9a 2e3e 1931 b2be badc e13d
00000160: d7a3 993d 30a4 783b 3a0f 1bbe afd9 123f
00000170: 89e1 cabe bd49 bc3e bc1f 15bc e207 3ebd
00000180: 14a9 e6be a67f b0be 9337 ad3e ec57 cb3e

enc_mu.weight f4 [10, 100]
-0.06292111 0.04190692 0.020642454 -0.12979758 0.04056722 -0.03926905 -0.003472097 0.13579941
-0.022549417 0.0016222154 -0.062224455 -0.05851432 -0.10444461 -0.088223614 -0.01371804 0.086978264
0.0072432216 0.08123958 0.09268745 -0.071652606 0.08842757 -0.10412397 -0.015566258 -0.1314298
-0.08705179 -0.020900577 -0.05032472 -0.023965184 0.04116845 -0.031016126 0.014418914 -0.0662321
-0.14201859 -0.014216342 -0.116819695 -0.011184257 0.0020658975 -0.021182323 -0.029290663 0.06912507
-0.012743281 -0.0054260716 0.009271067 0.09792986 -0.019481186 0.010935817 0.061872765 0.15724665
0.03506908 -0.03788241 -0.043436483 0.09839135 0.031337135 0.005522378 -0.12961832 -0.0052477866
-0.06685329 0.021561705 -0.014454147 0.059539806 0.00014701155 0.055371333 -0.017575257 0.07559389
0.09142984 -0.057420984 0.0033180807 -0.02639029 0.1139986 0.054702796 -0.034386795 0.10530345
-0.06439176 0.11511338 0.12630619 -0.02677721 -0.0018412897 0.058670122 -0.051758096 -0.08205351
0.0026470618 0.0032841957 0.053359073 -0.09987213 -0.11859863 0.006567614 -0.07971502 0.015519553
0.10514798 -0.12349188 -0.029711561 0.06507565 -0.09325421 0.015561331 -0.056784023 0.036521118
-0.08881865 -0.017547153 0.08662762 -0.0005397532 -0.017302383 0.07643065 -0.05892354 -0.039218735
0.004009452 -0.055890158 -0.021799352 0.044378795 0.046978217 -0.000982682 0.0015764583 -0.013235372
0.027318966 -0.07251789 -0.037680555 -0.009949004 0.0068482677 0.014545915 0.035685766 0.0700484
-0.0716393 0.028277373 0.07957319 -0.107983336 0.04009133 -0.081277624 0.10184749 0.10460567
0.05794858 0.0952324 0.04458817 0.052528482 -0.11021362 0.006199998 0.06923403 -0.07005544
-0.00050857046 -0.01233189 0.052081175 0.0045804298 0.028887302 -0.0004123681 0.0017173983 -0.0850014
-0.0475022 0.0011745805 0.095160045 0.079741046 0.02877974 0.014577515 0.021508386 0.038866464
-0.02454634 0.004305315 -0.084523685 -0.06490689 -0.022959134 -0.0053456076 -0.014982229 0.079371616
-0.011105559 0.030208323 0.08659517 0.041398235 0.0027587635 0.06849853 -0.0051841037 -0.08052228
0.10089781 0.019012198 0.016118705 -0.10715564 -0.044394597 -0.07443145 0.047419738 0.0048171245
0.0010108668 0.058989637 0.06910283 0.00723627 -0.014580736 -0.046446882 0.008810693 -0.09435882
-0.024433073 -0.012961165 0.0010460906 0.010388591 0.08975533 -0.05232086 -0.06381122 -0.007048921
-0.026500873 -0.08412317 -0.06261784 0.09317532 0.09563039 0.013261326 -0.03926319 0.021435408
-0.010580075 0.005546237 -0.009229839 -0.045165434 0.084166214 -0.07418174 0.028806379 -0.059769645
-0.023985902 -0.029154027 0.07560881 -0.031128956 -0.008577846 -0.10439112 -0.084002055 0.06524708
-0.011521225 -0.095596984 0.03831043 -0.03381005 -0.0058826488 -0.052118994 0.018591614 0.052556314
-0.0002795004 -0.024074059 0.03268372 -0.03233787 -0.071010195 -0.07539081 -0.03466351 0.10292966
0.012856555 0.1331647 0.052472632 -0.10288541 0.07286909 -0.037206218 0.012031796 -0.060380757
-0.003949865 0.0042069796 -0.050068963 -0.023309529 0.08672905 0.03876229 -0.02544562 -0.02749356
-0.08124666 -0.12744567 -0.109517395 -0.008294902 0.019446427 0.0078641 0.07870079 -0.020808835
00000000: c8dc 80bd 97a6 2b3d 5d1a a93c a8e9 04be
00000010: d029 263d 95d8 20bd 1f8c 63bb 000f 0b3e
00000020: 8eb9 b8bc 84a0 d43a 12df 7ebd b6ac 6fbd
00000030: 0ee7 d5bd 95ae b4bd a1c1 60bc a921 b23d
00000040: 8c58 ed3b f060 a63d ebd2 bd3d 9abe 92bd
00000050: 8419 b53d f33e d5bd 9e09 7fbc 8995 06be
00000060: 3548 b2bd b037 abbc 4b21 4ebd a252 c4bc
00000070: 40a0 283d 8815 febc 4f3d 6c3c b2a4 87bd
00000080: 526d 11be a9eb 68bc 2a3f efbd 2d3e 37bc
00000090: 0264 073b 8d86 adbc f9f2 efbc 7291 8d3d
000000a0: 32c9 50bc 30cd b1bb ace5 173c 738f c83d
000000b0: 0297 9fbc 242c 333c 4c6e 7d3d 4405 213e
000000c0: 98a4 0f3d 962a 1bbd 74ea 31bd 6781 c93d
000000d0: 5e5b 003d 10f5 b43b aaba 04be a0f5 abbb
000000e0: 61ea 88bd 2ca2 b03c 16d1 6cbc 03e0 733d
000000f0: 1d27 1a39 0dcd 623d fcf9 8fbc f8d0 9a3d
00000100: 913f bb3d 4432 6bbd 2874 593b 7330 d8bc
00000110: 1978 e93d 0a10 603d 2bd9 0cbd 56a9 d73d
00000120: d4df 83bd 90c0 eb3d 6956 013e e15b dbbc
00000130: 6e57 f1ba 1550 703d 4c00 54bd ac0b a8bd
00000140: 547a 2d3b a93b 573b 0b8f 5a3d c289 ccbd
00000150: d7e3 f2bd 2435 d73b a141 a3bd b945 7e3c
00000160: d357 d73d 50e9 fcbd a965 f3bc 6246 853d
00000170: 10fc bebd f4f4 7e3c 5d96 68bd 2b97 153d
00000180: 8de6 b5bd 0cbf 8fbc d269 b13d 397e 0dba
00000190: babd 8dbc ac87 9c3d cf59 71bd d3a3 20bd
000001a0: b961 833b 14ed 64bd 8e94 b2bc 8ac6 353d
000001b0: 3b6c 403d 56cd 80ba 2aa1 ce3a 2cd9 58bc
000001c0: 06cc df3c 4284 94bd ed56 1abd 2601 23bc
000001d0: 6f67 e03b fd51 6e3c 3d2b 123d 8975 8f3d
000001e0: a0b7 92bd f3a5 e73c 45f7 a23d 5e26 ddbd
000001f0: ce36 243d e274 a6bd 6b95 d03d 7f3b d63d
00000200: 7d5b 6d3d 3409 c33d 16a2 363d 1b28 573d
00000210: aeb7 e1bd 5a29 cb3b 92ca 8d3d 3a79 8fbd
00000220: 9651 05ba b20b 4abc 1253 553d 6e17 963b
00000230: 10a5 ec3c 1c33 d8b9 531a e13a 3715 aebd
00000240: ab91 42bd 62f4 993a 45e3 c23d 464f a33d
00000250: 7dc3 eb3c 88d6 6e3c 5b32 b03c 7132 1f3d
00000260: 6815 c9bc 9a13 8d3b c11a adbd e7ed 84bd
00000270: cb14 bcbc 352a afbb 0678 75bc 968d a23d
00000280: 17f4 35bc 7277 f73c cf58 b13d 3291 293d
00000290: 5fcc 343b f548 8c3d 6adf a9bb dde8 a4bd
000002a0: 83a3 ce3d 78bf 9b3c 600b 843c 6b74 dbbd
000002b0: 1cd7 35bd 846f 98bd 333b 423d f8d8 9d3b
000002c0: 107f 843a 1e9f 713d c985 8d3d 3b1e ed3b
000002d0: 0ae4 6ebc 163f 3ebd ba5a 103c 323f c1bd
000002e0: de27 c8bc 115b 54bc fa1c 893a e934 2a3c
000002f0: a4d1 b73d 664e 56bd 75af 82bd a3fa e6bb
00000300: 5c18 d9bc c548 acbd c83d 80bd b4d2 be3d
00000310: ded9 c33d 0846 593c 70d2 20bd 4f99 af3c
00000320: 0d58 2dbc 35bd b53b c038 17bc 64ff 38bd
00000330: 565f ac3d 99ec 97bd 5bfb eb3c 04d1 74bd
00000340: 157e c4bc 6dd4 eebc cbd8 9a3d 2702 ffbc
00000350: 188a 0cbc 03cb d5bd 4509 acbd 43a0 853d
00000360: 85c3 3cbc 5ac8 c3bd 66eb 1c3d 687c 0abd
00000370: 3cc3 c0bb ba7a 55bd 714d 983c 4a45 573d
00000380: e989 92b9 f636 c5bc 5ddf 053d b774 04bd
00000390: cb6d 91bd 7f66 9abd 53fb 0dbd c9cc d23d
000003a0: 4da4 523c 545c 083e 8bed 563d 96b5 d2bd
000003b0: 643c 953d 8c65 18bd 0321 453c d051 77bd
000003c0: de6d 81bb b4da 893b 1d15 4dbd a0f3 bebc
000003d0: 009f b13d 35c5 1e3d 5573 d0bc 2d3a e1bc
000003e0: a664 a6bd 1e81 02be a84a e0bd 57e7 07bc
000003f0: 1d4e 9f3c 6dd8 003c e12d a13d 4a77 aabc

enc_mu.bias f4 [10]
-0.084281914 -0.025833772 0.0824458 -0.092018306 -0.032052133 -0.05779585 0.024342561 0.0942242
-0.022540227 0.038594645
00000000: ff9b acbd 59a1 d3bc 58d9 a83d 1874 bcbd
00000010: 1949 03bd 57bb 6cbd 0d6a c73c 9ef8 c03d
00000020: 48a6 b8bc 6b15 1e3d

enc_log_var.weight f4 [10, 100]
0.24332346 -0.05513194 -0.065402254 0.3620495 -0.34539294 -0.038987983 -0.11389057 -0.02865489
-0.3531206 -0.1402154 0.33854526 0.12936042 0.021612007 -0.3695397 0.25953737 -0.52803385
0.10992467 0.12731443 0.6511798 0.4666458 0.35552612 -0.2865247 -0.3155882 0.16647981
-0.2815268 0.15299176 0.17685728 -0.1790932 -0.0838891 -0.15188868 0.2147569 -1.0316695e-05
-0.0837116 -0.1892966 0.0556492 -0.054073997 0.2117357 -0.16383034 0.13727035 -0.04254563
-0.012779654 0.25995955 0.23073399 0.22341359 -0.005143063 -0.044594567 0.059799 0.16935778
-0.2978948 -0.36040473 -0.049384195 -0.23184897 0.5479788 0.025259389 -0.32500106 -0.002248463
-0.3124026 -0.17349046 0.29406977 -0.0026778425 0.26048455 0.22147836 0.1620571 -0.50064844
-0.07913599 0.21920471 0.06412419 -0.028365001 -0.008973799 0.02436501 -0.43681598 -0.17160366
-0.018306114 -0.12773219 0.119729914 0.3051857 0.21226014 -0.21642168 -0.23367533 0.014793129
0.098520875 0.23443736 0.27494955 -0.20101583 0.15758273 -0.031230222 0.19764093 -0.16920312
-0.019813223 -0.019955752 0.042712856 -0.35751477 0.07297651 -0.06521611 0.027898325 0.13409679
0.39027396 0.36922264 -0.1916276 -0.017518053 0.3808439 0.18215743 -0.07706235 0.23828614
-0.3957857 -0.05352679 -0.006804185 0.1597423 -0.39791602 -0.082578406 0.22453323 0.27066565
0.008446494 -0.43951622 0.30949086 -0.40958816 0.1975036 0.18688446 0.33079958 0.51517034
0.3908731 -0.30876812 -0.35617492 0.25795063 -0.23936132 0.3126337 0.3236233 -0.1294453
-0.11583395 -0.1323071 0.34308732 0.09208773 -0.021175323 -0.47791797 -0.06727552 -0.060852583
0.25071898 -0.31906646 0.2406019 -0.0060925176 0.021100573 0.25450146 0.43533623 0.15838149
0.094990045 0.04117963 0.073895946 0.2848928 -0.33962134 -0.39062935 -0.025518365 -0.31293678
0.4893771 0.046499692 -0.25371218 -0.09518095 -0.22728047 -0.20298125 0.17693621 -0.46133512
0.2253394 0.30463678 0.12586397 -0.35549507 -0.059379715 0.22075658 -0.017090192 -0.34421393
-0.27407983 0.027483935 -0.48717117 -0.19275464 0.06790602 -0.32970735 0.35112286 0.31675136
0.46618098 -0.1266433 -0.24103099 0.15592222 0.17422484 0.101406544 0.36623326 -0.105079785
0.19217122 -0.021681938 0.21663544 -0.12979956 -0.10201768 0.037075587 0.12114085 -0.2531366
0.12748322 -0.4259345 -0.013093995 0.118769616 0.4148218 0.38257813 -0.37122956 -0.16769941
0.061746016 0.004531216 0.07397579 -0.050148677 -0.033711888 -0.034411788 0.07079273 0.004090551
-0.02906141 0.0046448163 -0.030038739 0.002436447 -0.0657988 -0.0063972985 -0.07723227 0.023281863
-0.0049945675 0.11219485 0.008747688 -0.0010037571 0.06693915 0.046800066 0.016341006 0.038595848
-0.019179521 -0.07019344 -0.08449387 0.01046561 0.0009813599 0.0771008 -0.08314573 0.005437865
0.020108515 -0.055158217 0.039478023 0.0689544 0.07292321 0.063650414 -0.0063158153 0.01332755
0.029201848 0.0010897518 -0.019372778 0.0017827981 -0.08604587 0.05856196 0.0010074135 -0.065119155
-0.075862326 -0.061603628 0.038590882 0.029528072 0.039786823 -0.0015923755 0.019875642 -0.11337141
00000000: c929 793e 07d2 61bd 9ef1 85bd 8d5e b93e
00000010: 58d7 b0be ddb1 1fbd 763f e9bd a9bd eabc
00000020: 39cc b4be a094 0fbe ce55 ad3e 0f77 043e
00000030: aa0b b13c 4f34 bdbe 15e2 843e 3a2d 07bf
00000040: 2f20 e13d b75e 023e b8b3 263f 33ec ee3e
00000050: 8507 b63e 5eb3 92be c794 a1be af79 2a3e
00000060: 4824 90be dfa9 1c3e 131a 353e 3564 37be
00000070: 0cce abbd b588 1bbe 3ce9 5b3e de15 2db7
00000080: fd70 abbd f8d6 41be 6af0 633d b27c 5dbd
00000090: 3ed1 583e 24c3 27be 9990 0c3e 5444 2ebd
000000a0: c161 51bc 6b19 853e 8845 6c3e 88c6 643e
000000b0: 2487 a8bb cba8 36bd ccef 743d 206c 2d3e
000000c0: ab85 98be f886 b8be 1547 4abd d169 6dbe
000000d0: 5748 0c3f c7ec ce3c 8a66 a6be f35a 13bb
000000e0: 3cf3 9fbe 7ca7 31be 5090 963e be7e 2fbb
000000f0: 3b5e 853e 39cb 623e 4cf2 253e 7f2a 00bf
00000100: 0d12 a2bd 3377 603e 8b53 833d b85d e8bc
00000110: d706 13bc 2199 c73c 58a6 dfbe dfb8 2fbe
00000120: b4f6 95bc 3acc 02be f534 f53d 4d41 9c3e
00000130: b95a 593e a59d 5dbe 9648 6fbe e15e 723c
00000140: 50c5 c93d 5910 703e 30c6 8c3e 18d7 4dbe
00000150: 5e5d 213e 86d6 ffbc 6262 4a3e 9543 2dbe
00000160: 574f a2bc 3f7a a3bc adf3 2e3d 2d0c b7be
00000170: b574 953d 0690 85bd 078b e43c ab50 093e
00000180: fdd1 c73e c00a bd3e 073a 44be 0582 8fbc
00000190: f9fd c23e 7a87 3a3e ded2 9dbd 4801 743e
000001a0: 6ca4 cabe e83e 5bbd a4f5 debb 7c93 233e
000001b0: a6bb cbbe de1e a9bd 0aec 653e b094 8a3e
000001c0: 2a63 0a3c 4508 e1be 9675 9e3e 8ab5 d1be
000001d0: 623e 4a3e a45e 3f3e 905e a93e 34e2 033f
000001e0: 8520 c83e db16 9ebe 8f5c b6be 1b12 843e
000001f0: 221b 75be 8611 a03e f4b1 a53e 4f8d 04be
00000200: 5a3a edbd 837b 07be 24a9 af3e 7e98 bc3d
00000210: df77 adbc aab1 f4be bfc7 89bd 8f40 79bd
00000220: 3d5e 803e ae5c a3be 5860 763e bea3 c7bb
00000230: 1cdb ac3c 044e 823e 64e4 de3e c22e 223e
00000240: 248a c23d f9ab 283d c256 973d 78dd 913e
00000250: d9e2 adbe 9200 c8be e40b d1bc 4039 a0be
00000260: a38f fa3e 7676 3e3d 90e6 81be 3bee c2bd
00000270: 36bc 68be 51da 4fbe c42e 353e 1e34 ecbe
00000280: 5fbf 663e 5af9 9b3e 7ce2 003e 7303 b6be
00000290: 2538 73bd 030e 623e bb00 8cbc cf3c b0be
000002a0: 3154 8cbe fd25 e13c 806e f9be 7961 45be
000002b0: 5012 8b3d 67cf a8be 60c6 b33e 3c2d a23e
000002c0: 46af ee3e c8ae 01be d4d0 76be 13aa 1f3e
000002d0: ff67 323e 3cae cf3d ed82 bb3e 1234 d7bd
000002e0: 88c8 443e 529e b1bc aed5 5d3e 2dea 04be
000002f0: a5ee d0bd 92dc 173d b218 f83d 1f9b 81be
00000300: f68a 023e 1614 dabe 3288 56bc 7c3d f33d
00000310: 8663 d43e 48e1 c33e cd11 bebe 65b9 2bbe
00000320: 64e9 7c3d 987a 943b 9e80 973d b368 4dbd
00000330: 7a15 0abd 60f3 0cbd c7fb 903d 070a 863b
00000340: 3212 eebc 8b33 983b cd13 f6bc ccac 1f3b
00000350: 85c1 86bd 6ea0 d1bb f42b 9ebd 9bb9 be3c
00000360: 78a9 a3bb 6ac6 e53d 7652 0f3c 8090 83ba
00000370: 6517 893d 6db1 3f3d 93dd 853c ae16 1e3d
00000380: 5f1e 9dbc 94c1 8fbd 1f0b adbd f377 2b3c
00000390: f9a0 803a 06e7 9d3d 4f48 aabd 1e30 b23b
000003a0: 9dba a43c 95ed 61bd b5b3 213d f737 8d3d
000003b0: c458 953d 265b 823d e6f4 cebb cc5b 5a3c
000003c0: b738 ef3c 01d6 8e3a a9b3 9ebc c7ac e93a
000003d0: d138 b0bd aade 6f3d 300b 843a 315d 85bd
000003e0: b55d 9bbd 1654 7cbd 7911 1e3d dbe4 f13c
000003f0: 82f7 223d 41b7 d0ba 3ed2 a23c 452f e8bd

enc_log_var.bias f4 [10]
-0.32292405 -0.47471038 -0.088844 -0.084099956 -0.04972807 -0.13758194 -0.065271735 -0.059264418
-0.08311339 -0.19800524
00000000: 4d56 a5be 3d0d f3be d8f3 b5bd 993c acbd
00000010: a9af 4bbd 48e2 0cbe 30ad 85bd 3fbf 72bd
00000020: 5a37 aabd e3c1 4abe

dec_shared.weight f4 [100, 10]
0.014034998 0.61693776 0.06567671 -0.21003766 0.10771248 -0.14715126 0.21413445 -0.094245724
0.0056989877 0.015480017 0.14594488 0.24523686 -0.05031844 0.058926187 0.006027998 0.3284029
0.32547054 0.17083448 -0.037835866 0.06395427 -0.21540679 -0.37796846 0.026890272 -0.1543481
-0.017333614 0.10748896 0.1317527 0.036217295 0.0074431133 0.05044918 -0.007590271 0.09261478
0.027744418 0.101635866 -0.06127847 0.1054548 -0.019927379 -0.050370652 -0.07236253 -0.0465851
0.7643684 -0.30217075 0.00946986 0.26383886 -0.07077984 -0.19449888 0.4165098 -0.12856418
-0.012604946 -0.24495092 -0.54949254 1.0580001 0.0047723255 -0.024037594 0.029651022 -0.008840358
0.17427689 -0.036935177 -0.0064449743 -0.018302092 -0.27250233 0.4367056 0.050893117 0.047654185
0.1709033 -0.11760667 -0.042301357 -0.0075742374 -0.009840992 -0.06155154 0.18681401 -0.35995087
0.00902666 -0.089831784 0.14320342 -0.2580691 -0.13328955 -0.03165669 0.015900953 0.10448817
-0.13612755 0.3152372 -0.03934113 0.040696897 -0.08511711 -0.19680135 -0.09422201 0.14287683
0.010312087 0.013819428 0.65173805 -1.3359675 0.00795862 -0.025591658 0.12456596 0.084188215
-0.15200444 0.035440043 0.011481714 -0.08726698 0.22875705 0.15022695 0.027919743 -0.1033376
-0.10704176 -0.22454478 0.106366254 0.038064994 -0.03423176 0.14494446 -0.67217714 0.91007835
0.006347957 0.046428744 -0.012178009 -0.06804055 -0.055559516 0.053145904 -0.0042749834 -0.0047825715
0.042138007 0.10804699 -0.006585669 -0.05862293 -0.044255838 0.0037061868 -0.11692946 0.035685733
-0.13376985 0.16985792 -0.896654 0.44527313 0.0072198682 0.21737477 -0.051364146 0.2504087
-0.32362047 -0.027247762 0.06435442 -0.053187028 -0.13280922 0.1145145 0.032532956 -0.13296644
-0.44642118 0.09171826 0.050965846 0.12989016 -0.012166681 0.1747379 0.6307048 -0.9762614
-0.028448425 0.015358636 0.021787249 0.03869267 -0.12037997 -0.008838309 0.016606309 -0.017261276
0.50436443 0.17989221 0.02549147 0.09077649 -0.17354226 0.05451936 0.304738 0.008501485
-0.024306372 0.15690562 -0.026632372 -0.2247053 -0.014981912 0.115926825 -0.11519606 -0.30585113
-0.090133324 0.003451663 -0.011254265 -0.20267136 -0.6350578 0.91330093 0.004091649 0.03516862
0.008851708 -0.099446714 -0.015273953 -0.05400607 -0.05194516 -0.05413546 0.4680191 -0.002943575
-0.041824624 -0.21538642 0.20221548 0.30458644 -0.30931604 0.18845397 0.01175208 -0.016510488
-1.2921262 0.5655801 -0.026496768 -0.23406476 -0.05470821 0.47783256 -0.24129078 -0.039475106
-0.065203264 0.03201006 -0.7011111 1.1668512 -0.025309253 0.05695735 0.026468394 -0.011229249
0.23240887 0.003704036 0.04388671 0.03431567 0.71704006 -0.32954448 -0.018537765 -0.21101594
0.0005846934 0.2620757 -0.52211577 -0.029829131 -0.010189745 -0.2847664 -0.29218796 0.53367925
-0.023589456 0.057236005 0.053215034 0.22581953 -0.067920744 0.07832286 0.07918578 -0.08070767
0.48132867 -1.2171462 -0.004921824 0.032167833 -0.00589212 -0.028543131 -0.19909297 -0.046511956
-0.02811225 -0.0035039887 -0.6108563 -0.020906368 0.011534559 0.20179191 -0.08192028 -0.16941202
00000000: 0cf3 653c a2ef 1d3f 8381 863d 1d14 57be
00000010: 5c98 dc3d d2ae 16be 1046 5b3e e703 c1bd
00000020: 93be ba3b e69f 7d3c 9372 153e 5f1f 7b3e
00000030: b51a 4ebd 965c 713d 8386 c53b 6d24 a83e
00000040: 13a4 a63e 3cef 2e3e c8f9 1abd 75fa 823d
00000050: 9993 5cbe 1585 c1be fd48 dc3c 6e0d 1ebe
00000060: 39ff 8dbc 2c23 dc3d 2eea 063e 9658 143d
00000070: 5ce5 f33b cda3 4e3d cfb7 f8bb d1ac bd3d
00000080: 4348 e33c 7726 d03d 22ff 7abd b0f8 d73d
00000090: be3e a3bc 7551 4ebd ce32 94bd 05d0 3ebd
000000a0: a6ad 433f 20b6 9abe 7927 1b3c e315 873e
000000b0: 05f5 90bd b72a 47be c640 d53e 54a6 03be
000000c0: fa84 4ebc 6ad4 7abe 8bab 0cbf 8c6c 873f
000000d0: 2b61 9c3b 7dea c4bc b3e6 f23c 26d7 10bc
000000e0: a475 323e 5749 17bd 5d30 d3bb 45ee 95bc
000000f0: 6d85 8bbe e097 df3e 4d75 503d 0931 433d
00000100: 4601 2f3e c4db f0bd 3044 2dbd 4f31 f8bb
00000110: 1d3c 21bc 781d 7cbd 2c4c 3f3e 7b4b b8be
00000120: 8ee4 133c baf9 b7bd eba3 123e a221 84be
00000130: 0e7d 08be 72aa 01bd b742 823c e5fd d53d
00000140: 0565 0bbe c566 a13e 2a24 21bd cab1 263d
00000150: e151 aebd 4b86 49be 78f7 c0bd 4e4e 123e
00000160: 07f4 283c e26a 623c 4ed8 263f fc00 abbf
00000170: df64 023c 99a5 d1bc 701c ff3d df6a ac3d
00000180: 0da7 1bbe 9429 113d cd1d 3c3c 08b9 b2bd
00000190: 4a3f 6a3e 18d5 193e f2b7 e43c aaa2 d3bd
000001a0: b638 dbbd 11ef 65be 8dd6 d93d 0aea 1b3d
000001b0: 9a36 0cbd 526c 143e cd13 2cbf e5fa 683f
000001c0: 8602 d03b 112c 3e3d 4686 47bc d858 8bbd
000001d0: 6092 63bd 85af 593d 2915 8cbb 1eb7 9cbb
000001e0: e798 2c3d be47 dd3d 98cc d7bb 991e 70bd
000001f0: 9c45 35bd 7fe3 723b b678 efbd 342b 123d
00000200: f7fa 08be 3cef 2d3e 1e8b 65bf d7fa e33e
00000210: a594 ec3b 7e97 5e3e 3663 52bd 9235 803e
00000220: 95b1 a5be b336 dfbc 40cc 833d a4da 59bd
00000230: 24ff 07be 9486 ea3d 4741 053d 5b28 08be
00000240: 5191 e4be c8d6 bb3d 90c1 503d ed01 053e
00000250: c256 47bc 7eee 323e df75 213f 44ec 79bf
00000260: ac0c e9bc caa2 7b3c 2c7b b23c 357c 1e3d
00000270: c689 f6bd 8ece 10bc f409 883c 8567 8dbc
00000280: 071e 013f aa35 383e 7dd3 d03c 06e9 b93d
00000290: 10b5 31be b14f 5f3d 9e06 9c3e d049 0b3c
000002a0: 281e c7bc deab 203e 222c dabc 2519 66be
000002b0: b276 75bc 0b6b ed3d e9eb ebbd 8598 9cbe
000002c0: d297 b8bd 4c35 623b cf63 38bc 1589 4fbe
000002d0: 2693 22bf 17ce 693f 3d13 863b f90c 103d
000002e0: c106 113c b8aa cbbd 9a3f 7abc 7835 5dbd
000002f0: 73c4 54bd 25bd 5dbd 33a0 ef3e fee8 40bb
00000300: 4c50 2bbd 428e 5cbe 9311 4f3e c1f2 9b3e
00000310: ac5e 9ebe 14fa 403e cc8b 403c 0141 87bc
00000320: 6464 a5bf dcc9 103f c00f d9bc acae 6fbe
00000330: b715 60bd 78a6 f43e ee14 77be a6b0 21bd
00000340: 4a89 85bd fb1c 033d 047c 33bf 615b 953f
00000350: 5a55 cfbc 1c4c 693d 3fd4 d83c e2fa 37bc
00000360: 97fc 6d3e 69bf 723b 8dc2 333d 978e 0c3d
00000370: f08f 373f 0eba a8be 83dc 97bc 9014 58be
00000380: 1c46 193a c92e 863e 61a9 05bf 395c f4bc
00000390: e3f2 26bc e7cc 91be a999 95be 349f 083f
000003a0: ad3e c1bc 4d70 6a3d 02f8 593d 3c3d 673e
000003b0: 081a 8bbd bc67 a03d 272c a23d 104a a5bd
000003c0: b670 f63e 72cb 9bbf 4147 a1bb 6bc2 033d
000003d0: af12 c1bb 49d3 e9bc 07df 4bbe 5283 3ebd
000003e0: a94b e6bc 2da3 65bb 1461 1cbf d543 abbc
000003f0: 72fb 3c3c 8aa2 4e3e d2c5 a7bd 587a 2dbe

dec_shared.bias f4 [100]
-0.08930129 0.22317943 -0.74047196 -0.6222362 -0.15215805 -0.1535593 -0.21154884 -0.56133693
0.39901796 -0.06924969 0.5664688 0.07866442 0.5632017 -0.2515282 -0.2325286 -0.09536455
-0.35041505 0.4999449 -0.050535675 -0.1948091 0.04094669 0.027502399 0.1938534 -0.44227988
-0.050289 0.1539246 -0.10406608 -0.2609811 0.49984786 0.32382923 0.12833501 0.2572536
-0.22316554 0.076889 0.0102839535 -0.08144412 -0.6482215 0.29023167 0.11577882 0.02447235
0.024220753 0.49586383 0.03316694 0.11568213 -0.005494025 0.02857676 0.17393386 -0.17927277
0.046445988 -0.35011208 0.28073153 -0.09905399 -0.07929733 -0.7159286 0.4562789 0.27926558
-0.2493073 0.15950526 -0.11443723 -0.37685987 -0.35315782 0.11073699 -0.22258648 0.18057136
0.11387727 -0.16666332 -0.4711864 0.23461728 0.49363756 -0.20062743 -0.521393 -0.03896092
-0.1205184 0.04994655 0.18860115 -0.032086514 -0.24423015 -0.4468885 -0.15957719 -0.5068509
0.272703 0.44517484 0.41177976 0.21076037 -0.31191128 0.22667664 -0.343701 0.10201515
0.11249383 -0.04867081 0.16052873 0.1049671 0.40184093 0.082414344 0.22776833 -0.11146358
-0.61278397 -0.009837754 -0.35098433 0.32111508
00000000: 98e3 b6bd 2689 643e 928f 3dbf df4a 1fbf
00000010: 52cf 1bbe a63e 1dbe 42a0 58be c7b3 0fbf
00000020: 154c cc3e c8d2 8dbd 1904 113f d01a a13d
00000030: fd2d 103f 4ec8 80be fa1b 6ebe 7d4e c3bd
00000040: 9a69 b3be c7f8 ff3e 7ffe 4ebd 097c 47be
00000050: b7b7 273d b64c e13c 8181 463e 8272 e2be
00000060: d7fb 4dbd 699e 1d3e 9920 d5bd 519f 85be
00000070: 0fec ff3e f2cc a53e 416a 033e beb6 833e
00000080: 8285 64be fb77 9d3d 077e 283c 2dcc a6bd
00000090: d8f1 25bf 3f99 943e 721d ed3d 3d7a c83c
000000a0: 9a6a c63c dde1 fd3e 0fda 073d c1ea ec3d
000000b0: 3907 b4bb cf19 ea3c b81b 323e 4893 37be
000000c0: 263e 3e3d e441 b3be 0bbc 8f3e d1dc cabd
000000d0: a366 a2bd 1947 37bf 639d e93e e6fb 8e3e
000000e0: 6a4a 7fbe 5955 233e 115e eabd c7f3 c0be
000000f0: 1ad1 b4be 13ca e23d b6ed 63be b3e7 383e
00000100: 7c38 e93d caa9 2abe 583f f1be 833f 703e
00000110: 10be fc3e 4771 4dbe 037a 05bf 7c95 1fbd
00000120: 5ad2 f6bd c194 4c3d a920 413e 266d 03bd
00000130: 7817 7abe 92ce e4be 3468 23be fbc0 01bf
00000140: ba9f 8b3e f5ed e33e ccd4 d23e 91d1 573e
00000150: d6b2 9fbe ec1d 683e 94f9 afbe 52ed d03d
00000160: 2a63 e63d 0b5b 47bd a561 243e fef8 d63d
00000170: 18be cd3e dac8 a83d 1a3c 693e 0447 e4bd
00000180: 69df 1cbf 882e 21bc 38b4 b3be 3269 a43e

dec_mu.weight f4 [20, 100]
-0.024476659 0.064829096 -0.15981062 0.06293761 -0.034779 0.09226006 0.09090859 -0.09575424
0.08522865 -0.032602265 -0.016138978 0.0036115192 0.081417516 -0.028908724 0.040583152 -0.17732012
0.064620115 -0.05151828 0.07783585 0.07708774 0.003056431 0.1146519 -0.029391734 0.12869418
-0.18453443 -0.1850088 0.03461267 0.039285004 -0.002490767 -0.06266053 0.051098593 0.0056437557
0.096600495 0.11805486 0.040313236 0.12650472 -0.029078644 0.072100066 -0.0376278 -0.16398475
-0.15051794 0.004694136 -0.1196885 0.09301478 -0.11711174 0.043109052 0.10682849 0.006124899
-0.11195552 0.046710692 0.09035199 -0.054019064 -0.12709631 -0.15038012 -0.088649124 -0.09675652
0.10358838 0.0596211 -0.045813322 -0.19392991 -0.21556379 -0.05430764 -0.034063604 -0.15302484
-0.026082443 0.03297773 -0.085034974 -0.16067517 -0.102548316 0.105650805 0.1972936 -0.039970186
0.0191502 -0.009860651 -0.059595093 0.06681116 -0.14872183 0.12153792 0.058784142 -0.11786286
0.13690539 0.033786125 0.006329287 0.17045492 -0.022886604 -0.08310866 -0.001563501 0.09913041
-0.13214107 -0.12738001 -0.06047473 -0.111796744 -0.12902719 -0.13110246 -0.108238995 0.1729856
0.018185485 -0.0039498745 0.05910901 0.14633682 0.1301484 -0.04361024 0.12158327 0.011203561
-0.015115255 0.117262825 0.009064891 -0.13841493 -0.07176127 -0.10609833 -0.030817417 0.13212393
-0.070528224 -0.0008332103 -0.08763799 -0.19924219 -0.19833295 0.021743612 0.048036817 -0.14079146
-0.1290863 0.12841357 -0.041951925 0.073042534 -0.19538416 -0.04401148 0.05130217 -0.01616924
-0.019980872 -0.080959685 0.092001766 0.07276153 0.02778902 0.30575305 -0.17610925 -0.051183138
0.06283717 0.16531797 -0.14142346 -0.047083084 -0.13800146 0.034316555 -0.22340725 0.17392243
-0.107976355 0.065014176 -0.11907911 0.09477603 -0.18489176 -0.12413258 0.0031022711 -0.0233498
-0.070870444 0.07534337 0.041927967 0.03623673 0.026350806 0.065605775 0.059156343 -0.055456106
-0.034648694 -0.08475199 -0.06496606 -0.17500341 0.123582155 0.18347348 0.1813079 0.016030854
-0.0844419 -0.061106645 -0.11264898 -0.1879941 -0.100518405 -0.08321382 -0.15721007 0.10668347
0.08280801 0.029505659 0.045176502 0.01675681 0.09807133 0.017514262 -0.11306106 -0.0046693846
0.11333094 -0.08832332 -0.04553083 -0.1853541 0.011407052 -0.17039236 0.038851883 -0.25540417
0.13000782 -0.15639296 0.0053626206 0.08969878 0.036640473 0.09783568 -0.17132856 -0.07539135
-0.008005685 -0.003533065 0.0070558153 -0.039371815 -0.07244997 0.1603546 0.0045111394 0.028622145
-0.0015842197 -0.061698817 0.13604994 0.21571033 -0.033363648 0.054483622 0.18415207 -0.16761658
0.056041647 0.07633367 0.12624606 -0.03772757 0.023816934 0.05258206 0.012050155 0.02598751
-0.11714703 0.006016548 0.11501601 -0.114028 -0.21464789 0.009496052 -0.06390652 -0.06849339
-0.07753745 0.12599887 -0.05797132 0.0619188 -0.01816627 0.02775685 0.21710624 -0.11182903
-0.04811236 -0.12861317 -0.05476077 0.118336946 -0.10995451 0.04212276 0.14852077 0.042837717
0.082085446 0.038384527 -0.018593444 0.100118786 0.028729083 -0.06186833 0.03793877 -0.062043387
00000000: 4683 c8bc 1ec5 843d 65a5 23be 6fe5 803d
00000010: 6d74 0ebd d8f2 bc3d 482e ba3d cd1a c4bd
00000020: 5c8c ae3d f489 05bd e435 84bc 3daf 6c3b
00000030: 3abe a63d fdd1 ecbc 853a 263d 6893 35be
00000040: 8d57 843d d504 53bd 6768 9f3d 2de0 9d3d
00000050: 674e 483b 9ece ea3d efc6 f0bc 68c8 033e
00000060: 98f6 3cbe f272 3dbe 04c6 0d3d 50e9 203d
00000070: 233c 23bb 2a54 80bd c24c 513d 41ef b83b
00000080: 7bd6 c53d bfc6 f13d 7e1f 253d 748a 013e
00000090: 5636 eebc 33a9 933d 9c1f 1abd 9eeb 27be
000000a0: 6021 1abe 44d1 993b 3f1f f5bd 887e be3d
000000b0: 48d8 efbd 1e93 303d e5c8 da3d 60b3 c83b
000000c0: f048 e5bd b653 3f3d 770a b93d 1843 5dbd
000000d0: 8925 02be 3ffd 19be ac8d b5bd 4828 c6bd
000000e0: 2526 d43d 4135 743d c0a6 3bbd 9095 46be
000000f0: c1bc 5cbe b071 5ebd 4786 0bbd 8bb2 1cbe
00000100: d9aa d5bc a813 073d d126 aebd 0888 24be
00000110: da04 d2bd 735f d83d 5507 4a3e c7b7 23bd
00000120: e1e0 9c3c 918e 21bc fc19 74bd 4ad4 883d
00000130: 894a 18be dfe8 f83d a4c7 703d 1562 f1bd
00000140: ed30 0c3e 5263 0a3d e865 cf3b bc8b 2e3e
00000150: b07c bbbc e034 aabd 63ee ccba e204 cb3d
00000160: fd4f 07be e86f 02be 5ab4 77bd b1f5 e4bd
00000170: b41f 04be b93f 06be 68ac ddbd 2323 313e
00000180: baf9 943c f36d 81bb 4a1c 723d 52d9 153e
00000190: 9f45 053e a7a0 32bd a600 f93d 248f 373c
000001a0: f9a5 77bc 7e27 f03d e984 143c a5bc 0dbe
000001b0: 93f7 92bd 154a d9bd cf74 fcbc 7f4b 073e
000001c0: 1a71 90bd cc6b 5aba 8c7b b3bd 2506 4cbe
000001d0: cb17 4bbe a91f b23c 41c2 443d a32b 10be
000001e0: 332f 04be d97e 033e c8d5 2bbd 5397 953d
000001f0: c912 48be 6245 34bd 3922 523d 5b75 84bc
00000200: edae a3bc 31ce a5bd 6c6b bc3d ff03 953d
00000210: cda5 e33c aa8b 9c3e fc55 34be 69a5 51bd
00000220: c6b0 803d 1d49 293e 50d1 10be 31da 40bd
00000230: 4150 0dbe 848f 0c3d dfc4 64be b918 323e
00000240: b522 ddbd 2726 853d c0df f3bd ef19 c23d
00000250: 4454 3dbe 3939 febd 794f 4b3b 1448 bfbc
00000260: 8624 91bd a04d 9a3d a9bc 2b3d f76c 143d
00000270: a5dd d73c 525c 863d ec4d 723d f125 63bd
00000280: caeb 0dbd 7492 adbd ed0c 85bd 1834 33be
00000290: a418 fd3d 79e0 3b3e c7a8 393e 2353 833c
000002a0: e0ef acbd f64a 7abd 82b4 e6bd 8681 40be
000002b0: 98dc cdbd 026c aabd adfb 20be dd7c da3d
000002c0: 3f97 a93d dab5 f13c ff0a 393d 9445 893c
000002d0: 9fd9 c83d 127a 8f3c 8f8c e7bd a301 99bb
000002e0: 0d1a e83d dbe2 b4bd 897e 3abd 77cd 3dbe
000002f0: a5e4 3a3c 567b 2ebe 2723 1f3d 56c4 82be
00000300: c520 053e 7a25 20be ecb8 af3b feb3 b73d
00000310: 5214 163d 135e c83d c170 2fbe c866 9abd
00000320: 472a 03bc ff8a 67bb 7834 e73b 5744 21bd
00000330: a660 94bd ff33 243e 2ed2 933b fd78 ea3c
00000340: 98a5 cfba e6b7 7cbd ad50 0b3e 2be3 5c3e
00000350: 52a8 08bd 382a 5f3d 5c92 3c3e aea3 2bbe
00000360: ed8b 653d d454 9c3d a646 013e 3988 1abd
00000370: bb1b c33c 4960 573d 036e 453c c2e3 d43c
00000380: c8ea efbd 7626 c53b 848d eb3d 8387 e9bd
00000390: a8cc 5bbe 5495 1b3c 6ce1 82bd 4346 8cbd
000003a0: f4cb 9ebd d905 013e 5673 6dbd 919e 7d3d
000003b0: 6ed1 94bc 5562 e33c 1951 5e3e 9e06 e5bd
000003c0: 7711 45bd 2cb3 03be d44c 60bd a45a f23d
000003d0: d52f e1bd ea88 2c3d d415 183e 9a76 2f3d
000003e0: 6a1c a83d 1839 1d3d 4751 98bc 140b cd3d
000003f0: 4159 eb3c a569 7dbd af65 1b3d 3521 7ebd

dec_mu.bias f4 [20]
-0.07581987 0.110124275 0.00690615 -0.093416505 -0.013863675 -0.045690276 -0.015688969 0.063778326
-0.06393474 0.0028109145 0.00023195789 0.021098152 -0.020198153 -0.0050732195 0.07487737 -0.026809946
0.06804649 0.0023072795 0.02611926 -0.14042895
00000000: 7347 9bbd d688 e13d fc4c e23b 2751 bfbd
00000010: 7824 63bc ba25 3bbd 2786 80bc 369e 823d
00000020: 38f0 82bd 5237 383b b939 7339 08d6 ac3c
00000030: 9976 a5bc 403d a6bb 4e59 993d 88a0 dbbc
00000040: f55b 8b3d ba35 173b 0ff8 d53c 9bcc 0fbe

dec_log_var.weight f4 [20, 100]
-0.05571187 -0.2200441 0.4878866 0.37320083 0.14188327 -0.10726115 0.08107709 0.27747318
-0.099103756 0.023027377 -0.35719714 0.052043866 -0.3273098 0.028982623 0.15884954 0.03835565
0.09144229 -0.4363612 -0.044135924 0.15965016 0.04741904 -0.05168196 -0.09571269 0.25754386
-0.02992343 -0.09121719 0.008756804 -0.044041548 -0.2697969 -0.25646618 -0.09149282 -0.021942582
0.08827191 -0.09816697 0.08631237 0.21722752 0.4089123 -0.14147273 -0.078092165 -0.09356822
0.061848816 -0.20324622 0.04794883 -0.10726013 0.07207988 -0.048106667 -0.097674154 0.22056675
-0.0051258863 0.2138598 -0.23110479 0.034678657 0.06919422 0.23631153 -0.32529932 -0.24474962
0.24378979 -0.09980542 0.13765302 0.32073522 0.31545758 -0.0642583 0.106251225 -0.11507884
-0.07661024 0.17197704 0.2907101 -0.20296249 -0.45794803 0.19523548 0.272862 0.004334339
0.11388476 -0.02098145 -0.08263849 0.009401049 0.054472104 0.0582283 0.031130068 0.3142429
-0.04375702 -0.3614998 -0.32234415 -0.17164645 0.16880818 -0.19987294 0.18431494 -0.11223085
-0.034199186 0.108379744 -0.10831939 -0.07264882 -0.21936996 0.048146833 -0.13316756 0.022593005
0.09062831 -0.06844922 0.42239487 -0.2470136 0.08091982 -0.15457964 0.09777011 0.24066786
0.1017675 -0.20254718 -0.060782183 0.23457196 0.31075147 -0.19695193 -0.47751153 0.21684617
-0.10504621 0.07232417 0.06479257 -0.22700909 0.40559068 -0.1835165 -0.15131764 0.11647135
0.019875184 0.047179997 -0.11897763 0.110527635 0.024538357 -0.0025102114 -0.14589182 -0.27355224
-0.061287005 -0.11358574 -0.061046146 0.09652541 -0.07540927 0.24375807 -0.021378143 0.05910399
0.26846972 0.11567544 -0.061441183 0.02276611 0.1154767 -0.1272141 0.15253058 0.31062707
-0.14436884 -0.047771312 -0.17998123 -0.19865827 -0.108611755 0.06326773 -0.07101985 -0.11320081
-0.21105714 0.21728794 0.04070945 -0.022400228 0.057398934 0.05503527 -0.0997529 0.14438038
0.20987032 0.114767425 0.09961396 -0.03207354 0.24820176 -0.45293224 0.23925067 -0.021917196
-0.053736176 -0.09044103 0.04922918 -0.08801514 -0.031345833 -0.0788667 -0.2398679 -0.011045916
-0.11184939 0.07155043 -0.01312616 -0.009472612 0.11646273 -0.16434273 -0.26925912 -0.20836577
0.023589047 -0.20270954 0.17568003 0.10095271 -0.015270085 -0.036088962 0.11173366 0.34866005
-0.06434027 0.14841497 -0.15257402 -0.32059646 0.3957908 -0.05557633 0.2661903 -0.11315558
-0.003300505 -0.027716186 0.3424869 0.2185695 -0.22790152 -0.090664156 0.15511262 -0.057992443
0.09062148 -0.15138537 -0.036491938 0.047845177 -0.1137593 -0.43519667 0.02401357 -0.015532717
-0.09455527 -0.23780833 0.048122708 -0.008653948 0.21586867 0.06195167 -0.117190234 -0.02791308
-0.042666677 -0.021675821 -0.13966262 0.13560621 -0.12400857 -0.053123068 0.19459769 0.26604334
0.016053528 -0.055692233 0.01489866 0.016658837 0.15389939 0.088807665 0.14999053 0.026743598
0.07658622 -0.06657045 0.0444415 0.06534205 0.048713505 0.0029362233 0.18318623 -0.037742563
-0.099770226 0.02493057 -0.15354718 0.12750155 -0.024425367 0.210061 -0.2551042 0.11937552
00000000: 2132 64bd 3e53 61be 46cc f93e 2e14 bf3e
00000010: d949 113e bcab dbbd bf0b a63d f710 8e3e
00000020: e9f6 cabd e9a3 bc3c 8be2 b6be f32b 553d
00000030: 2695 a7be f76c ed3c 74a9 223e d01a 1d3d
00000040: 1846 bb3d bc6a dfbe dfc7 34bd 557b 233e
00000050: 783a 423d 76b0 53bd 0405 c4bd cadc 833e
00000060: fb21 f5bc 14d0 babd b378 0f3c e964 34bd
00000070: d222 8abe 894f 83be 9660 bbbd eec0 b3bc
00000080: e7c7 b43d c40b c9bd 8ac4 b03d e470 5e3e
00000090: f45c d13e 3ade 10be c9ee 9fbd b2a0 bfbd
000000a0: 2f55 7d3d c71f 50be fe65 443d 33ab dbbd
000000b0: 9e9e 933d 7f0b 45bd 6309 c8bd 40dc 613e
000000c0: 0df7 a7bb 10fe 5a3e bca6 6cbe 350b 0e3d
000000d0: b3b5 8d3d a6fb 713e a28d a6be a59f 7abe
000000e0: 08a4 793e c966 ccbd eaf4 0c3e 6837 a43e
000000f0: a883 a13e db99 83bd 3e9a d93d 74ae ebbd
00000100: d4e5 9cbd c01a 303e f4d7 943e 66d5 4fbe
00000110: 2a78 eabe cfeb 473e 91b4 8b3e 1207 8e3b
00000120: 6a3c e93d 4ae1 abbc 5e3e a9bd dc06 1a3c
00000130: 241e 5f3d cc80 6e3d 7c04 ff3c 72e4 a03e
00000140: 903a 33bd 8016 b9be 4b0a a5be 16c4 2fbe
00000150: 0ddc 2c3e 7eab 4cbe 0ebd 3c3e 4ad9 e5bd
00000160: 7214 0cbd 33f6 dd3d 8ed6 ddbd e8c8 94bd
00000170: 85a2 60be 9d35 453d 145d 08be f714 b93c
00000180: 569b b93d 1b2f 8cbd 2444 d83e 22f1 7cbe
00000190: 4ab9 a53d 204a 1ebe b23b c83d a371 763e
000001a0: 7b6b d03d 8768 4fbe bdf6 78bd a233 703e
000001b0: d11a 9f3e c4ad 49be 647c f4be ec0c 5e3e
000001c0: 7822 d7bd b21e 943d f8b1 843d 1275 68be
000001d0: 95a9 cf3e c0eb 3bbe 03f3 1abe 8888 ee3d
000001e0: 48d1 a23c d03f 413d 8baa f3bd 505c e23d
000001f0: aa04 c93c 5c82 24bb aa64 15be 0a0f 8cbe
00000200: 1508 7bbd a49f e8bd 860b 7abd 1daf c53d
00000210: 2d70 9abd b79b 793e 3721 afbc 0717 723d
00000220: dd74 893e 3fe7 ec3d c0a9 7bbd fe7f ba3c
00000230: 0c7f ec3d 6a44 02be fa30 1c3e 830a 9f3e
00000240: 6dd5 13be daab 43bd 004d 38be 136d 4bbe
00000250: d76f debd 8392 813d db72 91bd d4d5 e7bd
00000260: 5d1f 58be bb80 5e3e f4be 263d af80 b7bc
00000270: 251b 6b3d aa6c 613d 404b ccbd 73d8 133e
00000280: 3fe8 563e 2f0b eb3d 6702 cc3d 8b5f 03bd
00000290: 9a28 7e3e bce6 e7be 21fe 743e b18b b3bc
000002a0: 771a 5cbd 2639 b9bd 89a4 493d 4841 b4bd
000002b0: 7d64 00bd dd84 a1bd ee9f 75be eef9 34bc
000002c0: 4b11 e5bd 0889 923d 1b0f 57bc 0433 1bbc
000002d0: 0384 ee3d 7649 28be 55dc 89be d65d 55be
000002e0: d13d c13c 1793 4fbe 77e5 333e 4bc0 ce3d
000002f0: 612f 7abc 05d2 13bd 9ed4 e43d 9283 b23e
00000300: d5c4 83bd 18fa 173e 5d3c 1cbe 3825 a4be
00000310: 17a5 ca3e 01a4 63bd 184a 883e 1dbe e7bd
00000320: 494d 58bb 0e0d e3bc 715a af3e afd0 5f3e
00000330: 045f 69be 21ae b9bd d8d5 1e3e 7c89 6dbd
00000340: c197 b93d c404 1bbe 9278 15bd 4ef9 433d
00000350: a3fa e8bd 19d2 debe 1bb8 c43c f07c 7ebc
00000360: 32a6 c1bd 0784 73be 511c 453d 4ac9 0dbc
00000370: ad0c 5d3e 09c1 7d3d 6f01 f0bd f9a9 e4bc
00000380: 41c3 2ebd 7e91 b1bc b803 0fbe 5bdc 0a3e
00000390: 35f8 fdbd 9397 59bd 9e44 473e d536 883e
000003a0: b082 833c 8a1d 64bd 8219 743c 1d78 883c
000003b0: cd97 1d3e cbe0 b53d 1e97 193e 6415 db3c
000003c0: 3cd9 9c3d 1756 88bd 4a08 363d 0dd2 853d
000003d0: d087 473d a76d 403b 2c95 3b3e f297 1abd
000003e0: 5554 ccbd 323b cc3c 793b 1dbe c48f 023e
000003f0: b517 c8bc 3b1a 573e 059d 82be 277b f43d

dec_log_var.bias f4 [20]
-0.20282128 -0.19091496 -0.17130364 -0.19595699 -0.14141692 -0.10729332 -0.08691525 -0.068865865
-0.08411577 -0.055994045 -0.09928897 -0.075128734 -0.0868259 -0.18097179 -0.19015336 -0.08018242
0.06735268 -0.1434646 -0.08018465 -0.16373177
00000000: 62b0 4fbe 367f 43be 396a 2fbe f3a8 48be
00000010: 99cf 10be 9abc dbbd 9f00 b2bd 8c09 8dbd
00000020: e444 acbd 035a 65bd 0458 cbbd 18dd 99bd
00000030: c7d1 b1bd ab50 39be 90b7 42be ae36 a4bd
00000040: 34f0 893d 62e8 12be da37 a4bd 4da9 27be

exp_avg f4 [100, 20]
0.09969844 0.10662189 0.08860182 0.094198264 0.11400489 0.10670332 0.094553664 0.11939
0.09217667 0.11500867 0.019712117 -0.22443548 0.03775078 0.13119502 0.09792901 0.048835196
-0.14061669 0.077435 0.11511752 0.09969844 -0.17420304 -0.29365012 -0.23278944 -0.25070086
-0.2803532 -0.27736247 -0.24140303 -0.31454626 -0.2351979 -0.30584103 -0.12201222 0.5872865
-0.10417739 -0.33885047 -0.25975493 -0.1492696 0.44869277 -0.15454285 -0.35610622 -0.17420304
-0.035407238 -0.029310843 0.0033087467 -0.020402055 -0.017314391 -0.0045685987 -0.0104607865 -0.004224522
-0.01884967 -0.024417687 0.009294119 0.016239386 0.009310976 0.0015369904 -0.028235095 0.023369618
0.03132578 0.019450434 -0.03069085 -0.035407238 0.2665279 0.2814631 0.23339222 0.2515317
0.27138793 0.26571226 0.2446546 0.3015364 0.2303053 0.33013025 0.045437086 -0.53446037
0.07137263 0.34129548 0.28471944 0.11980841 -0.3116045 0.19943132 0.2974754 0.2665279
-0.013701027 0.0050602006 0.00025149624 0.007320381 -0.005413645 -0.01756152 0.0021452103 -0.007870647
-0.0072699348 0.007690213 0.019316398 0.0017174063 0.00083463173 -0.012205898 0.0010381094 -0.013974326
-0.037629817 -0.037495386 0.015981706 -0.013701027 -0.014003068 -0.0063526896 0.007300513 -0.002133987
-0.0033287369 0.0034873742 0.0012831097 0.0035844222 -0.0030977747 -0.004513566 0.005330142 -0.0033375276
0.0055419225 0.01023295 -0.009754196 0.012993627 0.0121113015 0.012955454 -0.009465839 -0.014003068
0.05761332 0.10624294 0.08423694 0.09598993 0.10237301 0.08955699 0.094072856 0.1081061
0.08458852 0.113229185 0.051649828 -0.21366008 0.039879035 0.11080034 0.09672975 0.046574175
-0.19318405 0.028608106 0.13915692 0.05761332 -0.16922083 -0.2586053 -0.20823307 -0.22858459
-0.25116605 -0.19572333 -0.21241646 -0.26170775 -0.18954901 -0.2809859 -0.10910872 0.50413615
-0.08269631 -0.25791645 -0.24352783 -0.07883805 0.43343547 -0.095252514 -0.31342623 -0.16922083
-0.09007301 -0.16127221 -0.1270339 -0.1421557 -0.14809914 -0.12943515 -0.1306135 -0.16241898
-0.12248886 -0.16616444 -0.08514312 0.32380658 -0.062099874 -0.17102459 -0.1313978 -0.06312882
0.2929677 -0.045703646 -0.20252569 -0.09007301 0.023376675 0.016084237 0.019007917 0.017660405
0.015205767 0.014556625 0.018755896 0.017500358 0.015648054 0.030892238 -0.0035999767 -0.021953814
-0.0023442951 0.021811523 0.0216821 0.011209581 0.0071902946 0.01953336 0.013421168 0.023376675
0.06924772 0.06314166 0.049500346 0.059432507 0.05686908 0.058279317 0.057527333 0.06077417
0.051755384 0.076629154 -0.0038390374 -0.10751432 0.007112734 0.06229137 0.070115544 0.016507441
-0.05642051 0.033976812 0.0640677 0.06924772 0.09108063 0.07524396 0.07723178 0.06246012
0.08806748 0.09294634 0.069484524 0.10273394 0.07955456 0.09298728 -0.0039105793 -0.16316506
0.017559882 0.111529335 0.078401335 0.04389683 -0.07764704 0.086237125 0.06740635 0.09108063
0.064276814 0.047047578 0.034937114 0.051494457 0.03911496 0.040097725 0.04278349 0.04034768
0.04021948 0.060644753 -0.00992376 -0.07903569 -0.00091318623 0.03973878 0.060763013 -0.000720827
00000000: b22e cc3d 945c da3d df74 b53d 05eb c03d
00000010: 657b e93d 4587 da3d 5aa5 c13d bf82 f43d
00000020: 1fc7 bc3d aa89 eb3d 4e7b a13c 6ad2 65be
00000030: 90a0 1a3d fd57 063e 018f c83d 6a07 483d
00000040: d2fd 0fbe 3e96 9e3d bcc2 eb3d b22e cc3d
00000050: 4862 32be 4f59 96be 5b60 6ebe dd5b 80be
00000060: 748a 8fbe 7402 8ebe 5b32 77be 350c a1be
00000070: b8d7 70be 3297 9cbe 8be1 f9bd 6858 163f
00000080: f55a d5bd cf7d adbe 99fe 84be 21da 18be
00000090: 0fbb e53e 7b40 1ebe 8e53 b6be 4862 32be
000000a0: 2e07 11bd 4b1d f0bc 8fd7 583b 3622 a7bc
000000b0: e9d6 8dbc 2fb4 95bb b863 2bbc dc6d 8abb
000000c0: a06a 9abc 9a07 c8bc 5c46 183c 7608 853c
000000d0: 108d 183c d774 c93a 494d e7bc a471 bf3c
000000e0: 764f 003d 8456 9f3c 616b fbbc 2e07 11bd
000000f0: 5876 883e ee1b 903e 5ffe 6e3e c3c8 803e
00000100: 5cf3 8a3e 700b 883e bc86 7a3e fb62 9a3e
00000110: 27d5 6b3e d506 a93e 3d1c 3a3d 65d2 08bf
00000120: d02b 923d 48be ae3e bfc6 913e 1d5e f53d
00000130: a08a 9fbe b937 4c3e b24e 983e 5876 883e
00000140: 467a 60bc 0ad0 a53b 41db 8339 cedf ef3b
00000150: f264 b1bb 2ddd 8fbc a896 0c3b e3f3 00bc
00000160: a238 eebb 2ffe fb3b 6c3d 9e3c 981a e13a
00000170: 30cb 5a3a 3ffb 47bc 2c11 883a 92f4 64bc
00000180: b921 1abd c394 19bd 11ec 823c 467a 60bc
00000190: 206d 65bc 392a d0bb 2439 ef3b 5cda 0bbb
000001a0: f026 5abb 6e8c 643b 042e a83a a0e8 6a3b
000001b0: 0904 4bbb 89e6 93bb 79a8 ae3b 6cba 5abb
000001c0: 0499 b53b 1aa8 273c 10d0 1fbc 39e3 543c
000001d0: 7b6e 463c 1d43 543c 9b16 1bbc 206d 65bc
000001e0: f2fb 6b3d e695 d93d 6b84 ac3d 5e96 c43d
000001f0: f1a8 d13d a869 b73d 45a9 c03d bb66 dd3d
00000200: bf3c ad3d b4e4 e73d c58e 533d b5c9 5abe
00000210: 3358 233d 4aeb e23d 3f1a c63d 90c4 3e3d
00000220: 0ad2 45be 8c5b ea3c 277f 0e3e f2fb 6b3d
00000230: 3a48 2dbe ea67 84be 0d3b 55be 1412 6abe
00000240: d698 80be b26b 48be b383 59be 8ffe 85be
00000250: 2319 42be 62dd 8fbe 6574 dfbd 110f 013f
00000260: af5c a9bd a00d 84be 5c5f 79be d875 a1bd
00000270: 41eb dd3e c013 c3bd 6779 a0be 3a48 2dbe
00000280: 3378 b8bd 8b24 25be 2d15 02be 4491 11be
00000290: 4da7 17be a68a 04be 8cbf 05be 2951 26be
000002a0: 70db fabd 0327 2abe 845f aebd fac9 a53e
000002b0: 705c 7ebd 1221 2fbe 258d 06be af49 81bd
000002c0: ddff 953e bf33 3bbd e562 4fbe 3378 b8bd
000002d0: 7180 bf3c 17c3 833c 7eb6 9b3c 8eac 903c
000002e0: 9c21 793c e97e 6e3c f7a5 993c e95c 8f3c
000002f0: 5930 803c b811 fd3c 96ed 6bbb 7cd8 b3bc
00000300: bfa2 19bb 14ae b23c a99e b13c 64a8 373c
00000310: 909c eb3b 6d04 a03c 75e4 5b3c 7180 bf3c
00000320: c0d1 8d3d 6a50 813d e0c0 4a3d 806f 733d
00000330: 8def 683d 4bb6 6e3d c8a1 6b3d 56ee 783d
00000340: 74fd 533d bfef 9c3d 5c98 7bbb 7830 dcbd
00000350: f011 e93b 3c25 7f3d bd98 8f3d 9d3a 873c
00000360: 3119 67bd 452b 0b3d ed35 833d c0d1 8d3d
00000370: 7b88 ba3d 8119 9a3d b22b 9e3d 2fd6 7f3d
00000380: b95c b43d a75a be3d e74d 8e3d 2c66 d23d
00000390: 80ed a23d 1d70 be3d 5124 80bb be14 27be
000003a0: bed9 8f3c 7e69 e43d e190 a03d 2acd 333d
000003b0: 6905 9fbd 179d b03d 570c 8a3d 7b88 ba3d
000003c0: 90a3 833d f6b4 403d 381a 0f3d daeb 523d
000003d0: 0237 203d 833d 243d be3d 2f3d 9c43 253d
000003e0: 2ebd 243d a266 783d 4497 22bc 77dd a1bd
000003f0: e462 6fba 22c5 223d a3e2 783d e2f5 3cba
