vae/saved_models/free_endpoints/free_nepochs2_lr0.1_N20_n2000_b150_s10.pt (torch, 121209 bytes, 36 tensors)

enc_shared.weight f4 [100, 20]
0	0xbef49729	-0.47771576
1	0xbdad3041	-0.08456469
2	0xbe3a8abf	-0.1821699
3	0x3e317646	0.17330274
4	0x3f339c45	0.70160323
5	0xbfa2b2bf	-1.2710799
6	0xbe7697a6	-0.24081287
7	0x3e98fa8e	0.29878658
8	0x3f2d3fc5	0.6767543
9	0x3e8b1c82	0.27170187
10	0x3db36b78	0.087607324
11	0xbd4c1002	-0.049819954
12	0xbdbf0a2b	-0.09328111
13	0x3e5b9e6b	0.2144715
14	0xbc90ff1b	-0.017699769
15	0xbf156ed0	-0.5837221
16	0x3eb2fc46	0.34958094
17	0xbf1281a8	-0.5722909
18	0x3eb74d1e	0.35801023
19	0xbef316c7	-0.47478315
20	0x3f113419	0.5672012
21	0xbe560f81	-0.20904352
22	0xbcc5ccb4	-0.024145462
23	0xbf048d58	-0.51778173
24	0x3eb7e2d3	0.3591524
25	0x3df5b015	0.119964756
26	0x3f0ef59f	0.5584354
27	0xbe9a028a	-0.30080062
28	0xbef03503	-0.46915445
29	0x3eb9e85c	0.3631009
30	0xbdd5ffd5	-0.10449187
31	0xbe9cbaf1	-0.30611375
32	0xbe0e5f4e	-0.13903543
33	0xbf11bd4e	-0.5692948
34	0x3f1734a2	0.59064686
35	0x3e260f9c	0.16216892
36	0x3e98b0e3	0.29822454
37	0x3e691e34	0.22765428
38	0x3d1e4cc4	0.03864743
39	0x3f0aa88d	0.5416344
40	0x3e96ace9	0.29428795
41	0xbef04ed6	-0.46935147
42	0x3edd3c38	0.43210006
43	0x3e243eb7	0.16039549
44	0x3d3dd1bf	0.046342608
45	0x3ee08c7a	0.43857175
46	0x3f3d0278	0.7383189
47	0xbe6b68ad	-0.2298915
48	0xbc8e70ed	-0.017387832
49	0xbe0941cc	-0.13404006
50	0x3f097461	0.53693205
51	0xbebeb433	-0.37246856
52	0x3e591170	0.21198058
53	0xbdd03c17	-0.10167711
54	0x3e8914f8	0.2677381
55	0x3e27abc2	0.16374114
56	0x3f57e774	0.84337544
57	0xbe94be50	-0.29051447
58	0x3f14a06e	0.58057296
59	0x3d59303a	0.053024508
60	0xbd84875d	-0.06471131
61	0x3d1aa2c0	0.037752867
62	0x3ecbc7f8	0.39801002
63	0xbe6eb7b1	-0.2331226
64	0x3fabe837	1.3430241
65	0xbf256b2b	-0.6461665
66	0xbea975b1	-0.33097604
67	0xbd54ceae	-0.051954918
68	0x3e1b2340	0.15150166
69	0x3f0465bc	0.51717734
70	0xbf05fbc9	-0.5233732
71	0x3e9fa682	0.31181723
72	0xbe80f5db	-0.25187573
73	0x3d4e972e	0.050437145
74	0xbeadd563	-0.33951864
75	0xbea9f1b1	-0.33192208
76	0xbf2b0e12	-0.66818345
77	0x3ebd2d6a	0.3694871
78	0xbe0692e3	-0.1314197
79	0xbda743ed	-0.08167253
80	0xbef31382	-0.4747582
81	0x3e5449d5	0.2073129
82	0x3e29d5cc	0.16585463
83	0xbdc46705	-0.09589962
84	0x3c85a0a4	0.016311951
85	0x3e1bfc27	0.15232907
86	0xbe5fcb48	-0.2185489
87	0xbd320bb6	-0.0434682
88	0x3e0ac500	0.13551712
89	0x3e333998	0.17502439
90	0xbddb103b	-0.10696455
91	0x3ec2e3ce	0.38064426
92	0xbe06d614	-0.13167602
93	0x3f09f002	0.5388185
94	0x3ecdea76	0.40217942
95	0xbf171eb4	-0.59031224
96	0x3f26919f	0.6506595
97	0x3bb5f660	0.005553052
98	0x3d8127cb	0.06306418
99	0xbef70b19	-0.48250654
100	0x3ece67d6	0.40313596
101	0x3ece55ef	0.40299937
102	0x3dce9462	0.100868955
103	0x3f487a10	0.7831125
104	0xbf607607	-0.87680095
105	0xbf3b304b	-0.73120564
106	0x3f5021a2	0.8130132
107	0xbe048309	-0.12940611
108	0x3d84e95e	0.06489824
109	0xbf7b2fc4	-0.9811976
110	0xbc2cc77d	-0.010545609
111	0xbe396629	-0.18105377
112	0x3e0fdac0	0.1404829
113	0xbf77cb7b	-0.9679486
114	0xbe71f2a0	-0.2362771
115	0x3f26e12e	0.65187347
116	0x3e6360cb	0.22204892
117	0xbcfc581d	-0.030803734
118	0x3d600d76	0.054700337
119	0x3dd91a8d	0.10600767
120	0xbee103f9	-0.43948343
121	0x3f11b62a	0.56918585
122	0xbf08931a	-0.5334946
123	0x3eaac842	0.3335591
124	0xbf5526c6	-0.8326229
125	0x3ebe3b62	0.3715468
126	0xbd066347	-0.032809522
127	0x3f0aec58	0.5426688
128	0xbf04cfd8	-0.51879644
129	0x3d765e69	0.06014863
130	0xbecc13f6	-0.3985898
131	0x3e5216b6	0.20516476
132	0x3f3fd827	0.749392
133	0xbf3286fb	-0.69737214
134	0x3eb4fe81	0.3535042
135	0xbe460f99	-0.19341888
136	0x3f171c85	0.5902789
137	0x3f000842	0.500126
138	0xbe7de02c	-0.24792546
139	0xbf0ba49e	-0.5454806
140	0x3bb20f9c	0.0054339897
141	0x3ef54b95	0.47909227
142	0xbeb96c60	-0.36215496
143	0xbbbf107c	-0.0058308225
144	0x3a4cb70c	0.00078092585
145	0x3d77a179	0.060456727
146	0x3e3778f3	0.17917232
147	0x3f22d65c	0.63608336
148	0xbe13b1ee	-0.14423344
149	0xbe17383a	-0.14767542
150	0xbee71065	-0.45129696
151	0x3ef1a62e	0.47197098
152	0xbdf161c5	-0.11786226
153	0xbecab11d	-0.39588252
154	0xbf4e5537	-0.8059878
155	0x3e3d9343	0.18513207
156	0xbf2a00bd	-0.66407377
157	0x3e669ccb	0.2252075
158	0xbed07aaf	-0.407186
159	0xbc835900	-0.01603365
160	0x3ec1497e	0.37751383
161	0x3e6b59f1	0.22983529
162	0xbe32369b	-0.17403643
163	0x3c8d5c5c	0.017255954
164	0xbee107f2	-0.43951374
165	0x3e95b47b	0.29239258
166	0x3e9eff7f	0.31054303
167	0x3cc6769a	0.024226476
168	0xbf04e50b	-0.5191199
169	0x3edbc4d3	0.42923602
170	0xbc0ef759	-0.008725964
171	0xbe5250c0	-0.20538616
172	0x3e6ce360	0.23133612
173	0xbebe9cb8	-0.37228942
174	0x3efc3fee	0.49267524
175	0x3abe935d	0.0014539767
176	0x3e16eaa8	0.14737952
177	0x3ddfdec9	0.10931165
178	0xbefc1dc0	-0.49241447
179	0x3d9bce1e	0.07607673
180	0xbf008052	-0.501958
181	0xbec3a3cb	-0.38210902
182	0xbe8f736f	-0.28017756
183	0x3e5c3c6e	0.21507427
184	0xbef5bf42	-0.4799748
185	0x3ecc7b1a	0.3993767
186	0xbe142ca8	-0.1447016
187	0xbf4a5c64	-0.79047227
188	0x3d9e5945	0.077318706
189	0xbe726510	-0.23671365
190	0x3f42994b	0.76015157
191	0xbef0e71e	-0.47051328
192	0x3d8dd506	0.069253966
193	0x3e9d5f5f	0.30736825
194	0x3f6668d4	0.90003705
195	0xbf306a0e	-0.68911827
196	0x3f2eef3d	0.683338
197	0xbecfdb4b	-0.40596995
198	0x3f445b2b	0.7670161
199	0xbeeba1bc	-0.4602183
200	0x3f2bd8bb	0.6712758
201	0xbf104ef1	-0.56370455
202	0x3ef8afe6	0.485717
203	0xbf456b65	-0.77116996
204	0x3ea54476	0.32278794
205	0xbe2cd064	-0.1687637
206	0xbedf1d1e	-0.43576902
207	0xbebcb7e4	-0.36859047
208	0x3ea95821	0.3307505
209	0x3d44b18d	0.048020888
210	0x3efcc1ba	0.49366552
211	0xbef541ed	-0.4790186
212	0x3d74a155	0.05972417
213	0x3f470deb	0.7775561
214	0x3e651e8e	0.22374937
215	0xbe87429f	-0.26418015
216	0x3e979960	0.29609203
217	0xbf001bf4	-0.50042653
218	0xbc9db915	-0.019253293
219	0x3f0aa1fc	0.5415342
220	0x3e1a30dd	0.15057702
221	0xbdd866a8	-0.10566455
222	0xbe4825e4	-0.19545704
223	0xbde6a032	-0.112610236
224	0xbf5c3e8e	-0.8603295
225	0x3f431d72	0.76216805
226	0xbe9d15b5	-0.30680624
227	0x3ec51a70	0.38496733
228	0xbedcb048	-0.43103242
229	0x3e6e284f	0.23257564
230	0xbec07d51	-0.3759561
231	0x3c4d9d7e	0.012549756
232	0x3e3fd7b9	0.18734635
233	0xbe837ae2	-0.2567969
234	0x3f0ccec2	0.5500299
235	0x3f02f1cc	0.511502
236	0x3f63081e	0.8868426
237	0x3e8b2540	0.27176857
238	0xbe8fb5a9	-0.28068283
239	0x3dbf6e9f	0.09347271
240	0xbecd24d5	-0.40067163
241	0x3e71dc2b	0.23619144
242	0xbea29895	-0.31757036
243	0x3e90297c	0.2815665
244	0xbf1df3ab	-0.6169993
245	0x3c5d856a	0.013520578
246	0x3db30297	0.08740728
247	0xbd18a2f4	-0.03726478
248	0x3d82bafc	0.06383321
249	0x3e2b9163	0.1675468
250	0xbc90529b	-0.017617514
251	0x3f084660	0.53232384
252	0xbea8a310	-0.32936907
253	0x3ea8d22c	0.32972848
254	0x3ec427ea	0.38311702
255	0xbf2b091e	-0.66810787

enc_shared.bias f4 [100]
0	0x3d272c7b	0.040813904
1	0xbfce0a8c	-1.6096969
2	0xbf1d2af4	-0.61393666
3	0xbf77fd5a	-0.9687096
4	0x3f54efe3	0.8317854
5	0x3f0fe3aa	0.5620676
6	0xbe6a580b	-0.22885148
7	0x3f9cc910	1.224886
8	0xbf968171	-1.1758252
9	0xbe9d761a	-0.30754167
10	0x3eb48772	0.35259587
11	0xbf4d3460	-0.8015804
12	0x3e800957	0.25007126
13	0xbeeb75f6	-0.45988435
14	0x3df8332e	0.12119137
15	0x3f8cd4b2	1.100241
16	0xbf42343a	-0.7586094
17	0xbe655861	-0.22396995
18	0x3e4db03d	0.20086761
19	0xbd3cf59a	-0.04613266
20	0x3d595ae0	0.05306518
21	0x3eb5e98c	0.35529745
22	0x3f7e06d2	0.99229157
23	0x3f698468	0.9121766
24	0xbf689683	-0.9085466
25	0x3f8a918b	1.0825666
26	0xbf0d6be5	-0.5524276
27	0x3ec76384	0.38943112
28	0x3e4f5568	0.20247424
29	0x3fa11fcc	1.2587829
30	0x3fb07db6	1.3788364
31	0x3d72f050	0.05931121
32	0xbf588654	-0.8457997
33	0xbf24a86d	-0.643195
34	0xbf96b526	-1.1774032
35	0x3e1427e1	0.14468338
36	0xbd965c7b	-0.07341858
37	0xbf4565d4	-0.771085
38	0x3ead0b7d	0.33797827
39	0xbfddddb7	-1.7333287
40	0xbf1b360c	-0.60629344
41	0xbf02ceb6	-0.51096666
42	0xbf138e7e	-0.576393
43	0x3e8e84eb	0.27835783
44	0x3f66790d	0.9002846
45	0xbf093c3a	-0.53607523
46	0x3fab1a13	1.3367332
47	0xbe9ed352	-0.310206
48	0xbf76a0d8	-0.9633918
49	0x3f3a485e	0.72766674
50	0xbf81c586	-1.0138404
51	0x3f9d0652	1.2267554
52	0xbfa13020	-1.2592812
53	0xbf839a29	-1.0281421
54	0xbf939a9f	-1.1531562
55	0xbedfde60	-0.43724346
56	0xbf18785d	-0.5955866
57	0xbf8b3a1b	-1.0877107
58	0x3ef6fd6e	0.48240227
59	0x3fa9714c	1.32377
60	0x3f8321da	1.0244706
61	0x3daa0450	0.08301604
62	0xbcc908a0	-0.024540246
63	0x3fc3381a	1.5251496
64	0xbf002696	-0.5005888
65	0xbf45fde6	-0.77340543
66	0x3d1ce404	0.03830339
67	0xbf543f74	-0.8290932
68	0x3faf7303	1.3706974
69	0x3f176a25	0.5914634
70	0xbeb8bd26	-0.3608181
71	0x3e0dbd7b	0.13841812
72	0xbec44179	-0.38331202
73	0x3f7d3bee	0.9891957
74	0x3eabe411	0.33572438
75	0xbe73b61b	-0.23799936
76	0xbf6b88e0	-0.9200573
77	0x3ed6bbfe	0.41940302
78	0x3f6d99bb	0.928127
79	0xbfa638c2	-1.2986071
80	0x3d21c341	0.03949285
81	0x3ef75810	0.48309374
82	0x3dcc9319	0.09988994
83	0xbf7afaaf	-0.9803876
84	0xbf6fa1ef	-0.93606466
85	0x3e8f5303	0.2799302
86	0x3ee545b9	0.44779757
87	0xbf99c234	-1.2012391
88	0x3eca9bd4	0.39572012
89	0x3e6e961a	0.23299447
90	0xbea74964	-0.3267318
91	0x3fcf6cd1	1.6205083
92	0xbf16e369	-0.5894075
93	0xbea6f2ed	-0.32607213
94	0xbef74210	-0.4829259
95	0xbf21c96f	-0.6319799
96	0x3ec74d78	0.3892629
97	0x3f64342c	0.8914211
98	0xbfd91d7a	-1.696212
99	0xbf1449cb	-0.579251

enc_mu.weight f4 [10, 100]
0	0x3ebcdaf0	0.36885786
1	0xbee087f2	-0.43853718
2	0xbd5ce75f	-0.05393159
3	0x3d6e74ea	0.058216967
4	0x3e0d2775	0.13784583
5	0x3ed32e84	0.41246426
6	0xbf2a37fe	-0.6649169
7	0x3f06971e	0.52574337
8	0xbf0aa87c	-0.54163337
9	0x3d33a547	0.043858793
10	0x3e904393	0.28176555
11	0xbf19ba89	-0.60050255
12	0x3e082b28	0.13297713
13	0xbee8de15	-0.45481935
14	0x3e1f6a9e	0.15568015
15	0x3ec0eb09	0.37679318
16	0xbe1cdd50	-0.15318799
17	0x3ea49dce	0.32151645
18	0x3e724959	0.23660792
19	0xbd7c518e	-0.061601214
20	0xbb0b72f2	-0.002127823
21	0xbe977bca	-0.2958663
22	0x3f0c7376	0.5486368
23	0xbea84cdc	-0.3287114
24	0xbd9b42bd	-0.07581089
25	0xbdc253a8	-0.094886124
26	0xbf67ac1d	-0.90497
27	0xbf2100b1	-0.6289168
28	0x3d45ba8d	0.04827361
29	0x3ea4200f	0.3205571
30	0x3f27dddc	0.65572906
31	0xbe7a0164	-0.24414593
32	0x3ed359ae	0.41279358
33	0x3f1eaf4b	0.61986226
34	0xbe880e1c	-0.26573265
35	0xbd7551c0	-0.059892416
36	0xbe6ed61e	-0.23323867
37	0xbee940be	-0.45557207
38	0x3e4dbd0d	0.20091648
39	0x3ca853a2	0.020547692
40	0xbe29f354	-0.16596729
41	0x3eb0c9e4	0.3452903
42	0xbe1e551d	-0.15462156
43	0xbdf4ee38	-0.11959499
44	0xbd19f000	-0.037582397
45	0xbed3a1d6	-0.4133441
46	0x3e5fe62f	0.21865152
47	0xbb0177a3	-0.0019755147
48	0xbda39a8f	-0.07988464
49	0xbd0037f9	-0.03130338
50	0x3f16593b	0.58729905
51	0xbe62a4b3	-0.2213314
52	0xbe3e5abb	-0.18589298
53	0xbe447dce	-0.19188616
54	0x3efae88e	0.4900555
55	0x3eaee701	0.34160617
56	0xbe30475d	-0.17214723
57	0xbe47bd37	-0.19505773
58	0x3c875f17	0.016524835
59	0x3e9462aa	0.28981525
60	0x3e25307d	0.16131778
61	0xbc262af3	-0.010142076
62	0x3e46b3d0	0.1940453
63	0x3f027ef3	0.5097496
64	0xbd4b3aa5	-0.049616475
65	0xbd84b04e	-0.0647894
66	0xbd84150d	-0.064493276
67	0x3d038745	0.032111425
68	0x3ecf0a17	0.40437385
69	0xbf0dd943	-0.5540964
70	0xbcd5da01	-0.026104929
71	0xbddd27ca	-0.10798605
72	0xbd67b30f	-0.056567248
73	0x3d026cc2	0.031842
74	0xbe26622e	-0.1624839
75	0xbea940e4	-0.3305732
76	0x3f0a4f6c	0.5402744
77	0x3d923ea2	0.071408525
78	0x3f7aa44d	0.97906953
79	0xbec451e4	-0.38343728
80	0x3e1d3306	0.15351495
81	0xbee4a1a5	-0.44654575
82	0xbde8bf49	-0.1136461
83	0xbe0a8467	-0.1352707
84	0x3e81b871	0.2533603
85	0xbe34e404	-0.17665106
86	0xbf194caf	-0.59882635
87	0x3de501a6	0.11181955
88	0x3e97747a	0.29581052
89	0xbdfdc707	-0.12391477
90	0x3f39e504	0.72615075
91	0x3ee5d680	0.44890213
92	0x3ef89c17	0.48556587
93	0x3d3fc696	0.046820246
94	0xbe26ed75	-0.1630152
95	0xbe0b4c29	-0.13603272
96	0xbd120e33	-0.035658073
97	0x3d7a02b7	0.061037745
98	0xbf14053b	-0.5782048
99	0xbf7759a2	-0.96621144
100	0x3dae686d	0.085160114
101	0xbf9a9eb5	-1.2079684
102	0xbf3f4730	-0.74718
103	0x3d4758ba	0.0486686
104	0x3f53375c	0.82506347
105	0xbf122623	-0.5708944
106	0xbe9265dc	-0.28593338
107	0x3e0f63bd	0.14002891
108	0xbce4e4c8	-0.027941123
109	0x3eca3b91	0.3949857
110	0x3f8bd3a8	1.0923967
111	0xbe80becd	-0.2514557
112	0x3f1c0b7c	0.60955024
113	0xbea26d19	-0.3172386
114	0xbea88b62	-0.3291884
115	0x3f6e1973	0.9300758
116	0xbf6fd382	-0.9368211
117	0x3f8f7bf2	1.12097
118	0x3e8da337	0.27663586
119	0xbf1fd704	-0.6243746
120	0xbf2f2e84	-0.6843035
121	0x3e10edf7	0.14153276
122	0xbe389021	-0.18023731
123	0x3e76db38	0.24107063
124	0x3e15e572	0.14638308
125	0x3f0ef87b	0.558479
126	0x3e29057d	0.16506
127	0x3dfaa5fe	0.12238692
128	0x3f396517	0.72419876
129	0x3e934dec	0.28770387
130	0x3f130c68	0.57440805
131	0xbf84021f	-1.0313147
132	0xbdea8313	-0.11450782
133	0xbe09c6ee	-0.13454792
134	0xbf4bab23	-0.7955801
135	0x3f100ff6	0.56274354
136	0x3ed08b9e	0.4073152
137	0xbf143dd8	-0.57906866
138	0xbe906b38	-0.282068
139	0x3e9def47	0.30846617
140	0x3e0470e5	0.12933691
141	0xbe16bcf6	-0.1472052
142	0xbf5ed530	-0.8704405
143	0xbf1e4994	-0.6183102
144	0x3f623cd9	0.88374096
145	0x3e80b515	0.25138155
146	0x3f536f32	0.82591546
147	0x3f1c753c	0.61116385
148	0x3edcedbe	0.43150133
149	0x3dbe3971	0.092883
150	0xbf15fc37	-0.58587974
151	0x3df9e816	0.1220247
152	0xbf8fdd22	-1.1239359
153	0xbf33d3e9	-0.70245224
154	0xbe9a5f14	-0.30150664
155	0x3f147ff3	0.58007735
156	0xbf36fb5a	-0.7147728
157	0x3f18af72	0.5964271
158	0xbdcf4402	-0.10120393
159	0x3f62ac43	0.885441
160	0x3f96972f	1.1764888
161	0xbec6a8d4	-0.3880068
162	0x3f451b18	0.76994467
163	0x3f44ce82	0.76877606
164	0xbea79f7b	-0.3273886
165	0x3dba4339	0.09094853
166	0x3f5cc2b6	0.86234605
167	0xbf5853c4	-0.84502816
168	0x3fa46369	1.2842838
169	0xbcf900b7	-0.030395849
170	0xbf642c52	-0.8913013
171	0xbf3dc5f5	-0.74130183
172	0xbf426480	-0.759346
173	0x3d5fe119	0.05465803
174	0xbf2a0ff7	-0.6643061
175	0xbf86aa9c	-1.0520816
176	0xbecef71e	-0.4042291
177	0x3f35798f	0.7088861
178	0x3dc03c23	0.0938647
179	0xbf406167	-0.75148624
180	0x3f9d05a0	1.2267342
181	0x3f04e59a	0.51912844
182	0xbf1e1620	-0.6175251
183	0xbf21b8a0	-0.6317234
184	0xbe1679d9	-0.14694919
185	0xbf0d0973	-0.55092543
186	0x3e1fd195	0.15607293
187	0xbf537256	-0.8259634
188	0x3e1b6449	0.15174975
189	0xbf7efc4b	-0.9960372
190	0xbd02bcfd	-0.031918515
191	0x3e8a08be	0.26959795
192	0xbe060bde	-0.13090464
193	0x3e78cf11	0.2429774
194	0xbf5990b5	-0.8498643
195	0xbf272f76	-0.65306795
196	0x3ebc0d4f	0.36728904
197	0xbf333cfc	-0.7001493
198	0xbf5722d8	-0.8403754
199	0xbe847592	-0.2587095
200	0xbf42e6ff	-0.7613372
201	0x3e705c5d	0.23472734
202	0x3c325d72	0.010886537
203	0xbf444be3	-0.76678294
204	0x3dd0ceed	0.10195718
205	0xbe8041fc	-0.25050342
206	0xbdd48a69	-0.10377962
207	0x3e25db27	0.16196881
208	0x3efef3b3	0.49795303
209	0x3db5b70d	0.08872805
210	0xbdc92161	-0.0982082
211	0x3e2bf8b1	0.16794087
212	0xbd750348	-0.059817582
213	0xbf26fa9b	-0.65226144
214	0xbf409ce2	-0.75239384
215	0x3cdd4e78	0.027014956
216	0xbde34170	-0.110964656
217	0xbe32c414	-0.1745761
218	0x3e7ccdd2	0.24687889
219	0xbe570f34	-0.21001893
220	0xbe450334	-0.19239503
221	0x3e92785b	0.2860745
222	0xbe3f588f	-0.18686126
223	0x3ef0c872	0.47027928
224	0x3ec6ca95	0.38826433
225	0xbe1b1d85	-0.1514798
226	0x3de8eb6a	0.11373027
227	0x3d757cfb	0.059933644
228	0xbe30623d	-0.17224975
229	0x3f436288	0.7632222
230	0x3e3531cc	0.17694777
231	0x3e26b4a4	0.16279846
232	0xbecb45d6	-0.39701718
233	0xbe95c3ca	-0.29250938
234	0xbd48f328	-0.049060017
235	0x3f14ed40	0.58174515
236	0x3e0972ed	0.13422747
237	0xbedfa957	-0.43683884
238	0x3d13562d	0.035970856
239	0x3d7fb4d8	0.062428325
240	0x3f1c3628	0.61020136
241	0xbde85d39	-0.11345906
242	0x3e5f84e5	0.21828039
243	0x3df8fdbc	0.12157771
244	0x3e0a7d3b	0.13524334
245	0x3e040865	0.12893827
246	0x3d912e56	0.07088916
247	0xbb87fafa	-0.004149792
248	0x3edfc1cd	0.43702546
249	0xbf11f742	-0.5701791
250	0xbdc4361f	-0.09580635
251	0x3f13f4d2	0.5779544
252	0x3ed3821f	0.41310212
253	0xbf06c292	-0.5264064
254	0xbee5faff	-0.44918057
255	0x3c4bce07	0.012439257

enc_mu.bias f4 [10]
0	0xbd018639	-0.031622145
1	0x3f509efe	0.814926
2	0x3eae5f2f	0.34056994
3	0x3f7f06ff	0.9962005
4	0xbf75dccb	-0.9604003
5	0x3fdf6154	1.7451577
6	0x3eeb29dc	0.45930374
7	0xbf9997a4	-1.1999402
8	0x3ef4be21	0.47801307
9	0xbf1f3370	-0.6218786

enc_log_var.weight f4 [10, 100]
0	0xbf2345f3	-0.6377861
1	0x3eec778c	0.46184957
2	0xbeba5a4c	-0.36397016
3	0xbc08d42a	-0.008351365
4	0x3e3efae7	0.18650399
5	0xbdca3fdf	-0.09875464
6	0xbed08455	-0.4072596
7	0xbf094aa1	-0.536295
8	0x3e916f6f	0.2840533
9	0x3f017984	0.50576043
10	0x3de55fd2	0.11199917
11	0x3f09a413	0.5376598
12	0x3ec77aed	0.38960972
13	0xbf020614	-0.50790524
14	0xbf1693d1	-0.588193
15	0xbbd36768	-0.006451536
16	0xbeb23bee	-0.34811348
17	0x3e61f5ea	0.22066465
18	0x3f290ea4	0.66037965
19	0xbf334df8	-0.70040846
20	0xbe0bb806	-0.13644418
21	0x3e8caf82	0.27477652
22	0xbf01a09e	-0.5063571
23	0xbdd51bf5	-0.10405723
24	0x3f371809	0.7152105
25	0xbfa0b067	-1.2553834
26	0x3f519eab	0.81882733
27	0xbd9b8514	-0.07593742
28	0x3e05237e	0.1300182
29	0xbe8155e1	-0.25260833
30	0xbd2cc1ce	-0.042177014
31	0xbf1af79f	-0.6053409
32	0x3b4b0c8b	0.0030982818
33	0x3e8bc023	0.27295026
34	0xbc9326bf	-0.017962812
35	0x3f750348	0.9570813
36	0xbd377f9e	-0.04479944
37	0x3ded468d	0.11585722
38	0xbf3712c2	-0.71513
39	0x3f42d245	0.76102096
40	0x3f2ffbde	0.68743694
41	0xbf138521	-0.57625014
42	0xbe8b8261	-0.2724791
43	0xbf24a0eb	-0.6430804
44	0xbe85731b	-0.2606438
45	0x3f6993eb	0.9124133
46	0xbe815927	-0.2526333
47	0x3f06430d	0.5244606
48	0x3f416fbd	0.75561124
49	0xbf77a8db	-0.9674203
50	0x3ee8c88d	0.45465508
51	0xbe83b6cf	-0.2572541
52	0x3f0097e4	0.50231767
53	0xbd1ec3ce	-0.038760953
54	0x3eb03a28	0.3441937
55	0x3f7f02dc	0.9961374
56	0xbea2c9aa	-0.31794482
57	0x3f05ce41	0.52267843
58	0xbf0891a8	-0.53347254
59	0xbe871756	-0.2638499
60	0x3ddbd342	0.107336536
61	0x3e3a76d7	0.18209396
62	0x3eb5c2a8	0.35500073
63	0xbd2b254a	-0.04178361
64	0x3d4fa984	0.050698772
65	0x3f3378f2	0.7010642
66	0x3e508ff7	0.20367418
67	0xbe63ed7b	-0.2225856
68	0xbe0becb1	-0.1366451
69	0xbda2c974	-0.079485804
70	0x3f193db9	0.59859806
71	0xbf982c27	-1.1888474
72	0xbe987fda	-0.29785043
73	0x3d8b47fd	0.0680084
74	0xbf4fc26c	-0.8115604
75	0xbe250176	-0.16113839
76	0x3e5d909c	0.21637195
77	0x3ee5f6db	0.44914898
78	0x3e41fe46	0.18944654
79	0x3de49736	0.11161654
80	0x3ea486fe	0.3213424
81	0x3eb44700	0.3521042
82	0xbf0bb65b	-0.5457513
83	0xbcd9828c	-0.026551507
84	0xbf18d2b2	-0.59696496
85	0xbebb2e83	-0.36558923
86	0xbead437f	-0.33840558
87	0x3efecf9d	0.4976777
88	0xbf2c9943	-0.6742136
89	0xbeb7ba1c	-0.35884178
90	0xbe020f2e	-0.12701103
91	0xbfadcdda	-1.3578446
92	0x3e99a5fa	0.30009443
93	0x3ed66353	0.41872653
94	0xbdd00214	-0.10156646
95	0xbe124837	-0.1428536
96	0xbeef8573	-0.467815
97	0xbf10ba4b	-0.5653426
98	0x3e959aa4	0.29219544
99	0x3f2ebd01	0.6825715
100	0xbe4ba8da	-0.1988863
101	0x3ef6a57c	0.4817313
102	0xbd4ada83	-0.049524795
103	0x3d706e9e	0.058699243
104	0xbe8ed235	-0.2789475
105	0xbe4514f6	-0.19246277
106	0x3f39b630	0.7254362
107	0xbe983721	-0.2972956
108	0x3e81681f	0.2527475
109	0x3dae6594	0.08515468
110	0xbee83dd7	-0.4535968
111	0x3eb5b2c7	0.3548796
112	0x3e193ee8	0.14965403
113	0x3e2c1653	0.16805391
114	0xbecbc595	-0.3979918
115	0xbe9eca2a	-0.31013614
116	0x3f09bd2e	0.5380429
117	0xbe91db70	-0.2848773
118	0xbd92c80c	-0.07167062
119	0xbdcce85b	-0.10005256
120	0x3d676903	0.05649663
121	0x3e9c1725	0.30486408
122	0xbc403a6c	-0.011732679
123	0x3ec39dc6	0.3820631
124	0x3ef5b995	0.4799315
125	0xbeb5011b	-0.35352406
126	0x3f14231f	0.5786609
127	0x3f0d9673	0.5530769
128	0x3d6ea7e7	0.058265593
129	0xbedf5b37	-0.4362428
130	0xbeb6ab6f	-0.35677668
131	0xbe6d27fb	-0.23159783
132	0x3e195f76	0.14977822
133	0xbe03ac91	-0.12858798
134	0x3ecfeb32	0.40609127
135	0xbede8303	-0.4345933
136	0xbd79c408	-0.060977966
137	0x3ef3bca1	0.4760485
138	0xbecb79eb	-0.39741454
139	0x3e995dd1	0.2995439
140	0x3deedbc8	0.11663014
141	0xbf20c332	-0.62797844
142	0x3e89c73c	0.26909816
143	0x3cad19d0	0.021130472
144	0xbf136f0d	-0.57591325
145	0x3e3a48b9	0.18191804
146	0xbf0e8e45	-0.55685836
147	0x3e5e1209	0.21686567
148	0x3e735bfe	0.23765561
149	0xbef6e1b0	-0.4821906
150	0xbe77ac00	-0.24186707
151	0x3e7e894f	0.24857067
152	0x3ed5d22f	0.4176192
153	0x3ea46caf	0.3211417
154	0xbea48d88	-0.3213923
155	0x3ec951c2	0.3932019
156	0x3e80bef9	0.251457
157	0x3b87c5cf	0.0041434537
158	0xbf02bd03	-0.5106966
159	0xbe732c99	-0.23747481
160	0xbe0d34de	-0.13789698
161	0x3d627f70	0.055297315
162	0x3d19015c	0.037354812
163	0xbeac3a76	-0.33638352
164	0x3db364a5	0.08759431
165	0x3e278605	0.16359718
166	0xbbeebbe2	-0.007285581
167	0x3e05187e	0.12997624
168	0xbee5ef84	-0.44909298
169	0x3ed805ce	0.4219193
170	0x3ddd95bb	0.108195744
171	0x3d248045	0.04016139
172	0x3e7202f6	0.23633942
173	0xbe0f1947	-0.13974486
174	0xbe151519	-0.1455883
175	0x3eb32502	0.34989172
176	0xbebea436	-0.37234658
177	0xbed8bce7	-0.4233162
178	0xbd2e3cb7	-0.04253837
179	0x3f1007ad	0.5626171
180	0xbe6013f5	-0.21882613
181	0x3d4306c1	0.047613863
182	0xbe4c77ba	-0.19967547
183	0x3d6d2d5a	0.05790458
184	0x3e508dbd	0.20366569
185	0x3da982d8	0.082769096
186	0x3ef9d289	0.48793438
187	0x3ebaa6e1	0.36455444
188	0xbed0f1a9	-0.40809372
189	0x3d8522bb	0.06500765
190	0x3e964083	0.29346094
191	0xbf096a15	-0.53677493
192	0x3deabdd4	0.11461988
193	0x3c2da6da	0.010598863
194	0x3f02c66f	0.51084036
195	0xbe546b7e	-0.2074413
196	0x3ed3453f	0.41263768
197	0xbe93035d	-0.28713503
198	0x3f202403	0.6255495
199	0x3eb74343	0.35793504
200	0xbf0199f4	-0.5062554
201	0x3ee4cbc4	0.4468671
202	0xbea8f298	-0.32997584
203	0x3e39d331	0.1814697
204	0xbed24752	-0.41070038
205	0xbe4c66f4	-0.19961149
206	0x3f6aa6e0	0.9166088
207	0xbeb2ef4d	-0.34948197
208	0x3c9922dc	0.01869338
209	0xbde29eff	-0.11065482
210	0xbeaa72eb	-0.332908
211	0xbe9f34b0	-0.31094885
212	0xbe82156b	-0.25406966
213	0x3e5ecef8	0.2175864
214	0xbe9f2ac6	-0.3108732
215	0xbea9a5b7	-0.33134243
216	0xbe80cf7e	-0.25158304
217	0xbeb74204	-0.35792553
218	0xbe690ff5	-0.22759993
219	0x3e161b3c	0.14658827
220	0x3e8ccf49	0.27501896
221	0x3e5bb86d	0.21457072
222	0xbe9d8bd1	-0.30770734
223	0x3df0a6ac	0.1175054
224	0x3ed9fba6	0.42574805
225	0xbd4487a9	-0.047980938
226	0xbe14c846	-0.14529523
227	0x3efe4e7e	0.4966926
228	0x3d244ca2	0.040112145
229	0xbe52d067	-0.20587312
230	0xbf4f71b4	-0.8103287
231	0x3b1e55bd	0.002415999
232	0xbe11bc7f	-0.14232062
233	0xbe4f38c8	-0.20236504
234	0x3f0706e6	0.527449
235	0xbe39ef14	-0.18157607
236	0x3f30c415	0.690492
237	0x3f27d2a5	0.65555793
238	0x3eb1f896	0.3475997
239	0x3f0d8185	0.55275756
240	0xbdc5a0cb	-0.096498094
241	0xbe28d582	-0.16487697
242	0x3d84d8c3	0.064866565
243	0x3d884b98	0.06655043
244	0x3d776a85	0.06040432
245	0xbe00ec51	-0.12590148
246	0xbdff14ff	-0.124551766
247	0x3d8f50ea	0.06997855
248	0x3c086fb9	0.008327418
249	0xbe1b5163	-0.15167765
250	0xbeaf3c7e	-0.3422584
251	0xbda763ad	-0.081733085
252	0x3f071eba	0.5278126
253	0x3ef9b0ba	0.48767644
254	0xbf10b2cc	-0.5652282
255	0xbe0711d5	-0.13190396

enc_log_var.bias f4 [10]
0	0xbf650e42	-0.8947488
1	0xbfaab9c0	-1.3337936
2	0xbf732577	-0.9497904
3	0xbf231feb	-0.6372058
4	0xbf950189	-1.1641093
5	0xbf931b2d	-1.1492668
6	0xbf9fff16	-1.2499721
7	0xbfab2efd	-1.3373715
8	0xbf43dde5	-0.7651046
9	0xbf9fb353	-1.24766

dec_shared.weight f4 [100, 10]
0	0x3e8040de	0.2504949
1	0x3d2a9337	0.0416443
2	0x3e8e90de	0.278449
3	0x3dd2f986	0.10301499
4	0xbf93339f	-1.1500129
5	0x3f45bcb0	0.7724104
6	0xbe568f26	-0.20953044
7	0xbf94d844	-1.1628499
8	0xbd417496	-0.047230326
9	0x3f0508b0	0.5196638
10	0x3e37bb1b	0.17942469
11	0xbec24dfd	-0.37950125
12	0xbee8e190	-0.4548459
13	0xbf713ec4	-0.942364
14	0x3ed16cf1	0.40903428
15	0x3f2f1e61	0.6840573
16	0xbd8e8532	-0.06958999
17	0x3ee7e3da	0.45291024
18	0x3f3df1be	0.74196994
19	0x3f81544a	1.0103848
20	0x3ed070fb	0.40711197
21	0x3f2e7aea	0.681563
22	0x3e346f67	0.17620622
23	0xbdf4d753	-0.11955132
24	0x3e8ee57b	0.27909455
25	0x3ee61dc6	0.4494459
26	0x3f730e2e	0.9494351
27	0x3e22cf52	0.15899399
28	0x3efeec15	0.4978949
29	0x3ee85bab	0.45382437
30	0x3ee642d6	0.44972867
31	0x3e21bcdc	0.157947
32	0x3dd75796	0.105147526
33	0xbde81d8c	-0.113337606
34	0xbf33936d	-0.7014683
35	0xbf709321	-0.939745
36	0x3f188278	0.5957408
37	0x3f667510	0.90022373
38	0x3d3553b8	0.044269294
39	0xbe956bb2	-0.29183728
40	0xbd9fe4ec	-0.07807335
41	0xbf13a016	-0.57666147
42	0xbf0819eb	-0.5316455
43	0xbe5917e2	-0.21200517
44	0x3daa1dce	0.08306466
45	0xbe6beebc	-0.23040289
46	0xbec18642	-0.37797743
47	0x3f022b0c	0.50846934
48	0xbf38c23a	-0.72171366
49	0x3f4fde66	0.8119873
50	0x3f2ba9a9	0.67055756
51	0xbe06a60d	-0.13149281
52	0x3f44e96f	0.7691869
53	0x3f3b933a	0.73271525
54	0xbf0185fe	-0.5059508
55	0x3d509676	0.05092474
56	0x3d29701e	0.04136669
57	0xbf445956	-0.76698816
58	0x3f41ab6f	0.7565221
59	0xbefd163d	-0.4943103
60	0xbf314399	-0.6924377
61	0xbf4669ac	-0.7750499
62	0xbedf61cb	-0.43629298
63	0x3dccd7f6	0.10002129
64	0xbc94e5c7	-0.018175973
65	0xbee7e9ed	-0.4529566
66	0xbe126c34	-0.14299089
67	0x3e183e5f	0.14867543
68	0xbed0fe16	-0.40818852
69	0x3f00ac6f	0.5026311
70	0x3f8160e0	1.0107689
71	0x3f82b0ef	1.0210246
72	0x3e05d0c9	0.13067926
73	0xbeec7748	-0.46184754
74	0xbdbefa2b	-0.093250595
75	0x3d4e0682	0.050299175
76	0xbddb64be	-0.107125744
77	0xbe8311b8	-0.25599456
78	0xbf23950d	-0.6389931
79	0x3f011708	0.5042577
80	0x3f1b6938	0.60707426
81	0x3ee8f4c8	0.45499253
82	0x3dfda568	0.12385064
83	0xbf313a74	-0.6922982
84	0x3f71b5f7	0.9441828
85	0xbf8c171e	-1.0944555
86	0x3f053093	0.52027243
87	0x3da3787f	0.07981967
88	0x3efb1f72	0.49047428
89	0xbf001835	-0.50036937
90	0x3e378185	0.17920502
91	0xbebdef80	-0.37096786
92	0x3f0a0992	0.53920853
93	0x3db355a3	0.08756568
94	0x3fa84a7f	1.3147734
95	0x3e824eb0	0.2545066
96	0xbc58241a	-0.013192201
97	0xbf3a587c	-0.72791266
98	0x3e42e93d	0.19034286
99	0x3f610d6a	0.87911093
100	0xbf2d8953	-0.67787665
101	0x3e8efeae	0.2792868
102	0x3c551ec3	0.013007822
103	0x3ea4ef92	0.32214028
104	0xbf8882ab	-1.0664877
105	0x3f044962	0.51674473
106	0x3e5755bf	0.21028803
107	0x3ec67e74	0.3876835
108	0xbf0c471f	-0.5479602
109	0xbf09aacb	-0.53776234
110	0xbea351af	-0.31898257
111	0x3eabb92a	0.33539706
112	0xbeed47e5	-0.46343914
113	0xbe356ca2	-0.17717221
114	0xbf8086dc	-1.0041156
115	0x3d9268f0	0.071489215
116	0xbee757ed	-0.4518427
117	0x3ea6f6e6	0.32610244
118	0xbe8324fa	-0.25614148
119	0x3e5f591b	0.21811335
120	0x3ed0b5ee	0.407638
121	0x3dde5cbd	0.10857532
122	0xbee07136	-0.43836373
123	0xbee1d618	-0.44108653
124	0x3f436e9e	0.76340663
125	0x3d333cb6	0.04375907
126	0x3da9a3ee	0.0828322
127	0xbe63798a	-0.22214332
128	0x3ef263e4	0.47341835
129	0x3e6062ae	0.21912643
130	0xbda9befe	-0.08288382
131	0x3c95f9c3	0.018307572
132	0x3f18c4f9	0.59675556
133	0xbea5b7fc	-0.3236693
134	0xbe3869eb	-0.18009154
135	0x3ed402bb	0.41408333
136	0x3e771161	0.24127723
137	0x3e8f1e44	0.27952778
138	0x3f65f647	0.89828914
139	0xbf395304	-0.72392297
140	0x3eb663c3	0.35622987
141	0x3f810b99	1.0081664
142	0x3e388e70	0.18023086
143	0xbee03361	-0.437892
144	0xbef0152c	-0.46891153
145	0xbf505b48	-0.81389284
146	0xbe2862ba	-0.16443911
147	0x3e90274d	0.28154984
148	0xbe40e842	-0.188386
149	0xbcda9413	-0.026681935
150	0xbe18e93a	-0.14932719
151	0xbeb3871e	-0.35064024
152	0x3f86dfb5	1.053702
153	0x3e37da92	0.17954472
154	0x3e1ac120	0.15112734
155	0x3e9b0e2d	0.30284253
156	0x3fbaba69	1.4588138
157	0xbdf77b44	-0.12084058
158	0x3dc83e89	0.09777553
159	0xbf09b6a6	-0.53794324
160	0x3e8ea34b	0.27858958
161	0xbef27f02	-0.47362524
162	0x3eba5934	0.36396182
163	0xbec4b998	-0.38422847
164	0x3f7b86ac	0.9825237
165	0xbf607e34	-0.8769257
166	0xbb4acd22	-0.0030945023
167	0x3dda7db7	0.106685095
168	0x3d2eb309	0.04265121
169	0x3ecc7bbf	0.3993816
170	0xbec3291d	-0.38117304
171	0xbee66d94	-0.45005476
172	0x3ef93dda	0.48680001
173	0x3f53e747	0.82774776
174	0x3eb96b36	0.36214608
175	0xbf568736	-0.83800066
176	0xbd08ebb8	-0.033427924
177	0xbf520a6b	-0.82047147
178	0x3e62916c	0.22125787
179	0xbe37829f	-0.17920922
180	0xbea06331	-0.31325677
181	0xbdfa1423	-0.12210872
182	0xbf0e2221	-0.55520827
183	0x3e5a2cef	0.21306203
184	0xbf57db55	-0.8431905
185	0xbdae4b9b	-0.08510514
186	0x3e1f668e	0.15566465
187	0x3e91da69	0.28486946
188	0x3e142078	0.14465511
189	0x3dc7aff7	0.097503595
190	0xbe52026a	-0.20508733
191	0xbe90c40d	-0.28274575
192	0xbed2ae8b	-0.4114879
193	0x3e316594	0.17323905
194	0x3fa6713d	1.3003308
195	0xbf27218f	-0.6528558
196	0xbeb57c50	-0.35446405
197	0xbe828dd2	-0.25498825
198	0x3ebf7ae6	0.37398452
199	0xbe8f38ce	-0.27973026
200	0xbd8219d4	-0.063525826
201	0xbe852ca9	-0.26010635
202	0xbd8d18fb	-0.0688953
203	0xbdaed2be	-0.0853629
204	0xbee63867	-0.44964907
205	0xbe5871ec	-0.21137208
206	0xbf07a6d0	-0.5298891
207	0xbe13f271	-0.14447953
208	0xbf95ef9c	-1.1713748
209	0x3f0396f6	0.51402223
210	0xbe805fbe	-0.25073045
211	0x3e54730f	0.20747016
212	0xbd529b3b	-0.05141757
213	0x3f46654e	0.7749833
214	0xbf72167d	-0.94565564
215	0x3f2f97e2	0.6859113
216	0x3e15daeb	0.14634292
217	0x3f79a4f6	0.97517335
218	0xbec6409b	-0.38721165
219	0x3d4fb09a	0.05070553
220	0xbe383378	-0.17988384
221	0xbecc95c3	-0.3995801
222	0x3eed4b7e	0.46346658
223	0xbd82ecb7	-0.06392806
224	0xbd3965a6	-0.045262955
225	0xbf19bf9d	-0.60058004
226	0x3f2aedb1	0.6676894
227	0x3f5f4ec3	0.87229556
228	0x3f3b2504	0.73103356
229	0xbe60c0f9	-0.21948613
230	0x3f001ffe	0.50048816
231	0x3f853eb0	1.0409756
232	0x3d9e9440	0.0774312
233	0xbf8306fd	-1.0236508
234	0xbeca7c78	-0.39548087
235	0xbe8a2c80	-0.26987076
236	0x3ef44596	0.4770934
237	0xbe9e3171	-0.30897096
238	0xbe99ff33	-0.30077514
239	0x3f6681a7	0.90041584
240	0xbd2cfe4c	-0.042234704
241	0xbf5ae086	-0.85498846
242	0xbdd283d7	-0.10279053
243	0x3d3e872a	0.04651562
244	0x3d4d0bfb	0.050060254
245	0xbe6f8864	-0.23391873
246	0xbd81153b	-0.063028775
247	0xbf626491	-0.884347
248	0x3a871dd3	0.0010308571
249	0x3f2a0ca0	0.66425514
250	0x3f9aa90d	1.208284
251	0x3e9bd14b	0.30433115
252	0xbe99b916	-0.30024022
253	0xbf7c1528	-0.9846978
254	0xbdef3805	-0.11680607
255	0xbefc5489	-0.49283245

dec_shared.bias f4 [100]
0	0x3faf8564	1.3712583
1	0xbf537c27	-0.82611316
2	0x3ec63ca0	0.38718128
3	0xbf8a5fb2	-1.0810454
4	0xbfc3e0c7	-1.5302972
5	0x3fa68102	1.300812
6	0xbf99f6dc	-1.202846
7	0xbf5463f9	-0.82965046
8	0xbe072918	-0.1319927
9	0x3f19993b	0.59999436
10	0x3f3bea83	0.7340471
11	0xbf8c1a3f	-1.094551
12	0x3fa50b2f	1.2894038
13	0x3fb3ec7d	1.4056545
14	0xbf3a7299	-0.7283111
15	0x3f819aba	1.0125344
16	0xbeb781f7	-0.35841343
17	0xbec21594	-0.37907088
18	0xbfb72c2b	-1.4310354
19	0xbf2368d4	-0.6383183
20	0xbf9a371d	-1.2048069
21	0xbf7ae603	-0.9800722
22	0xbefde3b2	-0.4958778
23	0x3f3dc99f	0.74135774
24	0xbe99d3cb	-0.30044398
25	0x3e0f1baf	0.13975404
26	0x3d802e8c	0.06258878
27	0x3e815e70	0.25267363
28	0xbefa06fa	-0.48833448
29	0xbf897ba9	-1.0740863
30	0x3f2ea892	0.6822597
31	0x3f825aaf	1.0183924
32	0xbf0cd2a7	-0.5500893
33	0xbfbffe4d	-1.4999481
34	0x3e4293e6	0.19001731
35	0x3b52b5aa	0.0032151737
36	0xbf11f22f	-0.5701017
37	0xbe8d2b19	-0.27571943
38	0x3f1ccd37	0.61250633
39	0xbe83c85d	-0.25738803
40	0x3fcc1e30	1.5946712
41	0x3e06d3a2	0.13166669
42	0xbfac1116	-1.3442714
43	0x3f72d783	0.94860095
44	0xbdb28035	-0.0871586
45	0xbf4871eb	-0.78298825
46	0x3e794578	0.24342906
47	0x3f7ab675	0.9793466
48	0xbf94d815	-1.1628443
49	0xbed6e748	-0.4197333
50	0x3f31a543	0.69392794
51	0xbe0a7e26	-0.13524684
52	0xbf34ae8c	-0.7057884
53	0x3f4c8b33	0.798999
54	0x3f8fd743	1.1237568
55	0x3fa0e9ec	1.2571387
56	0x3e04f1e5	0.129829
57	0x3f8954af	1.0728968
58	0xbeab2840	-0.33429146
59	0xbe2ff453	-0.17183046
60	0x3d35ec8b	0.044415038
61	0x3f9bd29a	1.2173645
62	0xbfde6f60	-1.7377739
63	0x3d3d67f5	0.04624172
64	0xbfa3401c	-1.275394
65	0x3f36bcf0	0.71382046
66	0x3ecde048	0.40210176
67	0xbdaef82c	-0.08543429
68	0x3f997f2b	1.1991934
69	0x3e1381ee	0.14405033
70	0xbfdcb90e	-1.7243974
71	0x3f36bf84	0.7138598
72	0x3f81a4a4	1.0128369
73	0xbf3f6929	-0.74769837
74	0xbf5204b8	-0.8203845
75	0x3ddf6132	0.109072104
76	0x3db8da7f	0.0902605
77	0x3d4a9a9d	0.049463857
78	0xbda2b2e8	-0.0794428
79	0x3e27c68a	0.1638433
80	0xbf348842	-0.7052041
81	0x3d2c50ca	0.042069234
82	0x3d5e35a0	0.05425036
83	0x3f0d3c38	0.5517001
84	0x3fdaec3b	1.7103342
85	0xbf9745f2	-1.1818221
86	0x3f7f715a	0.99782336
87	0x3d2672b7	0.040636744
88	0x3f6750b1	0.903575
89	0xbfbe9439	-1.4888984
90	0xbfd922bc	-1.6963725
91	0x3f4edf52	0.8080951
92	0xbf4ab335	-0.791797
93	0xbe94057c	-0.28910434
94	0x3ef79f62	0.48363787
95	0x3fce36a6	1.6110427
96	0xbfcae858	-1.5852156
97	0x3ebc422a	0.3676923
98	0xbe9fcd7a	-0.31211454
99	0xbf075a20	-0.52871895

dec_mu.weight f4 [20, 100]
0	0x3e6a0ce1	0.22856475
1	0xbecda17d	-0.40162268
2	0xbe7a5190	-0.24445176
3	0x3ce5b0ab	0.028038343
4	0xbcac3f41	-0.021026256
5	0x3d204a05	0.03913309
6	0xbf0a859c	-0.5411012
7	0x3db7e7e9	0.0897978
8	0x3dfd4cac	0.123681396
9	0x3ed5f14a	0.4178565
10	0x3d94415b	0.07239028
11	0xbeb859fe	-0.3600616
12	0x3d541a9b	0.051783185
13	0x3e16889b	0.14700548
14	0xbddab8bc	-0.106797665
15	0xbf292996	-0.6607908
16	0x3db985c5	0.09058718
17	0xbd5b8da4	-0.053601876
18	0xbea989eb	-0.33113036
19	0xbd872dca	-0.066005304
20	0xbe874dbd	-0.26426497
21	0x3f2b7983	0.6698229
22	0xbe583059	-0.21112193
23	0x3e8d1304	0.2755357
24	0xbed8bfc8	-0.42333817
25	0xbf16f955	-0.589742
26	0x3ec7887e	0.38971323
27	0xbe96df09	-0.29467037
28	0xbe84f43f	-0.25967595
29	0x3f269874	0.65076375
30	0x3ec42f6f	0.3831744
31	0xbe5a4e97	-0.21319042
32	0x3e8cda85	0.27510467
33	0x3edf7ec8	0.43651414
34	0xbecf78d3	-0.4052187
35	0x3de7def9	0.113218255
36	0xbee2278b	-0.44170794
37	0x3f0fda65	0.5619262
38	0x3e63cd77	0.22246347
39	0x3ebc12d0	0.36733103
40	0xbee6149e	-0.44937605
41	0xbeded18d	-0.4351925
42	0x3f414cfc	0.75508094
43	0xbd69bfd8	-0.057067722
44	0xbea2ae77	-0.3177373
45	0x3e808c6c	0.25107133
46	0x3f08d86b	0.5345523
47	0xbd450d76	-0.04810854
48	0xbe2d0003	-0.16894536
49	0x3cf08ed8	0.029364988
50	0xbf01c98a	-0.5069815
51	0x3e50124f	0.20319484
52	0xbd2aeab3	-0.041727733
53	0xbeef6e3d	-0.46763793
54	0x3d770d8d	0.060315657
55	0xbe8c4e7e	-0.27403635
56	0x3ee48925	0.44635883
57	0x3dc14a21	0.09437967
58	0x3eb4c055	0.35302988
59	0xbeb2932f	-0.34877917
60	0xbf1f5273	-0.6223518
61	0xbd59a7bd	-0.053138483
62	0x3d55ab66	0.05216541
63	0x3cc0037e	0.023439165
64	0xbdb9d501	-0.090738304
65	0x3de6c885	0.11268715
66	0xbe61aaf1	-0.22037865
67	0xbec1252a	-0.37723666
68	0x3e189f07	0.14904414
69	0xbe89dea1	-0.26927665
70	0xbe96b319	-0.29433516
71	0xbe3097b6	-0.17245373
72	0x3e2e2d44	0.17009455
73	0x3de551b9	0.11197228
74	0x3cd5058a	0.026003618
75	0x3ec956b8	0.39323974
76	0xbe202a90	-0.15641236
77	0xbe5e6fea	-0.2172238
78	0xbf1c6fda	-0.6110817
79	0x3ebbb3fb	0.36660752
80	0xbe93cae4	-0.2886573
81	0xbea5dd96	-0.3239562
82	0x3ee160e2	0.44019228
83	0x3cfc034a	0.030763287
84	0xbeb7025d	-0.3574399
85	0x3e73e8f5	0.23819335
86	0xbefa137d	-0.48842993
87	0x3e9eb9b1	0.31001046
88	0xbe34a57f	-0.17641257
89	0x3f4a9052	0.79126465
90	0x3edb3737	0.42815563
91	0x3b9814f9	0.004641172
92	0xbdf2aab5	-0.11848966
93	0xbe31f906	-0.17380151
94	0xbed21e4e	-0.41038746
95	0x3c5654a7	0.013081706
96	0x3e8905a1	0.26762107
97	0x3e284672	0.16433123
98	0x3d1449b0	0.036203086
99	0xbf1149c1	-0.56753165
100	0xbf06ea33	-0.5270111
101	0xbd6bcf6f	-0.05757087
102	0xbdcfeff2	-0.10153188
103	0x3c99cd4c	0.018774651
104	0x3ec153fa	0.37759382
105	0xbeb6b01e	-0.35681242
106	0x3e00e3e2	0.1258693
107	0x3e31c711	0.17361094
108	0x3eaedbe7	0.34152147
109	0x3e7fb8e9	0.24972881
110	0xbd2937d3	-0.041313004
111	0xbe3193d5	-0.1734155
112	0x3e1300a1	0.14355709
113	0xbde5f063	-0.11227491
114	0xbe1cd8c4	-0.15317065
115	0x3e67e39c	0.2264542
116	0x3eba49d0	0.3638444
117	0x3ec1d150	0.37855005
118	0x3ec669bc	0.38752544
119	0x3dd9e048	0.106384814
120	0xbe8d382f	-0.27581927
121	0x3eabae3d	0.3353137
122	0x3ef867b0	0.48516607
123	0xbf4199fd	-0.7562559
124	0x3f1e70ca	0.6189085
125	0xbdd68454	-0.10474458
126	0xbe41be62	-0.18920282
127	0x3e28275b	0.16421263
128	0x3e9c26bf	0.3049831
129	0x3e98fc6a	0.29880077
130	0x3e45b30a	0.19306579
131	0xbde4cfc2	-0.11172439
132	0xbe5a29d3	-0.21305017
133	0xbebae008	-0.36499047
134	0x3d9f975c	0.077925414
135	0xbe356fad	-0.17718382
136	0x3eb6f1e1	0.35731414
137	0xbe73fd84	-0.23827177
138	0x3e7a68f1	0.24454094
139	0xbec92891	-0.39288762
140	0xbd82194e	-0.06352483
141	0x3f0bb2fc	0.54569983
142	0x3f27f128	0.6560235
143	0x3e842ab8	0.25813842
144	0xbd105d70	-0.03524536
145	0x3ebd11fb	0.3692778
146	0x3ee6883b	0.4502581
147	0xbe8f13a6	-0.27944678
148	0x3e4dbdd1	0.2009194
149	0xbe149989	-0.14511694
150	0xbe9b6106	-0.3034746
151	0xbea70c41	-0.32626536
152	0x3eb8fdc3	0.36131105
153	0x3e83db8a	0.25753433
154	0xbee8ab0f	-0.45443007
155	0xbec31819	-0.38104323
156	0xbef2d0a0	-0.47424793
157	0xbe02dfea	-0.12780729
158	0xbe9794f2	-0.29605824
159	0xbe92b9a7	-0.28657266
160	0x3e9a4c37	0.30136272
161	0xbe8ca87c	-0.27472293
162	0x3e9b9ae0	0.30391598
163	0xbdc6cf8a	-0.09707554
164	0xbe835232	-0.25648648
165	0x3db92005	0.0903931
166	0x3ec95ac5	0.39327064
167	0x3e00ed64	0.12590557
168	0xbebb87aa	-0.3662694
169	0xbd5a84de	-0.05334937
170	0x3edf6d88	0.43638253
171	0xbba56085	-0.0050469064
172	0xbf3617d2	-0.71130097
173	0x3e91ffed	0.28515568
174	0x3ea56f2d	0.32311383
175	0xbd849668	-0.06474
176	0xbe928e73	-0.28624305
177	0xbe79ca67	-0.24393617
178	0xbd57ed1d	-0.052716363
179	0x3e0c90b7	0.1372708
180	0x3e7ae001	0.24499513
181	0x3e24da35	0.16098864
182	0x3e280e6a	0.16411749
183	0x3e7071f9	0.23480977
184	0xbf085a37	-0.53262657
185	0x3eb5fbe1	0.3554373
186	0x3dbded51	0.0927378
187	0xbe61fae7	-0.22068368
188	0xbd63232d	-0.055453468
189	0xbe302104	-0.17200094
190	0xbe5e6797	-0.21719204
191	0xbeb558dc	-0.35419357
192	0xbdd7d110	-0.105379224
193	0xbe72e2b1	-0.23719288
194	0x3e15f038	0.14642417
195	0xbecd2c87	-0.40073034
196	0x3f0b3efd	0.5439299
197	0xbd12f3a9	-0.035876904
198	0xbef8a372	-0.485622
199	0x3e9d9abf	0.30782124
200	0xbe59bd79	-0.21263684
201	0x3cc10e2c	0.023566328
202	0xbef5688f	-0.47931334
203	0xbd15b0bb	-0.036545496
204	0xbe810c81	-0.25204852
205	0xbed680a3	-0.41895017
206	0xbf256041	-0.64599997
207	0x3d909a17	0.0706064
208	0x3efd81fc	0.49513233
209	0xbd304969	-0.04303876
210	0xbc2d579f	-0.0105799725
211	0x3d4917de	0.049095027
212	0x3eabc546	0.33548945
213	0x3e0fd137	0.14044653
214	0x3f15483b	0.5831334
215	0x3d8e09bb	0.0693545
216	0x3db8a887	0.09016519
217	0xbed54592	-0.4165464
218	0x3df0467b	0.11732193
219	0x3e3c6a00	0.18399811
220	0xbe803a46	-0.2504446
221	0xbf1a371c	-0.6024034
222	0xbdac9bbd	-0.08428142
223	0x3de26add	0.11055539
224	0xbeca3372	-0.39492375
225	0x3d40d3af	0.047076877
226	0x3edc1392	0.4298368
227	0xbe8a6d05	-0.270363
228	0xbcbc2bee	-0.022970166
229	0xbd143bd7	-0.03618988
230	0x3e69b453	0.22822694
231	0xbde44f86	-0.111479804
232	0xbee69d7e	-0.45042032
233	0xbcc562a7	-0.024094893
234	0x3e1704a8	0.1474787
235	0x3cfb4079	0.030670391
236	0x3caa5837	0.020794017
237	0xbea0cbd8	-0.3140552
238	0xbdfa7a76	-0.12230389
239	0xbda1fb51	-0.07909263
240	0x3d58f7f5	0.052970845
241	0xbe27bccb	-0.16380613
242	0x3c1f4511	0.009721057
243	0x3e5a7187	0.2133237
244	0xbca314ee	-0.019907441
245	0xbde019e2	-0.10942437
246	0x3da4b629	0.08042557
247	0xbf09b9b6	-0.53799
248	0xbe3c0b76	-0.18363747
249	0x3ea001dd	0.31251422
250	0x3e19b36b	0.15009849
251	0x3f239fae	0.63915527
252	0x3e3a72c7	0.18207847
253	0x3e839d70	0.25706053
254	0x3eae2fc8	0.3402083
255	0xbe12812b	-0.14307086

dec_mu.bias f4 [20]
0	0xbf930e3b	-1.1488718
1	0xbfa08975	-1.2541949
2	0x3f8ae9b1	1.0852567
3	0x3f833e32	1.0253356
4	0xbf945455	-1.1588236
5	0x3fb5bba7	1.4197892
6	0xbf2f71d2	-0.6853305
7	0xbf4eb6fd	-0.8074797
8	0x3f8da195	1.1064936
9	0x3fa38213	1.277407
10	0x3fabe7f9	1.3430167
11	0xbfb0a222	-1.3799479
12	0x3f7f0cae	0.9962872
13	0x3fc0c8bc	1.5061259
14	0xbfb07ec5	-1.3788687
15	0xbfac5da1	-1.3466073
16	0xbf86c899	-1.0529968
17	0x3fc791dd	1.5591389
18	0xbfafa5cd	-1.3722473
19	0xbfb3e144	-1.4053121

dec_log_var.weight f4 [20, 100]
0	0xbe9933a5	-0.29922214
1	0x3d67c78b	0.056586783
2	0x3ec36062	0.38159472
3	0xbe293169	-0.16522755
4	0xbddcdfbc	-0.107848614
5	0xbc8230d8	-0.015892431
6	0x3d31613c	0.04330562
7	0xbe94bc0b	-0.29049715
8	0xbe190068	-0.14941561
9	0xbe07613b	-0.13220684
10	0xbe1896f5	-0.14901336
11	0x3dd296f8	0.10282701
12	0xbeb94109	-0.3618243
13	0xbe1b8c72	-0.15190294
14	0xbdcc404d	-0.09973202
15	0x3f15a991	0.5846186
16	0x3e9b7c12	0.30368096
17	0x3cb666dc	0.022265844
18	0x3e61bcfe	0.22044751
19	0x3e53cc7b	0.20683472
20	0x3e8860f9	0.26636484
21	0xbec37bb2	-0.3818031
22	0x3efd02e8	0.4941628
23	0x3e589f0d	0.21154423
24	0x3db194c9	0.08670957
25	0x3f02b95a	0.51064074
26	0xbe7b9959	-0.24570216
27	0x3f0a34d8	0.53986883
28	0x3c0697bc	0.008214887
29	0xbf15e0bf	-0.5854606
30	0x3cb9c524	0.022677012
31	0x3ed1fb57	0.4101207
32	0xbee99963	-0.45624837
33	0xbe2076e9	-0.1567036
34	0x3efca55e	0.49344915
35	0xbe999512	-0.29996544
36	0x3e32f47a	0.17476073
37	0xbe9b91a7	-0.3038456
38	0x3dd5d678	0.10441297
39	0xbea3ee45	-0.32017723
40	0x3f088620	0.5332966
41	0x3ecd5822	0.40106302
42	0xbf072a0e	-0.52798545
43	0x3d81bad6	0.06334464
44	0x3ec8ffd4	0.3925768
45	0xbe5472ea	-0.20746961
46	0xbe23850c	-0.15968722
47	0x3d818ee3	0.063260816
48	0x3ea709c6	0.32624644
49	0x3d878385	0.06616882
50	0x3e67cd5f	0.22636937
51	0xbf02c180	-0.5107651
52	0x3d545622	0.051839955
53	0x3e7a8122	0.24463323
54	0x3ed101f0	0.4082179
55	0x3ead0a83	0.33797082
56	0xbe3d3c9c	-0.18480152
57	0xbe5f382c	-0.21798772
58	0xbe40a4c5	-0.18812855
59	0xbcc39073	-0.02387259
60	0x3f425bc0	0.7592125
61	0x3d8e54a4	0.06949738
62	0x3e086d66	0.13322982
63	0xbcead1ad	-0.028664434
64	0xbe8c7cb4	-0.2743889
65	0xbeabcac5	-0.33553138
66	0x3ed5707c	0.4168738
67	0x3eda7f3d	0.426752
68	0x3e6e11ba	0.2324895
69	0x3ec17546	0.37784785
70	0x3deccc15	0.11562363
71	0x3e22b7a6	0.15890369
72	0xbe245733	-0.16048889
73	0xbe1bb581	-0.15205957
74	0x3d0dbd2f	0.034604248
75	0xbdb14c7c	-0.08657166
76	0xbe904953	-0.28180942
77	0x3c78aa9d	0.015177396
78	0x3ea0a58d	0.31376305
79	0xbe506cc8	-0.20353997
80	0xbd9904a7	-0.074715905
81	0x3df7bfab	0.12097105
82	0xbebe8d05	-0.37216964
83	0xbdb0d4bb	-0.08634325
84	0x3e4799ef	0.19492315
85	0xbef718ca	-0.482611
86	0x3f0e575f	0.5560207
87	0xbe7b855c	-0.24562591
88	0x3ecc3215	0.3988196
89	0xbf7791a1	-0.9670659
90	0xbec4833f	-0.38381383
91	0xbad69007	-0.0016369828
92	0xbdc04ff4	-0.0939025
93	0x3ea2116f	0.31653926
94	0x3ee330c8	0.44373155
95	0xbd5dc363	-0.054141413
96	0xbed016a6	-0.4064228
97	0xbe8a164a	-0.2697013
98	0x3e107d48	0.14110291
99	0x3ea82273	0.32838783
100	0x3e879e9c	0.26488197
101	0x3e354a03	0.17704014
102	0x3ede372b	0.43401465
103	0x3d5f1840	0.054466486
104	0xbe7f94ef	-0.24959157
105	0x3e192c56	0.14958319
106	0x3e2104b2	0.15724447
107	0xbee5b4b9	-0.44864443
108	0xbe5c9255	-0.21540196
109	0xbe93e55b	-0.28885922
110	0x3d526fb9	0.05137608
111	0xbd9cd574	-0.076579005
112	0x3da8b2cf	0.0823723
113	0x3ec3f221	0.38270667
114	0xbe578b0f	-0.2104914
115	0x3ed22f42	0.4105168
116	0xbebd5680	-0.36980057
117	0xbef8ea35	-0.48616186
118	0xbecefede	-0.40428823
119	0xbe0bc35f	-0.13648747
120	0x3e1e07c0	0.15432644
121	0xbe20f648	-0.15718949
122	0xbd147341	-0.036242727
123	0x3e31170c	0.17293948
124	0xbe76879c	-0.24075168
125	0x3e71aa3d	0.23600097
126	0x3e0ce097	0.13757549
127	0xbd6e5274	-0.058184102
128	0x3e3be7e5	0.1835018
129	0xbeca82e5	-0.3955299
130	0xbd786aee	-0.06064885
131	0x3e1777c5	0.14791782
132	0xbea4776a	-0.32122356
133	0x3d4a3c1d	0.049373735
134	0x3dbf8b32	0.09352721
135	0x3eb78608	0.35844445
136	0xbe59f91c	-0.21286434
137	0xbe003b7b	-0.1252269
138	0xbeb58495	-0.35452715
139	0x3e04af7e	0.1295757
140	0x3eac9c7d	0.3371314
141	0xbeed34a8	-0.46329236
142	0xbf35a13a	-0.7094914
143	0x3d70d230	0.0587942
144	0x3f03ffa5	0.5156196
145	0xbf2b54e2	-0.66926396
146	0xbe4896ab	-0.19588725
147	0x3e920998	0.28522944
148	0xbf2ca83c	-0.67444205
149	0xbdc2aad2	-0.09505238
150	0x3f070ab0	0.5275068
151	0x3e08fe5a	0.13378277
152	0xbf0f6b47	-0.5602307
153	0xbe0e2794	-0.13882285
154	0xbdf046c7	-0.1173225
155	0x3e91fcd4	0.28513205
156	0x3edd77a8	0.43255353
157	0xbc1faf6a	-0.009746412
158	0x3dd54522	0.10413577
159	0x3e6baceb	0.23015182
160	0x3e13f223	0.14447837
161	0xbc4fa685	-0.012673979
162	0xbea07f83	-0.31347284
163	0x3e6715b1	0.22566868
164	0x3e52b269	0.2057587
165	0xbec52984	-0.38508236
166	0xbd9f8e86	-0.07790856
167	0x3e97f451	0.29678586
168	0x3ddc4c19	0.10756702
169	0xbdced358	-0.10098904
170	0xbed922b8	-0.424093
171	0x3e12a979	0.14322461
172	0x3f2d88b3	0.6778671
173	0xbef52887	-0.47882482
174	0xbea08a49	-0.31355503
175	0x3b03674e	0.0020050588
176	0x3ce1a817	0.027545972
177	0x3e071d9e	0.13194892
178	0x3d0dc52d	0.03461187
179	0xbe80d538	-0.25162673
180	0xbf0a7a7b	-0.5409314
181	0xbe761712	-0.24032238
182	0xbdc4ebe2	-0.096153036
183	0x3e2e2743	0.17007165
184	0x3efa8fae	0.48937744
185	0xbea53053	-0.3226343
186	0xbe230dac	-0.15923184
187	0x3cfa007c	0.03051781
188	0x3e9decf4	0.30844843
189	0x3e3351ca	0.17511669
190	0xbd4858e6	-0.048912905
191	0x3bf6f098	0.007536005
192	0xbce060e9	-0.02738996
193	0x3ecc5b5e	0.39913458
194	0x3d754ebe	0.059889548
195	0x3e99d31d	0.3004388
196	0xbf7d3174	-0.98903584
197	0x3d6164e2	0.05502785
198	0xbd54bdbd	-0.05193876
199	0x3e17ed98	0.14836729
200	0x3d9d316e	0.076754436
201	0xbe3fc64a	-0.18727985
202	0xbf4d982b	-0.80310315
203	0xbce98b56	-0.028508823
204	0xbed5bec0	-0.41747093
205	0xbd95bb24	-0.07311085
206	0xbf6f75a4	-0.9353888
207	0xbe395224	-0.1809774
208	0x3eeaf031	0.45886377
209	0xbd878e97	-0.06618994
210	0x3d0c8f6d	0.03431647
211	0xbe973849	-0.2953513
212	0x3ebab035	0.3646256
213	0x3e061722	0.13094762
214	0x3e69c22e	0.2282798
215	0x3e0da34f	0.13831829
216	0x3c5406bd	0.01294106
217	0xbeabd479	-0.3356054
218	0xbc92cc40	-0.01791966
219	0x3e03da60	0.12876272
220	0xbdaaae33	-0.08334007
221	0xbf26b79f	-0.65123934
222	0x3d8e452c	0.06946787
223	0x3d7e8dea	0.06214706
224	0xbe8b35e3	-0.2718955
225	0x3c72cfd7	0.014820061
226	0x3f1218cc	0.5706909
227	0x3e770162	0.24121621
228	0xbed34e97	-0.41270897
229	0xbd5057f0	-0.050865114
230	0x3eeee408	0.4665835
231	0x3dd5a1c3	0.10431244
232	0xbe7251fd	-0.23664089
233	0xbe719179	-0.2359065
234	0xbd312e3e	-0.04325699
235	0x39c9b774	0.0003847439
236	0x3d6d8c57	0.057995167
237	0xbe8c4d36	-0.27402657
238	0x3d64503e	0.055740587
239	0xbdc0800a	-0.093994215
240	0x3ec5e2d7	0.38649628
241	0xbd09f360	-0.033679366
242	0xbea5096f	-0.3223376
243	0x3e0d6ae8	0.13810313
244	0xbccd2993	-0.025044238
245	0xbd8e5f1d	-0.06951735
246	0x3dddbc8e	0.108269796
247	0xbf0cbc2e	-0.5497464
248	0xbeb0271e	-0.34404844
249	0x3ee0c8d7	0.4390323
250	0x3ddd4d34	0.10805741
251	0x3f0e0959	0.55483013
252	0x3ea3cb0f	0.3199086
253	0x3dca1f3f	0.09869241
254	0x3f06ebbf	0.5270347
255	0xbe26feec	-0.16308182

dec_log_var.bias f4 [20]
0	0x3fc6403e	1.5488355
1	0x3fc29dfc	1.5204463
2	0x3f8b8570	1.0900097
3	0x3f8d14bf	1.1021956
4	0x3faa57e8	1.3308077
5	0x3fbee68d	1.4914109
6	0x3fdd551d	1.72916
7	0x3fb9aabf	1.4505233
8	0x3f968fa3	1.1762584
9	0x3fabf753	1.3434852
10	0x3fb0b423	1.3804973
11	0x3fb60e7f	1.4223174
12	0x3fa1870d	1.2619339
13	0x3fa242c5	1.2676626
14	0x3fcc2a24	1.595036
15	0x3fb8a31d	1.4424778
16	0x3fa55d95	1.2919184
17	0x3fc50282	1.539139
18	0x3f9b5641	1.2135698
19	0x3fbf931c	1.4966769
