vae/saved_models/free_endpoints/free_nepochs50_lr0.001_N20_n2000_b150_s3_testTrue.pt (torch, 22905 bytes, 36 tensors)

enc_shared.weight f4 [15, 20]
0.07025486 -0.068158574 0.06922211 -0.10357519 -0.1256552 0.014002362 -0.24768041 0.0786825
-0.14007904 0.23310219 0.05200992 0.20500682 0.028343713 0.06615149 -0.24041553 -0.03471687
0.011761894 0.22510816 -0.28491426 -0.01662522 0.21830812 0.14950667 0.12630023 -0.18673608
-0.08194476 -0.21012129 -0.0954538 0.21030767 -0.10898629 0.0065838937 0.16191421 -0.21549153
-0.21022032 0.1329297 0.03038953 0.07766358 -0.05687129 -0.15626211 0.007268945 0.08699939
-0.01812793 -0.09495886 0.0016270315 -0.06880576 0.06974092 -0.010017338 0.033174474 -0.16335917
0.04497046 -0.20596705 0.25636795 -0.09400117 0.03473847 0.1413557 0.10578979 0.004728645
-0.024264269 0.08011063 -0.15990403 0.1374105 -0.24306308 -0.12248388 -0.13143878 -0.10981504
0.20956922 -0.16320974 0.0028980984 -0.062636256 0.029343165 -0.08168609 -0.085986234 -0.13470244
0.10670206 -0.12569314 0.1725074 -0.05604353 -0.10880359 0.17020607 0.14772977 0.092349604
0.3124362 -0.033978857 0.02805486 -0.13790663 0.039760433 0.18823929 0.01105893 0.075182185
-0.25954673 0.13644153 -0.097955935 0.1575911 -0.0996477 0.15194744 0.124618016 0.017984075
0.12367829 -0.15743788 0.009092377 0.057288885 0.11110593 0.28954256 -0.15693854 -0.09109088
0.0051116208 -0.23198327 0.18168014 0.116090156 0.08267282 -0.074390836 0.06353395 -0.014656502
0.1641289 0.10674416 -0.09636832 -0.09288916 0.027350055 -0.066900566 0.057851214 -0.1520991
-0.26852977 0.17837285 -0.075039074 -0.033781968 0.25064027 0.061314665 -0.05571105 0.25926787
-0.13586624 -0.00022473847 0.08580804 -0.25752917 -0.09203865 -0.07019808 0.02088198 0.10460311
0.032790214 -0.22307247 0.18939993 -0.037264887 -0.12534359 -0.21989435 -0.014530581 0.18906197
-0.044468842 0.10290258 0.019089365 -0.17512797 0.06708457 0.037676305 0.06886591 0.18727498
0.26083204 0.29590428 0.1430928 -0.14767969 -0.07994853 0.19989614 -0.18827274 0.02738147
0.0025823324 -0.031282164 -0.13893461 -0.18109636 -0.04823514 -0.069122426 -0.02006544 -0.14020993
-0.065735295 0.22547844 0.24089527 0.15351892 -0.15103437 0.24051975 0.21504371 -0.21233714
-0.24720238 0.10190408 0.08885985 -0.14346795 0.2775765 -0.007780497 0.048683986 -0.016505975
-0.21488178 0.22742528 -0.1599393 0.11301288 0.029123686 -0.08620138 -0.07938159 0.16397607
0.068929404 0.13295034 0.026378779 -0.08907387 0.12960099 -0.11949943 -0.05986009 0.28219816
0.07377881 0.020942027 0.11212507 0.03512957 0.21716903 0.02221689 0.09282606 0.17026375
-0.020938138 -0.007458632 0.20097774 -0.03496961 -0.17601104 -0.14015554 -0.062332787 -0.07278513
0.23765792 -0.22778998 0.033846628 -0.108057715 0.045629952 -0.08950281 -0.048760407 0.1785609
-0.19034785 -0.08121322 -0.10505909 -0.11103226 0.058705095 -0.083023116 0.04068938 -0.12266258
-0.18111217 -0.28049242 -0.21020737 0.067736834 0.036481947 -0.20231064 0.19328775 -0.10976493
0.061707642 0.024383526 -0.039753396 0.063718505 -0.060949508 -0.111236155 -0.005461233 -0.15913898
-0.0003257957 -0.08924014 0.09702137 -0.10386969 -0.20970492 -0.17892453 -0.15962377 0.121196814
00000000: c8e1 8f3d b996 8bbd 52c4 8d3d 3b1f d4bd
00000010: c2ab 00be 2a6a 653c ef9f 7dbe 4a24 a13d
00000020: e170 0fbe 57b2 6e3e 5b08 553d 4fed 513e
00000030: 1331 e83c 6f7a 873d 7d2f 76be 4733 0ebd
00000040: f6b4 403c c182 663e 48e0 91be 9d31 88bc
00000050: 2a8c 5f3e 4718 193e d954 013e be37 3fbe
00000060: a8d2 a7bd 092a 57be 487d c3bd e55a 573e
00000070: 3434 dfbd b4bd d73b d7cc 253e d0a9 5cbe
00000080: ff43 57be b91e 083e 77f3 f83c 150e 9f3d
00000090: dff1 68bd 2d03 20be 5530 ee3b bc2c b23d
000000a0: 0681 94bc ca79 c2bd 1e42 d53a 09ea 8cbd
000000b0: 54d4 8e3d c31f 24bc f5e1 073d a047 27be
000000c0: f232 383d 07e9 52be a942 833e af83 c0bd
000000d0: ed49 0e3d 8cbf 103e 51a8 d83d c0f2 9a3b
000000e0: dcc5 c6bc 0b11 a43d e2bd 23be 57b5 0c3e
000000f0: 87e5 78be d4d8 fabd e397 06be b5e6 e0bd
00000100: 5099 563e 7420 27be 06ee 3d3b 7047 80bd
00000110: 1461 f03c 094b a7bd 8d19 b0bd 70ef 09be
00000120: 9c86 da3d b4b5 00be c8a5 303e e78d 65bd
00000130: 6bd4 debd 804a 2e3e 7946 173e ca21 bd3d
00000140: a3f7 9f3e 6a2d 0bbd 4ed3 e53c 6537 0dbe
00000150: d6db 223d cdc1 403e 8430 353c 1ef9 993d
00000160: 4fe3 84be 54b7 0b3e 1f9d c8bd 905f 213e
00000170: 1814 ccbd 1c98 1b3e bb37 ff3d 5753 933c
00000180: 0b4b fd3d 6537 21be 31f8 143c c0a7 6a3d
00000190: 818b e33d ec3e 943e 7fb4 20be db8d babd
000001a0: 627f a73b 068d 6dbe 5c0a 3a3e adc0 ed3d
000001b0: 5e50 a93d 395a 98bd 161e 823d d321 70bc
000001c0: 6811 283e af9c da3d c15c c5bd ac3c bebd
000001d0: 390d e03c 2a03 89bd 65f5 6c3d debf 1bbe
000001e0: bc7c 89be 5fa7 363e 16ae 99bd f65e 0abd
000001f0: ec53 803e 1625 7b3d 4531 64bd c2be 843e
00000200: 8520 0bbe c6a7 6bb9 20bc af3d ddda 83be
00000210: c27e bcbd 03c4 8fbd b010 ab3c 283a d63d
00000220: 084f 063d 1c6d 64be 0ef2 413e 11a3 18bd
00000230: 125a 00be fc2b 61be ad11 6ebc 7699 413e
00000240: f624 36bd 96be d23d 4d61 9c3c bf54 33be
00000250: a363 893d 7852 1a3d 9209 8d3d 03c5 3f3e
00000260: c78b 853e c480 973e eb86 123e 5839 17be
00000270: 0ebc a3bd 93b1 4c3e 92ca 40be 1b4f e03c
00000280: 593c 293b ba21 00bd e044 0ebe 5371 39be
00000290: 3692 45bd 0f90 8dbd 4760 a4bc 3193 0fbe
000002a0: 3aa0 86bd d2e3 663e 40ad 763e 1034 1d3e
000002b0: c1a8 1abe cf4a 763e 6b34 5c3e e86e 59be
000002c0: 9f22 7dbe 16b3 d03d 27fc b53d 43e9 12be
000002d0: 821e 8e3e 8af3 febb dc68 473d 8a37 87bc
000002e0: f809 5cbe 2ce2 683e 21c7 23be 4c73 e73d
000002f0: cc94 ee3c 598a b0bd d192 a2bd 58e9 273e
00000300: dc2a 8d3d 2224 083e 4f18 d83c 5c6c b6bd
00000310: 1fb6 043e 1ebc f4bd db2f 75bd 477c 903e
00000320: 5819 973d 9d8e ab3c d4a1 e53d 06e4 0f3d
00000330: 8f61 5e3e 3200 b63c 971b be3d 9f59 2e3e
00000340: 7586 abbc 8a67 f4bb 1ccd 4d3e 4b3c 0fbd
00000350: 3d3c 34be ef84 0fbe aa50 7fbd 5f10 95bd
00000360: 995c 733e c741 69be c3a2 0a3d 5d4d ddbd
00000370: 79e6 3a3d 404d b7bd feb8 47bd abd8 363e
00000380: 8cea 42be 1e53 a6bd 3829 d7bd e264 e3bd
00000390: c174 703d 0608 aabd e8a9 263d 8536 fbbd
000003a0: 7875 39be b49c 8fbe 9a40 57be 9cb9 8a3d
000003b0: 186e 153d 852a 4fbe 39ed 453e 70cc e0bd
000003c0: 27c1 7c3d f6bf c73c 75d4 22bd d97e 823d
000003d0: 31a6 79bd c8cf e3bd 25f4 b2bb 54f5 22be
000003e0: 8fcf aab9 89c3 b6bd 24b3 c63d a2b9 d4bd
000003f0: e3bc 56be fe37 37be 6a74 23be 0936 f83d

enc_shared.bias f4 [15]
0.23113653 0.20732884 -0.20219518 0.29812297 -0.17175467 0.12716897 -0.28598663 0.38724744
-0.2938062 -0.13803566 0.44953263 -0.3570401 0.4722767 -0.055599973 0.04332052
00000000: 0eaf 6c3e 034e 543e 410c 4fbe 93a3 983e
00000010: 75e0 2fbe 9538 023e d76c 92be 4c45 c63e
00000020: c46d 96be 3859 0dbe 2429 e63e f6cd b6be
00000030: 40ce f13e ccbc 63bd dc70 313d

enc_mu.weight f4 [3, 15]
-0.14874743 0.32571435 0.24079761 0.14301859 -0.01654914 0.2089946 0.2605149 0.0015901038
0.3682412 -0.29837996 0.18217918 -0.21041678 -0.005165717 -0.05685622 0.027632857 -0.25061208
-0.158798 0.010325034 0.17704225 -0.23622598 0.24293995 0.20461321 -0.22333127 -0.1015004
-0.1562841 0.16346927 0.17271748 0.22112577 -0.087310344 0.3172212 0.012182037 -0.31703818
0.25432 0.32834467 -0.16293676 0.2529397 -0.30833304 0.30114388 0.029965324 -0.07818585
-0.34586278 -0.1089388 0.13385053 -0.124623805 0.18213555
00000000: 3f51 18be 08c4 a63e a693 763e 7773 123e
00000010: 1092 87bc ae02 563e 3562 853e 086b d03a
00000020: 1c8a bc3e 42c5 98be 2e8d 3a3e 7f77 57be
00000030: 2d45 a9bb 11e2 68bd 4d5e e23c 3a50 80be
00000040: f19b 22be 552a 293c 904a 353e 39e5 71be
00000050: 40c5 783e 2086 513e f4b0 64be 71df cfbd
00000060: f008 20be 7d64 273e dadc 303e cb6e 623e
00000070: c4cf b2bd d16a a23e 2b97 473c d452 a2be
00000080: 3b36 823e cb1c a83e e5d8 26be 5081 813e
00000090: d4dd 9dbe 882f 9a3e d779 f53c e71f a0bd
000000a0: ed14 b1be 4e1b dfbd 1d10 093e c43a ffbd
000000b0: be81 3a3e

enc_mu.bias f4 [3]
-0.05878675 -0.18205355 -0.15662448
00000000: 60ca 70bd 3f6c 3abe 2b62 20be

enc_log_var.weight f4 [3, 15]
-0.15986317 -0.16856928 0.21732368 -0.05584071 0.16208264 -0.033803392 0.20157973 -0.2629285
0.18569654 -0.06374428 -0.42314917 0.28215322 -0.24242164 0.09859659 -0.04740871 -0.25019288
-0.02395136 0.34478495 -0.36115694 -0.06288056 -0.17204356 0.29873186 -0.21161711 0.21623538
0.08960753 -0.48729447 0.14462528 -0.44420663 0.23974933 0.12741785 0.116907425 -0.32968777
0.26530442 -0.19653545 0.031968683 -0.052333616 0.0059383158 -0.3224075 0.24022247 -0.04217066
-0.025437431 0.2067314 -0.35999697 -0.103553176 0.15037486
00000000: 2cb3 23be 6d9d 2cbe 198a 5e3e 3ab9 64bd
00000010: fef8 253e 6d75 0abd eb6a 4e3e 909e 86be
00000020: 3c27 3e3e 5c8c 82bd 02a7 d8be 6376 903e
00000030: 613d 78be 02ed c93d a32f 42bd 4819 80be
00000040: a435 c4bc a787 b03e 90e9 b8be 86c7 80bd
00000050: 302c 30be 62f3 983e 28b2 58be cf6c 5d3e
00000060: 2784 b73d a97e f9be a618 143e 0d6f e3be
00000070: d980 753e d379 023e 296d ef3d d6cc a8be
00000080: fbd5 873e 9740 49be 98f1 023d c65b 56bd
00000090: 3496 c23b 9912 a5be e1fc 753e 24bb 2cbd
000000a0: 2962 d0bc 65b1 533e 8651 b8be b013 d4bd
000000b0: defb 193e

enc_log_var.bias f4 [3]
-0.20810533 -0.40010193 -0.18027763
00000000: 9019 55be 29da ccbe b39a 38be

dec_shared.weight f4 [15, 3]
-0.11464878 0.5420065 0.23062511 -0.20862606 -0.36512986 0.42002746 0.24581067 -0.053330723
0.09523393 0.058753964 0.3724341 -0.2759064 -0.38783985 -0.11304258 0.039254617 0.15724368
0.11970257 0.3155192 -0.0644641 -0.22575624 -0.0840662 -0.3688022 -0.1774599 -0.25992182
-0.44698113 -0.22907792 0.16873197 -0.013591922 -0.19928299 -0.30997115 0.3036906 0.37538898
0.10101452 0.16312699 0.031198522 0.24559574 0.060211927 -0.41692635 -0.45760214 0.39368218
0.31272674 0.45108268 -0.08279135 0.20184074 -0.06795119
00000000: fbcc eabd f0c0 0a3f fd28 6c3e 12a2 55be
00000010: 4df2 babe d70d d73e cbb5 7b3e 5171 5abd
00000020: 020a c33d ffa7 703d afaf be3e 9b43 8dbe
00000030: f292 c6be de82 e7bd 73c9 203d 7d04 213e
00000040: 9f26 f53d bc8b a13e c105 84bd a52c 67be
00000050: e62a acbd a4d3 bcbe 0cb8 35be 7914 85be
00000060: b6da e4be 6793 6abe 13c8 2c3e a7b0 5ebc
00000070: d710 4cbe 8ab4 9ebe 567d 9b3e fc32 c03e
00000080: b3e0 ce3d c30a 273e 0b94 ff3c 737d 7b3e
00000090: c8a0 763d 5f77 d5be d44a eabe b690 c93e
000000a0: b81d a03e 4ff4 e63e 838e a9bd 57af 4e3e
000000b0: fe29 8bbd

dec_shared.bias f4 [15]
-0.031570766 0.31298947 0.6782809 0.7074953 0.5545128 -0.625932 0.5881268 -0.60583633
-0.5470688 0.6374518 -0.563765 -0.56612945 -0.5991424 0.3730332 -0.30748197
00000000: 5950 01bd 2840 a03e d1a3 2d3f 691e 353f
00000010: 8df4 0d3f 143d 20bf 7a8f 163f 1718 1bbf
00000020: b30c 0cbf 0b30 233f e752 10bf dced 10bf
00000030: 6561 19bf 35fe be3e 476e 9dbe

dec_mu.weight f4 [20, 15]
0.032991663 0.19705005 -0.070313364 0.15188159 0.25142157 0.0504572 0.36301816 0.22709832
0.12847681 0.14228928 0.073305 0.04668143 0.31082705 0.021626541 -0.26418227 0.058856074
-0.19140188 -0.024726212 0.11479675 -0.17676051 0.04875409 -0.21081698 -0.4220863 -0.109176956
0.06834658 0.029712647 -0.00463951 -0.061014533 -0.026210662 -0.050546035 0.06130684 0.08554293
-0.34333435 -0.041070193 -0.041820962 0.078129545 0.29328138 0.117705405 -0.028769353 0.04302512
-0.18533473 -0.07016508 0.30808073 0.06916985 0.00095049187 0.03508139 0.24595925 -0.14381424
-0.018499495 0.16619097 0.046477545 -0.1732334 -0.10183589 0.00014209538 0.28299865 0.16743414
-0.039465062 -0.021994848 -0.21783713 0.15577492 0.15328881 -0.16306165 -0.06258972 0.052170068
-0.01705524 -0.054453973 -0.1108989 -0.12552123 -0.13602476 -0.099970505 0.009267323 -0.09714583
0.07584239 0.31239817 -0.2005765 -0.012242295 0.24731478 -0.21842341 -0.018883351 0.16475987
-0.13884087 -0.018561117 0.27519304 0.08573976 -0.095228404 -0.28982037 -0.17400266 0.28938472
-0.3170024 -0.29569817 0.088791244 0.094016686 0.16816206 0.18689238 -0.067700915 0.23915078
0.03073199 -0.30085066 -0.13622276 -0.06894426 0.43191934 -0.019290892 -0.2437976 0.044790637
0.09218918 -0.077807225 0.0067910175 0.03677462 0.19620796 -0.14141664 -0.13161793 0.0021237507
0.078911014 -0.011305274 0.33688417 -0.0625419 0.1469089 -0.032929588 -0.14097719 -0.058100916
0.26222652 0.10779081 0.06676532 0.061778672 -0.036143713 -0.05386119 -0.18973629 -0.22769433
-0.08288089 -0.093687326 0.22602196 0.13185978 -0.10076859 0.06740579 0.22457017 -0.101245455
-0.054775104 0.011668018 -0.20362397 0.014290907 -0.22381026 -0.15467425 -0.03457273 0.1100305
0.21384487 -0.07651394 0.15571588 0.082769275 -0.14800826 0.13203132 -0.1281668 -0.2196927
0.12165114 -0.06551647 -0.29681563 -0.0019609793 0.15007111 0.07365199 -0.25961936 -0.1971881
0.23542108 -0.11609436 -0.24927317 0.14924933 0.10746205 -0.098447144 -0.02051795 -0.09808296
-0.21157587 0.08763126 -0.04705504 0.06463975 -0.070272654 0.23711866 -0.13249518 -0.21888906
0.14225106 0.023167115 -0.31129357 -0.04215469 0.12721789 0.120562196 0.09001845 -0.08624477
-0.033041432 -0.09424604 -0.10704273 0.06388206 -0.012717012 -0.17248961 -0.17133018 0.027970398
0.025009109 0.18897302 -0.122623466 -0.14240952 0.09773517 0.05024337 -0.09370495 -0.29135332
-0.17274813 0.14355955 0.07058299 0.009265916 -0.20885904 -0.0590321 0.14825836 -0.016754929
-0.1572519 -0.11815046 -0.18149057 -0.12475589 0.20284478 0.06436134 -0.08171992 0.15599538
-0.0682595 -0.15234204 0.07030835 -0.21608695 -0.03826796 0.000542208 -0.043730296 0.27775267
0.11620338 0.23880312 -0.1425787 0.053768337 0.28959227 -0.103036046 0.07246486 -0.02553362
-0.15418872 0.21261019 0.18298616 -0.08038636 0.19128604 0.08056753 0.050655354 -0.07694129
-0.12567812 -0.10217975 0.17938194 0.1863913 -0.056889415 -0.012928943 -0.076403156 0.23402779
0.26054373 0.112469696 -0.10492429 -0.35384881 0.00581389 -0.082914725 -0.040098645 -0.038214676
00000000: 4422 073d 7dc7 493e 7400 90bd d986 1b3e
00000010: 54ba 803e 35ac 4e3d 84dd b93e 768c 683e
00000020: 6d8f 033e 48b4 113e ef20 963d 0735 3f3d
00000030: b924 9f3e 252a b13c e642 87be 1113 713d
00000040: dbfe 43be a08e cabc 8f1a eb3d b500 35be
00000050: 5eb2 473d 68e0 57be b21b d8be 2b98 dfbd
00000060: 4bf9 8b3d f067 f33c 0807 98bb 60ea 79bd
00000070: beb7 d6bc 5c09 4fbd e21c 7b3d 2231 af3d
00000080: 85c9 afbe 3839 28bd 754c 2bbd 6202 a03d
00000090: fa28 963e 880f f13d b5ad ebbc 1c3b 303d
000000a0: 63c8 3dbe b6b2 8fbd c2bc 9d3e eca8 8d3d
000000b0: 6e2a 793a 81b1 0f3d bedc 7b3e 0a44 13be
000000c0: 418c 97bc f72d 2a3e 3d5f 3e3d 1964 31be
000000d0: 568f d0bd 70ff 1439 33e5 903e db73 2b3e
000000e0: 1ea6 21bd 8a2e b4bc b210 5fbe 7683 1f3e
000000f0: bef7 1c3e a2f9 26be 0a2f 80bd 48b0 553d
00000100: 6eb7 8bbc 210b 5fbd f61e e3bd a388 00be
00000110: 134a 0bbe 56bd ccbd f8d5 173c 65f4 c6bd
00000120: 4153 9b3d a7f2 9f3e ed63 4dbe e893 48bc
00000130: 1640 7d3e 63aa 5fbe 42b1 9abc d0b6 283e
00000140: 4d2c 0ebe 7c0d 98bc 1ae6 8c3e 5498 af3d
00000150: 1c07 c3bd 5663 94be c12d 32be 3c2a 943e
00000160: 234e a2be c065 97be 2fd8 b53d d28b c03d
00000170: ad32 2c3e b760 3f3e c7a6 8abd f1e3 743e
00000180: a7c1 fb3c 1909 9abe fb7d 0bbe a632 8dbd
00000190: 8824 dd3e ef07 9ebc 14a6 79be 6376 373d
000001a0: aecd bc3d 6559 9fbd 2f87 de3b fca0 163d
000001b0: bdea 483e 86cf 10be dac6 06be a02e 0b3b
000001c0: 199c a13d c239 39bc 157c ac3e f815 80bd
000001d0: 496f 163e 2de1 06bd 535c 10be 3afb 6dbd
000001e0: 8e42 863e 6ec1 dc3d 42bc 883d a20b 7d3d
000001f0: 6e0b 14bd 8d9d 5cbd 3b4a 42be b428 69be
00000200: 75bd a9bd 24df bfbd 4d72 673e 4006 073e
00000210: c35f cebd 0c0c 8a3d b9f5 653e c759 cfbd
00000220: dc5b 60bd 372b 3f3c cd82 50be 6924 6a3c
00000230: 842e 65be ed62 1ebe 239c 0dbd ac57 e13d
00000240: 26fa 5a3e 57b3 9cbd fc73 1f3e f082 a93d
00000250: 7a8f 17be 3833 073e 283e 03be 20f7 60be
00000260: 3c24 f93d 802d 86bd 38f8 97be c683 00bb
00000270: 3eac 193e dbd6 963d d4ec 84be adeb 49be
00000280: 3912 713e e1c2 edbd 7741 7fbe d1d4 183e
00000290: 1015 dc3d a89e c9bd 4315 a8bc b8df c8bd
000002a0: 58a7 58be 0578 b33d c9bc 40bd d861 843d
000002b0: 1ceb 8fbd 3ccf 723e d1ac 07be 7424 60be
000002c0: 43aa 113e f6c8 bd3c df61 9fbe 65aa 2cbd
000002d0: 6845 023e 50e9 f63d 985b b83d 19a1 b0bd
000002e0: 7456 07bd 1104 c1bd 3839 dbbd 99d4 823d
000002f0: 045b 50bc 1ea1 30be 2e71 2fbe 2d22 e53c
00000300: e7df cc3c 2582 413e 0322 fbbd cdd3 11be
00000310: 6029 c83d fecb 4d3d 61e8 bfbd 432c 95be
00000320: e3e4 30be 4601 133e d18d 903d 12d0 173c
00000330: 25df 55be a5cb 71bd 0ad1 173e a241 89bc
00000340: a406 21be def8 f1bd aad8 39be 0480 ffbd
00000350: 8bb6 4f3e e1cf 833d c65c a7bd 41bd 1f3e
00000360: a3cb 8bbd 8dff 1bbe d3fd 8f3d e645 5dbe
00000370: ddbe 1cbd f722 0e3a 8a1e 33bd 9935 8e3e
00000380: 0afc ed3d ce88 743e 2700 12be 303c 5c3d
00000390: 7045 943e 9004 d3bd 7568 943d e22b d1bc
000003a0: a6e3 1dbe 7cb6 593e b960 3b3e 9ba1 a4bd
000003b0: 7de0 433e 9700 a53d fd7b 4f3d 6593 9dbd
000003c0: c4b1 00be 9e43 d1bd e6af 373e 5cdd 3e3e
000003d0: e004 69bd ebd3 53bc 4279 9cbd fba4 6f3e
000003e0: fd65 853e 8356 e63d 8ce2 d6bd ac2b b5be
000003f0: 7282 be3b 32cf a9bd 7a3e 24bd fe86 1cbd

dec_mu.bias f4 [20]
-0.20546691 -0.06695486 0.10800942 0.0071595763 -0.091091074 0.004782016 -0.11710444 -0.23058148
0.09104741 0.12935834 0.06577171 0.22652918 -0.021818139 0.13847362 0.04954115 -0.060193386
-0.18795022 0.10030586 0.26228487 0.14236711
00000000: eb65 52be a11f 89bd 0b34 dd3d e19a ea3b
00000010: f58d babd 75b2 9c3b 74d4 efbd 8d1d 6cbe
00000020: 1177 ba3d 8376 043e 51b3 863d 44f7 673e
00000030: f4bb b2bc 07cc 0d3e a9eb 4a3d 578d 76bd
00000040: 0676 40be 296d cd3d 344a 863e afc8 113e

dec_log_var.weight f4 [20, 15]
0.03957606 -0.10385428 -0.092204556 -0.3311435 -0.16995156 0.07281424 -0.32812706 0.32952327
0.06366805 -0.36813095 -0.031732623 -0.060024146 0.21986687 0.05536743 0.35900316 -0.112878814
-0.30597097 0.034741513 -0.043424524 0.17472675 0.049928244 -0.07443361 -0.14048682 0.23345137
-0.008542769 0.27505368 -0.03631484 0.0056776498 -0.048219576 0.121224016 -0.2159228 -0.2567711
-0.26378667 -0.33694038 0.011220725 0.38133132 0.043194126 0.17131658 0.05410196 -0.30048564
0.3675041 0.18535504 0.081446424 -0.114140876 0.34468746 0.20126504 -0.26994535 -0.23395202
-0.04197917 -0.15863456 0.32136968 -0.10133587 0.1792832 0.019880218 -0.089743674 0.096456185
0.3342658 0.3379055 -0.36088437 0.24904026 0.14090376 -0.33998245 -0.08177336 -0.28945568
-0.33179194 0.29739785 0.041134965 0.16590184 0.17716192 -0.35851866 0.01826521 0.1805534
0.3350533 -0.0069280793 0.260302 -0.27870214 -0.18351014 0.02228789 0.042168688 -0.07866515
0.20769076 -0.19953331 0.14528719 0.28254682 -0.14119303 0.25743836 0.054518268 0.00048952806
0.047428597 0.43747988 0.02359746 -0.17436159 -0.13240482 -0.22423185 -0.2620142 0.09396773
-0.34586316 0.318806 0.13214013 0.049302775 -0.08290781 0.098380946 0.019935273 0.08535799
0.35018283 -0.030514538 -0.28409806 -0.21242854 -0.17486042 -0.18229204 0.15340662 0.021309806
0.287136 0.38601404 -0.34408277 0.41175938 -0.014646282 0.22411469 0.04822476 0.06327552
0.32486686 0.047924697 -0.096207686 0.012389043 -0.016549408 0.20790547 0.01638678 0.09961542
0.087142594 0.12639622 0.013159088 0.059878513 0.23951413 -0.009627446 0.058540724 -0.040201977
-0.14664747 -0.21360512 -0.32934007 -0.21052155 0.17321134 -0.36646125 0.15676048 0.12674104
-0.3240303 -0.022757024 0.10693009 0.17101702 -0.0871135 0.24390359 0.015750494 -0.050617248
-0.48151463 -0.022377932 -0.1948074 -0.003475875 -0.07378367 0.4317985 -0.026121492 -0.3653926
0.16959652 -0.021900581 0.010547407 0.009661004 0.2694751 -0.025074 -0.012996629 -0.27721488
-0.12670061 -0.109250285 0.16900846 -0.0504746 0.25087866 0.22540212 -0.30371928 0.27502826
0.13179582 0.28780764 0.06747691 0.314034 -0.08035596 -0.32224342 0.05143845 -0.24167353
-0.097909525 0.20164204 -0.3121162 0.19014576 0.28098944 -0.0754424 0.21061483 -0.004834811
0.061063606 -0.18191628 0.41420388 -0.15480527 -0.32715133 -0.4621023 -0.17557976 -0.057230443
0.14872815 -0.15489952 0.28585976 0.14959684 -0.46393925 0.39502525 0.024440957 0.15032014
-0.06201142 0.3593873 -0.010142206 -0.17851038 -0.20333359 -0.1657502 -0.3064178 0.0680494
-0.058802642 0.07240158 0.21646747 -0.33098614 0.075136185 -0.04650563 0.019365735 -0.18177827
0.10980373 0.108239315 -0.06308091 -0.020723848 0.027214378 -0.31822026 0.1521625 0.062301457
0.22531666 0.23527277 0.033796195 0.031413272 0.22184479 -0.0042438437 -0.15876828 0.112894155
0.074015185 -0.20032454 -0.010936544 -0.012926674 -0.22377753 -0.041067865 0.12388299 0.045799755
0.27308562 -0.21028252 0.09817199 0.29637292 -0.06396142 -0.31363213 0.0057869046 0.02775988
00000000: 821a 223d 8eb1 d4bd bed5 bcbd a48b a9be
00000010: c807 2ebe a21f 953d 4500 a8be 46b7 a83e
00000020: 6564 823d a97b bcbe 11fa 01bd e1db 75bd
00000030: c824 613e f5c8 623d 43cf b73e 022d e7bd
00000040: 3aa8 9cbe 1e4d 0e3d eadd 31bd 92eb 323e
00000050: 8f81 4c3d a670 98bd c7db 0fbe e00d 6f3e
00000060: f8f6 0bbc d6d3 8c3e dfbe 14bd 940b ba3b
00000070: e481 45bd 4c44 f83d de1a 5dbe 8077 83be
00000080: 0c0f 87be 7383 acbe 22d7 373c dc3d c33e
00000090: 53ec 303d 9d6d 2f3e 049a 5d3d 41d9 99be
000000a0: 7f29 bc3e b6cd 3d3e 62cd a63d b1c2 e9bd
000000b0: e07a b03e 6c18 4e3e 4736 8abe 1e91 6fbe
000000c0: 5af2 2bbd 1971 22be 918a a43e 2e89 cfbd
000000d0: 0496 373e d7db a23c 88cb b7bd d28a c53d
000000e0: e324 ab3e f301 ad3e d6c5 b8be 6904 7f3e
000000f0: 1349 103e 2e12 aebe cb78 a7bd 8933 94be
00000100: a2e0 a9be 8844 983e 237d 283d 2ce2 293e
00000110: ef69 353e c28f b7be eca0 953c fee2 383e
00000120: 1b8c ab3e f104 e3bb 4e46 853e 0cb2 8ebe
00000130: 15ea 3bbe 1895 b63c 13b9 2c3d 321b a1bd
00000140: e3ac 543e 7652 4cbe 2ac6 143e faa9 903e
00000150: e894 10be f6ce 833e 8c4e 5f3d ac53 003a
00000160: 7d44 423d 5dfd df3e 764f c13c d88b 32be
00000170: 2195 07be 099d 65be ba26 86be 2772 c03d
00000180: fa14 b1be 8a3a a33e be4f 073e b5f1 493d
00000190: 92cb a9bd f37b c93d 4c4f a33c 2bd0 ae3d
000001a0: 2a4b b33e a0f9 f9bc 4d75 91be de86 59be
000001b0: 9c0e 33be c4aa 3abe a016 1d3e e791 ae3c
000001c0: 7d03 933e a2a3 c53e 9e2b b0be 20d2 d23e
000001d0: f6f6 6fbc 527e 653e 5387 453d 9996 813d
000001e0: f354 a63e b04c 443d 8908 c5bd 6afb 4a3c
000001f0: a092 87bc 2ce5 543e 923d 863c 2b03 cc3d
00000200: d177 b23d 036e 013e 3799 573c 2c43 753d
00000210: 3143 753e 6fbc 1dbc 66c8 6f3d d4aa 24bd
00000220: c12a 16be 4dbb 5abe 439f a8be f692 57be
00000230: 505e 313e cfa0 bbbe d285 203e 67c8 013e
00000240: 4de7 a5be f06c babc 2afe da3d 161f 2f3e
00000250: 9068 b2bd ddc1 793e 2e07 813c 0854 4fbd
00000260: 1689 f6be ed51 b7bc 977b 47be 81cb 63bb
00000270: e51b 97bd b114 dd3e bdfc d5bc bd14 bbbe
00000280: b6aa 2d3e d968 b3bc 08cf 2c3c 3049 1e3c
00000290: a4f8 893e fd67 cdbc d0ef 54bc 1cef 8dbe
000002a0: cebd 01be 9dbe dfbd 8e10 2d3e 74be 4ebd
000002b0: 2b73 803e d0cf 663e 1881 9bbe 81d0 8c3e
000002c0: 7cf5 063e 865b 933e 5631 8a3d 10c9 a03e
000002d0: aa91 a4bd 17fd a4be 20b1 523d 4479 77be
000002e0: ca84 c8bd 407b 4e3e b2cd 9fbe 92b5 423e
000002f0: d9dd 8f3e 8c81 9abd 6aab 573e 566d 9ebb
00000300: d51d 7a3d 4348 3abe 8812 d43e 4685 1ebe
00000310: 6180 a7be ac98 ecbe 2ecb 33be 786a 6abd
00000320: 314c 183e fb9d 1ebe 365c 923e ea2f 193e
00000330: 7289 edbe c040 ca3e 6738 c83c 86ed 193e
00000340: b0ff 7dbd 9d01 b83e 7f2b 26bc 6dcb 36be
00000350: ae36 50be 6cba 29be cbe2 9cbe 7c5d 8b3d
00000360: 0adb 70bd 4847 943d a6a9 5d3e 0477 a9be
00000370: 00e1 993d b07c 3ebd e4a4 9e3c 1524 3abe
00000380: c7e0 e03d 93ac dd3d 9030 81bd 0fc5 a9bc
00000390: b0f0 de3c c4ed a2be 7dd0 1b3e d02f 7f3d
000003a0: 69b9 663e 58eb 703e e16d 0a3d 34ab 003d
000003b0: 482b 633e f10f 8bbb 2794 22be 0d35 e73d
000003c0: 4695 973d e021 4dbe 312f 33bc 67ca 53bc
000003d0: f025 65be c736 28bd 5db6 fd3d 8698 3b3d
000003e0: e1d1 8b3e 4d54 57be 650e c93d 31be 973e
000003f0: 34fe 82bd 6494 a0be 13a0 bd3b b068 e33c

dec_log_var.bias f4 [20]
-0.12577334 -0.08288389 -0.31161785 -0.35202795 0.017978044 -0.07369768 -0.10196136 0.021968573
-0.19482477 -0.19802983 -0.048436567 -0.10357862 -0.29797673 -0.098419055 0.06980524 -0.2754728
-0.3419602 -0.25618264 -0.010437828 0.0068651065
00000000: baca 00be 07bf a9bd 608c 9fbe 023d b4be
00000010: b146 933c cfee 96bd 1ed1 d0bd 70f7 b33c
00000020: 2580 47be 55c8 4abe 6c65 46bd 0721 d4bd
00000030: 6890 98be ee8f c9bd 0df6 8e3d c50a 8dbe
00000040: 6815 afbe 5f2a 83be 6c03 2bbc b0f4 e03b

exp_avg f4 [15, 20]
-0.005708015 0.002801784 -0.0022740483 0.00034774063 0.0024338856 -0.0026861604 0.0039312914 0.0003959868
-0.0010925853 -0.0014368127 0.008301138 0.0005278313 -0.004181837 0.0010025158 0.00078978285 -0.00089895155
0.00036434125 0.0032609988 0.0009828993 -0.005708015 -0.0017769039 -0.001631456 -0.0006286078 0.0086453585
-0.009669455 -0.0010241179 0.0045507536 -0.016691476 0.010675971 -0.0026248668 -0.014357499 0.007530933
0.007608274 -0.008208859 -0.0066423453 0.008194478 -0.0040256483 0.0002778113 -0.002361996 -0.0017769039
-0.005235912 0.004201697 0.0031325968 0.0039955066 0.00025684386 0.005353281 -0.008257789 0.00032767898
0.0053279684 0.005033942 -0.0012940277 -0.002272535 -0.0041060275 -0.0101323025 -0.003452587 0.0077053295
0.0067739487 -0.010774244 0.0142733175 -0.005235912 -0.00081302726 -0.0005606686 0.0034135603 -0.00018469355
0.0029433414 -0.0003679759 -0.00535891 0.0042939405 0.0030935972 0.0008116189 3.207684e-05 -0.003953488
-0.0027718423 -0.0012178514 -0.0008687195 0.0010581656 0.0013442436 0.00022110071 0.002204572 -0.00081302726
-0.0020437562 -0.0013240942 -0.0016374064 0.003767844 -0.0011030624 0.0021336789 0.0017116988 -0.006511217
0.0030692292 0.00028972776 -0.0038232568 0.006468934 -0.00043694678 -0.0050516804 -0.004567999 0.0028230932
0.0032785838 -0.002886855 0.0010477441 -0.0020437562 0.0004433501 4.3429554e-06 0.0028173265 -0.00019198921
-0.0019083929 0.0013340656 -0.007192206 0.0064823227 0.00069552433 0.0013111797 -0.0027451795 -0.004970411
0.0007494811 -0.0005636706 -0.0017136881 -0.0003300268 0.001631049 -7.971585e-05 0.0015262938 0.0004433501
0.0028773935 0.0018805573 -0.0039754333 0.0030528954 -0.006548758 0.0033156765 0.002019512 -0.01001781
0.009033647 -0.003291053 -0.015934054 -0.0008715029 0.011206717 -0.006863771 -0.0026638885 0.0027222415
-0.005857012 0.00087583717 -0.00088498567 0.0028773935 -0.008948004 0.00033943108 0.0064719794 0.0011224652
0.0038365554 -0.00027970748 -0.006298437 0.005503219 -0.00039596265 0.006070561 0.008679682 0.00056008523
-0.007925209 -0.0017705036 -0.0034241716 0.0032988847 0.010276493 -0.0056175506 0.0055660787 -0.008948004
-0.009825876 0.0050837267 -0.00032834779 0.011475414 -0.0051822923 0.0035812908 0.00042446362 -0.012062545
0.010998159 0.0015582398 -0.00716933 0.004949058 0.0024447346 -0.013593354 -0.0031362206 0.009609848
-0.0012489477 -0.003459056 0.015659764 -0.009825876 0.0038141045 -0.00031281146 0.00094717566 -0.0056680646
0.0024478459 0.0020548655 -8.2058694e-05 0.0057067396 -0.008692654 0.002615722 0.005500901 -0.00039591888
-0.0053543597 0.0060804393 0.0024555123 -0.005389341 0.0038584482 -0.0019123893 -0.0026835543 0.0038141045
0.0036753868 -0.0052089645 0.00074275554 0.0032906195 -0.005109197 -0.0009167701 0.0032724675 -0.005862434
0.011259055 -0.0047144243 -0.010305193 0.0021850758 0.011281082 -0.004914572 -0.0050428677 -0.001978896
0.00072245754 0.010012041 -0.011009824 0.0036753868 0.009024016 0.001285587 -0.0043238234 -0.008643453
0.0006139638 0.0007489439 5.9014514e-05 0.004740483 -0.010883523 -0.0032992922 0.0007911102 -0.0029697232
-0.0007106522 0.009062002 0.00427958 -0.008300057 -0.0051846285 0.0026836449 -0.0063750017 0.009024016
0.00040488955 8.851443e-05 0.001978237 -0.0051125735 0.0024182166 -0.0070656305 -0.0013305095 0.0047906684
0.0018453974 -0.0029796832 0.0016381384 -0.007843808 -0.00011394441 0.0030733866 -0.0005221711 -0.0013025369
00000000: 4d0a bbbb 239e 373b 3308 15bb f550 b639
00000010: d381 1f3b 4b0a 30bb 10d2 803b 739c cf39
00000020: 1435 8fba 6f53 bcba 7f01 083c 295e 0a3a
00000030: cb07 89bb d966 833a 6e09 4f3a 9ea7 6bba
00000040: 0e05 bf39 7bb6 553b a1d4 803a 4d0a bbbb
00000050: 00e7 e8ba 94d6 d5ba 28c9 24ba 43a5 0d3c
00000060: a26c 1ebc b23b 86ba 7d1e 953b 90bc 88bc
00000070: 45ea 2e3c f505 2cbb b73b 6bbc 0bc6 f63b
00000080: d44e f93b 737e 06bc 08a8 d9bb 2242 063c
00000090: 96e9 83bb 34a7 9139 b8cb 1abb 00e7 e8ba
000000a0: 0392 abbb 64ae 893b 414c 4d3b bdec 823b
000000b0: 00a9 8639 936a af3b ad4b 07bc 54cc ab39
000000c0: 3d96 ae3b c4f3 a43b 5d9c a9ba d0ee 14bb
000000d0: db8b 86bb f501 26bc cc44 62bb fd7c fc3b
000000e0: 00f8 dd3b 7486 30bc a2da 693c 0392 abbb
000000f0: 5621 55ba d5f9 12ba 0ab6 5f3b 4caa 41b9
00000100: 13e5 403b e4ec c0b9 cc99 afbb 2fb4 8c3b
00000110: f3bd 4a3b d3c2 543a 3f8a 0638 438c 81bb
00000120: cca7 35bb 50a0 9fba c7ba 63ba 25b2 8a3a
00000130: 5531 b03a 45d7 6739 957a 103b 5621 55ba
00000140: 8af0 05bb 3b8d adba 3e9e d6ba efed 763b
00000150: a294 90ba 31d5 0b3b 155b e03a 0c5c d5bb
00000160: 1f25 493b 9ae6 9739 9b8f 7abb 5af9 d33b
00000170: 0116 e5b9 9188 a5bb 27af 95bb a503 393b
00000180: 82dd 563b 6431 3dbb 7554 893a 8af0 05bb
00000190: 7171 e839 b4b9 9136 e5a2 383b b650 49b9
000001a0: 0a23 faba d0db ae3a 99ac ebbb aa69 d43b
000001b0: d953 363a e4db ab3a 78e8 33bb d4de a2bb
000001c0: d378 443a 4bc3 13ba d59d e0ba 7307 adb9
000001d0: ecc8 d53a 1f2d a7b8 ec0d c83a 7171 e839
000001e0: a792 3c3b 087d f63a 5a44 82bb 1613 483b
000001f0: f796 d6bb d24b 593b ca59 043b be21 24bc
00000200: dd01 143c b5ae 57bb 2288 82bc 9275 64ba
00000210: 619c 373c 7ce9 e0bb a294 2ebb a267 323b
00000220: 2dec bfbb 7098 653a 62fe 67ba a792 3c3b
00000230: a69a 12bc abf5 b139 e612 d43b af1f 933a
00000240: b86e 7b3b b4a5 92b9 1e63 cebb 5954 b43b
00000250: 3599 cfb9 8eeb c63b 3a35 0e3c afd2 123a
00000260: bcd8 01bc 3e10 e8ba 1168 60bb 1a32 583b
00000270: bc5e 283c 6e13 b8bb a763 b63b a69a 12bc
00000280: b6fc 20bc 6495 a63b 1826 acb9 6003 3c3c
00000290: 38d0 a9bb 17b4 6a3b 8b8a de39 fba1 45bc
000002a0: 9f31 343c da3d cc3a b3ec eabb b52b a23b
000002b0: d737 203b a9b6 5ebc 0d89 4dbb a072 1d3c
000002c0: bbb3 a3ba 54b1 62bb e848 803c b6fc 20bc
000002d0: 0ef6 793b d800 a4b9 e24b 783a 2cbb b9bb
000002e0: 0a6c 203b ecaa 063b ed16 acb8 9aff ba3b
000002f0: a26b 0ebc 886c 2b3b e740 b43b 5593 cfb9
00000300: a073 afbb 6c3e c73b a9ec 203b 1299 b0bb
00000310: 05de 7c3b 23a9 faba 92de 2fbb 0ef6 793b
00000320: c2de 703b f6af aabb 7bb5 423a 6fa7 573b
00000330: 0d6b a7bb 6653 70ba e576 563b a919 c0bb
00000340: e677 383c 757b 9abb 1dd7 28bc 7d33 0f3b
00000350: 4ad4 383c 6b0a a1bb a43e a5bb 5eb0 01bb
00000360: 4e63 3d3a 8b09 243c 8d62 34bc c2de 703b
00000370: 77d9 133c 2481 a83a dcae 8dbb 459d 0dbc
00000380: 6af2 203a c654 443a 5a86 7738 0e56 9b3b
00000390: ce50 32bc f038 58bb 8262 4f3a b09f 42bb
000003a0: 104b 3aba cb78 143c b83b 8c3b f6fc 07bc
000003b0: d1e3 a9bb 17e0 2f3b 64e5 d0bb 77d9 133c
000003c0: 5b47 d439 d3a0 b938 4fa5 013b 6087 a7bb
000003d0: f17a 1e3b ce86 e7bb 7e64 aeba 0afb 9c3b
000003e0: 43e1 f13a ca46 43bb ceb6 d63a 5183 00bc
000003f0: 70f5 eeb8 df6a 493b 4fe2 08ba e3b9 aaba

exp_avg_sq f4 [15, 20]
8.260625e-05 0.00011478039 3.5041146e-05 1.59447e-05 3.233994e-05 7.9821984e-05 4.1025465e-05 4.8054397e-05
5.213308e-05 3.251896e-05 0.000108071436 5.9514517e-05 1.8252636e-05 1.2410766e-05 3.474423e-05 1.5257226e-05
4.7795496e-05 2.566094e-05 2.5460513e-05 8.260625e-05 0.00010093288 8.733071e-05 4.5947218e-05 2.071223e-05
4.904933e-05 0.00013541106 0.00020349707 0.00013357008 0.00016166299 0.00013734879 0.00010883681 6.7808745e-05
6.180223e-05 5.1846902e-05 0.00018163076 0.00014599113 0.00016087241 0.00011123941 0.00011524417 0.00010093288
7.886421e-05 0.00012175718 6.7327994e-05 1.8779716e-05 5.887008e-05 0.00022453727 0.0002616735 4.5501594e-05
9.459466e-05 7.836028e-05 8.879609e-05 5.4174634e-05 4.041513e-05 4.5533612e-05 0.00012975157 3.481126e-05
0.00019695229 6.400104e-05 9.247565e-05 7.886421e-05 0.00012886431 0.00018738992 6.551328e-05 2.2753797e-05
3.0359868e-05 0.00012965003 0.00012263497 6.526748e-05 9.851004e-05 7.077186e-05 0.00015135182 7.851349e-05
3.0648484e-05 2.694411e-05 0.00012914035 7.278039e-05 0.00010264519 9.110426e-05 7.765523e-05 0.00012886431
2.2236069e-05 3.0598676e-05 1.4262627e-05 8.58496e-06 2.0490295e-05 4.2302032e-05 3.5296485e-05 1.9749037e-05
2.3019935e-05 1.9323712e-05 2.775223e-05 1.8836905e-05 1.0872697e-05 1.1149635e-05 3.934836e-05 2.2114269e-05
3.010009e-05 2.0849411e-05 1.5669173e-05 2.2236069e-05 0.00012767836 0.00017044063 7.998815e-05 3.2188993e-05
4.3442895e-05 0.00018142661 0.00021744786 7.766477e-05 0.00011730784 0.00011359381 0.00016225291 6.698784e-05
4.697551e-05 3.666157e-05 0.00017273893 6.954298e-05 0.0002057685 0.00011683861 8.857886e-05 0.00012767836
5.407633e-05 9.031277e-05 4.2052452e-05 2.6335618e-05 4.3624143e-05 0.00011182889 0.000118906806 8.563679e-05
0.00015127573 7.643148e-05 9.996051e-05 5.9599097e-05 4.837374e-05 4.579918e-05 8.100708e-05 4.0381085e-05
0.00011804727 5.489244e-05 5.9856327e-05 5.407633e-05 8.584778e-05 0.00011426304 3.312103e-05 1.2756799e-05
5.0070023e-05 0.000119561475 7.752375e-05 2.70352e-05 9.227871e-05 3.9138933e-05 8.004293e-05 5.4532396e-05
2.952685e-05 1.1013004e-05 4.337795e-05 3.630635e-05 9.0439265e-05 3.967124e-05 2.9237643e-05 8.584778e-05
9.886869e-05 6.0514514e-05 3.0551506e-05 2.3657343e-05 4.0602605e-05 0.00018130288 0.00017758693 8.807592e-05
8.8715264e-05 4.5270386e-05 6.6447465e-05 8.85851e-05 5.7634275e-05 5.8962723e-05 0.00020937351 0.00016053958
8.017511e-05 5.8733123e-05 0.00012666194 9.886869e-05 3.742858e-05 8.78723e-05 1.9853655e-05 1.8898007e-05
1.4079195e-05 6.354181e-05 5.285068e-05 4.4191594e-05 6.0608883e-05 2.8981352e-05 5.99775e-05 4.566095e-05
1.8374187e-05 2.099838e-05 6.548663e-05 2.4488352e-05 2.5406702e-05 1.8842238e-05 4.444258e-05 3.742858e-05
8.5740845e-05 0.0001822937 2.8175318e-05 2.5894442e-05 3.7244656e-05 0.000116790165 0.00014169514 9.377313e-05
0.00022841181 0.00016087659 6.642034e-05 7.688549e-05 8.150377e-05 5.622196e-05 0.00011563998 9.74552e-05
9.786502e-05 0.00012919241 0.000117028634 8.5740845e-05 4.0335573e-05 3.213141e-05 1.2086546e-05 1.0156155e-05
2.1322638e-05 5.7149246e-05 4.3420332e-05 1.5975886e-05 4.315599e-05 1.6817876e-05 3.1483858e-05 2.4905748e-05
1.4292929e-05 8.905351e-06 4.6968595e-05 5.215499e-05 3.994649e-05 2.5412859e-05 2.0922907e-05 4.0335573e-05
2.9509221e-05 5.1123683e-05 1.6572709e-05 9.889587e-06 1.5305857e-05 6.736352e-05 4.9260525e-05 1.8474966e-05
3.564872e-05 1.9883417e-05 3.0375559e-05 3.4754514e-05 1.5358724e-05 1.4417725e-05 6.974357e-05 3.8725942e-05
00000000: e53c ad38 41b6 f038 25f9 1238 fcc0 8537
00000010: bfa4 0738 1a66 a738 c212 2c38 048e 4938
00000020: 78a9 5a38 f864 0838 69a4 e238 3a9f 7938
00000030: 3d1d 9937 d637 5037 55ba 1138 49f9 7f37
00000040: 0678 4838 7342 d737 0994 d537 e53c ad38
00000050: edab d338 5125 b738 73b7 4038 2dbf ad37
00000060: 51ba 4d38 21fd 0d39 d461 5539 f20e 0c39
00000070: 1484 2939 4905 1039 513f e438 8b34 8e38
00000080: d29b 8138 3076 5938 2374 3e39 3215 1939
00000090: dcaf 2839 3449 e938 3eaf f138 edab d338
000000a0: e663 a538 e357 ff38 7132 8d38 2289 9d37
000000b0: 44eb 7638 c471 6b39 3931 8939 f7d8 3e38
000000c0: 1f61 c638 5b55 a438 0a38 ba38 9239 6338
000000d0: 6a83 2938 58fb 3e38 ec0d 0839 4e02 1238
000000e0: fa84 4e39 4c38 8638 7def c138 e663 a538
000000f0: c01f 0739 197e 4439 2d64 8938 68df be37
00000100: 52ad fe37 aaf2 0739 9397 0039 36e0 8838
00000110: 2d97 ce38 5a6b 9438 32b4 1e39 9ca7 a438
00000120: 8f8c 0038 0906 e237 d969 0739 ada1 9838
00000130: 3743 d738 3a0f bf38 d6da a238 c01f 0739
00000140: 9887 ba37 1457 0038 8449 6f37 1f08 1037
00000150: 93e2 ab37 766d 3138 500b 1438 bcaa a537
00000160: ef1a c137 5b19 a237 76cd e837 f203 9e37
00000170: e169 3637 510f 3b37 fb09 2538 0882 b937
00000180: 737f fc37 c5e5 ae37 4b71 8337 9887 ba37
00000190: 66e1 0539 4fb8 3239 50bf a738 ab02 0738
000001a0: 7436 3638 563d 3e39 b702 6439 f5df a238
000001b0: 2b03 f638 3639 ee38 6f22 2a39 d37b 8c38
000001c0: 9207 4538 10c5 1938 4121 3539 9ad7 9138
000001d0: 90c3 5739 4007 f538 6ac3 b938 66e1 0539
000001e0: 04d0 6238 4d66 bd38 7a61 3038 4feb dc37
000001f0: 11f9 3638 ae85 ea38 9b5d f938 e797 b338
00000200: c59f 1e39 d749 a038 e4a1 d138 0bfa 7938
00000210: e8e4 4a38 7f18 4038 58e2 a938 dc5e 2938
00000220: 2590 f738 4f3c 6638 3e0e 7b38 04d0 6238
00000230: 2d09 b438 81a0 ef38 6feb 0a38 0906 5637
00000240: 4702 5238 14bd fa38 3f94 a238 a6c9 e237
00000250: c185 c138 1c29 2438 b9dc a738 b7b9 6438
00000260: 6db0 f737 7ec4 3837 b8f0 3538 a547 1838
00000270: 36aa bd38 ab64 2638 5c43 f537 2d09 b438
00000280: b957 cf38 f7d0 7d38 6e24 0038 c273 c637
00000290: b74c 2a38 1f1c 3e39 a136 3a39 66b5 b838
000002a0: a50c ba38 b5e0 3d38 b659 8b38 c3c6 b938
000002b0: 55bc 7138 be4e 7738 468b 5b39 8456 2839
000002c0: af23 a838 3658 7638 8ed0 0439 b957 cf38
000002d0: a2fc 1c38 1548 b838 668b a637 2987 9e37
000002e0: af35 6c37 c041 8538 fcab 5d38 5d5a 3938
000002f0: 4b36 7e38 fb1c f337 5a90 7b38 1284 3f38
00000300: 4422 9a37 ad25 b037 de55 8938 566c cd37
00000310: 7a20 d537 660f 9e37 db67 3a38 a2fc 1c38
00000320: c4cf b338 1826 3f39 095a ec37 e437 d937
00000330: 2537 1c38 3eed f438 0094 1439 11a8 c438
00000340: d481 6f39 fbb0 2839 264b 8b38 953d a138
00000350: 01ed aa38 dfcf 6b38 be83 f238 dd60 cc38
00000360: e23c cd38 d377 0739 456d f538 c4cf b338
00000370: fe2d 2938 d7c4 0638 52c7 4a37 5b64 2a37
00000380: 04de b237 89b3 6f38 3a1e 3638 f403 8637
00000390: 6402 3538 1d14 8d37 890d 0438 b0ec d037
000003a0: aacb 6f37 3168 1537 2500 4538 fec0 5a38
000003b0: 388c 2738 b32d d537 9a83 af37 fe2d 2938
000003c0: 928a f737 a36d 5638 9f05 8b37 74eb 2537
000003d0: 1465 8037 8445 8d38 169d 4e38 b0fa 9a37
000003e0: 8685 1538 50cb a637 04cf fe37 60c5 1138
000003f0: 9cd6 8037 a8e3 7137 4b43 9238 aa6d 2238

exp_avg f4 [15]
-0.006142663 -0.012072918 0.0309823 -0.010344683 0.0037358638 -0.01017267 -0.0035808443 -0.0026309171
0.017840216 0.00041710612 -0.042663597 0.009799187 -0.030838609 0.008035956 0.009109964
00000000: 6448 c9bb 7dcd 45bc 98ce fd3c bf7c 29bc
00000010: 65d5 743b 45ab 26bc 99ac 6abb 776b 2cbb
00000020: a525 923c 09af da39 06c0 2ebd c58c 203c
00000030: 40a1 fcbc 3ea9 033c f541 153c

exp_avg_sq f4 [15]
8.574629e-05 0.00022373459 0.0004561336 0.00021579124 4.8350546e-05 0.00018655288 0.00023838606 0.00034796755
0.0001557452 6.225829e-05 0.0007962913 0.00015434324 0.00028415475 0.000101785496 0.00018837345
00000000: b0d2 b338 4c9a 6a39 3725 ef39 0546 6239
00000010: 01cc 4a38 689d 4339 45f7 7939 6a6f b639
00000020: 894f 2339 aa90 8238 34be 503a 33d7 2139
00000030: 9bfa 9439 ac75 d538 1d86 4539

exp_avg f4 [3, 15]
0.0019313302 -0.034630828 -0.024506724 -0.009490059 -0.008520349 -0.021596616 -0.00785869 -0.009372726
-0.03310647 0.0016812147 -0.012875871 0.034141 -0.003306336 0.035241887 0.015531547 0.019550918
0.008479531 0.008070662 -0.010312444 0.025266463 -0.014287564 -0.0035392658 -0.0062359325 0.003737257
0.028301693 -0.027797678 -0.013621515 -0.03453696 0.002156774 -0.028843 0.007679359 0.028943311
-0.022232028 -0.008666658 0.012069433 -0.0024142286 0.03409402 -0.02446218 -0.014366595 0.0022005944
0.045789067 0.003783784 0.0085219275 0.0013069287 -0.01508425
00000000: b024 fd3a 0ed9 0dbd 53c2 c8bc 317c 1bbc
00000010: ef98 0bbc 63eb b0bc bcc1 00bc 1090 19bc
00000020: a69a 07bd 345c dc3a 51f5 52bc 6fd7 0b3d
00000030: 1daf 58bb cc59 103d 0878 7e3c 3f29 a03c
00000040: bbed 0a3c cf3a 043c 86f5 28bc 9dfb ce3c
00000050: 6316 6abc 07f3 67bb cb56 ccbb c5ec 743b
00000060: f4d8 e73c f5b7 e3bc c62c 5fbc a176 0dbd
00000070: aa58 0d3b 2848 ecbc 22a3 fb3b 861a ed3c
00000080: f11f b6bc 99fe 0dbc dfbe 453c 0938 1ebb
00000090: 2ca6 0b3d e964 c8bc de61 6bbc d937 103b
000000a0: 518d 3b3d 5df9 773b 8e9f 0b3c 404d ab3a
000000b0: ee23 77bc

exp_avg_sq f4 [3, 15]
0.00096100045 0.00039061645 0.0003123227 0.0005821795 0.0009590536 0.0005072304 0.00056116225 0.00026671344
0.00054413034 0.0021164122 0.00027003392 0.0002151662 0.00080924307 0.00128613 0.0010858241 0.00041293414
0.00029238567 0.0002154276 0.0002990804 0.00054597075 0.00032563653 0.00060162053 0.00033177526 0.00022803328
0.0011654496 0.00039317468 0.0001822239 0.00077690283 0.00077626726 0.0005570812 0.00038732754 0.00032229544
0.00023616642 0.0005413231 0.0006534638 0.0003369511 0.00050062354 0.0004690117 0.0006582196 0.0009883726
0.00056756893 0.00042619574 0.0009579854 0.0008679939 0.0006483658
00000000: a6eb 7b3a a7cb cc39 3ebf a339 689d 183a
00000010: ff68 7b3a a8f7 043a f61a 133a acd5 8b39
00000020: f8a3 0e3a 81b3 0a3b 5793 8d39 3d9e 6139
00000030: 6223 543a 5d93 a83a 3652 8e3a 157f d839
00000040: 574b 9939 68e4 6139 e4cd 9c39 7a1f 0f3a
00000050: 32ba aa39 12b6 1d3a 1ff2 ad39 381c 6f39
00000060: 00c2 983a 0323 ce39 5b13 3f39 11a9 4b3a
00000070: 6a7e 4b3a 1609 123a 3912 cb39 c3f9 a839
00000080: 71a3 7739 94e7 0d3a 374d 2b3a d0a8 b039
00000090: 473c 033a afe5 f539 5f8c 2c3a 488c 813a
000000a0: e8c8 143a 0673 df39 5021 7b3a 168a 633a
000000b0: 18f7 293a

exp_avg f4 [3]
-0.013032465 -0.041183636 0.029921124
00000000: 1f86 55bc 2cb0 28bd 251d f53c

exp_avg_sq f4 [3]
0.00074623956 0.0020717655 0.003763049
00000000: 4a9f 433a 75c6 073b 7c9d 763b

exp_avg f4 [3, 15]
0.004192665 0.006669487 -0.014427026 0.014370022 -0.003352603 0.003962391 -0.010903248 0.014240219
-0.012955625 -0.0043818085 0.017673781 -0.014560324 0.0212694 -0.00083038956 0.0044040955 0.004252198
0.013837479 -0.0079750465 0.007931762 -0.0011782338 0.004510622 -0.0036262737 0.0097460775 -0.00638838
-0.0015362655 0.017174464 -0.014412034 0.015865687 -0.0048701502 0.00080050377 0.001298654 0.00012603065
-0.0045837676 0.0030628874 -0.0024992984 0.00072454556 -3.494497e-05 0.0028309992 -0.0026928706 -0.002178789
0.008655865 -0.002713617 0.0062660095 -0.00041739046 0.0029867773
00000000: a062 893b b68b da3b 555f 6cbc 3e70 6b3c
00000010: 58b7 5bbb f2d6 813b 89a3 32bc cf4f 693c
00000020: d443 54bc 4695 8fbb 9bc8 903c 6d8e 6ebc
00000030: 2a3d ae3c 80ae 59ba 3b50 903b 0656 8b3b
00000040: 98b6 623c c5a9 02bc 39f4 013c f76e 9aba
00000050: d7cd 933b c7a6 6dbb 03ae 1f3c 9e55 d1bb
00000060: 845c c9ba 76b1 8c3c 7420 6cbc c2f8 813c
00000070: c895 9fbb e6d8 513a 9937 aa3a 1827 0439
00000080: 6e33 96bb b9ba 483b 45cb 23bb 6eef 3d3a
00000090: e091 12b8 4988 393b df7a 30bb 03ca 0ebb
000000a0: 54d1 0d3c f0d6 31bb 1953 cd3b 33d5 dab9
000000b0: cfbd 433b

exp_avg_sq f4 [3, 15]
8.7291395e-05 6.830907e-05 7.823506e-05 0.00032249573 4.8351234e-05 4.923904e-05 0.00016717747 0.00021559389
0.00011565147 0.00033060578 0.0002271962 0.00017884844 0.0003355314 0.00020064504 0.00020344449 2.3638351e-05
5.480266e-05 1.7098331e-05 3.476482e-05 2.2330814e-05 1.8105782e-05 1.9902873e-05 4.02085e-05 3.4687862e-05
2.8241759e-05 9.9435885e-05 5.0389808e-05 7.7742676e-05 2.9141245e-05 2.254654e-05 3.7275113e-05 9.638484e-06
1.6760087e-05 4.4644657e-05 2.083908e-05 1.0080321e-05 2.7481276e-05 3.337327e-05 4.8114263e-05 3.7785616e-05
0.00010555988 1.5283056e-05 3.485964e-05 4.5964178e-05 4.4569315e-05
00000000: 3610 b738 2741 8f38 2112 a438 a514 a939
00000010: becc 4a38 0486 4e38 5c4c 2f39 0b11 6239
00000020: e989 f238 2855 ad39 843b 6e39 4389 3b39
00000030: 43ea af39 3e64 5239 b753 5539 f94a c637
00000040: e8db 6538 636e 8f37 71d0 1138 0f53 bb37
00000050: dfe1 9737 18f5 a637 8ca5 2838 cf7d 1138
00000060: b7e8 ec37 3c88 d038 a559 5338 c809 a338
00000070: 5974 f437 5322 bd37 d957 1c38 f9b4 2137
00000080: 0398 8c37 d640 3b38 95cf ae37 a61e 2937
00000090: 9787 e637 47fa 0b38 4cce 4938 ff7b 1e38
000000a0: 0760 dd38 1d34 8037 4136 1238 a9c9 4038
000000b0: f0ef 3a38

exp_avg f4 [3]
0.059101734 0.046686236 0.01719897
00000000: a914 723d 113a 3f3d dbe4 8c3c

exp_avg_sq f4 [3]
0.004534073 0.0010185319 0.0008695041
00000000: 9092 943b 4280 853a 6fef 633a

exp_avg f4 [15, 3]
0.099045865 -0.07795764 -0.014310298 -0.009037844 -0.0070312535 -0.07114678 -0.009818627 -0.050718337
0.014154535 0.0027072264 -0.0012513046 0.047249448 0.039583564 -0.03396002 -0.036089517 0.07377163
0.043707363 -0.004185437 -0.10676738 0.040905025 0.016602268 -0.05313225 0.14521307 -0.028127799
0.02126083 0.02409738 -0.012302274 0.011335294 -0.10255748 0.06630284 -0.0087628355 -0.055705547
-0.041571897 -0.013677309 0.041103166 -0.074641556 0.047906797 0.09331842 -0.012230335 -0.082957074
-0.1819602 0.019115334 0.08095621 -0.041217823 -0.012161466
00000000: 8fd8 ca3d 41a8 9fbd bd75 6abc 7713 14bc
00000010: 6e66 e6bb 67b5 91bd 4ede 20bc 08be 4fbd
00000020: 6ce8 673c b96b 313b d102 a4ba a388 413d
00000030: 6022 223d a919 0bbd 9ad2 13bd 9515 973d
00000040: 7e06 333d fe25 89bb dba8 dabd 078c 273d
00000050: 7b01 883c 34a1 59bd bcb2 143e 456c e6bc
00000060: 312b ae3c de67 c53c 7a8f 49bc abb7 393c
00000070: a809 d2bd c9c9 873d ff91 0fbc 802b 64bd
00000080: 4b47 2abd cb16 60bc cb5b 283d acdd 98bd
00000090: eb39 443d ba1d bf3d be61 48bc 66e5 a9bd
000000a0: c653 3abe c397 9c3c 5fcc a53d 05d4 28bd
000000b0: e340 47bc

exp_avg_sq f4 [15, 3]
0.0086560175 0.0063609686 0.0036307487 0.019072391 0.020731509 0.012115049 0.00874471 0.009124051
0.0023496035 0.0032345308 0.0138424635 0.002686032 0.013797387 0.022356458 0.007811548 0.0025283326
0.0037059279 0.0012913358 0.012851005 0.014232848 0.009054053 0.01056447 0.012224945 0.0059889085
0.004180074 0.0047791814 0.007422581 0.016546823 0.011847084 0.017407576 0.004440238 0.0062884805
0.0075613502 0.012993433 0.008254492 0.011020569 0.020931156 0.0189705 0.0040585725 0.010901935
0.021200884 0.005019855 0.0091533065 0.013196981 0.007922458
00000000: f8d1 0d3c ac6f d03b dbf1 6d3b b43d 9c3c
00000010: 20d5 a93c 337e 463c f945 0f3c 0b7d 153c
00000020: cefb 193b 6cfa 533b 80cb 623c 2408 303b
00000030: 6f0e 623c e424 b73c 04f8 ff3b 62b2 253b
00000040: 27df 723b 0a42 a93a 068d 523c e430 693c
00000050: 7357 143c 9916 2d3c 234b 483c 9b3e c43b
00000060: 01f9 883b ae9a 9c3b 1f39 f33b 348d 873c
00000070: 461a 423c 559a 8e3c 6a7f 913b 990f ce3b
00000080: 34c5 f73b 68e2 543c d93d 073c 9e8f 343c
00000090: d177 ab3c 0668 9b3c c6fd 843b 089e 323c
000000a0: 7aad ad3c 997d a43b c0f7 153c 2638 583c
000000b0: 33cd 013c

exp_avg f4 [15]
-0.0074414653 -0.08712716 -0.10161648 -0.06644221 -0.048314087 0.07939966 -0.060025427 0.03897938
0.06222558 -0.06964265 0.0018055511 0.03364363 -0.011336579 0.057134036 0.22159958
00000000: 89d7 f3bb b96f b2bd 4d1c d0bd da12 88bd
00000010: fee4 45bd 4a9c a23d 39dd 75bd d8a8 1f3d
00000020: 40e0 7e3d cea0 8ebd 3ea8 ec3a e7cd 093d
00000030: 0fbd 39bc 6105 6a3d 00eb 623e

exp_avg_sq f4 [15]
0.002764764 0.02013579 0.009271942 0.011256361 0.0067743855 0.006917977 0.0063478258 0.01045846
0.005826959 0.01632266 0.009255033 0.008551415 0.004447498 0.005958552 0.033443723
00000000: 0b31 353b d0f3 a43c 58e9 173c 9a6c 383c
00000010: aafb dd3b 32b0 e23b 6c01 d03b f659 2b3c
00000020: 13f0 be3b 19b7 853c 6ca2 173c 3c1b 0c3c
00000030: 51bc 913b f53f c33b 49fc 083d
