vae/saved_models/free_endpoints/free_nepochs3_lr0.01_N20_n2000_b150_s10.pt (torch, 121209 bytes, 36 tensors)

enc_shared.weight f4 [100, 20]
000000 34 f0 31 be ec 8d 47 3e c0 22 d6 3d 28 04 ce bd
       -0.17376786 0.19487733 0.10455847 -0.100593865
000010 c7 d8 8d 3d e8 9d b1 bd e8 03 8e 3d 0b e9 38 3e
       0.069261126 -0.08672696 0.06934339 0.18057649
000020 59 f7 5f 3e 20 32 3a 3e 5e 9d 06 3e d8 cd 4a be
       0.218717 0.18183184 0.13145968 -0.19805086
000030 f4 c9 0e be 2d 5c c8 bd 3c 79 8d bc cc c4 20 bc
       -0.13944227 -0.09783206 -0.017269723 -0.009812545
000040 21 b0 de bc 66 05 40 be ab c8 1c 3e 38 52 96 3d
       -0.027183594 -0.1875206 0.15310924 0.07339901
000050 2c 8c 4e be 94 15 e7 bd e7 91 f9 3c aa 46 c5 bd
       -0.20170659 -0.112834126 0.03046508 -0.09632619
000060 15 b1 45 3d 99 3b 2b 3d 9b e5 15 be 39 d8 06 3e
       0.04826458 0.041804884 -0.14638369 0.1316842
000070 e4 7d 1c be 5a 0e 2e be dd 5d 42 be c1 e7 dc 3d
       -0.15282398 -0.16997662 -0.18981119 0.10786391
000080 c5 a4 da 3d 52 3c 4d 3d 5d 92 12 bd ae c3 c1 bd
       0.106759585 0.050106354 -0.035784114 -0.09461151
000090 f1 ed 23 bd b7 a7 02 be c6 89 56 be ce e0 18 bd
       -0.04002184 -0.1275929 -0.20950994 -0.037323765
0000a0 5d e3 07 3e bb 3a 35 bd a1 f1 4a be 33 af 73 bd
       0.13270326 -0.044245463 -0.19818737 -0.059493255
0000b0 7d fe e7 3c 73 0c aa bc 14 35 7c 3d ed e1 48 bd
       0.028319592 -0.02075789 0.061574057 -0.049043585
0000c0 86 e0 29 3d b6 dc 59 3e df ef 79 3d 1a 2d 99 3e
       0.041473888 0.21275601 0.061019775 0.29917222
0000d0 49 5c ae bd df a1 96 3d bd e8 0e be d3 20 95 bd
       -0.08513696 0.07355093 -0.1395597 -0.07281651
0000e0 91 ef 4b be d5 a3 6f 3d 9b 5c 13 be 9e d7 66 bd
       -0.19915606 0.05850585 -0.14390795 -0.056357972
0000f0 81 6e 5f 3d d7 8f 01 3e c2 20 d2 bc 5c 6d ee 3c
       0.054548744 0.12652527 -0.025650386 0.029104881
000100 d1 8c 42 3e 1b 9c 3c be 10 9c 78 3e a8 09 e8 3c
       0.1899903 -0.18418925 0.24278283 0.028324917
000110 af a6 91 3e 86 59 ad 3c c6 1b 48 3e 4f b3 86 be
       0.28447482 0.021160852 0.19541845 -0.26308677
000120 4d 32 fc 3d e5 7f 04 3e 7c 7b 87 3d 5e 64 77 3d
       0.123142816 0.12939413 0.0661535 0.060398452
000130 9d dd 2d 3d a4 85 95 bd e2 b8 08 be 7a 3f a5 3d
       0.042447675 -0.073008806 -0.13351777 0.08068748
000140 79 ef f6 3d 41 d8 c5 bd 89 0f 4a bd d0 95 e0 bd
       0.120573945 -0.09660388 -0.04933122 -0.109660745
000150 bc d5 93 3d 9f 07 af 3d 15 b0 c2 bd 83 0c 15 bd
       0.07218501 0.085463755 -0.09506241 -0.036388885
000160 78 2a 60 be c7 ba 58 3d 6e 1e 9d 3d f4 be c4 bc
       -0.218912 0.0529125 0.076718196 -0.024016835
000170 6a f7 25 be ae 4e 44 3e e3 b5 16 bd 31 c8 68 be
       -0.16207662 0.19170639 -0.036794554 -0.22732617
000180 41 da 33 3e c9 67 42 3e 18 f7 b4 3d 66 7d 85 be
       0.17563726 0.18984903 0.08836192 -0.26072234
000190 79 a7 68 3e e7 d1 05 3d c8 2a ea 3d dd be df bc
       0.22720136 0.03267088 0.11433941 -0.02731269
0001a0 67 78 98 3d f3 05 3a 3e 46 6f 3c 3e 14 74 8a 3d
       0.0744484 0.18166332 0.18401822 0.067604214
0001b0 1f 18 5f 3d 5a 4d 9f bc 86 91 3b be af e2 0f 3d
       0.054466363 -0.019446064 -0.18317232 0.03512829
0001c0 56 1d b8 3d 46 86 e8 3c fa da 60 bd 2e 65 e6 bd
       0.089899704 0.028384339 -0.054896332 -0.11249767
0001d0 87 1c 30 be 5f 4f 29 3e cc e7 05 be ff f9 24 be
       -0.17198382 0.16534184 -0.13076705 -0.16110991
0001e0 71 4f a5 3d 20 2a 41 3c 15 5c 73 3c 94 f9 04 3d
       0.08071793 0.011789829 0.014853497 0.03246458
0001f0 1f 3a 86 bd e1 9f 29 3d 5f 9e d6 3c aa 50 11 bc
       -0.065540545 0.041412238 0.026198564 -0.0088693295
000200 24 ef 18 3e 0b 56 97 be 4b 0c 7e 3e b9 5a 15 3e
       0.14934975 -0.29557833 0.24809377 0.14585389
000210 b9 99 98 3d c1 21 ad 3c 64 d9 15 be 62 d6 d4 bd
       0.07451195 0.02113426 -0.14633709 -0.10392453
000220 0f 0e 59 bd d2 59 52 be 18 5d b9 bd 2f fd 05 bd
       -0.052991923 -0.20542076 -0.09050959 -0.032712158
000230 80 9e c9 bb 4d ca c3 bd e4 6c 9b 3d 36 2e d6 bd
       -0.006152928 -0.0956007 0.075891286 -0.10458033
000240 59 f1 3b bd b1 45 35 3e de 9d 6e 3c 21 99 5f 3d
       -0.045884464 0.17702366 0.014564006 0.054589394
000250 f1 5a d8 bd 04 f6 33 3e 7f 65 bc 3d cc cd c6 3d
       -0.10564221 0.17574316 0.09199046 0.097072214
000260 3e cb 88 bd ab 9f 84 3d 08 76 98 3c b9 f9 19 bc
       -0.0667939 0.06475767 0.01861097 -0.009397917
000270 10 3c 47 3d 91 37 1c be 14 7a 9b 3d d0 58 ce 3d
       0.048641264 -0.15255572 0.07591644 0.100755334
000280 f1 2d 5e 3e d3 aa 4b bc 42 da cb 3d b2 97 03 3e
       0.21697213 -0.012430864 0.09953739 0.12850836
000290 a3 cc 14 bd 73 0a 3e be af 6c 96 bc 32 88 a5 3a
       -0.03632797 -0.18558674 -0.018362371 0.001262909
0002a0 0b f9 67 3e d2 54 80 3d 9f 33 5a 3e 91 31 a6 bd
       0.22653596 0.06266178 0.21308754 -0.08114923
0002b0 b1 6e f6 bc f8 4f 33 3e c4 6f 4e 3e 45 16 10 3e
       -0.030082079 0.17510974 0.20159823 0.14070995
0002c0 6f 89 18 be d3 11 1d 3d 3d c7 a8 3d 1c 46 01 be
       -0.14896177 0.038347077 0.08241127 -0.12624401
0002d0 9f c1 13 be 9d 88 65 3e 38 ff 14 3e 02 24 24 3e
       -0.1442933 0.22415395 0.14550483 0.16029361
0002e0 a4 12 f8 bc cc 20 e3 bd 2a 94 c0 bd 9b 1d d5 bd
       -0.030282326 -0.1109024 -0.0940326 -0.104060374
0002f0 f7 22 0b 3c 1d a6 b1 3d 07 c6 c8 bb ee de 6e 3d
       0.008492223 0.08674262 -0.0061271223 0.05831807
000300 6e c5 08 bd 80 da 8f 3d dc 77 e4 3d a1 4b 08 bd
       -0.03339141 0.070240974 0.11155674 -0.03327525
000310 dd 56 d8 bd b2 2b 8c 3e 0f 8c 7f 3d 9f 1c 4d bd
       -0.10563443 0.27377087 0.06238943 -0.050076123
000320 c6 d1 2c 3d 63 35 6b 3e 2d 17 80 bd 44 cf 82 3e
       0.042192243 0.22969584 -0.062544204 0.25548756
000330 da c4 1d 3e 14 46 a7 bd 28 b6 35 bd c0 a6 02 3c
       0.15407124 -0.08167663 -0.04436317 0.007974327
000340 be 68 bc bd b5 9b 14 3d cd 48 07 3e 89 39 0c bb
       -0.091996655 0.036281306 0.13211365 -0.0021396598
000350 4d 57 5b 3d ac 62 10 3e d8 d5 65 3e dd a6 6c 3d
       0.053550053 0.1410014 0.22444856 0.05777632
000360 5a c0 be 3d 21 d6 0f bd 0e 6d 67 be 3c 3b 0b be
       0.09314032 -0.03511632 -0.22600195 -0.13596815
000370 27 4e c0 bd d8 fc de 3d 49 2f d6 bd 6a f8 47 bd
       -0.093899064 0.1088807 -0.10458238 -0.04882089
000380 ab e9 f5 bd 1b ae 22 be 2c 4e 29 3e c6 bd 31 be
       -0.12007459 -0.15886728 0.16533726 -0.17357549
000390 28 8d 14 be ef a0 62 bd 83 ac d7 bb c7 56 9b 3d
       -0.14506972 -0.05532926 -0.0065818443 0.07584911
0003a0 fa 5b 7e 3d d1 70 34 3e 5f e5 5f bb 60 77 15 3d
       0.062099434 0.17621161 -0.0034163815 0.036490798
0003b0 af 03 ee bd 10 0b a0 bd a2 21 97 3d 8f 26 04 bc
       -0.11621796 -0.0781461 0.07379462 -0.008065834
0003c0 6f f7 01 be a0 d0 3a be 39 61 ff bd f6 b4 2e be
       -0.12692045 -0.18243647 -0.124697156 -0.17061219
0003d0 fe 9c 24 3c 6d 61 fe 3d bd ff c8 3d 94 d7 22 3e
       0.0100471955 0.12420926 0.09814403 0.15902549
0003e0 a9 84 3f 3e b9 97 6c 3d c6 bd 36 3e f4 0a 38 be
       0.1870295 0.05776188 0.1784583 -0.17972928
0003f0 15 4c be bd b2 e0 62 bd bb 8a c5 bd b1 e8 52 bd
       -0.09291855 -0.055390067 -0.09645601 -0.051491443

enc_shared.bias f4 [100]
000000 80 8d 03 be 24 a9 90 3e 5d 70 73 3d 3e 7f f9 bd
       -0.12846947 0.28254044 0.05943333 -0.12182473
000010 3c 4f 00 bd 16 b0 cc 3d 70 53 62 be 0d d5 6a be
       -0.031325564 0.09994523 -0.22102141 -0.22932835
000020 78 f9 8c 3c 44 c9 21 be 72 5e 7e be 5e cc 8a 3d
       0.0172088 -0.15799433 -0.24840716 0.06777261
000030 40 79 34 3e 53 2c 99 3e 24 88 34 3e 3d 80 ca 3d
       0.17624378 0.2991663 0.17630059 0.09887741
000040 18 a4 83 be f1 0d 57 be f8 84 75 be 56 ba 28 be
       -0.2571113 -0.21001412 -0.23976505 -0.16477332
000050 21 5e 0a be 2e e8 d7 bd 82 0c ed 3b 21 d4 7b 3e
       -0.1351247 -0.10542332 0.007234157 0.2459264
000060 9d 32 a6 be 60 01 2a be 64 dc a0 bc 7d cb 83 bd
       -0.3246049 -0.16602087 -0.01963634 -0.06435297
000070 d6 3d 72 3e 24 ea 6f bc 6a 14 8b bd a7 a9 88 3d
       0.23656401 -0.014643226 -0.06791003 0.066729836
000080 ad 71 3d 3e b8 72 16 3e 6a 52 ee 3d 5b bd fc 3c
       0.18500395 0.14692199 0.11636813 0.03085201
000090 98 8f 5d be a1 d5 a5 3b e9 93 fe bd 16 a7 ea bd
       -0.21636808 0.005060867 -0.124305554 -0.1145765
0000a0 91 bc bb bc d6 eb 58 be f9 6a 15 be fe fb f7 bd
       -0.022917064 -0.21183714 -0.14591588 -0.121086106
0000b0 41 2d 34 3c 03 1d 18 be b5 84 5c be ef 11 1e 3d
       0.0109971175 -0.14854817 -0.21534999 0.03859132
0000c0 1b 05 57 be b8 d4 a1 be 76 3d 0b be aa 7e b3 3c
       -0.20998041 -0.31607604 -0.13597664 0.021910984
0000d0 8a 67 89 3e 49 71 8f 3d cf 33 6b be fa 9b e2 ba
       0.26836807 0.07004029 -0.22968982 -0.0017288916
0000e0 81 92 40 3e a6 36 c9 3d 82 aa c7 3d 56 1b b2 3d
       0.18805887 0.098248765 0.09749319 0.0869662
0000f0 55 ef b4 be 25 ed f1 3d 98 c9 8e 3a e4 10 db bd
       -0.35338846 0.1181281 0.001089382 -0.10696581
000100 64 a5 11 3e 50 25 53 3e 0d 5f 84 be 6c 2d 88 be
       0.14223248 0.20619702 -0.25853768 -0.26597154
000110 13 75 81 3e 8b 25 ab bd 39 c9 a6 3c 73 d1 1d 3d
       0.25284633 -0.0835677 0.020359622 0.038529824
000120 79 26 9d bd f9 9f ab 3d 7d 7a aa bd cf 24 63 be
       -0.07673354 0.08380122 -0.08324144 -0.2218201
000130 e6 4e 1e 3e da ca 4a be d6 c9 32 be c2 49 b6 be
       0.15459785 -0.19803944 -0.17459807 -0.35603148
000140 a3 98 00 3e 67 27 a8 bd d8 42 5a be e3 d5 51 be
       0.12558226 -0.082106404 -0.21314561 -0.20491748
000150 5f f3 01 be 7e f8 95 3d 36 b1 d3 3c 15 12 a3 3d
       -0.12690495 0.07322787 0.025841337 0.07962433
000160 c1 d3 05 be f4 be b9 3d e0 c9 92 3d 8c c4 ac bd
       -0.13069059 0.090696245 0.07167411 -0.08435926
000170 58 a2 c7 bd a2 45 c9 bd 4d 31 47 be db de a5 bd
       -0.097477615 -0.098277345 -0.194524 -0.08099147
000180 54 33 fb 3c d5 16 98 3d 15 1f 64 3e 4d 46 08 3e
       0.030664124 0.0742623 0.22277482 0.13308068

enc_mu.weight f4 [10, 100]
000000 e5 31 26 bd da dc d8 3b 7c be a5 bc 7e 86 65 bd
       -0.040574927 0.0066181244 -0.020232432 -0.056036465
000010 43 4e 58 3d bd d4 d0 bb 3d a4 8f bc 5b 89 74 3b
       0.05280901 -0.0063730166 -0.01753437 0.0037313316
000020 42 94 02 bd 33 ab 3d bc b4 6f b5 bd d6 24 91 bc
       -0.03187967 -0.011576462 -0.08859196 -0.01771776
000030 03 41 66 3d 89 0d 4e 3d c3 99 d0 bd 8e c6 c1 3c
       0.056214344 0.050305877 -0.10185578 0.023654249
000040 9a 98 53 bd de 72 3d bb 20 d1 71 3d 12 5a f7 3d
       -0.051659204 -0.0028907578 0.059037328 0.120777264
000050 a0 fb c6 bc af 02 5a 3a 44 ed a3 3d be db 8e 3c
       -0.024289906 0.000831644 0.08004239 0.017438766
000060 dc ae 4b 3d 68 7d 69 3d 8f 24 56 3d 0d 64 a4 bd
       0.049727306 0.057004362 0.05228096 -0.08026896
000070 07 6b 0f bd 1d d5 e7 3c ad cc 1b 3e 5c 33 95 3d
       -0.03501418 0.028299863 0.15214796 0.07285187
000080 de 02 c1 bc 32 f8 ac 3b 24 d1 27 bd 47 e1 83 3c
       -0.023560937 0.0052786106 -0.040970936 0.016098632
000090 f1 0b d3 3d 4e 00 bc bd 6d 93 87 3b f3 9f 6b 3d
       0.10305012 -0.091797456 0.0041374476 0.057525586
0000a0 61 11 d8 3d 2c fe 42 bc 0c 65 98 bd 01 fe 8a 3d
       0.1055019 -0.01190142 -0.07441148 0.06786729
0000b0 e1 6b 1a be 15 8d 97 3d d5 6b dd bb fc 65 f7 3c
       -0.15080215 0.07399956 -0.0067572393 0.030199997
0000c0 f7 e9 f8 bb e2 6d 22 bd d9 7a a3 bc b0 d8 48 bd
       -0.00759625 -0.039655574 -0.01995604 -0.049034774
0000d0 3a 38 56 3d 5c bd 72 bd 46 8f 16 3d a1 93 c8 3b
       0.052299716 -0.05926262 0.03675773 0.0061211144
0000e0 bd 4f dc bd 52 40 27 bd 89 a5 92 bd e3 0a ce 3c
       -0.10757396 -0.040832825 -0.071604796 0.025151676
0000f0 49 21 b2 3d 15 b5 10 3e 46 4a ae 3d 9f 31 a5 bc
       0.08697755 0.14131577 0.0851026 -0.020165263
000100 79 a0 f6 bb 48 58 2d 3c 43 4f de bd 0f 5e dc bc
       -0.007526454 0.01058013 -0.10854962 -0.02690032
000110 d5 ea 11 bd 3e ed f3 3b b0 a0 90 bd cd 11 b3 bc
       -0.035624344 0.007444053 -0.07061899 -0.021859074
000120 78 81 e1 3d 29 1b 15 bd 6e 05 5d bd b0 cb b0 bc
       0.11011022 -0.036402855 -0.053960256 -0.0215815
000130 1f ec b0 3c 52 39 0a 3d 4c 1b 82 bd ce c5 81 3d
       0.021596966 0.03374607 -0.06352863 0.063365564
000140 f5 3a 2a 3a 5d c8 17 3d 6a 06 ad 3d dd d9 70 3d
       0.00064937706 0.037056316 0.08448489 0.05880152
000150 6a 2e a9 3c bd 86 07 bb 65 bd 09 3d 00 37 8c 3c
       0.020652015 -0.0020679676 0.033627886 0.01711607
000160 c3 6a 25 3d a2 b2 99 bd 76 66 88 bd 45 20 96 bc
       0.04038502 -0.07504775 -0.06660168 -0.018325934
000170 2f 9c f6 3d 51 3a 2b 3d 59 87 b7 bc 33 a7 ce 3d
       0.120415084 0.04180366 -0.022403406 0.100904845
000180 17 a8 99 bd a0 8d ee 3c 2a 62 86 3c 12 e5 06 3b
       -0.07502764 0.029120266 0.01640423 0.0020583314
000190 4f 69 a2 3d cf e3 96 bd e0 d5 64 bd a8 d2 fe bd
       0.07930242 -0.0736767 -0.05586803 -0.12442523
0001a0 50 78 9b 3d 33 f4 57 3d fb 59 02 bd 5b a9 50 3d
       0.07591307 0.05272312 -0.031824093 0.05094276
0001b0 33 10 28 3c b0 a2 3a bd 39 96 86 bd fa 9e 37 3d
       0.010257768 -0.045565307 -0.065716214 0.044829346
0001c0 18 74 04 bd d8 57 9d 3c 0c ad b4 bd 32 b1 64 3c
       -0.032337278 0.019206926 -0.088220686 0.013958262
0001d0 25 b1 c2 3d 97 9d 9b bd 7f 1c 18 3d b4 f9 14 3d
       0.09506444 -0.07598417 0.03713655 0.036370948
0001e0 d8 ac 02 bd 20 21 bf bd 27 40 75 3d d0 06 6e bd
       -0.031903118 -0.0933249 0.059875634 -0.058111966
0001f0 65 42 b1 bc 7e 95 a1 bd 30 0b aa 3d a0 fb b9 3c
       -0.021638105 -0.078898415 0.08302915 0.022702992
000200 38 d6 8e 3d 41 84 cc bc 0c ff 91 3d b2 55 8d 3d
       0.06974453 -0.024965407 0.071287245 0.06901111
000210 8a 23 e1 bb 42 b7 b6 3d 66 3a 93 bd 05 0d 17 3d
       -0.0068706917 0.089216724 -0.07188873 0.03687765
000220 84 a4 63 bd 2b a9 b2 bc 9e e7 40 bd 0a 9c 1c bd
       -0.055576816 -0.021809181 -0.047095887 -0.038234748
000230 ab 8b fb 3d 27 e4 28 bd 9c 13 56 bd a5 ae 91 3c
       0.12282499 -0.041233208 -0.052264795 0.017783472
000240 16 d3 96 bc 1d ab 0d 3e a4 21 a4 3d 72 2f 4b bd
       -0.0184112 0.13834806 0.08014229 -0.049605794
000250 20 0b 6e 3c 3b 11 ea bc 2b 09 37 bd 8f cc ec bd
       0.01452902 -0.02857267 -0.044686478 -0.11562454
000260 84 ec 1f bd c2 cf 3a bb ca 97 88 3d dc 4d 99 3d
       -0.03904392 -0.002850518 0.066695765 0.074855536
000270 f2 8b 97 bd 95 e2 60 3a bf a7 e7 3d cd fc a6 bc
       -0.07399739 0.0008578685 0.11311292 -0.020384217
000280 b2 8f 86 bc fc cc be 3d 29 cb fa 3a 21 58 ad 3c
       -0.016425941 0.093164414 0.0019134033 0.021160187
000290 cf 1d 6a bd 6e 4e b2 3d 11 7d de 3d 3c d3 0f bd
       -0.057157334 0.087063655 0.10863698 -0.03511356
0002a0 35 51 5e ba 51 3c 2a 3d 88 eb dd 3d 08 71 47 bd
       -0.0008480729 0.04156143 0.1083594 -0.04869178
0002b0 1b 49 b9 3c b8 32 86 bd e3 64 9f bc 8a 36 98 bc
       0.022617867 -0.065526426 -0.019457286 -0.018580694
0002c0 cd bc d0 bc ae d9 03 bd 23 ff 21 3d 5b 83 79 bd
       -0.025480652 -0.032190017 0.039549958 -0.060916286
0002d0 f9 6a 8e 3d b9 c1 45 3d f0 be 31 3d 3d 0e 2b 3d
       0.06953997 0.04828045 0.043394983 0.041761626
0002e0 72 da b3 3d 75 6e 34 3c 50 e6 5d bd b3 d4 63 bd
       0.087818995 0.011012663 -0.05417472 -0.055622768
0002f0 12 06 48 3d b2 9c c1 bd cb 03 80 3d 1f e2 c8 3d
       0.048833914 -0.094537154 0.062507235 0.09808754
000300 e8 88 d3 3d 14 77 ec 3c c4 6f 93 bd 78 3b 87 3d
       0.10328847 0.028865375 -0.07199052 0.0660314
000310 c7 6f 95 3c 10 10 66 3d bb f4 b9 bd bd c1 db bc
       0.018241776 0.056167662 -0.09079882 -0.02682578
000320 ec bf 61 bc 75 38 fc 3c 66 b9 26 bd 77 72 8c bd
       -0.013778668 0.03078864 -0.040704153 -0.0685777
000330 60 7b 4d 3d 53 56 9f bb c6 19 b0 bc ef d7 65 3d
       0.050166488 -0.0048625856 -0.021496665 0.056114133
000340 e1 ad 5c 3c 96 bd c9 bc eb d1 c2 bd 32 c5 6c bd
       0.01346919 -0.024626534 -0.09512695 -0.057805248
000350 ad 38 4f 3c 04 fa 04 bd a1 a6 f8 3c ac ff 14 3d
       0.01264779 -0.032464996 0.030352892 0.03637664
000360 87 fe 5a bd 58 de 47 bd a5 1e 1e 3c a4 7f 18 bc
       -0.053465392 -0.048796028 0.009650861 -0.009307776
000370 bc 12 e4 bd 65 5a 76 bd 61 72 3d bd 95 dd a8 bd
       -0.11136386 -0.0601448 -0.04625166 -0.082453884
000380 d8 88 68 bd 57 6a 81 3d 5b 3f 82 3d e5 c0 cc ba
       -0.05677113 0.06319111 0.0635974 -0.0015621452
000390 fe ad 9a 3d 9b 98 b6 3c 9c b6 7c bd 93 e6 c1 bc
       0.075527176 0.022289565 -0.061697587 -0.023669517
0003a0 c3 c6 cd bd d0 1e 33 3d a5 9d 48 bd fb bd 3a bd
       -0.100476764 0.043730557 -0.048978467 -0.045591336
0003b0 de 08 a0 bb 4b e2 ff 3c 1e a9 27 bd d0 b7 52 3d
       -0.0048838696 0.031235835 -0.040932767 0.05144483
0003c0 85 9b 94 bd f4 70 84 3b 00 d8 4b 3d 8a bd 47 3d
       -0.072562255 0.0040417854 0.04976654 0.048764743
0003d0 e7 5f 6c 3b 9f e0 52 3d 85 ae a6 3c 3e d6 b1 bc
       0.0036067904 0.051483747 0.02034689 -0.021708604
0003e0 c7 af ac 3d 75 4a 5c bd 3d 69 80 3c b4 aa a4 bd
       0.08431964 -0.053781945 0.015675182 -0.080403715
0003f0 81 4a 6d bd 0f b0 c9 3d ec d5 1e bc 2e ec 3b 3b
       -0.05793238 0.09848034 -0.009694558 0.002867471

enc_mu.bias f4 [10]
000000 24 0c 94 3d 94 aa a5 3c a2 68 44 bd 0c 72 01 bc
       0.07228878 0.02022294 -0.047951348 -0.007900726
000010 75 9b 41 3d 82 8c 81 3d 15 b2 ab 3c c0 25 ce 3c
       0.047267396 0.06325628 0.02095894 0.025164485
000020 54 5e 9d bd 2c 7b 0a 3a
       -0.07684007 0.0005282636

enc_log_var.weight f4 [10, 100]
000000 ba 84 83 3d 0a 25 85 bb 57 86 09 3c 44 51 60 3d
       0.064218 -0.0040632533 0.0083938455 0.054765
000010 e8 b4 83 bd cd 2a d4 3c 6a aa b9 bb 44 cd 0b bd
       -0.064309895 0.025899315 -0.005666067 -0.034131303
000020 56 2c 41 bd be da 3d bd 0c 9f 21 3d 2b e9 fd 3c
       -0.047161423 -0.046351187 0.03945832 0.030994972
000030 c8 20 f0 ba 1e e7 60 bd 28 b3 6e bb a5 4d 73 3c
       -0.0018320316 -0.05490791 -0.0036422703 0.014850055
000040 bf 84 d5 3a cf 14 65 bc 91 35 16 3d ab 55 6c bc
       0.0016290172 -0.013982012 0.03667218 -0.014424722
000050 e1 f0 75 bd cf 2d 00 be 18 c8 2d 3d 1b cf fb 3c
       -0.060044173 -0.12517475 0.042427152 0.030738404
000060 69 28 e1 bc 8b f2 92 3d 7e 31 8e 3d d4 74 70 bd
       -0.02748509 0.07175168 0.06943034 -0.058705166
000070 78 c0 19 bd 31 2f 9b bd 8f 2c ba 3d 65 3d b1 bc
       -0.037537068 -0.075773604 0.0909053 -0.02163572
000080 17 ca 5f bd 5c e9 e9 bc 3b b9 8b bd 38 83 d1 3c
       -0.054636087 -0.028553657 -0.06822439 0.025575265
000090 f3 1c 34 3d 5f f1 82 bd 77 15 08 bd 75 b0 48 bd
       0.04397292 -0.06393694 -0.033223595 -0.048996408
0000a0 93 50 8b 3d af 57 23 3e 1f 8d 82 3c 91 24 7b 3d
       0.06802478 0.15951417 0.015936432 0.06131417
0000b0 45 c4 9f bb de 37 18 3c 00 41 c4 bc da d4 ea bd
       -0.004875692 0.0092906635 -0.023956776 -0.114663795
0000c0 e1 e6 14 3d 56 56 c9 bb 0c 45 69 3d 73 b5 c1 3d
       0.036352996 -0.0061443252 0.056950614 0.09458437
0000d0 5b 24 e2 3d a8 c0 86 3d 9a b9 f9 3d 6f 0f 84 bd
       0.110420905 0.06579715 0.12193604 -0.06448256
0000e0 b2 f1 9c bd e3 1f af 3d 57 42 17 bd f7 64 03 bd
       -0.07663287 0.08551004 -0.0369285 -0.03207871
0000f0 e7 c9 12 3d f5 ed df 3d 47 e3 08 3e c1 3c f3 bc
       0.03583708 0.109340586 0.1336795 -0.029692056
000100 f0 83 91 bd ec 09 1f be 1f 99 2b bd ff 43 0b 3e
       -0.07105243 -0.15531129 -0.041894075 0.13600157
000110 1f 4d 9b bd 95 e5 00 3d b8 08 03 3d 3c 06 b9 bc
       -0.07583069 0.031468946 0.031990737 -0.02258598
000120 c2 d0 b2 3d 09 54 be bc 8f 7d c4 3c e2 6f 1c bc
       0.08731224 -0.02323343 0.023985652 -0.009548159
000130 73 99 ab 3b c3 eb 0e 3e 78 7b 77 bd 3b a6 3e 3d
       0.0052367984 0.13957123 -0.060420483 0.04654525
000140 ac e6 1d 3b 2f 7b b0 3c 53 9a 58 bd 09 47 6c 3d
       0.002409379 0.021543114 -0.05288155 0.057684932
000150 b6 eb 8f bb f8 08 74 3c be 9e 13 3d b6 fd 79 bc
       -0.0043921126 0.014894716 0.03604006 -0.015258243
000160 17 00 5e 3d a4 7e bc 3c a1 f6 86 bd a0 7b 15 3d
       0.054199304 0.023009606 -0.065900095 0.03649485
000170 99 76 94 3d 59 30 8c 3d e8 5b 63 3d 2a 94 77 bd
       0.07249183 0.06845159 0.05550757 -0.060444035
000180 06 8e 70 bc 1a dc a4 bd 1a 13 f7 bc 9c bb c3 3c
       -0.0146822985 -0.080497935 -0.030160476 0.02389317
000190 56 64 00 3d 82 7e 74 bd 74 7a a9 3d 75 46 a4 3d
       0.031345688 -0.05969096 0.08275309 0.08021251
0001a0 54 3b ad 3d 03 94 66 3d d6 6c a2 3d e3 b0 43 3d
       0.084585816 0.0562935 0.07930915 0.047776114
0001b0 74 a3 9d bc a4 1a 1b bd b1 45 a4 3d d4 97 af ba
       -0.01924298 -0.037867203 0.08021105 -0.0013396689
0001c0 08 8b e4 bd 1e f1 16 3d 9d 32 f8 bb 3b 9a 6b bc
       -0.111593306 0.03685104 -0.007574393 -0.014380033
0001d0 a6 43 3a 3d f9 bb eb 3d 54 69 58 3d cb 27 67 bc
       0.04547467 0.11510462 0.052834824 -0.0141086085
0001e0 c3 16 41 3d 5b 90 8b bc 95 2e 4e bd 92 f2 95 3d
       0.047140848 -0.017036607 -0.050337393 0.07321657
0001f0 b3 f7 ab 3c 47 26 b3 3b 64 78 e1 bc e5 d2 2e 3d
       0.020992136 0.0054672095 -0.027523227 0.042681593
000200 77 16 cb 3c 03 16 08 3e 8f 6e 0d bd 13 5d 21 bc
       0.024790986 0.13289647 -0.034529265 -0.009848851
000210 a4 07 5d 3d f5 72 d2 3c ca 6c 57 bd 44 b9 55 bd
       0.053962365 0.025689581 -0.052593984 -0.052178636
000220 9a e4 36 bd c2 d6 45 bd de 3c 7c 3d 31 84 d4 bc
       -0.044651605 -0.048300512 0.061581485 -0.02594194
000230 59 cc 50 bd 13 fd d9 3d 32 8a 29 3d d0 a8 56 bc
       -0.05097613 0.10643973 0.04139156 -0.0131017715
000240 c4 80 9c 3d ad 3f a0 bd 53 84 b3 3d de bd 9e ba
       0.076417476 -0.07824645 0.08765473 -0.0012111028
000250 09 92 59 3d 00 88 84 bc f8 c9 c2 bc f8 74 30 3d
       0.053117786 -0.016178131 -0.023777947 0.0430803
000260 16 8d 5c bd fe 80 58 bc 8f 5c 1d 3a b6 1a b8 bd
       -0.053845488 -0.013214348 0.0006002867 -0.0898947
000270 70 20 dc bc fa 79 b2 bd 3a 2f 90 bd 0b 03 01 be
       -0.026870936 -0.087146714 -0.07040258 -0.12598817
000280 d2 96 6a 3d da 03 07 3b 38 1f 14 bc a7 56 3b bd
       0.05727274 0.002060166 -0.009040646 -0.045736935
000290 5c dd 64 3d 4e 94 db bc 13 04 ad 3d 1e 69 dd 3d
       0.055875167 -0.026804116 0.08448043 0.10811065
0002a0 c8 7d 00 bd 16 f3 0a be 3f 20 26 bd b4 8a bc 3d
       -0.031369954 -0.13569292 -0.040558096 0.09206143
0002b0 8f 9a 34 3d 4e ac 8f bd 70 3f 32 bc 6d 44 29 bd
       0.04409271 -0.070152864 -0.0108793825 -0.04132502
0002c0 b4 b2 d2 3d d1 6e b2 bd 94 e1 66 bd 23 86 66 bd
       0.10287991 -0.08712543 -0.05636747 -0.056280266
0002d0 54 8f 14 3d 87 c5 b8 3d f7 e7 64 3d 1c 3e 55 bd
       0.0362695 0.0902205 0.05588528 -0.052061185
0002e0 a2 66 94 3c f0 77 cf 3c dd 0a ce bd fc 34 b1 3d
       0.018115345 0.025325745 -0.10060666 0.08652684
0002f0 4b 83 ef bc 6a 33 46 ba b2 21 07 bd 91 04 7d 3d
       -0.02923741 -0.0007560762 -0.03299112 0.061771933
000300 c4 0e 57 bd 24 43 be 3c 73 f7 6d 3d 88 68 4a 3d
       -0.052504316 0.023225375 0.058097314 0.049416095
000310 e2 fd fb bc 58 b9 69 3c e2 5b ab bc 46 7e 66 3d
       -0.03076071 0.014265381 -0.020917837 0.056272767
000320 33 ce c5 3d 4c 30 9c bc c3 b4 50 3d 6b 9c ab 3d
       0.0965847 -0.019065998 0.050953638 0.08379444
000330 64 f7 ea 3d b2 3d 37 bd 6b 26 5d 3d c4 f7 81 3c
       0.11472967 -0.04473657 0.053991716 0.015865214
000340 f7 f3 61 bd 60 67 d9 3d 93 05 ce 3d 8d 15 ba bc
       -0.055164304 0.1061542 0.10059657 -0.022715354
000350 5e d3 e2 bd 9b 47 25 3e a4 1a de 3c 46 17 a1 bc
       -0.11075471 0.16140597 0.027112313 -0.019664418
000360 bd ad e6 3d f2 19 b6 3c 8f 12 b1 3c 16 3a a9 bc
       0.11263607 0.022229169 0.021615295 -0.02065758
000370 63 2a b8 3d 1f ef 1f 3d d8 0b d6 bc a1 38 b2 3b
       0.089924596 0.039046403 -0.026128694 0.0054388796
000380 f4 e3 8b 3d cf 40 a4 3d b6 d2 17 3d c7 3f 2f bc
       0.06830588 0.08020174 0.037066184 -0.010696358
000390 75 39 55 bd ed 80 80 3d 19 a9 0a 3d dc e3 f5 3b
       -0.05205675 0.06274591 0.03385267 0.0075039696
0003a0 05 b5 85 3d 1b 70 b3 3a d3 db 87 bd a1 fc 0d bc
       0.06528667 0.0013690026 -0.06633725 -0.008666188
0003b0 e4 f7 3a 3d 30 6b 59 3c 23 96 13 3d 4b 44 ef 3c
       0.045646563 0.013270184 0.036031853 0.02920737
0003c0 87 c3 d2 bc 1f f3 82 bc 7f 94 08 bd 75 e3 e5 bc
       -0.025728 -0.01598507 -0.033344742 -0.028062562
0003d0 62 1f a5 3d 80 24 49 bd b3 6d 36 3c 8d c8 4e 3c
       0.080626264 -0.049107075 0.011134553 0.012621057
0003e0 62 cf 07 3e 7c cc ff 3c a3 17 b1 bc 49 43 7d bd
       0.13262704 0.031225435 -0.021617716 -0.061831746
0003f0 81 0e d7 bc df 1c 8a bd c4 34 d8 bd 81 3f 4b bd
       -0.026252033 -0.06743788 -0.10556939 -0.04962111

enc_log_var.bias f4 [10]
000000 f6 f6 48 be e8 27 02 bc 0c d1 74 bd 76 3b 08 bc
       -0.19625458 -0.007944085 -0.059769675 -0.008314958
000010 ff 1d 2c be d7 89 11 bc 01 11 fc 3b 6e 83 2e be
       -0.16808318 -0.008882961 0.0076924567 -0.17042324
000020 26 d6 4e be fe 56 e3 bd
       -0.20198879 -0.11100577

dec_shared.weight f4 [100, 10]
000000 c1 c0 23 3e 47 06 85 be a0 e1 23 be bb 0a 9c bc
       0.15991499 -0.25981352 -0.16004038 -0.019048085
000010 ec bb f0 3c f0 ae e5 bc e0 c7 28 3e 0c 96 9e bd
       0.029386483 -0.028037518 0.16482496 -0.07743463
000020 d9 4e 48 be b7 b7 8d bc 57 da aa bc f8 30 1b bd
       -0.19561328 -0.017299516 -0.020856066 -0.037888497
000030 b4 c5 21 3d d3 00 e4 bd 73 cb 42 be 08 32 01 3e
       0.039495185 -0.1113297 -0.19022922 0.12616742
000040 14 8d 41 3d 28 e4 d3 3d 0a a8 27 be 64 16 50 be
       0.047253683 0.10346252 -0.16372696 -0.20321041
000050 1f ef 8e 3d 4c cb f3 3d fe 63 2e be c2 e2 a1 3e
       0.069792025 0.1190401 -0.17030331 0.31618315
000060 64 47 0f be 82 94 05 3d 5d 1c c5 3d ba e2 6d be
       -0.13992077 0.03261233 0.096245505 -0.2323102
000070 c2 03 13 3e 95 ba 56 be 3a bc 7e bd 6a 20 04 3e
       0.14356902 -0.20969613 -0.062191226 0.1290299
000080 2c 92 25 be 0c 9c 0d be 65 67 bb 3d 24 a4 2e 3d
       -0.16169041 -0.13829058 0.0915058 0.042637005
000090 89 d7 88 be 35 e8 7d be 86 a4 77 3e 47 23 bf bd
       -0.2672694 -0.24795611 0.24183854 -0.093329005
0000a0 21 d2 29 3e e9 43 84 be ad b5 9b bd 33 0f 35 be
       0.16584064 -0.2583306 -0.07603011 -0.1768158
0000b0 b2 8e 09 3e f7 82 e9 3d 68 8a cb bd 03 83 98 3e
       0.1343334 0.11401933 -0.09938508 0.29787454
0000c0 c9 6e 8e be aa 3a 59 3e d1 36 80 be 15 0a ea 3d
       -0.27818897 0.21213785 -0.25041822 0.11427704
0000d0 ea 94 32 3e 60 ae d4 bd a7 dc c3 3d cd 97 09 3e
       0.17439619 -0.10384822 0.095635705 0.13436814
0000e0 ce 01 81 3c a1 8a 16 be dc 2e 11 3e d3 55 ab 3d
       0.01574793 -0.1470132 0.14178032 0.08365979
0000f0 24 95 85 be 6c e2 eb bc ad 17 96 bd 6c 5a 8d 3e
       -0.26090348 -0.02879449 -0.073287345 0.2760805
000100 18 7d 6f 3e 9b 4e 38 3e 74 14 69 3e 30 91 67 be
       0.23387563 0.17998736 0.22761708 -0.22613978
000110 ba 48 7f 3d 99 e6 94 3c b6 43 53 be e0 29 ef bd
       0.062325217 0.018176364 -0.20631298 -0.11677909
000120 9f 3d 01 bc 52 91 65 be ef df 2c 3e 75 05 2f be
       -0.007888227 -0.22418717 0.16882299 -0.17091925
000130 58 11 60 be e6 cb 2f be 24 f7 ba bd e0 cf a1 bd
       -0.21881616 -0.17167625 -0.091291696 -0.07900977
000140 4f 81 03 be b0 89 6f 3d f3 21 73 3e a3 26 c3 bd
       -0.12842296 0.05848092 0.2374342 -0.09528854
000150 9c fc 0e be 66 32 8d 3e c0 b4 6d 3e 5a 4b 01 3e
       -0.1396355 0.27577513 0.23213482 0.126264
000160 48 5f 07 be 2f 31 ca 3d d6 c9 ae bd 88 9b 21 3e
       -0.1321994 0.09872662 -0.08534591 0.15781987
000170 26 71 14 bd b0 d2 91 3c 87 a3 06 3e 07 ec 3f be
       -0.03624072 0.017800659 0.13148318 -0.18742381
000180 42 3c 1d be 0d 38 74 3e 8a c8 31 be a6 d2 04 be
       -0.15355018 0.23849507 -0.17361656 -0.12970981
000190 e8 78 75 3c b2 64 92 3e df 48 fc bd b2 91 7d bc
       0.01498244 0.2859245 -0.123185866 -0.015476631
0001a0 f6 30 98 3d 4e 64 48 be 2c 1e 9c bd 25 99 b6 bd
       0.074312136 -0.19569513 -0.07622942 -0.08915929
0001b0 47 16 c8 3d c9 01 c9 3d 8c c8 a5 3e 33 00 12 be
       0.09769874 0.098147936 0.32379568 -0.14257888
0001c0 d7 a8 c3 3d fb 16 05 3d 0f ef e4 bd 72 73 8c 3b
       0.09553688 0.03249262 -0.11178409 0.004286223
0001d0 4b 17 0b bd 2e 72 90 be 93 72 5a 3e 4f ca 8a 3e
       -0.03395776 -0.28212112 0.21332769 0.27107474
0001e0 c6 f1 63 be c3 a5 04 3d df 98 81 be e8 c1 24 3e
       -0.22260198 0.032384645 -0.25311944 0.16089594
0001f0 bb 01 e5 bc 88 e0 96 bd 6d 38 11 3e 8b 13 23 bc
       -0.027954927 -0.07367045 0.14181681 -0.00995339
000200 dc b6 0b be af d5 10 3e 8c 18 78 bb ce 20 12 be
       -0.13643974 0.14144014 -0.0037856428 -0.14270326
000210 23 be 39 be 88 fa 1d 3e 42 8f 21 3e 69 8a 24 be
       -0.18138938 0.15427601 0.15777305 -0.16068424
000220 f1 24 66 bd 12 8c 4d be ef 9c 28 3e 65 2b 54 3c
       -0.056187574 -0.20072964 0.16466115 0.012949799
000230 a2 2a d2 bd 02 2b f3 bd e2 9a 81 bd a1 e0 52 be
       -0.10262038 -0.118734375 -0.0632837 -0.20593502
000240 77 f3 44 3e d2 30 1f 3e 99 49 4e be 4f 43 40 3d
       0.192335 0.15545967 -0.20145263 0.04693919
000250 41 b0 02 3e 8d dd 01 be c2 a5 07 bc 62 22 ac bd
       0.12762548 -0.12682171 -0.008279266 -0.084049955
000260 e3 08 06 be 03 ee f1 bc 2b 80 21 3d 01 50 b4 3d
       -0.13089328 -0.029532438 0.03942887 0.08804322
000270 28 c7 3c bd fc cf 47 3e 30 3f 62 be 37 a9 e6 3d
       -0.046088368 0.19512933 -0.22094417 0.11262744
000280 f4 f7 f8 bd e0 48 11 3e a3 3d 34 be 7b 15 20 3e
       -0.12156668 0.14187956 -0.17601638 0.15633194
000290 01 98 35 3e b0 f4 36 3e a9 23 50 bd 46 7a e5 3d
       0.17733766 0.17866778 -0.05081526 0.112049624
0002a0 d8 8e e9 bd 9b 63 9a be 8e ef 1b 3e 05 60 45 3d
       -0.114041984 -0.30154118 0.15228102 0.048187274
0002b0 2b 16 89 3d 7a 01 79 3d b7 ca 73 be 85 eb 0d 3e
       0.06693681 0.060792424 -0.23807798 0.13859375
0002c0 9a 5f cb 3c 22 c5 f2 bc 1f a0 7c be 17 b8 ae 3e
       0.02482586 -0.029635016 -0.24670456 0.34124824
0002d0 ba 73 b6 bd a1 ff e1 3d 4f 40 44 3d 4f bc e7 bc
       -0.08908792 0.110350855 0.047912892 -0.028288035
0002e0 9a e8 a6 be f5 45 46 be 19 92 7c 3d 0b e3 5b ba
       -0.32599336 -0.19362624 0.061662767 -0.0008388019
0002f0 a2 22 52 be b1 2c 03 3d 35 60 3d 3e 1c 7a 27 3e
       -0.20521024 0.032025043 0.18493731 0.16355175
000300 ee 90 39 3e b7 3b 37 3c 21 3c 07 3e 09 6d 8e 3e
       0.18121693 0.011183671 0.13206531 0.27817562
000310 44 83 f8 3d ec 67 0f 3e a9 e3 42 3e 5d 2b 11 be
       0.12134412 0.14004487 0.19032158 -0.14176698
000320 65 d5 75 be ed 8c 7f 3e b9 49 fa bc 07 01 11 bd
       -0.24007185 0.24956103 -0.030552732 -0.03540137
000330 f1 27 09 3d 19 a5 8d 3e 4a c0 6b 3e d9 9b e8 3d
       0.033485357 0.27665022 0.23022571 0.113578506
000340 5d 65 7b be cd da 88 be 69 41 24 bd 6d 62 0b be
       -0.24550386 -0.26729432 -0.040101442 -0.13611765
000350 e3 15 81 3e e3 39 bb bd 62 5b 8f 3e a0 78 ca bc
       0.2521201 -0.091419004 0.27999407 -0.024715722
000360 16 1f 7d 3e 86 46 89 3e 26 cd 1a bd 28 2d 41 3e
       0.2471889 0.26811618 -0.0377933 0.18864882
000370 60 74 84 be 23 d5 ac 3e e4 16 a8 3d 42 8c 0e bd
       -0.25870037 0.3375636 0.08207491 -0.03480173
000380 93 67 61 be d2 52 04 3d 83 4c af bd 88 d6 aa bd
       -0.22012167 0.032305546 -0.08559515 -0.083417
000390 ce fc 30 bd 08 8f de bd 9a 4a 10 be 05 3d 6c bd
       -0.043209843 -0.10867125 -0.14090958 -0.05767538
0003a0 91 7f 74 be b6 51 a1 be 8b 2a 2d be 1a a7 39 3e
       -0.23876788 -0.31507653 -0.1691076 0.1813015
0003b0 a4 dd 6b 3e 35 b0 48 be 9c 99 77 be 09 cb 7c bd
       0.23033768 -0.19598468 -0.24179691 -0.061717067
0003c0 2b 96 17 bc e0 81 37 3e 50 6a 30 3e 80 a6 05 3e
       -0.009252111 0.17920637 0.17228055 0.13051796
0003d0 e5 47 8e 3e 58 8e 8c 3d 30 2d 85 3e 21 bf ff 3c
       0.27789226 0.068630874 0.26011038 0.031219067
0003e0 f9 d6 9b 3d 31 f8 04 3e d9 f8 a2 bc 55 69 7d 3e
       0.07609362 0.12985303 -0.01989405 0.24747212
0003f0 36 11 71 3e 0b e8 db bd 0a c0 3a be c3 3a 71 3e
       0.23541722 -0.10737618 -0.1823732 0.23557572

dec_shared.bias f4 [100]
000000 4f fe 96 be 32 b9 8f 39 c2 de 32 be 72 fa 46 bc
       -0.29490897 0.00027413067 -0.17467788 -0.012144672
000010 de 92 26 3e 5f 8e e6 3d c8 e3 1f 3d f4 2f 50 be
       0.16266963 0.11257624 0.03903559 -0.20330793
000020 fe e6 68 be 7b c9 7b be f1 13 a4 3e 1d 43 22 b9
       -0.22744367 -0.24588577 0.32046464 -0.00015474526
000030 80 2d ef 3d 81 58 0a be 4f 75 c0 bd 1c cf c8 3c
       0.116786 -0.13510324 -0.09397375 0.02451282
000040 18 ac d7 3d 30 dd 18 be c4 4d 25 be da a8 4b be
       0.10530871 -0.14928126 -0.16142946 -0.1988863
000050 13 d7 db 3d 88 3b ac 3e 84 f5 8f be 53 dc 80 bd
       0.107343815 0.3363917 -0.28117 -0.062920235
000060 f4 53 c6 3c c3 e2 b5 bd aa be 52 3e 21 fe 1e be
       0.024209954 -0.08881142 0.20580545 -0.1552663
000070 3e 1d 77 be de 39 5d 3e 6c a0 ad be 2d 66 13 3d
       -0.24132249 0.21604106 -0.33911455 0.035986114
000080 65 64 04 bd 48 d6 14 3e 71 66 81 3e da 14 85 3d
       -0.032322306 0.14534867 0.2527347 0.06498118
000090 48 12 63 be c1 1f ee 3d b5 c2 0e be 98 86 53 3e
       -0.22174942 0.1162715 -0.13941462 0.20656812
0000a0 35 f6 0d 3d 1c f7 d2 3d 34 5d 27 3e b6 e1 44 be
       0.03465863 0.103010386 0.16344148 -0.19226727
0000b0 6d fd ca bd f3 f7 4b be cb 0d b6 bd 23 ae 25 bd
       -0.099116184 -0.19918804 -0.088893496 -0.040449273
0000c0 66 2e 8a be d9 40 85 3e ce 08 eb bd 60 70 36 3c
       -0.26988524 0.26026037 -0.11476289 0.011135191
0000d0 30 d9 37 3e 3e f8 89 3e e1 cf 5f 3b 4c 9c 4b 3d
       0.17953944 0.26947206 0.0034151005 0.049709603
0000e0 b6 5c 26 be 67 f2 e6 bd 63 29 ca bd 8f 7b fe 3c
       -0.16246304 -0.11276703 -0.09871175 0.031064777
0000f0 71 7f 26 3e dc cc 70 3e 81 11 85 3d 74 6e 1c be
       0.16259553 0.23515648 0.06497479 -0.1527651
000100 2e 51 15 be 69 53 1a bc f4 14 1e be e7 03 27 bb
       -0.14581749 -0.009419301 -0.1543768 -0.0025484504
000110 bb 90 5a be 81 6a 4d 3e 3b 9e 38 be e1 59 2c bd
       -0.21344273 0.2006016 -0.1802911 -0.042077903
000120 c7 fa 8d bc b5 1c 3f 3e 5f 17 0c 3e b5 bd ff 3b
       -0.017331494 0.18663295 0.1368079 0.0078045973
000130 e1 cf e9 bd a8 3b 47 be c3 6a c1 bd ab 65 d8 bd
       -0.11416603 -0.19456351 -0.09444191 -0.105662666
000140 2c d2 aa bc 89 37 cf bd 04 c8 cd 3d 69 50 93 3d
       -0.02085217 -0.10118014 0.100479156 0.071930714
000150 f4 e0 5e be 38 d4 17 be a2 38 7e bb 77 35 3a be
       -0.217655 -0.14827049 -0.003879108 -0.18184458
000160 c6 65 9b be 79 d5 24 be 3d 29 df bd f5 b9 80 bc
       -0.30351084 -0.16097058 -0.108965375 -0.015713671
000170 75 f4 16 be 12 0e 20 3e 1c f8 66 be ec 39 e6 3d
       -0.1474169 0.15630367 -0.22555584 0.112415165
000180 59 73 cc bd 87 a0 51 3e dd 68 cb bd f9 d4 c4 bd
       -0.09982938 0.20471393 -0.099321105 -0.09610934

dec_mu.weight f4 [20, 100]
000000 d4 f4 8b 3d 9a ea 29 bc 89 28 e7 3d 73 6c c5 3d
       0.06833807 -0.010370875 0.11287028 0.09639826
000010 55 7e 4f bc 5b 0e 73 bd 0c b4 33 3e 0b 4a 6c 3d
       -0.012664397 -0.059339862 0.17549151 0.0576878
000020 0c fc 56 bb 88 bf a1 3d fc 5d e9 3c 23 55 be 3d
       -0.003280404 0.0789786 0.028487198 0.09293582
000030 3a d8 c0 3c 5e 93 24 3d dc f4 7a bd 42 3c 89 3d
       0.023540605 0.040179603 -0.061268672 0.067009464
000040 0b ff a7 3d e2 f4 8c 3d f2 f6 4b bd e4 4c d6 3b
       0.082029425 0.06882645 -0.049796052 0.006539928
000050 1a 71 21 3d 73 4b bb bd 9f 51 ef bc 8f 23 82 bd
       0.039414503 -0.0914525 -0.029213725 -0.063544385
000060 d7 74 6b bd 85 ca 7c 3c a6 c6 c8 3d fb 82 cc bd
       -0.057484474 0.015429144 0.09803514 -0.0998592
000070 07 8b b9 3c 82 20 18 3d c9 17 c3 3c 49 6c a1 bd
       0.022649301 0.037140377 0.023815053 -0.07881982
000080 d9 a1 d5 bb 46 32 59 3a a7 ca 55 3d e2 c2 8e 3d
       -0.006519538 0.00082853844 0.052195217 0.06970765
000090 58 88 ea 3c b9 e8 8b 3c fd b4 1c 3d 83 00 e0 3d
       0.028629467 0.017078744 0.03825854 0.109375976
0000a0 d2 16 79 bd 03 ce ed 3c 4c 3c 94 3c 74 1d 2e 3d
       -0.06081278 0.029028898 0.018095158 0.042508557
0000b0 64 f8 48 bd 31 c1 a3 3d c6 5a 8e 3d 7d 07 dc ba
       -0.04906501 0.07995833 0.069509074 -0.00167869
0000c0 c1 e3 b9 3b bf 8e 19 bd 23 4d 00 3d 32 3e d8 bc
       0.0056729023 -0.03748965 0.031323563 -0.026396845
0000d0 f0 69 21 3d 3c 10 4e bc 66 60 c7 3d b3 a4 61 3d
       0.03940767 -0.012577113 0.097351834 0.05508871
0000e0 a9 31 6d 3d 32 36 3f bc f7 c0 38 bc 78 e1 70 bd
       0.057908688 -0.011670636 -0.011276475 -0.058808774
0000f0 49 a9 2b 3d 61 43 66 3b f5 fe ba bd d0 45 87 bc
       0.04190949 0.0035135376 -0.091306604 -0.016512781
000100 f9 96 06 3d 9d 1a b9 3c dd 65 56 3c e1 30 83 3d
       0.032858822 0.022595698 0.01308581 0.06405807
000110 a1 3d 41 bd 78 f7 60 3c d0 dc fb bb 61 44 e9 bc
       -0.047177915 0.013730876 -0.007686235 -0.028474988
000120 54 8f e7 bc 27 cd 2b bc d3 d4 46 3c bc ad e7 bc
       -0.028266586 -0.010485924 0.012135702 -0.028281085
000130 5e 40 46 bc 4f 4a c2 3b 17 58 e4 3c bd 13 a8 3d
       -0.012100307 0.0059292684 0.027874036 0.0820689
000140 a0 d6 c1 3c 2b a1 0d ba 43 c8 00 3e 8c ae bf bc
       0.023661911 -0.0005402739 0.12576394 -0.02339866
000150 58 2f 75 bc ce 69 f0 3c 2e 7b 57 bc ac 69 46 3c
       -0.014964901 0.029347327 -0.013151927 0.012110155
000160 5d e2 20 ba 18 49 95 bd 6c ea 9a bc eb 5a 91 bd
       -0.00061372464 -0.07289332 -0.01891061 -0.07097419
000170 b3 21 53 3c b3 e8 2e 3c 76 2b 36 3d 70 44 07 bd
       0.0128864525 0.010675597 0.04447504 -0.03302425
000180 17 1b bc bd e5 cd 98 bc fa f1 69 3b a6 34 32 3d
       -0.091848545 -0.018652866 0.0035697208 0.04350724
000190 b9 d2 04 3d a4 d1 be 3d 73 f6 2d bd 37 22 52 bd
       0.032427523 0.093173295 -0.04247136 -0.05130216
0001a0 a4 c5 3b 3c 33 f1 9f bc 6e 5c 84 bd 80 29 df bd
       0.011460695 -0.019524192 -0.06462942 -0.10896587
0001b0 09 0c 83 3d f1 04 fe bb c5 55 4f bd f6 cc ca bc
       0.0639878 -0.007752054 -0.050618906 -0.024755936
0001c0 63 35 18 3d 3d fa 80 3c 52 ed 87 3d 9c 60 b4 3d
       0.03716029 0.015744323 0.06637062 0.08807489
0001d0 e7 3d ad bc 79 fa 53 3d 75 55 f2 bc 5d 62 89 bb
       -0.021147681 0.05175254 -0.029581765 -0.004192634
0001e0 17 bb 04 3d 54 17 54 3d 3d 39 37 3c d4 ba 68 3d
       0.032404985 0.05178006 0.01118308 0.0568188
0001f0 9f 15 13 bd ea 1f 3f bd b7 86 3e 3a e1 d1 96 3d
       -0.03590929 -0.046661295 0.0007267999 0.0736425
000200 17 e9 ed bc f3 9b 2d bd cd f3 69 3d fd 6f e5 3c
       -0.02904181 -0.042385053 0.057117272 0.028007502
000210 32 0f 7a 3c 03 ce cc 3a 97 1f 56 bb 46 f7 db 3d
       0.015262412 0.0015625361 -0.0032672638 0.10740523
000220 e6 3c 5f bd 78 e3 c3 3d 75 52 5d 3d a9 28 b0 bc
       -0.054501437 0.095648706 0.054033715 -0.021503763
000230 15 01 09 bd e1 07 0c 3c c1 0a 01 3e af 6b 8b bc
       -0.033448298 0.0085468 0.12601759 -0.017019121
000240 7d b7 9a bd 08 c0 b8 3c a4 aa 03 be 07 9d 2a 3b
       -0.07554529 0.022552505 -0.12858063 0.0026033537
000250 40 fd 8f 3d f0 65 4c bd ab a6 c9 3d 63 79 a2 3d
       0.070307255 -0.049901903 0.098462425 0.07933309
000260 fc 92 32 bc 95 f1 e9 bc a5 46 73 3d dc 76 1f 3d
       -0.010899302 -0.028557578 0.059393544 0.038931713
000270 78 99 b0 3d 4b d6 6b bd 66 47 50 3c 01 b4 bb 3b
       0.08623022 -0.057577413 0.012712335 0.0057282452
000280 18 6e 5b bd d5 c3 88 3d 4d 55 5b 3d 43 6c f0 bb
       -0.05357179 0.06677977 0.053548146 -0.0073371246
000290 c0 cf 8f 3c bc 17 2c 3c dd 0a 0a 3d b1 c0 16 bd
       0.017555118 0.010503706 0.033701766 -0.03680486
0002a0 17 a4 10 3d 5a 8d f0 3c 0a a4 99 bb 6b 20 22 bc
       0.03531274 0.029364277 -0.0046887444 -0.009895424
0002b0 0c 4d 81 3d db 2d 83 3c b2 d5 33 bd 5b f2 55 3d
       0.06313524 0.016013077 -0.043904968 0.05223308
0002c0 a7 87 8b bd 42 2b 61 bd 88 43 6c 3d fb 64 a3 bb
       -0.06812983 -0.054972894 0.05768159 -0.004986403
0002d0 38 66 59 3d 2a 7a 25 bd e5 1b 95 3c 65 37 80 3d
       0.053076 -0.040399708 0.018201778 0.06260566
0002e0 c0 57 61 3d 8f 13 08 bc aa 76 70 bd f6 89 81 bb
       0.055015326 -0.008305444 -0.058706917 -0.003953214
0002f0 24 8d 7d 3d 22 40 88 3d 9f f3 0e bd 89 a8 ea bd
       0.06190218 0.06652857 -0.034900304 -0.11457927
000300 32 72 0e 3d b5 7c 97 3c 76 5a b7 3d d5 d7 21 bd
       0.034776874 0.018492082 0.08952801 -0.039512474
000310 07 ed c7 3d f1 c0 55 bd 1c 5a 93 3d ce 37 5a 3d
       0.09762006 -0.052185956 0.071949214 0.053275876
000320 54 e8 b7 bd d3 f1 de bd 67 86 dc bc 04 c0 22 bc
       -0.0897986 -0.10885968 -0.026919557 -0.009933475
000330 d9 0a d9 3c af 78 78 3c 8f 91 69 3d 7e 08 19 3d
       0.02649443 0.015165492 0.05702358 0.037361614
000340 74 1c c4 bd 6d 4f 96 bb ec 87 8b 3d 00 f3 dd bc
       -0.095757395 -0.004587105 0.068130344 -0.02709341
000350 4b b0 7a bd 76 93 ad bb 7c 61 d2 bd 72 37 a6 bd
       -0.061203282 -0.0052971197 -0.102725 -0.08116044
000360 57 60 b8 bb 92 c0 1b 3c 76 8e 42 3c fd a9 96 bd
       -0.005626719 0.009506362 0.011874786 -0.073566414
000370 d1 4f a7 3c ad af 35 3d 92 71 08 bd 5f a4 89 bd
       0.020423802 0.04435699 -0.033311434 -0.067208044
000380 51 14 20 bd a2 93 8b bd e9 c5 ea bd c9 2b 21 3d
       -0.039081875 -0.06815268 -0.114635296 0.039348397
000390 43 8b c8 3c 3c 99 ac bc 57 e8 23 bd 68 2d 86 bc
       0.024480468 -0.021069162 -0.0400165 -0.016379073
0003a0 7e 0a 0e 3d 8b 80 70 bd ef cb 82 3d 50 9c 96 bd
       0.034677975 -0.058716338 0.063865535 -0.07354033
0003b0 c7 44 02 3d 35 aa da 3b bd f9 5a 3c 02 6e c2 3d
       0.031803872 0.0066731223 0.013365206 0.094936386
0003c0 9c 56 3d bd 99 c7 9c bb 72 81 77 3d 55 6b 37 bd
       -0.046225175 -0.004784536 0.060426183 -0.044780094
0003d0 16 c9 e3 bb 2c 98 0e bd 6d a3 11 3d 65 2b 8e 3d
       -0.0069514615 -0.03481309 0.035556246 0.069418706
0003e0 b8 c1 11 3d 59 60 f8 bc 85 e6 a8 bd 8c e9 8d bd
       0.035585135 -0.03031938 -0.08247093 -0.06929311
0003f0 a5 c6 4a 3d 1c fb 24 bc 3d c0 4e bd 70 01 f7 3c
       0.04950585 -0.010069635 -0.0504763 0.030152053

dec_mu.bias f4 [20]
000000 7d 74 fe 3b dd 81 ad 3d af ff a4 bc ff 6e bb bc
       0.0077653513 0.08472035 -0.02014145 -0.022880075
000010 d4 e8 09 3b 6b 5c 0a 3c 11 3e de 3c 75 85 2d 3d
       0.0021043317 0.008444886 0.027129205 0.042363603
000020 55 97 91 b9 f6 00 fa bc 0e 73 98 bd 91 7b 8d bc
       -0.00027769306 -0.030518036 -0.0744382 -0.017270835
000030 ab b9 11 bc 58 cf 8e bb e4 d9 12 bd 26 64 f1 bc
       -0.008894364 -0.0043582134 -0.035852328 -0.0294667
000040 2c e9 2e 3c 89 c8 c4 3c 57 d0 57 3d d7 e9 55 bd
       0.01067571 0.024021404 0.052688923 -0.05222496

dec_log_var.weight f4 [20, 100]
000000 5b 8c 86 3d 0e e3 e4 bb cc 38 eb bc 3a e4 d8 3c
       0.065697394 -0.006985075 -0.028713606 0.026476014
000010 83 7a ce bb 99 8d a6 bd 96 94 d4 bd df 5b fe 3d
       -0.0063012256 -0.08132476 -0.10379903 0.12419867
000020 d0 4d 18 3d f0 71 29 3d cf 75 17 bc a5 c4 97 3d
       0.037183583 0.041368425 -0.009244396 0.07410554
000030 61 07 09 be 78 6d 93 3d de 7e b0 bc 87 0e 14 3b
       -0.13381721 0.07198614 -0.02154487 0.0022591667
000040 76 7a 41 bd 96 32 95 3d 7a 12 d0 3c ed 59 66 3d
       -0.04723593 0.07285039 0.025399435 0.056238104
000050 ec 69 4d bd 0e 91 12 be 77 c0 0b 3e 82 b8 4a bd
       -0.050149843 -0.14313146 0.13647638 -0.049492367
000060 60 f8 20 be a0 84 0c bd 64 39 cb bd a2 d5 ac 3d
       -0.15719748 -0.03430617 -0.09923056 0.08439185
000070 6b 81 30 3e ea 9c 1a be b7 30 1b 3e 96 1f de bd
       0.17236869 -0.1509892 0.15155302 -0.10845868
000080 86 b3 1b 3d d4 45 0b 3d 4d 11 55 3d 59 be fe bc
       0.038013004 0.03400214 0.052018452 -0.031096624
000090 58 f2 2c 3e 62 f2 46 bd 93 c7 61 3c 36 9b 8f bd
       0.16889322 -0.048570998 0.013780492 -0.07012026
0000a0 1c 35 25 be c9 a8 ef bd 66 fd c4 bd 70 34 b6 3d
       -0.16133541 -0.11702115 -0.096186444 0.088967204
0000b0 4f 4d 92 3c 80 d2 34 3d 64 b2 b0 3d 00 f4 0f 3d
       0.01785913 0.04414606 0.08627775 0.035144806
0000c0 6f 15 e4 3d 96 85 55 bd e5 af a8 3d 4d 44 6d bd
       0.11136901 -0.05212935 0.08236674 -0.057926465
0000d0 8d 20 cc bd c5 29 81 bd c9 48 da bc 3f 6f 16 3d
       -0.09967146 -0.06306795 -0.026646035 0.036727186
0000e0 18 25 95 3d aa 93 9d 3d 14 d4 5f 3c 1b 13 84 bd
       0.07282466 0.0769418 0.013661403 -0.064489566
0000f0 96 70 08 be 99 6b 21 bd 58 3d db 3c f2 dd 3a bd
       -0.13324198 -0.039409254 0.02676265 -0.04562182
000100 4e 3a 02 3e ee 91 72 bc 7b 93 08 3e e2 12 82 bd
       0.12717554 -0.0148053 0.1333751 -0.06351258
000110 55 e3 a4 3d 4b 20 84 bd 14 34 b8 3d 0c 8f 96 3d
       0.08051173 -0.06451472 0.08994308 0.07351503
000120 af 44 fe 3c b5 cc fc bc 2d c1 7b bd ff 9d 1a bc
       0.03103861 -0.03085933 -0.061463524 -0.009437083
000130 fe 1d 0c 3d a3 7f e8 3d 4a de 3c ba 57 e4 86 3d
       0.03420829 0.1135247 -0.00072047545 0.06586521
000140 70 95 28 3d 43 d2 0a 3e 84 e0 09 be 24 6f 96 bc
       0.04115814 0.13556771 -0.13464552 -0.018363543
000150 6c 1e bb 3c b6 7c 9f 3c 45 b5 9a 3b 1a a1 fc 3b
       0.022841655 0.019468646 0.004721316 0.0077096345
000160 9d d9 a9 bc a8 54 bf 3d df 84 1d 3d 88 02 8f 3c
       -0.020733649 0.09342319 0.038456794 0.017457262
000170 b3 5b 81 3d 02 cd ea bd 19 31 84 3d 27 af 39 bc
       0.06316318 -0.114648834 0.06454677 -0.0113332635
000180 72 1b 61 3d f4 43 10 bb dd 1a 4d bc eb 49 94 3d
       0.054957815 -0.002201316 -0.012518612 0.07240661
000190 d8 de cf 3d 85 73 95 bd a0 21 67 3d 6e df 6b 3b
       0.10149926 -0.07297424 0.05642855 0.0035991329
0001a0 bf 2b 84 3c a0 18 b9 bd 2a 46 f2 bd 85 df 0b 3e
       0.016134141 -0.090379 -0.11829789 0.13659485
0001b0 5a 16 94 3d bf b6 8c 3c 05 a3 fe bc 4d 18 21 bd
       0.07230826 0.017176984 -0.031083593 -0.039329816
0001c0 2a 09 a7 bd 76 d3 9b 3d 20 7e ad 3d 96 45 e2 bd
       -0.08156045 0.07608692 0.08471322 -0.11048429
0001d0 69 9f 99 bc d7 b4 b5 3d ad 3f f4 3d e3 22 ef 3c
       -0.01875277 0.08872383 0.11926208 0.02919144
0001e0 9b c6 4d bd 83 44 ab bd 3c 11 70 3d 8d 5e 8b 3c
       -0.050238233 -0.08362677 0.058610186 0.017012859
0001f0 c3 70 e7 bc 6c 6e bd 3d ce 5a e8 bd 26 24 f2 bc
       -0.028252011 0.09249577 -0.113454446 -0.029558253
000200 e9 a3 9b bc 16 ca ef bc 85 f2 88 bc 28 c3 f7 bd
       -0.018999057 -0.029271167 -0.016717205 -0.1209777
000210 fc 94 13 3e ce 31 43 bd 6c bc e4 bc ea c7 d2 bc
       0.14412302 -0.04765492 -0.027921878 -0.025730092
000220 76 d2 02 3e bf 3b 14 be 68 36 dc 3b 3a d5 c5 bd
       0.12775597 -0.14475916 0.006720353 -0.0965981
000230 8d a6 05 bc 7f 09 7f bc d1 51 5a bd 43 d2 ec 3b
       -0.008157385 -0.015566229 -0.053300682 0.0072272136
000240 c0 fc 15 3e b7 07 3e 3d 86 a5 0b 3d 66 d3 1d bd
       0.14647198 0.046394076 0.034093402 -0.038531683
000250 20 4c 11 3c 26 a6 7a 3c 8b ce 9f 3d 78 b7 9b bd
       0.008868247 0.015298402 0.07803067 -0.07603353
000260 16 d8 44 bd ae bd cc bd b5 c9 4a bd 26 5a f0 bb
       -0.048057638 -0.09997116 -0.04950877 -0.0073349653
000270 ae 3d fb 3d 7a 1c 99 3d c4 88 24 3e ed 3b ff 3b
       0.12267624 0.074761346 0.16067797 0.007789126
000280 5c 29 6d bd c5 5d 26 bd 9f e1 c8 bd 33 6e fd 3d
       -0.05790077 -0.04061677 -0.09808659 0.123745345
000290 66 7c cb 3d 80 8f 03 3b 62 14 cd 3d 16 89 c7 3c
       0.099358365 0.0020074546 0.10013653 0.02435736
0002a0 d0 90 50 3c c5 44 03 be 1b fe 78 3d 12 de 96 3d
       0.0127298385 -0.12819202 0.06078921 0.07366575
0002b0 7b fe 32 bd 77 e9 66 bd 25 93 0f bd d9 43 d5 bc
       -0.043699723 -0.056374993 -0.035052437 -0.026033329
0002c0 16 42 50 3b ed 7c d9 3d 16 be b8 3d ec a8 3d 3d
       0.0031777672 0.10619531 0.09020631 0.046303675
0002d0 30 9b 49 3c a5 38 9a 3d 80 41 0a be 03 ae b0 bc
       0.012305066 0.07530335 -0.13501549 -0.02156735
0002e0 10 2b 34 3d 15 f8 12 3e 36 46 9b 3d 23 7e c5 3d
       0.04398638 0.14352448 0.07581751 0.09643199
0002f0 d8 fb 26 3e 1f fa 37 3e 00 36 e7 3d 4b 30 37 3d
       0.16307008 0.17966507 0.112895966 0.04472379
000300 b4 16 4c 3c 25 90 ff bc 89 fc 2b 3d bd d2 38 bd
       0.012456585 -0.031196663 0.041988883 -0.04512285
000310 bf 7d 35 3c e5 98 19 be 7e cd 25 3e 2f 33 c4 3d
       0.0110773435 -0.14999731 0.1619167 0.09580075
000320 f8 e7 c0 3d 02 33 40 bc 6d df 3d 3d 25 8c c9 3d
       0.094192445 -0.011730911 0.046355654 0.098411836
000330 c3 ae d9 bd e7 e0 ff bd a2 fb 20 3d 16 f1 f0 3d
       -0.10629036 -0.124940686 0.039302476 0.117647335
000340 f2 4b a4 3d a5 23 c3 3d af 45 44 bd 4e cf 18 3d
       0.08022298 0.09528283 -0.047918018 0.037307076
000350 cb 23 32 3b c7 8c 89 bc 0b 3d 05 3c 98 08 99 bb
       0.0027181979 -0.01679076 0.00813223 -0.004670214
000360 13 63 b6 bd 10 69 0c 3e ab d8 18 3d ff 60 8f 3d
       -0.08905616 0.13711953 0.037316006 0.070009224
000370 1f a3 06 be c4 0c a8 bc 8d 52 b3 3d ff 56 18 3d
       -0.13148163 -0.0205139 0.0875598 0.03719234
000380 6d 77 ef bc b1 7b 7c 3d eb 03 9d bc ad 86 0a 3e
       -0.029231751 0.0616414 -0.019166907 0.13527937
000390 72 e6 e8 3d 82 3f bd bd 01 64 1c 3e 5b b3 f1 3a
       0.11372079 -0.09240629 0.15272523 0.0018440293
0003a0 09 78 c9 bb b2 1b 15 bd 62 9f 02 be ab 40 05 3c
       -0.0061483425 -0.036403365 -0.12756112 0.008133094
0003b0 a4 de 32 3d 8f e8 4b bc 9d 7c c4 3d a5 b2 ee bd
       0.043669358 -0.012445583 0.095940806 -0.116551675
0003c0 17 0a 47 bd 97 f8 ec bd fd a8 b6 bd a3 98 90 3d
       -0.048593607 -0.11570852 -0.08918951 0.07060363
0003d0 a3 4b fc 3c ca f0 e1 3d 1c cb ad 3d 2a bf 2e 3d
       0.030797785 0.11032255 0.08486006 0.042662777
0003e0 0e b5 2e b9 a9 85 8e bd cd 87 17 3e f0 c9 0c be
       -0.00016661381 -0.069590874 0.14797898 -0.13748908
0003f0 0a 80 23 bd 21 ef 91 bd 21 5a 01 bc 63 11 8f bc
       -0.03991703 -0.07125688 -0.007895024 -0.017464345

dec_log_var.bias f4 [20]
000000 32 18 15 be f1 7d d6 bd 66 f8 e0 bc 64 a3 86 bd
       -0.14560011 -0.1047324 -0.027462196 -0.06574133
000010 3b 46 da bc 53 f1 df bd e6 fc f8 bd 2b 50 ec bd
       -0.026644817 -0.10934701 -0.121576115 -0.11538728
000020 67 94 7f bd f4 f4 39 bd 36 ed 03 be e6 c4 a5 bd
       -0.062397387 -0.04539962 -0.12883458 -0.08094196
000030 39 3e d0 bd 4e 46 e1 3c 6f d9 11 be c0 7a 3e bd
       -0.10168118 0.027499344 -0.142431 -0.046503782
000040 f2 e5 df bd ae 24 ed bd ac 69 f7 bd aa e9 a4 bd
       -0.109325305 -0.11579262 -0.12080702 -0.080523804
