vae/saved_models/free_endpoints/free_nepochs25_lr0.001_N20_n2000_b150_s3_testTrue.pt (torch, 22905 bytes, 36 tensors)

enc_shared.weight f4 [15, 20]
00000000: 3238 193e c04b 1a3e 0f2d 3bbe 12c3 b93d
00000010: 8008 9bbc fce1 babb d121 9ebd 5208 383d
00000020: 63e1 8dbd cb22 193e 930b 0fbd ce1c 663d
00000030: f980 4dbd 51c5 953d ca87 b8bd aee5 dfbd
00000040: 6478 203b 887e 0a3e ab87 d3bc a239 213c
00000050: 6afb 16be 1df4 b7bc 730b 5ebd eaf8 5bbe
00000060: f5b6 363e 3540 3d3c 1f43 273e 9c98 a038
00000070: 0ef1 bfbc ec4a 223e 5fb9 273e 03f1 28be
00000080: d34d 343d ea2e f4bd 120f 013e b9e1 ddbd
00000090: 5ee4 cd3d 6611 093e d1c4 2c3e b86c 63bd
000000a0: c2dd af3c 8c04 18be dc89 433e 0b7b 8d3e
000000b0: 1a78 533d 077f cb3d c8c9 28be 1d86 a43c
000000c0: edac 19bd 03e2 553e 7997 12be 3b80 8a3e
000000d0: 3bc8 3abe 5954 c6bd 11a8 e4bd 01a5 dd3d
000000e0: 212e f83d 903a 4e3c 6b4a 343d 5ae9 2f3e
000000f0: 827d 733c 657b 033e 6442 21be a335 2ebe
00000100: 9d27 90bd b3e9 65be caa7 3b3e c90d ecbd
00000110: 9765 653e cf5e fa3d 525d 0a3e fd7c 363e
00000120: 0afa 0f3d 1a27 bbbd ef52 a7bc e252 f83c
00000130: 2dec ff3c 08ef d6bd a1ca fd3d ef69 3ebd
00000140: 4762 e53d 87b2 313d 3304 883d edc7 ad3c
00000150: e5d0 f0bd 77e1 913d 179d 2fbe a6da 8f3c
00000160: d1a8 e5bd be07 133e f6e9 31be bf35 003e
00000170: e925 fe3d 8555 d83c e8ae 15be ca8b ba3d
00000180: 236c 453e dd64 1d3e 4850 b0bd 2b62 6d3e
00000190: df73 07be 4abb 20be f868 1b3d 99cb 803d
000001a0: 0539 9b3c 874c 53be db23 0ebe 58df db3d
000001b0: 5ec2 f23d 4099 3abe 7020 033e 1963 9ebd
000001c0: 30d5 613d 9388 65bd 30b4 243e 92ee 373e
000001d0: 671e 01be d653 173e d009 a73d 8be0 283e
000001e0: 4d1c 8a3d 2bd8 913d 7fed 153e 2cc6 f6bc
000001f0: 00c7 853d d3b2 87bc 6bdd 56be d3fa 24be
00000200: 5b4d f0bd eed2 033d 8419 7bbd 598d 38be
00000210: e7b2 a6bd c42d 3b3e 04bd 193e 5310 b9bd
00000220: ae04 583d efda 42be fbc0 183e 281e 973d
00000230: 0e03 483d cdee d93d b083 9ebd 9b92 7e3d
00000240: c10a c6bc 07c0 94be 1062 413e bc55 62bc
00000250: 8cbc ef3c a43b cc3d cce1 e53d b586 1e3d
00000260: e856 093e 8cda e7bd 2bf1 143e 987f 383e
00000270: 2506 123e 13e9 6e3c afb6 503e 2e24 413d
00000280: 8b7d 0b3e d374 27bd 2b40 8d3d a65e f4bd
00000290: 7d4e febd eef5 023c db2e 63be f90b 4c3e
000002a0: f199 763c bf0f 0abe fbe5 babd db41 c1bd
000002b0: 4ea6 c7bd bdd2 e5bd c12b 2d3e 5b85 29be
000002c0: 2409 813e e5f9 4ebe fe08 3cbe b7e5 29bd
000002d0: d785 b8bd 2756 0dbe 9c08 96bd 8163 253e
000002e0: 1582 c8bd a3d3 5e3d 94f0 29bd 1909 263e
000002f0: de8a 2d3e ff53 813e a0f5 203e 07e8 06bb
00000300: 0b6c 20be 5c9d 043d 262b af3b 1f41 8abe
00000310: c914 04be 71d5 ba3b a1cd 75be 6e03 b8bd
00000320: 6e9e 023e 45f0 2abe f68b 5fbd 55c2 083e
00000330: 94ab fcbd 9f42 403e e186 043e 204f 2dbe
00000340: ea1c f83d 88f1 b4bd ad0c 073e cde2 eabb
00000350: 05b1 e03d 2c56 d83a 871b 53be 896c 1d3d
00000360: ab77 cdbd 74d3 543e 11d7 85bd cee9 e1bd
00000370: c399 e0bd 627c 2c3e e059 373d 0490 0d3e
00000380: 316e a7bc e08f 51be b54f 373e 75ce 70be
00000390: a728 7f3e 3983 a53c 53d9 133d 92ff 42be
000003a0: 2bb0 363e 1ae4 c03d 8f21 e53d f93e 0cbd
000003b0: a863 16bd 669b a13d 5c65 b1bb 3043 93bd
000003c0: ad20 af3d 9c4f 6bbe db00 6b3d ef10 ae3d
000003d0: 9d2a 7abc 0c9d bebd d470 0cbe add3 f93d
000003e0: 5af3 83bd d794 f73d 7f69 59be ad56 7c3e
000003f0: e0f7 78bd 8745 e93d be1c eabd 6f7e 29bd
0.14962843 0.15067959 -0.18278907 0.0907041 -0.018924952 -0.005703209 -0.07721294 0.04492981
-0.06927755 0.14954679 -0.034923147 0.056179814 -0.050171826 0.07313026 -0.09010275 -0.1093248
0.002448582 0.1352483 -0.025821527 0.009840401 -0.14744344 -0.02245527 -0.054210138 -0.21481672
0.1784323 0.011550953 0.16334198 7.65782e-05 -0.023430374 0.15848893 0.16379307 -0.16498189
0.04401953 -0.11923011 0.12603405 -0.10834069 0.10053323 0.13385543 0.16871955 -0.055523604
0.021468047 -0.14845484 0.19095558 0.27632937 0.05162821 0.09936338 -0.16483223 0.020083481
-0.03751843 0.20886998 -0.14315595 0.27050957 -0.18240444 -0.09684057 -0.111648686 0.108224876
0.121181734 0.012587205 0.044016283 0.1717886 0.014861466 0.1284004 -0.15747982 -0.17012648
-0.07038806 -0.2245243 0.18325725 -0.11526067 0.22402035 0.122251146 0.13512161 0.17821117
0.035150565 -0.091383174 -0.020425288 0.03031296 0.031240547 -0.1049481 0.12392164 -0.046487745
0.112003855 0.043383148 0.06641426 0.021213496 -0.117585935 0.07123082 -0.17149769 0.017560314
-0.1121384 0.14358422 -0.17374405 0.12520503 0.124095745 0.026407966 -0.14617503 0.09108694
0.19279532 0.15370508 -0.086090624 0.2318198 -0.13227795 -0.15696445 0.037941903 0.06288833
0.018948087 -0.20634662 -0.13880865 0.10735959 0.11853479 -0.18222523 0.12805343 -0.07733745
0.055134952 -0.05603845 0.16084361 0.17962101 -0.12609254 0.14778075 0.081561685 0.16491906
0.06743679 0.07121309 0.14641379 -0.030123793 0.06532097 -0.016564762 -0.20982902 -0.16111307
-0.117335044 0.03218358 -0.06130363 -0.1802267 -0.08139592 0.18279177 0.1501351 -0.09036317
0.052738838 -0.19028829 0.14917366 0.07378799 0.04883104 0.10641251 -0.07739961 0.062151533
-0.02417505 -0.29052755 0.18885064 -0.013814386 0.02926471 0.09972313 0.11224708 0.038702685
0.13412058 -0.113209814 0.14545123 0.18017423 0.14260156 0.014581936 0.20382188 0.047153644
0.1362211 -0.040882897 0.06897005 -0.11932115 -0.12417314 0.0079932045 -0.22185843 0.19926442
0.015051351 -0.13482569 -0.091258965 -0.09436389 -0.09748517 -0.11221836 0.16911222 -0.16554777
0.25202286 -0.20212515 -0.18362805 -0.04147884 -0.09009903 -0.13802396 -0.07325861 0.16151239
-0.09790436 0.05440105 -0.0414892 0.16214408 0.16947505 0.25259396 0.15718699 -0.0020585076
-0.15666215 0.032376632 0.00534572 -0.27002808 -0.12898554 0.0057017137 -0.24004222 -0.08985029
0.12755749 -0.16693218 -0.054576837 0.13355382 -0.123374134 0.18775414 0.12942077 -0.16924715
0.1211489 -0.08835131 0.13188429 -0.00716815 0.10971264 0.0016505173 -0.2061597 0.038433585
-0.100325905 0.20783788 -0.06535161 -0.11030923 -0.10966828 0.16844323 0.044763446 0.13824469
-0.020438286 -0.2046504 0.179015 -0.23516257 0.24917851 0.020204173 0.03609593 -0.19042805
0.1784064 0.09418507 0.111880414 -0.034239743 -0.036716133 0.07890968 -0.0054136943 -0.071905494
0.08551154 -0.22979587 0.057373863 0.084993236 -0.015268949 -0.09307298 -0.13714916 0.12198577
-0.064429 0.12088936 -0.2123165 0.24642439 -0.060783267 0.113902144 -0.114312634 -0.041380342

enc_shared.bias f4 [15]
00000000: 6e47 9dbd 7eb5 133e 41bd 53be 731b ee3d
00000010: 2f23 3dbe 714b 3a3e c334 18be af9c 9d3d
00000020: 6e79 193e add5 583e dc14 133e c1b8 0bbd
00000030: f732 5dbc 712f a43d 51f0 74be
-0.0767964 0.14424703 -0.20677663 0.11626329 -0.18470453 0.18192841 -0.14863877 0.07695901
0.14987728 0.21175261 0.14363426 -0.034111742 -0.0135009205 0.08016861 -0.23919798

enc_mu.weight f4 [3, 15]
00000000: 426d 663e d273 693d 94b0 293e b41f 94be
00000010: 83b1 1abe 60ac f63d 0a1d 833e 4a81 8ebe
00000020: b03f 19be d671 8f3d 2ff9 2ebd ab4a 86be
00000030: 5dac 293e dc6c 443e 0ab1 073e 1806 433e
00000040: 2993 8d3e d3b0 c8bd 6ab3 1abe 2d2e cbbd
00000050: 6e69 8b3e 4e9e a13b 66a9 6c3e 42d1 9ebe
00000060: ed11 3abd e954 41be 65c8 113d 0c01 85bd
00000070: 0797 90bd f886 6c3d 8964 02be b221 5a3e
00000080: 8d3c 96bd 7f50 b1bd 6bcc a2be bc63 b53d
00000090: f90f 6e3c 360b b53d d454 7bbd 40d4 cbbd
000000a0: 1192 a3bd f32f 3a3e 1ccd b9bd 61e5 f8bd
000000b0: ad31 acbe
0.22502616 0.05699522 0.16571265 -0.28930438 -0.15106778 0.12044597 0.25608093 -0.27833015
-0.14965701 0.07004134 -0.04271811 -0.26228842 0.16569658 0.19182152 0.13251129 0.19045293
0.27651337 -0.097993515 -0.15107504 -0.09920917 0.27228874 0.0049322015 0.23111495 -0.31019026
-0.04542725 -0.18880047 0.0355915 -0.0649434 -0.07060056 0.057745904 -0.12733664 0.21301916
-0.07335768 -0.086579315 -0.31796584 0.088569134 0.014530175 0.08840029 -0.061360195 -0.09952593
-0.07986844 0.18182354 -0.09072325 -0.121531256 -0.3363165

enc_mu.bias f4 [3]
00000000: 3438 0d3d ebe7 203e 56b8 113c
0.034477428 0.1571347 0.008894047

enc_log_var.weight f4 [3, 15]
00000000: 3c40 c3bd da1e a33c 6254 9d3d 99e0 8a3b
00000010: b5dc c03d 7aee e7bd bc5e d43d d1c8 6f3d
00000020: 1b8c 65bd 59e9 533e 5305 c6bd e64d 393e
00000030: 49ae a13d 3524 12be 889e aabd 8944 e03b
00000040: 171b af3d 80e8 4e3e d0d2 ce3d c1f0 0a3e
00000050: fa2e 53bd f002 c03d fdd8 21bd 512a b03d
00000060: 6e45 04be 8700 87bd 67f3 4e3e 28d5 903d
00000070: 50fe 283c 8053 cdbc 120c e23d 8955 3abe
00000080: ffee 37bd 8d34 443e 39b6 68bd 9453 33be
00000090: 0f0e bc3d 9f74 b43b 8191 af3b 4de2 2cbd
000000a0: 32ff 373e 19cd eabd 10e7 26be 74ee 923d
000000b0: c76b 4d3e
-0.09533736 0.019912172 0.0768211 0.0042382 0.094170965 -0.11324783 0.10369632 0.058541123
-0.056041818 0.20694484 -0.09668984 0.18096122 0.078945704 -0.14271624 -0.08331019 0.0068441075
0.08550089 0.20205879 0.10098803 0.13568403 -0.051558472 0.0937556 -0.039513577 0.08601821
-0.1291711 -0.065918975 0.20210038 0.07071906 0.010314539 -0.02506423 0.110374585 -0.18196692
-0.04490566 0.19160672 -0.056814406 -0.17512351 0.09182369 0.0055070664 0.0053579216 -0.042208005
0.17968443 -0.114649005 -0.16299081 0.071743876 0.20060645

enc_log_var.bias f4 [3]
00000000: f0fa 92be d341 28be 9644 eabd
-0.28707075 -0.1643136 -0.11438863

dec_shared.weight f4 [15, 3]
00000000: 7f27 c6be 46f8 a13d e839 493e 320e 073e
00000010: e625 46be 3e48 1c3e 297b 48bd 7008 943e
00000020: 73af 473e d315 4abd 6c47 9cbe e170 123e
00000030: 0a0f bebe 2a75 cfbe d17b edbd 16ab ecbd
00000040: 1fbe c1be 3b6e 4dbe ce61 1e3e 3f53 06bf
00000050: 679f 8f3e 56ea 6e3e b3b7 70be ee28 30be
00000060: e0d8 c1be 6630 a5be e2fc e53e 73de 84bd
00000070: a6f0 8cbe 3425 abbe c89f c4be 8a0c c3be
00000080: c29d 253e 266d 79ba a74a 553e 6126 893c
00000090: de44 de3e 3ba0 2b3e 730c c1bc 9281 0f3d
000000a0: 487a ef3e d709 bc3e 61bd 043f ec3c ecbe
000000b0: 246b 8bbe
-0.38702008 0.079086825 0.19650996 0.13189009 -0.19350395 0.15261933 -0.04894558 0.28912687
0.19500522 -0.04933722 -0.3052324 0.14300872 -0.3712085 -0.40519077 -0.11595882 -0.115560696
-0.37840363 -0.20061581 0.15466997 -0.52470773 0.28051302 0.2333158 -0.23507576 -0.17203113
-0.37860775 -0.32263488 0.44919497 -0.06487741 -0.2752735 -0.3342682 -0.38403153 -0.38095504
0.16173461 -0.00095148606 0.20829259 0.016741933 0.43411916 0.16760342 -0.023565507 0.035035677
0.4677298 0.36726257 0.5185147 -0.4614023 -0.2723018

dec_shared.bias f4 [15]
00000000: 7c22 98be f4a9 8c3e 7932 873e 7292 b1be
00000010: 788c 813e 56fd fc3e 318a 51be e058 b93e
00000020: 9724 963e 2c59 3b3d ab9e 093f b606 d03e
00000030: 4486 ec3d 310a 523e ad11 a13e
-0.2971381 0.27473414 0.26405695 -0.3468204 0.25302482 0.4941203 -0.20462872 0.3620062
0.2932479 0.045739338 0.53757733 0.4063012 0.11549047 0.205117 0.31458798

dec_mu.weight f4 [20, 15]
00000000: f62e 273d ff3f e3bd 4b2c 8dbc ce54 20bd
00000010: ca88 cebd f3ca 753d 406a 1dbd 9fd7 ab3d
00000020: 2aee 323c 3229 7b3e 7ebb cb3d 68b7 12be
00000030: 2c0f 9c3e c6ff 95bd 1283 043e 7588 5f3e
00000040: f907 553c ece5 73be cc58 c33d d71e 55bd
00000050: 8a40 2bbd 5e89 efbc 6036 a8be 43b8 053e
00000060: 8d7a 61bd 0fac 61bc 63d4 463e 62a4 9cbd
00000070: aa92 613e 5dbe 963d c0c2 3fbc 1d24 dbbd
00000080: 7f11 7dbe 2996 043e ec12 cebc 5fdd 913d
00000090: b305 8fbc 77f7 d1bd c50b fabc f58b 693d
000000a0: f6e1 88bd 532b 503c 207a 133e d481 a43c
000000b0: 6b31 3f3e 9cec 9cbc 61d3 f73d 4963 55be
000000c0: e2d7 4abe 8407 0e3e ef45 77bb ce91 9d3d
000000d0: 6635 f6bc 446e 4abd ebe1 e13d 5caf 30be
000000e0: 40eb 58ba 8308 fcbd e784 053e 93fd fb3c
000000f0: ce5b 293e e080 2abe f6b0 76be c0ed 5c3e
00000100: 71fa 38be 3a69 71bd bad7 8fbd 7d36 8dbe
00000110: 75fa 053b b668 1dbe 8870 5e3e 2392 1f3e
00000120: 00fb cb3d a36a da3c af11 503d 533a 223e
00000130: 63b7 8abd 1eb8 43be 18ff 8abe b50d 653d
00000140: d0c7 963d 3e00 3c3e f3e0 783d 81db 04be
00000150: 1359 df3b c123 40be 1069 63be 4d07 5f3e
00000160: f161 3bbe 206e 883e 6609 ad3e 1a6b 47bc
00000170: 0f23 9f3d 9ee5 96bc ab60 2bbe 74af c03a
00000180: a1a7 c83d 527a 31be a432 24bb 14c7 50be
00000190: 3acd d9bd ea57 a13c 5255 20bb b21d efba
000001a0: 4a35 3b3d 0180 7c3e 39bf 543e 835c d6bd
000001b0: ee1a d13d 7c95 02bd 9964 b1bd d23e 39be
000001c0: 0cdb 613e 260a 3bbe 1997 423e 2ad4 233e
000001d0: b465 23be 75c0 3d3e 4777 873e 3931 1e3e
000001e0: d2d9 af3e 8093 ecbd 4ee6 6f3d f72d 5bbe
000001f0: 28b3 323d 52ce 923d ac32 153d ff69 4e3d
00000200: bf36 ccbc b31c b43d d97a 1b3e 822a e7bd
00000210: 86b0 17be 13eb 923d 796a 91bd 90fc 3cbe
00000220: 99e8 46be d3a7 e03d 2b57 06bb 0aa0 cb3c
00000230: 96a3 753d 9afc 65bd 24cc 1e3e f913 a73d
00000240: 9dcc febd 0430 bdbd 9bb5 fe3d 8be9 d43c
00000250: d6c1 5dbe 9dce 293e bc38 ac3e c0e0 843d
00000260: 03b5 17be 38d4 863d 6452 1abe 8790 48be
00000270: 378f 823d ab56 cbbb 3e83 f23d a074 573e
00000280: 4c1f d3bd 0909 30bc 61e8 003e f01f 643e
00000290: 6baf 3bbe d0ca 72be 5455 0f3e 2220 16be
000002a0: 6792 3dbe 491f 683e 43bc 83be 32a8 9abb
000002b0: 1f7e 213e 92b9 efbb 97a2 803e 0822 ebbd
000002c0: 3430 47be 66bd d93d fd98 98bd 02e2 46bc
000002d0: bb90 a23d 82b3 ed3d 7730 233c 1136 a5bd
000002e0: 30e7 4fbd fff9 c93c 2da8 b3bd 242f 403c
000002f0: 1349 a0b9 be4a 62be 2096 073d df06 f93d
00000300: 23a8 2ebe 4427 38be 44d4 77bc 3658 13be
00000310: 7494 c1bd 3641 75bd 0739 cb3d 2a15 163d
00000320: 00fb 793d b050 9a3d 937d 123d 1c77 9e3d
00000330: 2a87 1d3e 13b6 f3bd fbe0 503e 4828 213e
00000340: 8ab9 d83c c78b 70bd ae7a 0b3e d0c1 4f3e
00000350: ad4b 08bd 74a9 30be 6a49 233e cf27 f13d
00000360: f772 26be 7ef3 49be d002 a73e b934 1b3d
00000370: 0a49 77be 760e e33b fa15 383e 9031 583e
00000380: 06fe bfbd a97e e1bd a4c7 d5bc f517 b33d
00000390: e029 1ebd 8e1a c2bd 40ab 2ebe eaf3 53bd
000003a0: b872 c13d ac6b 7d3c 9282 80be 9ea7 c73d
000003b0: 9f35 143e 72c1 57be 6d4d abbe 2fb4 11be
000003c0: f03d 573d 0efb 65bd 0691 b9bd 762e d73d
000003d0: e9bf 1d3e 9728 aa3c 41d2 66bd 0849 bdbd
000003e0: dfdb 4dbc 674d 3b3d ebda 1abe 7ede c33c
000003f0: 17c9 c4bd 2b44 bf3d e815 bc3e df2b 383e
0.04081627 -0.11096191 -0.017233035 -0.039143376 -0.10084684 0.060008 -0.038431406 0.08390736
0.010921041 0.24527434 0.09947871 -0.14327776 0.30480325 -0.073241755 0.12940624 0.21829398
0.013002389 -0.23818177 0.09538421 -0.052031364 -0.041809596 -0.029240306 -0.32853985 0.13058572
-0.055048514 -0.013773932 0.19416957 -0.07648541 0.22028604 0.07360528 -0.011704147 -0.107002474
-0.24713705 0.12947907 -0.025155507 0.07122301 -0.017458772 -0.10252278 -0.03052319 0.05701824
-0.06683724 0.012705642 0.14402056 0.020081438 0.18671195 -0.019155793 0.12100864 -0.20838656
-0.19808915 0.13870054 -0.0037730893 0.07693826 -0.03005476 -0.049421564 0.110294186 -0.17254394
-0.0008274801 -0.12306311 0.1303898 0.030760562 0.16538927 -0.16650724 -0.24090943 0.2157507
-0.18064286 -0.058938242 -0.070235685 -0.27580634 0.0020443473 -0.15371975 0.21722615 0.1558309
0.09959984 0.026662176 0.050798114 0.15842561 -0.067732595 -0.19113204 -0.27147746 0.055921275
0.0736233 0.18359467 0.060761403 -0.12974359 0.0068160384 -0.18763639 -0.22208047 0.21780129
-0.1829908 0.2664652 0.33796233 -0.012171531 0.07770359 -0.018420037 -0.16736095 0.0014700727
0.09797598 -0.17331818 -0.0025054598 -0.20388442 -0.10634847 0.019695241 -0.0024464917 -0.0018243103
0.045705117 0.24658205 0.2077607 -0.10466864 0.102102146 -0.03188084 -0.086617656 -0.1809037
0.22056216 -0.1826559 0.19002952 0.15998903 -0.15956765 0.18530448 0.2645819 0.15448464
0.3434587 -0.11551571 0.058569245 -0.21404253 0.043627888 0.07168259 0.036425278 0.050394055
-0.024928449 0.087945364 0.15183581 -0.112874046 -0.14813432 0.07173743 -0.07100386 -0.1845572
-0.19424666 0.1096951 -0.0020498734 0.024856586 0.05997046 -0.056149103 0.15507561 0.08158106
-0.12441371 -0.09237674 0.12436982 0.025990268 -0.21655974 0.16582723 0.33637035 0.0648818
-0.14815144 0.06583446 -0.15070492 -0.19586383 0.06374972 -0.0062054 0.11841439 0.21040583
-0.10308704 -0.010744342 0.12588646 0.22277808 -0.18328635 -0.2371018 0.13997394 -0.14660695
-0.1851288 0.22668184 -0.2572957 -0.0047197575 0.15770768 -0.007315823 0.25124046 -0.114811
-0.19451982 0.10631828 -0.07451055 -0.012138845 0.079377614 0.11606504 0.009960285 -0.08066953
-0.050757587 0.02465534 -0.08772311 0.011729989 -0.00030572023 -0.22098824 0.033102155 0.12159514
-0.17056327 -0.17983729 -0.015126292 -0.14389119 -0.09452143 -0.059876643 0.099229865 0.036641277
0.061030388 0.07534921 0.03576429 0.07737562 0.15383592 -0.11899962 0.20398323 0.15738022
0.02645566 -0.058727052 0.13621017 0.20288777 -0.033275295 -0.17252141 0.15945974 0.11775171
-0.16254793 -0.19721791 0.32619333 0.037892077 -0.24148956 0.006929214 0.17977133 0.21112657
-0.09374623 -0.11010487 -0.026096173 0.08744804 -0.038614154 -0.09477721 -0.17057514 -0.051746286
0.09445709 0.0154675655 -0.25099617 0.09748767 0.1447358 -0.21069887 -0.3345751 -0.14228891
0.052549303 -0.056147628 -0.09060864 0.105069086 0.15405239 0.020771308 -0.056352858 -0.09242445
-0.012564628 0.045728114 -0.15122573 0.023909803 -0.09608667 0.09339174 0.36735463 0.17985485

dec_mu.bias f4 [20]
00000000: d0ae f4bc 84f3 af3d 5094 e93d f9e2 c53c
00000010: aa5f 1f3e 3161 2b3e 13f1 f13d 4f4b 2abd
00000020: d2cb 123c 2a9e debd 91a2 413e f9f6 643d
00000030: fe6b 8fbd c66d 0cbd f406 13be e57a c33b
00000040: 7add 353d 2309 33be 7adc 93bd c5e6 853c
-0.029868513 0.08591369 0.114052415 0.02415608 0.15563837 0.16736294 0.118135594 -0.041575726
0.008959727 -0.10870011 0.1890967 0.055899594 -0.0700302 -0.034284376 -0.14358121 0.005965578
0.04440067 -0.17483954 -0.07219787 0.016345391

dec_log_var.weight f4 [20, 15]
00000000: 1ce3 98bd 87be 8abe 7dba c53d 42e6 8a3c
00000010: 92de 8dbe d5aa 11be ba53 713e 706e c13d
00000020: 6fda 8ebd 4c8f ed3d c47a 22be 90f7 c1bd
00000030: 47fe 8dbe 7ebd 27be ee12 173d 57dc 693e
00000040: dd3f 253d 1604 babc f1b9 eabd 85f1 c2bd
00000050: 1b45 903d a4ad d9bd 24b7 823d 1182 1f3e
00000060: 66dd 293d ccf1 a8bd af10 143d 4298 b93d
00000070: f6a9 2dbc 6699 263e e6af bdbd 185c bfbe
00000080: 2b08 44be c548 753e 2384 3ebd 10fa 82be
00000090: 61af a83e 2d00 89be c511 47be 7bdd 84bd
000000a0: c0df bfbd 7023 34be f496 5cbe 93ac 99be
000000b0: f6a7 043c 82aa 893e b55c 8dbe b99d bebe
000000c0: 0680 2c3e 7b31 86bd a473 9a3c 975e a73e
000000d0: 42d3 abbd bc5f 54be f227 8fbe 0bf4 9cbe
000000e0: 4a47 a2bd cfe2 9dbe 3de4 9cbd a69d 9c3d
000000f0: 037c 7b3d bf29 b1be 5790 65be 3b90 a13d
00000100: ea01 e53d c623 ef3d 2b59 943e b9bb 10bd
00000110: 7ea9 90be ba38 0e3e c59f e23c 0bac a4be
00000120: 3eee 4c3e 2b54 51be ac1e 38be a352 7fbd
00000130: f3d6 06be 4666 12be 0d2c 2a3e 0fbf 53be
00000140: f2d2 c7bc 9579 5d3d 45d7 243e 64dd 123e
00000150: 52d9 a03d d760 4fbd e88b 80bd 96b1 873d
00000160: ec41 2ebc f097 47be e139 483e 82bf 983d
00000170: 3a29 8fbd 2c15 1c3e c699 26be 1c47 62bd
00000180: 0266 ee3d 1170 e8bd 9084 193e c37d 723e
00000190: 9bbe 93be 26e4 283d 1659 e9bc 40a9 f93d
000001a0: da9d 8ebc 9d05 733d 441c 92be fc64 c8be
000001b0: 49c9 363d 229f dbbd 4c9c b1be ddcd 113d
000001c0: d0b5 8dbe bb2a cebc a0c1 bcbd 9665 c0bd
000001d0: 2058 3dbd c967 4bbd e1db c0be 7fdc 06bd
000001e0: 81cf cbbc 570b 81be 9f93 4fbe 1be8 843d
000001f0: 3475 d63d f698 763d 5fe8 853e a363 cbbd
00000200: efa6 6bbe b2fe 79bd 0829 b4bc 5fe5 97bb
00000210: ad9a ee3d da06 acbd 73a2 4abe 0235 453d
00000220: b5ad 3fbd 8952 3c3d 1bbc c03d fba1 84be
00000230: 9972 9cbe 5fd9 a13e 4e25 243d 873d 93be
00000240: d8e0 0d3d d6af 43be 6a80 b93d 8253 7cbe
00000250: e1f7 a8be 44cf 363d ae96 723e a765 8abe
00000260: c6fa a3bd 13c0 f8bd 0e9e 8ebe 3043 673c
00000270: f8fb b33e fa3e 64be da6b ecbd 17da 2c3e
00000280: c9c1 66be c057 a4bd 38fd c5bd ca95 1cbe
00000290: 6545 47be ed5c 883e 7b66 363b 9bb6 a2bd
000002a0: c5df 283e 22ee 8a3d 4f66 37bd f061 503d
000002b0: b885 adbe 367c 02be a4fd 003e dbd6 e5bd
000002c0: f621 9abe e79e 8a3d f56e a2bd 87da d5bd
000002d0: 0e45 8d3e 374a ca3c 2d60 32be c190 9f3e
000002e0: 1ebd 69be 4230 63bd 587d 433e 982f 26bd
000002f0: e52c 66be d5a3 32bd e2b1 9c3d fbe3 9bbe
00000300: 6d55 03be 3ac2 ca3b 243e 5e3d b7a6 983e
00000310: a74c c7bd e484 8bbd adce bc3e 5836 b53d
00000320: ceb4 0b3c 1014 423e 37db 2ebe 01d2 4ebe
00000330: cf3b 8b3d b464 8b3d a172 a33d bf85 05be
00000340: 22a5 bcbc 03f4 efbd f544 83bd 484f b53d
00000350: f8c5 92be f341 933e cb84 76bd 3986 46be
00000360: 8ddb b93c 41da fc3d 38a4 55be d3d0 f53d
00000370: a12c 4fbd ff62 00be beb3 18be d27e ce3d
00000380: 6d4d 99be 4755 8b3e b77d bfbe 6bb8 b0be
00000390: 20dd 563e b65e 5cbe 0676 a1be c694 a53e
000003a0: 7494 c1bc f774 9cbe 26df e3bc 7d35 5bbd
000003b0: 3ddc babd 5e78 67bd 98b3 d7bd 4c26 96bc
000003c0: 7bbc 24be eed9 40be 6969 f8bd 51cc 9fbc
000003d0: f406 d7bd 31b7 a0bd 3f9e 9f3e 83b3 8abe
000003e0: d4de 56be 2ea4 c8bd b45d 42be 0ace 7fbe
000003f0: fd71 9bbe f05f 98bd adac c4bd 4dd9 ddbc
-0.07465193 -0.27098486 0.096547104 0.016955499 -0.2770887 -0.14225323 0.23567095 0.094448924
-0.06975257 0.11599597 -0.15867144 -0.09471047 -0.2773306 -0.1638088 0.036883287 0.22837959
0.040344108 -0.022707026 -0.11461247 -0.095187224 0.07044431 -0.106288224 0.063825876 0.1557696
0.041470908 -0.08249244 0.036148723 0.09062244 -0.010599604 0.16269454 -0.092620656 -0.3737495
-0.19143741 0.2395354 -0.046512734 -0.25581408 0.32946303 -0.26757947 -0.19440372 -0.064875565
-0.09368849 -0.17591643 -0.21541959 -0.30014476 0.008096686 0.268879 -0.27609792 -0.37229708
0.16845712 -0.065524064 0.01885397 0.32689354 -0.083899036 -0.20739645 -0.27960163 -0.3065494
-0.079237536 -0.30837104 -0.076607205 0.076472566 0.061397564 -0.34602162 -0.22418343 0.07888838
0.11182006 0.11676745 0.2897428 -0.035335276 -0.28254312 0.13888827 0.027664075 -0.32162508
0.20012757 -0.20442264 -0.1798045 -0.062334668 -0.13167934 -0.14296827 0.16618367 -0.20678352
-0.024392579 0.054071028 0.16097744 0.14342266 0.078539506 -0.050629463 -0.06276685 0.06625669
-0.010635834 -0.19491553 0.19553329 0.07458402 -0.06990285 0.15242451 -0.16269597 -0.055243596
0.1164055 -0.113495 0.14991975 0.23680787 -0.28856358 0.041233204 -0.028484862 0.12190485
-0.017409254 0.059331525 -0.2853719 -0.39139545 0.044625554 -0.107237116 -0.34689558 0.035596717
-0.27677774 -0.02516686 -0.092166185 -0.09394376 -0.04622662 -0.049659524 -0.37667754 -0.032925125
-0.024879219 -0.25203964 -0.20271157 0.06489583 0.104715735 0.06020447 0.26153848 -0.099311136
-0.23012899 -0.061033912 -0.021992221 -0.0046354975 0.11650596 -0.08399744 -0.19788532 0.048146255
-0.04679652 0.04597715 0.09410878 -0.2590483 -0.3055618 0.31611153 0.04007464 -0.2875788
0.034638256 -0.19110045 0.09057696 -0.2464123 -0.33001617 0.044631258 0.23690292 -0.2703068
-0.080068156 -0.1214601 -0.2785496 0.01411514 0.35153174 -0.22289649 -0.115440086 0.1688007
-0.2253486 -0.080245495 -0.09667438 -0.15291515 -0.19460066 0.26633397 0.002783208 -0.079449855
0.16491611 0.067837015 -0.044775303 0.05087465 -0.33891082 -0.12742695 0.12596756 -0.11222621
-0.30104035 0.067685895 -0.079313196 -0.104420714 0.27591747 0.024693592 -0.174195 0.31165126
-0.22826049 -0.055465944 0.19090784 -0.040572733 -0.22478063 -0.043613274 0.07651116 -0.30447373
-0.12825556 0.0061877044 0.05425848 0.29814693 -0.09731417 -0.06812456 0.3687643 0.08848256
0.008526994 0.18952966 -0.17075811 -0.20197298 0.06798517 0.06806317 0.07980848 -0.13039301
-0.02302796 -0.117164634 -0.06409637 0.08853012 -0.28666663 0.28761253 -0.060185235 -0.1938714
0.022687698 0.12346316 -0.20863426 0.12002721 -0.05057967 -0.12537764 -0.14912316 0.10082783
-0.29941884 0.272135 -0.374006 -0.345157 0.2098279 -0.21520504 -0.31535357 0.32340068
-0.023630358 -0.30557987 -0.027816366 -0.053517807 -0.09124038 -0.056511275 -0.10532302 -0.018328808
-0.16087525 -0.18833134 -0.121294804 -0.019506605 -0.10499373 -0.07847441 0.3117542 -0.27090082
-0.2098344 -0.0979694 -0.18981057 -0.24980941 -0.30360404 -0.074401736 -0.09603248 -0.027081156

dec_log_var.bias f4 [20]
00000000: 0d9f a1be 9f50 54be 76cd 85be 06f7 4cbe
00000010: a79f d8bd e85a 00bd da0f 613d 6900 8bbe
00000020: df41 223e b356 89be d96a 323d c86a c03d
00000030: a555 bfbe 309a a4be 3991 73be a448 0c3e
00000040: 51e3 29bd 4aba 423d 83ec 6c3d 4b2f c63d
-0.3156666 -0.2073388 -0.26133317 -0.20016107 -0.10577326 -0.031336695 0.054946758 -0.2714875
0.1584544 -0.2682396 0.04355893 0.09395367 -0.3737003 -0.32148886 -0.23785867 0.13699585
-0.04147655 0.04754094 0.057842743 0.09676989

exp_avg f4 [15, 20]
00000000: 256e bbba 5d2d 883b 0eaf 71b9 5693 a13b
00000010: 1b7f 8ebb a497 d53b 06b1 3bbc eebb 0fbb
00000020: e99a 20ba d73d 91ba f585 b2bb b7a9 0d3b
00000030: f5a7 a5ba 36bf 3bbb a237 00bc cf70 1c3b
00000040: e14f 623b 4d97 02b8 aaab a6ba 256e bbba
00000050: 1f6a b53b 1afb 90bc d425 683c c7f8 b43b
00000060: 8098 03bc 5cd8 833c cc94 92bc e532 2c3b
00000070: 01d4 0439 4e55 573c 2573 6cbc 2afe e83b
00000080: 1524 803b 4cd0 8abb e41c 23bc 61e5 73bb
00000090: edfa b13c fafa 19bb d191 113b 1f6a b53b
000000a0: 58c3 ebba 734d 493b 6aac 2dbb 5086 24ba
000000b0: f96f 153b 4ee2 22bb bed1 f5ba 319a e6ba
000000c0: 7919 e739 a8bd 34bb 3ce6 02ba 3027 d839
000000d0: df5b 0abb 1271 ba39 49fd 8f39 607a b93a
000000e0: 3208 67bb 36c5 a439 cc11 03bb 58c3 ebba
000000f0: c041 e13b f8cf d63a 052c 173b 2681 05bb
00000100: f385 cebb 987c dc3b 9ed0 053a 5dec 813b
00000110: 3d09 28bc 05c5 4f3b 4e91 eb3a 52e9 8d38
00000120: e9f7 14bb bcbc 7d3b cc86 0f3b c6b7 b0bb
00000130: cd9d 123b bf09 1abb 1118 0dbb c041 e13b
00000140: 80d3 11bb f4e2 393c 9072 03bb 0b4c 70bb
00000150: 46cc d7ba 4ba2 a9b8 7bea 68ba 25e7 af3b
00000160: efec 39bc 39c3 023a 1010 ce3b 795e 21bb
00000170: 9532 a1bb 7048 923b e80f 093b 0c99 e0b8
00000180: 061a a7bb 0c69 ea39 7e32 6eb8 80d3 11bb
00000190: e76a 07b9 cd10 34bc 5978 d23b 342a 943b
000001a0: 5d59 d5ba 2321 d63b 550c 2ebc fa0b 703a
000001b0: 8a0b 5e3b 65f1 753b 0a1b edbb b172 9f3b
000001c0: 26fe 283b ccc0 62bb 7a22 05bc 5533 d83a
000001d0: a92f 253c 0aa0 7d3a 9925 f33a e76a 07b9
000001e0: 74a2 03bb 1dcf 383b 7969 d9ba 1e6a e93a
000001f0: 2269 a93a 11ee 95ba 1f4c 96bb fc8a acbb
00000200: 6bc7 8b3b 0b20 04bb b486 8fbb d7b6 023a
00000210: 48ee 9dba c686 10bb 1ece c4ba 01bd f73a
00000220: 1006 55ba 9fc0 d6b9 d469 40ba 74a2 03bb
00000230: e075 603c 65f2 97bc fee0 833c 0b3e 9b3b
00000240: 976f 7dbc 7a86 c63c 4df9 88bc 7b3c df3b
00000250: eadb 4bbc 4a51 8f3c de6e 65bc ed73 f23b
00000260: 0515 223b cdfd 3238 2dbf 26bc c603 03bc
00000270: 6854 ba3c e691 a4bb a9d3 e6ba e075 603c
00000280: 4694 b2bb 023d 593c a76b aebb 6f5a e1bb
00000290: eb4a 6b3b 63ec 28bc 0f98 353c e801 2e3b
000002a0: d471 05bb 11a4 9cbb b1c1 343c fece f3bb
000002b0: 6dbe 33bb 2630 443b 0785 e13b baf0 303b
000002c0: 4c90 1cbc f756 8aba 89d7 903a 4694 b2bb
000002d0: 8170 f2bb ce3f 2c3c 95e1 19bc 9d84 23bb
000002e0: 65ed ef3b d553 37bc 71ce f53b 7cb9 11ba
000002f0: 8a4b 5f3a cdfa d0bb 102e 113c d791 8fbb
00000300: bab3 2bbb daa3 2b3b 292d 763b bf75 5d3b
00000310: f659 65bc 03f8 723b 9746 77b9 8170 f2bb
00000320: 74f0 53bb 44bc 453c 6944 0cbc 18c1 51bb
00000330: 4572 4d3b 3a25 09bc 60af 3f3c 076e 11bb
00000340: ec54 993a 23b5 0ebc a0fa 153c f557 9ebb
00000350: 47aa e4ba 3e80 3c3b 4f95 b13b 6917 1a3b
00000360: 12d8 56bc 1bb3 ac3a c8ab 9dba 74f0 53bb
00000370: 45d8 e13b 442c 38bc d013 1d3c 4742 c239
00000380: 20c5 cebb 93ee 083c 3ab9 2fbb 676e fd3a
00000390: 9781 88bb e15a 0f3c 1cf2 d0bb 504b 253b
000003a0: 616e 073b b6f5 643a 4483 6339 a934 d1bb
000003b0: 8b2a 2d3c b229 0dba 56f8 233a 45d8 e13b
000003c0: 522c fcbb ef55 e23b 3f2f 04bc b839 13bb
000003d0: 9934 123c daa7 5bbc a55d 003c b232 47bb
000003e0: b626 333b 37a1 eebb 9723 bd3b ae2b d7ba
000003f0: 4fd5 c1ba 901f aa3a 79d0 a33b 5e8f a33b
-0.0014299793 0.0041557983 -0.00023048764 0.004930894 -0.0043486482 0.006518321 -0.01145578 -0.0021932083
-0.0006126599 -0.0011081052 -0.005448098 0.002161605 -0.0012638556 -0.0028647906 -0.007825764 0.002387095
0.0034532475 -3.1135325e-05 -0.0012715955 -0.0014299793 0.0055363323 -0.01769786 0.014169175 0.0055228206
-0.008031964 0.01609438 -0.017893218 0.0026275453 0.00012667479 0.013142897 -0.0144317495 0.007110377
0.0039105513 -0.0042362567 -0.0099556185 -0.0037215578 0.021726096 -0.002349554 0.0022212157 0.0055363323
-0.0017987294 0.003071633 -0.0026500472 -0.00062761176 0.0022802337 -0.0024854126 -0.0018754525 -0.001759356
0.00044078732 -0.0027578864 -0.0004993414 0.00041227927 -0.0021111888 0.00035560929 0.00027463798 0.001415085
-0.0035252688 0.0003142745 -0.0019999621 -0.0017987294 0.006874293 0.0016388884 0.002306701 -0.0020371168
-0.006302589 0.00672872 0.0005104634 0.0039649443 -0.010256109 0.0031703126 0.0017972381 6.766863e-05
-0.0022730774 0.003871723 0.0021900414 -0.0053930013 0.0022371889 -0.0023504344 -0.0021529237 0.006874293
-0.0022251308 0.011345614 -0.0020057298 -0.003666642 -0.0016464076 -8.0887774e-05 -0.0008885038 0.0053681307
-0.011347993 0.0004988197 0.006288536 -0.002462296 -0.00491936 0.0044642016 0.0020914022 -0.000107096595
-0.005099538 0.00044710224 -5.6790646e-05 -0.0022251308 -0.00012914427 -0.010990334 0.006423038 0.0045216326
-0.0016277243 0.006534712 -0.010623057 0.0009157058 0.003388139 0.0037527916 -0.0072358893 0.004865967
0.002578625 -0.003459978 -0.008125896 0.001649479 0.010082164 0.0009675032 0.0018550634 -0.00012914427
-0.0020085843 0.002819962 -0.001658722 0.0017808115 0.0012925009 -0.0011438747 -0.004586711 -0.0052655917
0.004265716 -0.00201607 -0.0043800715 0.00049863517 -0.0012049163 -0.0022052987 -0.0015015041 0.0018900932
-0.00081262086 -0.00040960775 -0.00073399884 -0.0020085843 0.013699979 -0.0185482 0.016098496 0.0047376207
-0.0154685 0.024234045 -0.016720438 0.0068126298 -0.012442568 0.017494816 -0.014003484 0.0073990733
0.0024731767 4.2674877e-05 -0.010177416 -0.007996505 0.022745326 -0.0050222753 -0.0017610687 0.013699979
-0.0054498045 0.013259174 -0.0053228918 -0.0068772356 0.003590281 -0.010310265 0.011083617 0.002655143
-0.0020362036 -0.0047803004 0.011032508 -0.007440447 -0.0027426735 0.0029935925 0.006882313 0.0026998953
-0.009555887 -0.0010554482 0.0011050563 -0.0054498045 -0.0073986654 0.010513259 -0.009392162 -0.002495087
0.007322001 -0.011189421 0.0075014164 -0.00055589504 0.0008518031 -0.006377554 0.00886108 -0.004381399
-0.0026199655 0.0026190192 0.0037563539 0.0033792106 -0.013998499 0.0037074096 -0.00023582052 -0.0073986654
-0.0032339366 0.012068812 -0.008561232 -0.0032005962 0.0031348628 -0.008370692 0.0116995275 -0.0022190826
0.0011698282 -0.008710179 0.009153992 -0.0048322626 -0.0017445766 0.0028762962 0.0054194103 0.0023512489
-0.013113039 0.0013175936 -0.0012029344 -0.0032339366 0.0068922364 -0.0112410225 0.009587243 0.00037051944
-0.00631012 0.008357662 -0.0026813284 0.0019335271 -0.004165839 0.008749695 -0.006376518 0.0025221892
0.0020665156 0.00087341235 0.00021697307 -0.0063844514 0.010569225 -0.0005384936 0.00062549615 0.0068922364
-0.007695713 0.0069072167 -0.008067905 -0.0022464823 0.008923673 -0.013406718 0.007834827 -0.0030395207
0.0027336306 -0.007282402 0.005772065 -0.0016416216 -0.0014788302 0.0012979377 0.004999217 0.004991456

exp_avg_sq f4 [15, 20]
00000000: 1120 8a38 5e30 2039 7370 ad38 94af bf37
00000010: e1d2 9738 fa2c 7039 022d 9839 2dbe ab38
00000020: cf6b e938 4072 8d38 f6de 1d39 6fcd 5f38
00000030: d2b9 5537 fd1b cb37 0433 e838 fadd 8337
00000040: f2b9 8139 111b 7c38 bda6 3438 1120 8a38
00000050: 24c7 6039 dae5 223a 4715 2b39 e2a3 1b38
00000060: 4a6b eb38 865b 0e3a 817e 183a a91c bc38
00000070: 3526 1d39 8aa8 3039 2916 a639 b04f 5139
00000080: 1871 0038 05c8 cf37 83fa 2839 91fb 8138
00000090: 095c fc39 fa7b 9638 2c49 bd38 24c7 6039
000000a0: 82cd 6837 5fd2 d337 4448 cf36 dbbc 1c36
000000b0: 8883 2437 57f9 b437 ce1a 5037 43ff 2b37
000000c0: 00b1 4f37 df70 c336 5126 7437 6518 cc36
000000d0: cb46 4536 16a8 5c36 d6f1 4437 d8c5 b436
000000e0: ecfe 2537 f9c1 a636 016c 1b37 82cd 6837
000000f0: 1ceb a638 e17d 5f39 61df 0838 0bcf 3137
00000100: 4c20 f537 1d5b f038 3c36 ab38 757d ae38
00000110: 9cf9 0139 adeb 7538 7c36 0d39 24eb 8438
00000120: b1d8 b337 8185 eb36 3dd6 2238 ec66 b137
00000130: 35a9 6f38 6c7b d537 5734 2f38 1ceb a638
00000140: 6ab3 8b38 09a9 6d39 42de ee37 eef5 7b37
00000150: 2526 b137 1905 eb38 0293 3438 d7ff 6938
00000160: 66ab ca38 4e37 3138 62b5 d938 4052 9338
00000170: 851e d437 1195 e136 dc2d dd37 f9a3 7837
00000180: 0c59 cf37 085e 2937 2478 0138 6ab3 8b38
00000190: 0da7 0f39 da9f d939 7432 ce38 a25b e837
000001a0: 78e7 a138 2828 a939 8b08 d939 6b1c b338
000001b0: a3dc 1039 7f67 da38 f04c 6e39 04d5 0139
000001c0: cfdc b237 3b1e df37 ec5c 2039 1da6 e937
000001d0: 78cf 9f39 6e65 9238 c6b4 cf38 0da7 0f39
000001e0: f282 8338 b7b5 0e39 c4dc 0038 31bf 0037
000001f0: e2c5 0638 fd3b 9638 a29e 2038 ab2e 8b38
00000200: c414 b438 540c 3638 bff7 b038 355a e337
00000210: 732e 3b37 4df2 6d37 1a5f ee37 2adb a237
00000220: 2654 1438 0150 c237 2eb6 2b38 f282 8338
00000230: f4a4 c538 b276 5939 890a d438 e48b 1038
00000240: 1740 da38 e074 b339 f918 7439 4169 7538
00000250: 53d1 cd38 7241 a438 506b dc38 32de c038
00000260: 1fb8 de37 053b ce37 d53a c538 3905 1e38
00000270: 8500 5d39 3a88 0038 3bc8 4d38 f4a4 c538
00000280: 27c7 e638 f41e b839 e9bd 7c38 e489 ed37
00000290: 4d16 6b38 bab2 7d39 8754 6e39 0c28 a738
000002a0: a749 1139 52ef 9238 b125 3839 c31d e338
000002b0: 7fa6 b137 a45d 8837 87b2 cc38 2d4c ef37
000002c0: 8754 1439 9b0f 0d38 24d8 ab38 27c7 e638
000002d0: bd18 1638 a8b8 b638 8eaa 9f37 68e7 b436
000002e0: c6bf 6637 b5e2 8f38 8c2b 4e38 4e4d 5437
000002f0: 128c 4337 7928 5537 75c6 3738 d218 0e38
00000300: 4e71 7936 45f0 5836 8cc8 a937 cf02 ef36
00000310: cbbc 3b38 10aa 2237 8e96 3637 bd18 1638
00000320: 391d 0e39 9e2e d539 9dbb 7238 02d0 d937
00000330: 0bae 6438 ad56 8c39 3c29 6539 dbad 1b38
00000340: a27b e738 c7dc 7838 5957 4139 3bd1 1239
00000350: b3c6 d937 8067 9f37 7a33 b738 3233 3338
00000360: 60ea 0339 d070 0438 ebca 9f38 391d 0e39
00000370: 06d3 5c38 4a57 0139 25e0 1c38 9c57 4b37
00000380: e6c9 e937 57d3 c438 44e4 1b38 6d4c 2738
00000390: 1740 9838 6b16 da37 2b04 ae38 a618 6438
000003a0: bfc8 6537 bf53 2637 8e61 9037 7851 b337
000003b0: 6396 d337 a80e 8a37 50f6 a137 06d3 5c38
000003c0: d1e8 c437 a70a 5238 32a1 ba37 cfb3 9a36
000003d0: caa9 aa37 c057 8e38 f9c0 9538 5ea9 b437
000003e0: 6d26 df37 2b6b bb37 eeea 3338 fa13 6f37
000003f0: 5489 a136 4041 c136 2555 0438 b6bb 2737
6.5863256e-05 0.00015276807 8.270228e-05 2.2850734e-05 7.23952e-05 0.00022904939 0.00029025233 8.1893384e-05
0.00011130387 6.744685e-05 0.00015055746 5.3358668e-05 1.2739054e-05 2.4212519e-05 0.000110721245 1.5719783e-05
0.00024743337 6.010669e-05 4.307063e-05 6.5863256e-05 0.0002143649 0.000621406 0.00016315757 3.7107508e-05
0.00011225657 0.0005430508 0.00058171904 8.969877e-05 0.0001498692 0.00016847454 0.00031678498 0.00019961479
3.0622905e-05 2.4769464e-05 0.00016115051 6.198057e-05 0.00048133757 7.17565e-05 9.0258516e-05 0.0002143649
1.3876126e-05 2.5251122e-05 6.1774936e-06 2.335574e-06 9.805786e-06 2.157378e-05 1.2404007e-05 1.0251827e-05
1.23793725e-05 5.824593e-06 1.4552455e-05 6.0825137e-06 2.9396494e-06 3.2880394e-06 1.1738817e-05 5.38745e-06
9.89412e-06 4.969767e-06 9.263867e-06 1.3876126e-05 7.959289e-05 0.00021313831 3.2632965e-05 1.0598228e-05
2.9221315e-05 0.00011461063 8.164017e-05 8.320335e-05 0.00012395385 5.8632042e-05 0.00013467105 6.338049e-05
2.1439368e-05 7.0190877e-06 3.8823335e-05 2.1147971e-05 5.7139627e-05 2.5449051e-05 4.1771997e-05 7.959289e-05
6.661455e-05 0.00022665052 2.8475308e-05 1.5018026e-05 2.1117807e-05 0.00011206623 4.3052256e-05 5.57898e-05
9.664036e-05 4.2251595e-05 0.000103811515 7.0248265e-05 2.5286581e-05 6.722876e-06 2.6366608e-05 1.482013e-05
2.4717789e-05 1.0095078e-05 3.0867886e-05 6.661455e-05 0.00013699774 0.00041508564 9.832243e-05 2.7699225e-05
7.720193e-05 0.0003226411 0.0004139583 8.5406784e-05 0.00013815104 0.00010414328 0.0002272611 0.00012381753
2.1322076e-05 2.6597749e-05 0.00015293405 2.7853117e-05 0.0003048142 6.980715e-05 9.904201e-05 0.00013699774
6.270957e-05 0.0001360987 3.0723182e-05 7.67391e-06 3.2132382e-05 7.163731e-05 3.829471e-05 6.636729e-05
8.586937e-05 4.3403663e-05 8.43848e-05 2.7102515e-05 1.1156883e-05 1.4182716e-05 2.8416096e-05 1.9413961e-05
3.536432e-05 2.3163857e-05 4.0939245e-05 6.270957e-05 9.424417e-05 0.0002073895 0.0001011091 3.446256e-05
0.00010406988 0.0003422862 0.00023278956 5.8510577e-05 9.8141514e-05 7.8323195e-05 0.00010510406 9.1966605e-05
2.65502e-05 2.4584597e-05 9.40465e-05 3.7675e-05 0.00021076396 3.064445e-05 4.9062288e-05 9.424417e-05
0.0001100435 0.00035118277 6.025835e-05 2.8316812e-05 5.6049135e-05 0.00024194541 0.00022728938 7.97064e-05
0.00013855715 7.0063994e-05 0.00017561649 0.00010829747 2.1177575e-05 1.6256068e-05 9.760731e-05 2.8526492e-05
0.00014145869 3.3631553e-05 8.194175e-05 0.0001100435 3.5785826e-05 8.712831e-05 1.9033698e-05 5.3913573e-06
1.3753719e-05 6.860999e-05 4.9154783e-05 1.2654184e-05 1.1655518e-05 1.2705213e-05 4.3815427e-05 3.3878554e-05
3.7169843e-06 3.2326363e-06 2.0239757e-05 7.123082e-06 4.47601e-05 9.695548e-06 1.0883099e-05 3.5785826e-05
0.00013553062 0.00040661258 5.7872025e-05 2.5965277e-05 5.4521526e-05 0.0002676746 0.00021854503 3.7116795e-05
0.00011037967 5.9333423e-05 0.00018438454 0.0001400159 2.5960942e-05 1.9002473e-05 8.735708e-05 4.2724605e-05
0.00012580445 3.1576317e-05 7.619507e-05 0.00013553062 5.264862e-05 0.00012334916 3.740205e-05 1.2120141e-05
2.786978e-05 9.3853734e-05 3.716747e-05 3.988708e-05 7.2598625e-05 2.5998064e-05 8.297743e-05 5.438239e-05
1.36962035e-05 9.91387e-06 1.7211565e-05 2.13764e-05 2.522319e-05 1.6457707e-05 1.9307394e-05 5.264862e-05
2.3473434e-05 5.0077822e-05 2.224799e-05 4.61049e-06 2.0344643e-05 6.787432e-05 7.1408176e-05 2.153654e-05
2.6601565e-05 2.2342041e-05 4.289572e-05 1.4250161e-05 4.814161e-06 5.7594443e-06 3.155055e-05 9.9976805e-06

exp_avg f4 [15]
00000000: f7bb 783c fd4d 803b fd41 9cba 4cac c83c
00000010: 901d 3cba 7e2c a3bc 529a c73c 5964 933c
00000020: e0d6 b1bb 9e8b c9bb 47c2 733b 63d5 9c3c
00000030: 0138 6cbc edc3 3fbb 4b1d 313c
0.015181533 0.003915547 -0.0011921522 0.02449622 -0.0007176036 -0.019918676 0.024365578 0.017992185
-0.0054272264 -0.006150677 0.0037194656 0.01914472 -0.014417649 -0.0029261068 0.010810207

exp_avg_sq f4 [15]
00000000: 1eb8 8039 5f7a eb38 8d35 0e38 d516 9138
00000010: 9dc7 2038 cbcc d638 c2d0 da38 2992 0c39
00000020: 92e2 f138 37b8 9838 dbce 5e38 805a c138
00000030: 268d 1e38 90f2 1c39 a768 a439
0.0002455124 0.000112284666 3.390531e-05 6.9183916e-05 3.8332877e-05 0.00010242461 0.00010433934 0.0001340589
0.000115339775 7.2822375e-05 5.3121574e-05 9.219814e-05 3.780159e-05 0.00014967681 0.0003135849

exp_avg f4 [3, 15]
00000000: 94e1 ccbb e580 6c3b b245 6fbc 5812 8f3c
00000010: 6d04 a9bc 7d2a 823c 1ea7 1cbc 5a4e 1e3c
00000020: e734 a0bc 2334 c5bb 18e2 3a3b 96c0 cc3c
00000030: 4ba0 57bc 6617 66bc 2f67 82bc e818 233c
00000040: c34c c9bc 6332 483d 9e93 0fbd 6f26 483d
00000050: ed5a bfbc e6e7 1e3c 6509 f5bc 15af 293d
00000060: 96f7 773c eae6 f13b ecdb 43bd 52c6 0f3d
00000070: 5170 6a3c d77b fd3c e1da e6bb 5220 3fbc
00000080: 84d3 f73c 1c50 65bc a6f1 bd3c 9e74 01bc
00000090: a1db de3b 675c 2bbc 9aa7 c93c cfe5 213b
000000a0: de25 913b b5a2 a5bc e5d8 b23c 2581 623b
000000b0: cd01 f73c
-0.006252477 0.003608757 -0.014604019 0.017464802 -0.020631993 0.0158894 -0.009561328 0.009662235
-0.019556476 -0.006018178 0.002851611 0.024994176 -0.013160775 -0.014043665 -0.015918342 0.009954669
-0.024572736 0.048876178 -0.035052888 0.048864778 -0.023358786 0.009698844 -0.029911706 0.041426737
0.015134713 0.0073822634 -0.047817156 0.035101242 0.014309005 0.03094284 -0.0070451354 -0.011665421
0.030252226 -0.01399615 0.023186516 -0.007901339 0.006801084 -0.010459042 0.024616051 0.0024703627
0.004429563 -0.020219186 0.021831939 0.003456184 0.030152226

exp_avg_sq f4 [3, 15]
00000000: cd1c 2d38 e870 5a39 3ba6 da39 d593 c139
00000010: cb64 f239 3ce9 2039 e47c d038 0b6c 0439
00000020: b6ec 8839 db05 2c39 ab35 7839 7a2b cf39
00000030: 363b ae39 f66c 9139 21ff 1c39 b4e0 9c39
00000040: 771b ae39 0452 fc3a fdbc e03a 99f0 093b
00000050: 4329 b639 154a 2839 d5c5 8039 1d56 773a
00000060: 6198 423a a983 1e3a 2cd2 7b3a a4af 1e3a
00000070: 05a9 413a f5ae 143a 99d5 9538 3147 033a
00000080: b2a0 c03a 6e7a 903a 0a16 ac3a 56c8 6439
00000090: 1ba7 0939 c8a8 7a39 e4a0 b739 8640 023a
000000a0: 7f71 9339 8a37 263a db76 a33a da92 093a
000000b0: 112a 203a
4.1273237e-05 0.00020832161 0.00041704052 0.00036921972 0.00046232934 0.00015345676 9.9414756e-05 0.0001262875
0.00026116305 0.0001640538 0.00023671116 0.0003951451 0.00033231982 0.00027737737 0.00014972362 0.00029922056
0.0003320833 0.0019250517 0.0017146167 0.0021047948 0.00034744487 0.00016049326 0.0002456146 0.0009435134
0.0007423219 0.00060468406 0.0009606208 0.0006053394 0.00073875516 0.00056718226 7.144659e-05 0.0005007862
0.0014696328 0.0011022815 0.0013129127 0.00021818405 0.0001312759 0.00023904734 0.00035024353 0.0004968721
0.00028122586 0.00063406734 0.0012471335 0.0005248018 0.0006109784

exp_avg f4 [3]
00000000: 6f79 17bc cf63 4f3d e923 0d3c
-0.009245261 0.050632294 0.008614519

exp_avg_sq f4 [3]
00000000: 331e 8e3a bfb1 093b 8ac6 4b3b
0.001084274 0.0021010486 0.003109368

exp_avg f4 [3, 15]
00000000: 5862 c6ba dc9d cb3b dc2f 11bb 4b68 253b
00000010: 1472 08bb 4aad b33b bbd9 a2bb c406 1a3a
00000020: b9e4 223c fd16 8f3c ed5e e03b 8001 9dbb
00000030: c6cf 873b d435 933b 2abb 26bc 553b 95bb
00000040: e86c 0a3c a77e 34bb b09a 4c3b fa93 efb9
00000050: 29bf 023c d23a a0bb de97 2c3b c999 a63c
00000060: 13dd 953c 73b5 083c 9332 f0bb 8d01 023b
00000070: f81a 3d3c a54f 46bc 65cc 09bb 9228 7abb
00000080: a129 d53b 4d1a 2cbb 1836 273c 43da 053b
00000090: 32c3 12bc 67bf d5bb 6bed 083d 0e8f ea3c
000000a0: 7392 ba3c 4447 a9bc a21f 253c 94cb 673c
000000b0: 0eae 95bb
-0.001513551 0.0062138867 -0.002215377 0.0025239165 -0.002081995 0.005483304 -0.004969803 0.0005875642
0.009942227 0.017467016 0.0068472535 -0.0047914386 0.0041446416 0.004492501 -0.010176459 -0.004554192
0.008448817 -0.002754131 0.003122013 -0.00045695883 0.007980146 -0.0048898244 0.0026335637 0.020337002
0.018293893 0.008344042 -0.0073302477 0.001983735 0.011542074 -0.01210395 -0.002102637 -0.0038171154
0.0065052067 -0.0026260794 0.010205768 0.0020424284 -0.008957671 -0.006523061 0.033429544 0.028632667
0.02277491 -0.020663865 0.010078343 0.014147658 -0.004567868

exp_avg_sq f4 [3, 15]
00000000: 9748 8236 1ee3 0d37 b2be 5137 3285 9337
00000010: 3552 8937 a48e ce36 337e f036 48fd 7036
00000020: 6e95 9937 0481 8437 80de 0937 c466 e436
00000030: 2444 4f37 61b3 3f37 c978 3837 be56 1337
00000040: efc3 a437 71db 0d38 1e3d 1838 6947 3038
00000050: 97d5 9137 7a48 b136 6efc ec37 2670 9738
00000060: 5dd1 dd37 4f8c 8e37 d17b d137 b924 5537
00000070: e8b2 bd37 e399 db37 fd31 3838 2ec7 8b38
00000080: aed2 9339 49f5 c539 40e9 bb39 0213 6438
00000090: 59de c837 ffcc 6638 929d bb38 5fc9 5039
000000a0: 6292 0539 2bdd e938 1e58 7e39 b616 3b39
000000b0: b69d 9438
3.8827525e-06 8.457135e-06 1.25017705e-05 1.758579e-05 1.6369953e-05 6.155884e-06 7.167249e-06 3.5910216e-06
1.8308605e-05 1.5795704e-05 8.217641e-06 6.806893e-06 1.2354027e-05 1.1426252e-05 1.0995377e-05 8.782079e-06
1.9641562e-05 3.382139e-05 3.6296544e-05 4.2028176e-05 1.7384808e-05 5.2834484e-06 2.8250939e-05 7.22113e-05
2.6442745e-05 1.6993055e-05 2.4972398e-05 1.27043395e-05 2.2613865e-05 2.6178493e-05 4.3915574e-05 6.6651366e-05
0.00028194994 0.0003775752 0.00035841204 5.437714e-05 2.3945397e-05 5.502719e-05 8.9462046e-05 0.00019911442
0.000127384 0.000111515015 0.00024256154 0.0001784217 7.086566e-05

exp_avg f4 [3]
00000000: 8497 923d df8c e03d c70b 153e
0.071578056 0.10964369 0.14555274

exp_avg_sq f4 [3]
00000000: ef04 9c39 52c4 813a dd4d b83a
0.00029758314 0.0009900427 0.0014061291

exp_avg f4 [15, 3]
00000000: cc7b c93d 3148 a2bd 17b1 06be 0623 703d
00000010: 77d9 d1bd a1fd 95bc 40f7 453d 8a14 9bbc
00000020: 6ffd 6ebc daad 6ebc 1091 2bbd 4c06 2b3d
00000030: bcae 17be cda7 cabc dcfd a23d a1e3 77bd
00000040: 59e1 83bd 8321 3b3a e404 6e3d ef71 12bd
00000050: 62db ca3c 3f8d 4dbd f316 8c3c b053 873d
00000060: 1565 2b3c ea7d e0bd 675c bebc 8a26 d4bd
00000070: e0ca 693d 6666 963d 87ba c5bc 64f9 00be
00000080: 8cda f5bc 81f8 703d 8f87 fcbc 7c0a a8bd
00000090: d1c8 8a3b 4cb9 a93b 5aff 213d 79c1 823d
000000a0: 65c6 14bd 72e6 ecbc f6d8 73bd a6dd 0d3d
000000b0: 0c3b 033e
0.098380655 -0.07923926 -0.13153492 0.05862715 -0.10246556 -0.018309416 0.0483315 -0.018930692
-0.01458679 -0.014567817 -0.04188639 0.041754052 -0.1481275 -0.024738217 0.07958576 -0.06051982
-0.06439466 0.00071384775 0.058110133 -0.035753187 0.024762813 -0.05018353 0.017100787 0.06607759
0.010461112 -0.10961516 -0.02323742 -0.10358913 0.057078242 0.0734375 -0.024136795 -0.12595135
-0.030011438 0.05883074 -0.030826358 -0.08205125 0.004235365 0.00517956 0.039550163 0.06384558
-0.036322016 -0.028918479 -0.059533082 0.03463521 0.12815493

exp_avg_sq f4 [15, 3]
00000000: 78fd fc3a a2ec e13a 9fe4 723b c2cb 063b
00000010: e825 073b e421 483b 7c0c 9a3a cded f939
00000020: 5d22 853a e16e 053b a1d4 c33a f91d 723b
00000030: b6c9 433b e759 fe3a 4d1d fc3a 52da b43a
00000040: 6a9e 5f3a 2dd7 6d3a c3ff 453a e36b 3e39
00000050: 29a8 673a 7b8f 2e3a c698 a83a 142b d93a
00000060: 1f24 163a 3dbb c03a 0286 e639 daa8 853a
00000070: 92a9 ce3a 5739 aa3a 3b62 673a 7399 f53a
00000080: 5e17 9b3a 2d3d 383a d2c9 033b 546b ef3a
00000090: 4a3f 123b a6b7 693a 76a9 5a3a f448 113b
000000a0: 1434 723a 4634 2b3b e98c 643a d0f9 873a
000000b0: 4d86 4b3b
0.0019301614 0.001723666 0.0037062538 0.0020568226 0.002062196 0.0030537779 0.0011752988 0.00047670156
0.0010157336 0.0020360278 0.0014940688 0.0036944135 0.0029874868 0.0019405455 0.0019234807 0.0013797975
0.00085303804 0.0009072896 0.0007553065 0.00018160003 0.00088370085 0.00066589535 0.0012862913 0.0016568624
0.00057274284 0.0014704239 0.00043968862 0.0010197416 0.0015767089 0.0012987059 0.0008826588 0.0018737748
0.0011832525 0.0007028159 0.0020109308 0.0018266239 0.0022315555 0.00089156104 0.00083412917 0.0022168728
0.00092393276 0.0026123687 0.0008718507 0.0010374133 0.0031055391

exp_avg f4 [15]
00000000: 31c9 813e 6069 dfbe 16e7 9cbe 449b b13e
00000010: a74e aebe 8cd1 37be 74f9 db3e 5ccc 56be
00000020: 6a2e b0be da4e 2b3d 4ec9 88be 2ce0 b0be
00000030: a257 babe 312f a0be c64d 5bbd
0.2534881 -0.43635082 -0.30645055 0.3468877 -0.34044382 -0.1795103 0.42963755 -0.20976394
-0.3441041 0.041823246 -0.26716083 -0.3454603 -0.36394984 -0.31286004 -0.053540967

exp_avg_sq f4 [15]
00000000: a1e1 f43b 6a08 4b3c 080c 493c 2a76 433c
00000010: cc1e 2c3c 18d7 3c3b 67e4 933c 4bb1 c83b
00000020: 6cd3 753c d6ba 953a 9bee d63b 7897 103c
00000030: af26 893c 2a74 483c 2bde 803b
0.007473186 0.012392143 0.012270935 0.011930028 0.010505389 0.002881473 0.018053247 0.0061246506
0.01500402 0.0011423479 0.0065592057 0.008825175 0.016742079 0.012234727 0.0039327345
