feed_forward/saved_models/model.pt (torch, 330973 bytes, 24 tensors)

layers_mu.0.weight f4 [100, 50]
00000000: 1b55 303e d4d7 7a3d 20df 43be 585e e13d
00000010: f945 453d c972 1a3e 7270 60bd 2e12 b9bc
00000020: 15a2 ec3d 0832 9cbd 71e2 063e 0ee0 37bd
00000030: 804b b7bd 7e62 bd3d f400 21be 600e 4c3e
00000040: 4faa 613e af5b 273e e1c3 8f3c 604c 81bc
00000050: cefd 5d3e 35da adbd 11d0 acbd 55c8 a0be
00000060: 16f4 563e f267 793e fdc0 68be 3ac8 27bd
00000070: 3552 bfbd 32c5 393e c874 1fbe 311f 81bd
00000080: cacc 36be 46a1 2c3e a7f3 8cbd b459 633e
00000090: 898e 423e 2aaf 183e d5eb 243d 87bc 4b3e
000000a0: 6e2d ebbd 85f2 963d 94f2 443e 3e30 043e
000000b0: 012d 43bd 4401 59bd 8a6e 803e fc2f 84bd
000000c0: fd34 8a3d 7e1a ab3c b0f6 0cbe 06ad 68bc
000000d0: 06d8 30be b811 9fbc 0a03 033e 3297 a63d
000000e0: 4430 d93d f404 7a3d fadf d73d 0bfa d3bd
000000f0: 8f19 f63d fd20 89bd d1f8 d43d 1f56 36be
00000100: 196b 36bd 8eee 4d3e 204d 453e 5fd2 47be
00000110: 1d94 5abe 2380 3b3e 446c adbd 8d1f ffbd
00000120: 5ddd ba3c 7420 babc cb58 1dbe 96e9 20bd
00000130: 971f 0d3e b094 3a3d f9ca a9be b08a 723e
00000140: 13c0 03be 634e bb3d 111f 5dbd 8fdc 4c3e
00000150: dfd7 12be 8654 4f3e e967 4c3b 48dd 07be
00000160: 8916 133e 6ccd 753e aa0d 49bc 8f2a 63be
00000170: bc68 273e ac29 2abe dfd6 673e 1a8f 57be
00000180: ceaa df3d 688d f93c d71c 4a3d 1b95 313d
00000190: e058 d3bd 545d 193d b450 49be 4e53 d03d
000001a0: 2c99 d83d 9aac ef3d cc0c 5d3d 0398 fdbc
000001b0: 47ff 18be 56d4 0a3e 488c 753a e1ca 0bba
000001c0: 0e6b 80bd f32f d5bd a7f9 5c3d ae06 47be
000001d0: 085c c3bd c7fe a43d 9f9f c93d c9c0 3c3d
000001e0: a063 463e 2576 863e ab89 8fbe 1239 54bd
000001f0: 9808 783d 9a8a 5cbe a417 77bd d6ca c43d
00000200: 1499 843d 9f83 d9bd a9de 2dbd d4ac b6bd
00000210: f687 3bbe d865 c83d e7d1 493d 6fdc bc3d
00000220: 971c d63d 0ba4 04be 06d3 2abe aad8 793d
00000230: a379 e0bd 1606 9dbd d887 623d edd3 0bbe
00000240: ba46 49be c24d 6fbe 3de2 163e 39a8 2dbe
00000250: 8e5d 03be 48de a1bd e9de 2abe b396 033e
00000260: 5974 04be 35d1 02bc 9156 5f3e c8df fabd
00000270: c20c 323d 137b b53d a91f 14bd 6ebe 4a3e
00000280: 5e93 bcbd 3711 693c fcd6 2d3e cb6c 7d3d
00000290: c865 593d 858f 0dbe 0776 be3d 4df5 5e3d
000002a0: 5811 d23b 1925 a3bd f52f 0c3b f08a 893d
000002b0: dd11 a63d 83ff 373e bef0 e8bd f863 5a3e
000002c0: e1ab 8cbd 3d12 363e 1e62 bdbc 9036 47bd
000002d0: 868c c3bd a453 0cbd bd63 a23d 646f 5bbd
000002e0: 6b46 d2bc c7ee 273e 6a3a 2f3e 632f d0bb
000002f0: 3ca8 843e 044e 4abe 8fb6 0fbd d1ac 1ebe
00000300: ec84 98bd d634 2f3e 2ce9 a5bd bcca 103b
00000310: 1582 803d 1e67 1bbe 0531 c0bd 30b1 0fbe
00000320: b9b8 f2bd be4f 9e3d a8f3 853d 1fa4 df3d
00000330: 5fe4 b73d 23b7 81be fa7e 55be 973d 3bbe
00000340: 98af 46bc 109e 203e 2911 3bbe a5a5 d5bb
00000350: a67e d6bd 5cff 423d 0f4f 2bbd 7044 32be
00000360: 59bd 8fbd 9712 833e 6cc3 19bd deed 983e
00000370: 3c89 5d3e ef46 efbb c3a9 6abe 6090 243c
00000380: 0d70 61bd 9892 b8bd 86c3 2f3e 296d 21bd
00000390: 4181 ed3d 35fe 3abe 153f 863d 0b91 673d
000003a0: 90e2 453e b233 543e 125d ccbd 9f46 573e
000003b0: 44f1 fbbd 0d6d 403d 9960 133e 04ce 68be
000003c0: 80ea f33a 67ea 163c 5f65 de3c b090 3cbe
000003d0: e8ad 2b3e 6efd 0a3e 9e3f 01be 5d18 e23c
000003e0: fc23 66bd 1675 0cbd 96b5 08bd 210d d43d
000003f0: 8d6a 93bd 95e5 f6bd de27 e53b 4a41 973d
0.17219965 0.061240986 -0.19128084 0.11004323 0.048162434 0.1508285 -0.054794736 -0.022591677
0.11554352 -0.0762673 0.13172318 -0.04489141 -0.08949947 0.092473015 -0.1572302 0.19927359
0.22037624 0.16343568 0.017549457 -0.015783489 0.2167885 -0.08488885 -0.08438123 -0.3140284
0.20991549 0.24356058 -0.22729869 -0.040962435 -0.093418516 0.1814163 -0.15571892 -0.063047774
-0.17851558 0.16858396 -0.068824105 0.22202188 0.18999685 0.1491057 0.04026397 0.19896136
-0.114832744 0.07370476 0.19233161 0.12909028 -0.04765034 -0.052979723 0.25084335 -0.06454465
0.06748388 0.020886656 -0.13765979 -0.014201408 -0.17269906 -0.019417629 0.12794128 0.08134307
0.10604909 0.06103988 0.10540767 -0.10350426 0.12016594 -0.06695745 0.103990205 -0.1780629
-0.04453573 0.20110533 0.19267702 -0.19513844 -0.21345563 0.18310599 -0.08467916 -0.1245719
0.022810632 -0.022720553 -0.15365903 -0.039285265 0.13781582 0.045551956 -0.33162668 0.23685718
-0.12866239 0.091458105 -0.053984705 0.20006011 -0.14340161 0.20247087 0.0031189865 -0.13268006
0.14364065 0.24004143 -0.012271324 -0.22184204 0.16348547 -0.16617459 0.2264056 -0.21050683
0.1092125 0.030462936 0.04934391 0.04335509 -0.10319686 0.03744252 -0.19659692 0.10172139
0.1057609 0.11702843 0.053967282 -0.030956274 -0.1494113 0.13557562 0.0009366912 -0.00053326605
-0.06270419 -0.10409536 0.053949025 -0.19436142 -0.09539038 0.080564074 0.098448984 0.04608229
0.19373941 0.26262012 -0.2803472 -0.05181224 0.06055507 -0.21537247 -0.06032528 0.096090004
0.0647451 -0.10620808 -0.042448673 -0.08919683 -0.18313584 0.0978505 0.049272444 0.09221732
0.10454672 -0.12953202 -0.16682062 0.060997643 -0.109607 -0.076671764 0.055305332 -0.13655062
-0.19655886 -0.23369506 0.1473474 -0.16958703 -0.12828657 -0.07903725 -0.16686596 0.12850456
-0.12935008 -0.007984449 0.21810366 -0.12249714 0.043469198 0.08861365 -0.036163006 0.19799206
-0.092077956 0.014225296 0.16976541 0.06187133 0.05307558 -0.1382428 0.09299856 0.054433156
0.006410759 -0.0796606 0.002139089 0.06715953 0.08108876 0.17968564 -0.11374043 0.21327198
-0.06868721 0.17780395 -0.023118075 -0.04863602 -0.09548287 -0.034259453 0.0792918 -0.053573027
-0.025668344 0.1639968 0.17112127 -0.006353305 0.25909603 -0.19756323 -0.03508621 -0.15495612
-0.07447228 0.17109999 -0.08101115 0.0022093495 0.06274811 -0.15176055 -0.0938435 -0.14032435
-0.11851639 0.07730053 0.06540614 0.109199755 0.08979105 -0.25335035 -0.20849219 -0.18285213
-0.012126826 0.15685296 -0.18268265 -0.0065199905 -0.10473375 0.04760681 -0.041823443 -0.1740892
-0.07018537 0.2560012 -0.037539884 0.29868978 0.21634382 -0.007302157 -0.22916321 0.010044187
-0.0550385 -0.090123355 0.1716443 -0.039410744 0.11596919 -0.18261035 0.06555001 0.056534808
0.19324708 0.20722845 -0.09978689 0.21023034 -0.12301877 0.046979 0.14392318 -0.22734839
0.0018609315 0.009211159 0.027147947 -0.18414569 0.16765559 0.13573238 -0.12621924 0.027599508
-0.05618666 -0.03429135 -0.0333763 0.10354067 -0.07198057 -0.12055508 0.006993278 0.073855

layers_mu.0.bias f4 [100]
00000000: ada7 7ebb d353 ab3b 404b 55bb 0b02 95bb
00000010: ce8a 9c3a 8eb9 2239 5c4c 4e3b 0ae4 943a
00000020: 63c6 ef3a c46d a13b e93c 0ebc e00e 68bb
00000030: e283 2c3b 5bdd ccba eb10 aa39 8ce3 d5b9
00000040: eb07 80ba da45 56b8 8bc5 1dbb 0925 3dbb
00000050: 5d89 c7ba c758 5c3b 099a 0bb9 0e2a bc3a
00000060: 9017 88b9 664f f83a aa3c d5bb b50e 9dbb
00000070: 132a 903b 2ef3 25bb 4180 073b c13c 22bb
00000080: 41db c03b a8c9 433b 2b5c 563b ee8e 2f3b
00000090: a861 693a db99 683b 6afc 82ba 9857 7f3a
000000a0: 087c c539 7281 b5ba 44e9 2f3b a05a 5bb8
000000b0: 284a d03b dc3d d03a 3298 01bc 1824 87bb
000000c0: 3352 dc3a f572 843b d754 9f3b 34b4 7cbb
000000d0: 21f6 d33b 997c 883b b0a1 a8ba ac01 4e3b
000000e0: 5d0b 023b d4cb 243c eca2 5b3a 17cc fe3b
000000f0: dafc 4e3b fa91 e33a 42b7 233b d5f1 b63a
00000100: 4747 ff3b 2e96 48ba 1f07 3d3b c6f1 c8ba
00000110: 9235 f73b a838 96ba 5dda b33a b37d a03a
00000120: 97af 053c 2683 473b e7cd 16bb 6885 553b
00000130: 6f31 19bd 0aad e23b 2a13 4cbb c441 8b3b
00000140: a05e f838 a223 a23a 69e6 22bc 7371 0bbb
00000150: 6701 a6bb d296 6b3a d536 41bb 7971 7d3a
00000160: 8d49 acbb 30ec d5b9 0c17 b9ba 821f f9ba
00000170: b663 16bb 3255 f83a 0264 223b 3234 abba
00000180: b373 abbb ec59 03bb 889f f63a 16f4 013b
-0.0038857267 0.0052284985 -0.0032546073 -0.0045473627 0.0011943222 0.00015518648 0.003147862 0.0011359465
0.0018293377 0.004926415 -0.008681514 -0.0035409257 0.0026323725 -0.0015629934 0.00032437532 -0.00040796062
-0.0009767985 -5.108663e-05 -0.0024074044 -0.0028861186 -0.0015223433 0.0033622251 -0.00013313456 0.0014355795
-0.00025957497 0.0018944561 -0.006507476 -0.004793013 0.004399547 -0.0025321948 0.002067581 -0.002475545
0.005885512 0.0029874835 0.0032708745 0.0026788074 0.00089027965 0.0035492096 -0.0009993438 0.00097405305
0.0003766718 -0.0013847782 0.0026841918 -5.229807e-05 0.0063564964 0.0015887576 -0.007909821 -0.0041241758
0.0016809165 0.0040420243 0.0048624086 -0.0038559558 0.00646855 0.004165244 -0.001286557 0.0031434102
0.0019843199 0.010058362 0.0008378464 0.0077757942 0.0031583817 0.001736223 0.0024981056 0.001395757
0.0077904793 -0.0007651773 0.0028843356 -0.0015330843 0.007544228 -0.0011460977 0.0013721694 0.0012244493
0.00815954 0.003044316 -0.002301091 0.0032580737 -0.03740066 0.0069176005 -0.0031139352 0.004249783
0.00011843187 0.0012370239 -0.009942629 -0.0021277338 -0.005066085 0.00089870126 -0.0029482145 0.0009668093
-0.0052577914 -0.000408025 -0.0014121248 -0.0019006582 -0.0022947616 0.0018946289 0.0024778848 -0.001306182
-0.0052322983 -0.0020042611 0.0018815855 0.0019829324

layers_mu.1.weight f4 [100, 100]
00000000: 1721 c73d b326 41bd d7dc bfbd c3a8 363d
00000010: 3184 ddbd f2d3 cebd 307b c5b8 fe63 143d
00000020: 8fc9 e4bc bac3 193e 7892 95bd 90ca c83d
00000030: 326f a73c 8bd7 143d 6f54 823d 85e6 753d
00000040: dc4c b7bd 6cba 953c c53f 463e 19f0 68bd
00000050: 7db2 5f3d 8239 02bd ec0e 30be 1314 cd3d
00000060: 5cf2 c2bc 6456 c2bd 476f 683d f9e9 fdbd
00000070: 4c75 9ebc a359 3ebd d2b3 643c 5265 1abd
00000080: aa4b a6bc 6602 d53d e866 9abd 60ed a4bd
00000090: 85b1 443b 24ff 21be a0b1 3dbd aa25 1e3d
000000a0: 9154 3a3c 8442 be3d 1b48 34be 0c73 103e
000000b0: 3249 de3d 4ba7 fcbd b6b2 60bd c1e9 57bd
000000c0: eded 0a3e 6db1 403e 8ea6 88bd e8cd c03d
000000d0: 8f82 97bd 0e87 ae3d bf40 8aba ab2a 7abd
000000e0: fc0e 073e 639d ca3d 81a9 48be bd37 493e
000000f0: a25d 913d cee4 013d aa90 593c 0b60 0b3c
00000100: 72a2 083d e22e de3c 9ecb 823e eb46 a0bc
00000110: 68e6 f33c 73db 1bbe 3fdf a73c 9cc8 b73d
00000120: 9f8f 73bd 35a4 20be 6047 453e 29fe b2bc
00000130: 6e7e c2bc b0d5 1bbd 8d69 74bd 9244 acbd
00000140: 3190 d63c 8ca1 e33c 3036 27be 3816 6abd
00000150: b25d cd3c dd69 1c3e 1fe5 ecbd a484 2a3c
00000160: 5d53 e83c a477 493d 223b 1f3e 0d93 53be
00000170: 5624 423b 291e f7bd f371 1fbd d8cc 513d
00000180: 1e39 793d c121 abbd 8d67 343e fb84 21be
00000190: 66c0 d0bc 035a a83d 584b 8c3d 9adf 3abe
000001a0: 8008 b6bd bb7e be3d 2f5c 98bd 6f4a 5b3d
000001b0: 142d 363e b376 5a3d cf94 3ebd 79b7 e33d
000001c0: e01c ac3d df70 c03a 2320 103d d8ac d3bd
000001d0: 9ec9 c53d 2f6f a1bd fc30 423e 02e3 51bd
000001e0: cd28 923d 999f 5cbe a0a2 793c 248b 4e3d
000001f0: e060 323e aaed 113e 3459 a0bd 9f16 7e3d
00000200: 1ff3 e4bd ad47 97bd fc16 fd3d 5372 0fbe
00000210: 8a16 87bb c0a0 963d 2446 c63a 4bc4 fd3d
00000220: d4bc fabd cc64 d3bd f1d9 74bd b53e 5b3d
00000230: 0978 b23d 467f 583d 2d93 333e 3d48 13bc
00000240: 9fed 82bc 3ebc d5bd 3479 27bd d50e 913a
00000250: 77bd e53d 1f63 bebd c425 b53d 7d8f 223d
00000260: f158 813d 369e 26be 1968 083e 5552 433e
00000270: 2d91 933d 24c0 febd 9653 043d 2e17 983c
00000280: 17d1 0dbd 2cba 353d 44b0 02bb 0a72 143e
00000290: 042d a1bd f7c5 013e fdd6 99bd 8863 40bb
000002a0: 62fc b2bd 3c86 c43d 1faf 8c3d 1789 273e
000002b0: 833d d4bd 1618 49be 4d72 e6bc ed79 76bb
000002c0: 620f febc a479 f33d 9e8d 3b3c 09a7 2f3d
000002d0: d363 e63d 635e 1bbd 757b 39bc 6ada f5bd
000002e0: b690 103e 375f 22be 0f86 693d b529 f93c
000002f0: 7239 713d b743 193d 481e 18be 3793 983d
00000300: 4aaa e23d 6bc4 82bd 0ec3 2bbc 7e28 bd3d
00000310: c867 fbbd b67a 8e3d ea5a c93d 02e4 8ebd
00000320: b355 8eba 3c8f b13d 6fb3 9c3d cb24 103e
00000330: 9198 a9bd 3373 933d 93e3 fabd e9ff ee3d
00000340: 48aa 403d efa0 a1bc 35ee a7bd 4220 4fbd
00000350: 32ba 95bc a548 81bd 8daf a9bd 0918 40be
00000360: 0179 fcbc 3beb ba3d d93a 4cbd 6b7b 1c3d
00000370: f8d2 df3d 9225 853b 3fc8 d2bc 778a e43d
00000380: fe06 febd 7011 a7bd cda2 2ebe cd6e d6bd
00000390: 8c50 523d 70df a23d 3f72 973d 19b4 593d
000003a0: de8d 77bd 96c1 f83d 48e1 db3c 5165 d9bc
000003b0: c4c0 94bd c53f ac3d 0fb4 7cbe b6c7 f13c
000003c0: b6fe 873d dc93 7cbc 09e7 b1bd 669d 693d
000003d0: b264 b3bd 56eb 193e 869e 003e 000f 063d
000003e0: 552b 113e 3485 45bd 4f8e a7bd b1ad ce3d
000003f0: 70c7 6d3d e6b0 d13d f6b9 b2bd 3305 dbba
0.09723108 -0.047156047 -0.09368294 0.044594537 -0.10816229 -0.10099019 -9.4166375e-05 0.036228172
-0.027928142 0.1501607 -0.07303327 0.09804261 0.020438764 0.03633837 0.06363761 0.060034294
-0.08950207 0.01827737 0.19360264 -0.0568696 0.05461358 -0.031793125 -0.17193192 0.100135945
-0.023797207 -0.09489134 0.056746747 -0.12398142 -0.01934304 -0.046472203 0.013958888 -0.037694283
-0.020299751 0.10400848 -0.07539159 -0.08053088 0.0030013036 -0.15819985 -0.046311975 0.038610138
0.011372701 0.092900306 -0.17605631 0.14106387 0.10853805 -0.12336596 -0.054857932 -0.05271316
0.13567324 0.18817683 -0.06672393 0.094142735 -0.07397949 0.085218534 -0.001054786 -0.061075848
0.1318931 0.098933004 -0.1959591 0.19650169 0.07097937 0.031712346 0.0132791195 0.008506785
0.033358045 0.027121965 0.25545973 -0.019565066 0.029772952 -0.15220432 0.020492194 0.0897381
-0.05946314 -0.1568764 0.19265509 -0.021849709 -0.023741927 -0.038045585 -0.059670974 -0.08411516
0.026191803 0.027786992 -0.16329265 -0.057150096 0.025069091 0.15274759 -0.11567139 0.010407601
0.028360063 0.049186364 0.15549901 -0.20661564 0.0029623709 -0.120662995 -0.03892703 0.051220745
0.060845487 -0.083560474 0.17617626 -0.15773384 -0.025482368 0.082202934 0.06850308 -0.1824936
-0.0888834 0.09301516 -0.074394576 0.053537782 0.17790633 0.053335857 -0.046528634 0.11118979
0.08403945 0.0014682076 0.035186898 -0.10335702 0.09657596 -0.07882535 0.18963999 -0.051241882
0.071366884 -0.21545257 0.015236527 0.050425664 0.17419767 0.14250818 -0.07829514 0.062033292
-0.11179184 -0.07386718 0.123578995 -0.14008455 -0.00412256 0.073548794 0.0015127105 0.123909555
-0.12243047 -0.1032196 -0.059778158 0.0535266 0.08714301 0.052855752 0.17536612 -0.008989391
-0.015982447 -0.10436295 -0.040887073 0.0011067042 0.11217778 -0.092962496 0.08845094 0.039687622
0.06315792 -0.1627129 0.1332096 0.19074376 0.072054245 -0.12438992 0.032306276 0.01856574
-0.03462323 0.044367 -0.0019941488 0.14496627 -0.07869914 0.12673174 -0.07511709 -0.00293562
-0.087395445 0.09595916 0.06869339 0.1636089 -0.10363295 -0.19638094 -0.028130675 -0.0037609295
-0.031013194 0.118884355 0.011447338 0.042883907 0.11249509 -0.03793181 -0.011320938 -0.1200455
0.14117703 -0.15856634 0.057012614 0.030415395 0.058892675 0.037418094 -0.14855301 0.07449954
0.11067636 -0.0638512 -0.010483516 0.09236239 -0.12275654 0.06956999 0.098317936 -0.06977083
-0.0010859281 0.08669898 0.07651412 0.14076535 -0.08281053 0.07199707 -0.122504376 0.11669905
0.047037393 -0.01973006 -0.08199731 -0.050567873 -0.018277261 -0.06312684 -0.08285437 -0.18759169
-0.030819418 0.09126898 -0.04986081 0.038203638 0.10928911 0.0040633166 -0.02573025 0.111592226
-0.124036774 -0.08157623 -0.17054291 -0.10470352 0.051346347 0.079527736 0.073948376 0.05315027
-0.06043803 0.121462986 0.02684082 -0.02653757 -0.072633296 0.084106006 -0.24678062 0.029514175
0.06640379 -0.015416112 -0.086866446 0.057034872 -0.087594405 0.1503118 0.12560472 0.03272915
0.14176686 -0.048222736 -0.0818144 0.10091723 0.058051527 0.10238819 -0.087268755 -0.0016709924

layers_mu.1.bias f4 [100]
00000000: 86ad 44bd d700 3ebd 1a4a f1bc 9dbe 3bbd
00000010: a8ba 32bd ec16 f4bc 077b c0bc 8d6e edbc
00000020: 415e 46bd 037c 15bd 7df5 a2bc 58f3 36bd
00000030: ed22 2ebd 0d9e 10bd f666 4fbd 6061 41bd
00000040: 1531 44bd ffdd b8bc be3f 1abd e351 fcbc
00000050: d629 81bc d9c7 56bc 6218 f2bc 29b1 96bc
00000060: 5eeb 0fbd 98b4 f1bc 9d93 a2bc b186 d8bc
00000070: 16a0 86bc 7c79 97bc 601e 0fbd 888d 1bbd
00000080: 4077 59bd 7308 7fbd 846e 32bd 6659 abbc
00000090: a4ef 08bd bdd1 1bbd 9b75 f0bc cd9d a9bc
000000a0: 4b3e 63bc 8f99 f1bc 01a0 3fbd 49a8 61bd
000000b0: c681 e1bc a60e f0bc c0f5 d7bb 3bb6 0fbd
000000c0: 7afd 1cbd 8ad8 40bd fa5c d5bc 34b0 d7bc
000000d0: 930a e2bc e3ba c2bc ba2c 5cbc cb85 7fbc
000000e0: 046d 38bb ba7d 3cbd f596 c9bc 4b19 24bd
000000f0: f57e 2dbd 4f31 9abc e028 dabc 5bab c3bc
00000100: 9d24 a9bc 3d78 d1bc 54ed b7bc cacb 4dbd
00000110: cb55 ecbc 5e01 6bbd 6751 f6bc 3eb4 15bd
00000120: 731e 57bc 9be2 b8bc 036a 37bd 8816 caba
00000130: 75ab 2bbd 204d 39bd ff79 0bbd 24d1 25bc
00000140: d43a 10bd 0280 52bd 6621 38bd 151f 16bd
00000150: 61ab 2abd e49c 90bc 6eb1 23bd 3c4d 60bd
00000160: 43bc 2ebd d9ee 0fbd a2de b9bc 43d8 fcbc
00000170: 9970 64bc ce2e f6bc 58c6 07bd c03c 5abd
00000180: 0d85 4fbc 317c d7bc c1d7 c5bc 7e7d 14bd
-0.048017047 -0.04638752 -0.02945428 -0.04583608 -0.04363504 -0.029796086 -0.023496164 -0.028983379
-0.04842973 -0.03649522 -0.019892449 -0.044665664 -0.042513777 -0.03530698 -0.0506353 -0.047212005
-0.04789837 -0.022566793 -0.037658446 -0.030800765 -0.01576702 -0.013109171 -0.029552642 -0.018395023
-0.035136573 -0.02950506 -0.019845778 -0.026431413 -0.016433757 -0.018490545 -0.034941077 -0.03797677
-0.05309224 -0.062263917 -0.043562427 -0.020916652 -0.033431664 -0.03804182 -0.029352954 -0.020705128
-0.013869832 -0.029492168 -0.04678345 -0.05509213 -0.027527701 -0.02930386 -0.006590575 -0.035085898
-0.03832767 -0.047081508 -0.026045311 -0.026329137 -0.027592933 -0.023770755 -0.013438398 -0.015595864
-0.002814115 -0.04601834 -0.024608115 -0.040063184 -0.042357404 -0.01882234 -0.026630819 -0.02388542
-0.020647341 -0.02557003 -0.022452034 -0.050243177 -0.028849503 -0.05737435 -0.030068113 -0.036548845
-0.013129818 -0.022568991 -0.044778835 -0.0015418092 -0.04191156 -0.045239568 -0.03405189 -0.010120664
-0.035212353 -0.05139161 -0.044953726 -0.036650736 -0.041667346 -0.017652936 -0.039964132 -0.054761156
-0.04266001 -0.035139892 -0.022689167 -0.03086484 -0.013942861 -0.030051615 -0.03314814 -0.053280592
-0.012665999 -0.026304336 -0.024150731 -0.03625249

layers_mu.3.weight f4 [50, 100]
00000000: d9fb edbb 7d03 9bbe c39c 51be 4e0a 6a3e
00000010: 4acc 6a3d af44 a9be 6a4e ecbe e9be 55be
00000020: 6aeb 97be 8a0d 91bc 0c56 65be 2bd3 35be
00000030: f458 20be 540a 8b3d a2ad 003e df88 413c
00000040: 886d 6e3e d2cd 253e 728a 3fbe d0f9 963e
00000050: 1117 96be 3084 793e 52a3 d1be 6178 443e
00000060: be8d 7fbe a6dc 52be 520c e1bd 4364 893e
00000070: fa49 13bd 0ff7 b33e 66d4 79be b8ea 913e
00000080: f8da 483d dd1d 41bc 7916 de3d 8d08 27be
00000090: 9005 773a 439a efbc fa5b ab3e 3fb6 84bd
000000a0: 6d4f cb3d 3629 403e a758 f2bd 9535 593a
000000b0: 61ed 023e d667 5cbe b0df a13d 6fd3 603e
000000c0: 3e46 6fbd 615a 1abe 6a8c ca3e 4eef 9c3c
000000d0: 1905 5ebc 6847 193e 7698 0ebe 858a 8ebd
000000e0: 67fc 143e 0b9a 31be bdf2 44be 62f5 99be
000000f0: 1644 fb3c 7873 93be 323f 9c3e 606f 56be
00000100: 2ec2 8bbe 3f6a 043e 8e49 0bbd e794 143e
00000110: a85c 413e aa6f 1e3e 1db6 b1bd 196c 24be
00000120: 1eba e3bd 1258 b23c 860b 93bd c4a7 c23d
00000130: 7b39 bc3d 9332 c53e a1e3 aa3d 1d15 e63e
00000140: c9bd a6bd f6fe 1cbe 6475 273d e74b 043e
00000150: 09cf 1b3e 8fe7 953e 9255 543e cdfc 333e
00000160: bb9b c23d 55b9 023e c297 133e c060 c13d
00000170: 6a23 57be f694 66be a756 b6be 463a 3e3e
00000180: 9540 223e a9ca 50be e759 5e3e 42a6 2bbe
00000190: 8b6d a13e 72e6 bcbe 3074 46bd 1064 703e
000001a0: 9212 98be 82f5 a53e fbb9 a43e 3e35 863e
000001b0: 48bc e3bd 5d1a c13e e167 5ebe b1c1 243f
000001c0: d63f a93e 857a bebe c528 bf3c db1f 373d
000001d0: 5919 ebbe cee7 db3b 28d2 f7be 4654 fbbe
000001e0: 5d49 013e b975 ec3d 0d6a 07be 619c 50bd
000001f0: 8071 373c 2511 dabe 8e4f e0be 13c7 2bbe
00000200: c822 2dbf fc1f c0be 7a5e 9f3e f938 06bf
00000210: 1325 913e bce2 69be efb8 fcbd b08a 8dbd
00000220: c8c4 12bd 0066 c0bd 967b eebe 6e4d fc3d
00000230: d855 c23e 1150 b13d 1eaa 79be 3796 77be
00000240: f6d7 033e 6ec1 9abe 81b8 97bd c547 853e
00000250: 2893 75be 6a68 adbe 3025 b2bd da61 1cbe
00000260: ba35 62be 6569 0c3f 74db d23e 7c6b 7ebd
00000270: 1c53 b5bd 9a9d 4d3e e894 0fbf f183 d33d
00000280: 2c30 873e e953 963d 410a 67bd af2d 103d
00000290: bcba bebe f250 853e 7b77 ae3e 3da7 fe3e
000002a0: e3aa 16bf 3c1d aa3e d5cb 81be ee79 d13d
000002b0: 78f9 523e 524f e3bc 0400 2dbe ca5f c23e
000002c0: 1126 cc3d 1e31 a3be bbf6 553e 12e3 c63e
000002d0: cdb2 80be 8efd a7be ff06 963e 7cb2 0d3e
000002e0: 7e8a 643d 6ffa 803e 0442 ea3e 2de4 4d3e
000002f0: 5ad9 d0bd 66cb c93d 42d0 3b3e a951 37be
00000300: 9a2a a13e 061c 3d3e a0f6 ebbc 3876 a2bc
00000310: b17f 963e 0451 31be 212f 5e3d 0c73 553e
00000320: 2d02 7a3b 8ffe 87be a52f 273e 5af5 9e3e
00000330: 1afe 88be 6ff0 eb3d 60b2 913e 418e c2be
00000340: 02c8 363e 9dc8 20be 8e57 dbbe 04bb 873e
00000350: 065b 15be 0c61 8d3e fb3b 4c3e 432c db3e
00000360: f23a abbe 8b8b 9bbe ec2f 963d 35e0 913d
00000370: 4bea 4a3e a63c 883e 1ebc e1be 28cf cf3b
00000380: 24e6 003f 65a1 4e3e afd4 9e3e d6c9 49be
00000390: 95df 8cbe 8ac7 8fbe 7551 22bd 616d 86bd
000003a0: 1eb9 b9be c17f 2a3e aa0c c73e 9f20 8abe
000003b0: 2907 c83e a52f a53d dd76 88be b989 4abe
000003c0: 9105 d53d 1f06 053f b252 7ebe 3da0 adbd
000003d0: 3720 08be 1e0e ebbe 71a0 c3be 989c 913e
000003e0: 3f17 0cbe 00ec 093f b80e db3e 2218 d0be
000003f0: b375 153f 346e 9a3e 0da1 96be dac1 4ebd
-0.0072626886 -0.302761 -0.20469956 0.22855493 0.05732373 -0.33060214 -0.46153575 -0.20873608
-0.29671794 -0.017706651 -0.22396106 -0.17756335 -0.15658933 0.06789079 0.12566236 0.011812418
0.2328397 0.16191795 -0.18705156 0.29487467 -0.29314473 0.24366832 -0.40944916 0.19186546
-0.24956414 -0.20591983 -0.10988678 0.26834306 -0.03595922 0.35149428 -0.2439743 0.2849939
0.04903695 -0.011786905 0.1084413 -0.16311856 0.0009423131 -0.029248362 0.3346861 -0.06480073
0.09927259 0.1876572 -0.11833315 0.00082858774 0.12785865 -0.21523985 0.07903993 0.21955656
-0.058416598 -0.1507354 0.39560252 0.019157078 -0.01355102 0.14968646 -0.13925347 -0.06960014
0.14549409 -0.17343919 -0.19233222 -0.30070025 0.030672114 -0.28799033 0.30516964 -0.20940924
-0.27296585 0.12931155 -0.034005694 0.14509927 0.18883002 0.15472284 -0.086773135 -0.16056861
-0.111194834 0.02177051 -0.07179932 0.09504655 0.09190651 0.38515148 0.08344198 0.44937983
-0.081416674 -0.15331635 0.040883437 0.1291958 0.15215696 0.29278228 0.20735767 0.17576905
0.095023595 0.12766011 0.1441336 0.09442282 -0.21009603 -0.22517762 -0.35612985 0.18576917
0.15844949 -0.20389809 0.21713983 -0.16762641 0.31528887 -0.36894566 -0.04845065 0.23475671
-0.29701668 0.3241387 0.32173142 0.26212496 -0.11119896 0.37715426 -0.21719314 0.6435805
0.33056515 -0.3720285 0.02333487 0.044708114 -0.45917776 0.006710983 -0.48402524 -0.49087733
0.12625642 0.11545891 -0.13224049 -0.050930385 0.011196494 -0.42591205 -0.43810695 -0.1677516
-0.67631197 -0.37524402 0.31126767 -0.52430683 0.28348598 -0.22840399 -0.12339961 -0.06911218
-0.035832196 -0.09394455 -0.46578664 0.12319456 0.3795612 0.086578496 -0.24381301 -0.24178396
0.12875351 -0.302257 -0.07408238 0.26031318 -0.23981917 -0.33868724 -0.08698499 -0.15271702
-0.22090808 0.5484832 0.41183054 -0.062114224 -0.088537425 0.20079651 -0.5608659 0.103279
0.2640394 0.07340223 -0.056406263 0.035199817 -0.37251842 0.2603832 0.3407553 0.49736968
-0.588545 0.3322543 -0.25350824 0.10228334 0.20602977 -0.027747784 -0.16894537 0.37963706
0.09968198 -0.3187341 0.20894901 0.38845116 -0.25136414 -0.32810634 0.29302213 0.13837618
0.05579614 0.25191066 0.4575349 0.20106573 -0.101977065 0.09853248 0.18341163 -0.17902245
0.31477815 0.18467721 -0.028804123 -0.019831762 0.29394296 -0.17316061 0.054244164 0.20844668
0.003814827 -0.265614 0.16326769 0.31046563 -0.26756364 0.115204684 0.28456402 -0.37999156
0.17849734 -0.15701528 -0.42840236 0.2650987 -0.14585504 0.27613103 0.19944756 0.42807207
-0.3344341 -0.303799 0.07333359 0.07122842 0.19815938 0.2660877 -0.44088835 0.0063418336
0.50351167 0.20178755 0.3102164 -0.197059 -0.2751433 -0.28081924 -0.039628465 -0.06563831
-0.36274046 0.16650297 0.3887685 -0.26978013 0.39067963 0.08065728 -0.26653185 -0.197791
0.10401452 0.51962465 -0.24836233 -0.08477829 -0.13293539 -0.45909208 -0.38208345 0.28439784
-0.13680743 0.5387573 0.42784667 -0.40643412 0.5838272 0.30162203 -0.29419747 -0.05047784

layers_mu.3.bias f4 [50]
00000000: 5e26 2fbd a0d6 bb3d 59ac c1bd 2c8b 6c3d
00000010: 9bd8 2c3d 6b6c 85bd ecfa 42bd a86b 5fbd
00000020: 666e 983d 0c42 453d 3a43 a8bb 38a6 6b3c
00000030: d18f cabc cad8 d3bd b48c 913d 05f8 1e3d
00000040: 8518 143d 9d9c ca3b 902b 843c f6e9 22bd
00000050: 8ebd 993c 9ec1 1fbd b664 35bd 68ff 92bd
00000060: 6844 8dbd 6b27 a0bd e1c1 373d 1c0e f23c
00000070: fbc6 c4bc 4a83 e1bd f6b8 ef3d 9531 123d
00000080: 43c8 31bb 4e24 543c 2c80 ab3b c71a 64bd
00000090: b231 c53d 60cc e73c e038 e7bd 557d 59bd
000000a0: 3dea d93c db68 083d b9ef a83d 741b c4bd
000000b0: c3c7 923d 2dcb 81bd 09d0 66bd 54e0 54bd
000000c0: 4873 b43d d94f 543d
-0.0427612 0.09171796 -0.09456701 0.057749912 0.04219876 -0.0651482 -0.04760258 -0.05454603
0.07442932 0.04815869 -0.005134967 0.014382891 -0.02472678 -0.103440836 0.07106915 0.03881075
0.036156196 0.0061832205 0.016134053 -0.039773904 0.018767145 -0.039003007 -0.0442855 -0.07177621
-0.06897813 -0.078200184 0.04486263 0.029547743 -0.024020663 -0.110113695 0.117052004 0.035691816
-0.0027127422 0.012948109 0.005233785 -0.0556896 0.09628619 0.028295696 -0.11290145 -0.05309804
0.026600951 0.033303123 0.082488485 -0.09575549 0.07167008 -0.06337581 -0.05635074 -0.05197175
0.08811051 0.05183396

layers_sigma.0.weight f4 [100, 50]
00000000: 1bb4 5a3e eab9 0a3d 1741 8abc 8b33 53be
00000010: d16b 0f3e faec c6bd 7a2c 873c 8449 023e
00000020: 1b43 933c e5f3 cdbc b362 503e 6c95 713e
00000030: e471 57be 44f7 37be ba5a 9cbd 3cae 803e
00000040: c592 86bd 3769 db3d fa8d 05be f5f9 97bd
00000050: b656 603e fd0c b03d 5f42 98bd 29fc 86bc
00000060: d1e8 ad3e 98db 65bd c966 753d 748f 3f3d
00000070: e864 7cbe 53db 033e 8c92 573d 87c7 bd3d
00000080: 8245 17be 0a90 3a3e a5e0 b93d 5248 0cbe
00000090: 0349 5d3d e645 0ebd adf3 8e3d edaa 003d
000000a0: 831f 51bc ddc6 b43c d0db 973d d465 b2bd
000000b0: 16dc a23e 938a 13bc 55ec 963d 73a8 dd3d
000000c0: be2d 893e 24be 1e3e 5cc4 55bd dc21 2fbd
000000d0: 9c35 2c3e 3598 15be 2e86 33be a55c 883e
000000e0: bb6f 5f3c 1e31 363d 9163 9bbc 0e01 603b
000000f0: 5bcc 913e bd80 08be 3a53 49be a900 013d
00000100: 23f6 60be 32bb 1abe ae54 973b 523a 93bd
00000110: 0740 5c3d af23 00be cbdc 89bc 35d8 27be
00000120: b11c ec3a 95a1 09be e6b5 c23d 38bb 75bd
00000130: 46ef db3a 9140 883d 23ff 32be 0a70 d03d
00000140: a75e 0bbd 5a60 d23d 687c 4dbe 1b2d 1abe
00000150: 202d 06be 9bd9 823c 12ad 71bd 2c6f 4ebe
00000160: 2548 fb3e 4a94 4f3e 86ee 343e f846 273e
00000170: 808e 20be aa11 c33d 1800 8f3e ef9b 1d3e
00000180: f5ee 15bd 511f 463e 94c1 a2bd c6e1 bf3d
00000190: 0db2 8d3d d421 96bd 5f48 453e cfc3 923e
000001a0: abff 8c3e 9979 853e bbfb 5d3e 814d 8b3d
000001b0: cfd2 bb3d eec5 223e e9c7 5a3e d213 8e3e
000001c0: e435 523e f041 61be f032 afbe a6b9 f2bb
000001d0: d0c2 14be 1127 27bd 1592 cabd 400c 0dbd
000001e0: 5db6 153d 0b32 933d f12f 7c3c 8e3a 7b3e
000001f0: d6db 8dbd ad42 89bd 5a1e dbbd 820b c4bd
00000200: 8631 ef3d 710d 903e e4a3 f9bd 53b2 f63d
00000210: a198 693d f2c1 8abd ab70 383e 560f d2bd
00000220: 18c5 3c3e 30d1 d1be a289 e8bd 2bc6 823d
00000230: ac5c 17bd eeb0 f8bd 950d ecbd 8d93 603c
00000240: acc6 b93d 3547 64be 2e2b 983c 1c12 8cbe
00000250: 3a32 4dbe ff78 2e3e 5665 2abd 6d54 e53d
00000260: adbf 1bbd 95aa a73e c31c d2bc 7c45 c53e
00000270: 285c 6b3e 62fb dbbe 39fe b6be fce3 8abe
00000280: 9c1d e3be 56ad bbbd 1e16 bfbe 917c b3be
00000290: 8811 c33c b99b b0be baa3 d33e 11c8 5c3e
000002a0: 9073 cb3d ddc3 91be 113d 863e 899d 953e
000002b0: 67e7 90be 419b 3abe 92ff c63e c4f6 12be
000002c0: 3d16 afbd fd93 a63e 3285 ea3e 3c43 89be
000002d0: 9541 9f3c 2206 4fbe d576 b6be 61c2 023f
000002e0: 4615 863d eb5d 71be 07cc a3be 5ffa 003f
000002f0: 1074 28bd bc09 79be 150b c93e 5bde d0be
00000300: 53d9 89bd 1f70 193e d33c b33d a362 5d3e
00000310: be41 513e 46da 89be 9d67 71be f3a1 ecbd
00000320: 2248 833e 0278 df3d 7d68 b2bd 5414 ff3d
00000330: c378 6a3e f96e bdbd 9bb1 083e c99b 11be
00000340: d9d9 ae3e 5368 ce3c 74d1 163e 4389 c7bc
00000350: 9afc bc3c d016 96be 9946 10be 1aab 89bd
00000360: 83e1 08be 710e 55bc d2f3 773e 59a0 6abe
00000370: 32ae 81be 67eb 16bd 80ad 333e 2788 dabd
00000380: cd26 9b3d 789d eb3d 0292 073d de78 5abe
00000390: efd0 ff3c 4461 4f3e b14b 313e 8f4e a53d
000003a0: e8fd e1bd 9674 703c 095e 5e3e 705f 093d
000003b0: f936 063e c86f 2b3e 99c4 c93d 0fa7 f73c
000003c0: 0c2f 5b3d ba81 75bd 78f2 4c3d 4293 493e
000003d0: 509d 853e 370a f43d 8798 cb3d 5bae e93d
000003e0: 0b96 9f3e 8b0c 6d3e 5f35 2cbe b869 b0be
000003f0: 8ea5 fabd 6aa1 14be f914 6fbb 7ff6 58bc
0.21357767 0.033868708 -0.01687674 -0.20625131 0.14005972 -0.097131684 0.0165007 0.12723356
0.017976334 -0.025140712 0.20350151 0.23592156 -0.2103954 -0.17965418 -0.07634492 0.2513293
-0.06570963 0.107134275 -0.13042441 -0.074207224 0.21908078 0.08596227 -0.07434534 -0.016477661
0.33966687 -0.056117624 0.059912477 0.046767667 -0.24647868 0.12876634 0.052629992 0.092665724
-0.14772609 0.18219009 0.09076051 -0.13699463 0.054024708 -0.03473463 0.06980071 0.031413008
-0.012763861 0.022067482 0.07414973 -0.087108284 0.31808537 -0.009005207 0.073692955 0.10823145
0.2679271 0.1550222 -0.052189216 -0.0427569 0.16817325 -0.14608844 -0.17531654 0.26633182
0.013637478 0.044480436 -0.018968375 0.0034180316 0.28476223 -0.1333036 -0.19660655 0.03149477
-0.21968894 -0.15110472 0.004618249 -0.07188858 0.053772 -0.12513612 -0.016828915 -0.1639107
0.0018013922 -0.13440545 0.095073506 -0.059993 0.0016779683 0.0665294 -0.1748014 0.1017762
-0.034025814 0.10272284 -0.20066988 -0.15056269 -0.13103151 0.015972903 -0.059002943 -0.20159596
0.4907848 0.20271412 0.17669114 0.16335666 -0.1567936 0.095248535 0.2792976 0.15391515
-0.03660484 0.19347884 -0.07947078 0.09369235 0.06918726 -0.07330671 0.19265889 0.28665015
0.2753881 0.26069334 0.21678059 0.06801892 0.09171068 0.15895817 0.21365322 0.27749497
0.2052837 -0.2199781 -0.3421855 -0.007407385 -0.1452744 -0.04080874 -0.09891144 -0.03443551
0.03655087 0.07187279 0.0153922895 0.24534056 -0.06926696 -0.067021705 -0.106991485 -0.095725074
0.11679368 0.28135255 -0.12189463 0.120457314 0.057030324 -0.067752734 0.1801173 -0.10256831
0.1843456 -0.4097991 -0.113543764 0.06385454 -0.036953613 -0.12143122 -0.11526028 0.013707054
0.09071097 -0.22292788 0.018575277 -0.27357566 -0.20038691 0.17038344 -0.041600548 0.111977436
-0.038024593 0.3274733 -0.02564848 0.38529575 0.22984374 -0.42965227 -0.35740831 -0.27127063
-0.44358528 -0.091639206 -0.37321562 -0.35055974 0.02381207 -0.34493807 0.4133585 0.21560694
0.09934151 -0.28469744 0.26218465 0.29221752 -0.28301546 -0.18223287 0.3886686 -0.14351946
-0.085491635 0.3253478 0.45804745 -0.26809108 0.019440452 -0.20217183 -0.35637537 0.5107785
0.06547026 -0.23570983 -0.31991598 0.50382036 -0.04112631 -0.2432012 0.39266267 -0.40794644
-0.067309044 0.14984177 0.08751836 0.21619658 0.20435235 -0.26924342 -0.23574682 -0.11554327
0.2564097 0.109115615 -0.08711336 0.12455049 0.2289763 -0.09249682 0.13349001 -0.14219584
0.3415058 0.02519623 0.14728338 -0.024357444 0.023069669 -0.2931428 -0.14089431 -0.06722088
-0.13367276 -0.013003931 0.24214104 -0.2291273 -0.25328213 -0.03684559 0.17546654 -0.106705
0.0757576 0.11504644 0.03309823 -0.2133517 0.031227557 0.20251948 0.1731403 0.080716245
-0.11034757 0.014676234 0.21715559 0.033538282 0.13106908 0.1674186 0.09851951 0.030231027
0.053511664 -0.05993817 0.050035924 0.1968508 0.26096582 0.11916011 0.09941202 0.11410209
0.3116916 0.23149316 -0.16817234 -0.34455657 -0.12238608 -0.145147 -0.0036481007 -0.013242363

layers_sigma.0.bias f4 [100]
00000000: 3442 a73e 2f1a 833e 2e48 aabd d938 a1be
00000010: 4cb4 82be 85c5 38be a2eb 41be c6a5 54be
00000020: ad07 a6be 216e a23e 8cd0 8cbe c523 8d3e
00000030: 2ee4 8f3e 4ba5 273e da09 96be 3706 9fbe
00000040: ab61 28be 0061 4d3e d385 5a3e cd9a 89be
00000050: 584a 8d3e d564 473e 419e a43e 5b58 a5be
00000060: 246a 953e 5963 893e 710a 643e 3870 75be
00000070: 2cff adbe 0ee1 e0be 1e99 a8be 9700 84be
00000080: 9119 53be c6f8 6f3e dbe5 5cbe dc85 6bbe
00000090: 0181 6fbe c607 a03e 5755 2f3e 342c c439
000000a0: 17b9 7abe 55c4 7dbe 09a8 9a3e 1af8 91be
000000b0: 1d1d a6be a4d3 653e fb43 963e 0447 3b3e
000000c0: 221e 40be 14d3 0a3e e41b 57be 5087 85be
000000d0: c1dc 6ebe 6b65 18be 8509 79be 054e bebd
000000e0: d76b 983e 0ec5 a3be 1cbc a1be dfd1 463e
000000f0: 0b5c a03d 689e 373e ce03 93be e34a a33e
00000100: 6d88 8abc 2fbe 703e f679 68be bd17 a9be
00000110: 1499 94be a596 ff3d 4451 813e ec6d acbe
00000120: f870 7b3e 61b5 2c3e 6379 d9bd 73ba 94be
00000130: 28f1 1abd 9a0f 7e3e 2df2 b13e 8c40 88be
00000140: fb33 813e aec9 85be 3f90 86be 82bd b3be
00000150: bfc0 3e3e 73a6 d5be 0df9 a83e e73f 50be
00000160: 4c1e 58be 7367 9f3d 341b 4d3e d05f 983e
00000170: 1475 503e 8f97 5b3e 2058 413e 2387 973e
00000180: 695c 78be 8cd6 743e a9b2 9fbe c3a2 60be
0.32667696 0.25605914 -0.083145484 -0.31488684 -0.2552818 -0.18044098 -0.18937543 -0.20766363
-0.3242773 0.31724647 -0.2750286 0.27566352 0.28103775 0.16371648 -0.2930439 -0.3105943
-0.16443507 0.20056534 0.21340112 -0.26875916 0.27595782 0.19472058 0.32151988 -0.32293972
0.2918254 0.2683361 0.22269608 -0.2396859 -0.33983743 -0.43921703 -0.3292932 -0.257817
-0.20615222 0.23434743 -0.21572058 -0.23000282 -0.23389055 0.3125593 0.17122398 0.00037416967
-0.24484669 -0.24781926 0.30206326 -0.285096 -0.32444087 0.22444016 0.2934874 0.18288809
-0.18761495 0.13557082 -0.21006733 -0.26079798 -0.23326398 -0.14882438 -0.24320038 -0.09292225
0.29769775 -0.31986278 -0.3158883 0.19415997 0.07830056 0.17931521 -0.2871384 0.31893072
-0.016910756 0.2351005 -0.22702774 -0.33025923 -0.2902304 0.12479905 0.25257313 -0.33677614
0.24554813 0.16866066 -0.10618856 -0.290485 -0.03782764 0.24810639 0.34755078 -0.26611745
0.2523497 -0.26130432 -0.26281926 -0.3510552 0.18628214 -0.41728553 0.3300251 -0.20336877
-0.21105307 0.07783403 0.20029908 0.297606 0.20357162 0.21444534 0.18881273 0.2959529
-0.24254002 0.23909968 -0.31190994 -0.21937089

layers_sigma.1.weight f4 [100, 100]
00000000: 64f0 f3bd e5a1 97be ec5f d23d 0bf6 723c
00000010: 76aa ffbc e4fb 673c e693 3f3e 0fd5 613d
00000020: fca5 b03d 6e81 dfbd ce42 8a3e b39f 80bd
00000030: 28fe c4bd 81d5 8ebd 7e75 7d3e ba76 903d
00000040: 2ef6 df3c cdd1 6d3d dabf babd 6d10 113e
00000050: f5c7 84be e841 26be f1b9 1cbe 2d41 093e
00000060: a82b 07bc 95bb f6be 0ce9 4bbb 2465 293e
00000070: ec5d ff3c d837 b23e 670e a73e bde0 03bd
00000080: dbea f1bb f99e 47be b792 25be a85c 81bd
00000090: bc30 a13e d506 38be 3fb6 803d 379a 13bd
000000a0: 484d f93d abe8 913d cbf3 e2be 5700 553e
000000b0: d9fe 063f 3218 26be 489d 33be 3929 35be
000000c0: 7e22 343d a339 d23c 1c8c 9b3d 6403 e8bd
000000d0: 279f c43d 17d5 f93d b8d7 6b3e 439f 263e
000000e0: 36ad c4be 1d3d d33e 9142 0b3e f55f a43e
000000f0: 1237 dabd a51a b93d 4c61 abbd 34c3 63be
00000100: a8c4 0f3e 4398 933d a956 b43d 741d bd3c
00000110: f712 c63e 0366 ca3d 65d8 413d 3b0d 3e3d
00000120: b501 9ebe d3d0 1abe d1e4 3cbe a2b6 813e
00000130: 9c5a 99be 2293 f6bd ab5f 32be 10d5 b9bd
00000140: 5015 d6be c7aa 0d3e 5729 743d e544 423d
00000150: c33b b5be ded4 4f3d 7c80 22be e1c4 893d
00000160: 8e4b 313e 70bc 57bd 010d d23b f81f e03d
00000170: 2625 68be 9ef0 e5bd f875 9fbe 6975 8fbe
00000180: 5d91 013e 94af 613e 11e8 e5bb 5e0c 1a3e
00000190: 215e bd3e b6c5 0e3e a039 c3bd c0aa cf3a
000001a0: 069a e43d 19c6 d8bd b77f 76be b102 c2bd
000001b0: 0e20 2cbe 04b2 1dbd ddd4 473e e8c9 3b3e
000001c0: 6cb4 aeba 4a13 533e 377e e5bc 1f47 a6bd
000001d0: c90c 2f3e 6fc9 b5be 9ed7 adbd 5377 1e3e
000001e0: f107 4e3b 58f7 57bb 7cc5 063e de4e 95be
000001f0: 3fc4 313e 76bf 9f3c 6f3d 38be 1a45 913d
00000200: 0a5f 80be 1674 253e d61e 68be 86ab 9bbd
00000210: d8b7 8d3d c48f 52bd 5de0 2abd 70d6 d13b
00000220: a70a 883e ed7c 033f 16da 993e 85a4 923d
00000230: 94e0 1ebf fead 95be dc9f 153f b82a 83be
00000240: 64e9 34bd e2fe 7fbe 20dd 833e f482 acbe
00000250: a24c 9fbe f090 f03e d591 14be c434 013c
00000260: b83d afbc 1ed9 5e3e a9dd d13c 89f7 8c3e
00000270: 7246 a43c ffce 80bc bc54 003d 769e ec3d
00000280: f938 c13d a96d 95bd ba98 29be a2a2 413d
00000290: 9c87 dbbd 9244 febd b6bd 22be e0bd 303d
000002a0: b0d4 943c bab7 b23d fd13 8f3e f31e 75be
000002b0: 8f2d 093d bdb3 25be 48e0 3b3d 1f45 86be
000002c0: 2c7d 963d cc6c 8a3d 7604 3d3e 188f ef3d
000002d0: b257 393d b99c 78be 7403 0dbe 4624 0dbe
000002e0: 4208 433e 7ff8 3cbe 807c 25bb 5020 38be
000002f0: 38b9 2e3d eafc 15be f8a8 093f 6e0a e93c
00000300: 9990 973e b467 6bbd 7c0d 2c3e 5654 943d
00000310: aa0e 03be 2f95 0bbe e032 1dbe 8073 86b9
00000320: 6e29 60bc d3cd 6ebd 8c94 ecbc 9b81 223d
00000330: 7b65 333e 8b7e cc3d a9fb d23c 0d73 d63e
00000340: 7089 af3d 784e 54be c223 b33e 87b6 09bf
00000350: bb8f 41be 7511 75be cde1 213e 48d9 90bd
00000360: c487 f9bd 8d53 a1be 6bbb 32bd 2a8a a4bd
00000370: 269d 06bf 0ea9 a9bd b2f1 49be 872e e33c
00000380: 5fc8 1bbe a957 b1bd c904 573d b5de 0fbd
00000390: 42a8 293e 8ae3 ba3e ac1a c73d 6a52 23be
000003a0: c912 7abc ab9d 7b3e bc96 553e bed1 1b3f
000003b0: 71d4 6a3d 1421 ebbd 3d0f e0bd 63b5 66be
000003c0: caa4 273d fadb 5b3e 9051 543d dd00 813e
000003d0: 028b 263e cc6f e9be 4e8f 6cbd da05 393c
000003e0: 6c61 c33c 343d 2fbe 1cea a83d 9ef3 da3d
000003f0: 1cdd 423e 6a22 473d f9bd 93bd aaee cbbd
-0.11911085 -0.29615703 0.10272202 0.014829169 -0.031209212 0.0141591765 0.18708763 0.05513483
0.08625409 -0.10913359 0.27004093 -0.0628046 -0.09618789 -0.069743164 0.24751851 0.07053895
0.027339067 0.05806141 -0.09118624 0.14166422 -0.25933805 -0.16236079 -0.15305306 0.13403769
-0.008250155 -0.4818999 -0.0031114249 0.16542488 0.031172715 0.3480823 0.32628176 -0.03219675
-0.0073827333 -0.19494237 -0.16169249 -0.06316501 0.31482494 -0.17971356 0.06284761 -0.036035743
0.12172943 0.07124456 -0.44326624 0.20800911 0.52732617 -0.16220167 -0.17540467 -0.17691506
0.043978207 0.025662249 0.07595083 -0.11328772 0.096006684 0.12198847 0.23031509 0.16271691
-0.384134 0.41257563 0.13599612 0.3210446 -0.10655035 0.09038285 -0.08368167 -0.22242433
0.14039862 0.07206776 0.088055916 0.023085333 0.38686344 0.098827384 0.04732551 0.046399336
-0.30860677 -0.15118723 -0.18446662 0.2533465 -0.29951942 -0.12039782 -0.17419307 -0.090738416
-0.41813135 0.13834678 0.059609737 0.047428984 -0.35397157 0.050740115 -0.15869325 0.06727005
0.17313978 -0.052669942 0.0064102416 0.109435976 -0.22670421 -0.11227535 -0.3114469 -0.28019264
0.12653108 0.22039634 -0.00701619 0.1504378 0.36985877 0.13942608 -0.095324755 0.0015843734
0.1116219 -0.10584659 -0.24072157 -0.094731696 -0.16809103 -0.038499847 0.19514795 0.1833874
-0.0013328916 0.20612827 -0.028014285 -0.08119034 0.17094721 -0.35505244 -0.08488391 0.15475206
0.003143784 -0.0032953825 0.13161272 -0.29161733 0.17360018 0.019500475 -0.17992185 0.07093258
-0.2507251 0.16157565 -0.22668013 -0.07601075 0.06919831 -0.051406637 -0.041717876 0.006403737
0.26570627 0.51362497 0.300492 0.07160286 -0.6206143 -0.29234308 0.5844705 -0.2561853
-0.04416789 -0.24999574 0.25754642 -0.3369366 -0.31113154 0.4698558 -0.14508756 0.007886115
-0.021391734 0.21762511 0.025618391 0.27532604 0.020053122 -0.015723703 0.03133081 0.115536615
0.09434695 -0.07296307 -0.16562167 0.04727424 -0.10719225 -0.124154225 -0.15892681 0.04314983
0.018167824 0.08726449 0.27944937 -0.23937587 0.033490714 -0.16181846 0.04586819 -0.2622461
0.073480934 0.067590326 0.18458733 0.11697215 0.04524965 -0.24278535 -0.13770849 -0.13783368
0.19046119 -0.18454169 -0.002525121 -0.17981076 0.042657107 -0.1464726 0.5377345 0.028447356
0.29602507 -0.057471946 0.16802019 0.07242648 -0.12798563 -0.13631128 -0.15351439 -0.00025644526
-0.013681753 -0.058301758 -0.028879426 0.039674383 0.1751918 0.09985074 0.025754767 0.41884652
0.08571136 -0.20733058 0.3498822 -0.5379414 -0.18902485 -0.2393244 0.15808792 -0.07072693
-0.12184098 -0.31509057 -0.043635767 -0.08034165 -0.5258354 -0.08284198 -0.19721106 0.027732147
-0.15213154 -0.08659298 0.052494798 -0.0351245 0.16568092 0.36501724 0.09721884 -0.15949407
-0.015263268 0.24571864 0.20858282 0.60866916 0.057331506 -0.114809185 -0.109404065 -0.22530131
0.04092864 0.21470633 0.051835597 0.2519597 0.16263965 -0.45593107 -0.057753853 0.011292899
0.023850165 -0.17113191 0.08247778 0.106909975 0.19029659 0.048616804 -0.07213969 -0.09957631

layers_sigma.1.bias f4 [100]
00000000: 9ebf 2fbe c483 623e 3adf e7bd 6249 383e
00000010: 2656 e63d d028 81bd 449f 293e f70d 393c
00000020: d76b 8e3d 58bb 2c3e 3564 ccbd 8de4 17be
00000030: ee97 dbbd 2c82 f43d 682f 2cbe f87a 5c3e
00000040: 1856 8d3e 658d 793e 3bd0 b2bd e61f 11be
00000050: ae7f e4bd 50ce 00be 6e3e f1bd d525 49be
00000060: 632b 3abe 661f bcbd fb2f 893e c291 10be
00000070: 01fa 42be 7a0d 3bbe afb6 e6bc 48a6 12bd
00000080: a6f0 2dbe 12f0 c3bd 527a 11be 2a92 2a3e
00000090: e806 c8bd 5789 4e3e 562c f33d 7f94 3b3e
000000a0: 1a32 433e f165 133e 7250 9ebc 0666 043e
000000b0: f4b2 28be de28 803e b176 6c3d 8e3b 883e
000000c0: 72f4 283e 3f24 3e3e c49f 493e 0f53 033d
000000d0: 2efc 72be 3e29 ba3d 6bfa 883e 3164 913e
000000e0: 5376 863e b4d5 0bbe b1c2 06be 4069 523e
000000f0: 1f8e b7bd f064 25be 41ca 323d 935e 173d
00000100: e1e4 4abe 565c 72be 9a95 163e 0132 41be
00000110: 76f9 183e aac8 43be c624 30be 3e07 5a3d
00000120: d1b6 013e 2f35 853e baaf 343e a247 11be
00000130: 232f 313e 7c9e 28be 5bd3 253d 114c f9bd
00000140: 5f70 bc3d 39ad 3cbe d5f9 923d 0e8b 443e
00000150: 99f2 833e 9075 0fbe 8ea4 22be 4cee e03c
00000160: 9744 583e 7e14 5e3e 1f4c 4abe 5f1f 1b3e
00000170: f4ce e4bd 3fa3 133e f211 133e 3b55 1b3e
00000180: d52a 813e 8efd 0abe 40db bdbd 13f6 733e
-0.1716294 0.22120577 -0.11321874 0.17996743 0.112469 -0.063066125 0.16564661 0.011294833
0.069541626 0.16868341 -0.099800505 -0.14833279 -0.10722338 0.11938891 -0.16814959 0.21531284
0.27604747 0.24370344 -0.08731123 -0.14172325 -0.111571655 -0.12578702 -0.11779486 -0.19643338
-0.18180613 -0.09185676 0.2679442 -0.14118102 -0.19040681 -0.1826686 -0.028163282 -0.03580311
-0.16986331 -0.09567274 -0.14206818 0.1665732 -0.09766942 0.20169578 0.11873691 0.18318366
0.19062081 0.14394356 -0.019325469 0.12929544 -0.16474515 0.2503118 0.05773038 0.26607937
0.16499498 0.18568514 0.19689852 0.032061633 -0.23729011 0.090898976 0.26753554 0.28396752
0.2626215 -0.1365574 -0.13160206 0.20547962 -0.08962654 -0.16151786 0.043649916 0.036955427
-0.19813873 -0.23668036 0.14705506 -0.18866731 0.14938912 -0.19119516 -0.17201528 0.053229563
0.12667395 0.26017138 0.1764516 -0.14187482 0.17303137 -0.16466707 0.040484767 -0.12172712
0.092011206 -0.18425454 0.07176558 0.1919367 0.25771025 -0.1400969 -0.15883085 0.027457379
0.21119915 0.21687505 -0.197556 0.15148686 -0.11172286 0.14417742 0.14362314 0.15169232
0.2522799 -0.13573286 -0.09270334 0.23824339

layers_sigma.3.weight f4 [50, 100]
00000000: a2ae 7bbd 5476 47bd 38ba 753c 7345 b3bc
00000010: ed6f 3dbd 1d7b 4bbd dc9e 07be 77f8 7bbd
00000020: 9db1 2abe 2076 9fbd a30c e7bc 953c 1c3d
00000030: 0dbe cfbd 53ef 16bd d272 f2bd 060c 85bd
00000040: a3f7 ffbd c5bd 3abd 8368 f9bd 96f8 95bd
00000050: 71ee 1cbc 8191 5e3c 6f15 353d c17d cabc
00000060: f356 63bd 4700 3fbd 1137 cfbd 9a13 f2bd
00000070: 4b93 84bd b684 3a3d bb33 c43c 290c 55bc
00000080: 0de9 dd3d aa14 c7bd e613 49bd 22f2 363b
00000090: 7c82 573c f5c3 a1bc d638 c4bd 8127 cfbd
000000a0: f042 aabd 850f 0dbe b0cc 0bbe 9e3e 9dbd
000000b0: 3999 96bd c617 bcbd 3fa1 d6bd 3c42 57bc
000000c0: 107e 69bd 8938 b6bd 37f0 0dbd 77d2 ffbd
000000d0: 999f 8abb 680a e1bc 93fb c1bd 07cc 61bb
000000e0: 32a3 58bb cddd ddbd 838d 893d 6aa7 84bd
000000f0: 3cd2 86bc c55d 163d a22e afbd 0b13 07be
00000100: a094 39be 8629 cdbd 4136 fabd 13fb 00be
00000110: 0350 4fbd e840 823c 2e2e ff3c 96c3 85ba
00000120: cc84 53bd 11e3 05be 303e 79bd 2dec 903c
00000130: 255c 1fbe ae86 4ebd 4f37 dfbd 6553 3dbd
00000140: f6a2 30bd 5972 c7bd 4447 bebd 4528 0abd
00000150: aba8 8ebc c757 ff3b b2f9 30bd a726 a4bd
00000160: 57ba 54bd f7bd 11be 384e b9bc 454f 0abe
00000170: 18de e93c 683c 87bd 9cd2 ddbd f642 b1bd
00000180: adec 02be 5956 9f3c b9cd 053d eb96 55bd
00000190: 81a6 28be cec7 7bbc e498 4e3e f088 77be
000001a0: 9883 1ebe 36d6 8cbd bcf4 b63c 709c 50be
000001b0: ffb3 e4bd 36eb a2bd 6103 00be d6ba a2be
000001c0: 5a2d 453d 8553 03be cceb 9abd e30b 21be
000001d0: fe43 e93d 957d 7ebe ee43 2fbc c405 27be
000001e0: ac03 4abe 5972 c33d fd15 5dbe 7371 c0be
000001f0: 9450 4dbe 8928 0cbe f83b f6bd f4d3 563e
00000200: 0d77 163d a231 453e 11e7 c83d 37dc da3d
00000210: de7e 4d3d d46f c4bd 1895 473e 0924 8abd
00000220: b0fc 94be 8388 29bc 769f e9bd 21ac f4bd
00000230: 8e8f dfbd 2b12 ffbd 204c 46be 91b8 f2bd
00000240: 7e03 64bd 7e1e 823b dda5 93bd 4074 afbd
00000250: b0a6 183e 8ad7 083c 8db8 e6bd 17d3 0f3e
00000260: 44b5 45bd 1059 86bd cf08 933d aea1 4abd
00000270: 4718 3fbe df18 57bd 233f 29be fd73 20be
00000280: f3b2 0f3e 11dc 1a3e eb2e 44bd 1c12 c63a
00000290: be42 813e 5b3c 803d 992f 44be eba2 903d
000002a0: c9aa 2fbd 0717 813b ffbc b13e cf15 d5bd
000002b0: f76e 1cbd 1062 01be 5e26 f9bd 530a 92bd
000002c0: 31fd 893d 8b72 acba 8ba1 17be 99df 1abe
000002d0: e02d cd3d 0267 283c 152d 7bbd 13e4 0ebe
000002e0: c0b4 07bd 7bcf 3b3e dd34 d6bd 9953 823d
000002f0: a986 58be ddf5 b83c 08d9 29bd aeb8 d83c
00000300: 115b dabd ef4b 46be bb77 3ebe 2e77 89be
00000310: 2d0f 46be 16b2 06be 699a b0bd 2fb8 733d
00000320: c591 cabc 3943 103e 2bea fa3d 410d 0cbe
00000330: f4d8 f7bb beb7 80be d844 9dbd c4b6 f7bd
00000340: aace 9abd 2470 c7bd 91c8 c13c 35f4 25be
00000350: fdb7 c13d 9ec1 febd 6d8c 853d feb8 e3bd
00000360: 8346 fcbd b0ea 72be 9548 e7bc e0d2 77bd
00000370: be71 0fbe 8dfe 1e3d dff9 053e 4bd6 43be
00000380: a87d 17be d43d 94bb e68d a1bd 99f5 8f3d
00000390: e05c 783d f11d e33d 14a7 443e 9215 18bd
000003a0: 2099 363e e24c 98bd a6b8 233c 05ec c6bd
000003b0: 2665 4f3b 1301 d33b a881 4dbc f9e7 abbd
000003c0: 74c8 29bc 378c adbd e2bb e4ba dbe0 58bc
000003d0: c1ee b2bd 453a 0fbe b030 a73b d062 dfbc
000003e0: bebc aebc 5182 ccbd bc99 a33d 7687 31be
000003f0: 8730 09bd 20fa 81be f372 1e3d 723a 09be
-0.06144584 -0.04869683 0.014998011 -0.021883702 -0.04624932 -0.049677957 -0.13244194 -0.06151625
-0.16669317 -0.077862024 -0.028204268 0.038143713 -0.10143671 -0.03684933 -0.118383065 -0.06496434
-0.12498405 -0.045591135 -0.12178137 -0.07322805 -0.009578333 0.0135844955 0.044209894 -0.024718167
-0.055502843 -0.046631124 -0.10117925 -0.11820145 -0.064734064 0.04553672 0.023950448 -0.0130033875
0.108354665 -0.09720738 -0.049091242 0.0027915318 0.0131536685 -0.01974676 -0.09581153 -0.10114957
-0.083135486 -0.13775451 -0.13652301 -0.07677959 -0.07353444 -0.09184222 -0.10479974 -0.01313835
-0.05700499 -0.08897502 -0.034652915 -0.12491315 -0.0042304513 -0.027470782 -0.09471812 -0.0034453885
-0.0033056256 -0.10833321 0.06716444 -0.06477244 -0.01645767 0.03671052 -0.085538164 -0.13190858
-0.18123102 -0.100176856 -0.12217379 -0.12595777 -0.050613414 0.01590009 0.03114995 -0.0010205384
-0.051640317 -0.130749 -0.060850322 0.017690742 -0.15562494 -0.05042141 -0.10899221 -0.04622211
-0.04312416 -0.09738607 -0.092909366 -0.03372981 -0.017414412 0.0077924463 -0.043206878 -0.08015185
-0.05193552 -0.14232622 -0.022620305 -0.13506801 0.028548285 -0.066033185 -0.10831186 -0.0865535
-0.12785597 0.019450353 0.032666896 -0.05214588 -0.16469766 -0.015367461 0.2017551 -0.24173331
-0.15479887 -0.06876795 0.022333495 -0.20372176 -0.11167144 -0.07955019 -0.12501289 -0.3178317
0.048138954 -0.12824829 -0.07564506 -0.1572719 0.113899216 -0.24852593 -0.010697348 -0.16310793
-0.19727963 0.095432945 -0.21590419 -0.37586555 -0.2005027 -0.13687338 -0.12023157 0.20979291
0.03673463 0.19257215 0.098096974 0.10686534 0.050169818 -0.09591642 0.19490469 -0.067451544
-0.29099035 -0.010347488 -0.11407368 -0.119468935 -0.10916053 -0.12454637 -0.19364977 -0.118516095
-0.055667393 0.00397092 -0.0720937 -0.08567095 0.14907336 0.00835217 -0.11265669 0.14045368
-0.04826857 -0.06559956 0.071794145 -0.049470596 -0.18661605 -0.052513953 -0.16527991 -0.15669246
0.14033107 0.15123011 -0.047896307 0.0015111598 0.25246233 0.06261512 -0.19158782 0.07062324
-0.042887483 0.0039395127 0.34714505 -0.1040455 -0.03819176 -0.12635064 -0.12165521 -0.071308754
0.067377456 -0.0013156695 -0.14807718 -0.15124358 0.100185156 0.010278465 -0.06132229 -0.13954191
-0.03313136 0.18340866 -0.104593016 0.06363601 -0.21145119 0.022578174 -0.041466743 0.02645525
-0.10661901 -0.19364904 -0.18600361 -0.2684874 -0.19341727 -0.13153872 -0.086232014 0.059501823
-0.024727711 0.14088143 0.12251695 -0.13676931 -0.0075637046 -0.25140184 -0.076791465 -0.12095407
-0.07558949 -0.09738186 0.023655208 -0.16206439 0.09458921 -0.12439273 0.06520925 -0.11119269
-0.123181365 -0.23722339 -0.028232852 -0.06050384 -0.14008233 0.038816977 0.130836 -0.19124715
-0.14794028 -0.004523972 -0.07888393 0.07029266 0.060635448 0.11089695 0.1920436 -0.037129946
0.1783185 -0.07436539 0.009992754 -0.09712986 0.0031645983 0.006439337 -0.0125431195 -0.08393855
-0.010362733 -0.084740095 -0.0017451013 -0.0132372035 -0.08736945 -0.13987072 0.0051022395 -0.027268797
-0.021330234 -0.099857934 0.07988307 -0.1733683 -0.033493545 -0.25386143 0.038683843 -0.13401201

layers_sigma.3.bias f4 [50]
00000000: 6585 68bd f4bb 12be 0c35 a3bd c237 5a3d
00000010: 6537 cabc 117a 843c 8add 86bd b30c 6ebd
00000020: bac4 26bd 1daa f63c c82c dabd b613 e63c
00000030: 8cb3 613a 99f7 84bd 731e 193c 074d d2bd
00000040: b148 1bbd 411d 883d 604d 4e3d 210e a03d
00000050: a8a4 25bd 3bd9 0c3d 249d 313d 9aff e13c
00000060: 27e7 9dbd b321 92bd c815 bdbd aa04 12bd
00000070: 48be e4bd 808a 1bbd 6e08 0cbe e504 b5bc
00000080: d76d 4cbd e073 043d 8b56 a5bd 9ad3 ffbd
00000090: 6643 b43b fc7b cc3c dcc1 c9bd e889 42bc
000000a0: 5470 8bbb 79d8 b4bd ffb0 8dbd d3f7 0d3d
000000b0: ef00 963c 69d5 a83c a25f 6cbc 2396 9cbd
000000c0: 994c 583d 4f18 99bd
-0.05676784 -0.14329511 -0.07969102 0.05327583 -0.024684617 0.016171487 -0.06585224 -0.05811758
-0.040714957 0.030110413 -0.106530726 0.02808557 0.00086098234 -0.06492538 0.009345639 -0.10268598
-0.03791112 0.06646205 0.05036676 0.07815195 -0.04044023 0.034386855 0.04336275 0.0275877
-0.077101044 -0.07135334 -0.0923267 -0.03564898 -0.11169106 -0.03797388 -0.1367509 -0.02209706
-0.04990944 0.03233707 -0.080731474 -0.12491532 0.0055011986 0.024961464 -0.09851429 -0.0118737
-0.004255334 -0.088303514 -0.06918525 0.03466017 0.018310992 0.020609574 -0.0144270975 -0.07645824
0.052807424 -0.074753396
