feed_forward/saved_models/model.pt (torch, 215789 bytes, 40 tensors)

layers_mu.0.weight f4 [50, 50]
00000000: a695 c63d f07f 39bd 39dc e53c 8c27 a13c
00000010: 8c2d 23bd 1289 ba3d 0689 043e fd44 c33d
00000020: 8643 04be 2f1d d33d 9cc9 d63d 060c 03bd
00000030: 4a63 ad3d 56e5 fbbc c330 dfbd bf42 c9bd
00000040: eddf e9bc e6ac 953d a63a cbbb 5785 54bd
00000050: 7595 e13d 7ca5 5b3d 2a82 883d 5ed5 e8bd
00000060: 61e6 083c 34f5 033e 8754 69bc c720 97bd
00000070: e03b 1fba cb2b dcbc 628f c43d c301 a53d
00000080: cd27 3c3d 02aa dbbc 4c53 f7bd 70d8 883c
00000090: 5778 e6bd 93f1 89bc c6c9 e8bc 7f8d ab3d
000000a0: b9eb 123e 12b6 793c 2385 f63d 1a3e 953d
000000b0: dd0c f0bd 0ba9 e13c c397 053e 8327 803d
000000c0: 0d13 f9bd dc90 07be e786 d1bc ac7b a23d
000000d0: f45b 9e39 3ac8 17bd 1370 d7bd 0740 d93c
000000e0: f0cb 193e 3125 cebd e674 013e 280f f23d
000000f0: 8274 f53d 1992 9e3d f3fb 1dbd d2d1 653d
00000100: 0384 8fbd c094 103d faa1 593d a44b e93d
00000110: 6696 b1bd 85ae dabd 96ab bfbb a539 4fbd
00000120: d5f4 92bd 712b 1ebe 17bc 03be 9e99 cf3d
00000130: 1d03 f23d fdc5 d0bd 94b0 31bd 0bb0 373d
00000140: 1dc0 803d 5bf9 7c3d 5fbb 2fbe 4ef1 dc3d
00000150: 71de 26bd 8699 3abc 3e7e c83d 65cf 893d
00000160: 3bfc 023e bd48 863c 1157 c33d 92ac 64bd
00000170: 4784 99bc 8920 bb3d 543a 86bc 6422 8d3c
00000180: 1bb8 43bd 1618 edbd 61c5 edbd c318 e63d
00000190: ea91 36bd 6ad6 9bbd dcdc 99bd 6ac8 c73d
000001a0: b53d 1abb 265b 373b cdde 8ebd 7d6e 64bd
000001b0: 6ba9 bbbd 632e 413d fc29 bbbd 8c3b 553c
000001c0: 1e6c 35bc c231 e0bb 4154 e43c 1730 22bd
000001d0: 74b2 91bd 5539 dbbb f9ab 823d 6162 19be
000001e0: 7e73 763c 9095 acbd 0bae 033d 1367 e2bd
000001f0: de3c ea3d eb46 c13d 9908 9cbd e933 803c
00000200: 22a8 f3bd e11d 483d 9ce3 c43d cece 25bc
00000210: 1ca3 9d3d 4c1b acbd 1496 20bd 9178 813d
00000220: ea61 7ebd f20e dcbc 6bd4 e23d 74d7 6e3d
00000230: f788 b53d 102f d2ba 41c0 163e 04f9 e93d
00000240: 554a 9f3d 8c40 603d 0e1e d0bd 1dd6 aabd
00000250: dbc7 3dbc 771c 163d 8a35 ce3d bc6c ff3d
00000260: 6da0 90bd cbc8 e03d 3bc1 863d b544 97bd
00000270: 1467 09be cf45 183d 5742 44bc 58fe dc3c
00000280: fe23 d63d 8cad 8dbd 861f 1abc 7752 8f3c
00000290: 08fc a63a 9947 a3bd b5bf b2bd 5379 09be
000002a0: 71a1 09bc 9728 0f3e 9ab4 f5bd 43ab fb3c
000002b0: b692 ec3c 4b42 663d 59cf 02bd db3b 983d
000002c0: fb92 12be 4e18 de3d 3dff eb3d ed82 f23d
000002d0: d733 873d 01ca 123d 82ec fabd 69b4 babd
000002e0: 3a19 ccbd ad08 abbd 8fff bfbd 3298 b33d
000002f0: 7dad 423d abd6 9ebd 9c00 803b 2d77 a9bc
00000300: 777f 9cbc dc71 d43d e442 ab3d 3576 d9bd
00000310: c54b d63d 9970 87bd 85a7 9ebd 5659 d53d
00000320: c4d1 fbbd e18a d1bc 3440 c5b9 57eb fdbd
00000330: a5c4 e73d f7b1 c73d 2add bdbd 4a59 e93a
00000340: 47c4 9b3c c500 513d c73b 2f3d 0872 51bc
00000350: 8035 c43d 0f41 8d3b beb0 fd3c d780 aebd
00000360: 3597 a2bd 183d 783c 61fb dfbd ac80 04bc
00000370: 41b9 ef3c b42b d4bd b53b eebd 29f9 033e
00000380: fb7e 58bd 872a 91bd 9f97 64bd eb36 97bd
00000390: d133 0abe 4884 7cbc bb56 8bbd 2a1e 77bc
000003a0: c204 813d c230 c3bc e126 eb3d b0e8 0abe
000003b0: 2dcb 093e be11 cf3d 1182 13bc 5b01 dd3d
000003c0: c1c4 d03d 4382 9d3c 2f54 fc3c 3c7c bfbc
000003d0: d972 f03b 11f0 343c d2fe 54bd 9014 0c3d
000003e0: a0e8 82bd 50cc 173d 31d6 b73c b045 ccbd
000003f0: d716 a13d 6635 763d d9a8 9f3d 4f7a f7bd
0.09696512 -0.045288026 0.028059112 0.019672178 -0.03983836 0.09108175 0.12942895 0.09534643
-0.12916383 0.10308301 0.10487673 -0.03199389 0.084662035 -0.030749004 -0.108979724 -0.09827184
-0.028549159 0.073083684 -0.00620206 -0.051884975 0.11014835 0.053624615 0.06665452 -0.113688216
0.008355708 0.12886506 -0.014241344 -0.07379299 -0.0006074291 -0.02687635 0.095976606 0.08056977
0.045936394 -0.026814464 -0.120764345 0.016704768 -0.11253422 -0.016838824 -0.028416526 0.083765976
0.14347734 0.015241163 0.120371126 0.072872356 -0.117212035 0.027546426 0.13046174 0.06257536
-0.12161837 -0.13238853 -0.025577022 0.07933745 0.0003020462 -0.037056185 -0.10519423 0.026519788
0.15019202 -0.100656874 0.1264225 0.11819297 0.11985113 0.0774271 -0.038570356 0.056108303
-0.07007601 0.03529811 0.05313299 0.113913804 -0.08671264 -0.10677818 -0.005849312 -0.050592083
-0.07175604 -0.15446259 -0.1286472 0.10136722 0.11817 -0.10194013 -0.04338129 0.044845622
0.06286643 0.06176124 -0.1716132 0.10788213 -0.04073948 -0.011389142 0.09789704 0.067290105
0.12791531 0.016392106 0.09538091 -0.05582864 -0.018739833 0.09137065 -0.016385235 0.017228313
-0.047783 -0.1157686 -0.11609913 0.11235192 -0.04457275 -0.076092556 -0.07512829 0.09755023
-0.0023535315 0.0027977913 -0.069760896 -0.055769432 -0.09163173 0.04716338 -0.09138867 0.013014685
-0.01107314 -0.006841869 0.027872207 -0.039596643 -0.07114115 -0.006690184 0.063804574 -0.14978935
0.015042184 -0.08426964 0.032148402 -0.11054816 0.11437391 0.09437355 -0.076188274 0.015649753
-0.11897303 0.04885662 0.096137255 -0.010120107 0.07697126 -0.08403644 -0.039205626 0.06321824
-0.062105097 -0.026862595 0.11075672 0.05831094 0.088640146 -0.0016035754 0.14721777 0.11424449
0.077778496 0.054749057 -0.101619825 -0.0834162 -0.011583294 0.03664824 0.100688055 0.12471911
-0.07061849 0.10975798 0.065798245 -0.07386152 -0.13418227 0.03717595 -0.011978707 0.02697675
0.10456084 -0.06917867 -0.00940693 0.017495377 0.0012739906 -0.079726405 -0.087279715 -0.13425188
-0.008400307 0.13980328 -0.11997338 0.030721312 0.028878551 0.056215566 -0.031936023 0.074332915
-0.14313881 0.108444795 0.11523292 0.11841378 0.066016845 0.035837177 -0.122521415 -0.09116442
-0.09965749 -0.08351264 -0.09374916 0.08769263 0.047528733 -0.077557884 0.0039063226 -0.02068671
-0.019103749 0.103732795 0.08362368 -0.10618249 0.10463671 -0.06613273 -0.077467956 0.1041743
-0.12295869 -0.025578918 -0.00037622603 -0.12398403 0.11316804 0.09750741 -0.09270699 0.00178031
0.01901449 0.051026125 0.042781617 -0.012783535 0.09580517 0.004310734 0.030968066 -0.08520668
-0.07938997 0.015151285 -0.109366186 -0.008087318 0.02926314 -0.10359898 -0.11632482 0.12888016
-0.052855473 -0.070881896 -0.05580866 -0.07383522 -0.13496329 -0.015412398 -0.06803652 -0.015082875
0.062997356 -0.02382696 0.11482025 -0.13565326 0.13456412 0.10110806 -0.009003178 0.10791274
0.10193778 0.019227153 0.03080186 -0.02337467 0.0073379097 0.011043564 -0.052000828 0.034199297
-0.06392026 0.037060082 0.022441002 -0.09974229 0.078656845 0.06010952 0.07795877 -0.120838754

layers_mu.0.bias f4 [50]
00000000: 68ab 3cbe 21b5 71be e5a3 6e3e bed3 82be
00000010: 864a 933e 9cac 783e 1af1 2fbe 7985 4b3e
00000020: 2e35 36be 4838 863e a7c6 323e 4864 81be
00000030: 5061 09be 5bd1 83be d4e8 143e 9414 8cbe
00000040: 57d0 a0be f5b2 543e 1a89 88be 22ee 853e
00000050: 7168 823e 298e 623e c41f 383e a188 5bbe
00000060: 5ece 42be ffe6 2ebe 7df7 3d3e ef51 7b3e
00000070: faf4 333e bf6a 883e 7206 90be ec67 0a3e
00000080: f87f 973e cfd6 42be 952e 43be be04 0abe
00000090: c845 5ebe 10e8 8a3e aaf3 8cbe ffcc 86be
000000a0: 14cb 85bd 48c2 3cbe e662 4ebe 3e3d 943e
000000b0: c873 313e e5b4 9b3e 1642 6abe e42a 4bbe
000000c0: 3743 90be 3bd6 523e
-0.18424761 -0.23604251 0.23304708 -0.2555217 0.28767794 0.24284595 -0.17181817 0.19875135
-0.17793724 0.26214814 0.17458592 -0.2527182 -0.13416028 -0.25745663 0.14541942 -0.2735945
-0.3140895 0.20771392 -0.266671 0.26158243 0.25470307 0.22124542 0.17980868 -0.21438839
-0.19024035 -0.17080306 0.1855144 0.24542974 0.1757392 0.2664394 -0.28129917 0.13516206
0.2958982 -0.19027255 -0.19060738 -0.13478372 -0.21706307 0.27130175 -0.2752965 -0.26328275
-0.06532875 -0.18433487 -0.20154914 0.28952974 0.17329323 0.3041145 -0.22876772 -0.1984058
-0.2817628 0.20589535

layers_mu.1.weight f4 [50, 50]
00000000: 2d2c 3fbe d685 9a3c f2e1 353d ad41 aebd
00000010: 0fb8 a43d f874 203e 5b57 20be 467a 933d
00000020: d3d3 86be b630 833d 5b07 263e cd1d e7bd
00000030: bee3 fabc 7cbe 0fbd a45f 103e b5f7 8abe
00000040: 8397 81be a8a4 2c3d 626f 7dbe a0d8 353e
00000050: fa3b 263e e1c7 913e 988e cb3d a3da 0ebd
00000060: 6bed 09be b924 223d 0d76 0d3d 605d 623e
00000070: a311 df3d 8ec7 fc3c 687c bfbd 459c 51bd
00000080: 052c 733e a82d 0fbe 5b6b 27be 0adf 91bd
00000090: 4959 3cbe 2dba 733e 2aef 52bc 46e1 c2bd
000000a0: 1370 87bd d831 33be 20c7 2cbd eab2 b43d
000000b0: 762c 95bb eebe 733e 05c3 7bbe b99e c3bd
000000c0: 46a2 13be 785c 6b3e 9e01 86be eec6 3cbe
000000d0: 4191 29bc f1c2 0cbe 20b7 463a 5536 6d3e
000000e0: 3eab e7bc 84da 633e 972f 5abd b8ae a93d
000000f0: 61e5 103e fb40 e2bd 3611 0ebe 6818 0dbe
00000100: 5dce 603d f53e 8bbe fb72 f4bd 5cea 323d
00000110: 22fc 17be 3977 e03d cf1c 083e ae2d 493e
00000120: 16bc 4a3e 73f8 853c 4d9e 35be ba43 e03c
00000130: 073b 303e 3ef9 6b3e 0ab9 5e3e 08fc 5f3e
00000140: 607e d9bd 169f 0c3e 817e f23d 503a 1dbe
00000150: 6ae7 72be c35c 81bd fa7c 6cbc 5518 4e3d
00000160: 598a 83be 82b3 0fbd 703d 703a fea3 bb3b
00000170: d869 64be e455 3f3e b0fd 9d3d 981f 123d
00000180: e936 83bd 3ced 33be a519 3fbe da2f 1e3e
00000190: ad91 493b 34b6 b53d befb 8bbc 29fe 0e3e
000001a0: b342 2bbe 8869 64bc 080f 34bd 034d 29be
000001b0: f00c d83d b328 523c eaab 85bc 8974 193d
000001c0: ee4a a33c 7f85 ab3d e64b 64bd 5aca 343b
000001d0: 88f3 393e a14a 54be de81 1b3e 17b3 30be
000001e0: 55c0 57be 098c 04be db5e 3abe 07ca 193d
000001f0: 1d31 e13d 8abc acbd 13a9 643d 7bfd 5abd
00000200: 66e8 ff3c 43ae 03be 621c 0b3d bd7a cfbd
00000210: 0284 f4bd 1103 863d 630a b83d 5c05 f0bd
00000220: 3638 103e fefc eabd 7e62 283e 142d 0d3d
00000230: 267d 93bd c02a 71bd 01d7 1f3e 68ef 20be
00000240: 21c0 18be acf8 51be f43e 1c3e 77f6 e33c
00000250: ed88 0b3e 56c5 35be 628a 6ebe aae8 7dbe
00000260: 258f 6f3e 9a6e 59bd 3ac6 5b3e f8db 993d
00000270: 657d 4bbe 66a2 eb3c 7e11 f5bd f421 7c3d
00000280: 036a e63c f400 8cbe 09a1 27be eba9 73be
00000290: 7ca3 7e3c c096 df39 5615 02be 276d 783e
000002a0: 9cc0 dbbd ea34 3e3e 41b1 823e 7e08 2f3d
000002b0: 676d 4b3e feb6 903c 475e 11be 9f97 2fbe
000002c0: 0a95 033d 6b14 863e d346 6e3e 44cd 473e
000002d0: f7a8 35be b65f dd3c 7dc2 603d a9c4 e6bd
000002e0: fe9c eebd ef66 9fbd ff34 15bd 63d3 6a3e
000002f0: 47d5 95be 3d07 183c 4369 713d d69e 8dba
00000300: 0462 cfba 5c04 183e 24ae 723e 0a0f 563e
00000310: 96a0 02be d871 1bbe 54e3 ecbd c49c bd3d
00000320: 0375 3f3e 8a70 e4bb c1d6 b0bd 350c 613e
00000330: 7662 2ebd c83a cdbc a718 a33d 4257 7bbd
00000340: d4a9 413e 8001 d6bd 86bf 3cbe 7450 a6bc
00000350: f46c d03d a5af 853e 67c9 cbbd 1c4e 5f3e
00000360: 5f62 c93d e52c bebc 15b5 563e fa55 7bbe
00000370: 331b 04be b685 2fbe 6621 09be c891 073e
00000380: 33e3 113e 6ae0 273e 6959 1bbe 4cc9 01bd
00000390: 809e 29be e823 9dbd c954 593e fbac 18bd
000003a0: 873b 44be 5bde 203e 9fc3 663e b97a 31bd
000003b0: 7fd2 2b3e 9a84 3fbe a66c 443c 612e 0f3e
000003c0: 4eba e53d 6f90 94bd 02d8 ea3b 4dd5 7cbe
000003d0: 44d1 c4bc 75d7 83be a07e cb3d 4d85 80bd
000003e0: a52b 243e cddb e5bd 1c49 543d 59c1 683e
000003f0: 63a8 f9bd a746 b2bc c9cc 4cbd ec11 96bc
-0.18669195 0.018862646 0.04440493 -0.085086204 0.08042919 0.1566962 -0.15658323 0.07201056
-0.26333484 0.06405775 0.16213743 -0.11284981 -0.030626174 -0.03509377 0.14098984 -0.2714211
-0.25310907 0.042149216 -0.2474952 0.17758417 0.16233817 0.28472808 0.09939307 -0.034876477
-0.13469474 0.039585803 0.03453641 0.22105932 0.10892036 0.030856874 -0.093499005 -0.05117442
0.23747261 -0.1398226 -0.16349547 -0.071226195 -0.18393435 0.23801489 -0.012874404 -0.09515624
-0.06613173 -0.17499483 -0.042182088 0.08823188 -0.0045524193 0.23803303 -0.24586113 -0.09551758
-0.14417371 0.22984493 -0.2617311 -0.1843526 -0.010349573 -0.13746239 0.00075803883 0.23165257
-0.028279897 0.22251326 -0.05326804 0.08285278 0.14150001 -0.1104755 -0.13873753 -0.13778841
0.054884303 -0.2719647 -0.11935993 0.043680534 -0.14842275 0.1096024 0.1329224 0.19646332
0.19798312 0.016353821 -0.17736168 0.027376045 0.17210017 0.23044297 0.21750274 0.21873486
-0.10619807 0.13732561 0.11840535 -0.15354276 -0.2372109 -0.06316521 -0.014434094 0.050316174
-0.25691488 -0.0350833 0.00091644283 0.0057263365 -0.22306001 0.18685108 0.07714403 0.03567466
-0.06406958 -0.17570966 -0.18662126 0.15447941 0.0030756996 0.08872643 -0.017087813 0.13964142
-0.16724662 -0.013941176 -0.043959647 -0.16533284 0.10549343 0.012827086 -0.016317327 0.037464652
0.01993319 0.08375072 -0.055736445 0.0027586431 0.18159306 -0.20731594 0.15186259 -0.17255817
-0.21069463 -0.12944044 -0.18200247 0.037546184 0.10995696 -0.084343985 0.055825304 -0.053464394
0.031238746 -0.12859444 0.033962615 -0.10130832 -0.11939241 0.065435536 0.08986356 -0.11719772
0.14083943 -0.11474036 0.16443822 0.034466818 -0.072016045 -0.05887866 0.15609361 -0.15716326
-0.14917041 -0.20505017 0.1525839 0.027827485 0.13626452 -0.17751059 -0.23294976 -0.24795786
0.23394449 -0.053083993 0.21462336 0.07512659 -0.19872053 0.028763961 -0.11966227 0.061555818
0.028126722 -0.27344477 -0.16370024 -0.23795287 0.015541907 0.00042646192 -0.12703452 0.24260388
-0.10730097 0.18574873 0.2552586 0.04273271 0.19865952 0.017665382 -0.1419612 -0.17147683
0.032124557 0.26187453 0.23269205 0.19511896 -0.17740236 0.027023178 0.05487298 -0.11267979
-0.11651038 -0.07783305 -0.036427494 0.229322 -0.2926428 0.0092790695 0.058938276 -0.0010804783
-0.0015822058 0.14845413 0.23699242 0.20904174 -0.12756571 -0.15180147 -0.11566797 0.09258416
0.1869698 -0.0069714235 -0.08634711 0.21977313 -0.04257437 -0.025052443 0.079636864 -0.061362512
0.1891244 -0.10449505 -0.18432435 -0.020302035 0.10177031 0.2611057 -0.09950524 0.2180714
0.09833216 -0.023214767 0.20967515 -0.24544516 -0.12901 -0.1714085 -0.13391647 0.13239205
0.14246826 0.16394201 -0.15170826 -0.031686112 -0.16564369 -0.07672864 0.21223749 -0.037274342
-0.19163333 0.15709822 0.22535561 -0.043329928 0.16779517 -0.18702927 0.011988794 0.13982536
0.112171754 -0.07254111 0.0071668634 -0.24690743 -0.024025567 -0.25750318 0.09936261 -0.06275425
0.16032274 -0.11223564 0.051827535 0.22730006 -0.1219032 -0.021762205 -0.049999986 -0.018319093

layers_mu.1.bias f4 [50]
00000000: fcb4 7e3e e908 753e 30d6 94bd 8c9e 873e
00000010: e68c 61be a262 69be 703a 803e f00f 9a3e
00000020: 2cb0 e73d b68f 713e 2b94 c33d f600 1cbe
00000030: 393a 053e cdef 7cbe cb5d 623e 96c6 463e
00000040: 6030 47be 0179 88be ad35 683e 0f71 0e3e
00000050: 3711 ed3c 527c 31be 88c8 753e 9380 893e
00000060: 8b4e 293e da9b f93d 2519 16be 9ae0 4cbe
00000070: 9dd6 2d3e fba8 36be dbfd 65be 0b6a 803e
00000080: cb3c 863e 985b 2bbe a8aa 1abe 4b05 4ebd
00000090: 44e2 113e b926 083e 246b 673e b866 7ebe
000000a0: c94a 96bd 5e6c 473e 5131 66be 644b 163e
000000b0: 2ce9 7fbe fa56 b53d 9ae0 3ebe 3e7b 4c3e
000000c0: 9aad 70be afbd 4bbe
0.24873728 0.2392918 -0.072674155 0.2648815 -0.22026405 -0.22791532 0.25044584 0.30090284
0.11312899 0.23589978 0.09549745 -0.15234742 0.13010491 -0.24700852 0.22106092 0.19411692
-0.19452047 -0.2665482 0.22676726 0.13910316 0.028938873 -0.1733258 0.24002278 0.26855907
0.16533868 0.121879295 -0.1465803 -0.20007554 0.169764 -0.17837898 -0.2246012 0.25080904
0.26218256 -0.16734159 -0.15104163 -0.050298017 0.1424647 0.13296022 0.22599465 -0.24843872
-0.07338483 0.19474933 -0.2247975 0.14677197 -0.24991292 0.0885448 -0.18640366 0.19968888
-0.23503724 -0.19896577

layers_mu.3.weight f4 [50, 50]
00000000: 3d03 f33d 67ab e23d 4668 68be f866 7dbd
00000010: 99f1 e9bd f5c7 4bbd 0453 833e 486a 313d
00000020: af89 e13d 3f48 113e 1877 8d3d 4726 c8bd
00000030: 7f15 c23d 9365 85bd fa8b a9bd a1d0 0c3e
00000040: ee3b 58be 704d 373d 1e8b 313e 89a5 d53d
00000050: e06b 363e 5ff0 b13d fab4 2d3e 7993 003e
00000060: 7a39 053e 8cab 063d 6d63 42be cd01 9fbd
00000070: 85ad cb3c ac2d b9bd 9355 943d 5dda b13d
00000080: e4f3 da3d 9b3f f53c a4af a03c 8577 a6bd
00000090: 9e88 7f3e 9d4b ca3c 72cf fc3d 9af9 02be
000000a0: c561 093c ccd9 d13d 3ec1 cc3b 9d4d 763e
000000b0: 5f0b 19be 0d99 463e 5015 62be 0f2c b23d
000000c0: 0091 57be edd0 ba3c a6e6 083d d047 a53d
000000d0: 53d4 29be 10b4 f23d 07ee 92be 81b2 b5bd
000000e0: 3cfa 743d eb4d f53d 59d2 503e 260a 9f3c
000000f0: b32a a03e 1a07 2dbe 23c3 8a3e 24f0 dfbd
00000100: 25b7 953d cc84 6d3e 4a87 a0bd e2e0 37be
00000110: 3f45 e03d 1639 0d3e ebd9 3d3e 90b5 c8bd
00000120: d244 873e bca4 f83d de58 163e 451d c83d
00000130: 1d23 7dbe d904 bebd a97a edbb eb21 64bd
00000140: 8dba 67be dc75 fdbc e068 663e 9728 0cbd
00000150: a0b2 06bd 2a7c 8abd 193a 7a3d b26a 8e3e
00000160: dd69 a53d de29 5cbe c295 25be 3394 833e
00000170: 1ca4 27be 23e6 133e e4c8 8cbe 7929 1f3e
00000180: 0e1c 6cbe bb3b 963c dc89 1fbe 3e57 99be
00000190: 8123 963e 17b5 af3d 7285 48bd f637 283d
000001a0: d890 93be 230b 4abe 078e 593e dc9a 073d
000001b0: f78d 923d f1cc 783e 81e1 993e 987f 90be
000001c0: d234 c13c f7d4 3dbe 0d39 703e 5d48 4f3d
000001d0: 145e 61be 4f26 26be 36fa 1dbc c7c2 123e
000001e0: 755e 393e 0098 7fbe 80a4 e73d dc95 3e3e
000001f0: bd58 943e ca4a 5e3e 3542 fabd ce18 11bd
00000200: d1a8 4d3e 2eb7 23be e7de 6bbe 7d1d 443e
00000210: a5f7 8a3e f300 c7bd 64c0 bdbd 058f 24be
00000220: d4d1 d83d 6844 533e 90a5 f03d 5c68 15be
00000230: d651 20be 4000 5b3d dec8 b1bc 2d9b d13c
00000240: 3130 aebd 7374 0a3e 0da8 89be 2eb5 273d
00000250: 9816 0ebe 7e4c 26be 2bd1 143e 0367 7b3e
00000260: 4f62 83be f783 1c3e b9ff 39be d963 a0bd
00000270: 7190 613e 3bd2 b43d 8ab6 633e eeed 913d
00000280: 5f5b 433e 2747 1bbe 3329 2a3e 6e85 8dbe
00000290: 1b21 133e c1f3 553d 7afa 0dbd 9ffb 26be
000002a0: b344 683e e361 743e ff46 443e c29b 63bd
000002b0: 740d 5d3e d154 fe3d 379b 7e3e 5bfd 433e
000002c0: 56a4 e9bd a571 55be 7089 663e 3570 39be
000002d0: 476f 83be 1ca4 00bc 79d4 943e 52e0 3cbe
000002e0: 40c2 a1bc 0bcb 1abd 620c 503e 5b73 b63d
000002f0: 3474 833e 17aa 40be d04f 9539 cec4 913d
00000300: 1310 93bc 1216 183b c88f 35be d46f 9e3e
00000310: b698 72be f859 af3d 8ae6 8a3a fa24 1dbe
00000320: aa7e 613e 6d65 823e e5ec 59be 32ad 8c3d
00000330: 0f11 91bc 6ec2 ccbd 867a 413e 1909 213d
00000340: 064f 5e3e d11f 273e 509e 3b3e ca4d 71be
00000350: 0e9f 983e ac26 aabd 5cd1 813d 18bc 4d3e
00000360: 13c8 1ebe 8f09 15be 162d 6a3e 06b0 303e
00000370: 2135 3f3e feb8 5ebd b4db dd3d 6bdd 4e3d
00000380: bacf 3b3e 4bd1 c83d 9f88 63bd c04b 4cbd
00000390: aed1 6f3e 35e5 5bbe f637 19be dfc7 be3d
000003a0: 5423 793d ceac edbd b349 f8bd d547 82be
000003b0: 2d08 8f3e c0d7 753b 2ea2 5c3d 31ca 1abe
000003c0: 3c58 e4bd 3681 803e 5ec7 1ebe 29a2 df3c
000003d0: f8c6 bfbd b2c6 803e ba49 08be 821a 8c3e
000003e0: 41d9 8ebe 1323 74be 3b95 25bd 25dc 6c3e
000003f0: c9fa b0bd 4e48 423d 5c3b 8dbe c5ac 81bd
0.11865852 0.11067849 -0.22696027 -0.061865777 -0.11423034 -0.04975124 0.25649273 0.04331425
0.11012589 0.14187716 0.06907481 -0.09772926 0.09476756 -0.06513514 -0.082786515 0.1375146
-0.21116611 0.044751585 0.17338225 0.10431964 0.17814589 0.08688425 0.16963568 0.12556256
0.13010207 0.032878444 -0.1898324 -0.07764015 0.024863014 -0.09041914 0.072428845 0.086842276
0.1069105 0.029937556 0.019615002 -0.08128265 0.24954459 0.024694258 0.123442546 -0.12790528
0.0083851265 0.102466196 0.006248622 0.24053045 -0.14945744 0.19394322 -0.22078443 0.0869981
-0.21051407 0.022804702 0.03342309 0.08070338 -0.16584902 0.118507504 -0.28697225 -0.088719375
0.059808955 0.11977752 0.20392741 0.019414019 0.31282577 -0.1689724 0.27102003 -0.10934475
0.07310323 0.23195189 -0.07838304 -0.1795688 0.10950708 0.13791308 0.1854016 -0.09800255
0.26419693 0.121407956 0.14682338 0.09771208 -0.24720426 -0.09278268 -0.0072472882 -0.05569641
-0.22629757 -0.030939989 0.22500944 -0.034218397 -0.032885194 -0.06761964 0.061090562 0.27815777
0.080768324 -0.21500346 -0.1617041 0.25699005 -0.16371197 0.14443259 -0.27497017 0.15543164
-0.23057577 0.018339029 -0.15579933 -0.29949373 0.29323962 0.08579462 -0.04895539 0.041068994
-0.28821445 -0.19730811 0.21245585 0.03310667 0.07155984 0.24296929 0.30054858 -0.28222346
0.023584757 -0.18538271 0.23459263 0.05060612 -0.22008544 -0.16225551 -0.0096421745 0.14332114
0.18102439 -0.24960327 0.11310673 0.18611854 0.28973952 0.21708217 -0.12219659 -0.035424046
0.2008393 -0.15987846 -0.23034249 0.19151874 0.27142063 -0.09716978 -0.09265211 -0.16070183
0.105868965 0.20631564 0.117503285 -0.14590591 -0.15656218 0.053467035 -0.021702226 0.025586689
-0.085052855 0.13520984 -0.26886025 0.04094427 -0.13875806 -0.16240117 0.14532916 0.24551015
-0.2566094 0.15284716 -0.18163957 -0.078315444 0.22027756 0.08829161 0.22237602 0.071254596
0.19077824 -0.15163861 0.16617279 -0.2764086 0.14368097 0.052234415 -0.0346627 -0.16306923
0.22682457 0.23865466 0.19167708 -0.055568464 0.21587163 0.12418521 0.24863897 0.19139616
-0.11408298 -0.20844133 0.22513366 -0.1810921 -0.25670835 -0.007851627 0.29068354 -0.18444946
-0.019745946 -0.037791293 0.20317224 0.08908721 0.25674593 -0.18814884 0.0002847896 0.07117616
-0.017952 0.0023206514 -0.1773063 0.30944693 -0.23691067 0.08562082 0.001059727 -0.15346137
0.22020975 0.25468007 -0.21281774 0.06868972 -0.01770833 -0.09998022 0.18894395 0.039315317
0.21709833 0.16320731 0.1832211 -0.2356483 0.2980885 -0.08308157 0.0633876 0.20091283
-0.1550601 -0.14554428 0.22868761 0.17254648 0.18672611 -0.05437564 0.10832921 0.05050413
0.1834096 0.098055445 -0.055550214 -0.04987693 0.2341983 -0.21474154 -0.14962754 0.09315466
0.060824707 -0.116052255 -0.12123432 -0.25445428 0.27935925 0.003751263 0.053865604 -0.15116192
-0.11149642 0.2509858 -0.1550574 0.027299004 -0.09364122 0.25151592 -0.13309374 0.27363974
-0.27900127 -0.23841505 -0.04042552 0.23130853 -0.086415835 0.047432236 -0.2758435 -0.06331781

layers_mu.3.bias f4 [50]
00000000: b99d f33d 86e4 793e 5339 eb3d 4af7 e23d
00000010: 01b9 3e3e 3f50 363e 9958 2a3e c8ca 7f3d
00000020: 29ee 4c3e a2c7 b4bd 7344 783e 4238 333e
00000030: 2e42 2cbd 72be b73d cc79 eabc 7cbf 433e
00000040: e237 e03d ee3c cabd 4909 af3d 5490 733e
00000050: 8f04 46bd bdc3 52be 6199 343e 0c23 733e
00000060: be65 58be 033d 45be e0b9 cbbd 7b3d 4e3e
00000070: 07eb 6c3e e3e5 3e3e c5ce 823e bcbd 033e
00000080: 8d12 733e ebd1 0abe ef56 3a3e 9f77 313e
00000090: e454 82be c42c 51be 6833 bb3d d093 2e3e
000000a0: 5578 343e 8957 1a3e 04a9 543e d1f7 473e
000000b0: b124 ac3d 4c8f 593e 7e6a 45be d589 1dbe
000000c0: 96e1 89be 8377 82bd
0.118953176 0.24403581 0.11485543 0.11082323 0.18625261 0.17804049 0.1663536 0.062449247
0.20012726 -0.088271394 0.24244861 0.1750193 -0.0420553 0.089718714 -0.02862253 0.19116014
0.10948159 -0.09874903 0.08546693 0.23785526 -0.04834419 -0.2058248 0.17636634 0.23743838
-0.21132562 -0.19261555 -0.09947562 0.2014064 0.23136531 0.18642382 0.25548378 0.12865347
0.23737545 -0.1355664 0.18197225 0.17330788 -0.2545539 -0.20427233 0.09140664 0.17048573
0.17624028 0.15072455 0.207676 0.19528128 0.08405436 0.2124607 -0.19278905 -0.1538461
-0.2692992 -0.06370451

layers_mu.5.weight f4 [50, 50]
00000000: 423b 693d 5177 bc3d 1621 953e b341 243e
00000010: 5757 073e 7577 6a3e a25b 293e 1aa6 923e
00000020: 0250 693e e018 62bd 713b 9a3e e605 f63d
00000030: df1d 76be 5517 8f3e 56e2 19be 6847 913d
00000040: 3434 933e 0924 0bbe ce10 293e abe8 7a3e
00000050: a713 cbbd 61a4 91be 8eed 9a3e 70c7 13ba
00000060: c2d2 81be dd1a 3ebe 5542 86be ad88 1d3e
00000070: 9b03 873e 82d7 893e f65c 933d 80bd 563e
00000080: 354b 8c3e 1288 7abe 9263 a53e cae3 1d3e
00000090: ac9c f0bd 2493 2fbe 4760 723e a624 563e
000000a0: 47ea 7b3c b7d9 373e 73e5 373d b5fc 913d
000000b0: 91df 503d f819 8e3e 1bfe 97be a0cb 94be
000000c0: f0d9 13be d7bb 69be f178 82bc 5255 f63d
000000d0: ae32 8c3e c3d2 483d 64ac 6d3e 849e 913e
000000e0: 84a9 843e dbec 543e 99a1 493e bf70 e6bd
000000f0: ff3b 403e e271 483e 7804 26bd 0f26 763e
00000100: aa36 a5bd b72e 883e 1451 613e 9232 95be
00000110: 6948 093e 7c0c 2b3e 3c38 62be 1719 69be
00000120: 653d 023e 46f2 3d3e 3c5f 87be 61a5 d3bd
00000130: ff25 8fbe c13f 5c3e fadf a23e aa9b 563e
00000140: 213a 463e 30ca b33c 595c a73e e653 71be
00000150: 8c7d e63d 3c02 643e 98fe 41be 97a1 93bd
00000160: a1cd c63d 6e9a 613e 5a6c 7a3c aa11 513e
00000170: fdc6 123e 3661 943d 1c33 813d c45a 833e
00000180: 5669 3dbe 7642 6dbe 111f 06be cce4 4cbe
00000190: 703b cd3b d9c5 d4bd 528f d8bd 961f 9dbe
000001a0: e2c9 a6be 43bc 80be 98a8 55bd efd2 90be
000001b0: 9168 81be 6dc9 063e 610d 02be 7bc2 cfbd
000001c0: 9c5d dc3d 2fd6 94be 0800 083e e60f 94be
000001d0: 707b 4abe 20b5 b23d e778 29be bee6 9cbe
000001e0: 58e4 a23e 1db1 383e 67db 12be 389f 50be
000001f0: fbc5 953e 8b5c b03d 6009 5c3d 7b92 9cbe
00000200: 0031 3dbe 34db 41be f89c a6be 5167 87be
00000210: 0ced 3abe 76b4 4d3e 8b41 55be 8245 78be
00000220: 52bb c13d feac 8b3e 7719 98bd 8273 9fbd
00000230: 96cc 6bbe 0291 ccbd 6076 7dbe 545b 78bd
00000240: 67b6 15be a2ee a0be 5c00 853e 6c52 2f3e
00000250: 7370 823d 1eac 7d3d 0034 3a3e 4700 083e
00000260: a027 9d3d eca7 ab3e 300a 793e 7179 dc3d
00000270: e5f8 1b3e 196a 1a3d 90a3 293e 8694 73bc
00000280: 5f45 e83d 80d5 963e 635f 0bbe cc89 4e3e
00000290: 5cdf c8ba 1a67 9a3e a44e 763e b513 c6bd
000002a0: d641 4f3e 614d 1b3e a77e 3bbe f373 10be
000002b0: 6caa 813e fdae 943e a46d a1be c64f 34be
000002c0: ba63 8abe 61df 6d3e 0fb7 2a3e 5881 8f3d
000002d0: d1aa 783d 1a62 783e 357d c83d c7c7 2dbe
000002e0: 568e 933e ce3b 053e 301d 4dbe 4cc1 75be
000002f0: 0d9c 003e 62e6 993e d030 a63e c707 a53e
00000300: 84ef 3a3e b7b0 c53d be6f 603e 3206 713e
00000310: 10b6 dabd 2d7b 19be 7f4b 7cbe ef99 8abe
00000320: 1587 503e 6241 703e a9aa b43d 77a2 c93d
00000330: ddd6 a63e c77b ab3e 5eac 403e 2c92 8d3e
00000340: be74 923d 3467 53be 032f 913d 3d36 8c3d
00000350: ffc5 e0bd eddc a43e 4cc8 4bbe c88a 2c3d
00000360: dbb3 393e 83c5 39be cb4e 1b3e 1432 d43d
00000370: e3b9 28be d9ad 8dbe ae6c 0a3e 1190 433e
00000380: c11e 8abe ac55 cfbd 08dd 86be 0ce6 6e3e
00000390: 98fa 853e 992b 833e 641f 833e 9c4b 813e
000003a0: 5a84 143e 7aa4 21be bce7 793d f3ec 393d
000003b0: bd27 eebd 3bfe 98be 46a0 523e 9420 823e
000003c0: 7140 8b3e bdd5 683e 6784 d23d c568 533e
000003d0: a08e 123d 7421 d93d 677b 85be eb58 e9bd
000003e0: 71ab 9fbe 2a12 9fbc c88a ccbd 0b32 94be
000003f0: 25ad a1be 7450 0fbe f9bf 71be 0835 edbd
0.05694128 0.09202445 0.29126805 0.16040687 0.13216911 0.22897132 0.16538861 0.2864235
0.22784427 -0.055199504 0.30123475 0.12012844 -0.24034832 0.27947488 -0.15027747 0.07093698
0.28750765 -0.13587965 0.16510317 0.24502818 -0.09915858 -0.28445724 0.30259365 -0.00056373235
-0.25356108 -0.18564935 -0.26222482 0.15384169 0.26369938 0.26922232 0.07195465 0.20970726
0.27401128 -0.24465969 0.3230253 0.15418926 -0.11748633 -0.17145973 0.2366954 0.20912418
0.01537568 0.17954145 0.044896554 0.07128278 0.05099446 0.27754188 -0.29686055 -0.29061604
-0.14438605 -0.22825561 -0.01592681 0.12027992 0.27382416 0.049029123 0.23210293 0.2844125
0.2591058 0.20793478 0.19690551 -0.11251973 0.18772887 0.19574693 -0.040531605 0.24037956
-0.08067067 0.2659814 0.22003585 -0.29140145 0.13406529 0.16703981 -0.22091764 -0.22763477
0.12718733 0.18549451 -0.26439846 -0.10334278 -0.27958676 0.21508695 0.31811506 0.20957819
0.19358112 0.021946996 0.32687643 -0.23567161 0.11254415 0.22266477 -0.18944776 -0.07208555
0.09707189 0.22031567 0.015284622 0.20416895 0.1433372 0.07245104 0.063085765 0.25655186
-0.18497214 -0.23169884 -0.13097788 -0.20009154 0.006263189 -0.10389299 -0.10574211 -0.3068816
-0.325759 -0.25143632 -0.052162737 -0.2828593 -0.2527509 0.13162775 -0.12700416 -0.10144516
0.10760042 -0.2906966 0.13281262 -0.2891838 -0.1977365 0.08725953 -0.16550027 -0.30644792
0.31814837 0.18036313 -0.14341508 -0.20373237 0.2925261 0.08611401 0.05371988 -0.30580506
-0.18475723 -0.18931276 -0.32541633 -0.26446012 -0.18254489 0.20088372 -0.20825784 -0.24245265
0.09459557 0.2728042 -0.07426732 -0.07785703 -0.23027262 -0.099885955 -0.24752188 -0.060633972
-0.14620362 -0.31432062 0.25976837 0.17121285 0.06369104 0.061931722 0.18183899 0.13281356
0.076735735 0.33526552 0.24320292 0.107653506 0.15231664 0.03769884 0.165663 -0.014866954
0.113413565 0.29459763 -0.13610606 0.20169753 -0.0015325355 0.30156785 0.24053437 -0.096717276
0.20239958 0.15166236 -0.18310033 -0.14106731 0.25325334 0.29039755 -0.31528962 -0.17608556
-0.2702921 0.23229744 0.16671394 0.07007092 0.06070978 0.24256173 0.09789506 -0.1697074
0.2881953 0.13011095 -0.20030665 -0.23999518 0.12559529 0.3005858 0.32459116 0.32232496
0.1825543 0.09652846 0.21917626 0.2353752 -0.10679257 -0.14988394 -0.24638174 -0.27070567
0.2036403 0.23462442 0.08821613 0.09845441 0.32585803 0.33492872 0.18815753 0.27650583
0.07151173 -0.20644838 0.07089045 0.06846283 -0.10975265 0.32199803 -0.19900626 0.04212454
0.18135016 -0.18141751 0.15166776 0.10361114 -0.1647716 -0.27671698 0.1351802 0.19097926
-0.26976588 -0.101237625 -0.26340508 0.23329943 0.2616775 0.256192 0.25609887 0.25252998
0.14503613 -0.15785399 0.061012015 0.045391988 -0.11628673 -0.29881462 0.20568952 0.2541548
0.27197602 0.22737785 0.1027916 0.20645435 0.03578055 0.10602084 -0.2607071 -0.11393913
-0.31185487 -0.019417841 -0.09987408 -0.2894443 -0.3157741 -0.13995534 -0.23608388 -0.115823805

layers_mu.5.bias f4 [50]
00000000: 69e9 393e b33f a53e d693 9bbe 1ff4 8f3e
00000010: 1497 a83e a42d a0be fc6b 6e3e b80f 07be
00000020: 068b 693e 78a9 223e 536a 533e 25c2 92be
00000030: 3d8d 9f3e 7155 143e 15f2 aebe ac43 7f3e
00000040: 17f9 80be c7d8 63be 867a cf3d 2319 2bbe
00000050: df5e 443e 4055 743e a80d 25be 0945 993e
00000060: a326 00be 5242 1fbe f538 ad3d 563d 76be
00000070: ee7d a7be e8c2 593e 5a20 91be 6bdf aabd
00000080: 5314 a53e 74be 453e 9766 943e a528 623e
00000090: be1c 89be 16a4 863e 36ea 35be cd30 463e
000000a0: 81e8 983e c6b8 9f3e f8f0 40be 6758 68be
000000b0: fbcf 253e cdfe 963e 2cd2 4abe e575 eb3d
000000c0: 835f 5c3e cdd0 67be
0.18155445 0.3227516 -0.30386227 0.28115937 0.32927763 -0.3128482 0.2328338 -0.1318959
0.2280694 0.1588496 0.20646028 -0.28663746 0.31162444 0.14485718 -0.3416907 0.24928159
-0.2519004 -0.22250663 0.10130791 -0.16708808 0.19176815 0.23860645 -0.1611849 0.29935482
-0.12514739 -0.15552643 0.08458129 -0.24046835 -0.32713264 0.21265757 -0.28344995 -0.08343395
0.3224207 0.19310933 0.2898452 0.22085817 -0.2677974 0.26297063 -0.17765126 0.19354554
0.29864886 0.31195658 -0.18841922 -0.22689973 0.1619262 0.29491273 -0.19806737 0.11497096
0.2152081 -0.22638245

layers_mu.7.weight f4 [50, 50]
00000000: e00a 09bf 865f 21bf 0312 103f 3f18 1fbf
00000010: 5b49 dbbe 0f5f e53e 9091 04bf 084f 1a3f
00000020: 0fbb 29bf dc56 0bbf 0520 32bf 3b56 0a3f
00000030: 7345 1abf 1d36 29bf 224b 1d3f 3716 f8be
00000040: e1fb 0c3f 59da 273f 034a e8be 3db9 023f
00000050: 978c c6be e712 f9be 39e0 f23e d9c6 34bf
00000060: 377e eb3e b3da ed3e f777 24bf ff64 303f
00000070: c656 113f f70b 28bf db44 283f f348 2e3f
00000080: a9e6 22bf 033f 2ebf 016f 27bf 379a f4be
00000090: 2732 273f 57a8 26bf 818b 103f cdd9 2bbf
000000a0: 0b18 f1be 8bcf 00bf cf58 263f c64a 093f
000000b0: 1df7 dabe a313 f3be 638f 2c3f b9e9 fabe
000000c0: fd8d 25bf c1e4 2b3f e768 023f 0723 453f
000000d0: 07d4 35bf 1625 0a3f 4edc 0b3f d5e0 22bf
000000e0: 0b16 373f 758c 0abf 0e67 113f ca68 263f
000000f0: b6b4 0c3f fd54 1dbf 5ddf 363f 2f65 0e3f
00000100: 075c 18bf 81b4 443f fabc 09bf f53d 0fbf
00000110: 3e5b 243f cf1e 02bf d99c e23e 6387 133f
00000120: 794b 00bf 2788 2e3f fecd 35bf 6f7d 30bf
00000130: 50ed 2d3f 5667 32bf 5ff8 10bf c87b 343f
00000140: c410 3dbf 70ad 41bf 958d 0d3f 1f02 213f
00000150: 9aa5 243f 2312 123f 7b5e 05bf 5296 0a3f
00000160: 4a51 39bf a580 1b3f d51e 3d3f bdcc 343f
00000170: 38ea 17bf 6274 1bbf 8c26 0e3f 2242 223f
00000180: d594 2cbf f09d 3c3f 21ad 363f b133 27bf
00000190: b466 46bf 50a2 56bf 04cb 5a3f 7511 66bf
000001a0: e55d 5ebf c616 6a3f 5949 52bf eaba 4f3f
000001b0: 35bf 64bf bc04 5bbf 991a 42bf c6d3 753f
000001c0: 48a0 48bf 8c6f 4bbf 03d2 373f 6a5f 2bbf
000001d0: 809e 603f 95e1 403f 70ba 59bf 7e63 253f
000001e0: 20a2 1ebf 3b2b 69bf 5570 413f c9ce 3cbf
000001f0: 2bb1 473f 47c1 3e3f 5f08 78bf cb67 443f
00000200: 0a2a 303f b741 42bf 7eb0 473f 7caf 6d3f
00000210: b930 2abf d483 43bf 5636 56bf 5d09 3bbf
00000220: bfcf 4c3f 984e 63bf ea80 353f 3296 4abf
00000230: 82b5 4fbf 534e 67bf 9e71 503f f236 3e3f
00000240: cc10 3abf 2d8f 58bf e38c 783f 1f7b 3fbf
00000250: 655c 66bf b5de 4f3f ce28 07bf 7501 1dbf
00000260: e528 283f 93af 26bf 81c2 09bf 894b 283f
00000270: 961c fabe 1543 2f3f 8c7f e2be ff29 10bf
00000280: 7d1e 11bf b2c5 e23e d72a 1cbf 122b e5be
00000290: b1f7 123f 44eb fdbe 3fcf 113f bb7d 073f
000002a0: 4946 29bf 1ba6 1f3f 1cd5 f9be 7653 eabe
000002b0: 579b 003f 1560 2bbf 7ab2 ee3e 3e0a cf3e
000002c0: 7d2a 30bf f575 0e3f 5a02 f63e 7caf 05bf
000002d0: ecfc 043f e4e3 d83e 74b1 ccbe c7ea 22bf
000002e0: a18c 1abf 1713 29bf 672b 313f 9e1a ecbe
000002f0: 0893 033f ef1c 0fbf 8139 14bf fed7 f5be
00000300: 030c 193f cdfa 173f afa0 12bf 993d 21bf
00000310: afd5 313f 2d93 03bf 7f43 eebe 0322 013f
00000320: ae4e 263f dc7e 2c3f eca7 1bbf 1225 333f
00000330: 2499 0d3f d259 42bf 6e19 1e3f 6ce4 2dbf
00000340: 4632 333f d848 4d3f 9279 463f 8a04 25bf
00000350: cebc 553f 1a4e 4d3f 6f6c 17bf b3ba 123f
00000360: 0a0c 36bf 5676 2fbf a0ee 1d3f 40f0 05bf
00000370: 9476 033f 9425 563f 40f9 29bf 80a8 343f
00000380: 0ad7 33bf 2865 febe 8a12 3f3f 183a 2ebf
00000390: a816 19bf b628 133f a6bd 3cbf 6075 24bf
000003a0: 3678 233f 687b 2d3f 54e9 303f 5231 413f
000003b0: 2ab0 48bf 52e6 233f 757b 09bf 0e8a 4e3f
000003c0: 516c 113f 3cd6 333f 6de3 13bf 023d 4dbf
000003d0: b02e 193f a298 4b3f d499 39bf 2869 393f
000003e0: e0d4 4b3f 786c 34bf ab2d 313f 9863 4a3f
000003f0: 5a28 62bf a6d7 5a3f b27d 2b3f 6819 32bf
-0.5353222 -0.6303638 0.56277484 -0.6214637 -0.42829403 0.44799086 -0.5178461 0.6027684
-0.66301054 -0.5442941 -0.6958011 0.5403783 -0.6026222 -0.66098195 0.6144277 -0.4845445
0.55071837 0.6556755 -0.45368966 0.510639 -0.38779137 -0.48647234 0.47436693 -0.7061592
0.45994732 0.46455917 -0.6424555 0.6890411 0.5677303 -0.65643257 0.65730065 0.6808006
-0.6363321 -0.680649 -0.65403754 -0.47773907 0.653109 -0.65100616 0.56462866 -0.6712921
-0.47088656 -0.50316685 0.6497926 0.5362972 -0.42766657 -0.4747592 0.6740629 -0.4900644
-0.6466978 0.67145926 0.5094132 0.7700657 -0.71026653 0.5396284 0.54633033 -0.63624316
0.7151801 -0.5412057 0.56797874 0.65003645 0.54963243 -0.61457807 0.71434575 0.55623144
-0.5951542 0.7683793 -0.5380398 -0.55953914 0.64201725 -0.5082826 0.4426029 0.5762846
-0.5011516 0.681765 -0.71017444 -0.68941396 0.67940235 -0.6968893 -0.56628984 0.70501375
-0.7385371 -0.7565527 0.5529416 0.6289386 0.6431519 0.57058924 -0.5209729 0.5413562
-0.7238966 0.6074317 0.7387517 0.70624906 -0.59341764 -0.6072446 0.5552757 0.6338216
-0.674146 0.73678493 0.71357924 -0.6531325 -0.7750046 -0.8384142 0.8546603 -0.8987039
-0.8686202 0.91441 -0.8214317 0.81144583 -0.8935426 -0.855541 -0.75821835 0.96026266
-0.7836957 -0.7946708 0.7180483 -0.66942465 0.8774185 0.7534421 -0.85050106 0.6460494
-0.61966133 -0.9108159 0.7556203 -0.7375303 0.7800471 0.7451367 -0.96887773 0.76720876
0.68814147 -0.7588152 0.7800368 0.9284589 -0.66480595 -0.7637303 -0.8367666 -0.7306116
0.80004495 -0.887918 0.7089983 -0.7913543 -0.81136334 -0.9035389 0.81423366 0.7430259
-0.7268188 -0.8459347 0.97089976 -0.7479724 -0.8998473 0.811992 -0.5279664 -0.6133035
0.656874 -0.65111655 -0.53812414 0.6574026 -0.48849934 0.68461734 -0.44237936 -0.5631408
-0.56687146 0.44291455 -0.6100287 -0.44759423 0.574092 -0.49593556 0.5695686 0.52926224
-0.6612287 0.6236283 -0.48795402 -0.457668 0.5023703 -0.66943485 0.46620542 0.40437502
-0.6881483 0.5564874 0.4804867 -0.5222089 0.5194843 0.42361367 -0.39979136 -0.6363949
-0.6037083 -0.66044754 0.6920685 -0.46114057 0.51396227 -0.55903524 -0.57900244 -0.4801635
0.59783953 0.59367067 -0.57276434 -0.62984616 0.6946668 -0.5139645 -0.4653587 0.5044252
0.64963806 0.6738107 -0.60803103 0.6997844 0.553118 -0.75918305 0.6175755 -0.6792667
0.69998586 0.80189276 0.7752925 -0.6446005 0.8349122 0.801973 -0.5914983 0.5731613
-0.7111212 -0.6853994 0.6169224 -0.5231972 0.5135281 0.8365109 -0.6639595 0.7056961
-0.7025 -0.4968655 0.74637663 -0.68057394 -0.59800196 0.57483995 -0.7372688 -0.642416
0.638553 0.6776643 0.6910603 0.7546588 -0.78393805 0.64023316 -0.53704005 0.80679405
0.568059 0.7024877 -0.577689 -0.80171216 0.59836864 0.79529774 -0.7250035 0.7242608
0.79621696 -0.7047801 0.6921031 0.7905822 -0.8834282 0.85485303 0.6698867 -0.69570017

layers_mu.7.bias f4 [50]
00000000: ac45 30bf 72ff 323f 8a92 60bf 8771 13bf
00000010: 7289 4c3f 7be4 523f 3b70 34bf 3bd1 413f
00000020: d963 353f 4f77 50bf 06ae 4ebf 8a2b 26bf
00000030: 1f16 19bf 3156 4a3f 8ebb 52bf edd5 613f
00000040: 2b3a 49bf 92dd 33bf 8ef1 523f 32ca 5d3f
00000050: 661d 51bf a3a3 1d3f 2654 313f 3934 37bf
00000060: bf0d 343f ca14 3abf 6c67 eebe ec2e 343f
00000070: cffe 55bf 5a66 67bf 13ed 3f3f a98b 673f
00000080: 476d 523f 1066 5bbf 6c6a 38bf f852 33bf
00000090: 227d 4b3f 55a0 373f 0b9e 16bf 43c0 33bf
000000a0: 27ae 68bf 513d 6b3f 98eb 2dbf ab24 713f
000000b0: d6e9 4c3f 8a82 353f e09a 223f 341d 8b3f
000000c0: 0558 243f cc0c 673f
-0.6885631 0.6992103 -0.877236 -0.57595104 0.79897225 0.82379884 -0.7048375 0.75709885
0.7085548 -0.8143205 -0.8073429 -0.64910185 -0.5979938 0.7903777 -0.82317436 0.8821705
-0.7860438 -0.70259964 0.82399833 0.8663665 -0.81685483 0.61577815 0.69269025 -0.7156406
0.70333475 -0.7268797 -0.4656328 0.703841 -0.8359193 -0.9039055 0.7497112 0.9044748
0.82197994 -0.8570261 -0.72037387 -0.70048475 0.7948781 0.7172902 -0.58834904 -0.70215243
-0.90890735 0.91890436 -0.6793761 0.94196576 0.80044305 0.7090231 0.6351757 1.0868287
0.6419681 0.902539

layers_sigma.0.weight f4 [50, 50]
00000000: 5f44 9a3c 59d6 cfbd 643b efbd 865d 8a3d
00000010: 76c4 4fbc 3849 703d a50b c63c 90fc fcbd
00000020: 1c34 1abd 07e0 37bd b640 18bc 1d2b 853d
00000030: 6822 7d3d 72f1 95bc e098 aebd 501e c13c
00000040: a5f0 893d 7360 513d d0ab f03c 71d7 10be
00000050: 3ce2 c7bd 625a a4bd 2823 24bc 8d62 c3bd
00000060: abed 313b 3b26 23bd 2470 e1bb 8377 14bd
00000070: e177 f9bb c6ec 59bd acf4 d8bd fc37 5c3d
00000080: 64a6 a5bc baa8 6ebd f219 a2bd c084 ebbb
00000090: efbe 96bd 59d7 96bc 15f7 313d f8fc 673d
000000a0: e73a b83d 6899 1d3e 6177 bcbc 3994 d1bd
000000b0: df97 ecbd fee7 da3c 8b17 d9bc 4605 e93d
000000c0: a723 8dbd 6529 10bd e791 d33d 2f72 293d
000000d0: 6c5e bcbb 2e5e c83d 8c4d aabd da44 babd
000000e0: 5c6c a53d f905 70bc b153 40bd 3341 1fbd
000000f0: 8bd5 81bd 3236 49bd ee25 923d 83ea 973c
00000100: ed35 17be f8ea e93d 8d42 0fbd beeb d3bd
00000110: af6e 313d 99f0 51bd 0314 e5bd 5d5e 00be
00000120: 961b edbd 3c92 0cbd d9b8 f5bd cef3 c33c
00000130: e3fd e6bd 8589 c33d 5bf4 113e efcb ffbc
00000140: 9e20 c53d 8a56 f13d 1214 b63d c631 bcbd
00000150: 9b56 6c3d 8c79 c6b8 3fc5 06be 4b3c 99bc
00000160: 6c44 b13d beff d13d e3f9 26bd 9b81 d73d
00000170: 9c33 80bc daa2 1a3a 5840 5cbd d89e 9ebd
00000180: f9ee 943d 85f4 e43d 0143 f5bd a9d8 31bd
00000190: f3b1 3abd fb2a 54bd b7af ab3d 818b 13bd
000001a0: 14e4 7dbd dacc 853c 6099 13be 3a48 dd3d
000001b0: 5674 d7bd 0cdb e7bd 3bd5 32bd ce0b babd
000001c0: 25b2 573d d17c ad3b f8c0 7bbc 70e9 5cbc
000001d0: abd6 cb3d 1297 833b 8456 783d aee7 febd
000001e0: 6c4e 893d 33c6 14bd 402a d0bd 1b7c 2cbd
000001f0: a736 563d e0b8 b73d 8372 dabd 0f12 40bd
00000200: a367 ec3d b760 c4bd d162 ba3c 7499 003d
00000210: 450b 16bd 4910 f3bd 791f f33c 918a 6d3d
00000220: fb3e 5b3d d3a4 a03d 111d 2c3d 7870 cf3c
00000230: ce02 c93d 9b68 cdbd 3d3c 263d 5a8b 10bc
00000240: e95c bb3d def9 75bd 4373 febc 3fb5 893d
00000250: 247b a3bd cbe0 0f3e 793c 5e3d d419 c7bc
00000260: 1b27 70bd 2498 42bd 56ae 96bd 7601 c23d
00000270: 8c79 bdbc 3b3e 953d d0d7 0dbe 4d0e 1cbe
00000280: 1919 063e 55ca ef3d ed2b 00be 354f edbd
00000290: 7faf a63d 512d 9ebd 723b ca3c 39dd 9e3b
000002a0: 0614 c53c 7c97 d23a 3824 d639 f7da 5abd
000002b0: 3667 673d 1c2d 16bd 9073 f23d c9ee cd3d
000002c0: 33ff 783c da5e 2a3d 7fa8 173d f90c d83c
000002d0: 0402 613d e03d d5bd 3871 cf3d ba31 44bb
000002e0: c099 ecbd 2476 883d 1d1b fa3c a683 8abd
000002f0: 3c5c 2bbd 2bcf 15be 244f fe3d d5ed c0bd
00000300: b08e b4bd 0170 45bd 6c2a 78bd e3e8 82bd
00000310: 060d 0fbe e4fb 89bd f42e 2ebd 190d e1bd
00000320: 4094 1d3c de7b ee3c 3834 013b 044f c6bc
00000330: 201e 44bd 8e9f a13d fcdc 963d e6ba a53d
00000340: fbfd 9ebc 98b2 1fbd 93ac aebd 9183 10bb
00000350: a792 eebd 4164 0b3d 180e 4f3b 52ac 40bc
00000360: 5fab ccba 0e5f 98bd cc2e 1abe ceff a13d
00000370: b347 1abd b1d6 e2bb cac3 acbd 61d0 bd3c
00000380: 976f 67bd 2a1a 2f3d 64b5 f9bd a380 2b3d
00000390: ffca ea3d b378 c3bd ee10 ab3b 6410 c6bd
000003a0: a260 093e 5a49 00be 32fb 303d fbbf 113d
000003b0: c2a1 1a3e 0861 233c 2939 cb39 a865 bbbd
000003c0: 8c67 b33d 3255 76bb e0c9 eb3d 6a92 b93d
000003d0: a122 a7bd 1d64 7a3d d425 713c 0cb8 143d
000003e0: 168d 14bd 325e fc3c 4172 cdbc 92d4 7ebd
000003f0: f117 413c 20a3 6a3d 482f 643c f4b6 193c
0.01883143 -0.101483054 -0.1168125 0.067561194 -0.012681117 0.058663577 0.024175474 -0.1235286
-0.03764735 -0.044891383 -0.009292772 0.06502364 0.06180039 -0.018303607 -0.08525252 0.023574024
0.067353524 0.05111737 0.029378802 -0.14144684 -0.09759948 -0.08025052 -0.0100181475 -0.095402814
0.0027149718 -0.03983138 -0.0068798233 -0.036246788 -0.0076131676 -0.05320432 -0.105935425 0.05376433
-0.020220943 -0.05826638 -0.07915105 -0.007187456 -0.073606364 -0.018413233 0.043448526 0.056637734
0.0899561 0.15390551 -0.023006143 -0.10233349 -0.115524046 0.02672195 -0.026500484 0.11377959
-0.06891566 -0.035195727 0.10330563 0.04136866 -0.0057485607 0.09783588 -0.08315572 -0.09095164
0.080773085 -0.0146498615 -0.046954814 -0.03888054 -0.06339558 -0.04912395 0.07136141 0.018544441
-0.14766665 0.1142177 -0.034975577 -0.10347699 0.043318447 -0.051254842 -0.111854576 -0.12535997
-0.11577527 -0.034319147 -0.119981475 0.023919966 -0.11278894 0.09547714 0.1425337 -0.031225173
0.09625362 0.11784084 0.08890547 -0.09189181 0.05769978 -9.4640156e-05 -0.13161181 -0.018705508
0.086556286 0.10253857 -0.040765654 0.10522767 -0.01564961 0.00058989006 -0.0537723 -0.07745141
0.07272143 0.11179451 -0.119756706 -0.043419514 -0.04557986 -0.051798802 0.08383124 -0.036021713
-0.06198509 0.016333032 -0.14413977 0.10804792 -0.10520236 -0.11321077 -0.043660384 -0.09084283
0.052660126 0.0052944203 -0.015365832 -0.01348339 0.09953054 0.0040158117 0.060629383 -0.12446533
0.06704411 -0.03632183 -0.101643085 -0.042110544 0.052298214 0.08970809 -0.106663726 -0.046892222
0.11543205 -0.095887594 0.022752197 0.031396344 -0.03663184 -0.118683405 0.029678093 0.057993475
0.05352686 0.07843938 0.042019907 0.025322184 0.09814988 -0.100297175 0.04058479 -0.0088222865
0.091485806 -0.060052745 -0.03106082 0.06724023 -0.079824716 0.14050595 0.05425689 -0.024304308
-0.058631044 -0.047508374 -0.07357471 0.09472935 -0.023129247 0.0728726 -0.13851857 -0.1523983
0.13095511 0.11708514 -0.12516756 -0.11587373 0.08138942 -0.07723487 0.024686549 0.004848149
0.0240574 0.0016066874 0.00040844246 -0.053431477 0.056494914 -0.036664113 0.11838448 0.1005531
0.015197563 0.041594364 0.037025925 0.026373373 0.054933563 -0.10412192 0.10129017 -0.0029936866
-0.11552763 0.066631585 0.030530507 -0.06763391 -0.04183601 -0.1462981 0.124174386 -0.09420363
-0.08816278 -0.04820252 -0.06058733 -0.06392076 -0.13969812 -0.067374974 -0.042525247 -0.10988826
0.009617865 0.029111799 0.0019714963 -0.0242076 -0.047880292 0.07891761 0.07366368 0.08092289
-0.019408217 -0.03898868 -0.0852901 -0.0022051076 -0.116490655 0.034031156 0.0031594094 -0.011759834
-0.0015615037 -0.07440005 -0.15056914 0.07910119 -0.037666034 -0.006922566 -0.08435781 0.023170652
-0.056502905 0.04274956 -0.12192801 0.041870724 0.114645 -0.09544506 0.005220524 -0.09671095
0.13415769 -0.12527981 0.04320831 0.035583477 0.15100768 0.0099718645 0.00038761765 -0.09150249
0.087599844 -0.0037587401 0.11513114 0.090611294 -0.08160902 0.06113063 0.014718492 0.036308333
-0.036267363 0.030806635 -0.025078895 -0.06221444 0.011785493 0.057284474 0.013927288 0.009381998

layers_sigma.0.bias f4 [50]
00000000: c685 13be 663f 603e 6be9 833e edc2 293e
00000010: 7ff1 423e a9d2 0e3e 3a95 4e3e 187f efbd
00000020: c3ac 48be 6738 3b3e b63f 3e3e 4f4f 68be
00000030: c421 23be 529f 053e e480 fe3d 494f 713e
00000040: dc75 00be a0a5 62be ab24 393e 42b0 6e3e
00000050: e8c1 12be 137b 023e 5a77 873e 53c1 fcbd
00000060: cc83 05be a74d 553e 9c5a 783e 6540 053e
00000070: cc6f 4bbe c778 76be 4efe 46be 4391 7abe
00000080: 9ca4 5cbe 5c35 0cbe 6a39 f63d 1720 493e
00000090: e48f 03be c6a9 d5bd 7ea1 723e 17a4 203e
000000a0: be82 f3bd dcaf 083e 64ec 5b3e bab8 81be
000000b0: aef8 7b3e ff44 553e cdb9 613e b73b 173e
000000c0: 9d6e f8bd caec 85be
-0.144065 0.21899185 0.2576402 0.16578265 0.19037436 0.13947548 0.20174113 -0.11694163
-0.19597153 0.18283235 0.18578991 -0.22686504 -0.1593085 0.13049057 0.12426928 0.23565401
-0.1254496 -0.22133493 0.18080394 0.23309425 -0.14331782 0.12742262 0.26458246 -0.12341561
-0.13038558 0.20830403 0.24253315 0.13012846 -0.19866866 -0.2406951 -0.19432947 -0.24469475
-0.21547168 -0.1369223 0.120226696 0.19641148 -0.12847859 -0.10432772 0.23694417 0.15687595
-0.118901715 0.13348335 0.21476895 -0.25336248 0.24606583 0.20827101 0.22043534 0.14768873
-0.12130473 -0.26157218
