feed_forward/saved_models/nhid60_lr0.01_nlayers3_seed5.pt (torch, 223813 bytes, 32 tensors)

layers_mu.0.weight f4 [60, 50]
000000 a8 74 7a 3d 6b c9 12 3d b5 0b 4b 3d 88 5e 22 bd
       0.06114641 0.03583662 0.04957171 -0.039640933
000010 0c 6c 1a 3d 3e 22 5e bc 04 8d c8 bd d2 4e 67 3c
       0.037700698 -0.013557969 -0.097925216 0.014117913
000020 a6 89 ea 3d e7 03 19 be 5a 8d 98 3c bd 07 58 3d
       0.114520356 -0.14942895 0.01862209 0.052741755
000030 6b 7e 1c be f6 ab 32 3d 0e 33 e9 bd 24 27 09 be
       -0.152826 0.043621026 -0.11386691 -0.13393837
000040 b6 e1 d4 bd c8 56 2e ba 17 b0 07 bd 9e 6a 6d bd
       -0.103946134 -0.00066505047 -0.033126917 -0.057963006
000050 43 ca 63 be 66 1a 7f 3c 40 fe a8 bc b0 62 73 3d
       -0.22245125 0.015570259 -0.020629048 0.059420288
000060 ea 29 8b 3d fc a6 4e 3c e1 29 bc bd 04 0b 39 3c
       0.06795104 0.012613054 -0.09187675 0.01129413
000070 74 e0 13 3e 6e 86 09 bd a8 d4 00 be 72 63 a6 3d
       0.14441091 -0.033575468 -0.12581122 0.081244364
000080 77 b9 4d 3d 8f d1 84 bd de 06 bf bc 34 40 82 3d
       0.0502257 -0.06485283 -0.023318704 0.06359902
000090 5c 60 b0 3c 73 fe 00 bc ec 51 2b be 9c 2e 52 3c
       0.021530323 -0.007873165 -0.1673047 0.012828495
0000a0 cc 7a fb 3b b6 8a 2a bd eb 36 18 bc 78 bc 8c bd
       0.0076745506 -0.04163619 -0.009290437 -0.06871885
0000b0 c6 32 ea 3c be dd 5d 3d 4c cd a3 bd 48 b5 65 bc
       0.028588664 0.054166548 -0.07998142 -0.014020272
0000c0 54 ad 6a 3d 34 a2 8a 3d 31 20 b7 bd 72 d2 07 3d
       0.057294205 0.06769219 -0.08941687 0.03315968
0000d0 22 c1 46 bd d0 e8 1a bd a9 33 a3 bd 0a 8c 3e 3d
       -0.04852403 -0.037819684 -0.07968838 0.04652027
0000e0 08 7b bb 3c 75 1a 6d 3d c6 ed 37 bd 4b ee 68 bd
       0.022885814 0.05788656 -0.044904493 -0.05686788
0000f0 d4 b6 52 3d d1 af e1 bc 69 28 ed 3c f6 1b 44 bb
       0.05144389 -0.027549656 0.028949933 -0.0029923893
000100 ba ce 4e bb 78 78 f3 bb 68 47 3b bc 73 5b 49 bc
       -0.0031556324 -0.0074301325 -0.011430599 -0.01228987
000110 62 91 74 bd 29 6a 54 3c 77 7d a8 bd 33 f9 40 bd
       -0.05970896 0.012964764 -0.082270555 -0.047112655
000120 f0 b2 b0 3c 24 44 96 ba 4e cd a8 bc b0 e0 ab bc
       0.021569699 -0.0011464399 -0.02060571 -0.020981163
000130 b3 7b a5 3d 04 3a 58 3d 4d 6d aa bc 5d 8a ad 3b
       0.080802344 0.052789703 -0.020804072 0.005296035
000140 04 d9 0e 3d 11 74 9f 3c 86 7a a3 bc f2 b1 1b 3d
       0.03487493 0.019464524 -0.019955885 0.0380115
000150 44 a3 cc 3c 9f 5f 04 bc 34 10 3b 3c ee 32 80 bd
       0.024980195 -0.0080794385 0.011417437 -0.06259714
000160 83 2d 54 3d 14 a6 62 bc 83 5d 1d bb ad c5 39 bd
       0.051801216 -0.013833541 -0.0024012036 -0.045354534
000170 cd d5 20 be d2 88 e7 bc bc b6 28 3c f9 2c 50 bd
       -0.15706559 -0.028263483 0.0102974735 -0.05082414
000180 2c c8 10 3d 0c 09 fb bc ca 76 bc 3c 07 b8 8b 3d
       0.03534715 -0.030643962 0.023005862 0.0682221
000190 91 32 fa 3d 22 bf da 3b 93 6a 51 3e 08 4b fa 3a
       0.12216676 0.006675617 0.20450811 0.0019095847
0001a0 35 2d af bd da 3f 27 3d 42 98 e1 3e b6 1e 27 bd
       -0.085535444 0.040832378 0.44061476 -0.040800773
0001b0 5a 71 e6 3c b6 53 69 3d a8 18 7e bc 14 56 2e bf
       0.028130222 0.0569646 -0.015508808 -0.68100095
0001c0 87 c3 b9 bd 3d 75 0c 3e 79 39 0a be 4c cd d4 bc
       -0.09070497 0.13716598 -0.13498487 -0.0259768
0001d0 e0 76 8b be e2 c6 f4 bd b2 c9 ad be b2 98 29 3e
       -0.27239132 -0.119519964 -0.33942944 0.16562155
0001e0 8b 4f 4c 3d 81 33 82 3c 9f 52 16 3f 5d 7a 29 be
       0.049880546 0.0158937 0.5871982 -0.16550584
0001f0 b6 7d 70 3d 0a 88 85 be 97 86 19 bd 30 f6 87 be
       0.058713637 -0.26080352 -0.03748187 -0.26555014
000200 f4 c4 02 be e6 a6 96 3d 52 a2 bf bc dc 08 94 3e
       -0.12770444 0.07356052 -0.02339283 0.2891301
000210 37 81 b7 bd c9 77 d2 be f1 5c 2a be 54 7b d0 bd
       -0.08960193 -0.41107014 -0.16637017 -0.10179773
000220 40 b2 91 3d 93 c7 2f 3e 2b e0 82 3b e1 b0 f8 3d
       0.071140766 0.17165975 0.003994008 0.12143112
000230 97 4c 16 3e 9e 49 24 3d 28 be 05 3d f2 2e a6 3d
       0.14677654 0.04010927 0.03265205 0.08114423
000240 ac eb 1d 3f 5a 4c 9d 3d 80 f5 fd bc e2 60 5d bd
       0.6168773 0.076805785 -0.031000853 -0.054047473
000250 ca 58 d3 bc 96 07 b1 3c 63 9f fa bc ed b9 1a bc
       -0.025799174 0.021610063 -0.03059358 -0.009443742
000260 61 3f 7d 3b 93 9d 85 3c 4c c2 b1 3a b9 45 f3 3c
       0.0038642513 0.016310489 0.0013561933 0.029696332
000270 30 0c 11 3c 3e bc 2d bd 40 b0 52 3d d7 ee 03 bd
       0.008853003 -0.04241585 0.051437616 -0.032210197
000280 ea c0 e7 bb 53 83 a5 bc 71 a3 72 3c c4 36 b5 3b
       -0.0070725577 -0.020204222 0.014809475 0.00553021
000290 25 38 f4 3b f3 3f 15 bc 70 bc 7a bb 0d 3b 44 3c
       0.007452982 -0.009109485 -0.003825929 0.011976969
0002a0 20 30 76 ba 2c 56 19 3b 4e 22 85 bc 68 28 57 3b
       -0.00093913265 0.002339731 -0.01625171 0.003283048
0002b0 04 ce 61 3c b0 3f 3d b9 ae 55 c7 3c 3b 03 88 3c
       0.013782028 -0.0001804817 0.024332847 0.016603103
0002c0 e4 3e b0 bc f4 8a 8b bc 05 72 85 bc 5d 1f 34 3c
       -0.021514364 -0.017034031 -0.01628972 0.010993806
0002d0 98 3f 2e bd bb fb 54 3c c1 32 0b bd 30 89 46 ba
       -0.042541116 0.01299947 -0.03398395 -0.0007573543
0002e0 da 57 9e bc 00 69 49 ba 71 ed 6f 3c 45 fa 10 3c
       -0.019329 -0.0007683188 0.014644013 0.008848731
0002f0 c5 46 ef bc 4b 04 47 3c 8e ff c8 3b 28 a0 ae bd
       -0.02920855 0.01214702 0.00613398 -0.08526641
000300 30 35 07 3c e1 7d df bb cf d6 ae 3c 2f 93 85 bc
       0.008252427 -0.006820426 0.021342663 -0.016305534
000310 38 05 b6 bb 2e 62 09 bd de c8 ac 3c 11 51 d0 3c
       -0.0055548213 -0.033540897 0.021091875 0.02542928
000320 1c c4 29 3e 23 45 93 3e 2d 96 26 be 08 a4 54 bc
       0.16578716 0.28763685 -0.16268225 -0.012978561
000330 55 ed 98 bc 54 b2 0e 3e 67 5f b9 3e 64 2b 6b bc
       -0.018667856 0.13935214 0.362056 -0.014353607
000340 13 4e 12 3c dd d4 04 3d e9 39 8d bc 3e d1 f1 bd
       0.008929747 0.032429565 -0.017239528 -0.11807488
000350 99 44 95 3e 7c 6a d7 be 7b 8e ec be 38 47 1c 3a
       0.29153898 -0.4207343 -0.46202454 0.000596154
000360 f5 ab 6b be 16 27 c0 3e 60 25 e7 bd 64 b0 68 be
       -0.23014815 0.3752982 -0.112864256 -0.22723538
000370 46 2b eb 3c 7d 95 1f 3d bf 95 12 3e 39 83 07 be
       0.028707158 0.038960923 0.14314936 -0.13233651
000380 34 45 da 3e cc f4 06 be dd 9e c7 bc 84 f8 7f 3d
       0.42630923 -0.1317932 -0.024367744 0.062492862
000390 7b c2 23 bc 0e 36 2e be 96 40 9c 3b b6 81 24 3b
       -0.009995098 -0.17012808 0.0047684414 0.0025101728
0003a0 1a 0d db be e3 8a cc 3e 61 5e 28 bd 21 0c 61 3e
       -0.42783433 0.39949712 -0.04110563 0.21977283
0003b0 0c 3a 24 3f 30 46 5b 3e 9b 7a 00 bd 2c 56 ce bd
       0.6415107 0.21413493 -0.031366926 -0.1007503
0003c0 81 3c 15 3e 69 7f 9c 3c 51 39 e2 3c 06 4f 98 be
       0.14573862 0.019103723 0.027615221 -0.2974779
0003d0 84 c4 93 bc 84 28 66 be 99 eb 11 bd 06 d9 be bc
       -0.018038042 -0.22476393 -0.035625074 -0.023296844
0003e0 a5 fa 2a bd d8 3b e4 bc 7e 0b 36 bd d3 5f dd 3c
       -0.04174294 -0.027860567 -0.044444554 0.027023232
0003f0 ca ee b5 bc 7f db f8 3c 36 b5 61 bd dc 6d 07 3d
       -0.02220859 0.030378101 -0.055104457 0.033063754

layers_mu.0.bias f4 [60]
000000 74 08 e5 3b 66 e4 18 bc 56 67 cc bb 82 8e 03 bc
       0.006989533 -0.009331798 -0.0062379045 -0.008029582
000010 43 13 8b 3c c7 e7 f1 bb c8 11 cc 3c d0 65 06 3c
       0.016976958 -0.0073823663 0.024910823 0.008202985
000020 68 af af 3c 08 08 9e 3b ed 76 04 bc b8 60 28 3c
       0.021445945 0.0048227347 -0.008084995 0.010276966
000030 9e 06 95 bc b8 0f 47 bc 4e 90 57 bb 25 a2 0c 3c
       -0.018191632 -0.012149744 -0.0032892409 0.00858358
000040 94 34 55 bb a6 c3 a6 ba 92 69 7d 3b 76 c8 9e 39
       -0.003253256 -0.0012723103 0.003866766 0.00030285463
000050 96 6a 00 3c 63 64 b3 bc e0 57 ff 3b 74 4c 93 3f
       0.007837912 -0.021898454 0.007792458 1.1507707
000060 5c 65 10 bd fa db 16 3c 98 70 b2 bc 78 28 ee ba
       -0.035252914 0.00920772 -0.021782205 -0.001817002
000070 3a d2 5e bc 43 dc 99 3c 61 2a b1 bb 0a 44 15 3b
       -0.013599927 0.018781787 -0.0054066633 0.002277615
000080 12 2c af 3b 7a bb 0d 3c c0 13 c1 3b 3c 1d 08 3c
       0.0053458298 0.008650655 0.005892247 0.008307751
000090 cc 9e 07 bc b2 26 e8 bb 55 aa 91 bc 3c 6b 45 bb
       -0.008277606 -0.007084691 -0.017781416 -0.003012373
0000a0 98 dd 99 ba ca 32 98 bc 48 22 86 3c 5e ea 20 3c
       -0.0011739014 -0.018578906 0.016373768 0.0098215025
0000b0 3d 35 46 bc 04 26 21 3b 8d d2 1a bc 8a bc 19 bc
       -0.012097654 0.002458931 -0.009449613 -0.00938333
0000c0 7e ad 87 3b 02 e8 db bd f2 db 23 bc e6 1d 13 3c
       0.004140555 -0.10737611 -0.0100011695 0.008979296
0000d0 a2 16 a0 bb 46 32 2a 3c 21 ec 96 bc 00 92 23 3c
       -0.0048855105 0.010387963 -0.018423142 0.00998354
0000e0 1f 90 73 3c f6 1e 96 bb 44 d7 2b 3c e7 de 42 3b
       0.014865904 -0.0045813276 0.010488335 0.002973491

layers_mu.1.weight f4 [60, 60]
000000 f6 e1 93 bc 5c a5 06 bd d5 72 2b 3d 88 c4 bf 3c
       -0.018052083 -0.032872543 0.04185756 0.023409143
000010 ce b9 8d 3d 73 81 4a bc 8c 48 d3 3d 40 78 99 3d
       0.06920205 -0.012359965 0.103165716 0.07493639
000020 0c 1b c3 bd fe 3b f0 3c 48 65 d9 bd 7c ab 40 3d
       -0.09526643 0.029325482 -0.10615021 0.04703854
000030 e4 10 e5 bc 88 75 3a be 10 f9 c9 3d 6f 44 2d 3c
       -0.027962156 -0.18208897 0.09861958 0.010575398
000040 db 79 ce 3d 60 1f 2e bc d2 a9 b3 bc f3 29 94 bd
       0.10081836 -0.010627598 -0.021931563 -0.07234564
000050 e2 8a 91 bd 08 71 38 be df f1 6e bc ec a2 69 bd
       -0.07106568 -0.18011868 -0.014584034 -0.05704014
000060 24 3e 56 bc 73 27 7d 3c 42 21 1f bd e1 7f 72 be
       -0.013076339 0.0154513 -0.038850076 -0.23681594
000070 aa 89 8d be 4b 14 d8 bc 4d 5d b3 bc 93 44 11 bc
       -0.27644092 -0.026376864 -0.021895075 -0.008866447
000080 5b 11 31 be bb 71 35 bb 72 37 79 3e d0 c5 ec 3c
       -0.17291777 -0.0027686197 0.24337557 0.028902918
000090 19 cb b5 3d fc fa a3 bd 7e 3f 80 be 1b e6 20 3c
       0.088766284 -0.08006856 -0.2504844 0.009820486
0000a0 d2 23 af bc b6 43 30 be 0e e0 a9 bd 54 18 13 3d
       -0.021379385 -0.1721333 -0.08294688 0.035911873
0000b0 c8 ab ec 3b 94 0f 66 3b 92 86 04 be c8 9e f9 bd
       0.0072226264 0.00351045 -0.1294196 -0.12188488
0000c0 18 ee d9 3b 41 7b a5 3d ca 94 18 3c 20 ff d1 3a
       0.0066506974 0.080801494 0.009312818 0.0016021468
0000d0 06 1f 7d bd 5a 87 52 3b 79 0e 1d 3e cb f5 75 3c
       -0.061797164 0.0032124133 0.15337552 0.015012215
0000e0 f2 48 9e 3d 2b 59 0c 3c e3 62 aa bc fc 97 37 bc
       0.07728757 0.008566181 -0.020799106 -0.0112056695
0000f0 d1 8c 43 3d b9 ea 17 bc 46 e5 0d be 66 f7 52 3c
       0.047741715 -0.009272271 -0.13856992 0.012876367
000100 e9 60 35 3e 7e 5c 24 bd 13 8c d0 3c c5 cd e9 bd
       0.1771275 -0.04012727 0.025457418 -0.114162005
000110 ce cb 1c bf db 17 0e be c2 78 95 bd 0d cc 2a 3f
       -0.6124848 -0.13876288 -0.07298423 0.66717607
000120 1f 48 44 be b6 ff 7e bc 60 64 29 bd e6 df 8e 3b
       -0.19168137 -0.015563896 -0.04135549 0.004360187
000130 4e ad b9 bd 45 99 04 3d d1 cd 29 3d f6 b4 b5 3e
       -0.09066258 0.03237273 0.041456047 0.35489625
000140 6d 1a 88 3a a6 ae 7a 3c 80 a8 6a bc 56 36 94 bf
       0.0010383852 0.0153004285 -0.0143224 -1.1579082
000150 a2 f1 39 3c e2 0e a3 3c c0 9f b2 3d 9c 57 4f 3e
       0.011349114 0.019904558 0.08721876 0.20248264
000160 50 6a 0e 3e 51 9c 03 3f 37 db 4a bc 73 2a 6b 3c
       0.13907743 0.51410395 -0.012381366 0.014353382
000170 33 e0 22 bc b8 84 b2 3c c8 df 01 3d ae c6 b5 3c
       -0.009941149 0.0217918 0.031707555 0.022189464
000180 23 a0 f4 3c cd d5 c7 3d ce 97 00 bd ec 3d 6e 3c
       0.029861515 0.09757576 -0.031394772 0.0145411305
000190 77 96 3e 3d 7a 74 94 bc 3a 4e 99 3d 2f d9 3b bd
       0.046530213 -0.018121947 0.07485624 -0.04586142
0001a0 6b cf 53 bd 93 6a d3 3d bc 4c 0e 3e 81 85 3b be
       -0.05171148 0.10323062 0.1389646 -0.18312646
0001b0 97 8b b3 bb 21 67 ec 3e 6e e0 85 3b bd 34 8e 3d
       -0.005479287 0.4617243 0.004085592 0.06943653
0001c0 9f 1e e0 3d 0c 38 94 3c 1d 92 fd bd 2a 32 30 3d
       0.109433405 0.018093131 -0.123813845 0.04301659
0001d0 4f 58 7e 3e bc a8 25 3c 86 49 d9 3c af 5b 57 bc
       0.24838375 0.01011103 0.026524317 -0.013144418
0001e0 84 15 17 3a 80 d7 db b9 31 70 08 be 78 34 8f 3c
       0.0005763399 -0.00041931495 -0.13324048 0.017481074
0001f0 83 b4 89 3c e6 b6 32 ba bb 8c c1 be 45 e3 e9 bd
       0.016809708 -0.0006817415 -0.3780268 -0.11420301
000200 aa eb 86 3d 70 88 82 3e 95 a5 07 bc 24 7d 96 3d
       0.06587918 0.2549472 -0.008279224 0.073480874
000210 db c9 0a 3e e2 50 04 be a0 a1 45 bd ce 7f 3e bc
       0.13553564 -0.1292148 -0.04824984 -0.011627151
000220 08 89 9a bc 9e 4a 6d 3d 89 9e 51 bc 46 ad cf 3c
       -0.01886417 0.05793249 -0.012794145 0.025351178
000230 12 cd 6c bc c2 ca 2c bc d0 42 c3 3a fe b2 81 bf
       -0.014453189 -0.010546388 0.0014897231 -1.0132749
000240 f8 61 87 3b 94 81 e0 bb 34 ec 1d be ab 54 fc bc
       0.004131552 -0.0068513844 -0.15422136 -0.030802092
000250 94 17 13 3d 0a e0 f0 bd e1 36 18 3d b0 9b a3 3c
       0.035911158 -0.11761482 0.03716171 0.019971699
000260 94 45 a7 3e 37 90 cb bc ac bc 42 be 5d 0c f1 bc
       0.3267027 -0.02484904 -0.19017285 -0.02942484
000270 b6 a0 6c bd 59 1c bf 3d 29 8a d1 bd 22 2b 5d 3d
       -0.057770453 0.09331579 -0.1023143 0.053996213
000280 a1 29 b6 3d eb 84 25 3e 39 43 e5 be cc 6b 11 be
       0.08894659 0.16163985 -0.4477785 -0.14201277
000290 30 4e f1 ba 3c c8 f8 3d 5b ea af 3d 52 5a af 3c
       -0.0018410143 0.12147567 0.08589622 0.021405373
0002a0 63 5f 80 bd 2b f5 25 3d d7 3f 17 3d 72 a3 a8 3c
       -0.062681936 0.040517014 0.036926117 0.02058575
0002b0 2e 0b 2b 3e 3d 00 a9 bc 2d e2 6e be 67 f6 c2 bc
       0.16703483 -0.020629996 -0.23328467 -0.023799134
0002c0 4f 2a a8 3d ae 95 7a 3c 7a ab 33 bd f7 d0 87 bd
       0.08211195 0.0152944755 -0.043864705 -0.06631654
0002d0 da 27 aa 3d 62 1c e1 bc 57 4e c1 3d e0 11 73 3c
       0.08308382 -0.027479354 0.0943877 0.014835805
0002e0 d7 a9 10 3d ee 6e a3 bc 14 d3 b6 3e aa c0 db bd
       0.035318222 -0.019950356 0.35707915 -0.10730107
0002f0 ab 6e ad 3d a6 15 35 3e ed a2 2e be 6e 4f 27 3d
       0.08468374 0.1768404 -0.17054339 0.040847234
000300 a8 02 81 3d da e4 cf bd 60 d6 a0 bc d8 be 53 bc
       0.06299335 -0.10151072 -0.019633472 -0.012923919
000310 42 c0 34 bd 5b c6 56 bb ce bd c1 3d d8 31 4e 3d
       -0.044128664 -0.0032772038 0.094600305 0.050340503
000320 22 b8 0a 3d 9b 3f a7 bd 38 4a 1e bb ea 62 f0 be
       0.03386701 -0.08166429 -0.0024153125 -0.46950465
000330 f8 7a ce bc ef 26 25 3c 1b 5e 8f bd 77 d5 69 bd
       -0.02520512 0.010080083 -0.07000371 -0.05708834
000340 d7 22 ec bd 23 26 74 3e b2 b0 d3 3b 64 ed a1 3b
       -0.11530083 0.23842673 0.0064602727 0.0049416292
000350 a7 55 a7 bd 94 71 3c 3c 01 2f 30 be 9f d1 49 3c
       -0.08170634 0.0115016885 -0.1720543 0.012318044
000360 5f 54 9c bd f7 1a c5 3d fe 25 f6 3d f8 72 92 bc
       -0.0763328 0.09624284 0.12018965 -0.017877087
000370 b5 52 2d 3d bf 22 52 3d 1e b9 10 3d 73 17 c9 bd
       0.042315204 0.051302668 0.03533279 -0.09818926
000380 e7 5e 56 be 0c 40 11 3c 52 92 3b 3d 00 76 c5 3d
       -0.2093464 0.008865368 0.04579384 0.09641647
000390 f3 46 3a 3e 86 3f 1f 3e f8 49 e3 bc 5b 32 38 3c
       0.18191127 0.15551576 -0.027745232 0.011242474
0003a0 bf 34 8f 3d 84 ea a1 3c cf 7b c7 bd fa dc 41 3d
       0.069924824 0.019765146 -0.097404115 0.04732988
0003b0 ed 35 39 3d ce 2e 6e bc 5b 4a 85 3b 87 e0 a4 3c
       0.045217443 -0.014537526 0.0040677018 0.020126594
0003c0 68 c4 1d bd 78 43 0a 3b fa 27 50 bd 6d 48 28 bc
       -0.038517386 0.0021097343 -0.050819375 -0.010271174
0003d0 2d cf a9 bc 7b 00 9a 3c ff 96 bc 3d b9 a1 28 3e
       -0.020728672 0.018799057 0.09208488 0.16467942
0003e0 e6 33 24 3d d4 c6 8f bd 72 c4 13 3f 41 bd 2e bd
       0.040088557 -0.07020345 0.57721627 -0.042660955
0003f0 49 1d 2d 3d 02 4a 7c bd 37 94 c8 3d 4e ec ad bb
       0.042264257 -0.061594017 0.09793895 -0.0053077107

layers_mu.1.bias f4 [60]
000000 d1 8b 06 bf 92 47 a5 bf 82 12 88 bf 82 48 2a bf
       -0.5255709 -1.2912467 -1.0630648 -0.6651689
000010 dd 23 97 bf 60 c8 83 bf e6 74 a3 bf 97 ea a7 bf
       -1.180782 -1.0295525 -1.277005 -1.3118466
000020 9b f2 4d bf 58 bc 70 bf f8 e3 93 bf f4 4d a8 bf
       -0.8044831 -0.9403739 -1.1553946 -1.314879
000030 ec 4c 3b bf 2c bb 92 bf aa 02 a5 bf 64 f8 d9 bf
       -0.7316425 -1.146337 -1.2891438 -1.7028928
000040 ca 70 95 bf 02 1f 74 be af 59 8b bf f9 1b 7c bf
       -1.1675045 -0.23839954 -1.0886744 -0.9848018
000050 14 e0 c9 be 59 c7 45 bf fc 59 61 bf 18 3a 8b bf
       -0.3942877 -0.77257305 -0.8802793 -1.0877104
000060 cf 86 8e bf 55 42 e6 be 7a a5 84 bf cc 07 ab be
       -1.113489 -0.44972482 -1.0363 -0.33404386
000070 51 ea 71 bf b3 89 9a bf c8 25 aa bf b5 17 95 bf
       -0.94498163 -1.2073272 -1.329278 -1.164786
000080 08 3d 8c bf a4 24 16 be 13 65 9f bf 28 ba 7e bf
       -1.0956125 -0.14662415 -1.245272 -0.995028
000090 de 55 ae bf 23 62 87 bf 78 83 97 bf fa 99 fc be
       -1.3619955 -1.0576824 -1.1836996 -0.49336225
0000a0 0f d4 9f bf 39 03 8e bf 67 c8 c7 bf 6a 96 91 bf
       -1.248659 -1.1094733 -1.5608033 -1.1374028
0000b0 b8 c1 6b bf 8b 9f b9 bf 9a fb 7d bf d8 36 5d be
       -0.92092466 -1.4501814 -0.9921204 -0.21602952
0000c0 61 ff 8f bf 59 4a 3e bf 58 3c e6 be 1a 74 12 bf
       -1.124981 -0.74332196 -0.44967914 -0.57208407
0000d0 15 34 87 bf fe b3 50 bf 52 fa 9e bf 06 74 6c bf
       -1.0562769 -0.81524646 -1.2420142 -0.9236454
0000e0 ee 48 21 bf 64 df c0 bf f4 a8 e1 bf 5d 89 91 bf
       -0.63001907 -1.5068173 -1.7629685 -1.1370045

layers_mu.3.weight f4 [60, 60]
000000 1a 56 f0 bd 7a a3 31 3e 69 c4 8b be a4 73 d8 bd
       -0.117351726 0.17347518 -0.27298287 -0.10568932
000010 4e de b0 bd 6b 6a 1a 3e 53 06 5c 3e 07 fa a8 3e
       -0.08636151 0.15079658 0.21486787 0.33003256
000020 2f 2b 0a bd 44 41 ee bc da 05 36 3d fa bd a4 3d
       -0.03373259 -0.029083855 0.044439174 0.08044048
000030 c7 4c 55 bf f3 db 18 3f b1 bd 28 3e b6 58 61 3e
       -0.8332028 0.59710616 0.16478612 0.22006497
000040 fe 1f 93 bc 0a 09 90 be 44 e7 77 be b9 d3 27 be
       -0.017959591 -0.28131896 -0.24209315 -0.1638936
000050 94 97 47 3d 66 a7 39 be f0 03 c4 c0 cd 3e 00 be
       0.04872854 -0.18130264 -6.1254807 -0.12523957
000060 26 2b 9c bd 78 47 48 be 69 aa 11 3e 17 86 cf bd
       -0.076254174 -0.19558513 0.14225163 -0.101329975
000070 9d 63 d4 3e 46 07 bc be c9 72 0d 3e f4 ed 33 be
       0.4148225 -0.367243 0.13813318 -0.1757124
000080 76 db 9b be 63 08 04 bc c8 04 26 be 62 a0 7e be
       -0.30440873 -0.00805864 -0.16212761 -0.24865869
000090 9b f6 e7 bd 97 e1 42 3c dc 0c 82 bc df a7 b1 be
       -0.11326333 0.011894605 -0.015875272 -0.34698388
0000a0 fc 07 2b bd 1c 16 d0 be 0a 40 21 be 88 c1 57 be
       -0.04175566 -0.40641868 -0.15747085 -0.2106992
0000b0 8a 21 94 3e eb 04 9e 3e 79 46 99 bd 08 f8 36 3d
       0.28931838 0.30863127 -0.07484145 0.044670135
0000c0 94 97 8b be ab 0b 2c 3d 9f 8e 4e be 12 57 b0 bd
       -0.27264082 0.042003315 -0.20171593 -0.08610357
0000d0 8a b1 f6 3d ec 91 aa bd e9 82 66 be 4d cf 07 3f
       0.12045582 -0.08328614 -0.22510876 0.5305069
0000e0 a3 4d 35 bf a6 a3 59 3e 4f 82 aa bd c7 d8 ce 3e
       -0.7082159 0.21253833 -0.08325636 0.40399763
0000f0 5d 4c 8b bd b1 e2 ba 3e e0 70 bf 3e a4 a4 37 be
       -0.068016745 0.36501077 0.37390804 -0.17933899
000100 b2 f6 f9 3d c4 ee 26 be 29 73 0d 3e eb 11 f9 bd
       0.122052565 -0.1630202 0.13813461 -0.12161621
000110 2e 5e 2c 3e a3 69 00 c1 2b 6e 3a bd 69 f7 96 bd
       0.16832802 -8.02579 -0.04551522 -0.073714085
000120 6f 96 89 be a0 68 93 be 1b 27 b9 3d cc 8d b8 be
       -0.26872584 -0.2879076 0.09040662 -0.36045682
000130 87 88 3e bd c3 1b bc be 93 c0 06 be d6 1e 87 bc
       -0.04651692 -0.3673993 -0.13159399 -0.016494196
000140 b8 22 fa bd b6 10 8a be 34 42 79 3e 22 d7 e1 3c
       -0.12213653 -0.26965874 0.2434166 0.027568404
000150 12 0c ce bd cb a6 90 3d 7f cf be be da 16 4b be
       -0.10060896 0.07063063 -0.37267682 -0.19832936
000160 d7 ee 35 bd fb 23 81 3d 76 8c fd 3d 1b f2 05 bf
       -0.04441723 0.06305691 0.123803064 -0.5232255
000170 d4 6d d4 3e e1 44 7e be 99 ec e6 bd a6 fd 6c be
       0.41490042 -0.24830963 -0.11275596 -0.23143634
000180 2a 72 93 3e ec 56 28 3e 2d 72 82 3d fc 87 9a 3f
       0.28798038 0.16439408 0.063694336 1.2072749
000190 63 6a e5 bd 8e 1d 9e bd a8 d6 8d 3d 45 1f 0b 3e
       -0.11201932 -0.07720481 0.06925708 0.13586147
0001a0 04 64 2a bf 6a 13 95 3f 14 ce c4 3e 2d f9 e2 be
       -0.6655886 1.164655 0.38438475 -0.4433073
0001b0 c0 b6 6b bf 96 cd 8d bf c0 b0 e4 3c 19 d3 bc be
       -0.9207573 -1.1078365 0.027916312 -0.36879805
0001c0 bd 3c c8 be 41 03 a9 bd 05 64 96 be 6e 74 3a bf
       -0.3910884 -0.08252574 -0.29373184 -0.7283391
0001d0 b4 3c 1e bf 91 30 b7 3e 6b e7 42 be ac be aa be
       -0.61811376 0.3577924 -0.19033591 -0.33348596
0001e0 78 57 c2 3d b1 3f d2 bd 85 06 92 3e 76 72 6a be
       0.094893396 -0.102660544 0.285206 -0.22895226
0001f0 d2 61 35 bd ce 35 6e be 09 7b bd bf a3 a7 10 bf
       -0.04428274 -0.23262712 -1.4803172 -0.56505793
000200 86 bf 44 bf 25 fd f3 be b3 dd 2a 3e 9f 51 1e 3e
       -0.7685474 -0.4765407 0.16686134 0.15460823
000210 7c 12 9b be 09 b1 52 bf 03 83 db 3d 9d ef 1e bf
       -0.3028754 -0.82301384 0.10718348 -0.6208437
000220 e3 d5 a8 bf 94 2b b1 be 78 d6 6f be 3d 8b b7 bd
       -1.3190273 -0.3460356 -0.23421657 -0.089621045
000230 f7 74 05 bf f7 8f a2 3e 66 20 31 bf 41 aa c5 3e
       -0.521316 0.3175046 -0.6919006 0.38606456
000240 f2 63 b5 be a1 a6 1c bf 48 46 d8 3c c2 f4 75 be
       -0.35427815 -0.61191756 0.0264007 -0.24019149
000250 98 b4 09 3f 8c 3e cb 3e 29 64 98 3e ee ee 7a c0
       0.5379119 0.39696157 0.29763916 -3.920833
000260 74 61 e1 be e6 1c 2d 3e b3 22 e5 be 0f 8d 56 3f
       -0.44019663 0.16905555 -0.44753036 0.8380899
000270 88 51 fe 3d 14 61 27 3e e9 e0 bf be 43 45 eb be
       0.124178946 0.16345626 -0.3747628 -0.4595128
000280 d0 d0 a0 bc 23 0a 8e 3e 89 8c 56 be d5 77 81 3e
       -0.01963082 0.2774211 -0.20952047 0.25286737
000290 1f a0 0a 3e 03 9d 7a 3d 16 0f bb 3e 32 e3 d6 3d
       0.13537644 0.061184894 0.36534947 0.10492553
0002a0 22 8c 56 3e f0 ce dd be f4 ae 1e bf fc 11 b1 3d
       0.20951894 -0.43321943 -0.6198571 0.08646008
0002b0 b9 4f 2f 3e a6 25 10 3e 63 8d 3a 3f 85 65 86 bf
       0.17120256 0.14076862 0.7287199 -1.0499731
0002c0 75 9d a5 be 29 56 5f 3f 5a 23 f9 bd ac 66 ff bd
       -0.32346693 0.87240845 -0.12164946 -0.12470755
0002d0 3a 75 22 be dd 00 7d 3e 92 03 0e be ed d3 fa 3d
       -0.15865031 0.2470736 -0.1386855 0.12247453
0002e0 78 ca 2c be c0 35 4d be 96 be 7b 3e 43 0a 2a 3f
       -0.1687411 -0.20040035 0.24584422 0.6642191
0002f0 c0 37 43 bf 8f 97 a6 be 1d 31 08 be dc e9 1a 3f
       -0.7625694 -0.32537505 -0.13299985 0.6051309
000300 68 9a 0d be c8 fe 50 3e 76 8a 4d bc 38 ae 09 be
       -0.13828433 0.20409691 -0.012545219 -0.13445365
000310 9f ea a3 c0 08 e2 f3 be 20 e5 fe 3e b2 91 8e be
       -5.1223903 -0.47633386 0.49784184 -0.27845532
000320 fe 96 37 3d 5d 99 c6 be 6a 61 99 be 5a ab d3 3d
       0.04482173 -0.38788882 -0.29957134 0.10335417
000330 73 29 94 bf b2 4f 2e 3f db 13 aa be 5f c4 86 be
       -1.1575149 0.68090355 -0.33218274 -0.26321694
000340 c9 58 a8 bd 18 56 c2 3e 04 86 b7 bd b2 6d 77 bd
       -0.082200594 0.3795631 -0.08961108 -0.060407348
000350 3e d4 4d 3e da aa 17 bf ff b2 4a 3e f6 8b b9 be
       0.20100495 -0.59245074 0.19794844 -0.36239594
000360 85 0c df bc 69 09 25 3e ce 05 17 3d 4d 78 0f be
       -0.02722765 0.16116871 0.03687077 -0.14010735
000370 bd a1 a4 bd 4a d2 45 be 08 19 a5 3d db 06 48 bf
       -0.08038662 -0.193185 0.08061415 -0.7813546
000380 95 00 ea bd 89 fa 5b 3e 44 46 0f bf 05 68 64 be
       -0.11425892 0.2148229 -0.5596659 -0.22305305
000390 05 6a 5c 3d f4 16 59 3e 21 c4 2c 3e c3 b4 07 bf
       0.053812046 0.21200162 0.16871692 -0.53010195
0003a0 1a d8 dd be fc d3 80 bc 5b ca 98 3f d0 c8 0e 3b
       -0.43328935 -0.015726082 1.1936754 0.0021787174
0003b0 d4 53 0a bf 57 35 3a be 76 9f 26 3f db 99 22 be
       -0.5403416 -0.1818441 0.6508707 -0.15879004
0003c0 e0 f6 1a ba 7b c8 b9 bd 4d 6d ab be 48 3e 42 be
       -0.0005911421 -0.09071442 -0.33481827 -0.18969071
0003d0 02 27 4d 3e 58 b0 01 bf 1c 32 e4 3d 59 4f d4 3e
       0.20034412 -0.50659704 0.1114237 0.41466787
0003e0 74 c0 72 be 34 3f 19 3f fb d5 17 bf 98 ba 37 3e
       -0.23706228 0.59862065 -0.59310883 0.17942274
0003f0 29 6d ad 3e dc 8e 96 3f 8f 4a 44 3e 27 1b a3 3e
       0.33872345 1.1762347 0.19169067 0.31856653

layers_mu.3.bias f4 [60]
000000 86 1d 2f bf 01 10 5e bf 09 30 3e bf 42 e4 12 bf
       -0.68404424 -0.8674317 -0.74292046 -0.57379544
000010 b6 3e 30 bf 5d ff 2c bf 71 55 57 be a0 52 a6 bf
       -0.6884569 -0.67577153 -0.21028687 -1.2993965
000020 44 b0 bd be da 52 ed be b0 26 15 3e 33 4b 43 bd
       -0.37048542 -0.46352273 0.1456554 -0.047679137
000030 ce 48 68 be 0b e1 52 bf 0a 36 86 bf 51 11 9e bd
       -0.22684023 -0.8237464 -1.0485241 -0.077181466
000040 4c 2d 66 bf a8 99 cc be a3 70 3b bf 26 f6 01 bf
       -0.8991287 -0.3996098 -0.73218745 -0.5076622
000050 c4 69 86 bf fb 7f cc be c3 f5 38 bf 21 f4 4e bf
       -1.0501027 -0.3994139 -0.7225 -0.8084126
000060 dc d8 60 3c e4 14 40 bf 2c 9b 5e bf a8 fe 4a bf
       0.013723578 -0.75031877 -0.86955523 -0.79294825
000070 2d 9b 2e bf 0a 84 ac be 6f d5 75 bf 33 0c 36 bf
       -0.6820553 -0.33694488 -0.960288 -0.71112365
000080 1e 6a 51 bf 02 47 3f bf 23 e4 34 bf 75 7f 44 be
       -0.81802547 -0.74717724 -0.7066061 -0.19189246
000090 ae 52 58 bf 6e f3 5b 3d b2 b0 3e bf 60 a8 23 bf
       -0.8450116 0.05369895 -0.74488366 -0.63928795
0000a0 5d b9 74 be 28 c7 31 bf b9 ae c2 bd 10 a1 0e be
       -0.23898835 -0.69444513 -0.09505982 -0.13928628
0000b0 f9 55 8a bf 01 98 a1 bf 8e f9 02 bf 2c c6 66 bf
       -1.0807487 -1.2624513 -0.5116204 -0.90146136
0000c0 16 c9 67 bf 41 e6 4a bf 40 fc 58 bf ab c1 77 bf
       -0.9054121 -0.7925759 -0.847599 -0.9677989
0000d0 a0 fe 6d bf f4 68 25 bf 30 e2 e9 be ad 8f 36 bf
       -0.9296665 -0.6461327 -0.4568038 -0.7131298
0000e0 e4 46 86 bf fd 51 95 bf 69 0d 30 bf 8f 50 9d bf
       -1.0490384 -1.1665646 -0.6877046 -1.229021

layers_mu.5.weight f4 [50, 60]
000000 15 bc a5 bd a2 6a 95 be 31 f7 32 3f 47 d6 69 be
       -0.080925144 -0.29182917 0.69908434 -0.22835647
000010 f0 12 80 3e c4 ad d1 bf f8 db 72 bd fa 87 28 bd
       0.25014448 -1.6381154 -0.05929181 -0.041145302
000020 ac c4 1b 3f eb b4 92 3e 2d 2e 54 3e a4 97 f2 bd
       0.6084697 0.28653654 0.2072074 -0.118453294
000030 6e bd 16 be 7f 71 88 3c 86 5f 34 be 96 47 c9 3d
       -0.14720699 0.016655682 -0.17614564 0.09828107
000040 82 a5 31 3e 2d 48 0d 3f e7 c3 4a 3f af 89 fa be
       0.17348292 0.55188257 0.79205173 -0.4893317
000050 7e 75 ec 3f 3a 7a 7a be ca 1d 4c 39 18 86 19 bf
       1.8473356 -0.24460688 0.00019466053 -0.59970236
000060 14 c5 3a be 98 15 19 40 b8 73 e6 3e 6f ab 5a 3f
       -0.18239242 2.391943 0.4501016 0.85417837
000070 6b 66 00 bf 61 e2 86 bf 61 53 63 bd f0 f4 28 bf
       -0.5015628 -1.0537835 -0.05549944 -0.65998745
000080 44 db 04 c0 c0 c8 35 bf 96 0e 0d bf b6 b1 08 be
       -2.075883 -0.71009445 -0.5510038 -0.13349041
000090 79 f3 d5 bd 0f 59 00 be 46 8c 46 be c8 37 67 3e
       -0.10446829 -0.12533973 -0.19389448 0.22579873
0000a0 cd 4b b2 bd 0d be 31 3e 5c 35 35 bc 63 8e df 3d
       -0.08705864 0.17357655 -0.011060085 0.1091583
0000b0 72 cf ab bc 8c cf ae bd ee 94 f0 be ec f3 ab 3f
       -0.020972941 -0.0853568 -0.46988624 1.3433814
0000c0 6a 99 b4 3e bb 81 e5 3f 60 d9 95 3f da 2b d3 3d
       0.35273296 1.7930216 1.1706963 0.103110984
0000d0 f2 73 71 3e fa a9 0c bf 86 3e b3 bc 6e c5 5e 3e
       0.23579386 -0.54946864 -0.0218804 0.21755001
0000e0 c2 8d 0c 3f 86 34 1d 3d 44 40 53 bf 9f 6e 71 be
       0.54903805 0.03838017 -0.82519937 -0.23577355
0000f0 aa 9a 20 40 da 84 be bf 29 36 26 c0 fb 0a 13 be
       2.50944 -1.4884293 -2.5970557 -0.14359657
000100 ec 6a af bf ff 1a aa bf 43 b1 23 3e a0 e9 12 3e
       -1.3704505 -1.3289489 0.15985589 0.14346933
000110 93 0c 1f bd 8a d3 38 bf a1 a7 7d be fa 65 c0 3c
       -0.03883035 -0.72197783 -0.24770977 0.023486126
000120 14 b9 5c 3b c4 76 f4 3f 57 f8 8d bf 41 06 a2 be
       0.003367965 1.9098744 -1.1091412 -0.31645396
000130 00 e3 14 bf c1 5f 8c be 99 fd fd bf ad 3d 31 be
       -0.58158875 -0.27416804 -1.9843017 -0.17308684
000140 1b fb 8b 3e ba 20 4e be 37 2f 3a c0 aa 33 10 bd
       0.27340016 -0.20129672 -2.9091318 -0.03520552
000150 c5 6b f4 3d dc 1f ed 3f e1 18 98 bf a9 32 c3 be
       0.11934618 1.8525348 -1.1882592 -0.38124588
000160 df c3 87 3f c9 d2 d0 be 2f 9f bf bf ee be 57 3e
       1.060665 -0.40785816 -1.4970454 0.21068928
000170 ad dd ec bf 28 06 cc 3f 2c 32 0c 40 ae 8f 0f 3e
       -1.850515 1.5939379 2.1905622 0.14019653
000180 04 44 8d 3f 19 55 90 3e 62 71 87 be 0a 2d a5 3c
       1.1036382 0.28189924 -0.26453692 0.020163078
000190 a8 67 75 be 93 6b b8 3f 6f 5b 18 3f 7a 37 c3 ba
       -0.23965323 1.4407829 0.59514517 -0.0014893853
0001a0 5f 99 3c be 3b 51 ae 3c 04 07 87 3f 1e 38 df 3f
       -0.18417881 0.021278968 1.0549016 1.7439001
0001b0 da ff 03 c0 2f 75 61 3f cf 9a f0 3d dd fa e2 bf
       -2.062491 0.8806943 0.117482774 -1.7732807
0001c0 b9 78 44 40 5e 17 29 40 1e fd af 3f bd 84 9f 3e
       3.0698683 2.6420512 1.374912 0.3115596
0001d0 7b ec 45 c0 21 93 56 3e 6d 2e 35 40 bd 74 3f be
       -3.0925586 0.20954563 2.8309586 -0.18696876
0001e0 87 d9 98 3d e7 bd 9c 3f a9 54 4e 3f a8 df bc 3e
       0.07463365 1.2245454 0.8059793 0.36889386
0001f0 15 2c 41 be 9d 78 5a bf e4 a7 a1 bc 84 dd b9 3e
       -0.18864472 -0.8534029 -0.019733377 0.36301816
000200 f8 3a 64 3f fe 65 c9 bf e7 27 5e be 39 66 51 3e
       0.8915248 -1.573425 -0.21694909 0.20449151
000210 da cf 31 bf 18 27 84 bf 96 58 88 3e 8f 19 9c be
       -0.6945778 -1.032443 0.26630086 -0.3048825
000220 02 97 1a be cf fe 12 c0 b8 ee 8d bf a9 d9 2b bf
       -0.15096667 -2.2968023 -1.1088476 -0.67129
000230 86 b7 59 3f 54 5f b2 be c5 5d 39 3f d5 1e b2 bf
       0.8504566 -0.34838355 0.72408706 -1.3915659
000240 8e 45 c6 3e d0 2a 64 bf 0f 6c d9 bd 5d 0a f5 be
       0.3872494 -0.89127827 -0.10616314 -0.4785947
000250 6c 9e 25 40 26 a3 b1 bf 2c 6d 1d 3f 9c 06 28 40
       2.5877943 -1.3877914 0.6149471 2.6254034
000260 a7 a1 b8 be 06 c2 fb bf b8 52 6d 3f 36 19 49 3f
       -0.3606083 -1.9668586 0.92704344 0.78554094
000270 17 6e 89 3e 17 34 42 3e 94 17 86 3c e2 73 2b be
       0.26841804 0.18965183 0.016368665 -0.16743425
000280 ea 7d 38 3f 37 9b 7e bf 24 21 6e 3f c4 1d 08 bd
       0.7206713 -0.9945559 0.9301932 -0.03323151
000290 18 a9 82 3c e8 79 22 be a5 22 55 bf cc 11 42 3f
       0.01594977 -0.15866816 -0.8325599 0.75808406
0002a0 cc 1d 9c be ce 5b df 3e 56 ed 1c 3f ee a3 77 be
       -0.30491483 0.4362473 0.61299646 -0.24183628
0002b0 55 b2 e4 be ca ef 12 be 97 c4 1b bd 61 20 b0 3e
       -0.44667307 -0.14349285 -0.03802928 0.34399703
0002c0 9f ed f8 3f 26 98 0e bf cd dd 30 bf e7 dd 12 bf
       1.9447516 -0.5570091 -0.6908844 -0.57369846
0002d0 d6 d7 7e 3e 2d 40 6a be f5 a1 dd 3e c3 d7 2e bf
       0.24887022 -0.22876044 0.43287626 -0.68297976
0002e0 1f 6f de 3d e4 55 03 3e d7 b2 ed be 8a 93 06 be
       0.108610384 0.12825733 -0.46425506 -0.13142219
0002f0 15 6d eb be c6 95 1f bb 4c 5f 85 3b 91 bf 06 be
       -0.4598166 -0.0024350747 0.004070198 -0.13159014
000300 46 23 5f bd 02 af 81 bd 8b 09 d0 3e aa d1 50 3b
       -0.054477 -0.06332208 0.4063228 0.003186325
000310 42 c3 15 bf 0f 3a b9 bd 91 7c c6 3e 8f b7 48 be
       -0.58501065 -0.09044277 0.38766912 -0.19601272
000320 29 b3 b5 be fb 6b 9f bd ad 75 c6 bd e1 e8 0c 3f
       -0.3548825 -0.077842675 -0.096904136 0.55042845
000330 4a 78 98 bd 29 07 a8 be 5b db fb 3d 95 f7 81 be
       -0.07444818 -0.32817963 0.12297698 -0.25384203
000340 a0 0f 48 3d 92 56 05 3c c9 31 28 be 3c d5 97 3d
       0.048843026 0.008138316 -0.16425242 0.07413718
000350 16 41 30 be a2 ea 04 3f 9c 7a 9f 3e d5 2a a1 be
       -0.17212328 0.5192052 0.3114823 -0.3147799
000360 f8 f0 ab be 48 35 8a 3e b3 ae 55 3d 42 c0 d9 3e
       -0.33582282 0.26993775 0.05216856 0.42529494
000370 17 bd 1b 3c af 22 24 3e a9 47 81 3e bd 6b 13 3e
       0.009505532 0.16028856 0.25249985 0.14396568
000380 3a 88 32 3f 30 69 d9 be 06 1a 63 3e b9 e2 7c be
       0.69739115 -0.42463064 0.22177896 -0.24695863
000390 43 48 19 3f 3b 94 db 3d 4c 47 0c 3e f8 f1 8b be
       0.5987589 0.10721632 0.13699073 -0.27333045
0003a0 87 82 19 3e 41 25 f5 bc 33 43 00 be 7d 60 82 3d
       0.14991198 -0.02992499 -0.12525634 0.0636606
0003b0 26 65 53 3d 4c 9b 62 3e d6 78 e8 be 45 d6 81 be
       0.051610135 0.22129554 -0.4540469 -0.25358787
0003c0 76 4f 59 3f fb f0 92 3c 9f 98 30 3f f0 8b 1c bf
       0.8488687 0.017937174 0.6898288 -0.6115103
0003d0 b5 35 7c 3d 93 0b 08 3f 08 ff 71 be 7f de 40 3f
       0.061574657 0.5314266 -0.23632443 0.753395
0003e0 2d 17 24 3f 13 d0 27 3f 01 ce e5 3e 28 c7 79 bf
       0.64097863 0.6555187 0.4488373 -0.97569513
0003f0 98 19 2a 3f dd 1a a7 be a2 b3 b6 be a2 82 cf bd
       0.664453 -0.32637683 -0.35683924 -0.10132338

layers_mu.5.bias f4 [50]
000000 bd 3e 54 3d 6e 05 19 be 60 be 26 be 39 a5 fd 3d
       0.051817644 -0.14943478 -0.1628356 0.12385029
000010 1e 73 d9 3e f8 a4 66 3e 44 77 31 be d5 2a da bd
       0.4247064 0.22523868 -0.17330652 -0.10652701
000020 11 33 d0 3c 66 21 32 3e 24 70 75 3e 5e 42 1f bc
       0.025414975 0.17395553 0.2396856 -0.009720413
000030 2b 72 9c 3f aa ad a5 3d b7 2f 10 bf 5d 4d e2 bc
       1.2222341 0.080897644 -0.5632281 -0.02762478
000040 58 a3 2a bd 45 09 92 be 50 57 be 3d 33 5e 9d 3e
       -0.041659683 -0.28522697 0.09293997 0.3073593
000050 a2 9f 8f 3e f5 91 89 be 8a da 94 bd cd 52 ec be
       0.28051478 -0.2686917 -0.072682455 -0.46156922
000060 3c 46 39 3f c7 01 64 be 56 c1 52 be 35 b3 8d 3d
       0.72372794 -0.22266303 -0.20581564 0.06918947
000070 5c a4 d5 be 69 09 de 3d 7b 89 da be 4a 35 66 bd
       -0.4172696 0.108416386 -0.42683014 -0.056203164
000080 66 72 b3 3e 17 ef 36 3e 5e fa 3d 3d e6 2e 97 3e
       0.35048217 0.17864643 0.046381347 0.29527968
000090 0f 14 05 3e d7 6d 11 be d8 c4 55 3e 09 1a 90 be
       0.12995933 -0.14202057 0.20875871 -0.28144863
0000a0 a8 aa 4b bc ae 10 b5 3d 58 c6 77 be 0e 47 00 be
       -0.012430824 0.08841072 -0.24196756 -0.12527105
0000b0 01 f0 5a 3e c5 c4 54 3e 62 aa 11 bd 27 c3 a3 be
       0.21380617 0.20778187 -0.03556288 -0.31984827
0000c0 45 40 52 3e 1f bd 95 3d
       0.2053233 0.073114626

layers_sigma.0.weight f4 [60, 50]
000000 a6 29 f5 bc a4 6c 37 be 67 6a 04 bd ce 6c bc 3e
       -0.029927086 -0.17912537 -0.032328036 0.3680176
000010 b9 93 9a 3b 03 01 51 3d b9 b1 98 3e 7a d3 86 3d
       0.004717317 0.051026355 0.29823092 0.06583305
000020 ec ad f3 bd aa a7 15 be 05 a0 95 3e 56 97 1f 3d
       -0.11898407 -0.1461474 0.29223648 0.038962685
000030 53 33 8d 3d 62 5a 49 bd 25 d8 ae 3d 31 92 df bf
       0.06894555 -0.04915846 0.0853732 -1.7466489
000040 de b1 1c bc ce 23 b2 bd cd c3 38 be 27 fe b6 bd
       -0.009563891 -0.086982355 -0.18043442 -0.089351945
000050 e2 e9 53 3d 34 76 09 3e ea f0 e0 bc cd 87 e7 3d
       0.05173672 0.13423997 -0.027458627 0.11305199
000060 44 39 87 3b b6 f1 15 3e 0b c7 ee be 77 48 dd bb
       0.0041266996 0.14642987 -0.46636233 -0.0067530232
000070 4d 98 75 3d 00 00 fc bd 51 d6 ee 3c 69 ee ad 3c
       0.0599597 -0.123046875 0.029154928 0.021231847
000080 55 24 12 3e fc 41 48 be 7b 9a 6c bd d7 95 92 bc
       0.14271672 -0.19556421 -0.05776451 -0.017893715
000090 d2 7a 82 be a7 c8 fd 3c f4 c0 07 3f 32 7d 5e 3b
       -0.2548433 0.030979468 0.530288 0.0033949134
0000a0 31 9f b7 bd cc fe de be 4a 0c c6 3d 85 ca 2e 3e
       -0.0896591 -0.4355377 0.09670313 0.17069443
0000b0 84 45 5a 3d e3 a8 01 3d fa dd 98 bd 12 a9 8d be
       0.05328895 0.031655204 -0.07464214 -0.27668053
0000c0 f2 85 47 3f 4c 66 d7 bc 71 9f 3b bd d4 88 a7 3d
       0.7793876 -0.026293896 -0.045806352 0.08180395
0000d0 40 60 d7 bd e9 19 66 3e e5 34 5c 3e 8d c5 23 be
       -0.10516405 0.22470821 0.21504553 -0.15993328
0000e0 44 e2 64 bd c6 aa eb 3d ff db 1c 3f 94 a0 c8 3e
       -0.055879846 0.11507182 0.6127319 0.3918501
0000f0 72 58 b4 3e 98 a4 83 ba 50 75 3c 3d 2e d5 7a bd
       0.35223728 -0.001004356 0.046010315 -0.06123846
000100 ba 33 85 bd e9 be 29 3f 59 3a ba 3e 2e 92 83 3d
       -0.06504007 0.6630693 0.3637264 0.06424366
000110 42 65 e7 3e 9b bd 52 3d ac ea 2a 3f c2 40 b0 be
       0.4519444 0.051450353 0.6676433 -0.34424406
000120 22 7d 2d be 7d 3b 7a be 0f 09 e0 bd 4e 16 59 3d
       -0.16942266 -0.24436755 -0.10939228 0.052999787
000130 81 d1 19 3f 73 b2 4f be 61 6d a8 be bf 79 84 be
       0.600853 -0.20282917 -0.3289595 -0.25874135
000140 aa 04 37 3d b8 3a 12 3b 3a 55 74 3e 75 58 39 bd
       0.044682182 0.002231283 0.23860636 -0.045250375
000150 40 df 0f 3d 7b 8b bb be 97 74 33 3e 3a 42 77 bc
       0.035125017 -0.36629853 0.17524944 -0.015091473
000160 21 79 fd 3c 23 7e 87 3e 3a 16 26 be 13 5d db 3d
       0.030941548 0.26463422 -0.16219416 0.10711112
000170 c2 82 9a be 1e 8f 22 3d 0a fe a8 be 6a 47 f8 bb
       -0.30177885 0.03968727 -0.33006316 -0.0075768726
000180 51 47 2a bc 97 22 07 3f da ae 9c bf 56 ec 51 be
       -0.01039298 0.52787155 -1.224086 -0.20500311
000190 30 d8 ad bc 61 c4 db 3d b1 b1 1a be b6 6f bd 3e
       -0.02122125 0.10730816 -0.15106846 0.3699929
0001a0 35 4a 96 be 1d de 44 3e e9 a9 07 3e 6f 8d 44 3e
       -0.2935349 0.19225354 0.1324841 0.19194578
0001b0 64 b1 41 3d b3 63 13 3e 79 2a 64 3d 30 59 dd bd
       0.047288314 0.14393501 0.055704568 -0.10808027
0001c0 b4 34 89 3e 84 0b 93 be db 14 05 3e 87 0a 64 be
       0.26798022 -0.28719723 0.12996237 -0.22269641
0001d0 cc 89 04 bd d8 38 bf 3d 08 c8 95 3d 1c 4d 88 be
       -0.032357976 0.09337014 0.073135436 -0.2662133
0001e0 01 76 10 3e 67 72 b2 3e 45 f2 1e bd b9 5b cb bd
       0.14107515 0.34852907 -0.038805265 -0.09929604
0001f0 33 77 c8 3d b8 43 84 be c7 ab f5 3d ca d3 97 3d
       0.097883604 -0.25832915 0.119956546 0.074134424
000200 56 1a 76 be 17 70 bc bc 6e 06 a2 3e 82 f7 6f 3d
       -0.24033484 -0.023002667 0.3164553 0.05858565
000210 24 81 19 bd 56 5b 9d bc 12 4b 22 bd 8c ed 00 be
       -0.037476674 -0.019208591 -0.039622374 -0.12590617
000220 05 cd c4 bd b3 4a 02 3b 90 8e 33 bf b7 eb 41 3e
       -0.09609417 0.001988095 -0.7013941 0.18937574
000230 ab 38 71 3e d6 3d 95 3d eb 35 a2 3e ae ea 94 3e
       0.23556773 0.07287185 0.3168176 0.29085296
000240 05 74 bf bd 45 b1 88 3e dd 9f 6a be a6 86 c4 bf
       -0.09348301 0.26697746 -0.22912546 -1.5353591
000250 96 ba a8 be 13 8d 52 3b 34 ca 58 be bc 83 c0 3d
       -0.32954854 0.0032127544 -0.21170884 0.09400126
000260 28 d3 cb bd 70 fa 87 be e8 b7 36 bd a4 3e 9e 3e
       -0.09952384 -0.26558256 -0.04460898 0.30907166
000270 6b 84 80 be 6e 76 6c bd 44 ff d6 3e e4 a3 90 bf
       -0.25101027 -0.05773013 0.41991627 -1.1300015
000280 27 e3 a2 be 2b 76 f6 3d 38 ba 5e be 7f f8 7a be
       -0.31813928 0.120342575 -0.21750724 -0.24508856
000290 3d e1 05 bd ab 24 c1 3e ca 0e fb ba 5e 9f 5a 3e
       -0.032685507 0.37723288 -0.0019154188 0.21349856
0002a0 dc 49 42 3e 88 d8 55 be 33 89 93 3e 58 09 aa 3d
       0.18973488 -0.20883381 0.28815612 0.083025634
0002b0 b0 62 38 3e e0 18 a6 bd bc 46 d0 3d 66 8f 93 bd
       0.18006396 -0.08110213 0.101697415 -0.072050855
0002c0 4d 0f d6 3d 7d ac a6 be 60 66 01 bd 58 07 e9 bd
       0.10452137 -0.32553473 -0.031591773 -0.11378354
0002d0 cf c8 6c 3f 60 23 03 be 54 fe 30 be 25 ab 83 be
       0.9249391 -0.12806463 -0.17284518 -0.2571651
0002e0 6a 5b 1d be 2a e9 97 bd dd 87 88 be ea 51 87 3d
       -0.15366903 -0.074175194 -0.26666155 0.06607421
0002f0 57 86 85 be 44 b4 a2 bd 2f eb bd bc 95 ca 50 be
       -0.26079056 -0.07944539 -0.023183433 -0.20389779
000300 f5 a2 b9 3e 49 40 2e 3e 66 42 db 3d f3 f4 46 3e
       0.3625714 0.1701671 0.10706024 0.19429378
000310 0d 19 83 be 17 dd 26 3f b8 cc f0 be e1 d1 83 bd
       -0.2560505 0.65181106 -0.47031188 -0.064365156
000320 00 0e 06 be 2e df bb 3e b4 c2 57 3b 7a 4b 30 3e
       -0.13091278 0.3669371 0.0032922449 0.17216292
000330 41 43 a0 be 94 a9 b2 be 74 75 3c bd e6 7e da be
       -0.3130131 -0.34895003 -0.04601045 -0.4267494
000340 ac 67 91 be 68 3e 46 be 43 6d 61 be 1e 26 68 be
       -0.28399408 -0.19359744 -0.22014336 -0.2267079
000350 a5 00 dd 3d 68 71 22 bf 65 8e 17 3e 73 b5 6a 3e
       0.107911386 -0.63454294 0.14800413 0.2292078
000360 9c 98 9d be 10 7a f3 bd 95 d3 cd 3d 27 41 95 3c
       -0.30780494 -0.11888516 0.10050122 0.018219544
000370 4f 58 b0 bc b7 08 36 be 36 ec 58 3d a0 98 5b 3c
       -0.021526484 -0.17776762 0.052959643 0.013403088
000380 e1 67 e2 3d 09 0a 0b bf 97 55 70 3f 5a ff a3 3c
       0.110549696 -0.5431219 0.938806 0.020019222
000390 7a 0d b2 3e 81 62 8d be aa 5d 99 3d 58 0e 81 3d
       0.34775907 -0.27614215 0.07488568 0.06301564
0003a0 78 a2 cd 3e 4b 41 cb bb a0 eb 68 bd 5a a3 0e be
       0.40163016 -0.006202852 -0.056865335 -0.13929501
0003b0 27 73 28 be 20 c9 a0 bd b0 43 3c be c6 21 21 3e
       -0.16450177 -0.078508615 -0.18385196 0.1573554
0003c0 7f e5 82 be 26 40 9a 3e 1f 63 74 be b6 0a 2d 3c
       -0.25565717 0.30127066 -0.23865937 0.010561636
0003d0 75 c5 88 be 06 8a b5 bc 1a f1 62 bd 9b 4c 07 3f
       -0.26713148 -0.022160541 -0.055405714 0.52851266
0003e0 05 6e f3 3e 52 d7 6d 3c 85 09 8f 3d 5a 3b 8a bd
       0.47544876 0.014516668 0.069842376 -0.06749602
0003f0 2f 4a 9a 3d 0f 30 05 be 32 74 e2 3b 06 b3 3d be
       0.07533681 -0.13006614 0.006910824 -0.18525323

layers_sigma.0.bias f4 [60]
000000 0a c1 38 bd ed 8d 3b 3d 82 73 df bd 75 14 e2 bd
       -0.04510597 0.045789648 -0.10910703 -0.11039058
000010 38 96 11 be 70 7f f0 3b 2f da ff 3c a3 77 e0 bc
       -0.1421746 0.0073394105 0.031231968 -0.027400797
000020 17 89 71 be c2 8a 46 be 4f 3a 2c bd 62 92 11 be
       -0.23587452 -0.1938887 -0.042047795 -0.14215997
000030 fc 4e b5 bd ed 0e bb 3d 99 8a c0 3c fe bc aa 3d
       -0.08852956 0.09133706 0.023503589 0.08336829
000040 af f3 62 bd 52 c6 eb 3d c1 a0 58 be 52 92 88 bd
       -0.055408176 0.11512436 -0.21155073 -0.066685334
000050 60 dd b3 3f 2e e0 a5 3d 98 04 62 bd 7c 5b 26 3d
       1.4051933 0.080993995 -0.055180162 0.04061459
000060 42 06 f3 bd 2a 67 18 3e c6 63 e4 bd 62 ae 75 bd
       -0.11866428 0.14883104 -0.11151843 -0.059980758
000070 30 c4 e6 bc 33 6e e8 3d 21 4a 7e bd f9 99 18 bd
       -0.028169721 0.11349144 -0.062082414 -0.037256215
000080 70 3c c9 bd ee 7b c5 bd 7e 8a aa 3d 28 88 01 3e
       -0.09825981 -0.09642778 0.083271965 0.12649596
000090 c6 4c 37 bd 0a c8 d2 bd 04 e4 34 3d 81 8c 24 bc
       -0.04475095 -0.10292061 0.044162765 -0.010043264
0000a0 dc 06 8e bc ce 1d 54 be 33 53 cf be cb 7e 06 3e
       -0.017337255 -0.20714495 -0.40493163 0.13134305
0000b0 63 fa 61 3d 2a 1d 98 3d b3 70 b7 bd cb ab 27 be
       0.055170428 0.074274376 -0.089570425 -0.16374128
0000c0 1d 91 61 3f 4d aa 53 bd b9 a7 c6 bd e3 f3 82 3e
       0.8811205 -0.051676083 -0.09699959 0.25576696
0000d0 43 76 d5 3d 3e 7d 53 be 2a 02 a4 3c ed c5 f1 bd
       0.10422947 -0.20653245 0.020020563 -0.118053295
0000e0 7d 56 d4 3d 10 ac 9c 3c c1 dc 94 be 1c 59 55 3e
       0.10368059 0.019125015 -0.29074672 0.20834774

layers_sigma.1.weight f4 [60, 60]
000000 74 02 06 3e 8e a1 a0 bd 66 0e 8f 3d 1f c1 04 3e
       0.13086873 -0.07843314 0.06985168 0.12964295
000010 aa e9 d7 bd 73 a2 01 be 95 f0 a8 bd cf 09 f2 3c
       -0.10542615 -0.12659626 -0.082490124 0.029545693
000020 80 3f ba 3b bd 1d c4 bd 2c 9c 17 be 56 ec 9b be
       0.0056838393 -0.095759846 -0.14805669 -0.30453748
000030 ea 51 74 3d 18 32 69 bc 25 b6 67 bd a2 41 d7 bc
       0.05964843 -0.014233135 -0.05657019 -0.026276413
000040 af 70 1e 3e 22 c9 0f 3e e6 c1 ae bd 34 02 17 3e
       0.15472673 0.1404157 -0.08533077 0.14746934
000050 4d 06 99 3e 6c 98 77 bb f4 dd c1 3d 03 02 7c 3e
       0.2988762 -0.003778006 0.09466162 0.24610142
000060 00 59 2b 39 df 80 65 bd ea 81 cb bd 9c d1 72 3c
       0.00016340986 -0.056031104 -0.099368885 0.014820483
000070 4b 71 66 bd a4 c0 8a bd 07 a5 9a 3b 72 d1 f7 3d
       -0.05626039 -0.067750245 0.00471938 0.121004954
000080 c5 dd 89 bf 41 e4 8a bd 4a 2b 50 bd 43 e0 e0 bc
       -1.0770804 -0.06781817 -0.050822534 -0.027450686
000090 15 76 02 3e 90 cf 2c 3e b0 6c 3f 3e 71 d4 a2 be
       0.12740357 0.16876054 0.18693805 -0.31802705
0000a0 d1 45 f8 3c 4b fd dc bd c3 c6 6c be a9 b2 60 3e
       0.030306729 -0.10790499 -0.23122697 0.21943153
0000b0 57 52 ea bd b3 24 6c bd 69 c0 d7 bc e2 7f ac 3d
       -0.11441486 -0.057652187 -0.026336865 0.08422829
0000c0 f4 fb 0c bd 1b 91 62 3c a3 c7 86 3d 8c 76 46 3d
       -0.03441997 0.013828541 0.065810464 0.0484529
0000d0 be c1 a8 bc 0d 3c b1 bd da c5 11 3d 74 f6 7a bb
       -0.020600196 -0.08654032 0.035589077 -0.003829387
0000e0 83 b6 db bd 07 bf 25 3e 60 8e 20 bd 3f 59 2e 3e
       -0.10728171 0.16186152 -0.03919828 0.17026232
0000f0 34 96 5e bd 3a f9 41 be c3 da 3d 3e 1b c4 07 bf
       -0.054342464 -0.18942729 0.18540482 -0.5303361
000100 84 9c 7c 3e c3 34 8a 3e e5 1b 5e be 99 b5 f3 bd
       0.24669081 0.2699338 -0.21690328 -0.118998714
000110 45 83 72 3d 1b 7e 83 bd 1d 6c 3a 3e 37 0e 26 3f
       0.05920722 -0.06420537 0.18205304 0.6486544
000120 2e a5 0e 3e b8 0c 08 be 8a be 42 bf de cc 13 3f
       0.13930199 -0.13286102 -0.7607199 0.5773448
000130 c4 3e b6 3d 45 a3 b1 3c 1b 4b 19 be 2f 96 8c be
       0.0889869 0.021684298 -0.14970057 -0.2745833
000140 54 e8 88 3e ca ae bd bf 52 1f 5f be 84 dc c7 be
       0.26739752 -1.4818966 -0.21789292 -0.39035428
000150 8d 7a 59 bf 14 30 7b be 46 51 81 bd 70 97 0e 3d
       -0.8495262 -0.24530059 -0.0631433 0.03481239
000160 cd 1a 59 bf 58 3e ce be db ef 9b bd 57 df 9e bd
       -0.8480652 -0.4028194 -0.07614108 -0.077574424
000170 5a 76 9f be 1f 99 3f 3f 95 56 1f 3e 2d dc bc 3d
       -0.31144983 0.7484302 0.15560372 0.09221683
000180 40 be a1 3d b6 9e d6 be 0a da 7d be 8d 9f b5 3d
       0.078976154 -0.41917962 -0.24790207 0.088683225
000190 4c 56 50 bc 71 c7 4d bd 43 e9 c8 bf c6 42 e2 be
       -0.012715887 -0.05023903 -1.5696186 -0.4419157
0001a0 2c 44 f9 3d 81 e4 ac 3d 8b da ce bf 15 95 58 3d
       0.12171206 0.08442021 -1.6160444 0.05287655
0001b0 66 c8 ad 3e de 21 d0 3e 14 f4 64 be 25 d3 c9 3d
       0.33941954 0.4065084 -0.22358733 0.09854726
0001c0 4a aa bf 3d a0 2f 9a ba da 80 a0 bf 6e ad b8 bf
       0.09358652 -0.0011763461 -1.2539322 -1.4427927
0001d0 3c 57 c4 3f 14 19 22 c0 4d 9b 8e bd bc 7f ab 3b
       1.5339122 -2.5327806 -0.06963215 0.005233733
0001e0 5a cb ae 3c 55 25 76 bd 40 02 36 3e 32 bf 42 3e
       0.0213372 -0.060094196 0.17774296 0.19018248
0001f0 20 fb 03 3e b5 70 1f bf 44 36 10 be ed be 13 be
       0.12888765 -0.6228135 -0.140832 -0.14428301
000200 b9 ef 22 3f 57 f4 3e 3e 9e 54 50 bf 22 b3 6a 3d
       0.6364704 0.18647896 -0.81379116 0.05729974
000210 d6 9d 85 bd 0f 2d 85 3b fc 30 16 be 1c d4 42 3e
       -0.065242454 0.0040642093 -0.14667124 0.19026226
000220 37 b5 7c 3d fe 1d 9f 3c 77 00 28 3e cb 04 cf bd
       0.061696257 0.019423481 0.16406427 -0.10108336
000230 48 ad 3f bf 2f 9e 9a 3d 05 74 9a 3d 09 20 f5 be
       -0.7487378 0.075497024 0.0754166 -0.47876003
000240 0e 8a 9d bd 89 de d9 bd 61 32 28 3d ce 99 80 3c
       -0.076923475 -0.10638148 0.04106367 0.01569834
000250 c8 7a 3e bb 1b 33 30 3d 74 83 1f 3e 11 4c a8 3a
       -0.0029064883 0.043017488 0.15577489 0.0012840052
000260 b4 cd 93 3e 79 90 14 3d ad 5d 01 bd 1f 83 05 be
       0.28867877 0.036270592 -0.031583477 -0.130383
000270 97 24 cf bd df 76 0b 3e f0 d7 72 bd 3a c3 80 3d
       -0.10114401 0.13619564 -0.059287965 0.062872365
000280 f7 a3 95 bc 1b ef 5b 3e 07 35 db be 65 97 ef 3e
       -0.018266661 0.2147793 -0.42813894 0.46795192
000290 76 4b 33 be bb 32 51 be a9 0e 68 3e a7 1c 3d 3e
       -0.17509255 -0.20429508 0.22661842 0.18467961
0002a0 17 d4 be be ef b7 52 be 36 71 8f 3d 7b c4 a4 be
       -0.37271187 -0.20577978 0.07004015 -0.32181153
0002b0 dd f8 ca 3b 7e f9 3e 3e 2e 09 bf bc 8a 46 0b bf
       0.0061942176 0.18649861 -0.023319807 -0.5440451
0002c0 4f cb c8 be 31 58 76 3e 8f 11 62 3e 6f 55 19 be
       -0.39217612 0.2405708 0.2207701 -0.14973997
0002d0 93 80 87 3c fc d3 05 3e b4 2c 40 3e 18 57 01 3e
       0.016540801 0.13069147 0.18767053 0.1263088
0002e0 bf 2a 11 bd 6c 21 84 be cb 0e 10 3e 3e c4 63 3e
       -0.035441156 -0.2580675 0.14068143 0.22242829
0002f0 26 41 9c 3d c1 8f ac bd 67 11 a8 be 21 1d 5f be
       0.076296136 -0.084258564 -0.32825777 -0.21788456
000300 53 9d e3 bc 2d 45 04 bf 45 33 c2 bd 5e e1 70 be
       -0.027784979 -0.51668054 -0.09482435 -0.23523471
000310 8e 87 3c 3e 71 41 94 3d e2 63 88 3e 50 7a b6 3d
       0.18411085 0.072390445 0.26638705 0.08910048
000320 50 e8 03 c0 86 e0 7c bd fd 5d 9d 3e 28 c0 8a 3d
       -2.0610542 -0.06173756 0.3073577 0.06774932
000330 75 ef fa 3d f2 ca 15 bd 88 3b 95 3d 78 5b 81 bd
       0.12252704 -0.036570497 0.07286745 -0.063162744
000340 ad ce 6f be 6d 28 80 3c 3c 03 9a bb eb c5 41 3e
       -0.23418684 0.015644277 -0.0047000926 0.18923156
000350 a4 43 79 bf 1b 8b ca be 30 11 95 bd e0 aa 51 bd
       -0.97368836 -0.39559254 -0.07278669 -0.05118835
000360 ae c8 89 bc 52 1f dd bd e2 6b 9d 3d e4 0c 6e bd
       -0.016819324 -0.107969895 0.07686593 -0.058117762
000370 3d 54 9e bd 8f 10 37 bd e6 46 d1 3e b3 71 42 bd
       -0.07730911 -0.044693526 0.40874404 -0.047471713
000380 15 77 97 bd d0 74 cf 3d 0c ff ef 3d 98 f5 d4 3d
       -0.0739576 0.10129702 0.11718568 0.10398406
000390 ba d5 89 bf 73 c8 25 3c c2 c2 dd 3d 9b d6 50 be
       -1.0768349 0.010118592 0.10828163 -0.20394365
0003a0 e4 92 12 be 34 1a cd bd 17 33 6b 3e fb 1c 3a 3e
       -0.14313847 -0.100147635 0.22968708 0.18175118
0003b0 7d 98 b5 bd 6c 98 0c 3e f0 88 b6 3a 21 f9 4f 3e
       -0.088669755 0.1373002 0.0013926309 0.20309879
0003c0 f8 35 7a 3e 28 9f f6 3b 9e 0d 95 3d ba 45 2b be
       0.2443465 0.007526297 0.07277988 -0.16725817
0003d0 a6 d2 03 bf 91 4b 1e bf 8a ce c6 be a5 86 22 3f
       -0.514933 -0.61834055 -0.38829452 0.634867
0003e0 6d 08 98 3e c2 b6 ea bd 48 6e 7e be c1 e4 22 bf
       0.29693928 -0.114606395 -0.24846756 -0.636303
0003f0 91 47 46 be 28 5e c0 bf e9 22 91 be ec 52 ae be
       -0.19363238 -1.5028734 -0.28346947 -0.3404764
