feed_forward/saved_models/nhid20_lr0.01_nlayers1_seed5.pt (torch, 38005 bytes, 16 tensors)

layers_mu.0.weight f4 [20, 50]
0	0xbecaaeb6	-0.3958642
1	0xbd805c13	-0.06267562
2	0x3ddf8d4d	0.10915623
3	0xbef14f75	-0.47130933
4	0xbd214f32	-0.039382167
5	0xbd5b36d0	-0.05351907
6	0xbe884464	-0.26614678
7	0x3d194a80	0.037424564
8	0xbcd3ef55	-0.025870958
9	0xbf0c43e5	-0.547911
10	0x3e783eab	0.24242656
11	0xbda889d9	-0.08229417
12	0x3e856a45	0.2605764
13	0xbc8a02f1	-0.016847106
14	0xbcabb2aa	-0.020959217
15	0xbd3a10bd	-0.04542612
16	0xbecc61e5	-0.39918438
17	0xbd3a801d	-0.045532335
18	0xbd28261c	-0.04105197
19	0xbd281950	-0.041039765
20	0xbd477493	-0.04869516
21	0x3e8e4da5	0.27793613
22	0xbcb85fb9	-0.022506582
23	0xbd279dd9	-0.04092202
24	0xbd1979d2	-0.037469693
25	0xbd2d89df	-0.042367812
26	0xbd179a21	-0.037012223
27	0xbd42155c	-0.04738365
28	0xbd8698d9	-0.06572122
29	0x3d3f89e8	0.046762377
30	0xbd0a46db	-0.03375898
31	0x3dd8927a	0.10574813
32	0xbeb0dcbf	-0.34543416
33	0xbe1401ea	-0.14453855
34	0xbd0961cc	-0.033540532
35	0x3f0cd3a8	0.5501046
36	0xbd4e6d6c	-0.05039732
37	0xbcf0462b	-0.029330334
38	0xbe8478b4	-0.2587334
39	0xbd299475	-0.041401345
40	0xbd0f1001	-0.034927372
41	0x3dee7e4f	0.11645185
42	0xbd124568	-0.035710722
43	0x3d32cf68	0.04365483
44	0xbd09676f	-0.033545908
45	0xbd1ab112	-0.037766524
46	0xbd427af9	-0.047480557
47	0xbd050b89	-0.032481704
48	0xbd18bd8d	-0.037290145
49	0xbeade038	-0.33960128
50	0x3e4ae544	0.1981402
51	0xbecde24c	-0.40211713
52	0x3d10b914	0.035332754
53	0x3e0ba1f5	0.13636
54	0xbdd0bb4f	-0.10191976
55	0xbdee6fc2	-0.1164241
56	0x3e2a84f7	0.16652285
57	0x3dc86f0d	0.09786806
58	0xbd96dfa6	-0.07366876
59	0xbf1cb4a3	-0.6121313
60	0x3e8faff9	0.28063944
61	0xbebb07f9	-0.3652952
62	0xbe996675	-0.2996098
63	0xbd31806d	-0.043335367
64	0xbd6522fd	-0.05594157
65	0xbdec5a10	-0.115406156
66	0x3ee0477c	0.43804538
67	0xbdd1611d	-0.10223601
68	0xbdba4b53	-0.09096398
69	0xbde41535	-0.111368574
70	0xbdf01f44	-0.117247134
71	0x3ecf2e7a	0.40465146
72	0xbe038a88	-0.12845814
73	0xbdd86437	-0.105659895
74	0xbdc1ed7b	-0.09469124
75	0xbde08825	-0.109634675
76	0xbdcfa220	-0.10138345
77	0xbde9670e	-0.11396609
78	0xbe2305a6	-0.15920123
79	0xbdb641c7	-0.08899265
80	0xbdb02aec	-0.08601937
81	0xbe100278	-0.14063442
82	0xbcee0ae3	-0.029057926
83	0xbe00518c	-0.12531108
84	0xbdb03c04	-0.08605197
85	0xbdeff335	-0.1171631
86	0xbde42e0c	-0.11141595
87	0xbda4f82d	-0.08055148
88	0x3ed71b3b	0.42012963
89	0xbdd5619d	-0.10419009
90	0xbdb78980	-0.08961773
91	0x3e87d353	0.26528415
92	0xbdc0bb10	-0.09410679
93	0x3df8362b	0.12119707
94	0xbd6f81a7	-0.058473255
95	0xbdc76362	-0.09735753
96	0xbdf02b51	-0.11727012
97	0xbdbef72e	-0.093244895
98	0xbdadc2b5	-0.08484403
99	0x3daddc95	0.08489338
100	0x3d125a42	0.035730608
101	0xbdc50553	-0.09620156
102	0xbecb9a06	-0.39765948
103	0x3e8d3585	0.27579895
104	0x3d703684	0.05864574
105	0x3dca21a3	0.09869697
106	0xbe1206c5	-0.14260395
107	0xbd7d5a6d	-0.061853815
108	0x3d694a26	0.05695548
109	0x3d81b141	0.063326366
110	0xbca78a76	-0.020451766
111	0xbcc11e8b	-0.023574134
112	0xbe87a215	-0.26490846
113	0x3d0e24a7	0.034702923
114	0x3d096604	0.033544555
115	0x3da2e6f5	0.07954208
116	0x3db5f706	0.088850066
117	0x3d9fa3b9	0.077948995
118	0x3d90f995	0.07078854
119	0x3d8f1360	0.06986117
120	0x3dadae8f	0.0848056
121	0x3ec77f32	0.3896423
122	0x3e03a6f3	0.12856655
123	0x3da3e1c7	0.08002048
124	0x3d8edbdb	0.06975528
125	0x3db01b4f	0.08598959
126	0x3da175f4	0.07883826
127	0x3db32914	0.087480694
128	0x3de82cbe	0.11336659
129	0xbe8c3304	-0.27382672
130	0x3d7015bf	0.05861449
131	0xbc94112a	-0.01807459
132	0x3e3cf718	0.18453634
133	0x3da1e048	0.079041064
134	0x3d823889	0.063584395
135	0x3f2efb85	0.6835254
136	0x3db33706	0.08750729
137	0x3d65216e	0.055940084
138	0x3dabd09a	0.08389397
139	0x3d98662c	0.07441363
140	0x3d93b5d5	0.07212416
141	0xbe6da35b	-0.23206846
142	0x3d909714	0.07060066
143	0xbe355afb	-0.17710488
144	0x3d4d491e	0.050118558
145	0x3d94e6a4	0.07270554
146	0x3db78b61	0.08962131
147	0x3d7b1b2d	0.061305214
148	0x3d70b222	0.05876363
149	0x3e17f1e8	0.14838374
150	0x3d8dbc49	0.06920678
151	0xbecfea13	-0.40608272
152	0x3f0b9589	0.5452505
153	0x3ee7dab1	0.45284036
154	0x3c051eec	0.008125048
155	0x3d1f1b21	0.03884423
156	0x3e595a81	0.21225931
157	0xbca7770d	-0.02044251
158	0x3c9b9725	0.01899297
159	0xbe795514	-0.24348861
160	0xbecfd0d9	-0.40589026
161	0xbddaea87	-0.10689264
162	0xbe495566	-0.19661483
163	0x3c35ba3d	0.011091766
164	0x3b827041	0.003980667
165	0x3cd84b22	0.026403014
166	0xbebaf8ea	-0.3651803
167	0x3d000565	0.031255145
168	0x3ccabdd3	0.024748718
169	0x3ca3f692	0.020015035
170	0x3cf089ec	0.029362641
171	0xbd7348d1	-0.059395615
172	0x3f21ac39	0.63153416
173	0x3cfe4bd4	0.031042017
174	0x3cc230ec	0.023704968
175	0x3cdae538	0.026720628
176	0x3d10e162	0.03537119
177	0x3d123e05	0.035703678
178	0x3d2a53a5	0.041583676
179	0x3e685675	0.2268923
180	0x3c94e2c4	0.018174537
181	0x3c2d7031	0.010585831
182	0xbed7727c	-0.42079532
183	0x3d0a172d	0.03371351
184	0x3cc03331	0.02346191
185	0x3e7234a7	0.23652898
186	0x3d125014	0.0357209
187	0x3c96912c	0.01837977
188	0x3e165089	0.14679159
189	0x3cc2e8f2	0.023792718
190	0x3ce98822	0.028507296
191	0xbdbda261	-0.09259487
192	0x3ce51a23	0.027966565
193	0x3e4c4f9c	0.19952244
194	0x3c7c33f3	0.015393245
195	0x3cfff092	0.031242643
196	0x3d0466cf	0.03232461
197	0x3c8a70e2	0.01689953
198	0x3c90fe23	0.017699307
199	0x3d46ca84	0.048532978
200	0xbb7b3c09	-0.0038335344
201	0xbc384db5	-0.011248996
202	0x3f10588a	0.563851
203	0x3dc566c1	0.096387394
204	0xbb221464	-0.0024731392
205	0x3c4e3fe1	0.012588472
206	0x3e266b2d	0.16251822
207	0x3bd41ade	0.0064729294
208	0x3c16fc69	0.009215453
209	0x3f0aa923	0.5416433
210	0x3df22b93	0.118247174
211	0xbe830ab1	-0.25594094
212	0x3e338315	0.17530473
213	0x3bc6f5c1	0.0060717766
214	0x3b99e317	0.0046962607
215	0xbadbb5ce	-0.0016762556
216	0x3f014dc6	0.505093
217	0x3bd6027b	0.0065310574
218	0x3bf2a49a	0.007404876
219	0x3b1f7b27	0.002433488
220	0x3bca892b	0.0061809025
221	0xbe10af74	-0.1412943
222	0xbee46ec9	-0.44615772
223	0x3b834c8f	0.004006929
224	0x3bf6ba59	0.0075295386
225	0x3c49ce91	0.012317316
226	0x3c17a4a3	0.009255561
227	0x3b6d992a	0.0036254623
228	0x3b3a2a70	0.0028406642
229	0xbea4585e	-0.3209867
230	0x3b8e8b20	0.004350081
231	0xbe3c19ae	-0.18369171
232	0xbe1d2fb1	-0.15350224
233	0x3e3605e6	0.17775688
234	0x3c0d1a66	0.008612251
235	0x3eda56b0	0.42644262
236	0x3c143eea	0.009048203
237	0x3b87c474	0.004143292
238	0x3ce11e60	0.027480304
239	0x3ba81f9e	0.005130722
240	0x3bc44880	0.005990088
241	0xbd3b1b15	-0.045680124
242	0x3bbde62a	0.00579526
243	0xbee0411e	-0.4379968
244	0x3c54cca8	0.012988247
245	0x39a6c100	0.00031805784
246	0x3b8cab8f	0.0042929123
247	0x392a5a70	0.00016246154
248	0x3b7b7d77	0.0038374343
249	0xbdee17cf	-0.11625635
250	0x3dfe3926	0.12413244
251	0xbdce77c6	-0.10081439
252	0xbdb4be5b	-0.0882537
253	0xbef673b6	-0.48135155
254	0x3d940f12	0.07229437
255	0x3dc5ffb9	0.09667916

layers_mu.0.bias f4 [20]
0	0x3dfe3ead	0.12414298
1	0x3e0c2bf6	0.13688645
2	0xbe019902	-0.12656024
3	0x3b182a7e	0.0023218687
4	0xbe27199d	-0.16318364
5	0x3c3cc153	0.011520701
6	0xbe69c935	-0.2283066
7	0x3e623e0c	0.22093982
8	0xbf03e5fe	-0.51522815
9	0x3dcacd50	0.099024415
10	0xbea4f28e	-0.32216305
11	0xbe34a97a	-0.17642775
12	0xbc3f2092	-0.01166548
13	0x3e92b391	0.28652623
14	0x3da04a01	0.07826615
15	0xbdb518a1	-0.08842588
16	0xbd56a517	-0.052403536
17	0xbf0f9ce0	-0.5609875
18	0x3e30f4ec	0.1728093
19	0xbe795270	-0.24347854

layers_mu.1.weight f4 [50, 20]
0	0xbe9972f4	-0.29970515
1	0x3d50f009	0.051010165
2	0xbd13975a	-0.036033012
3	0x3d14380d	0.036186267
4	0xbd170a05	-0.03687479
5	0x3db84645	0.08997778
6	0xbdd1375c	-0.10215637
7	0xbdb3c074	-0.08776942
8	0x3e24555f	0.16048191
9	0x3e8a6de2	0.2703696
10	0x3c949fc8	0.018142596
11	0x3e53655d	0.20644136
12	0xbe353f47	-0.1769992
13	0x3e5b1d04	0.21397787
14	0x39b62640	0.00034742244
15	0x3df3787a	0.118882135
16	0xbe09db79	-0.13462628
17	0x3d88fc7a	0.06688781
18	0x3e1eb196	0.15497431
19	0x3ded9697	0.11600988
20	0xbd878a1f	-0.066181414
21	0xbdd9744e	-0.106178865
22	0xbe6999bc	-0.22812551
23	0xbd8de936	-0.06929247
24	0xbdbd9031	-0.09256018
25	0xbd86f461	-0.0658958
26	0xbd8e7754	-0.06956354
27	0xbcf25581	-0.029581787
28	0xbf03ae37	-0.51437706
29	0x3c7e185f	0.01550874
30	0x3d2cd12a	0.042191662
31	0x3d004202	0.03131295
32	0x3c3f692c	0.01168279
33	0x3e41595e	0.18881747
34	0x3d6f403e	0.058410875
35	0xbe252e30	-0.161309
36	0x3ce80877	0.028324349
37	0xbaccba6a	-0.001561952
38	0x3ea67e7a	0.3251837
39	0x3bc27566	0.005934405
40	0x3d69a36a	0.05704061
41	0xbd5be385	-0.053683776
42	0xbeb8d1c4	-0.36097538
43	0x3ed70a1b	0.41999897
44	0x3ed0863a	0.40727407
45	0x3d418403	0.047245037
46	0x3d92d00c	0.07168588
47	0x3e5f3848	0.21798813
48	0xbd5267ba	-0.051368453
49	0xbd05d40e	-0.032672934
50	0x3d927202	0.071506515
51	0x3e25321a	0.16132393
52	0x3d6cad07	0.0577822
53	0x3e1210d4	0.14264232
54	0x3e884baa	0.26620227
55	0x3dbf9a6b	0.09355625
56	0x3da41dec	0.0801352
57	0x3e19bbb2	0.15013006
58	0x3daba127	0.08380347
59	0x3d130625	0.03589453
60	0xbe4dd8fd	-0.20102306
61	0x3e268bbe	0.16264245
62	0x3e9d0953	0.30671176
63	0x3e80b955	0.25141397
64	0x3ce1732e	0.027520742
65	0xbe9e6c05	-0.30941787
66	0x3db92f0c	0.090421766
67	0xbdd4bd2c	-0.10387644
68	0xbe9d1636	-0.30681008
69	0x3e437a95	0.1908973
70	0xbdd7e1c2	-0.10541107
71	0xbd151b92	-0.036403246
72	0x3d565aa5	0.05233254
73	0xbe3f13ee	-0.18659946
74	0x3e313db1	0.1730869
75	0x3de8cd60	0.11367297
76	0xbd012c53	-0.03153641
77	0xbd454f91	-0.048171584
78	0xbd42560a	-0.047445334
79	0xbe6346a5	-0.22194918
80	0x3d88ef8c	0.06686315
81	0xbdeb80ed	-0.114992
82	0x3e2aa72c	0.16665334
83	0xbce9f210	-0.028557807
84	0x3d887cfd	0.066644646
85	0xbd03a983	-0.03214408
86	0x3bab9f2e	0.0052374816
87	0x3d14a6bf	0.036291834
88	0x3a4e83d0	0.0007877918
89	0x3da3aa05	0.07991413
90	0x3d720900	0.059090614
91	0xbdc24371	-0.0948552
92	0xbc9cb76c	-0.019130431
93	0x3cf5c711	0.030002149
94	0x3cde5fb9	0.027145253
95	0x3ccee36e	0.025254931
96	0x3dd7d9a9	0.10539562
97	0x3d046de6	0.03233137
98	0x3d9b4e9d	0.07583354
99	0xbd14e64c	-0.03635244
100	0xbda6f905	-0.081529655
101	0xbda636ee	-0.08115946
102	0x3dd3b2bb	0.103368245
103	0xb8379000	-4.376471e-05
104	0xbd45fbea	-0.048335947
105	0xbc74687c	-0.014917489
106	0x3ca045aa	0.019564468
107	0xbc926def	-0.017874686
108	0x3dbe7b56	0.09300868
109	0xbd4dcc88	-0.050243884
110	0x3c3dfe59	0.011596286
111	0x3c5558f1	0.013021694
112	0x3df5f72d	0.12010036
113	0x3cdb9419	0.026804017
114	0x3d6df5a0	0.058095574
115	0xbb568692	-0.0032734019
116	0xba672898	-0.00088179996
117	0x3bbb85ec	0.005722752
118	0xbdab0ca1	-0.08352018
119	0x3d088f3e	0.03333973
120	0xbe2da2b8	-0.16956604
121	0x3de894f3	0.11356535
122	0xbe37fc1a	-0.17967263
123	0x3db92021	0.09039331
124	0x3dde0254	0.10840288
125	0xbc1ae64b	-0.00945432
126	0x3e543a13	0.20725279
127	0xbc92af34	-0.017905809
128	0xbe1adff4	-0.15124494
129	0xbe1a82d1	-0.15088965
130	0xbe282d14	-0.16423446
131	0xbeafa219	-0.34303358
132	0xbe8b3fd9	-0.2719715
133	0x3e915125	0.2838222
134	0xbe6ee950	-0.23331189
135	0x3cca2d6b	0.02467986
136	0x3e55b4fe	0.20869824
137	0xbc8e6b46	-0.017385136
138	0x3e02ecef	0.12785695
139	0xbdbbaa97	-0.09163397
140	0x3d9a7f2f	0.075437896
141	0x3d31e4a2	0.043430932
142	0xbd5e7d86	-0.054318927
143	0x3c96e3f0	0.018419236
144	0x3e02d329	0.12775864
145	0x3cdf604f	0.027267603
146	0xbd2b93bd	-0.04188894
147	0xbca86414	-0.020555533
148	0xbc509b1c	-0.012732293
149	0xbda42659	-0.08015127
150	0xbd17d57f	-0.03706884
151	0x3d0989fc	0.033578858
152	0xbd7dd945	-0.061974782
153	0x3b3dc66e	0.0028957385
154	0xbd1c50a0	-0.038162827
155	0xbd30180a	-0.042991675
156	0xbc55a6eb	-0.013040285
157	0x3d03169b	0.03200398
158	0x3cc02d63	0.023459142
159	0xbc9be2f9	-0.019029127
160	0x3d698060	0.057007194
161	0x3c3abf80	0.011398196
162	0x3ddb2337	0.10700076
163	0xbd3393bd	-0.043842066
164	0x3c9bd82c	0.019023977
165	0x3cc7d1df	0.024392067
166	0x3d074755	0.033027012
167	0x3d70c4bb	0.058781367
168	0xbcc0cb0e	-0.023534324
169	0x3d4b3396	0.049609743
170	0xbc86c300	-0.016450405
171	0xbcad4042	-0.021148805
172	0xbcdc4b79	-0.026891457
173	0x3ca7ab77	0.020467503
174	0x3c3df420	0.0115938485
175	0x3b987529	0.0046526385
176	0x3e03b462	0.1286178
177	0xbcbc1035	-0.022956947
178	0xbd91ec18	-0.071251094
179	0x3d4a4801	0.049385075
180	0xbe637875	-0.2221392
181	0xbe9ff408	-0.3124087
182	0xbd5da47e	-0.05411195
183	0xbd7626f1	-0.06009573
184	0x3e3f5e44	0.18688303
185	0xbe15bbd4	-0.14622432
186	0xbe01859c	-0.12648624
187	0xbda17d8e	-0.07885276
188	0x3e46dd37	0.19420324
189	0xbe82b98c	-0.25532186
190	0xbe11064f	-0.14162563
191	0xbde1138c	-0.109900564
192	0xbc24b7b8	-0.010053568
193	0x3b0e5eba	0.0021723942
194	0x3e0d8371	0.13819672
195	0xbdb0409f	-0.086060755
196	0xbe43e4cc	-0.19130248
197	0xbd991bcf	-0.07476007
198	0x3de08246	0.10962348
199	0xbd045374	-0.03230615
200	0x3e4ac7b8	0.19802749
201	0x3e065a46	0.13120374
202	0x3e32c3fe	0.17457578
203	0xbe514789	-0.20437445
204	0x3da14ea9	0.07876331
205	0x3e1f2c74	0.15544301
206	0xbe6b05e6	-0.22951469
207	0x3d0ba23b	0.034090262
208	0x3da10e05	0.07864002
209	0x3e0c5dc0	0.13707638
210	0xbc3c0e73	-0.011478054
211	0xbe59a95c	-0.21256012
212	0xbd223fb0	-0.03961152
213	0x3da80cad	0.08205543
214	0x3e48317f	0.19550131
215	0x3e0cbeee	0.13744709
216	0x3de707ae	0.11280762
217	0x3c9ee179	0.019394623
218	0x3dd7c3e0	0.10535407
219	0xbf0ec148	-0.55763674
220	0xbd2b8693	-0.041876387
221	0xbe84b912	-0.25922447
222	0xbe4edd45	-0.20201595
223	0x3c87aad1	0.016560944
224	0x3c63a049	0.013893195
225	0x3e60a88d	0.21939297
226	0x3e9469ca	0.2898696
227	0xbd821b33	-0.06352844
228	0xbdcb117d	-0.09915445
229	0xbe39c722	-0.1814237
230	0xbd12f703	-0.0358801
231	0x3d64e053	0.055877995
232	0xbdd93712	-0.10606207
233	0xbe1166c9	-0.14199366
234	0xbd88e00d	-0.06683359
235	0x3e7432ba	0.23847476
236	0xbe9e1ada	-0.3087986
237	0x3e95ffd0	0.29296732
238	0x3b739e90	0.0037173368
239	0x3ba90212	0.0051577175
240	0x3e1c299f	0.15250252
241	0xbe8264cc	-0.25467527
242	0xbda054a9	-0.07828648
243	0xbdd914a9	-0.10599644
244	0x3e559aae	0.20859787
245	0xbc9872b8	-0.01860939
246	0x3d5f3679	0.05449531
247	0xbdf7eed2	-0.12106098
248	0xbd2ecaff	-0.04267406
249	0x3ec1c2bc	0.37843883
250	0xbf0b84e6	-0.5449966
251	0xbd54790e	-0.05187326
252	0xbd794d9f	-0.06086504
253	0xbbe6de86	-0.00704557
254	0x3cdcc4ba	0.026949275
255	0x3ca86bb1	0.020559164

layers_mu.1.bias f4 [50]
0	0x3daf71fa	0.08566661
1	0xbed20b85	-0.41024414
2	0x3d3a7ad4	0.045527294
3	0xbe1f3bf3	-0.15550213
4	0x3b488508	0.003059687
5	0x3dd38497	0.10328024
6	0xbe63b917	-0.22238575
7	0x399a6420	0.00029447768
8	0xbc8f5374	-0.017495848
9	0x3d4bc7c0	0.049751043
10	0xbe7fd0f6	-0.24982056
11	0x3e926b1e	0.2859735
12	0xbc1578ec	-0.009123068
13	0xbe2e182d	-0.1700141
14	0xbda00673	-0.0781373
15	0xbc953e19	-0.018218087
16	0x3dd7d89f	0.10539364
17	0x3e57d36e	0.21076748
18	0x3dbc3cbe	0.09191273
19	0x3b8f067e	0.0043647876
20	0x3a936034	0.0011243881
21	0xbe5ee176	-0.21765694
22	0x3e2f7a15	0.17136414
23	0xbd598cb1	-0.05311269
24	0x3cb83f4b	0.022491118
25	0xb71f5000	-9.495765e-06
26	0x3db3eb55	0.087851204
27	0x3b93352a	0.0044924216
28	0x3c044035	0.008071949
29	0xbd228806	-0.039680503
30	0xbda2d9b9	-0.079516836
31	0xbf0b1b64	-0.5433867
32	0x3e262090	0.16223359
33	0xbf25c23b	-0.647495
34	0x3cda6e8a	0.026664037
35	0x3cfa53aa	0.030557472
36	0xb9ed99a0	-0.00045318622
37	0xbd36151c	-0.044453725
38	0xbe21a37f	-0.15785025
39	0xbdad9349	-0.08475358
40	0x3c4b2bb2	0.0124005545
41	0xbc0002a4	-0.00781313
42	0xbdb25fb2	-0.08709659
43	0xbf1f2c29	-0.6217676
44	0x3d7ed7f9	0.062217686
45	0x3cc6dfdd	0.024276668
46	0x3d39b29b	0.045336347
47	0xbdfbb629	-0.12290604
48	0xbd1aefa8	-0.03782621
49	0x3daf314a	0.08554323

layers_sigma.0.weight f4 [20, 50]
0	0xbe03c933	-0.1286972
1	0xbdfd1a0a	-0.12358482
2	0xbcc6b2e4	-0.024255224
3	0xbdce90f6	-0.10086243
4	0xbd2977e3	-0.0413741
5	0x3d9c0349	0.07617814
6	0xbe76d4a3	-0.24104552
7	0xbe425964	-0.18979412
8	0xbd4adae3	-0.049525153
9	0x3e3cc3b0	0.18434024
10	0xbd348e3d	-0.04408096
11	0xbc78ba61	-0.015181155
12	0x3dc4bb79	0.0960607
13	0x3cf4e457	0.029894037
14	0x3e3ddb94	0.18540794
15	0x3dd70eb8	0.10500854
16	0xbe36488e	-0.17801115
17	0x3d5f32e4	0.054491892
18	0xbdcd02de	-0.100103125
19	0x3d7ef9dc	0.062250003
20	0xbce5e41c	-0.028062873
21	0x3dd931d9	0.10605211
22	0xbd3dafc2	-0.046310194
23	0xbdcb4712	-0.09925665
24	0xbe453c1c	-0.19261211
25	0xbdacda73	-0.084401034
26	0x3c2a9d03	0.010413411
27	0xba64b6c4	-0.0008724744
28	0x3bca2f1c	0.0061701667
29	0xbc998e00	-0.018744469
30	0xbdfce6eb	-0.123487316
31	0xbd269720	-0.040671468
32	0xbd33acc1	-0.043865923
33	0xbdcbbd25	-0.09948186
34	0x3ca4189b	0.020031264
35	0x3d914c9c	0.0709469
36	0x3daed925	0.08537511
37	0x3b24e971	0.0025163556
38	0x3c82224b	0.015885493
39	0x3dde8cfc	0.108667344
40	0xbb96433a	-0.0045856507
41	0xbd82f1a0	-0.063937426
42	0xbd3ec663	-0.046575915
43	0x3d7e1bea	0.06203834
44	0x3d2f577a	0.042808034
45	0x3b5ee41e	0.003401048
46	0xbe23859d	-0.15968938
47	0xbdf5bf65	-0.11999396
48	0x3c53a304	0.012917284
49	0x3d171338	0.036883563
50	0xbcea4f60	-0.028602302
51	0x3dcca548	0.099924624
52	0xbb6276b1	-0.003455561
53	0xbce0d0be	-0.027443286
54	0x3d930bf4	0.07180014
55	0x3e3522a7	0.17689
56	0x3baea892	0.0053301537
57	0xbe8c7bb5	-0.2743813
58	0xbca004df	-0.019533573
59	0x3d8d3b91	0.06896127
60	0x3d215dd1	0.03939611
61	0x3e0b3011	0.13592555
62	0x3e0a9a90	0.13535523
63	0x3d037ffa	0.03210447
64	0x3e424cda	0.18974629
65	0x3dca35d4	0.09873548
66	0xbc82cf39	-0.015967952
67	0x3def1b84	0.1167517
68	0x3cbd58dd	0.023113662
69	0x3d805126	0.06265478
70	0x3de85c53	0.113457344
71	0x3db6b4b2	0.08921184
72	0x3da7681b	0.081741534
73	0x3c730fbf	0.014835297
74	0xbda06815	-0.07832352
75	0x3dd3b07f	0.10336398
76	0x3e185737	0.1487702
77	0x3d84e644	0.06489232
78	0x3e719663	0.23592524
79	0x3da27150	0.07931769
80	0xbcaf8138	-0.021423921
81	0x3dbee525	0.093210496
82	0x3deb84c6	0.11499934
83	0xbd630952	-0.05542881
84	0x3e4608ad	0.19339247
85	0x3df85a4e	0.12126599
86	0x3ddaafe6	0.10678081
87	0x3c363fd4	0.011123616
88	0x3de57457	0.11203831
89	0x3e0441a6	0.12915668
90	0x3dad068c	0.08448514
91	0x3de34fd6	0.11099212
92	0xbc9b9551	-0.018992098
93	0x3cae167e	0.02125096
94	0x3df8416f	0.121218555
95	0x3e1296de	0.14315364
96	0x3d36f792	0.044669695
97	0x3ad79a44	0.0016449173
98	0x3d8e7043	0.06955006
99	0x3e14400b	0.14477555
100	0xbdaf6b0e	-0.08565341
101	0x3e01ed50	0.12688184
102	0xbdc970c9	-0.09835965
103	0x3cf641de	0.030060705
104	0xbdec4ef2	-0.11538495
105	0xbe0777f7	-0.13229357
106	0x3d8e8996	0.06959836
107	0xbdff4051	-0.12463439
108	0x3c111e82	0.008857371
109	0xbe40c62e	-0.188256
110	0xbd88ec2e	-0.06685673
111	0xbe2124c5	-0.15736683
112	0xbd745872	-0.05965466
113	0xbdcb5479	-0.09928221
114	0xbe3ecc41	-0.18632604
115	0xbd019a80	-0.031641483
116	0x3c94da2b	0.018170437
117	0xbdb0a1f4	-0.0862464
118	0x3d86d401	0.06583405
119	0xbd79737d	-0.060901154
120	0xbe4b7e62	-0.1987243
121	0x3b8d018d	0.0043031634
122	0xbda997d1	-0.0828091
123	0xbcab8dbb	-0.020941606
124	0xbd4d8430	-0.050174892
125	0xbdd8a56e	-0.10578428
126	0xbdffbfcb	-0.124877535
127	0xbdfb2804	-0.12263492
128	0xbe11e1dc	-0.14246315
129	0xbdcd14c8	-0.10013729
130	0x3d404d6c	0.046948835
131	0xbe165ab3	-0.14683037
132	0xbdadda2f	-0.08488881
133	0xbe7902d4	-0.24317485
134	0xbdef6d75	-0.11690799
135	0xbdd4b406	-0.10385899
136	0xbde22af0	-0.11043346
137	0xbe311001	-0.17291261
138	0x3e0e383b	0.13888638
139	0xbde692df	-0.11258482
140	0xbdd29074	-0.102814585
141	0xbdee84f0	-0.116464496
142	0x3d804c7e	0.0626459
143	0xbdc82b90	-0.09773934
144	0xbe657553	-0.22408037
145	0xbe590f90	-0.21197343
146	0x3d48573c	0.04891132
147	0xbdb5e34f	-0.08881246
148	0xbdaaaa5c	-0.08333275
149	0xbdbc3783	-0.091902755
150	0x3dc619d2	0.096728936
151	0x3cf8290e	0.030293014
152	0x3e2e56e0	0.17025328
153	0x3e1d5bcc	0.15367049
154	0x3de15944	0.11003354
155	0x3df15aa0	0.117848635
156	0xbb60f8c2	-0.0034327959
157	0x3dd1f0f8	0.10251039
158	0x3de137dd	0.10996983
159	0xbc79d8b5	-0.015249421
160	0xbd705ff4	-0.058685258
161	0x3e9d328c	0.30702627
162	0xbd5388d3	-0.051644158
163	0xbc6031c2	-0.013683738
164	0xbd9dc0e6	-0.07702808
165	0x3e0694c3	0.13142686
166	0x3dfb369e	0.12266277
167	0xbc0987d9	-0.008394205
168	0x3d815f16	0.06316964
169	0x3dada501	0.084787376
170	0x3da42a9a	0.08015938
171	0x3db21dfb	0.086971246
172	0x3c027be1	0.007964105
173	0xbbe31784	-0.0069302935
174	0x3e0faa65	0.14029844
175	0xbd0ae6de	-0.03391158
176	0x3d076c82	0.033062465
177	0x3e032e3d	0.12810607
178	0x3b3dbb22	0.0028950651
179	0xbd116b23	-0.035502564
180	0x3d865c8f	0.06560623
181	0xbda03779	-0.078230806
182	0xbd727af6	-0.059199296
183	0xbe13a63b	-0.1441888
184	0x3d4d4ab9	0.05012009
185	0x3da48684	0.08033469
186	0xbcfcb171	-0.03084633
187	0x3e0d4c87	0.13798724
188	0x3e4c4017	0.19946323
189	0xbd0d7e00	-0.03454399
190	0x3cfe491a	0.031040717
191	0x3e0c89cc	0.1372444
192	0x3de3f549	0.11130769
193	0x3e0a9458	0.13533151
194	0x3da3ce95	0.07998387
195	0x3dd026e9	0.101636715
196	0x3d92e745	0.071730174
197	0xbcead1cb	-0.02866449
198	0x3d271bc4	0.040797964
199	0x3d6fad46	0.058514856
200	0x3b9ee3ef	0.004848949
201	0x3d1ef985	0.03881218
202	0x3d92620c	0.07147607
203	0x3d5e6800	0.0542984
204	0x3c624af0	0.013811812
205	0xbe39067a	-0.18068877
206	0x3ddfce50	0.10928023
207	0x3ea74cd0	0.3267579
208	0x3d2c2dc2	0.042035826
209	0xbdde2ba9	-0.10848171
210	0x3b37cbfe	0.0028045173
211	0xbd819294	-0.06326786
212	0x3da2ab8d	0.07942877
213	0xbdade632	-0.08491172
214	0x3e1fa2c7	0.15589438
215	0x3c2fcf24	0.0107305385
216	0x3e05ef60	0.13079596
217	0xbaf7759f	-0.0018879658
218	0x3d870fb1	0.0659479
219	0x3d1f5948	0.038903505
220	0xbc8898fc	-0.016674511
221	0x3dcaf7e5	0.099105634
222	0x3dbe8905	0.09303478
223	0x3dda8b59	0.1067111
224	0xbc1cc8f8	-0.009569399
225	0xbbfb267b	-0.0076644993
226	0xbd5acd2c	-0.053418323
227	0x3cd943d2	0.026521597
228	0x3d93fd15	0.07226006
229	0x3d8056a9	0.06266529
230	0x3d036c62	0.032085784
231	0xbcda1c66	-0.02662487
232	0x3daad842	0.08342029
233	0x3df1bfae	0.11804138
234	0x3bb0253f	0.005375534
235	0xbc9a120d	-0.018807435
236	0xbc358290	-0.011078492
237	0xbe296dbf	-0.16545771
238	0x3d870b4e	0.06593953
239	0xbd649981	-0.055810455
240	0xbc1a8087	-0.009430057
241	0x3e33ca79	0.17557706
242	0x3cfe86c3	0.031070119
243	0xbc7c4167	-0.0153964525
244	0xbe3d4fe8	-0.18487513
245	0xbe13c047	-0.14428817
246	0xbd44b132	-0.04802055
247	0x3d463441	0.048389677
248	0x3c9ec47f	0.019380806
249	0x3ccc326a	0.024926383
250	0x3e20b0b4	0.15692407
251	0xbe316c74	-0.17326528
252	0x3da919c1	0.08256865
253	0xbe27685a	-0.163484
254	0xbd8bcc26	-0.068260476
255	0x3c6e0c56	0.014529308

layers_sigma.0.bias f4 [20]
0	0xbefddbcf	-0.49581763
1	0x3cd84b2f	0.026403038
2	0x3e120418	0.14259374
3	0x3e1c4851	0.15261962
4	0xbf2bae52	-0.67062867
5	0x3e394534	0.18092805
6	0xbf553af5	-0.83293086
7	0x3d094b3b	0.03351901
8	0xbf8d9349	-1.1060573
9	0xbe9ca7aa	-0.30596668
10	0x3c462ef4	0.012096155
11	0x3e18984f	0.14901851
12	0x3d6cf958	0.05785498
13	0xbe6926f6	-0.22768769
14	0x3f191190	0.59792423
15	0xbd8ba12c	-0.068178505
16	0x3e266496	0.16249308
17	0xbdf538a1	-0.11973692
18	0xbe8a898e	-0.2705807
19	0xbe86a379	-0.26296595

layers_sigma.1.weight f4 [50, 20]
0	0x3d43fe48	0.047849923
1	0xbe1d98a8	-0.15390265
2	0x3d3727f2	0.04471583
3	0x3d311cca	0.043240346
4	0x3e0130c0	0.12616253
5	0x3a94eb67	0.0011361659
6	0x3c57b082	0.013164641
7	0x3e0710fc	0.13190073
8	0x3dad6e98	0.0846836
9	0x3c82f6c7	0.015986813
10	0x3cc50761	0.02405137
11	0x3c8a058d	0.01684835
12	0xbe375498	-0.17903364
13	0x3d425662	0.047445662
14	0xbe07bc25	-0.13255365
15	0xbd741344	-0.059588686
16	0xbd4c7848	-0.049919397
17	0x3e061422	0.13093618
18	0x3d7c2ec8	0.06156805
19	0x3a83077f	0.0009996741
20	0xbc7d7db7	-0.015471867
21	0x3cd8df96	0.026473802
22	0x3b34e565	0.002760255
23	0x3d199d8b	0.03750376
24	0xbe26a329	-0.16273178
25	0x3c4865f7	0.012231342
26	0xbd247565	-0.04015102
27	0x3e9b55eb	0.30338988
28	0x3d0f2c26	0.034954213
29	0x3d9a58f7	0.075365
30	0xbdebf410	-0.115211606
31	0xbd9b8897	-0.07594412
32	0xbcb8d596	-0.022562783
33	0xbc9d3c8e	-0.019193914
34	0xbd45d3ad	-0.048297573
35	0x3da60e92	0.08108248
36	0xbdbd58a4	-0.092454225
37	0xbde9b19c	-0.114108294
38	0xbdcf3d08	-0.10119063
39	0x3d01de40	0.031706095
40	0x3d695f12	0.05697543
41	0xbdd0d33f	-0.10196542
42	0xbd9fcbb8	-0.07802528
43	0x3dc59b48	0.09648758
44	0x3e51d3cd	0.20490952
45	0xbc902d5a	-0.01759975
46	0x3e0b6847	0.13613997
47	0x3e22e462	0.15907434
48	0x3dc0701e	0.09396385
49	0x3db51b17	0.088430576
50	0xbd3c4e9b	-0.0459734
51	0xbe0d5edf	-0.13805722
52	0xbe0ef20b	-0.1395952
53	0x3e2c3419	0.16816749
54	0xbe0d5cb8	-0.138049
55	0xbc1d256e	-0.009591443
56	0xbd85aded	-0.06527314
57	0xbc7e4f9f	-0.015521913
58	0x3e5609b2	0.20902136
59	0x3d02b1d1	0.03190786
60	0xbcc8063c	-0.024417035
61	0xbcc0b6fb	-0.023524752
62	0xbd6bc01a	-0.05755625
63	0xbb4b7248	-0.0031043459
64	0x3c89155d	0.01673382
65	0x3de7a9f3	0.11311712
66	0x3ef5022b	0.47853217
67	0x3dbfcbac	0.09365019
68	0x3c2f1d00	0.0106880665
69	0x3e06299e	0.13101813
70	0x3d058761	0.03259981
71	0x3e32b651	0.1745236
72	0x3e573523	0.21016364
73	0x3e156a03	0.14591222
74	0xbd63d36a	-0.055621542
75	0xbc065e92	-0.008201258
76	0xbdea2a76	-0.1143388
77	0x3c6321bd	0.013863024
78	0x3e554752	0.20827988
79	0xbc4daf50	-0.012554005
80	0xbb6bcd66	-0.0035980581
81	0x3b157bdc	0.0022809422
82	0x3a3ae7c0	0.00071298704
83	0xba663454	-0.0008781601
84	0xbb30dcd2	-0.0026987088
85	0x3aecc326	0.001806353
86	0x3b8998ca	0.004199122
87	0xbb95ed22	-0.0045753876
88	0xbb6278f7	-0.0034556964
89	0xbb958a8d	-0.0045636357
90	0x3b7988d0	0.0038075931
91	0xba23e420	-0.000625195
92	0x3b9385c2	0.004502029
93	0xbb1a70a8	-0.0023565684
94	0x3ac9889f	0.0015375799
95	0xbae1c6ec	-0.0017225421
96	0x3b5e8dce	0.0033959034
97	0x3b5736da	0.003283909
98	0x3b3d08d8	0.0028844383
99	0x3af5e3d2	0.0018759912
100	0x3b9c06fe	0.0047615757
101	0xba58781c	-0.0008257644
102	0xba9748a5	-0.0011542035
103	0xba3fe0f4	-0.00073195924
104	0x3b2842ce	0.0025674584
105	0xbaf6761c	-0.001880351
106	0x3a12b378	0.0005596201
107	0xbb8e5155	-0.0043431916
108	0x3bab6177	0.0052301246
109	0x3b2eaa04	0.002665163
110	0x3ac2a36d	0.001484973
111	0xbb466b11	-0.003027622
112	0xbb1b5988	-0.0023704488
113	0x3b332d4c	0.0027340231
114	0xbb97f6e7	-0.0046375873
115	0x3b3daea4	0.0028943205
116	0xbb0e4c11	-0.002171282
117	0xb9c3d328	-0.00037350622
118	0x3b27884e	0.0025563422
119	0x3b41338b	0.0029480185
120	0x3d3bde7f	0.045866486
121	0xbe02bc58	-0.1276716
122	0xbe0205a5	-0.12697466
123	0xbdd871b2	-0.10568561
124	0xbe6675c1	-0.22505857
125	0x3d0adff1	0.033904973
126	0x3e104214	0.14087707
127	0xbd6f4eb7	-0.058424678
128	0x3ecb3754	0.3969065
129	0x3e2752ad	0.16340132
130	0x3df9d285	0.121983565
131	0x3db2feab	0.0873998
132	0x3cda41c9	0.026642697
133	0xbc9b78c8	-0.018978491
134	0xbe2aacd2	-0.16667488
135	0x3e35e78d	0.17764111
136	0xbd00d0eb	-0.03144924
137	0x3d2727b1	0.040809337
138	0xbc33b7f2	-0.010969149
139	0x3e7c3191	0.24628283
140	0xbbaaf663	-0.00521736
141	0xbadd75f3	-0.0016896114
142	0x3b91c178	0.004448112
143	0x3a952394	0.0011378401
144	0xbc1cc894	-0.009569306
145	0x3baa565e	0.005198284
146	0xbc06c412	-0.008225458
147	0xbab03759	-0.0013444229
148	0xbc1fc357	-0.0097511625
149	0xbc24498e	-0.010027302
150	0xb8c7bb34	-9.523929e-05
151	0x3be27f60	0.006912157
152	0x3b95258a	0.004551594
153	0xbc01a89e	-0.007913737
154	0x3bf5b26b	0.0074980757
155	0xbb848b96	-0.0040449603
156	0x3b3d5a91	0.0028893093
157	0xbb4e4111	-0.0031471888
158	0xbc01648c	-0.007897507
159	0xbbd08778	-0.0063638054
160	0xbadf67fe	-0.0017044542
161	0xbaaa7976	-0.0013006169
162	0x3b97b05e	0.004629179
163	0xbb6fcb07	-0.003658952
164	0xbbac3927	-0.0052558365
165	0x3b5b1ffa	0.0033435808
166	0xbacfea2a	-0.0015862633
167	0xbb7dfcf9	-0.003875552
168	0xbbad6024	-0.005291002
169	0xbb6dcc62	-0.0036285152
170	0xbace64dc	-0.0015746611
171	0x3b9ce46e	0.004787973
172	0x3aaf580c	0.001337768
173	0xbb96406a	-0.0045853155
174	0x3b49c755	0.0030788977
175	0xbacfebfc	-0.0015863176
176	0x3b4815d7	0.0030530596
177	0xbb053a10	-0.0020328797
178	0xbb36092f	-0.002777647
179	0xbb6a78a0	-0.0035777465
180	0x3df167db	0.11787387
181	0xbdf07ee6	-0.11742954
182	0xbe4d5366	-0.20051345
183	0x3d8954b4	0.06705609
184	0x3e3874ab	0.18013255
185	0xbde206fb	-0.11036488
186	0x3e45cfc2	0.19317535
187	0x3e9667e3	0.29376134
188	0x3e4a815c	0.19775909
189	0x3e94a826	0.29034537
190	0x3d19963d	0.037496794
191	0xbe7d340e	-0.24726889
192	0xbc4c7f42	-0.0124815125
193	0x3e854d58	0.2603557
194	0xbe1397d5	-0.14413388
195	0x3d641937	0.05568811
196	0xbe428e98	-0.18999708
197	0xbb5db54a	-0.003382998
198	0x3dcd4e24	0.1002467
199	0x3e43ac5a	0.19108716
200	0x3e6c7bf0	0.23094153
201	0xbe3cf0c2	-0.18451217
202	0xbda671d0	-0.08127177
203	0xbd63e4da	-0.05563817
204	0xbe432f54	-0.19061023
205	0xbbb2717c	-0.0054456573
206	0xbd09b9df	-0.033624526
207	0x3c61b1dc	0.013775315
208	0x3e65a031	0.2242439
209	0x3ce4cf7a	0.027930964
210	0x3df72a9c	0.12068674
211	0xbd2edddc	-0.04269205
212	0x3ce972cc	0.028497122
213	0xbdabab45	-0.083822764
214	0xbe1d894e	-0.15384409
215	0x3e007896	0.12546
216	0xbd7e54e4	-0.062092677
217	0xbbc1e3da	-0.0059170546
218	0xbcb73eaa	-0.022368748
219	0x3e50088e	0.20315763
220	0xbdd3f092	-0.103486195
221	0xbe325518	-0.17415273
222	0xbbd39937	-0.0064574736
223	0xbdad6981	-0.08467389
224	0xbe844f2c	-0.25841653
225	0xbdf85371	-0.1212529
226	0x3d93ca1e	0.07216285
227	0x3e98a882	0.2981606
228	0x3cf366e8	0.029712155
229	0xbe3f2562	-0.18666604
230	0xbc6b45ba	-0.014359886
231	0x3dd00664	0.10157469
232	0xbd93e5d5	-0.07221571
233	0xbd761f38	-0.060088366
234	0xbc542e6b	-0.01295052
235	0x3e0e3b84	0.13889891
236	0x3d2236c7	0.03960302
237	0x3d8d881a	0.06910725
238	0xbdf513b2	-0.11966647
239	0x3b9b1f4f	0.004733957
240	0x3dd8fcb3	0.105950736
241	0xbe29b926	-0.16574535
242	0xbd600048	-0.05468777
243	0xbd6c622c	-0.05771081
244	0xbcbf1256	-0.023324173
245	0x3bc0870b	0.0058754734
246	0x3e67697a	0.2259883
247	0xbde8b8d1	-0.11363376
248	0x3e389261	0.18024589
249	0x3c855adc	0.016278677
250	0x3cd4eb6e	0.025991168
251	0xbd44c911	-0.048043314
252	0x3b96411b	0.004585398
253	0x3dbcf0f3	0.09225645
254	0xbe4ca35e	-0.19984195
255	0x3e0f4925	0.13992746

layers_sigma.1.bias f4 [50]
0	0xc0301632	-2.7513547
1	0xbfddca83	-1.7327427
2	0xc01c99a1	-2.4468768
3	0xc02d8933	-2.711499
4	0xbd522043	-0.0513003
5	0xbd218ea0	-0.03944266
6	0xc01c36c0	-2.4408417
7	0xbbd7b542	-0.006582887
8	0x3cf70121	0.030151905
9	0xc016a1a0	-2.3536148
10	0xc027c6e3	-2.621514
11	0xbfae4326	-1.3614242
12	0xc016f73d	-2.3588402
13	0xbd09063d	-0.033453215
14	0x3be4ef08	0.0069865026
15	0xbe33dccc	-0.17564696
16	0xc0330917	-2.7974298
17	0x3cac4670	0.021029681
18	0xbe1012ca	-0.14069667
19	0xbdcfca86	-0.1014605
20	0xbdf7d90a	-0.12101944
21	0xbffe89ca	-1.98858
22	0xc02752a0	-2.614418
23	0xbd0e7b77	-0.034785714
24	0xbdb9d2a1	-0.090733774
25	0xbdf8f0eb	-0.121553265
26	0xbd90cbeb	-0.07070144
27	0xbd9a6253	-0.07538285
28	0xbd71e2e6	-0.059054278
29	0xc01c13ae	-2.4387012
30	0x3c35055c	0.011048641
31	0xc01378ea	-2.304255
32	0xc024729e	-2.5694957
33	0xc023ff55	-2.5624592
34	0xbd28a748	-0.041175157
35	0xc00f7430	-2.2414665
36	0xbd004ca6	-0.031323098
37	0xbd841403	-0.064491294
38	0xc01e22f0	-2.4708824
39	0x3d2373fe	0.03990554
40	0x3d977183	0.073946975
41	0xbf36dbb4	-0.7142899
42	0xbcfde77c	-0.03099417
43	0xbfc03739	-1.5016853
44	0xbe09c3a2	-0.13453534
45	0xbdc4a50c	-0.09601793
46	0xbe05797e	-0.13034627
47	0xbe46ee17	-0.19426762
48	0xbd6ac837	-0.057319846
49	0xc02731c1	-2.6124117

square_avg f4 [20, 50]
0	0x41d80652	27.003086
1	0x4192231d	18.267145
2	0x412397e3	10.224582
3	0x40c6718b	6.20136
4	0x4092c465	4.586474
5	0x403a6f5d	2.913047
6	0x41a16a80	20.177002
7	0x405aba61	3.4176257
8	0x4036252b	2.8460186
9	0x40ea408c	7.3203793
10	0x40fb3d65	7.8512444
11	0x418c0073	17.50022
12	0x410e6746	8.900213
13	0x4122ecb7	10.182792
14	0x41295f96	10.585836
15	0x405993e9	3.3996527
16	0x4137664c	11.462475
17	0x40706e6c	3.7567396
18	0x409bb647	4.8660007
19	0x40aee28e	5.4651556
20	0x400f43c0	2.2385101
21	0x415fc8d3	13.986529
22	0x40ccec49	6.4038434
23	0x40f029f5	7.5051217
24	0x4097893b	4.735502
25	0x404e0fa9	3.2197058
26	0x40e14b48	7.0404396
27	0x40807094	4.0137424
28	0x40c12559	6.035809
29	0x415621e4	13.383274
30	0x40aaa0f7	5.332149
31	0x40dbbb44	6.8666096
32	0x415ec292	13.9225025
33	0x418b46a7	17.409498
34	0x4051095e	3.2661967
35	0x418c373d	17.526972
36	0x40777a16	3.8668265
37	0x405a6b47	3.4127977
38	0x413791ab	11.473063
39	0x402cc3e6	2.6994567
40	0x40f90128	7.781391
41	0x40d389dc	6.6105785
42	0x406f3460	3.7375717
43	0x4111cfe8	9.113258
44	0x3ff2acf0	1.8959026
45	0x402d9e83	2.7127998
46	0x40b60fae	5.689414
47	0x4094d7b6	4.651332
48	0x4074872b	3.82075
49	0x41d80654	27.00309
50	0x41dc0529	27.50252
51	0x41af9d7f	21.951902
52	0x412e1403	10.879886
53	0x415d3323	13.824985
54	0x409fa166	4.988452
55	0x4025f16b	2.59286
56	0x41d4cd02	26.600101
57	0x4037fbfe	2.8747554
58	0x40bbb5e4	5.8659534
59	0x40d893b4	6.76803
60	0x414d3211	12.824723
61	0x418f6e09	17.928728
62	0x4181d2c5	16.227915
63	0x418356e0	16.41742
64	0x4146fff0	12.437485
65	0x4137de89	11.49183
66	0x416624db	14.383998
67	0x4152b316	13.168722
68	0x41845610	16.542023
69	0x41612e89	14.073861
70	0x3fdf3675	1.7438494
71	0x41e1d7b9	28.230333
72	0x41795d77	15.585319
73	0x41c3bbee	24.466763
74	0x40fdc4d3	7.9302764
75	0x406bdf1a	3.685492
76	0x406c0af1	3.6881678
77	0x4141c881	12.111451
78	0x40e6bb48	7.2103615
79	0x4200d4bd	32.207752
80	0x41751dac	15.319744
81	0x41868db0	16.819183
82	0x4199f538	19.244736
83	0x41fbcb18	31.474167
84	0x409350a1	4.6035924
85	0x4160b8c9	14.045114
86	0x4122bff7	10.171866
87	0x40734f97	3.8017328
88	0x4128980d	10.537122
89	0x41274915	10.455342
90	0x412666d3	10.400104
91	0x40f08e89	7.5173993
92	0x4186efed	16.867151
93	0x41ea5cc6	29.2953
94	0x400c9448	2.1965504
95	0x4027a330	2.6193352
96	0x41bcf2c1	23.618532
97	0x41024bb2	8.14348
98	0x40f50dfc	7.657957
99	0x41dc052f	27.502531
100	0x42751d65	61.278706
101	0x426697bb	57.648174
102	0x4210a493	36.160717
103	0x4242d517	48.708096
104	0x41a805c5	21.002817
105	0x41501137	13.004203
106	0x4297de54	75.934235
107	0x40ae0b34	5.4388676
108	0x4196e65d	18.862482
109	0x416bdc16	14.741232
110	0x41f7313e	30.899044
111	0x41b80720	23.003479
112	0x424ef3a3	51.737926
113	0x423731c4	45.7986
114	0x4211f4e1	36.48914
115	0x42293e66	42.310936
116	0x42032bb7	32.79269
117	0x4250c838	52.195526
118	0x423cf273	47.236767
119	0x424210f7	48.516567
120	0x4128f1dc	10.559048
121	0x42a77e66	83.74687
122	0x4256e511	53.723698
123	0x42944613	74.13686
124	0x41c48222	24.563541
125	0x4162df0f	14.179458
126	0x41882ecb	17.022848
127	0x4241ef93	48.48396
128	0x418af72c	17.37069
129	0x42b6d65a	91.418655
130	0x425e4306	55.565453
131	0x42745030	61.07831
132	0x4248d3ec	50.206955
133	0x42aeb318	87.34979
134	0x412267bd	10.150327
135	0x421f49fe	39.822258
136	0x421c53c6	39.08181
137	0x416ad59b	14.67715
138	0x41f71a7f	30.887938
139	0x420c44c1	35.067142
140	0x4223cb6d	40.948658
141	0x41cec702	25.847172
142	0x424aeee1	50.73328
143	0x42b2fcf7	89.49407
144	0x40dc53ca	6.885228
145	0x4147b876	12.482534
146	0x42ad5a30	86.67615
147	0x41c7cf26	24.976147
148	0x41e989ff	29.19238
149	0x42751d6b	61.27873
150	0x41c7e354	24.986
151	0x41e06947	28.051405
152	0x416184f6	14.094961
153	0x41a906c6	21.128307
154	0x40bede51	5.964638
155	0x406de11e	3.716865
156	0x41fbe668	31.487503
157	0x3fd1f3c6	1.6402519
158	0x4102352c	8.137981
159	0x40a40547	5.125644
160	0x41672fd3	14.449176
161	0x411d282b	9.822307
162	0x41b1d1ae	22.227383
163	0x41af7ca0	21.935852
164	0x417eb71a	15.919703
165	0x418d2337	17.642195
166	0x416d1cdb	14.819545
167	0x41aa2a4e	21.270657
168	0x41c21ef3	24.265112
169	0x41a12177	20.14134
170	0x40308a66	2.7584472
171	0x4229163f	42.271725
172	0x41b43092	22.523716
173	0x420f0b29	35.7609
174	0x410c863b	8.782771
175	0x40a36f92	5.1073694
176	0x40908cdd	4.517195
177	0x4196e258	18.86052
178	0x40aee6eb	5.465688
179	0x42301575	44.020954
180	0x41bef0c7	23.867567
181	0x41d17ef3	26.186987
182	0x41a04b5e	20.0368
183	0x422005a6	40.005516
184	0x405cd0eb	3.4502513
185	0x4180b2ab	16.08724
186	0x417e3bdf	15.889617
187	0x409a8ce0	4.8296967
188	0x41336245	11.211492
189	0x417eec30	15.932663
190	0x41823e7f	16.280516
191	0x41231265	10.191991
192	0x41ca6fb4	25.304543
193	0x4226482a	41.570473
194	0x40266a39	2.6002333
195	0x4062803d	3.539077
196	0x421415d7	37.021328
197	0x41207a50	10.029861
198	0x411a1852	9.630938
199	0x41c7e352	24.985996
200	0x42241b29	41.026524
201	0x42298335	42.37813
202	0x418c241b	17.51763
203	0x418c5aa7	17.544264
204	0x413575c8	11.341255
205	0x40d5b5d6	6.678447
206	0x420a800d	34.62505
207	0x4098f9af	4.780479
208	0x40d82301	6.754273
209	0x416e6009	14.898446
210	0x415e9bd5	13.913045
211	0x41ebf030	29.49228
212	0x41cc0e17	25.50688
213	0x419238f5	18.277811
214	0x41888543	17.06507
215	0x4172ad5e	15.167326
216	0x418afe20	17.374084
217	0x41907c20	18.060608
218	0x416ded33	14.87041
219	0x41909304	18.071785
220	0x40a1c7a1	5.055619
221	0x4201a076	32.4067
222	0x4199b782	19.214603
223	0x41b93ec0	23.15564
224	0x413f69d0	11.963333
225	0x40c5bd8a	6.179387
226	0x411ac042	9.671938
227	0x418daa23	17.708075
228	0x4144a436	12.290091
229	0x42075010	33.828186
230	0x41966eb7	18.80406
231	0x41beab3e	23.833614
232	0x41c60963	24.754583
233	0x421ffde0	39.997925
234	0x40eb36c9	7.3504376
235	0x41b64d71	22.787813
236	0x41756cec	15.339092
237	0x40fe4fb5	7.94723
238	0x4189e3bc	17.236198
239	0x4137af58	11.480309
240	0x418d109e	17.633114
241	0x414b237c	12.696163
242	0x417b774d	15.716626
243	0x41ee39fc	29.778313
244	0x40ab2d89	5.3493085
245	0x40c92a38	6.2864037
246	0x41e77747	28.93324
247	0x41204162	10.015963
248	0x414fe4ac	12.993328
249	0x42241b29	41.026524
250	0x41b63b5c	22.778984
251	0x41b3980d	22.449244
252	0x41693826	14.576208
253	0x41416651	12.08748
254	0x4100a2c3	8.039737
255	0x40889aa8	4.268879

square_avg f4 [20]
0	0x4290964c	72.29355
1	0x428c357d	70.10447
2	0x4316ffee	150.99973
3	0x4281308e	64.59483
4	0x42b42d64	90.08865
5	0x42afe748	87.95172
6	0x41ff5e1a	31.920948
7	0x4210c6bf	36.194088
8	0x436b50f6	235.31625
9	0x42932eac	73.591156
10	0x42b31fe4	89.56229
11	0x42ac800d	86.2501
12	0x426fde12	59.966866
13	0x4267b497	57.926357
14	0x4235a05e	45.40661
15	0x4241153c	48.270737
16	0x420e4270	35.56488
17	0x420bc62c	34.943527
18	0x42f3bdc1	121.87061
19	0x426458a3	57.08656

square_avg f4 [50, 20]
0	0x41ca17f1	25.26169
1	0x41752d18	15.323509
2	0x41d68212	26.81351
3	0x41866479	16.799059
4	0x419bc4fd	19.471186
5	0x4246ee18	49.732513
6	0x41a718ef	20.887175
7	0x41d0eae5	26.114695
8	0x4235998c	45.39995
9	0x41f0c411	30.095736
10	0x41920a5e	18.255062
11	0x41a2f0b9	20.36754
12	0x41c17848	24.183731
13	0x425d7f35	55.374226
14	0x41ada1fa	21.70409
15	0x425d9dd4	55.40413
16	0x414f3641	12.950746
17	0x42d2af0d	105.341896
18	0x41818d20	16.193909
19	0x41910f09	18.132341
20	0x45a6d84c	5339.037
21	0x45381d1b	2945.819
22	0x46623ce7	14479.226
23	0x456b9cbe	3769.7964
24	0x4637a140	11752.3125
25	0x4662466c	14481.605
26	0x44de8241	1780.0704
27	0x453a9e94	2985.9111
28	0x45afe898	5629.074
29	0x455fad6f	3578.8396
30	0x45bde757	6076.9175
31	0x45aa3c77	5447.558
32	0x455cee1a	3534.8813
33	0x44423dd1	776.9659
34	0x45bcedeb	6045.7397
35	0x464fe5e9	13305.478
36	0x451e3328	2531.1973
37	0x456e5850	3813.5195
38	0x45837ec2	4207.8447
39	0x45550d1d	3408.8196
40	0x421e603b	39.593975
41	0x418a920b	17.32131
42	0x41de66ab	27.80013
43	0x417feab0	15.994797
44	0x41c57b4f	24.68521
45	0x423d8d4d	47.38799
46	0x41c763db	24.923758
47	0x41a70bbe	20.880733
48	0x42665031	57.578312
49	0x423ad499	46.707615
50	0x419ffe77	19.99925
51	0x41c4f9ea	24.622028
52	0x41dc8c6e	27.56857
53	0x4290f599	72.47968
54	0x420fabbd	35.917713
55	0x42a721e8	83.56622
56	0x41a4a7a0	20.581848
57	0x43149e33	148.61797
58	0x41b370eb	22.430136
59	0x41914fbb	18.16393
60	0x421b5130	38.829285
61	0x419bd11e	19.477108
62	0x41d3dd3f	26.48303
63	0x41610c9e	14.06558
64	0x41bf30bc	23.898796
65	0x421ebed9	39.686375
66	0x41c76711	24.925325
67	0x41e8e7b0	29.113129
68	0x424f0750	51.75714
69	0x421e34dd	39.551624
70	0x41abd234	21.477638
71	0x41cb3c88	25.404556
72	0x42234e31	40.82636
73	0x4267d1c1	57.954838
74	0x41c405a1	24.502748
75	0x4259b8cc	54.430466
76	0x417854dc	15.520718
77	0x42eb8b60	117.77222
78	0x4195b718	18.714401
79	0x41e83c31	29.02939
80	0x39ccf51d	0.00039092536
81	0x39b2ab56	0.0003407846
82	0x39b2ceca	0.00034104876
83	0x39394405	0.00017668314
84	0x39a48d19	0.00031385644
85	0x39827918	0.00024885754
86	0x39cf495d	0.00039536777
87	0x39ead6b1	0.00044791916
88	0x3a38266f	0.000702477
89	0x3a00a0bb	0.0004906763
90	0x3a0030bc	0.00048900745
91	0x39d681ad	0.00040913877
92	0x39d68201	0.0004091412
93	0x3a06d952	0.00051440776
94	0x39b45a19	0.00034399403
95	0x3a0c5517	0.00053532555
96	0x391ab001	0.00014752151
97	0x3a83af9d	0.0010046844
98	0x393e3894	0.00018140889
99	0x39ac1b10	0.0003282656
100	0x3a0aa558	0.00052889204
101	0x399489e8	0.00028331508
102	0x399d0297	0.00029947303
103	0x392a40b2	0.00016236564
104	0x39acc50e	0.00032953214
105	0x397eb28c	0.00024289842
106	0x39f9357f	0.0004753284
107	0x39e0f7c8	0.0004290922
108	0x3a30382a	0.0006722236
109	0x39f4d505	0.0004669802
110	0x3a1e727c	0.0006044281
111	0x39f9cf5c	0.00047647476
112	0x39d01d73	0.00039694793
113	0x3a0bc20d	0.0005331345
114	0x39b31143	0.00034154402
115	0x3a1e9128	0.00060488516
116	0x39651844	0.00021848181
117	0x3ad2bf7d	0.0016078796
118	0x39514411	0.0001995715
119	0x39b92b75	0.00035318328
120	0x41ae7265	21.805857
121	0x41883a04	17.028328
122	0x41a1da05	20.231455
123	0x41a167b7	20.175642
124	0x419fadf5	19.95994
125	0x41d37211	26.430696
126	0x416c1f90	14.757706
127	0x41ec0ad7	29.505293
128	0x41f96d7b	31.178457
129	0x4223e3fe	40.97265
130	0x41bc6e17	23.553755
131	0x416c1d7b	14.757197
132	0x421558da	37.33677
133	0x422ce91f	43.227657
134	0x41b12759	22.144213
135	0x422a967d	42.64696
136	0x418d0713	17.628454
137	0x42c55a5b	98.676476
138	0x41910944	18.129524
139	0x41a3e067	20.484571
140	0x39ff5793	0.00048702638
141	0x39be0349	0.00036242072
142	0x39950c3b	0.00028428607
143	0x396ea3f3	0.00022758525
144	0x39bd1fef	0.00036072682
145	0x398fdb0e	0.00027438294
146	0x3a15c8bd	0.0005713811
147	0x3a15b3a0	0.0005710665
148	0x3a985e3a	0.0011624761
149	0x39ef2960	0.0004561646
150	0x3a49e5b6	0.0007701771
151	0x3a1d513a	0.00060011784
152	0x39a2b2bf	0.00031032224
153	0x3a481919	0.00076331344
154	0x39ee7f0c	0.00045489555
155	0x39fb74a1	0.00047961346
156	0x39633396	0.00021667624
157	0x3af4eb90	0.0018685926
158	0x39a231fb	0.00030936286
159	0x39f52f9f	0.00046765522
160	0x39cdf106	0.00039280223
161	0x396af53d	0.00022407337
162	0x397a6bfc	0.00023882085
163	0x39041f38	0.00012600131
164	0x39975e14	0.00028871058
165	0x3987a812	0.0002587443
166	0x39ccf0a1	0.00039089195
167	0x39cce531	0.00039080673
168	0x3a35f85f	0.0006941612
169	0x39c1c3e8	0.0003695779
170	0x3a12c8d5	0.00055993843
171	0x39c8f04a	0.00038326002
172	0x39a74c23	0.00031909448
173	0x39f9ec2d	0.00047668946
174	0x39920ae0	0.00027855393
175	0x39ba2b87	0.00035509115
176	0x38fa8ce5	0.000119471726
177	0x3ab19663	0.0013548847
178	0x3920d002	0.00015336278
179	0x39a5e855	0.00031644353
180	0x422fe8a3	43.977184
181	0x41fb8d6f	31.44406
182	0x41c4c95d	24.598322
183	0x4193f066	18.492382
184	0x42037f9f	32.87463
185	0x42593598	54.302338
186	0x42114e47	36.326443
187	0x41eafb3f	29.372679
188	0x42767adf	61.61999
189	0x426edbd9	59.714695
190	0x41ec85a4	29.565254
191	0x41eaedc3	29.366095
192	0x42c017c3	96.04641
193	0x428bd83c	69.92233
194	0x421a4554	38.567703
195	0x4279eeac	62.483078
196	0x418f07c9	17.878801
197	0x435e056a	222.02115
198	0x41d9c6d8	27.222092
199	0x420d734f	35.362606
200	0x41e6e74e	28.862942
201	0x415cafda	13.7929325
202	0x4198f52a	19.119709
203	0x41390854	11.564533
204	0x41a66c74	20.802956
205	0x41f40174	30.50071
206	0x419d9baf	19.701017
207	0x41a06c11	20.052767
208	0x4210ee33	36.232616
209	0x4209c26b	34.43986
210	0x41983fda	19.031178
211	0x4138fa29	11.561074
212	0x4212175e	36.52282
213	0x427e4f24	63.577286
214	0x41b07e36	22.061626
215	0x42314654	44.31868
216	0x414a5207	12.645026
217	0x4292b9e2	73.36305
218	0x41824e9b	16.288382
219	0x41a42592	20.518345
220	0x4343eca0	195.92432
221	0x4070c740	3.7621613
222	0x4362749a	226.45547
223	0x42febb7e	127.366196
224	0x434014d1	192.08131
225	0x43736c36	243.4227
226	0x40f7543d	7.729033
227	0x4259dcfe	54.465813
228	0x41475651	12.458573
229	0x42d3bfb8	105.87445
230	0x4253c4bc	52.942123
231	0x42c0470f	96.13879
232	0x4260b7c4	56.17946
233	0x413108e9	11.064675
234	0x42de6e2a	111.215164
235	0x436b73d3	235.45244
236	0x42d00f9f	104.03051
237	0x40dcf9db	6.9055
238	0x42e1ff77	112.998955
239	0x4222d91f	40.712032
240	0x40cdf069	6.435597
241	0x40d0a1dd	6.5197587
242	0x40b342ff	5.601928
243	0x4111f178	9.121452
244	0x408fa723	4.4891524
245	0x415d9469	13.848733
246	0x40ead5db	7.3386054
247	0x412c5b23	10.77225
248	0x419573d8	18.681564
249	0x415e9461	13.911225
250	0x40e9d15e	7.3068075
251	0x410448d6	8.267782
252	0x4163ac6d	14.229596
253	0x41814806	16.160168
254	0x41527a34	13.154835
255	0x41af5d4f	21.92056

square_avg f4 [50]
0	0x42c85d33	100.18203
1	0x440d851f	566.08
2	0x42f0d01d	120.40647
3	0x42d77f01	107.748055
4	0x3b04ecf1	0.002028283
5	0x3b17ae4b	0.0023144658
6	0x428a9d3f	69.30712
7	0x3b65bd77	0.0035055557
8	0x3b1e2fc9	0.002413737
9	0x430bb3a8	139.70178
10	0x424455eb	49.083904
11	0x40b94d40	5.79068
12	0x421d4e28	39.326324
13	0x3ad3616c	0.0016127056
14	0x3b3951c8	0.0028277505
15	0x3b5a2cb5	0.0033290808
16	0x42d72d0d	107.58799
17	0x3a928a11	0.0011180063
18	0x3b39e195	0.0028363217
19	0x3b2aba52	0.0026050997
20	0x3b784a4c	0.0037886081
21	0x425f8444	55.879166
22	0x42469648	49.64676
23	0x3b13f744	0.0022577802
24	0x3b4a5012	0.003087048
25	0x3b5a1a14	0.0033279704
26	0x3b046882	0.0020203893
27	0x3b42420a	0.0029641413
28	0x3b506a9b	0.0031801823
29	0x42227dec	40.62297
30	0x3ae8aa8c	0.0017751022
31	0x4176b517	15.419211
32	0x4298eb11	76.459114
33	0x423a2875	46.53951
34	0x3b0d6e96	0.0021580807
35	0x42994436	76.633224
36	0x3b1f895d	0.002434335
37	0x3b29c68c	0.0025905697
38	0x42f9bf52	124.87367
39	0x3ac885b4	0.0015298636
40	0x3ad2dffa	0.0016088479
41	0x3cb48485	0.022035846
42	0x3b379128	0.0028010104
43	0x41de9a7d	27.825434
44	0x3b4371ea	0.0029822537
45	0x3b67c536	0.003536535
46	0x3b4db446	0.003138797
47	0x3b2cdfb0	0.0026378445
48	0x3b2ac247	0.002605574
49	0x42c97961	100.73707
