feed_forward/saved_models/nhid30_lr0.01_nlayers3_seed5.pt (torch, 87685 bytes, 32 tensors)

layers_mu.0.weight f4 [30, 50]
000000 b9 4a 41 be f4 6d 56 3e a4 e7 d3 bb fe 62 e7 bd
       -0.1887616 0.20940381 -0.0064668227 -0.11298178
000010 67 83 eb 3d 1e 2b 35 bc 98 e4 52 3e 70 a2 32 3e
       0.114996724 -0.011057643 0.20595014 0.17444777
000020 86 31 80 3b 08 8f d7 3e 71 0a 35 3d 28 16 e6 bd
       0.0039121537 0.42101312 0.04419941 -0.11234695
000030 9a 16 ab ba 86 83 9a 3b b2 0c 47 3e 3c 46 ae 3d
       -0.0013053 0.004715386 0.19438437 0.0850949
000040 37 73 b0 3c fc 68 99 3a 1d 90 69 3c 44 f9 8f bc
       0.021539314 0.0011704261 0.014255551 -0.017574914
000050 ac 8e dc bd 83 35 91 be 12 e7 7d bc 05 91 a7 bd
       -0.107694 -0.2836114 -0.015496986 -0.08181957
000060 24 d0 be bb c8 af 46 3e e4 b5 9a 3b 9a 3d 88 3c
       -0.005823152 0.19402993 0.00472139 0.016630936
000070 aa 6d d1 bc 71 8d 72 bf 20 6c e7 3b b1 37 e8 3d
       -0.025564987 -0.9474707 0.00706245 0.11338747
000080 55 94 96 3e 51 c8 e2 bc e6 5c 8a bd 58 ce 73 b9
       0.29410043 -0.027683409 -0.06756 -0.00023251155
000090 5e 38 18 3c de ce bf 3a 08 58 84 3b 40 91 2e bc
       0.009290783 0.0014633795 0.0040388145 -0.0106547475
0000a0 f0 ad b5 b9 ee b3 f0 be 37 a8 1c bb db 59 3f bc
       -0.00034652604 -0.47012275 -0.0023903975 -0.011679138
0000b0 d7 37 21 3f 46 28 0f 3d 9f 8d 3d 3e 71 66 c9 3b
       0.6297583 0.034950517 0.18511055 0.006146245
0000c0 5e 6f 5c bb 48 e5 7c be 17 dc f4 be 2c 25 c6 3e
       -0.0033635716 -0.24696839 -0.47824165 0.38700235
0000d0 85 78 e4 bb 21 87 f7 3d bf da 1d 3d 70 ef 44 3b
       -0.006972375 0.12086321 0.03853869 0.0030049942
0000e0 b8 23 a5 3e e9 8d 52 3e e2 f6 12 bb e7 51 e4 bd
       0.32253814 0.20561947 -0.0022424986 -0.11148434
0000f0 15 47 4d 3d 35 98 9e be 36 92 a0 bb b0 ee fa ba
       0.050116617 -0.309755 -0.004900242 -0.0019144621
000100 a1 0a c3 bd 43 14 ad bd e8 bf a5 3d c8 b2 1c ba
       -0.09523512 -0.0845113 0.08093244 -0.0005977568
000110 74 8d 9f bd 0e 31 a9 3b 1d 20 15 be 65 e2 f1 3e
       -0.07790652 0.0051633185 -0.14563031 0.47243038
000120 63 09 40 3b f7 3b f7 3e 3b 41 89 3b 4e 71 69 3e
       0.002930247 0.48287937 0.0041886843 0.22797129
000130 6d 60 88 bb 9f 67 02 3c 42 bd 4b 3c 42 0e 00 3a
       -0.0041618855 0.0079592755 0.012435259 0.0004884937
000140 f8 e5 ff ba 0e 81 e3 3e 68 0a cc 3a 2a 29 a9 3d
       -0.0019523492 0.44434398 0.0015567066 0.082598045
000150 2e e8 90 bc ab bc 20 bb a5 aa f2 3d 18 1b cc bb
       -0.017688837 -0.0024526517 0.11848954 -0.0062288158
000160 6c b5 43 3c a7 02 80 3b 8c 3e 9a 3b 64 53 94 3e
       0.01194511 0.003906566 0.004707163 0.28969872
000170 31 93 b8 3b 84 f3 1e 3b b5 47 65 be a0 f8 11 be
       0.005632781 0.0024254033 -0.22390635 -0.14254999
000180 a1 ef 71 3e 3e 21 fd 3b 79 b6 f3 3b f5 83 ee be
       0.23626567 0.00772491 0.007437524 -0.4658505
000190 59 96 4b 3e e1 26 92 3e 10 6a 3b bb fc 11 98 be
       0.19881572 0.28545287 -0.0028597154 -0.2970122
0001a0 23 12 5a be a3 e8 0d 3c c5 6a c9 be 99 68 8b 3d
       -0.21295981 0.008661422 -0.3933927 0.0680706
0001b0 a7 3e d6 3b f0 27 03 3f b5 73 3d bc 1f 74 52 be
       0.0065382305 0.51232815 -0.011563231 -0.20552109
0001c0 3c 42 08 bc 9a d0 f8 3b 8c 73 7f 3e 00 b8 32 bd
       -0.008316573 0.0075932266 0.24946421 -0.043632507
0001d0 3b b3 67 be 6f 67 09 bb 07 62 b3 be 4a 58 5f 3b
       -0.22626965 -0.0020966192 -0.35035726 0.0034079724
0001e0 fa 4d 86 3e 92 1b 93 bc 71 e6 30 3b 5c c1 60 be
       0.26231366 -0.017957482 0.0026992823 -0.21948761
0001f0 26 5d 99 bb 10 8e 03 3e 22 cd fa ba dc b9 66 3c
       -0.0046802936 0.12847161 -0.0019134621 0.014082398
000200 ad 33 2e 3c 18 35 39 3c 84 62 4d bb 27 be 39 3f
       0.010632438 0.011304162 -0.0031339237 0.72555774
000210 54 db a5 be 84 20 a3 bd 28 73 b8 bd a4 9a 8a bb
       -0.32393897 -0.07965186 -0.09006339 -0.0042298604
000220 64 2c 00 3d fe a8 05 bc 71 12 26 bc 52 ce a5 3b
       0.031292334 -0.008157967 -0.010136233 0.0050599957
000230 a1 8e 82 bb 25 de e4 3e 90 a7 09 3c 27 64 d9 3b
       -0.003984288 0.44700733 0.008401766 0.0066342535
000240 61 49 cd 3d 64 ac 97 bd 46 c9 21 be b1 72 5e 3c
       0.100237615 -0.07405928 -0.15799436 0.013577149
000250 92 7f eb 3b 21 70 15 3e 12 36 b0 3d 07 64 65 be
       0.0071868384 0.14593555 0.08604063 -0.22401439
000260 38 27 5b bb c7 da 33 3f 40 c5 a0 3c 32 2d 55 bb
       -0.0033440124 0.702557 0.019625306 -0.003252816
000270 75 80 05 bf 7a 09 8f 3e 58 16 1b 3b 23 8c dc 3d
       -0.52149135 0.27936918 0.002366444 0.107689165
000280 7c 38 f5 be da 2b c5 3e be 5a 3a 3b 67 94 9a bc
       -0.47894657 0.3851002 0.0028435434 -0.018869592
000290 d9 1e 2d bd 4d 67 92 3e 96 a2 c4 bd 7c 37 06 3c
       -0.042265747 0.28594437 -0.09601323 0.008191939
0002a0 7a 90 39 3e c9 8a 77 3b 03 ed 20 3e 8c 53 21 3d
       0.1812152 0.0037771931 0.15715413 0.039386317
0002b0 7a 51 c3 3b 89 b8 6e 3d b7 61 a7 3b 23 37 32 3f
       0.0059606405 0.058281455 0.005108084 0.6961538
0002c0 54 cb b9 ba b0 aa c4 3b fc 15 37 3c 7c 2b 46 3e
       -0.0014174976 0.006001793 0.011174675 0.19352525
0002d0 ff e6 5c 3c 16 73 bc 3e 00 09 c6 3d 1a 87 10 3f
       0.013482808 0.36806554 0.09669685 0.5645615
0002e0 be 58 06 bd 18 7c 5b 3b f6 91 19 be a4 3b dc bb
       -0.032799475 0.0033490714 -0.14997086 -0.006720977
0002f0 20 1f a8 3c a8 d3 a2 3a b1 f2 50 3b 40 18 bf be
       0.020522654 0.0012422698 0.0031882937 -0.3732319
000300 dd cc ab 3b ec c6 16 bb 72 7b 0b be 1a 50 a6 3d
       0.0052429275 -0.002300675 -0.1362131 0.08120747
000310 98 33 eb 3e ce a0 30 3c 16 66 0e bc eb 25 1a 3d
       0.459378 0.010780526 -0.008691331 0.037633818
000320 a9 ce f5 bd 8a 94 99 3e 40 e6 17 38 28 72 a2 3e
       -0.12002308 0.2999614 3.6215642e-05 0.3172772
000330 9f ad a8 3e 70 fe 6f b9 32 d2 b1 3d 83 52 03 bf
       0.32944962 -0.00022887602 0.0868267 -0.5129778
000340 3d e9 be 3c 2e 96 52 bd ac 39 b2 3e 50 42 2d bb
       0.023304576 -0.051412754 0.34809625 -0.002643723
000350 af df 8e bc 86 86 9c bb 9d 10 77 bd bf ab 27 3e
       -0.017440645 -0.0047767786 -0.060318578 0.1637411
000360 66 5e 7c be d8 41 4d ba fc 19 dc bd 62 5a 48 bc
       -0.24645385 -0.0007829941 -0.107471436 -0.01222858
000370 79 d1 34 3e 53 15 e4 3d fd 16 ab 3a 6e e8 17 3d
       0.17658032 0.1113688 0.0013053116 0.037086897
000380 98 f9 57 bc 4c e7 20 bd 44 36 82 bb e4 84 83 3b
       -0.013182066 -0.039283082 -0.003973754 0.0040136445
000390 28 b7 bc ba b9 7d 02 be 02 95 33 3c 23 45 3c bd
       -0.0014397847 -0.12743272 0.010960819 -0.04596437
0003a0 65 f4 b9 3d 2a c2 a1 3d 80 a5 53 be 9a 2c 30 bc
       0.09079818 0.07898362 -0.20668602 -0.010752821
0003b0 eb f5 81 bf 67 3c 9c 3c ca 1d 7e bc 04 0a f8 3b
       -1.0153173 0.01907177 -0.015510032 0.0075695533
0003c0 f9 0c 4d bb a6 b8 99 3e 8a 3b f8 3b bc b5 18 3c
       -0.003128825 0.30023688 0.007575457 0.009320673
0003d0 3a b1 d6 3c 1c b9 30 3d 5c 8b 88 3d 25 6d 3a 3c
       0.026207555 0.043145284 0.06667206 0.011378561
0003e0 72 10 88 3b 95 31 27 be 35 dc e8 3e a4 be 49 3e
       0.004152351 -0.16327508 0.45480505 0.1970163
0003f0 4e 81 bd bb 76 77 f2 3e 7e bc bd 3e ae e0 a8 bb
       -0.0057832366 0.47356766 0.3705787 -0.005153737

layers_mu.0.bias f4 [30]
000000 4a 8c 3c 3c 84 e1 de 3a e0 03 9e b9 48 e9 24 bc
       0.011508057 0.0017004465 -0.00030138995 -0.010065384
000010 f6 aa 01 3c 74 33 2a 3c 01 b6 8c 3b b9 97 98 3b
       0.007914295 0.010388244 0.0042941575 0.0046567586
000020 53 fe dc bb 66 e9 74 bb 50 e3 b4 3a 3a c3 a3 3c
       -0.006744185 -0.0037370562 0.0013800655 0.019990552
000030 f0 4e c3 39 da cf ee bb b8 fb 33 3c 6c 4b 6b 3b
       0.0003725211 -0.0072879614 0.010985307 0.003590311
000040 e4 6f ae bb c6 23 91 3a ef e0 c1 bb 3a e7 9c bb
       -0.005323397 0.0011073283 -0.0059167068 -0.0047883065
000050 f9 a5 a4 3b f7 ea 25 bc 5e d7 df bb 10 ca 0b b9
       0.0050246683 -0.010126821 -0.0068310937 -0.00013331347
000060 ac 69 62 bb 54 d1 8a 3b 7c eb b6 bb 41 01 7f 3a
       -0.0034547849 0.0042363796 -0.005582271 0.0009727665
000070 cc ea d6 bb 76 94 1b 3b
       -0.0065587517 0.0023739613

layers_mu.1.weight f4 [30, 30]
000000 f0 2a 8e bc d4 2d 95 3e 47 e5 ab 3d 50 c3 97 bd
       -0.017354459 0.29136527 0.083933406 -0.074103
000010 26 09 f9 bd 2b cd 2e 3d 0d 78 55 be 04 e7 25 3d
       -0.12159948 0.042676132 -0.20846577 0.040503517
000020 15 c5 c7 bd bf 14 21 be 6d c9 ee bd c4 26 c2 3d
       -0.09754387 -0.1573057 -0.11659513 0.0948005
000030 ad 5f 84 3d c3 7d 7d 3e 7e e2 bb bd 25 25 c4 3d
       0.06463561 0.24755006 -0.09174059 0.09577397
000040 5c 0e d3 bd 41 67 a0 3c 0a 72 08 3e f4 db 4b 3d
       -0.10305473 0.019580485 0.13324752 0.04977031
000050 5b 0f 2c 3e 35 75 3e 3d 29 d2 32 3e 9d 01 6f be
       0.16802733 0.046498496 0.17462982 -0.23340459
000060 8f c7 9f 3d 4a 88 43 be 80 68 5c be 94 b7 02 bb
       0.07801735 -0.19094959 -0.21524239 -0.0019945847
000070 d1 bd 1e be 35 2d 3c 3d 84 0d 98 3d 7f 40 af 3e
       -0.15502097 0.04594155 0.07424453 0.34228894
000080 57 f8 89 bd 5e dd 24 be 40 f9 09 3e 0f 4a 12 3e
       -0.0673682 -0.1610007 0.13473988 0.14286064
000090 c2 ec 18 3c be bc c7 3d 08 86 6f 3d 18 ea 1a 3d
       0.009333791 0.097527966 0.05847743 0.037820905
0000a0 89 21 3f 3e 33 9e 1e bd 46 00 01 3d 90 b8 86 bd
       0.18665136 -0.03872509 0.0314944 -0.06578171
0000b0 09 a3 ab bd 41 bb ee 3d b2 66 89 3e 92 b4 b4 bd
       -0.08380706 0.116568096 0.26836163 -0.088235036
0000c0 76 ae 75 be 6a d6 32 3e 94 f5 30 bd 93 3b 9a 3d
       -0.23992333 0.17464605 -0.04320295 0.07530894
0000d0 4c 54 e3 bd 6a 7f 1b bd 08 dc 53 3c b1 1d bb bd
       -0.11100063 -0.03796331 0.0129308775 -0.091365226
0000e0 73 11 b3 3d f1 82 bb bd 3e c0 4c be 85 d8 8f bd
       0.087435625 -0.091558345 -0.1999521 -0.0702372
0000f0 ad 09 af bd 3d 00 4c 3e 66 98 75 bb 7d b8 35 3e
       -0.085467674 0.19921966 -0.003747487 0.17746158
000100 ce 3a 09 be ef 7f f9 bd 06 16 86 3c d4 79 a2 bd
       -0.13401338 -0.121826045 0.016367923 -0.07933393
000110 ef b5 93 3d fc c9 55 3d 0a 53 72 3d e0 96 ef 3d
       0.072124355 0.05219458 0.059161223 0.11698699
000120 64 33 cb bb a2 5c 0d 3e 1b 24 03 be d4 01 af b9
       -0.0062011946 0.13804868 -0.12806742 -0.00033379963
000130 4c 5b 63 bb c6 14 df 3b 1b 9f 04 be 25 ad 27 bd
       -0.0034691868 0.0068078963 -0.12951319 -0.040936608
000140 6d b9 84 bd a6 b8 ca 3d db c7 4e 3e 4a f5 0f 3c
       -0.0648068 0.098985 0.20193426 0.008786509
000150 81 a9 ab be 6b 4b 56 3e d6 fb 82 3d 1b 03 60 3d
       -0.3352776 0.20927207 0.0639569 0.05469046
000160 a5 08 21 be d0 12 36 3e 13 0d 8a bd ca b9 89 3e
       -0.15725954 0.17780614 -0.06740775 0.26899558
000170 07 48 a5 3e 83 07 ca 3d 16 a8 23 be 74 18 05 3e
       0.32281515 0.09864714 -0.15982088 0.1299761
000180 c9 82 43 3e d1 aa 50 bd 9d f9 22 bc 97 c8 2a 3d
       0.1909286 -0.050944153 -0.009947208 0.041695204
000190 bc 76 09 3d 5c 23 a0 bc 83 85 db bc e5 09 a7 bd
       0.0335605 -0.01954811 -0.026797062 -0.08156184
0001a0 c6 45 a6 3d a3 8b 97 bd 08 00 82 3e 3a 42 f3 bd
       0.08118777 -0.073996805 0.2539065 -0.11877866
0001b0 38 2e 10 bd 39 28 eb bc c2 97 2d 3d 88 ef 03 be
       -0.035200328 -0.028705703 0.042381056 -0.12884343
0001c0 59 43 3a be b6 1e 80 be da eb 91 3c 75 26 51 3e
       -0.18189754 -0.2502343 0.017812658 0.20424826
0001d0 7b c8 30 be 6f f5 62 3d 73 e7 d5 3d b7 40 6d 3c
       -0.17263977 0.055409845 0.10444536 0.014480761
0001e0 28 a2 21 3e e1 8f 9d 3c 77 a7 6d bd 23 34 33 3e
       0.15784514 0.019233646 -0.058021035 0.17500357
0001f0 f9 69 48 be f9 1a 7e 3e 43 3b c5 bc 12 aa f0 3d
       -0.19571675 0.24814977 -0.02407611 0.11751188
000200 8a c9 bf 3b 2c 4e 18 be 84 91 51 be 7f 78 1f be
       0.0058528828 -0.1487357 -0.20465666 -0.1557331
000210 ae 33 ea 3b 98 93 a0 3d d4 1d e9 3c a2 fc f8 bd
       0.007147274 0.07840651 0.028456606 -0.12157561
000220 e0 42 1f 3e 22 ea 28 be 26 20 1e bd 04 4c 47 be
       0.15552855 -0.16495565 -0.038604878 -0.19462591
000230 10 df ee bd da a6 86 3e 3a e5 7f bd 9c 56 ed bb
       -0.116636395 0.26299173 -0.062474467 -0.0072429907
000240 6c 79 04 be e1 f6 41 be 3c 2e 69 3d be d6 b3 3d
       -0.12936944 -0.18941833 0.05692886 0.08781193
000250 a0 7f c3 bd e4 78 53 be c7 62 04 3e 6c 0f c2 3d
       -0.09545827 -0.20651585 0.12928306 0.09475598
000260 42 b2 86 be 13 e9 12 3e 12 aa 81 3d b0 e4 f4 bd
       -0.26307875 0.14346723 0.063312665 -0.11957681
000270 4d 43 15 bd 2c f8 ae 3c f0 39 88 bd f0 96 93 bd
       -0.036441136 0.021358572 -0.06651676 -0.072065234
000280 6b 87 2c 3d 6c 47 63 bd c1 0f ca 3d 7e 7c 44 3c
       0.042121332 -0.055488035 0.09866286 0.011992572
000290 4f 43 17 3e f9 d2 68 be 53 87 84 3e 1b 5e 65 be
       0.1477177 -0.2273673 0.25884494 -0.2239918
0002a0 46 f6 31 3d 3a 66 10 3e 74 70 0e be 71 69 f0 3d
       0.043447755 0.14101496 -0.13910085 0.11738861
0002b0 22 72 7e 3e f1 e2 57 bd ea 90 03 3e 74 25 c1 3d
       0.24848226 -0.052706663 0.12848249 0.09430972
0002c0 4f 18 0d be c3 31 72 bc 12 f4 2d 3e c5 4d 00 3e
       -0.13778804 -0.014782372 0.16987637 0.12529667
0002d0 1e 91 10 3e d0 6a f8 3d 34 11 77 bd c4 d4 94 3d
       0.14117858 0.12129748 -0.06031914 0.07267144
0002e0 e9 f8 68 be a2 ed 52 bc 6a fe e0 bd e9 ee 66 3c
       -0.22751202 -0.012874039 -0.10986026 0.014095047
0002f0 07 b1 0b 3e e1 3d b7 3b 72 43 21 be bf 63 5d be
       0.1364175 0.0055920933 -0.15748385 -0.21620081
000300 22 ff 40 bd e5 7d b7 3d 19 f4 8c 3e 8c cc 46 3e
       -0.047118314 0.08959559 0.27529982 0.19413966
000310 b0 21 d7 bc ea ee 23 bd f0 19 29 be 6c 9c c5 bd
       -0.02626118 -0.040022768 -0.165138 -0.09648976
000320 13 9d 95 3c 3e 5c d7 bd 9c bd 53 3d d1 a4 2b bc
       0.018263375 -0.10515641 0.051694497 -0.010476307
000330 a4 2e 84 bd 78 c7 63 3b c7 34 60 3c 80 56 0c be
       -0.064542085 0.0034756344 0.013684458 -0.13704872
000340 de 15 13 3e 4f 8c 0c 3e 94 20 b8 bc 56 6d 23 3d
       0.1436381 0.13725398 -0.022476472 0.039899193
000350 ba 0a cd 3d 55 95 30 3e 03 a0 08 3e 00 03 99 bc
       0.100118116 0.17244466 0.1334229 -0.018678188
000360 9e 36 c7 3d bf a3 8b bd 2e 1d 78 be ca 05 70 3c
       0.09727214 -0.068183415 -0.24229881 0.014649818
000370 fe 9f 89 3d b7 8e c0 bd 6d d4 28 3d c1 33 f0 bc
       0.06719969 -0.09402221 0.04121821 -0.029321553
000380 8b 6e bf bd 73 1b cc 3c 69 89 0a be e4 f6 8c be
       -0.09347256 0.024915433 -0.1352898 -0.27532113
000390 b2 c6 46 be 81 63 cc bd 9e 39 31 3d cb 57 4c be
       -0.19411734 -0.09979916 0.04326784 -0.19955365
0003a0 45 8b 86 3e c9 a0 1e be d0 0c 47 bb 41 3f 28 be
       0.2627813 -0.15491022 -0.0030372627 -0.1643038
0003b0 1a 8a 45 3e 42 5a 04 bc 75 e4 33 3d f5 3c cf bd
       0.19290963 -0.00807816 0.043919045 -0.101190485
0003c0 c4 7d 6b 3e a6 db 35 3e 48 e0 b5 bb 93 fd 8d be
       0.22997195 0.1775957 -0.005550418 -0.27732524
0003d0 d5 8b 04 be 64 d9 03 be 8e 7f 87 3d 20 8a 05 be
       -0.12943967 -0.12875897 0.06616126 -0.13040972
0003e0 18 d9 89 be fc 6c 15 bb 2b 2e db bd 56 6d 11 3e
       -0.26923442 -0.0022800555 -0.10702165 0.14201865
0003f0 79 78 e0 3d d4 95 55 bd ce cc 88 3e 84 b3 cf bd
       0.10960478 -0.05214484 0.26718754 -0.10141662

layers_mu.1.bias f4 [30]
000000 ee ae 96 be a5 b8 a0 be be 51 de be dc c7 a5 be
       -0.29430336 -0.31390873 -0.4342174 -0.32379043
000010 86 ea b2 be 86 f4 c5 be c1 9e 08 bf 46 bd 0b bf
       -0.34944552 -0.3866312 -0.5336724 -0.54585683
000020 bc c9 a7 be dc b4 8c be a6 7c d1 be 93 22 d2 be
       -0.327711 -0.27481735 -0.40915412 -0.41042003
000030 ef 00 9f be aa 3c ad be ac d7 88 be 10 7e 88 be
       -0.310554 -0.33835346 -0.26727045 -0.26658678
000040 01 11 b7 be 5b 8b 88 be 12 28 ac be 45 07 a7 be
       -0.3575516 -0.2666882 -0.3362432 -0.32622734
000050 ee b9 ad be 07 ad 31 bf 8d fd de be e4 f1 a2 be
       -0.33930916 -0.69404644 -0.4355282 -0.31825173
000060 af 90 c8 be b5 24 86 be ef e4 8f be d7 cc 8c be
       -0.39172885 -0.2619988 -0.2810435 -0.2750003
000070 58 d8 96 be 5b c2 9a be
       -0.29461932 -0.30226406

layers_mu.3.weight f4 [30, 30]
000000 a6 00 8a be 6e f3 c9 be 16 80 35 bf 0b fb 3d bf
       -0.2695362 -0.39443535 -0.7089857 -0.74211186
000010 0b f6 ca be b4 66 0a bf 5e 41 15 be 59 8f 16 3f
       -0.3964084 -0.5406296 -0.14575717 0.5881248
000020 e4 31 08 3f f5 99 82 be 9b 61 86 bf a4 4e 74 3e
       0.5320113 -0.25508085 -1.0498537 0.23858124
000030 31 e3 db be 68 ee bf 3d 26 c8 02 bf d3 41 0a bf
       -0.4294677 0.09371644 -0.5108665 -0.5400669
000040 78 89 e5 be 24 64 d4 be fa 3a 73 be 60 51 dd be
       -0.44831443 -0.4148265 -0.23752967 -0.43226147
000050 f7 ee c8 be 06 ad 57 3e 0a 2a 6f bf ff 7f 8a 3e
       -0.39244816 0.21062097 -0.9342352 0.27050778
000060 68 a3 dc ba 34 31 f7 be 38 1a 53 be 3b f9 e1 be
       -0.0016833367 -0.48279727 -0.2061547 -0.4413546
000070 c4 07 b9 be cc 98 d8 be 61 13 85 3f 75 b9 2b bf
       -0.36138737 -0.42304075 1.0396539 -0.6707986
000080 d3 0c d3 be 66 cf 5c 3f 6a 89 10 bf 68 64 00 3f
       -0.41220722 0.86253965 -0.5645968 0.5015321
000090 4e 6f 7d bf 95 4e 4e be 8c 41 65 be b9 86 96 3e
       -0.9899796 -0.20147164 -0.22388285 0.2939966
0000a0 39 11 0d 3f fd 69 eb 3d 70 23 69 3e c8 36 54 3e
       0.55104405 0.11494825 0.22767425 0.20724022
0000b0 19 b3 16 bf 2e 9f 99 3f 6d f4 8c bd f9 e3 1f 3f
       -0.5886703 1.2001703 -0.06882558 0.62457234
0000c0 66 53 8e 3f cd 7c d3 3e 5a 3d c1 be d8 e7 27 3e
       1.1119201 0.41306153 -0.3774212 0.16397035
0000d0 f3 72 1e bf 01 53 a1 3f 5d b5 9e bd b6 a8 38 3f
       -0.6189415 1.2603456 -0.07749436 0.7213243
0000e0 88 78 2e 3f 05 1d f0 bf 14 cc 29 c0 63 f4 c8 be
       0.68152666 -1.8758856 -2.653081 -0.39248952
0000f0 e2 ec 4d 3f 73 9e b3 bf 27 46 67 bf 86 39 6d 3f
       0.8043958 -1.403273 -0.9034142 0.926659
000100 9f fd 3a bf 88 2e 9c 3f c1 4f 3c 3f 6e a6 e0 3e
       -0.73043245 1.22017 0.73559195 0.43876976
000110 3e 0d 7f bf ae 14 a7 bf c9 11 1e bf 51 6e 8b 3f
       -0.9962958 -1.3053186 -0.6174589 1.0893041
000120 a5 e3 77 3f 25 0e c4 3e c7 48 23 3f 44 70 03 bf
       0.96831733 0.3829204 0.63782924 -0.5134318
000130 13 8b 6a be 8b b9 70 3d c9 55 04 c0 ee bd 83 bf
       -0.22904615 0.058770698 -2.067736 -1.0292337
000140 82 7d 50 3f c3 57 79 be 16 6f ed 3e 17 90 96 3e
       0.8144151 -0.24349885 0.46373814 0.29406807
000150 18 2b 21 3f 3e c9 a7 3e e3 93 14 3f 27 8d 58 be
       0.6295638 0.32770723 0.5803816 -0.21147595
000160 13 7c 9a bd eb 99 23 bf 09 26 8c bf c9 87 69 3e
       -0.075431965 -0.63906735 -1.0949107 0.22805704
000170 ac 2f fd bc 2c d2 09 3e 74 38 42 3c 55 80 1f bf
       -0.03090652 0.1345908 0.01185428 -0.62305194
000180 9f 9e 8d bf a8 5d d2 be 28 19 71 3f a1 e1 0f bf
       -1.1064032 -0.4108708 0.9417901 -0.5620366
000190 dd 04 41 bf 57 9b f2 bf 0e c0 ae 3f bd 86 9b 3f
       -0.75398046 -1.8953656 1.365236 1.2150494
0001a0 c9 23 75 bc e1 88 96 bf 7a 30 94 be 09 7e 66 bf
       -0.014962145 -1.1760522 -0.28943235 -0.90036064
0001b0 87 74 77 bf 53 3a 8c 3f aa 4d a8 3f aa f7 05 3f
       -0.9666218 1.0955299 1.3148701 0.5233103
0001c0 0a 5b 5e be 03 4c 52 3f 19 19 b1 be 15 e2 81 3f
       -0.21714416 0.82147235 -0.3458946 1.014712
0001d0 d2 2c f2 3e d8 d5 36 3f 3c 05 49 bf 33 cc 48 3c
       0.4729982 0.7142005 -0.7852361 0.012255716
0001e0 1e 66 2f 3d 5e 5a 18 bf 39 fc 87 be 7f d9 87 bf
       0.042821996 -0.5951289 -0.26559618 -1.061325
0001f0 e1 3b 7a bf 85 06 70 3e b1 05 97 3e 83 20 f9 bf
       -0.9774762 0.23439987 0.2949653 -1.9463047
000200 e7 68 3c 3f da b8 cc 3e ee db f7 3e 29 28 cb 3e
       0.7359757 0.3998478 0.4840998 0.39679077
000210 34 d2 d5 bd 92 e9 c6 3e e4 b1 eb 3f 78 0b 82 3f
       -0.10440484 0.38850075 1.8413663 1.015975
000220 10 e3 a2 3e 76 c8 a0 bd 7f 84 3c 3e 2b 38 49 be
       0.3181386 -0.07850735 0.18409918 -0.19650333
000230 35 4e c7 3e 16 79 c5 3e 16 9d c4 3e ac 40 70 bf
       0.38926855 0.38568944 0.38401097 -0.9384868
000240 c0 45 12 be 1e 21 20 3e 21 6e b9 bf ff 74 56 3f
       -0.1428442 0.15637633 -1.4486734 0.8377227
000250 40 e4 80 bf bd b5 7f bf 87 e5 bb 3e 4a 56 10 bf
       -1.0069656 -0.99886686 0.36698553 -0.56381667
000260 2c 34 e0 bf db 6c 23 be 8f ae ef be f8 da db be
       -1.7515922 -0.15959494 -0.46812865 -0.42940497
000270 b8 b4 0f 3e ab aa 89 3e ed 73 df 3e 3d 7a 8a be
       0.14033782 0.26888022 0.43643132 -0.27046385
000280 ff 95 91 3e 1a ab 39 bf e2 91 f2 3c fd a8 fb bc
       0.2843475 -0.72526705 0.029610578 -0.030720228
000290 c3 42 d5 bd 49 e0 ab be d7 d7 ae 3d 0e ad 66 be
       -0.104131244 -0.33569553 0.08537262 -0.22526953
0002a0 a2 f2 d8 ba 01 1d b2 be 0a 4e 38 be 03 3b 84 3e
       -0.0016551802 -0.34787753 -0.1799852 0.25826272
0002b0 f0 8c 39 3f a9 a5 56 bf 04 51 53 bf ea ec 79 be
       0.7248068 -0.8384653 -0.82545495 -0.24406782
0002c0 85 ae 83 be e2 76 0d bf a4 ca a9 be 2e e9 82 3e
       -0.25719085 -0.55259526 -0.33162415 0.25568527
0002d0 b4 30 26 3f 56 43 6c 3f c0 61 d6 be e0 bc e7 bf
       0.64918065 0.92290246 -0.41871452 -1.8104515
0002e0 fb 8f be 3f 62 f7 17 3e e8 36 62 bf 2a 68 5d 3e
       1.4887689 0.14840463 -0.8836503 0.21621767
0002f0 29 95 f7 bf e7 2a d1 3e 8e 66 96 3f 51 6a 2b bf
       -1.9342395 0.40853044 1.1750047 -0.669591
000300 fc e9 c3 3e 0b 8b e2 be 01 c6 98 3f cd 50 71 bf
       0.38264453 -0.44246706 1.1935426 -0.9426392
000310 7b c0 3f be aa ef 8b 3d d1 30 b3 be 04 35 3c 3e
       -0.18725769 0.06832822 -0.3499818 0.18379599
000320 be 1e 26 3f de 44 f2 3e 43 54 fd 3e 15 2e 7d bf
       0.6489066 0.47318166 0.4947835 -0.9889844
000330 e6 86 0b 3f 7c 67 19 be 06 8c 0c 3f 9d e5 5c bf
       0.54502714 -0.14980882 0.5490116 -0.8628786
000340 23 87 26 be ca 63 09 3f 56 ae 2f 3f e2 e4 bb bf
       -0.16262488 0.5366789 0.6862539 -1.4679224
000350 f8 0a 55 3f ef a6 2d 3e bb c2 8d 3f 16 b8 87 3f
       0.8321986 0.16958211 1.1075052 1.0603054
000360 b5 81 97 3e 90 c6 ab be 3b d6 4a 3f 94 ba 9f bc
       0.29591146 -0.3354993 0.7923314 -0.019498147
000370 69 da d3 3c 65 1b 29 bf c2 77 07 bf 7b a9 9f be
       0.025860982 -0.66057426 -0.5291711 -0.3118399
000380 bb eb 86 3e 0e 39 b3 bf e3 12 8b 3e fe e7 47 3f
       0.26351723 -1.4001787 0.27162847 0.78088367
000390 94 21 a7 bd a8 7f 28 bf d6 28 9f bd 03 e0 95 bd
       -0.081607014 -0.6581979 -0.07771461 -0.073181175
0003a0 da 85 1b c0 8e 03 d7 bd 40 d8 c4 be d9 49 d9 3e
       -2.4300447 -0.10498725 -0.38446236 0.42439154
0003b0 0b 95 fa be 14 62 bf 3e 05 6e 07 bf c9 0e a3 3f
       -0.48941836 0.37379515 -0.5290225 1.2738887
0003c0 46 49 35 bf e9 04 15 3f 15 8e 8e 3e 00 bd 82 bd
       -0.7081493 0.5821062 0.27842775 -0.06383705
0003d0 83 7c 5b 3d 3c 74 bc be 09 37 18 3f e7 9c 01 3f
       0.05358554 -0.3680743 0.59458977 0.5063004
0003e0 88 69 b4 3f b8 fe ae 3f 10 7b 0b 3f 26 8f 45 3f
       1.4094706 1.3671484 0.54484653 0.7717155
0003f0 8e 35 2d be 9b cc 2f bf 1d 06 5c 3d 0c dd 39 3f
       -0.1691496 -0.6867158 0.053716768 0.72602916

layers_mu.3.bias f4 [30]
000000 f9 5b c1 3e fb 12 c7 be 02 f2 df 3d cd 52 8e 3e
       0.37765482 -0.38881668 0.10934831 0.27797547
000010 c8 3a af 3c 28 54 e2 3e 4f da c3 be 1b fc 5a 3e
       0.021390334 0.4420483 -0.38252494 0.21385233
000020 92 5c 9b be eb 58 81 bc 1c c1 ff bd 2a f3 fd bd
       -0.30344063 -0.01578947 -0.124880046 -0.123998955
000030 fd 35 ea bd 90 f3 d1 bc 54 ed 69 3e 07 e6 7e 3d
       -0.11436079 -0.025628835 0.2284444 0.06223109
000040 67 b9 02 3e be e9 e7 3e 22 45 25 3e 87 6a 66 3e
       0.12766038 0.4529552 0.16139653 0.22501574
000050 f5 5a 1f 3e 75 32 a9 3e 41 ab 66 3e f9 57 ce 3e
       0.15562041 0.33046308 0.22526266 0.40301493
000060 49 2b 8c be 4c bd 5e 3e ae d2 b4 3e 8e 7a 29 3d
       -0.27376774 0.21751899 0.35316986 0.041376643
000070 6e 30 ae 3d 2e 99 f9 3e
       0.08505331 0.4874968

layers_mu.5.weight f4 [50, 30]
000000 c0 ca a3 be df b5 71 bb a8 7c 2f 3e f6 d8 d6 bd
       -0.31990623 -0.0036882085 0.17137396 -0.10490601
000010 42 38 cb 3e 8b 34 89 3e 5d e4 c0 3e 68 57 52 3f
       0.3969136 0.267979 0.37674227 0.8216462
000020 0a 83 1f bf 52 5e a7 3d 5b a9 5b bf 4c 4b c6 3e
       -0.62309325 0.08172287 -0.8580529 0.38729322
000030 71 19 00 bf 65 48 ea 3e 47 71 78 3e 34 bc 46 3f
       -0.5003882 0.45758358 0.24261962 0.77630925
000040 68 c8 06 bf 68 ed 2d ba 38 a2 1a be 76 79 c6 bd
       -0.52649546 -0.00066348026 -0.15100944 -0.096911356
000050 d8 50 aa 3e c9 4b 23 be e6 82 71 3e 0f b9 b2 3e
       0.33264804 -0.15946878 0.2358509 0.34906814
000060 b9 33 ae bf 94 d0 1b 3e dd 5b 12 3f 93 be 5d 3e
       -1.3609535 0.15216285 0.5717142 0.2165473
000070 e8 4a 73 3e 9a a9 d9 3e 4b 7a b9 be 12 4e 46 bf
       0.23759043 0.42512208 -0.36226115 -0.77462876
000080 96 ee ab 3c 96 2b d1 3d 4a 20 11 bf 86 87 96 bf
       0.02098779 0.102133915 -0.56689894 -1.1760108
000090 73 77 81 3d 27 a6 51 3f 53 d8 26 3f 99 85 c1 3f
       0.06321611 0.81894153 0.65173835 1.5118896
0000a0 d6 1e 6d be 2c 71 f7 3e 33 55 2c bf f4 3c 9a be
       -0.23156294 0.4832853 -0.67317504 -0.3012463
0000b0 ea 85 c3 be 6a 50 59 3e 2f 5d 1c 3e c4 50 bd be
       -0.38188106 0.21222082 0.15269922 -0.36975682
0000c0 ff 1f 3c bf 1d 40 5f be f1 e8 a9 3f f2 e8 c5 bf
       -0.7348632 -0.21801801 1.3274213 -1.5461714
0000d0 bb 09 27 3f 9f 91 ca 3e d0 36 e7 3e dc 37 88 bf
       0.6524922 0.39564225 0.45159006 -1.0642047
0000e0 d1 21 d0 bf c6 13 ca 3d 3c b0 82 be 8b 03 b3 be
       -1.626032 0.09867053 -0.2552508 -0.3496364
0000f0 12 a2 b8 3e 69 ea bf be 8b 1a a1 be 31 22 8f 3e
       0.3606115 -0.37483528 -0.31465563 0.27955773
000100 3b 6e ed be a1 5f 63 3f 01 b2 42 3e 58 d4 0b 3c
       -0.46373162 0.88817793 0.19013216 0.008534513
000110 fd b7 fa 3d bb 3d c1 3e 6a 97 2b be 02 48 36 3e
       0.12242124 0.3774241 -0.16756979 0.17800906
000120 1d f4 be bd cc fd 09 3f 24 1f bf bc 3f 43 40 3d
       -0.09323905 0.5390289 -0.023330279 0.04693913
000130 c6 64 a3 3e 54 11 86 3d d8 30 c7 3e e9 70 38 be
       0.31912822 0.06546274 0.38904452 -0.18011822
000140 df a3 8b 3e c8 74 b3 3e 22 c5 f4 be be 39 25 be
       0.2727346 0.35050035 -0.4780665 -0.16135308
000150 36 ab 18 3d 7c 54 a3 be e6 f3 08 be f8 b6 4f bd
       0.037272654 -0.31900394 -0.1337429 -0.050711602
000160 e3 65 62 be 97 23 19 be 06 9c 3f bf 4f dc 1b bf
       -0.22109179 -0.14954983 -0.7484745 -0.6088304
000170 39 23 58 be a0 30 f6 bf 23 eb 6f bf 35 b4 08 c0
       -0.21107186 -1.9233589 -0.93718165 -2.135999
000180 52 4c 31 3f 7d bd 51 bf e2 ae 44 bd 3a f2 4a 3d
       0.6925708 -0.8192976 -0.048018344 0.04954741
000190 88 2c 6d be 1c 8f ee 3d 20 87 ce 3e 0e db ef 3e
       -0.23161519 0.1164839 0.40337467 0.46846813
0001a0 fd 64 cb 3d 78 29 f6 be 5f f2 38 3f 51 8f 08 be
       0.09931371 -0.48078513 0.7224483 -0.13335921
0001b0 fe 14 7f bf 2e 64 31 be de 2d 54 3e 8f 5b d7 3e
       -0.99641407 -0.17323372 0.20720622 0.4206204
0001c0 82 f2 e3 3e a2 d4 0a 40 cb ea 68 3e c1 3a 2c 3f
       0.44520956 2.169228 0.22745816 0.6727715
0001d0 1a bc 22 3f 9e 5a 3a be 3f 50 04 bd 47 0d ff 3e
       0.6356827 -0.1819863 -0.03230309 0.49814817
0001e0 9e d5 80 3e 81 c3 00 3d 02 f4 83 bf c0 76 06 3f
       0.25162977 0.031436447 -1.030884 0.5252495
0001f0 92 c8 92 3b d2 40 5e 3f 35 20 36 3f b0 80 5a 3f
       0.0044794763 0.8681766 0.71142894 0.8535261
000200 c1 3a 4f 3e 92 fc ea 3d f1 06 f2 3d 8c 26 96 3e
       0.20237257 0.11473955 0.1181773 0.29326284
000210 f3 db 69 be ae ab 5b 3f 13 36 07 bf 75 50 cb 3e
       -0.2283781 0.8580884 -0.52816886 0.3970982
000220 f9 be 31 3d a1 9c 91 bd 70 4b cf bf 81 df 55 3f
       0.043395016 -0.07109953 -1.6194897 0.83544165
000230 3d 8d 9c bf a3 38 be 3f 86 e8 81 3d fb 32 b2 3e
       -1.2230603 1.4861034 0.063431785 0.3480452
000240 c0 92 99 3e 86 3d ac bf f4 85 f2 be 54 ec 6f bf
       0.29994774 -1.3456275 -0.47367823 -0.93719983
000250 fe 59 01 3f 47 a8 16 3f 1e 3e f7 3e 8d f3 cd 3e
       0.5052794 0.5885052 0.4828958 0.40224877
000260 9a 30 4a be 53 42 18 3d 8c 69 38 3e 4d ee 30 3e
       -0.19745103 0.037172627 0.18009013 0.17278405
000270 be 4d e1 bd cd 36 32 be ca c2 ad 3d 97 b9 0c be
       -0.11001156 -0.17403717 0.08484419 -0.13742672
000280 1d c5 44 3e 66 03 27 3d 45 07 52 3e 84 95 0e 3e
       0.19215818 0.040774725 0.20510586 0.13924223
000290 1e ef 17 3e 7b 92 4c 3e 0e 02 08 3e 8a f2 07 bf
       0.1483731 0.19977753 0.13282034 -0.5310446
0002a0 d3 01 7c bd 3c 45 ff 3d 08 6f e3 3e 73 bb 22 be
       -0.061525177 0.12464377 0.44420648 -0.15891819
0002b0 bb a0 ad 3e be 24 00 3e 67 e9 12 3e 15 b7 ba 3e
       0.3391169 0.12514016 0.14346848 0.36467806
0002c0 3b 67 e2 3d f2 1e 8f bc 45 ae 5d 3d a5 9f 21 be
       0.11054846 -0.01747081 0.054121275 -0.15783556
0002d0 9f a1 8a bf 46 31 53 3e 2f 75 d7 3f 50 85 ef 3e
       -1.0830573 0.20624265 1.6832637 0.46781397
0002e0 3b 94 62 3f 9c df a1 3f 16 94 23 3f 47 46 74 bf
       0.8850743 1.2646365 0.63897836 -0.95419735
0002f0 78 c9 dd 3d 3f cf 1f bf b6 e7 8f bc 22 39 b8 3f
       0.10829443 -0.6242561 -0.017566543 1.4392436
000300 95 ac 4e bf f5 75 a8 be 15 3f 4f bf 5a e2 53 bf
       -0.8073209 -0.32902494 -0.8095563 -0.8276726
000310 e2 ed a6 3f 12 1d 21 be 9e 3f 68 bf 0a 58 07 bf
       1.3041346 -0.15733746 -0.9072207 -0.5286871
000320 f1 3d c0 be 05 ba 39 bd 7d 9d 6d 3f be 82 7f be
       -0.37547258 -0.045343418 0.92818433 -0.24952218
000330 2c a1 d6 be c9 a6 84 be a6 33 2e 3e ad ad 2a be
       -0.4191984 -0.25908497 0.1701189 -0.16667815
000340 51 ff 2c bf f7 e4 f9 be bc 96 d5 c0 38 45 f7 bd
       -0.6757708 -0.488075 -6.67465 -0.12073749
000350 fa e6 3d 3f 96 1f 61 bf e6 75 cf be 7c 81 25 c0
       0.7418057 -0.8793882 -0.40519637 -2.586028
000360 1e 53 20 3f 76 28 ec 3f 80 7a 4c bf 18 db be bf
       0.62626827 1.8449848 -0.7987442 -1.4910612
000370 ab 4b 99 3d 80 8a d6 be 26 76 ef be 4e c2 b3 3c
       0.07485136 -0.41902542 -0.46769828 0.021943238
000380 ba 09 9f 3e d6 19 6a 3f c5 ad ca 3f 2a dd 93 3f
       0.31062108 0.9144567 1.583428 1.1551869
000390 81 64 98 be 6a 1c e6 bc 65 fc aa 3d c5 1a 26 3e
       -0.29764178 -0.02808972 0.08348922 0.1622115
0003a0 e9 ec ab bf 1c f0 88 bf f9 9b 29 3f fc d3 19 bb
       -1.3431674 -1.0698276 0.6625362 -0.00234723
0003b0 65 02 4e bf e2 a3 30 3e 0a 77 8e 3e d9 d7 c9 c0
       -0.80472404 0.17250016 0.27825195 -6.3075986
0003c0 2d 99 79 3f 61 cc 88 3d 5d 68 31 3e 8b fe f9 bd
       0.9749935 0.06679607 0.17324968 -0.12206753
0003d0 fe 48 e3 be 95 37 23 3f 18 91 be bd e6 e6 18 bd
       -0.44391626 0.63756686 -0.09305018 -0.037329577
0003e0 95 c5 4f 3e 28 ed c9 be a1 0a 02 bf d7 a8 2f 3e
       0.20290215 -0.39438748 -0.5079747 0.17154251
0003f0 ea fb 9e 3e b7 07 1f bf f6 bb 59 be b1 bc c8 bd
       0.3105157 -0.62121147 -0.21263108 -0.09801615

layers_mu.5.bias f4 [50]
000000 51 31 0e bf a8 7b 94 3f c2 bd 6e be 97 f0 81 3e
       -0.55544 1.1600237 -0.23314574 0.25378868
000010 52 9d 57 be 53 10 53 bf 79 15 22 3e f6 64 7a 3f
       -0.21056107 -0.82446784 0.15828504 0.97810304
000020 c3 e4 26 3f 64 f6 65 bd 3f 01 cf 3e 39 a2 13 bf
       0.6519281 -0.05614318 0.40430638 -0.5766941
000030 7b a2 cc be 75 4a 3c 3f b4 8b 00 bf 57 35 9d be
       -0.39967713 0.7355111 -0.5021317 -0.30704758
000040 7a 4a fe 3e be c2 63 bf 69 3d 2f bf 0d f0 3d bf
       0.49666196 -0.8896903 -0.6845308 -0.74194413
000050 21 35 ad bd 7b c3 19 3f d1 98 9a be 91 f4 78 3f
       -0.08457399 0.60063905 -0.30194715 0.9724818
000060 be d2 52 be 41 2f 90 3e 7c 11 a3 bc a3 56 01 3f
       -0.20588204 0.28161052 -0.019905798 0.5052282
000070 55 d3 49 bf 1c 90 a4 be a8 7c eb 3e a5 8d 55 3f
       -0.7883809 -0.32141197 0.45993543 0.8341926
000080 ac 27 5f 3e c7 a0 f2 3c f9 10 cb bf 9c c9 06 bf
       0.21792477 0.02961768 -1.5864555 -0.5265138
000090 87 a0 ad 3f b8 19 16 3f 75 b8 8f be 85 fa 19 3f
       1.3564614 0.58632994 -0.28070417 0.6014789
0000a0 ff 2a 27 3f 11 0b 71 bc 8f cb 2d 3f 94 8d b5 3e
       0.6529998 -0.014712111 0.6788873 0.35459578
0000b0 5c bf 44 3f c8 85 e0 be 6b 71 79 3f 65 d8 d0 3e
       0.7685449 -0.43852067 0.9743869 0.40790096
0000c0 e9 23 0a be 56 60 0c bf
       -0.13490261 -0.54834497

layers_sigma.0.weight f4 [30, 50]
000000 09 f1 d3 bd 5e 3c 7d 3e 01 51 a4 be a7 85 c7 3d
       -0.10348708 0.2473006 -0.3209305 0.09742289
000010 e5 2f 3f be 6e 42 1c 3f 38 1f 1b 3e 34 e5 e4 bd
       -0.18670614 0.61038864 0.15148628 -0.111765295
000020 f0 dc c9 3d a6 8f 13 bf 9c 8f 9b be 76 c6 01 be
       0.098565936 -0.57641065 -0.30383003 -0.12673363
000030 47 40 4c bf 5f 44 d1 3e 5d 21 dc 3d 28 e6 35 be
       -0.7978558 0.40872476 0.10748551 -0.17763579
000040 d7 71 bf be 67 86 c0 3c 02 f0 c6 be ce 4d 74 bc
       -0.3739154 0.023501588 -0.38854986 -0.014911128
000050 41 f3 4e 3e cc ab 1d bd 4e 86 22 3d fb ae 7c 3e
       0.20209982 -0.038493916 0.039678864 0.24676125
000060 97 b2 1e bd ae 28 45 bd 6e 4c a1 3d 1e 39 f9 be
       -0.038744535 -0.0481345 0.07875906 -0.4867639
000070 20 d6 b8 bd b3 da 24 be e5 86 e1 bf 0e 8d f0 bd
       -0.09025216 -0.16099052 -1.7619292 -0.11745654
000080 9d 66 82 bd aa 68 51 3e 96 ff 14 be a2 03 a4 3f
       -0.06367228 0.20450082 -0.14550623 1.2813609
000090 7b 91 4c 3e 73 7c 12 3c 84 7a 18 3f e0 67 20 3f
       0.19977371 0.008940804 0.59561944 0.626585
0000a0 0c a5 13 be e5 64 dd bd 69 a8 90 bf 76 e4 e3 be
       -0.14418429 -0.1081026 -1.1301395 -0.4451024
0000b0 62 5d 94 3b b1 74 04 3e 67 99 41 be 3b 96 02 be
       0.0045277337 0.12935139 -0.18906175 -0.12752621
0000c0 4e 9a a9 3f 9f f0 8f bd c4 b4 26 3d ae 1b 4e be
       1.3250215 -0.07028317 0.040699735 -0.20127746
0000d0 25 fb b4 be e5 a1 05 3e de 7b 47 bc f5 4f 06 40
       -0.35347858 0.13050039 -0.012175528 2.0986302
0000e0 d2 7a 4a 3d 77 23 38 3e 4c f5 0c be aa bb 15 bf
       0.049433537 0.17982279 -0.13765448 -0.5848948
0000f0 08 c8 69 be 53 0b 20 bd b7 4f 41 bd 44 fd a4 be
       -0.22830212 -0.0390733 -0.047195163 -0.32224476
000100 9b 07 6e 3e 54 04 29 bc 00 6b dd 3c 51 28 61 3e
       0.23245089 -0.010315973 0.02702856 0.21988036
000110 00 6c ca 3d 01 a9 cf 3d 73 82 27 bd 0c 71 cf bd
       0.098838806 0.10139657 -0.04089589 -0.10128984
000120 69 69 24 bd 5c 25 55 3e d5 36 16 3e d2 ac 87 be
       -0.04013959 0.20815033 0.14669354 -0.2649904
000130 a2 51 61 be db 7a 43 3c ce cb 01 3e f7 98 1e be
       -0.22003797 0.0119311465 0.12675402 -0.15488039
000140 91 23 8e 3e 69 76 16 3e 01 12 8d bd 62 42 4c 3d
       0.2776151 0.14693607 -0.068881996 0.049867995
000150 e5 45 05 be af db f7 3e 7c 6b 8c bd df 66 97 3d
       -0.13014944 0.48409793 -0.068564385 0.07392668
000160 ce b5 fa be 42 fe 4a bd 12 04 8b bf 4d 1c 93 be
       -0.4896683 -0.049558885 -1.0860617 -0.2873253
000170 44 41 e0 3d c6 c9 11 3e 46 b7 00 3d b5 8a 34 be
       0.109499484 0.14237127 0.031424783 -0.17631038
000180 fd be 47 3e a1 4d 61 3e ae 2c e9 3e 50 0a cb 3d
       0.1950645 0.2200227 0.455419 0.09914076
000190 57 99 89 bd 2a 06 94 3d b2 c3 bb bd 61 88 b9 3d
       -0.067187004 0.07227738 -0.09168185 0.09059215
0001a0 4e 18 5a 3d fd 00 6f be 10 ce b9 be 76 4e 3d 3d
       0.053245835 -0.23340221 -0.36290026 0.046217404
0001b0 7a b3 67 3d 6d 46 5c 3e f7 71 0a 3e 7e ea 26 3e
       0.056567647 0.2151124 0.13520037 0.16300389
0001c0 e0 19 00 bf 1c 7e 85 3f ef 06 0a be d8 16 85 ba
       -0.5003948 1.042911 -0.13479207 -0.0010153903
0001d0 42 fc 59 3e 03 89 74 bf 12 86 fe bd ca 48 17 3d
       0.21287635 -0.95521563 -0.12427916 0.03693465
0001e0 b3 42 c9 bc a3 83 15 3d c6 6a 8c bc 69 6e b7 bd
       -0.024567937 0.03650249 -0.017140757 -0.08956606
0001f0 2a 6f 56 3d a2 01 38 bd bf 27 e0 3c ac d6 8f bd
       0.052352108 -0.044923432 0.027362702 -0.07023367
000200 f1 10 b6 bd 28 e0 e1 bc 61 d3 2c 3e 47 b5 e3 3d
       -0.0888995 -0.027572706 0.1687751 0.1111856
000210 b3 c8 56 3e 42 8f cf bd 34 86 01 3e 46 0e 4c 3f
       0.20974998 -0.10134746 0.1264885 0.7970928
000220 05 c8 fb 3b 32 2b 02 3c 50 77 cd be 5b cf 5b bf
       0.0076837563 0.007944869 -0.4013009 -0.85863274
000230 33 11 c4 be 4b 78 4c 3e 99 d9 b9 be 51 49 fb be
       -0.38294372 0.19967763 -0.36298826 -0.49079373
000240 55 74 ed bd c0 d3 c4 bd ed 55 11 be fa 98 ea bc
       -0.11594454 -0.096107006 -0.14192934 -0.028637398
000250 30 4f da bf e1 a4 9a bd c3 db d7 3d 1e 96 67 3c
       -1.7055416 -0.075509794 0.10539963 0.014134912
000260 ba ff 04 be 74 00 36 bd 30 93 22 3e 13 e4 3c 3e
       -0.12988177 -0.044434026 0.1587646 0.18446378
000270 f8 65 71 3e 82 42 19 bd f7 8b 96 3d bb 50 d6 3d
       0.23574054 -0.037416942 0.07350915 0.10464617
000280 26 ef 18 be 4f 1b f3 3d ad 17 98 3e 07 a7 11 3e
       -0.14934978 0.11870443 0.29705563 0.14223872
000290 e5 a4 99 3d de 6a 8e 3d 2e d7 be bc 31 6e 3d bf
       0.07502154 0.06953977 -0.023295965 -0.73996264
0002a0 b3 38 bd bd 84 97 a1 3d 01 49 f4 3c b5 7d 20 3e
       -0.0923933 0.078902274 0.029819967 0.15672953
0002b0 3b f9 59 3e 32 f9 84 3d 74 f6 61 3a 98 f5 3b 3e
       0.2128648 0.06492843 0.0008619793 0.18355405
0002c0 d8 53 01 3d 75 26 00 c0 30 17 07 3c 09 6f a3 bd
       0.0315741 -2.0023472 0.008245274 -0.07980163
0002d0 e1 11 07 3f 13 1f 6c bd 02 78 0c be 1f b6 cd 3d
       0.52761656 -0.057646822 -0.13717654 0.100445025
0002e0 71 07 95 3d b1 f9 a3 bf b6 30 24 3d 95 b1 a6 3b
       0.0727681 -1.2810575 0.040085517 0.0050870874
0002f0 7a 40 5c bd be 14 10 3d f0 67 8d bc ca 51 50 3e
       -0.053772427 0.03517603 -0.017261475 0.203437
000300 40 d6 cc be 95 e9 4f 3d c0 3f 52 3e c5 80 4d 3e
       -0.4000721 0.05075987 0.20532131 0.20068653
000310 93 28 7e 3e 85 a7 83 be 3b 3d 16 3e 3c 2b e1 3c
       0.24820165 -0.25713745 0.14671795 0.027486436
000320 92 f5 8d 3d d6 8f 3f bc a3 3a 62 3f f5 0d 27 bd
       0.069316044 -0.011692008 0.8837072 -0.040784795
000330 dd 5b 8d be 39 45 c4 be c2 f5 ab 3d 56 a3 72 be
       -0.2760915 -0.38334063 0.08396484 -0.2369512
000340 b4 e1 10 3d eb 28 11 3e 41 84 db 3c 3b f4 56 be
       0.035371497 0.14175765 0.026796462 -0.20991604
000350 06 93 20 be a1 1b 8a 3e 5f 4a 22 be 1e 14 0b be
       -0.15681085 0.26974204 -0.15848683 -0.13581893
000360 78 70 8b bd 82 7d 59 3f 95 d8 c4 be f5 a1 bf 3d
       -0.06808561 0.84957135 -0.3844649 0.09357063
000370 84 54 ab bc b7 a6 6d 3e 52 b9 f4 3d a7 dd 8e bd
       -0.020914324 0.23208128 0.119494095 -0.069758706
000380 f7 a7 b3 3d a6 4a 0f bd 93 a8 80 bd 97 ec c5 be
       0.08772271 -0.0349833 -0.06282153 -0.38657066
000390 6e 8e ce 3b db 9d 8f be 82 99 d9 3e 2f e0 2a 3e
       0.0063036 -0.28050122 0.4249993 0.16687082
0003a0 52 16 52 3d 97 dc 74 be 02 79 a3 bd 1d 01 ac 3f
       0.051290818 -0.23912273 -0.07982065 1.343784
0003b0 65 20 57 3e 7a a1 98 3d ff 10 76 be 56 9b e9 3e
       0.21008451 0.07452674 -0.24029921 0.45626324
0003c0 46 0c 4a 3f 2c 27 8d be 6b 8d 8c 3e 34 0a 29 bf
       0.7892498 -0.27568948 0.27451643 -0.66031194
0003d0 5c 7e 23 3d 75 7d 42 3d ba 61 a4 be 92 38 17 bd
       0.039915428 0.047482926 -0.3210581 -0.036919184
0003e0 d6 af 5f 3d 4e 75 32 3b 33 41 1f be 4e 52 18 bd
       0.05461105 0.0027230564 -0.15552215 -0.037187867
0003f0 bc e3 3a 3d 9f f7 87 3d 74 35 40 bd 23 a4 31 bd
       0.04562734 0.06639027 -0.046925977 -0.043369424

layers_sigma.0.bias f4 [30]
000000 fa a9 9e bd bc 20 57 3d c9 00 9f 3c 6e 91 e6 3c
       -0.07747264 0.052521452 0.019409554 0.028145518
000010 b4 c2 26 bc 78 b5 95 3c a0 11 99 bc 5c d0 e2 3b
       -0.010178257 0.018275008 -0.018685162 0.006921811
000020 a3 15 46 bc 29 e6 be 3c d9 16 ec bc 91 aa c8 3c
       -0.0120901195 0.023303108 -0.028819488 0.024495395
000030 07 3c 5c 3d 3e c4 03 bd da 8a 3d bb 03 f7 08 bc
       0.053768184 -0.032169573 -0.0028921873 -0.008359673
000040 e7 79 12 bd 84 c1 c6 3c 7f 04 a6 3b 07 1a 95 3d
       -0.035760786 0.024262197 0.005066454 0.07280355
000050 ce 84 52 3e 16 24 29 3d fe 7d 19 3e 85 c7 00 3f
       0.20558473 0.04129418 0.14989468 0.5030444
000060 ab e4 44 bc f8 10 19 bb 62 cd df bc 6a 95 72 3d
       -0.012017409 -0.0023356061 -0.027319614 0.059224524
000070 62 af be bc 9f ba 5a 3c
       -0.023276988 0.013350158

layers_sigma.1.weight f4 [30, 30]
000000 97 0a 48 bf 22 8a 63 3e aa 53 42 3e 6e 08 7f 3e
       -0.7814116 0.22220662 0.18977228 0.2490556
000010 8a b4 7b 3e 2d ae 03 3d af 8a 09 bf 2d b5 5a 3e
       0.24580589 0.03214853 -0.5372724 0.21358176
000020 4d 44 e1 bd 5a 68 48 3e 3c b8 49 bd a2 d1 9f bd
       -0.109993555 0.19571057 -0.049247965 -0.07803656
000030 a6 dc a6 3d 82 9b ec bd 29 2f bc bc 8d a3 a4 3e
       0.08147554 -0.11553098 -0.022971706 0.3215603
000040 49 7d 25 bd ce dc 95 3d db a1 0b 3e 9f 81 0c 3f
       -0.040402684 0.07317506 0.13635962 0.54885286
000050 e2 0a ec 3e 8a 76 31 3e f6 2f 15 3f 8e a9 0e 3f
       0.46102053 0.17330375 0.5827631 0.5572747
000060 9b 22 32 3d fd b7 0d 3f 3d 22 b5 be 92 13 17 3e
       0.043490034 0.5535887 -0.35377684 0.14753559
000070 aa 4f 96 3e 38 96 17 be 6d 77 04 3f f8 f4 29 3d
       0.29357654 -0.14803398 0.5174473 0.041493386
000080 a9 c2 6f 3e fe eb b2 3e f4 34 1d be d2 22 83 3c
       0.234141 0.34945673 -0.15352231 0.016007815
000090 01 de fe bd b8 3d e5 bb 36 a0 f8 3c dc 36 04 3a
       -0.12444688 -0.006995883 0.030349832 0.0005043575
0000a0 3c 70 6c be 0a 58 2d 3c 73 58 dd bd a7 dd c6 bc
       -0.23089689 0.010580072 -0.10807886 -0.024275614
0000b0 54 81 45 be ac b0 db 3d 36 6c 21 be 9b a8 21 bf
       -0.19287616 0.10727057 -0.15763935 -0.63147897
0000c0 81 29 f0 bc 83 3b 02 3f d8 28 3e 3e b4 25 d9 bd
       -0.029316666 0.5087206 0.18570268 -0.106028944
0000d0 7a 28 09 3f 4c cb 5f 3e 26 ce 63 3e 98 82 8c be
       0.5357739 0.21854895 0.22246608 -0.27443385
0000e0 b6 60 84 be d4 dd cd be 04 fb 56 be 6b a8 56 bf
       -0.25855035 -0.40208304 -0.20994192 -0.83850735
0000f0 2a f8 21 be 7c cf 42 3d d5 e1 09 bf 74 9d 00 bf
       -0.15817323 0.047561154 -0.5386022 -0.50240254
000100 10 86 07 3f e2 53 3f bd 51 b1 b6 be 38 b4 a5 bc
       0.5293894 -0.046710856 -0.35682157 -0.020227537
000110 38 bf 9d 39 e3 8b 02 3d 72 d9 d5 3e 83 e1 b9 bd
       0.00030087843 0.031871688 0.4176746 -0.09076216
000120 81 db 62 3e 56 1d 30 3d c4 00 40 3e 44 be 2f be
       0.22154047 0.042996727 0.18750292 -0.17162424
000130 a9 b7 8f 3e aa d2 b1 3d cb 45 aa bc 48 1d 87 3d
       0.2806981 0.08682759 -0.020785233 0.06597382
000140 03 14 03 3f 80 db cd be 19 d8 82 be c3 14 31 3f
       0.5120241 -0.40206528 -0.25555494 0.69172305
000150 46 cf 29 3e ff 14 a3 3e b4 74 18 3e 6f b2 96 3e
       0.16582975 0.31851956 0.14888269 0.2943301
000160 f7 40 b6 bb 21 d2 77 bf be 8c 07 3e b0 db 88 3c
       -0.0055619436 -0.96805006 0.13237283 0.016706318
000170 cf 47 10 3e 86 13 89 3f 2d 6e a6 3d 8f c1 85 bd
       0.14089893 1.0709083 0.08126483 -0.06531059
000180 f6 ab b1 bd 53 24 8e 3c 91 ce 4e bd 3a 85 c1 3c
       -0.08675377 0.017351305 -0.050489966 0.023623098
000190 a6 e2 f3 3c 84 df 03 3d 2e 36 a7 3e 30 3b a1 bd
       0.02977116 0.032195583 0.32658523 -0.07872617
0001a0 4e fc 4d 3f 05 0b 5f be cc 41 20 3d 08 fe 08 3d
       0.8046311 -0.21781547 0.03912525 0.033445388
0001b0 d7 53 37 3c b4 92 a2 3d 69 d2 c7 3e 93 24 11 3e
       0.011189423 0.07938138 0.39027718 0.14174108
0001c0 c2 fe f2 bd 02 35 44 3f 58 7b 1c 3f 7d 58 80 3e
       -0.118649974 0.76643384 0.6112571 0.2506751
0001d0 7f 71 ea bd aa 8e 03 be 76 11 a9 bd cc e9 94 3d
       -0.11447429 -0.12847391 -0.082552835 0.07271156
0001e0 22 43 dc 3d 22 0f 28 3f f1 eb 9f 3e 94 4e 8c 3d
       0.10754992 0.6564809 0.31234697 0.06850925
0001f0 bd 2b 08 bf 59 47 42 bc 56 dd 89 be 65 27 5d 3c
       -0.5319174 -0.011857831 -0.26926678 0.013498162
000200 b6 d8 6f 3c dd b5 ec bb af 71 cf be dc 79 38 bc
       0.01463907 -0.007223828 -0.4051642 -0.011259522
000210 06 ce 2f 3e 9d 6c 86 3b 9f 93 90 be bd 43 8f be
       0.17168435 0.004102303 -0.28237626 -0.27981368
000220 81 01 84 3f ed 50 c9 3e 3b 9a 17 3d 50 bc 89 3e
       1.0312959 0.39319554 0.03701232 0.26901484
000230 e2 9a 9a bd 72 27 e0 be 21 c0 10 bf 4f 5d aa bd
       -0.07549073 -0.43780094 -0.56543165 -0.083185785
000240 18 a0 86 bd 5e f7 56 3d fb af 8c 3a eb aa 80 be
       -0.06573504 0.052482 0.0010733599 -0.251304
000250 96 ae 18 3e 52 74 1d bc 99 91 f5 3e 4f 68 85 3e
       0.14910349 -0.009610252 0.47962645 0.26056144
000260 6a 6c f0 3e 24 96 19 bf b2 8f 26 3f 06 65 e0 bc
       0.46957713 -0.5999472 0.6506301 -0.027391922
000270 31 86 eb be ae d0 6e bc 68 aa b6 3b 58 6a e2 bc
       -0.46000817 -0.01457612 0.005574513 -0.0276386
000280 9d e8 9e 3e f0 51 15 3b bf 2c 14 3f 7c c2 9d bc
       0.31036845 0.0022784434 0.5788078 -0.019257776
000290 b3 a3 a7 3d 79 c6 89 bd 12 b5 49 be c6 fa 8d be
       0.0818552 -0.06727309 -0.19697979 -0.27730387
0002a0 84 76 31 3c c5 17 0f 3f 07 b7 0c 3f 0b 6c 1d be
       0.010831479 0.55895644 0.5496678 -0.15373246
0002b0 37 3f 80 3e 7d cb 5a 3f 8f 9b 2b 3d e0 f0 a8 3d
       0.2504823 0.8546675 0.0418964 0.08249068
0002c0 4b 8a f4 bc da 7b c1 3c ca c3 1d be 42 ea 2e 3f
       -0.0298511 0.023618627 -0.15406719 0.683262
0002d0 0e ac 0e 3b 34 89 20 3f 2b f7 9a 3e e6 19 99 3d
       0.0021770033 0.62709355 0.302667 0.07475643
0002e0 b8 20 ca be 9d 0f 2b bd ab 6a 60 be 51 52 2d 3d
       -0.39478087 -0.041762937 -0.2191569 0.04231483
0002f0 47 05 04 bd 80 39 ae 3c a3 03 9a be 7c f7 74 bc
       -0.032231595 0.021267653 -0.300809 -0.014951583
000300 ff c2 c7 3d cb 3d 02 bd 13 48 80 be 7c 7d 80 be
       0.097539894 -0.03179721 -0.25054988 -0.25095737
000310 03 f2 70 3f 9c 8c be 3e 5a c6 f4 3c 37 f6 86 3e
       0.9411928 0.3721665 0.029879738 0.26359722
000320 04 cc 37 3e ce 38 cf be 6a b8 95 be 45 d4 e3 3e
       0.1794892 -0.40473026 -0.2924226 0.44497886
000330 08 83 62 bd b6 1e f6 3c dc 2c 3c 3c 2b b9 78 be
       -0.055300742 0.030043941 0.011485305 -0.24289386
000340 dc b9 c5 3d e6 78 01 bb 9e cc ee be 01 89 98 3c
       0.096545905 -0.00197559 -0.46640486 0.018620016
000350 1f 8a be be c7 4e 3c 3d 9b 8d 48 3b e7 d1 83 bd
       -0.37214753 0.045973565 0.0030601982 -0.0643652
000360 07 79 bf bd 12 fc a5 bd c7 96 e7 3c d0 d7 c5 bd
       -0.09349256 -0.08104719 0.028270138 -0.096603036
000370 ae 0b 32 3c bc 7d 98 bd 7d f0 a9 3e bd 32 96 3d
       0.0108670425 -0.07445857 0.3319129 0.07333896
000380 f9 25 33 3e 79 bc 4e 3f be 1f a7 bc 62 a2 0f bf
       0.17494954 0.80756336 -0.020400878 -0.5610715
000390 46 01 38 bd 33 97 2d be da 2b d8 3e a4 40 87 bf
       -0.04492309 -0.16952209 0.42220956 -1.0566602
0003a0 ef 33 c6 3d 4e 5b 19 3f 9f b0 bc 3d d8 83 3e bc
       0.09677874 0.59904945 0.09213375 -0.011628114
0003b0 a0 83 26 3d 2c e7 b1 be 7f 21 6b 3d e4 19 85 3e
       0.04065287 -0.34746683 0.05740499 0.25996315
0003c0 ce 69 3a bf e4 52 3a 3b 3a 5e 6f 3f b8 b2 f5 bc
       -0.72817695 0.0028430754 0.93503153 -0.029992446
0003d0 7e ab e2 bc ba 35 13 be 79 8f a1 bb d8 54 fd 3c
       -0.027669664 -0.14375964 -0.0049304334 0.030924246
0003e0 5a 65 0b bd 40 ec 1d bc a5 47 b2 3e 5d 60 b4 3d
       -0.034032203 -0.009638846 0.34820285 0.08807442
0003f0 f3 be c9 be b2 c8 61 bd c1 52 57 3d 7e 22 c4 bd
       -0.39403495 -0.05512304 0.052569155 -0.09576891

layers_sigma.1.bias f4 [30]
000000 f4 b9 0a 40 73 c1 88 3f eb b4 97 3f e0 0d 65 3f
       2.1675997 1.0684036 1.1852087 0.89474297
000010 e7 bb cf bf 61 9e 6d 3f b5 21 86 3f ad 81 7f 3f
       -1.6229218 0.9281979 1.0479037 0.99807245
000020 a9 58 87 3f c8 4c 53 3f 9c 12 8c 3f 24 55 e5 3f
       1.0573932 0.82539034 1.0943179 1.7916608
000030 4e 9c 93 3f c7 e9 8d 3f 49 22 2c 3f 6d 9f 70 3f
       1.1532075 1.1086968 0.67239815 0.93993264
000040 d4 f6 c8 bf 3e 74 c3 bf f8 71 c1 bf 19 ab 8b bf
       -1.5700326 -1.5269849 -1.5112906 -1.091159
000050 79 a9 91 3f 5e 57 79 3f c2 3e 84 3f c7 d8 9d bf
       1.1379844 0.97398937 1.0331652 -1.233178
000060 43 c0 aa 3f d3 03 b4 bf 3a fd 80 3f 43 b5 a7 3f
       1.3339924 -1.4063667 1.0077279 1.3102192
000070 d0 24 a5 3f 7f 42 94 3f
       1.2901859 1.1582793
