feed_forward/saved_models/nhid25_lr0.01_nlayers2_seed5.pt (torch, 58653 bytes, 24 tensors)

layers_mu.0.weight f4 [25, 50]
000000 6e b2 db 3e c0 9b 0c 3b 21 03 63 3d 18 fa 5a 3e
       0.4290957 0.002145514 0.055422906 0.21384466
000010 46 e3 7c bc c6 9a f1 be f4 b3 d1 be cf 9d 48 bc
       -0.015435046 -0.47188395 -0.40957606 -0.012244656
000020 5d 4d 20 3e 30 49 da b9 0f 93 a3 ba b1 2a 9f be
       0.15654512 -0.0004163473 -0.001247974 -0.31087258
000030 a6 34 8e 3b 10 aa a0 3c 12 68 ca bb 83 ca 88 3c
       0.0043397723 0.019612342 -0.006176957 0.016698128
000040 4c 5b 34 3c a8 74 1d bc 60 b7 b9 3e f4 fb 3b bb
       0.011008095 -0.009610333 0.36272717 -0.0028684111
000050 82 be 9b bb 7c 59 87 3a e1 c9 a1 3c f8 db 08 bb
       -0.004752935 0.0010326351 0.019749584 -0.0020883065
000060 70 8c 4d 3e 7c e1 20 be a3 87 3e 3c 7a dd 93 3e
       0.20073104 -0.15711015 0.011629018 0.2887991
000070 07 fd d9 bb 9a 00 bd ba a9 14 1a 3c 03 a8 59 bc
       -0.0066524777 -0.0014419735 0.00940434 -0.013284686
000080 ef 44 53 3e 50 52 22 bc 5c 28 1d bc 22 e1 97 3e
       0.20631765 -0.00990732 -0.009592142 0.2966395
000090 3c 71 fb 3b 3e 55 ff bd c6 be aa 3c 31 22 95 3e
       0.0076734107 -0.124674305 0.020842921 0.29127648
0000a0 d4 0c a4 3e bb a5 2f bc f8 97 73 ba 17 a8 06 bf
       0.32041037 -0.010720666 -0.00092923595 -0.52600235
0000b0 7d 4f 2d bf 00 37 39 38 2e 36 82 be 58 3c eb bd
       -0.67699414 4.415866e-05 -0.2543196 -0.11486119
0000c0 0a d0 af 3e 5b 29 d5 3e 81 eb e9 bd 0b 7f 80 bd
       0.3433841 0.41633114 -0.11421872 -0.062742315
0000d0 02 42 e3 be 97 b8 d3 be 55 f5 9a bb 9a f9 91 be
       -0.44386297 -0.41351768 -0.004728953 -0.28510743
0000e0 24 3f 5e bd 41 15 2c 3c fd ca a1 3e 9c 5f 8f bc
       -0.054259434 0.010503114 0.3160018 -0.017501645
0000f0 02 d1 1d 3c 94 e9 91 3d 52 09 bd bb e6 5c 45 ba
       0.009632351 0.071246296 -0.0057689333 -0.00075287966
000100 b3 e9 d1 3b c8 e4 ef 3c af 22 b7 be 6c 6f 02 3d
       0.006406033 0.029283896 -0.3576865 0.03184454
000110 36 f1 9d be a2 91 01 3f 30 56 3c bb cc 57 a4 3c
       -0.30848092 0.50612843 -0.0028737895 0.020061396
000120 ff e2 9f bb 7c 82 b0 bc 06 49 8d bd a8 e7 b3 bc
       -0.004879355 -0.021546595 -0.06898694 -0.021961048
000130 00 45 a9 3b 35 44 0b be c4 11 25 3c 46 35 0a 3b
       0.005165696 -0.13600238 0.010075036 0.0021088882
000140 eb 1c 5f bc 45 8a ab bc 56 94 06 bf df 0c 2b bc
       -0.013617734 -0.020939955 -0.5257009 -0.01044008
000150 e5 a2 a5 3b 9c f1 71 be 5c 94 74 bc 02 cd 89 3e
       0.005054819 -0.23627323 -0.01492795 0.2691422
000160 05 2e 03 bf e3 6c 1e bd 63 80 a0 3e 5d 88 b2 3c
       -0.51242095 -0.03867806 0.3134795 0.021793539
000170 c0 8c 11 3a 61 b5 97 be 0c d8 ae be fe e8 50 bc
       0.00055522844 -0.2963057 -0.34149206 -0.012750862
000180 7a 0f cf 3e 0b 9a 1d be 29 ff 15 be a7 b0 d2 bd
       0.40441495 -0.15390794 -0.14648117 -0.102876
000190 1c 38 46 3d a7 57 5a be 5a 6f 86 bb 82 2c fe bb
       0.048393354 -0.21322499 -0.0041026296 -0.0077567706
0001a0 c7 1f 66 3c 7d 2c cb 3e 79 d8 35 bd c7 a9 d6 bb
       0.014045662 0.3968238 -0.044395898 -0.0065510008
0001b0 c1 9d 56 3e 13 47 92 3b 92 6d be ba a7 47 91 be
       0.20958616 0.004464039 -0.0014528504 -0.2837498
0001c0 39 f1 36 3c 40 df 1e bc b8 75 d1 bc 08 c2 90 bb
       0.01116591 -0.009696782 -0.025568828 -0.0044176616
0001d0 10 8d e5 3e 32 45 77 3c 66 48 f4 3d b9 8e a7 3d
       0.44834185 0.015092181 0.119278714 0.08181519
0001e0 9e 12 81 b9 b5 d2 ad 3b e0 3c f1 3b 06 3e 24 3c
       -0.00024618668 0.0053046593 0.007361993 0.010024553
0001f0 e7 c1 f9 be 3c f2 11 3f 04 89 30 3c dd 34 86 3e
       -0.48780748 0.57010245 0.010774855 0.26212206
000200 d5 50 87 3c 70 7e dd 3c 69 dd e3 3b 57 e5 0f 3c
       0.016518036 0.02703783 0.0069538844 0.008782706
000210 7f 2c 8d be 58 08 51 bb ba e1 0b bc de 49 99 3c
       -0.2757301 -0.0031895842 -0.008537704 0.01871198
000220 65 97 9e 3c 8e f8 3e bd 00 5c 70 3e e3 74 48 3d
       0.0193593 -0.04662376 0.23472595 0.048939597
000230 b4 7c 05 bf 24 50 39 bc 56 a1 8e bc 88 24 e1 be
       -0.52143407 -0.011310611 -0.017410915 -0.43973184
000240 23 d4 8b be 8c 78 9e bb 8c 70 b1 3e 76 d2 ee be
       -0.27310285 -0.0048361477 0.3465618 -0.46644944
000250 0c 97 a4 be fd 3b 84 3d 1d 8e 01 3c 0e fe ea be
       -0.3214649 0.06456754 0.007907418 -0.45896953
000260 d1 08 21 be 07 ae 26 3f a3 80 6e 3c 94 bf 1a 3e
       -0.1572602 0.65109295 0.014557037 0.15112144
000270 d6 e6 89 be 42 c3 06 3d d9 08 83 3d ae 4a 23 bc
       -0.26933926 0.032901056 0.06398172 -0.0099665355
000280 89 ee 90 3c 5d b9 6a 3e b4 ac 3f 3c e6 c3 60 3b
       0.017691867 0.22922273 0.0116988905 0.0034296452
000290 8c b6 89 bb e2 37 07 bc 1f 10 ac 3e ba 7e 12 bd
       -0.0042026695 -0.00825307 0.3360605 -0.035765387
0002a0 d3 be 0c bf 98 74 de bd d0 4c 87 3b 22 0e 5d 3b
       -0.54978675 -0.10862082 0.00412903 0.0033730348
0002b0 ef 18 a9 3b 88 78 ea 3c 03 ca 47 3f 42 f1 e5 bc
       0.005160443 0.028621927 0.7804262 -0.028069142
0002c0 10 91 6d ba 64 1f 89 be 6e fe ce 3c f5 f2 a6 3c
       -0.00090624485 -0.26781762 0.025267806 0.020379523
0002d0 ac 88 f1 3b 69 ee 8f bc ce 1f 49 be 6e 7c 32 3c
       0.007371029 -0.017569738 -0.19641039 0.010893924
0002e0 fa 9b a9 3b 8c 4a 1b be d3 0f 06 3d 6e 5a 36 be
       0.0051760646 -0.15165156 0.032729935 -0.17807934
0002f0 80 a9 0a be c8 e0 ac 3e 9f 8e bd bd 00 69 06 b9
       -0.13541222 0.33765244 -0.092557184 -0.00012818351
000300 49 b6 9a 3b 39 14 fb bd bc fb 48 3e b2 7f 17 bc
       0.004721437 -0.122597165 0.19627279 -0.0092467535
000310 2c 96 30 3e 2c 95 eb be ad 14 9e be 82 b8 b4 3d
       0.17244786 -0.46012247 -0.3087515 0.088242546
000320 db 0b 0b 3e 02 6a 92 3e a5 e1 50 3e 22 a0 a2 3d
       0.13578741 0.28596503 0.20398577 0.07940699
000330 23 91 4a 3c 69 c3 24 bf a4 9d 80 3d a8 3b c0 bc
       0.012363705 -0.6436067 0.062800676 -0.023465946
000340 92 c8 46 be 65 bb 0c 3c 33 c9 96 3b dc 2f 6a be
       -0.19412449 0.0085896 0.0046016215 -0.2286982
000350 16 a6 63 3c dd c3 6f bc e5 26 86 3c a2 aa 14 bc
       0.013894578 -0.0146341 0.016375968 -0.009073885
000360 37 ea 04 3e 0a c5 a8 3b 0d 85 36 bf 74 9c 43 bb
       0.12979971 0.005150442 -0.7129677 -0.0029847892
000370 55 c9 c3 3c d2 e2 b7 3b 8a b4 9f bc c5 14 b5 bb
       0.023899714 0.005611756 -0.019495267 -0.0055261576
000380 16 4e 0e bf 31 35 8f 3e 50 1a 0d bc 97 07 89 be
       -0.555879 0.2797027 -0.00861223 -0.26763603
000390 a3 09 a2 bc 9d 85 9d bc d0 79 6e bc 1b b0 3b 3c
       -0.019779986 -0.01922875 -0.01455541 0.011455561
0003a0 b3 cf 88 be 9e ae b5 ba 76 d7 6f bc fc 0c 05 3f
       -0.26720962 -0.0013861244 -0.014638772 0.5197294
0003b0 6b 10 27 3c 70 2c 25 bf a8 7f af be cb 4b 9b 3d
       0.010196785 -0.6452093 -0.3427708 0.07582816
0003c0 ab d3 73 bd 5f 4c 03 bc 4e 44 51 3b 1e 55 77 3d
       -0.059528034 -0.008013814 0.0031931582 0.06038391
0003d0 d7 47 00 3f 7d 9c 28 bc 4d 1c 35 3d 12 d7 33 bd
       0.5010962 -0.010291216 0.044216443 -0.04390628
0003e0 60 51 bb 3d 89 4b 7a 3b 98 c4 1b 3d f1 22 09 3e
       0.091463804 0.0038191995 0.038029283 0.13392235
0003f0 32 d2 3a 3c e5 2a 8d be a6 85 19 bb 60 5d 7c 3d
       0.0114026535 -0.27571788 -0.0023425608 0.061612487

layers_mu.0.bias f4 [25]
000000 91 da e5 3b 00 0c b0 bc 44 ce 14 3c 48 c5 a1 3b
       0.0070145805 -0.021490097 0.009082381 0.004936848
000010 8d a2 6b bc 9c fe a2 bb 20 cf 75 bc 8c 44 6b bb
       -0.014382017 -0.0049741995 -0.015002996 -0.0035899011
000020 bf 59 e8 bc 9f f2 20 3d f6 c1 1a bc 31 95 2e 3c
       -0.028363107 0.03929388 -0.009445658 0.010655687
000030 3d 09 ab 3c 47 d2 77 3c f2 c3 32 bc ea ea 1c 3d
       0.020878429 0.015125818 -0.010910975 0.03830997
000040 cd ee f4 3b 9a 56 89 bc d9 d3 b3 3b 40 41 6d ba
       0.0074747563 -0.016764928 0.0054879007 -0.00090505555
000050 b8 d8 43 3c 16 17 60 bc 3e 3d 86 3b bc 68 e6 3b
       0.011953525 -0.013677379 0.004096656 0.0070315283
000060 c6 cd 6d 3b
       0.003628598

layers_mu.1.weight f4 [25, 25]
000000 eb 96 19 3e dd 44 54 3e 7e 83 a3 bc 5b 62 95 bd
       0.14998977 0.20729394 -0.019960161 -0.072941504
000010 04 f3 7c 3e 31 39 9f bd d4 8d 22 be ea 22 47 3d
       0.24702078 -0.0777458 -0.15874416 0.04861728
000020 4c 8d 27 bd 33 f0 ae bd 91 95 7d bd 13 3f 3a be
       -0.040906236 -0.08541908 -0.061910216 -0.18188123
000030 a9 10 c9 3d 45 ba 08 be 6d 3f d4 bd ea aa d9 3d
       0.09817631 -0.13352306 -0.1036366 0.106283024
000040 63 2c ce be 41 11 0d be 36 b8 6a bd 13 7b ad bd
       -0.4026824 -0.13776113 -0.057304583 -0.0847074
000050 f0 6b dc bb 10 33 77 3b b7 2d d8 3d 94 67 e1 3c
       -0.0067267343 0.0037719645 0.105555944 0.02751521
000060 1e 48 3e 3e 16 a1 25 3e 82 be b3 3d 84 dd c3 3d
       0.18582198 0.1617473 0.08776571 0.09563735
000070 76 61 b9 3e d5 1e 8b 3c ca e6 80 bd d1 6d 5f 3e
       0.3620717 0.016982475 -0.062940195 0.21819235
000080 b6 a1 ab bd 0d 88 a8 bd e4 a8 6b be 51 09 36 3e
       -0.08380453 -0.082290746 -0.23013645 0.17776991
000090 8d 6d 21 be 4c 41 53 3e fe 85 d3 bd 03 a3 2f 3d
       -0.15764447 0.20630378 -0.10328291 0.04288007
0000a0 8b 97 81 bd 27 75 9c 3d 20 9e 93 3c 4b fe 58 3d
       -0.06327733 0.076395325 0.018019736 0.052976888
0000b0 26 0e 31 3b c5 f1 44 be 52 2a 90 be f8 d8 53 be
       0.002701649 -0.19232853 -0.28157288 -0.20688236
0000c0 0a b2 a8 bd 3d f9 50 bd 02 57 61 be 97 cc 38 3e
       -0.08237083 -0.051018942 -0.22005847 0.18046795
0000d0 4c 7f 73 be 6a 61 85 3d 91 16 1c bd a9 e8 88 bd
       -0.23779029 0.06512721 -0.03810746 -0.066850014
0000e0 c8 b0 9c 3e 45 90 0b 3e b0 ee 8e 3b 4e bd 7f bd
       0.30603623 0.13629253 0.00436195 -0.062436394
0000f0 9c d5 5c be e4 7b 68 be c3 9c 94 bd 6b e6 42 be
       -0.2156586 -0.2270351 -0.072564624 -0.1903321
000100 d3 4f 29 3e 2c 09 11 bb 0b 9f a1 3d fa 8f 54 be
       0.16534357 -0.002213071 0.07891663 -0.20758048
000110 6a 5d 62 bc 2f 24 c2 bd 58 f9 2b 3d 61 3d 16 3e
       -0.013816217 -0.09479558 0.04198584 0.14671852
000120 d7 7b 72 3d d6 21 8f 3d 79 c6 3f be 01 3f c4 bd
       0.059200134 0.069888756 -0.18728055 -0.095823295
000130 86 a2 f7 bd d7 2d 6f be da 7f ab bd 2b 5b 00 be
       -0.12091546 -0.2335733 -0.08373995 -0.12534778
000140 3a 84 42 be 4a 0d 19 bd 58 00 39 3c 85 68 2f 3e
       -0.18995753 -0.03736619 0.011291586 0.17129715
000150 af ad 8a be 18 8c 6c 3e 12 fd 97 bd ba c7 83 3e
       -0.27085635 0.23100317 -0.07421316 0.25738317
000160 f2 30 31 3e f1 44 9a bd 2c f3 45 be 8a eb db bd
       0.17303827 -0.07532681 -0.19331044 -0.10738285
000170 17 6b ee bd 82 80 60 3d b6 9e 36 bd e5 98 81 3d
       -0.116415195 0.054810055 -0.044584952 0.063279904
000180 8c f6 de bb ea 1a d9 3d 80 93 53 3e 50 57 2c bd
       -0.006804293 0.106008366 0.20661736 -0.042075455
000190 5d 02 4d be 3a fc a1 3d 89 7a 22 be 5b f6 7c bd
       -0.20020433 0.079094365 -0.15867056 -0.06175838
0001a0 b9 2d 4b bd c8 2e de 3d b8 ec 86 3d 14 47 83 3e
       -0.04960415 0.108487666 0.06588119 0.25640166
0001b0 86 e2 cf bd e8 08 6c 3e 8d f3 bf 3c 62 d5 f4 bd
       -0.10150628 0.23050272 0.023431564 -0.11954762
0001c0 84 30 96 3d 64 89 82 bc 56 54 5b be d4 02 14 3d
       0.07333472 -0.015934654 -0.2141889 0.03613551
0001d0 e0 60 9c bc 41 88 10 3e 82 3c 98 3c 30 91 83 3e
       -0.019089162 0.14114477 0.01858354 0.25696707
0001e0 3c e4 ef bd 54 36 21 bd 33 30 0d be a2 90 3d 3e
       -0.11713454 -0.039358452 -0.13787918 0.18512204
0001f0 e1 f1 1d 3e 9e 82 1e 3e c4 be 48 3d d3 56 3a 3d
       0.154243 0.15479514 0.049010053 0.04549296
000200 ec a3 25 be 4a 7b e3 bd a7 b8 7e be ab 08 0e 3e
       -0.16175812 -0.111075 -0.24875127 0.13870494
000210 ed ae 74 3d 02 89 25 bc 36 71 17 be d9 d3 5e bd
       0.059737135 -0.010103466 -0.1478928 -0.054401252
000220 43 b9 80 3d 2c 64 c6 bd 74 6a ab bd ad a6 f8 3d
       0.06285336 -0.09687075 -0.08369914 0.12141166
000230 1c 79 a3 bd 11 97 00 be 1a 6c 36 bd aa 76 7d 3d
       -0.07982084 -0.12557627 -0.044536687 0.061880745
000240 ed 14 ab 3e 89 4d 21 3e 3d 71 4f 3d 97 c4 0a be
       0.33414403 0.15752234 0.0506451 -0.13551556
000250 d1 c6 45 be d8 3b 20 3e d8 8c d4 ba 6e a2 c4 3c
       -0.19314124 0.15647829 -0.0016216291 0.024003234
000260 72 5c 37 be 9d 91 ef 3d 24 59 7e bc f7 20 06 be
       -0.17906359 0.116976954 -0.0155241825 -0.13098513
000270 e6 88 c2 be e2 14 24 bd ad 42 8e bd 0e a1 6c bd
       -0.3799507 -0.040058978 -0.06946311 -0.05777078
000280 d4 53 95 bc 7b 37 c4 bd d7 27 9f be ff d7 4b be
       -0.018228449 -0.095808946 -0.31085083 -0.19906615
000290 12 97 c1 3c 90 52 2a be 2d 05 71 3e 15 07 d7 bd
       0.023631606 -0.16633058 0.2353713 -0.10499398
0002a0 2a e6 2f 3e 87 c9 9a bd 8c f5 89 bd 86 75 fb 3b
       0.17177644 -0.075579695 -0.067362875 0.007673922
0002b0 c6 ca 05 3d 7c 7a 72 3c 80 36 62 3e 53 03 33 3d
       0.032664083 0.01479971 0.22091103 0.043704342
0002c0 1e f4 ec 3d 59 18 31 bd be 95 91 be e2 d3 07 bc
       0.11569999 -0.04323611 -0.28434557 -0.008290263
0002d0 da fd c3 3d 68 3f 95 3c 4e 4d 36 be 93 b1 ce 3c
       0.09569903 0.018218711 -0.17802927 0.025231158
0002e0 0e 3f 29 be 74 78 74 3e b8 b3 21 bd 18 18 ec bd
       -0.1652796 0.23874074 -0.039478034 -0.11528033
0002f0 19 ca 45 be 1d 72 71 be 85 95 32 3e 14 58 7d 3e
       -0.19315375 -0.23578687 0.1743985 0.2474063
000300 ad 64 02 bc c7 57 17 be ac 2a 70 bd 7e 4e 67 bd
       -0.007958573 -0.14779578 -0.058634445 -0.05647134
000310 78 6f 98 3e c1 26 05 be 4d 51 06 3c 76 0f ef bc
       0.29772544 -0.13003065 0.008198095 -0.029182177
000320 a5 f1 2a be de 10 4d 3d 52 c2 f7 bd 68 16 f9 bd
       -0.16693743 0.050064914 -0.120976105 -0.12162477
000330 f4 a6 d9 3d 9a 63 af bb 1b e0 6b 3d 76 2f 6f bd
       0.10627547 -0.0053524496 0.05758677 -0.05839487
000340 b2 ae 16 3e 8b 33 58 bc 2e 5a ca bd 2a 52 23 3e
       0.14715078 -0.013195883 -0.09880482 0.15949312
000350 c1 11 2c 3e 44 a0 97 bd 4f ee 21 3d 1b d7 48 bd
       0.16803648 -0.07403615 0.03953391 -0.049033266
000360 45 f6 81 3c 75 f7 36 3e 68 4c 82 3e ec 03 93 be
       0.0158645 0.17867835 0.25448918 -0.2871393
000370 29 b6 c7 3d 24 46 ef bc 02 f0 44 be 98 f7 13 be
       0.09751541 -0.02920825 -0.1923218 -0.14449918
000380 61 14 33 3e 5e d6 8b be 36 3a 67 3d 80 f0 c1 bd
       0.17488243 -0.27311987 0.056452 -0.094697
000390 c0 db c5 3d 4a 52 df 3b 58 44 85 3d 7b 39 c2 bd
       0.096610546 0.0068152295 0.06507176 -0.0948362
0003a0 7e 61 c7 bc bd 42 7a 3d cd d9 04 be ef d9 63 3e
       -0.02433848 0.061098803 -0.1297371 0.22251104
0003b0 25 a6 ce bd cc 97 a7 be 88 fe 3f 3e bb 16 58 3e
       -0.10090283 -0.32733 0.1874944 0.21102421
0003c0 ad 4d 78 3e e5 94 8b be 66 ab f7 3d 36 26 01 3d
       0.24248381 -0.27262035 0.120932385 0.03153058
0003d0 06 a8 2b bd 12 2a c6 bc 90 fa 89 bd a6 a5 30 be
       -0.041908287 -0.024189983 -0.06737244 -0.1725069
0003e0 27 e2 f2 bd 7d 7b b3 bb 91 c2 03 be cc 35 cd bc
       -0.118595414 -0.0054773674 -0.1286719 -0.025050066
0003f0 4f 18 63 3d 33 f8 b1 bd 9a ed 8a bd 19 e4 b5 bb
       0.055443104 -0.08689918 -0.067836 -0.005550873

layers_mu.1.bias f4 [25]
000000 41 57 23 be e2 ac f0 bd 7d 21 21 be 96 50 3a be
       -0.15951253 -0.11751725 -0.15735431 -0.18194804
000010 8f a8 15 be 91 50 0e be 14 ac 14 be de 3b 24 be
       -0.14615081 -0.13897921 -0.14518768 -0.16038463
000020 d0 26 f2 bd d0 65 0c be ce 2e 07 be bf 1e 2a be
       -0.11823809 -0.13710713 -0.13201448 -0.16613291
000030 19 eb 16 be 9e e0 00 be e5 b7 46 be 8f e6 18 be
       -0.1473812 -0.12585685 -0.19406088 -0.14931701
000040 23 47 0b be 2b f4 26 be 00 17 1d be 52 ec 10 be
       -0.13601355 -0.1630408 -0.15340805 -0.14152649
000050 6a d2 12 be 63 fd 17 be e9 e7 38 be ab cd 27 be
       -0.14338079 -0.14842753 -0.18057217 -0.1638705
000060 3a 1a 21 be
       -0.15732661

layers_mu.3.weight f4 [50, 25]
000000 6e c4 33 3e 6b 5b a5 3d b3 a3 f8 3e d1 80 02 3f
       0.175554 0.08074077 0.48562393 0.5097781
000010 53 52 c4 bf 80 0a c1 3e 10 77 98 be 5c 2d d7 3e
       -1.5337623 0.37703323 -0.29778337 0.42026794
000020 85 23 a0 bf 15 a1 04 3e d3 91 10 bf c8 9b ac 3d
       -1.251084 0.12952073 -0.5647251 0.084281504
000030 89 bc e5 bd ed e2 1f 3f 79 0e be 3c f4 5a 12 3f
       -0.11217601 0.62455636 0.02320026 0.57170033
000040 92 12 57 3f 53 03 bf be 01 6d 28 3f db 79 10 be
       0.8401271 -0.37307224 0.65791327 -0.14108984
000050 de ed 3d bf c9 a2 27 be 2f 61 0e 3f 86 b2 e7 3e
       -0.7419108 -0.16370691 0.5561704 0.4525339
000060 aa 88 a1 be 8d 40 26 3f 69 f1 ae bf d9 9b 5e 3f
       -0.3154958 0.64942247 -1.3667423 0.86956555
000070 e9 47 9d 3e f0 85 a3 3e f8 ec 71 bf 24 87 19 bd
       0.30718926 0.31938124 -0.9450221 -0.037482396
000080 f6 09 bc 3f 67 52 22 bf da f9 39 bf fe 72 83 3f
       1.469054 -0.63406986 -0.7264687 1.0269468
000090 63 42 80 3f 62 28 5b bf 4c b2 f7 39 45 8d 86 3f
       1.002026 -0.85608494 0.00047244353 1.0511862
0000a0 34 d0 22 bd 98 3b 30 3d 63 82 9d be e3 7d c1 bf
       -0.03974934 0.043025583 -0.3076354 -1.5116543
0000b0 37 65 bd 3e e4 4b 6c 3e 7a 08 77 bf c3 c2 9a 3f
       0.36991283 0.23075825 -0.9649731 1.2090687
0000c0 4c 59 b5 be 4e 19 4c 3f 05 1e a6 3f 08 50 48 bf
       -0.3541969 0.7972611 1.2977911 -0.7824712
0000d0 cf 0a cd bf 55 e7 d6 3f 25 5d 69 3f 07 7c 93 bf
       -1.6018924 1.6789347 0.9115775 -1.1522225
0000e0 5a ac 5d bd 81 7f 15 3f 14 44 1e 3f 1d a6 9d bf
       -0.054119445 0.5839768 0.6182263 -1.2316319
0000f0 d6 e3 e0 be 49 90 89 3e a4 2f b5 3e ef ee 94 3e
       -0.43923825 0.26867893 0.3538791 0.29088542
000100 32 64 07 be 40 28 ad bd 77 29 94 3f 9d a2 24 3f
       -0.13221815 -0.08454943 1.1575154 0.6431063
000110 10 4f 91 3f 18 4c a4 bf b0 d2 8c bf 17 43 f9 be
       1.1352253 -1.2835722 -1.1001797 -0.48683998
000120 c2 e9 0e be d7 5f 92 bf e0 1c d4 be b3 9b 5e bf
       -0.13956359 -1.1435498 -0.4142828 -0.8695633
000130 65 fb ad 3f 8a 43 a1 bd ba 2c 10 bf df 52 39 3f
       1.3592345 -0.0787421 -0.5631825 0.72392076
000140 f8 93 f6 bd d0 73 95 3f 22 29 46 bf 61 4e a0 bf
       -0.120399415 1.1675968 -0.77406514 -1.2523919
000150 b1 f5 b4 be b7 df 62 3f 6d 14 85 3f 32 6e c0 be
       -0.35343698 0.8862261 1.0396858 -0.37584072
000160 52 9b 7d 3f 4f 80 5e be 03 0a 61 bf 62 23 3a 3f
       0.99065125 -0.21728633 -0.879059 0.7271024
000170 fc 2d 83 bf a6 60 5a 3e 9b 0f 3c bf 0f f1 24 be
       -1.0248408 0.21325931 -0.7346131 -0.16107582
000180 2b 91 10 bf 18 40 46 be ff 40 78 bf 3e 31 75 3e
       -0.5647151 -0.19360387 -0.96974176 0.23944566
000190 93 b0 8e 3e 7e 81 a2 bc 4c a5 bd be 0b d7 7e be
       0.2786909 -0.019837137 -0.37040174 -0.2488672
0001a0 17 78 58 3e d0 68 29 3e 70 25 15 be 8a 69 e2 3e
       0.2113956 0.16543889 -0.14565063 0.44221145
0001b0 39 80 2c be 8d 21 df bd 06 f8 3a 3d 75 e2 ff 3e
       -0.16845788 -0.10895071 0.04564669 0.4997746
0001c0 ca 5e a8 3e 46 98 09 3f 19 4a 99 3e 5b 1d 36 3e
       0.32884818 0.53747976 0.29939345 0.17784636
0001d0 58 b5 c9 3e 31 26 89 bd 81 95 57 be a4 d2 79 3e
       0.39396167 -0.066967376 -0.21053125 0.2439676
0001e0 c1 e6 01 3f 74 42 e2 3e 0b e8 8a bd ea 09 bb bb
       0.5074273 0.44191325 -0.0678254 -0.005707969
0001f0 0e 8b 0e 3d 37 ee 8e bf 26 7f 14 3f e2 67 65 3c
       0.03480058 -1.1166447 0.58006513 0.014001818
000200 71 c2 24 3f b0 e0 d0 3e 61 db 73 be c0 7e 14 be
       0.64359194 0.40796423 -0.23814155 -0.14501476
000210 0a 22 67 bc c1 cd 15 bf 04 52 df 3e 3c 4d 2a bf
       -0.014107237 -0.5851708 0.4361726 -0.665241
000220 48 5c 42 bf 15 23 ab 3d d5 86 3e bf de 12 66 bf
       -0.7592206 0.08356301 -0.7442449 -0.8987254
000230 9a 1e 3b 3f 9a 52 df 3f 16 fe 7c 3f cf 79 ff be
       0.7309357 1.7447083 0.98825204 -0.4989762
000240 4b d7 04 bf 6f c8 c5 3f 6d 99 59 bf c8 5b 5a 3f
       -0.5189101 1.5451792 -0.84999734 0.852963
000250 8e d9 f3 be ef 2f 91 3f 09 01 ad be f3 03 2c be
       -0.4762692 1.1342753 -0.33789852 -0.16798382
000260 f7 50 ad 3f cc 01 8e be 1f 82 fd bc ff 84 be be
       1.3540334 -0.27735746 -0.030945836 -0.37210843
000270 74 5b 08 bf 9f de 92 3f e3 6e 39 bf 06 52 dd 3d
       -0.53264546 1.1474189 -0.72434825 0.1080666
000280 e8 eb d1 bd 46 07 d7 3f 1f db 73 3e 51 fd a5 bf
       -0.10250074 1.6799095 0.23814057 -1.2967931
000290 0c 52 c4 be 48 7c 19 3f 6f a5 2c be 15 59 ac 3e
       -0.38343847 0.59955263 -0.16859983 0.33661714
0002a0 59 7d 5a 3f 16 36 79 bf f1 fa 6d 3f 2c 63 d8 3e
       0.85347515 -0.97348154 0.9296103 0.42263162
0002b0 37 98 ea bf cc 09 27 be ee 53 29 bf 96 ce b8 3e
       -1.8327702 -0.16312331 -0.6614369 0.36095113
0002c0 7a 0a 0b bd ef ab 6d 3d 97 34 97 3e 21 a3 9e be
       -0.033945538 0.058025297 0.2953231 -0.30983832
0002d0 61 7c b3 be 04 40 7b be 6e d2 1b bc df bc 0d 3e
       -0.3505583 -0.24536139 -0.00951062 0.1384158
0002e0 b6 46 65 bd 35 21 9e be 4d bd 81 be 20 05 e5 3e
       -0.05597564 -0.3088471 -0.25339738 0.44730473
0002f0 4e 99 71 be 7d db 9b be 71 3f c5 be 25 3d 4b 3e
       -0.23593637 -0.30440894 -0.38524964 0.19847544
000300 5e fd 35 be a6 37 e5 be 4b 6f ad bd b6 2f 53 3d
       -0.17772433 -0.4476902 -0.08468493 0.051559173
000310 b2 66 8b 3d cd 66 0d bf 5f 86 94 bd 96 94 d4 3c
       0.06806697 -0.55234987 -0.07252192 0.025949758
000320 dc 91 e5 3e 76 7b 9f be 71 75 48 3e a8 5c 11 3e
       0.44837844 -0.3114888 0.1957605 0.14195502
000330 a9 8c 2d bf 25 1d a8 3e df 1c 0f 40 d6 92 84 be
       -0.67792755 0.32834736 2.2361372 -0.25893277
000340 4c ad e0 3d 6b 85 8c 3e 36 8d 8c bf 4e d5 76 3d
       0.10970554 0.2744554 -1.0980594 0.060262017
000350 ff 82 05 bf 40 37 0a bf 34 79 45 3f e1 bc 0c 3f
       -0.5215301 -0.53990555 0.77138066 0.54975706
000360 bc 81 ad bf e0 ab 08 3e 84 ab 93 3f 05 73 0c bf
       -1.3555217 0.13346815 1.1536717 -0.54863006
000370 7c 44 b8 bb 44 03 2a be fb 76 a8 be 9b de d3 be
       -0.0056233983 -0.16602808 -0.32903275 -0.41380772
000380 af 57 00 40 e2 73 9f be 74 fc 87 be 26 09 09 be
       2.0053518 -0.311431 -0.26559794 -0.13382396
000390 b2 58 34 3d d3 ca 62 3d c9 ef 0d 3e ee 80 8e be
       0.0440299 0.05536921 0.13861002 -0.2783274
0003a0 5d c8 17 3e bc 42 8b 3e b8 8c dd 3e b5 23 82 be
       0.14822526 0.27199352 0.43271422 -0.25417867
0003b0 53 09 a3 be f4 c3 8d 3e 48 e6 5d 3e 39 cc c7 3d
       -0.3184305 0.27688563 0.21669877 0.09755749
0003c0 b2 6c f1 bc 82 3d 01 3f 31 6c 03 3e a5 68 70 be
       -0.029470775 0.5048448 0.1283424 -0.23477419
0003d0 b7 19 fb 3e 4a a1 db 3e 29 55 43 3d 0d 73 6e be
       0.49043056 0.4289649 0.047688637 -0.23286076
0003e0 b0 9b ec bc 8c ac f8 3d f4 5d 94 be 02 8c 87 3e
       -0.028882831 0.12142286 -0.2897793 0.26474005
0003f0 bc e0 dd bd 71 a5 ce 3e 2d b1 00 3c a2 7a be 3d
       -0.1083388 0.40360597 0.007854742 0.09300734

layers_mu.3.bias f4 [50]
000000 1b e6 4e be 33 b1 3a bf 8f da 07 3f 7c 02 3b 3f
       -0.20204966 -0.72926635 0.5306787 0.73050666
000010 c4 e3 bc bf 4d e6 42 bf f2 ee 28 3e 51 e0 85 3f
       -1.4757009 -0.7613266 0.164974 1.0459081
000020 a0 ac 94 bf a6 0b 1c bf 28 75 02 bf d0 0c e3 3f
       -1.1615181 -0.60955274 -0.50960016 1.7738285
000030 b3 75 1b 3e 11 0b 37 bf 1c 0d 93 bf e7 54 a9 3d
       0.15181617 -0.7150126 -1.1488376 0.08268147
000040 9f 5a f1 3f d9 c0 c5 3e f8 a3 b4 3e fa ac 14 3f
       1.885578 0.38623694 0.35281348 0.5807644
000050 27 0c ee be 2d 61 bc 3e 6a 32 de 3e 0c a9 3b 3e
       -0.46493647 0.3679289 0.43397838 0.18326205
000060 f2 f4 f8 3d 77 54 cb 3e 19 c9 01 3f 95 88 7d 3f
       0.121560946 0.3971288 0.50697476 0.9903653
000070 68 4b 03 be 74 0c 76 be 78 57 09 bf d9 5b 9b 3f
       -0.12821734 -0.24028188 -0.5364909 1.2137405
000080 5c 03 99 3e 6c 74 b1 3e eb 77 18 be d6 55 82 3e
       0.29885375 0.34659135 -0.14889495 0.25456113
000090 dc f1 00 3f 6b f0 29 bf a4 a3 03 41 d6 f0 14 bf
       0.5036905 -0.66382474 8.227451 -0.58179986
0000a0 34 eb 74 3f f8 36 d2 be 64 c1 a7 3d 9e 37 2f bf
       0.9567139 -0.41057563 0.08191183 -0.6844424
0000b0 18 1e 24 c0 b7 ab 39 3f 50 c8 5d 3f 0e 24 b5 bf
       -2.5643368 0.7252764 0.8663378 -1.4151628
0000c0 17 0f 1c 3f 2c e6 4e be
       0.60960525 -0.20204991

layers_sigma.0.weight f4 [25, 50]
000000 ff e0 a0 bd 40 cb 13 3a 27 d6 8b bd 66 de 95 3c
       -0.078554146 0.00056378916 -0.06827956 0.018294524
000010 bb 96 11 3d 32 9e ca 3d e0 2d e3 ba 98 2b 82 bb
       0.03554414 0.098934546 -0.0017332397 -0.003972482
000020 22 f8 70 bd c9 1a c1 3c 40 85 9b 39 5a f6 24 3d
       -0.058830388 0.023572342 0.00029663183 0.040274
000030 ef f3 90 3d 7e 9b f6 bc 29 3d 85 3d 84 6d 1a 3b
       0.07077777 -0.030103441 0.06505806 0.0023563812
000040 20 6c 75 bc 3c 0c 47 bd 12 7d a5 3d 3d 56 ec bc
       -0.014979392 -0.048595652 0.08080496 -0.028849715
000050 8e 76 6e 3d e3 8b 47 bc e6 60 28 bd 20 8d af 3d
       0.05821853 -0.012179348 -0.041108035 0.08571839
000060 a0 6d 59 bd c8 af 78 3d f5 ff 66 3d 6a cf 96 bb
       -0.053083062 0.060714513 0.056396443 -0.0046023624
000070 67 c1 8b bd 31 77 97 bc 4a 0f 19 3a 0a 84 ac 3c
       -0.06823998 -0.018489452 0.0005838765 0.021059055
000080 f9 0e 9e bc 4a 8c 3d 3d 8f b6 36 3c 26 75 1e bc
       -0.019294249 0.04627637 0.011151924 -0.009671485
000090 18 e8 9c 3d 93 ae 6b bd b8 7b 06 3d 49 6d 1a 3d
       0.07661456 -0.057539534 0.03283283 0.03770188
0000a0 1f f2 57 bc 9a 10 18 bd c1 46 48 bc 19 cd ae bb
       -0.013180285 -0.037125207 -0.0122239 -0.005334508
0000b0 47 0f d2 3c fc d6 37 3d 90 9e b9 3a d0 34 d9 bd
       0.02564205 0.04488276 0.0014161635 -0.10605776
0000c0 28 0b 04 bd 4d a7 81 3d 5d e1 80 bd aa bd 83 bd
       -0.032237202 0.06330738 -0.06292985 -0.0643266
0000d0 09 95 f3 3d 62 19 1a bf 4c 1f bb ba ae 34 2e 3e
       0.118936606 -0.6019498 -0.0014276295 0.17012283
0000e0 ec 02 6a bb da 99 20 c0 83 04 94 bd 00 6d 69 bb
       -0.0035707308 -2.5093904 -0.07227423 -0.0035617948
0000f0 5a 89 33 bd 56 fa e2 bd 4d 17 14 bf c2 78 ee 3c
       -0.04383216 -0.11082904 -0.57848054 0.029110316
000100 25 a1 67 3c 27 8d 93 bf d8 bc 10 3e 59 17 51 bc
       0.014137541 -1.1527451 0.14134538 -0.012761914
000110 57 76 fb bd e6 c2 8f 3c 33 b3 b2 bd f3 3f 18 3e
       -0.12278431 0.01754899 -0.08725586 0.14868145
000120 1a 19 62 3c 0e d3 2c bc db 02 00 3e ee 64 93 3d
       0.01379993 -0.010548366 0.1250109 0.07196985
000130 e5 28 0a bf 7b 82 a9 be 7a 66 36 be 27 8a 5b bc
       -0.5396865 -0.3310736 -0.17812529 -0.013399637
000140 db 68 98 3f f4 e6 a3 bf c6 8c 11 be 15 c3 07 bf
       1.1906999 -1.2804856 -0.14213857 -0.53032047
000150 28 e7 21 bf b1 53 1a 3f 08 97 e9 ba 6a 46 1c be
       -0.6324334 0.6028395 -0.00178215 -0.15261236
000160 95 d3 0d 3f 47 fe 9a 3e b9 72 cf 3e 1e 57 d8 bb
       0.55400974 0.30272123 0.40517214 -0.006602182
000170 13 f3 1f 3e 3c 9b d5 bc 56 0d 37 3e 63 d9 db 3f
       0.15620069 -0.026074998 0.17876181 1.7175716
000180 7a c4 e7 bd 73 bc 8f 3e 45 be ca 3e 5c 99 ae bc
       -0.11316772 0.28073463 0.3959829 -0.021313362
000190 c5 94 7a be 49 af 0c 3e d9 c4 8a 3e 9a 67 5e 3d
       -0.24470814 0.13738741 0.27103308 0.05429802
0001a0 35 25 2a bc 95 59 7a be a2 8a 86 bd 63 93 67 3e
       -0.010384847 -0.24448235 -0.06569411 0.22614817
0001b0 66 08 5e 3e fe 54 16 3c bf ee 1a 3c 3d 07 64 3c
       0.21682891 0.009175537 0.009456336 0.013917741
0001c0 6e 80 6c 3f dc a4 4e bc fe 39 ce bc 48 18 c8 3e
       0.9238347 -0.012612548 -0.025174137 0.39081025
0001d0 4e b4 0d be b8 4d 68 3c 1f 44 34 bf ea 1c c3 3e
       -0.13838312 0.014178686 -0.70416445 0.38107997
0001e0 9a 91 9c 3d 31 dc de be f1 a4 0b 3c 41 af 2f bc
       0.07644959 -0.43527368 0.008523212 -0.010722936
0001f0 87 6e 4b 3e 8e 88 17 3e 1c 8b 9f bf 5c 9d 96 3a
       0.19866382 0.14798185 -1.2464328 0.0011490989
000200 10 41 b3 3d 25 d6 df 3c c8 25 9a bf d0 29 c9 bf
       0.08752644 0.027323792 -1.204278 -1.5715885
000210 d5 ed b6 be 7c c6 31 3f 59 84 23 bf 6b a0 8b 3e
       -0.35728326 0.6944349 -0.6387382 0.27270827
000220 54 86 9d 3c 12 07 45 be 02 db 69 3e 8d 77 89 3d
       0.019229092 -0.19240978 0.22837451 0.067122556
000230 1b 72 9d bd 48 8f f1 3a 74 29 10 c0 e2 1c 93 3e
       -0.076877795 0.0018429542 -2.25253 0.28732973
000240 3f 51 92 be 01 81 39 be 9f 67 31 be ea 51 c8 3e
       -0.2857761 -0.18115617 -0.17324685 0.39124995
000250 5e 86 a0 bd ca 27 ab bd e6 86 18 3c 50 b9 f9 bb
       -0.078381285 -0.083571985 0.009309506 -0.007620968
000260 64 e8 1a bd e2 42 e0 3c d6 8c e8 3c d7 c3 03 bd
       -0.03781928 0.027375642 0.028387468 -0.03216919
000270 29 0d cb 3d e1 64 0a 3d e6 bb fe bd cb 35 10 3e
       0.099146195 0.033787612 -0.124381825 0.1408302
000280 f5 ee 36 3c 43 3e f6 bc ab c9 b4 bc cf 3c 62 3c
       0.01116537 -0.030058986 -0.022068819 0.013808443
000290 e3 be 0a 3c 86 ef 53 bb de 96 09 3c 82 81 bc bd
       0.0084683625 -0.0032338812 0.008397786 -0.09204389
0002a0 00 01 45 bd 03 dd 34 3e 20 77 96 3c d7 2a c0 3c
       -0.048096657 0.17662434 0.01836735 0.023457928
0002b0 3d 5a 52 bd 44 c9 59 bd 00 cf 0e bd 82 d7 c2 bd
       -0.05135559 -0.053170457 -0.03486538 -0.09513761
0002c0 56 b2 27 3b 9a ad 33 3d c4 fc 5b 3d 70 56 ea 3c
       0.0025588474 0.04386673 0.053707853 0.02860567
0002d0 ab ed 10 3d 11 27 d6 bd 30 f3 21 3b 9e 20 9c bc
       0.035382908 -0.1045667 0.0024711601 -0.019058522
0002e0 75 c1 6a 3c ec 45 62 bc fd fe 0d be 28 0f 95 3d
       0.01432835 -0.013810616 -0.13866802 0.072782815
0002f0 15 7a 8d 3d 33 d7 0c 3d 3e a0 4c 3c f7 2d 10 3d
       0.06908051 0.034384917 0.012489377 0.035200085
000300 f6 85 fc 3c 4b af 93 bc 23 14 26 be 4c 69 94 bd
       0.030825596 -0.018027922 -0.16218619 -0.07246646
000310 d4 fc 24 3e 26 e5 9e ba 11 65 26 bd 42 65 b0 3d
       0.16112071 -0.0012122735 -0.04062373 0.086130634
000320 4e 82 9f bd 79 32 0e 3e 07 6f 0e be cc f6 db 3d
       -0.077885255 0.13886441 -0.13909541 0.10740432
000330 0a bb 2a 3d be 9a 52 3e d5 da 2c bd 87 69 80 be
       0.04168228 0.20566842 -0.042200882 -0.2508051
000340 74 21 a5 3c b1 7b aa 3c 3c d6 c6 bb 2e e5 ad 3d
       0.020157553 0.020810934 -0.006068019 0.08490978
000350 cc 2b 95 3f d0 15 5a ba 10 8a bc ba 8a a2 9d bf
       1.1653991 -0.00083192904 -0.0014384408 -1.2315228
000360 92 39 5e 3e 27 a4 84 3c bf 1b 33 3d f5 45 8f 3e
       0.21701649 0.016191555 0.043727633 0.2798306
000370 94 69 22 3d d8 09 0f c0 43 36 c7 3c b7 7b fa 3c
       0.03965147 -2.2349758 0.024317866 0.03057657
000380 29 69 b6 bd 64 09 25 3e 44 0c 2e 3e 61 3b cb 3d
       -0.089067765 0.16116863 0.16996866 0.09923435
000390 76 be 69 be e0 ad 07 bd 19 e3 4d bf 55 4d 0f 3f
       -0.22826561 -0.033124804 -0.8042465 0.55977374
0003a0 54 1d aa be e2 3b 2e 3f b2 50 45 bf fa 5c 20 be
       -0.332255 0.68060124 -0.77076256 -0.15660468
0003b0 ec ff d6 bb 7c c5 8d 3d 52 be a3 be 07 ab 18 be
       -0.00656127 0.06922433 -0.3198114 -0.14908992
0003c0 20 9d 45 3d 60 29 ee bc 82 e5 99 3f 36 51 bb 3c
       0.04824555 -0.029072464 1.2023165 0.022865873
0003d0 68 44 5c bd 95 a8 d8 3e f8 c3 ab 3e f8 7f b3 3b
       -0.053776175 0.42316118 0.3354795 0.0054779015
0003e0 7e 1e 99 3e 81 73 24 be bb 9f 3e bc da 6d ac bd
       0.29906076 -0.16059686 -0.011634762 -0.0841939
0003f0 b8 53 a2 bd 3c 94 82 bb e2 84 d3 bc 76 69 3e 3d
       -0.07926124 -0.003984956 -0.0258202 0.046487294

layers_sigma.0.bias f4 [25]
000000 64 1a 63 bc 12 b0 d8 3c 6b 05 db bc 4e de aa 3c
       -0.0138612725 0.026451144 -0.026735982 0.020857956
000010 6e e7 ec bb e8 df 99 3c cc e2 ea bc e9 1b 71 3c
       -0.007229737 0.018783525 -0.028672598 0.014716127
000020 68 66 8b bd 74 a3 18 bc ec 98 b5 3c d3 c7 bb 3b
       -0.06806642 -0.009316314 0.022167645 0.005730608
000030 68 3c 89 bd 9c 27 6b bb de a6 e3 3c c6 66 77 3c
       -0.06700975 -0.0035881763 0.02778953 0.015100187
000040 e0 95 d1 bc 7a b4 ab 3d 02 1b b7 bb 6c 63 ad 3c
       -0.025584161 0.083840325 -0.0055879364 0.021165572
000050 4a 3f 59 bc 28 b0 82 bc 15 a9 dc bb db ee 1c bb
       -0.013259718 -0.015953138 -0.0067340233 -0.002394608
000060 7c 0f 85 bd
       -0.06497094

layers_sigma.1.weight f4 [25, 25]
000000 38 d3 e8 3c e5 ed 6d bd 45 97 7c bf 21 2b 39 bc
       0.02842103 -0.058088202 -0.9866832 -0.011301787
000010 34 34 f3 3e c1 19 8c bd ca b9 c7 3d 21 1f d6 bc
       0.47500765 -0.0684085 0.09752233 -0.02613789
000020 59 41 2c bc ea eb 93 3b a4 87 95 bc 23 08 a8 3e
       -0.010513627 0.004514207 -0.018253155 0.32818708
000030 3b 10 ca 3e d2 0d 42 bb 05 24 cf bc 72 2e b1 bd
       0.39465508 -0.0029610288 -0.02528573 -0.08651437
000040 4d 94 f3 3d e6 0f 0d 3f 95 e8 e7 3b a8 12 06 3d
       0.118935205 0.55102384 0.0070772865 0.032732636
000050 7b 1d 7c be ac e9 cf 3e cc 51 b2 3c 99 3f 91 3c
       -0.24620621 0.40607965 0.02176752 0.017730521
000060 d0 18 04 bf ce ea 7f 3c e5 82 87 3d ec e0 82 3f
       -0.5160036 0.015619947 0.06616763 1.0224891
000070 a7 66 ad bc f0 e0 f3 be 88 b9 60 bd 04 c2 aa bd
       -0.021167113 -0.4763255 -0.054864436 -0.08337787
000080 ee ca 39 bd 6e e9 00 bc 9d 56 1d bd 65 40 68 bd
       -0.045359544 -0.007868154 -0.03841268 -0.056702036
000090 bf ce 9e be c4 8d c7 be 08 b2 7e bb 41 39 1e bd
       -0.3101711 -0.38975346 -0.003886344 -0.03862882
0000a0 24 30 fe bc 47 05 2f be e1 a3 1e bf 0c 8c 92 bb
       -0.031028815 -0.17091857 -0.6196881 -0.0044722613
0000b0 65 85 5c bd 57 f3 85 3e 97 63 ce be 2e 4f 9b bc
       -0.053838152 0.26162216 -0.40310356 -0.018958654
0000c0 8e fa 76 bd ec f3 00 3f 68 f4 d5 3c 05 e4 32 bd
       -0.06029754 0.50372195 0.026117519 -0.043674488
0000d0 83 9b 81 3e 4a 66 23 bd 1d ff 8d 3f 84 92 a2 bb
       0.2531396 -0.039892472 1.1093479 -0.0049613137
0000e0 47 e7 83 3d 70 c1 ea bc 8c 27 9c 3e 34 1b 12 bd
       0.06440597 -0.028656691 0.30498922 -0.035670474
0000f0 6a 70 09 bd d2 e1 2b be 28 1a 31 be a9 03 cc 3c
       -0.033554472 -0.16785362 -0.17295134 0.024904089
000100 4d eb 12 3c 35 52 15 bd c7 d5 44 3e 96 76 dd 3c
       0.008967233 -0.03645535 0.19222175 0.027034085
000110 c0 a0 02 3a 75 bf d5 3c 4a bd 08 3e 0a 23 75 bf
       0.000498306 0.02609227 0.13353458 -0.9575659
000120 1b 92 25 3d c6 98 cc 3c 0b 4b 7a be ad be 2c bd
       0.04042254 0.024975192 -0.24442689 -0.04217403
000130 10 ff f9 3e ea f9 34 be fa bb 07 3d f9 23 d0 3e
       0.4882741 -0.1767346 0.033138253 0.40652445
000140 74 68 03 bc d2 91 a0 bd f9 f4 a5 3d 63 5b 67 3e
       -0.008020509 -0.07840313 0.081033655 0.22593455
000150 65 f4 56 3d 6c 1b 92 bb 14 d0 cc 3d b8 84 9a be
       0.052479167 -0.0044588353 0.10000625 -0.3017938
000160 94 4d 60 3c 12 65 f8 3c 25 96 5e bd fa 4d 37 3f
       0.013690371 0.030321632 -0.054342408 0.7160336
000170 a9 12 1a bf a9 23 4f bd c3 a4 00 3e 41 f7 13 3f
       -0.60184723 -0.050571118 0.12562852 0.57799155
000180 a3 5a 25 3f 03 7c 2a 3d 44 f3 00 3d 69 57 14 3f
       0.64591426 0.041622173 0.031481996 0.5794588
000190 5c 3c 40 bd 7b e7 4a be 98 b2 10 bf 6f 6d 27 3c
       -0.046932563 -0.19814865 -0.5652251 0.010218962
0001a0 56 c4 a1 3d 64 a0 5c 3c 48 bd 5b 3e 20 2d 5b 3d
       0.07898776 0.0134659745 0.21458924 0.05350983
0001b0 28 f7 54 be 98 f2 e0 3c 1a b8 a9 bd 0f 70 5d bc
       -0.20797408 0.027459428 -0.08287068 -0.013515486
0001c0 c0 79 09 b9 3a 96 af 3d f7 8e 24 3c 80 31 21 bd
       -0.00013110694 0.08573575 0.010043851 -0.039353848
0001d0 de 97 92 3d 72 4b ce 3e ba cc c8 bb f2 98 9e 3d
       0.071578726 0.40291935 -0.006127921 0.07744016
0001e0 7a 99 ab 3c 94 e3 ff be 2c 70 ce 3c 82 54 0b 3c
       0.020947207 -0.49978316 0.025199972 0.008504035
0001f0 f4 e6 aa 3f 14 19 e6 bb 0d 47 03 bf d7 07 d6 3c
       1.3351731 -0.0070220325 -0.5128029 0.026126785
000200 e9 de a2 3d de 69 89 bd 93 18 f9 3c 69 96 1a bf
       0.07952673 -0.06709646 0.030407226 -0.6038576
000210 64 82 1e 3d 4b 4e a9 3d 5b 53 d1 3c f6 c5 06 3d
       0.03869857 0.08266886 0.025552442 0.032903634
000220 af f3 29 3e 22 6f c1 bd 08 16 64 bc b2 ed 3f 3b
       0.16596864 -0.09445025 -0.013921268 0.0029285965
000230 f8 81 d2 3b d0 80 7a 3e 1f 0f b9 3d b9 9d f6 3c
       0.006424185 0.244632 0.09036087 0.030104505
000240 c0 7f 7d 3a b5 9f 8e 3d 93 d7 bf bc 42 f5 1e bc
       0.00096702203 0.069640554 -0.023418223 -0.009702029
000250 56 d5 46 3b 31 ea 7a 3d 8f fd d4 3b 53 b9 33 bf
       0.003033956 0.0612585 0.006499953 -0.7020466
000260 5c 06 66 bd a0 e2 2a 3c 5e 64 40 be 60 98 78 3c
       -0.05615841 0.010430008 -0.18788287 0.015173048
000270 aa 55 80 3f da 1e 12 3b 91 58 b3 3e cc f9 df 3c
       1.0026143 0.002229622 0.35028508 0.027340792
000280 74 81 61 3c 92 2b 33 be ee c1 14 bf c0 d4 ab 3c
       0.013763774 -0.1749709 -0.58108413 0.02097547
000290 c2 88 67 ba 82 4c 93 3c 7d ee f0 3e 78 7d 64 bc
       -0.0008832329 0.017980818 0.47056952 -0.01394593
0002a0 ff ab 05 bc ee d4 ca bc 81 01 d0 be 73 da 7a 3e
       -0.008158683 -0.024759736 -0.40626147 0.24497394
0002b0 85 f4 8e bc f8 57 df 3a e1 5a fd bd e0 fe 8c bb
       -0.01745058 0.0017039767 -0.123708494 -0.0043028444
0002c0 cf 32 3e 3f 0e 71 e7 3d fe a5 e7 3c 83 12 72 3e
       0.7429628 0.1130086 0.028277393 0.23639874
0002d0 7b 6c 4d 3c f9 0e 80 bf 59 53 c4 bb 39 6a a6 be
       0.012538071 -1.0004569 -0.005991381 -0.32502916
0002e0 2f 86 34 3c 94 5a c8 3c de 44 28 3e a9 75 18 3f
       0.01101832 0.024457254 0.16432521 0.59554535
0002f0 de f3 86 3c 4e ec bf 3b a1 6a 64 3c aa 60 00 bf
       0.016473707 0.005857027 0.013941438 -0.501475
000300 68 24 1d bc c8 b3 cd 3c 13 1f e9 3d 39 af cf 3e
       -0.009591199 0.02511014 0.1138288 0.40563372
000310 ff 05 91 be 8c b1 56 bd 76 40 ab bb 91 97 10 3e
       -0.28324887 -0.052415416 -0.00522619 0.14120318
000320 c0 2c 10 bc de b2 95 3e 2f 77 8a be 28 c1 3e bb
       -0.008799732 0.29238027 -0.27044055 -0.002910683
000330 14 29 5e be 43 71 30 bc b4 32 db bd b7 a8 0e 3d
       -0.21695358 -0.010769191 -0.1070303 0.034828868
000340 d9 c0 13 be 50 aa 8d bc 03 2f 51 3c 88 f3 6a 3e
       -0.14429034 -0.017293125 0.012767556 0.22944462
000350 74 ca 47 bf 7c 79 80 bc 63 54 cb 3c 26 0b b3 bc
       -0.78043294 -0.015682928 0.024820512 -0.021855902
000360 ec ee 22 bd 8f 3e 0c 3d 28 b8 77 bc 2a 69 7a bd
       -0.039778635 0.034239348 -0.01511959 -0.06113545
000370 74 73 67 3c 48 52 95 be 54 ee b8 bc 58 87 a0 bc
       0.014126647 -0.29164338 -0.022574581 -0.019595787
000380 4b 0c 9b bd 05 49 4c bd 07 c5 94 3d 52 4d c1 bd
       -0.07570704 -0.049874324 0.072641425 -0.09438576
000390 53 f7 d6 3c b5 87 c4 3d 49 d4 84 bc fe 54 b4 be
       0.02624098 0.095961966 -0.016214507 -0.35221094
0003a0 1e 5f cf 3c dd c6 87 bd b4 72 a6 3b 42 af 54 3c
       0.02531391 -0.06629727 0.0050795916 0.012981238
0003b0 24 ed 99 bf e3 48 84 be bc 76 c3 3c 16 6f 82 3c
       -1.2025495 -0.25836858 0.023860328 0.01592211
0003c0 00 45 2d 3c 1c 42 b0 3d 1e 8b 20 3f 0a 9c da bb
       0.010575533 0.08606359 0.62712276 -0.0066714333
0003d0 35 74 89 bd d9 4f 84 3e 9b 2c c0 3e 25 a2 e5 3c
       -0.06711618 0.2584217 0.3753403 0.028031418
0003e0 74 8d db 3b 83 01 05 be d4 fb 25 3c 6e 66 63 be
       0.006700212 -0.12988858 0.010130841 -0.22207043
0003f0 02 8a cb 3e e4 30 32 bd 66 f1 0b 3f 12 05 01 3d
       0.3975373 -0.043503657 0.5466522 0.031498976

layers_sigma.1.bias f4 [25]
000000 0f 9c 27 c0 55 93 1c c0 74 d5 1b c0 46 12 1c c0
       -2.6189 -2.4464924 -2.4349031 -2.4386153
000010 09 39 1e c0 67 25 d9 3e e0 72 22 c0 8b 51 26 c0
       -2.4722311 0.42411348 -2.5382614 -2.598727
000020 2c 4d f8 3e 30 b2 14 c0 fa 5d 22 c0 b4 a3 0f c0
       0.48496377 -2.3233757 -2.5369859 -2.2443666
000030 64 f4 1d c0 fc 4b 20 c0 65 96 22 c0 a9 52 15 c0
       -2.4680414 -2.5046377 -2.5404294 -2.3331702
000040 47 4c 28 c0 65 15 1d c0 63 7d 20 c0 8d 65 21 c0
       -2.6296556 -2.4544308 -2.507653 -2.5218232
000050 40 03 dd 3e 52 a7 26 c0 7e 9b 1f c0 cc 2e 9a c0
       0.43166542 -2.6039624 -2.4938655 -4.8182125
000060 12 42 1d c0
       -2.4571576

layers_sigma.3.weight f4 [50, 25]
000000 c7 86 6a 3c 7c 8c c0 bb 4d 16 e4 bc 57 d8 a4 3d
       0.01431436 -0.005876122 -0.027842665 0.08049076
000010 fe 7b 2a 3d d0 33 d3 3c 65 77 12 3c 9d df 84 bc
       0.041622154 0.025781542 0.008939599 -0.016219908
000020 b6 23 44 bc 1c 34 96 3c 84 28 ff bc 74 0c f1 bc
       -0.011971405 0.018335395 -0.031147249 -0.029424883
000030 e2 72 84 bd 88 c4 25 3b 80 55 58 b9 96 cd cb bc
       -0.06467225 0.0025294144 -0.00020631216 -0.024878304
000040 8f 23 b8 3c 42 18 96 bd b7 ee a2 3c 8f c6 2f bd
       0.022477893 -0.073288456 0.019889219 -0.04291397
000050 b4 e9 ae bc f1 30 b3 bd f0 1c 4b bd 46 f7 d3 bd
       -0.021351673 -0.08749569 -0.049588144 -0.10349898
000060 40 43 f4 bc c0 88 c9 bd ff b8 9e bd 91 33 cd bc
       -0.029817224 -0.09840536 -0.07750129 -0.025049003
000070 b0 89 6a 3d 87 0c 85 bc 25 d1 50 bc 32 14 0c bd
       0.057260215 -0.016241325 -0.012745176 -0.034198947
000080 dc ca 2f 3c 53 0a 8a 3d 21 e3 38 3d af bc 35 bd
       0.010729518 0.067402504 0.045138482 -0.044369396
000090 2f f9 7c bd fb e2 41 bd a0 1c df 3b 98 b7 fb 3b
       -0.061761077 -0.047335606 0.0068088323 0.007681798
0000a0 cd 99 16 bd 3f 51 96 3d 18 7f 53 bc 2d b5 3e 3d
       -0.03676777 0.07339715 -0.0129087195 0.0465595
0000b0 fb 28 73 bc dd a4 0a bd e4 1a 27 bd a4 2e d2 bc
       -0.0148413135 -0.033848632 -0.04079713 -0.025657006
0000c0 e3 2e 1f bd 68 29 68 ba d0 51 25 bd cb 02 94 bd
       -0.038863074 -0.00088562677 -0.040361226 -0.07227095
0000d0 77 53 8c bc 91 db 0c 3e 3c 75 b6 3c de bc ef 3d
       -0.017129643 0.13755633 0.022272699 0.117059454
0000e0 fc db 71 bc 06 f6 46 3c 1c 8d 57 3d a3 80 30 3d
       -0.014761921 0.0121436175 0.052624807 0.043091428
0000f0 eb 87 ae 3d ab 02 9a 3b e9 58 b0 bc 27 d6 b9 3c
       0.08522018 0.004700025 -0.02152677 0.022685124
000100 62 bf 1b 3e 44 09 94 bc e0 16 25 3e a7 92 1a 3d
       0.15209725 -0.018070824 0.16122007 0.037737515
000110 ac b1 1f 3e 71 88 23 bc 0a bc 89 bb 5d c4 82 bd
       0.1559512 -0.009981261 -0.004203324 -0.063851096
000120 8f 36 44 3c 71 62 80 3c 6f 49 91 3d 8e 0f ba bc
       0.011975898 0.01567194 0.070940845 -0.022712495
000130 71 f9 28 3d b6 a1 51 3c 80 cc 4c 3c 8d 3a ee bc
       0.04125351 0.012794903 0.0124999285 -0.029080654
000140 2a 98 9d 3d 6a 89 68 bc 79 5b a6 bc 35 07 23 bc
       0.076950386 -0.014192918 -0.02030729 -0.009950449
000150 e7 36 3a bd 83 9b 95 3c eb 68 f5 3c 30 c4 4e 39
       -0.045462515 0.01826263 0.029957255 0.00019718776
000160 9d a4 66 bc 8b d3 2c 3d ce 0b 02 bd e2 ab c6 3d
       -0.014077333 0.04219393 -0.03174954 0.09700753
000170 50 04 ae bc 44 a2 78 3d be 9f 8e bc 13 d6 12 3c
       -0.02124229 0.060701624 -0.017410155 0.008962172
000180 94 ee 08 ba 2d 94 03 bd b4 c3 98 bc 42 10 aa bc
       -0.0005223539 -0.032123733 -0.018648006 -0.020759705
000190 a8 34 ab bc cc 5d 39 3b 98 09 9e 3d 64 81 1c bd
       -0.020899132 0.0028284667 0.077166736 -0.038209334
0001a0 a5 72 5c be e4 22 81 bb 3c 8f f6 3d 76 37 ff 3d
       -0.21528108 -0.003940927 0.120390385 0.1246175
0001b0 f2 2e 1b 3e de 25 c1 be 4c 43 ed 3d 41 24 15 be
       0.15154627 -0.37724203 0.115851015 -0.14564611
0001c0 70 ad 98 bc 96 1c 64 be 8a 3b 57 3e 82 06 0c bc
       -0.018637389 -0.2227653 0.21018806 -0.008546473
0001d0 58 c0 a9 bc f3 c9 d7 bd 54 6f 54 3e 37 b1 5e 3d
       -0.0207216 -0.10536566 0.20745593 0.054368224
0001e0 b5 1a b9 3e 03 90 63 3c 5f 15 00 be 40 de 6a bd
       0.36153188 0.013889316 -0.12508152 -0.05734086
0001f0 c8 58 ea 3d 41 b2 e3 bd d2 ee d0 bd 0a 12 3c bd
       0.11442715 -0.111179836 -0.10201801 -0.04591564
000200 a3 b2 ae 3d e2 8d 67 bc eb 0d d5 3d 0d 8f 2f bd
       0.08530166 -0.014132949 0.10403045 -0.042861033
000210 96 98 04 bc 49 45 6a bd 9b ca 2f bd 0d ab ed 3b
       -0.00809302 -0.05719498 -0.04291783 0.007253057
000220 03 2f c2 3d 43 3e cd bd a8 60 7a bb 85 ab d3 3d
       0.09481623 -0.10021641 -0.0038204584 0.10335449
000230 f2 32 a3 bd 4f a8 00 3e bf 2c 33 bd df 50 55 3d
       -0.079687014 0.12564205 -0.043743845 0.052079078
000240 33 04 50 bd 8e 67 47 3d 39 dd 61 bd b6 78 3a bd
       -0.050785255 0.04868274 -0.055142615 -0.045525275
000250 6f 01 0c bd 84 5a 89 bc 65 8b f7 bc 7a 4a 78 bd
       -0.034181055 -0.016766794 -0.030217836 -0.0606179
000260 54 af 12 bc 8d 5a c0 3d d5 71 a1 3d 97 3a 82 3d
       -0.008952934 0.09392271 0.0788304 0.063588314
000270 fd 1b 46 3d a2 81 3f bc 94 8d e9 bc 45 27 07 bd
       0.048366535 -0.011688622 -0.028509893 -0.032996435
000280 e3 56 b9 3d c2 53 37 3d 9c 48 b6 ba d7 31 b5 3d
       0.090497755 0.044757612 -0.0013907137 0.08847397
000290 3e 75 1b 3d 5e f7 56 bc a6 45 ca 3d 4e 26 63 bb
       0.037953608 -0.0131205 0.09876566 -0.0034660283
0002a0 cc 78 74 3d a0 4a cc ba 4e 59 73 3c ae b3 76 bd
       0.059685513 -0.0015586205 0.014852835 -0.06022995
0002b0 f6 15 22 bd 09 04 83 bc f4 ee c7 3c e6 11 e1 3c
       -0.039571725 -0.015993135 0.024405934 0.027474355
0002c0 10 37 70 ba bb 66 7a bd 68 7f fa 3c 69 9d 3a 3d
       -0.00091634784 -0.061133128 0.03057833 0.045560274
0002d0 ac 46 b1 c0 c2 0c 01 bd ce 6d 02 3d e4 01 a7 bd
       -5.539877 -0.031506307 0.031843 -0.081546575
0002e0 46 b1 72 3d 7b 34 91 3c 65 a5 17 3d 4c ae 73 bb
       0.059251092 0.01772522 0.037022967 -0.0037182746
0002f0 62 a8 9c bb 85 96 5e bd fd 67 a6 40 8a ef d4 bb
       -0.004780815 -0.054342765 5.200194 -0.006498282
000300 70 01 e8 3b 27 f8 73 bd f6 a7 34 3c f8 d3 56 bd
       0.0070802495 -0.05956283 0.011026373 -0.052448243
000310 e8 b7 00 3b 61 cd 27 bd 65 57 50 bd f9 4b 22 3c
       0.0019640867 -0.04096735 -0.050864596 0.009905809
000320 49 53 ac bd 23 d8 67 bd 71 be 99 bd f4 77 c1 3d
       -0.08414323 -0.05660261 -0.07507027 0.09446707
000330 51 24 85 3d c5 ba 8b 3d 20 8d e3 3c 8d 70 1e 3d
       0.065010674 0.06822733 0.027777255 0.038681556
000340 82 54 92 bd 94 07 7e bc 92 87 f7 bc 4c 07 9e 3d
       -0.07145025 -0.015504736 -0.030216012 0.077162355
000350 66 51 61 bc 88 16 ba 3c 40 45 51 bc 55 e7 35 bd
       -0.013752317 0.022715822 -0.012772858 -0.04441007
000360 72 b6 db 3c e6 4e ce bc 38 06 66 bc ea 90 2e bd
       0.026820395 -0.025184106 -0.014039569 -0.04261867
000370 66 4e 8b 3d e6 14 37 bd 7d 55 d0 3c bc 84 83 3d
       0.06802063 -0.044697665 0.025431389 0.064218014
000380 fa 43 01 3d e5 5a d6 3c 3b 55 e0 3c 09 2c 85 bc
       0.031558968 0.026166389 0.027384391 -0.01625635
000390 92 cd 5f 3d b4 44 ce bc 5c fd db 3c f9 de 13 be
       0.054639407 -0.025179245 0.02685421 -0.14440526
0003a0 5e 85 1a be 4d bd 1f bd 46 cf 9e bd 82 9a 2b 3e
       -0.15089938 -0.03899889 -0.07754378 0.16758159
0003b0 9e a5 bf 3d f0 58 24 bc f0 2d 89 bc 2c 8e 7d bd
       0.09357761 -0.01003097 -0.016745538 -0.061903164
0003c0 1f 12 cd bc 71 35 be 3d 63 9d 1c bc 2e 6d 6d bd
       -0.025033055 0.09287537 -0.009559008 -0.05796545
0003d0 f1 c4 2e bd 1b b1 b0 3d 62 e1 4a bb 74 2c a2 3c
       -0.042668287 0.0862753 -0.0030957093 0.019796588
0003e0 56 ff 3a be 05 11 37 3e f6 f0 f1 bc 1b 91 05 bc
       -0.18261465 0.17877586 -0.029533844 -0.008152272
0003f0 a8 eb de 3d f0 24 95 3c 57 ca a2 3d 99 ed a8 bd
       0.108847916 0.01820609 0.079487495 -0.08248443

layers_sigma.3.bias f4 [50]
000000 40 59 0c c0 1c 3b 07 c0 a6 8e fa bf c8 54 13 c0
       -2.1929474 -2.1129827 -1.9574783 -2.3020496
000010 0b 0f 36 be 7c fb 0a c0 59 a4 07 c0 e6 e0 7d 3f
       -0.17779176 -2.1715994 -2.119406 0.9917129
000020 ec 6d 01 c0 68 13 54 bd ab 35 dd 3d 62 94 fb bf
       -2.022334 -0.05177632 0.10801252 -1.9654658
000030 96 5b 15 c0 a9 0b fa bd 44 e1 79 3d 34 01 17 c0
       -2.333715 -0.12209255 0.061005846 -2.3594484
000040 fd 17 0b c0 18 3d c7 3b 59 95 0f c0 66 4a 0b c0
       -2.1733391 0.006080281 -2.2434905 -2.176416
000050 5b 6e bc be 07 2f 11 c0 b2 dd 95 3d 23 51 65 3e
       -0.36802945 -2.2684953 0.07317676 0.22394232
000060 f9 46 07 c0 04 33 06 c0 71 80 1b c0 6d c2 08 c0
       -2.1137068 -2.0968637 -2.4297144 -2.1368668
000070 9c 69 6d 3f 80 78 05 bf a1 6a 74 3f 03 87 10 c0
       0.9273927 -0.52136993 0.954752 -2.2582405
000080 fb 00 01 c0 19 2a 14 c0 6f dc 1e c0 f9 22 09 c0
       -2.0156848 -2.3150694 -2.4822042 -2.1427596
000090 e9 6d 31 be ae 3a 0e c0 cf 60 0a c0 46 f2 04 c0
       -0.17327084 -2.2223315 -2.1621587 -2.0772872
0000a0 f5 da fb bf 12 9a bf be 94 6a 16 c0 bb 2d 09 c0
       -1.9676195 -0.37422234 -2.350255 -2.1434162
0000b0 e4 36 0a c0 53 dd 17 c0 2b 85 08 c0 fe 9d 09 c0
       -2.1596003 -2.3728836 -2.133128 -2.150268
0000c0 cb a8 04 c0 3e 59 0c c0
       -2.0728023 -2.192947
