feed_forward/saved_models/nhid10_lr0.01_nlayers2_seed5.pt (torch, 25629 bytes, 24 tensors)

layers_mu.0.weight f4 [10, 50]
0	0x3cd11410	0.025522262
1	0xbb82fdff	-0.003997564
2	0xbb8dd152	-0.0043279314
3	0x3b4f1cf4	0.003160295
4	0xbc008f32	-0.00784664
5	0xbc04c6ba	-0.008104021
6	0x3b34b390	0.0027572848
7	0xbbb8b313	-0.0056365817
8	0x3f494087	0.78614086
9	0xbb8b75a4	-0.004255967
10	0xbf573d77	-0.8407816
11	0x3b1850cc	0.0023241518
12	0x3b099642	0.0020994102
13	0x3b02e7dc	0.0019974625
14	0xbc03a215	-0.008034249
15	0x389f7180	7.602852e-05
16	0x3b6c14c4	0.003602312
17	0x38ed02dc	0.00011301573
18	0xbb9c89fc	-0.004777191
19	0x3aac400c	0.0013141646
20	0x3a870c00	0.0010303259
21	0x3b301f1c	0.0026874011
22	0xbb1e9a88	-0.0024200995
23	0x3ee12790	0.43975496
24	0xbaad17e2	-0.001320597
25	0xbb8b5232	-0.004251742
26	0x3df5f494	0.1200954
27	0xba360a50	-0.00069442857
28	0xbd442350	-0.04788524
29	0x3b33f650	0.0027460046
30	0xbf0828e1	-0.53187376
31	0xbf511448	-0.8167157
32	0x3b353df5	0.0027655337
33	0xbb33b4f0	-0.002742108
34	0x3b9db07c	0.0048122983
35	0x3ad169bc	0.0015976946
36	0x3a35b8f0	0.000693216
37	0xba6f5bae	-0.0009130788
38	0xba6644e0	-0.0008784067
39	0xba0e96a0	-0.0005439315
40	0xbade5200	-0.0016961694
41	0x3b5148d0	0.0031934269
42	0x3a584660	0.0008250233
43	0xba9374b0	-0.0011249986
44	0x3a21ef2c	0.0006177302
45	0x39e21ea0	0.00043128897
46	0x3b1cf88f	0.0023951863
47	0x3e5c53b0	0.21516299
48	0x3b7f8bb0	0.0038993172
49	0x3c1606b5	0.0091568725
50	0x3e469728	0.19393599
51	0x3bb17190	0.005415149
52	0x3baf45d0	0.0053488985
53	0x3c04ec70	0.008113012
54	0x3b0f4775	0.002186266
55	0xbbfc8df1	-0.0077073504
56	0x3bdb39f0	0.0066902563
57	0x3c1e28d6	0.009653291
58	0x3f1c38d2	0.610242
59	0xbc81a02e	-0.01582345
60	0x3e1c697b	0.15274613
61	0xbc4a72ea	-0.012356499
62	0x3bfdc794	0.007744739
63	0x3c08db87	0.008353121
64	0x3c1cb4ea	0.009564618
65	0xbc016c4a	-0.007899353
66	0xbbcfed84	-0.0063454527
67	0x3a0cd220	0.0005371887
68	0x3ee27dca	0.44236594
69	0xbbc9628a	-0.00614578
70	0x39352e58	0.0001727877
71	0x3c30fd44	0.010802571
72	0xbc183d54	-0.0092919655
73	0x3e9b0a10	0.30281115
74	0xba75e3c8	-0.00093799504
75	0x3b334c72	0.0027358797
76	0xbe7c7747	-0.24654876
77	0x3c0f25d0	0.008737043
78	0xbedcdf7a	-0.4313925
79	0xbb23da83	-0.002500207
80	0xbef0b9ca	-0.47016746
81	0x3f37a070	0.71729183
82	0x3ac25594	0.001482653
83	0x3be68f20	0.007036105
84	0xbbe868ae	-0.007092557
85	0xba05889c	-0.0005093904
86	0x3b8d32ea	0.004309048
87	0xbb1890a8	-0.0023279581
88	0x3c2616fe	0.010137318
89	0x3adc7eb8	0.0016822433
90	0x3bc70f00	0.006074786
91	0x3c419e27	0.011817492
92	0x3c2873f0	0.010281548
93	0xbc44f586	-0.012021428
94	0xbc0c95e4	-0.008580659
95	0x3a4ff290	0.0007932568
96	0x3ba9c37a	0.0051807733
97	0xbf97c6f9	-1.1857597
98	0xbbfbbbd2	-0.007682302
99	0x3e2c353c	0.16817182
100	0xbf19c153	-0.60060614
101	0xbbe855c3	-0.0070903017
102	0xbb19733d	-0.0023414635
103	0x3ac37788	0.0014912942
104	0xbba401c6	-0.005005094
105	0xbbd03e2b	-0.0063550672
106	0xbb6f7aca	-0.0036541694
107	0x3b57fe28	0.0032957885
108	0xbe09d4dd	-0.13460107
109	0xbbfe4e2f	-0.007760785
110	0x3f1db8d5	0.61610156
111	0xbb9b6982	-0.004742802
112	0xbab3fc64	-0.0013731834
113	0xbac2ce3c	-0.0014862488
114	0xbb75ad58	-0.0037487354
115	0x3b3cb086	0.002879174
116	0x39e04ca0	0.000427817
117	0x3bfb395d	0.0076667503
118	0x3e0855dc	0.13314003
119	0x3bd648de	0.006539448
120	0xbb3a7d4e	-0.0028456035
121	0x3b07b598	0.0020707604
122	0xbaa9dba6	-0.0012959137
123	0xbeca3a34	-0.3949753
124	0xbaf406fe	-0.0018617806
125	0xbba2b28c	-0.004965132
126	0xbe4cff1d	-0.20019193
127	0xbb520ba6	-0.00320504
128	0xbf277345	-0.6541026
129	0x3c1b8be0	0.009493798
130	0xbf7a8269	-0.9785524
131	0xbe854a3c	-0.260332
132	0xbbfa84e3	-0.007645236
133	0xbb4c9ba8	-0.0031220708
134	0x3bb07a5a	0.005385679
135	0xbb804f60	-0.0039157122
136	0xbbd030ca	-0.0063534724
137	0x3c212d8c	0.009837519
138	0x3b63fcf0	0.0034788214
139	0x39686fe0	0.00022166921
140	0x3a01bf38	0.0004949453
141	0x3b0e121c	0.0021678274
142	0x3af5b40e	0.0018745677
143	0xbb937b74	-0.0045008007
144	0xbbabf3a8	-0.005247552
145	0xb9e0d248	-0.0004288128
146	0x3adbe528	0.0016776668
147	0x3e9701fd	0.29493704
148	0x3b284c48	0.0025680233
149	0xbeb4f000	-0.35339355
150	0xbe161440	-0.14656162
151	0x39020d90	0.00012402819
152	0x3c0e97ab	0.008703153
153	0xbc8517c7	-0.01624669
154	0x3b27f2c0	0.0025626868
155	0xbb225fce	-0.0024776342
156	0xbc3503c9	-0.011048266
157	0x3abcdc9e	0.0014409011
158	0xbf20a2db	-0.627485
159	0x3b5317e4	0.0032210285
160	0xbf005135	-0.5012391
161	0x3c71fc3a	0.014769608
162	0xbbb673e4	-0.0055680145
163	0x39c43480	0.0003742315
164	0xb98f6200	-0.000273481
165	0x3c824e01	0.015906336
166	0xb9e01ee0	-0.00042747613
167	0x399075a4	0.0002755347
168	0xbf93f582	-1.1559298
169	0x3bbd5ec8	0.005779121
170	0x3b311f3a	0.002702667
171	0xbaf17a00	-0.00184232
172	0xbb9a9af6	-0.00471818
173	0x3dfbb699	0.12290687
174	0x3bd7a2f4	0.006580705
175	0xbc1d75cd	-0.009610605
176	0x3f20ea53	0.6285755
177	0xbc3be003	-0.011466983
178	0xbebeb6fa	-0.37248975
179	0x3b44efae	0.0030050087
180	0xbec525b7	-0.38505337
181	0x3e996c20	0.29965305
182	0xbc5c4e8e	-0.013446463
183	0xbaceecc8	-0.0015787119
184	0x39457b20	0.00018833252
185	0x3b62eca8	0.0034625921
186	0xbbc2a6ec	-0.005940309
187	0x3b8e31fb	0.004339454
188	0xbb23b9e8	-0.0024982635
189	0xbbf665b0	-0.0075194463
190	0x3b9aac18	0.004720222
191	0xbbe69d48	-0.0070377924
192	0xb9a18a00	-0.0003081113
193	0x3c5e31a9	0.013561645
194	0xbb10d87a	-0.0022101686
195	0xbb1ad824	-0.0023627365
196	0xbbe4dcee	-0.0069843447
197	0xbf17f6b0	-0.5936079
198	0x3ba8cc58	0.005151313
199	0x3d4c6530	0.049901187
200	0xbdde4a12	-0.108539715
201	0x3c28137e	0.010258554
202	0xbbc19c72	-0.0059085423
203	0x3c306c5e	0.010768024
204	0xbb4c7628	-0.0031198356
205	0x3a7a9020	0.00095582195
206	0x3c42e3f8	0.011895172
207	0xbabb9334	-0.0014310838
208	0x3eb7560b	0.35807833
209	0xbc32310a	-0.01087595
210	0x3f1064e7	0.56403965
211	0xbc562e36	-0.013072541
212	0x3bbef964	0.0058280695
213	0x3a935474	0.0011240379
214	0x3c258034	0.010101367
215	0xbc772cc2	-0.015086355
216	0xbbca8978	-0.0061809383
217	0xbc0822ae	-0.0083090495
218	0xbe1da3ab	-0.15394466
219	0xbb72ce20	-0.003704913
220	0xb9b6e960	-0.00034887623
221	0x3c8028f0	0.01564452
222	0xbc3ee4d1	-0.011651234
223	0x3f290d16	0.6603559
224	0xbb9c830a	-0.0047763633
225	0x3c3da571	0.011575089
226	0x3f0447ba	0.51671946
227	0x3c3eb6bc	0.011640247
228	0xbf5a6abf	-0.8531913
229	0xbad15838	-0.0015971726
230	0x3f30eec1	0.6911431
231	0xbd2c4633	-0.042059135
232	0x3bd669a4	0.006543355
233	0x3ab99590	0.0014158953
234	0x3bb1c6d8	0.0054253154
235	0xbbb5dc0c	-0.0055499133
236	0x3c328b4e	0.010897471
237	0xbc098858	-0.008394323
238	0x3c4c7d16	0.012480995
239	0x3c3c2f36	0.011485865
240	0x3a99ca0c	0.0011733188
241	0x3c1d691c	0.00960758
242	0x3c473daa	0.012160698
243	0xbc5fec18	-0.013667129
244	0xbb9ae144	-0.004726561
245	0x3a66ba60	0.0008801576
246	0x3c187192	0.009304421
247	0x3e3bd47a	0.18342772
248	0xbc8f0a86	-0.017461073
249	0xbdcfce27	-0.10146742
250	0xbe539753	-0.20663194
251	0xba856ea8	-0.0010180073
252	0xbc5fa008	-0.013648994
253	0x3c380b15	0.011233111
254	0xbc332875	-0.010934939
255	0xbab6cca8	-0.001394649

layers_mu.0.bias f4 [10]
0	0x3c1195e2	0.0088858325
1	0x3cef2b02	0.029195312
2	0xbc0f4e24	-0.0087466575
3	0xbc64c0a2	-0.013961943
4	0x3d1e3702	0.03862668
5	0x3ca49210	0.02008918
6	0x3d5f7887	0.054558303
7	0xbb8db5ca	-0.0043246495
8	0x3d171f38	0.036895007
9	0x3cd363c1	0.025804402

layers_mu.1.weight f4 [10, 10]
0	0x3e387511	0.18013407
1	0xbe4f5a39	-0.20249261
2	0x3dd5c334	0.10437623
3	0xbe00be85	-0.12572677
4	0x3c88ae70	0.01668474
5	0xbdb284b8	-0.0871672
6	0xbdd8781b	-0.10569783
7	0x3e55331e	0.20820281
8	0x3dbc5446	0.091957614
9	0xbe8849b5	-0.26618734
10	0xbc3aa6f8	-0.0113923475
11	0x3e0b8d2a	0.13628069
12	0x3e5a0591	0.21291186
13	0xbdd235ac	-0.10264143
14	0xbd94a630	-0.0725826
15	0xbe99adc4	-0.30015385
16	0xbe000acf	-0.12504123
17	0x3c96ea65	0.018422315
18	0xbe0a8276	-0.1352633
19	0x3deeb766	0.11656074
20	0xbe1d63b5	-0.15370066
21	0xbe767bd5	-0.24070676
22	0x3e800737	0.25005504
23	0x3dd898f9	0.10576052
24	0x3d221a34	0.03957577
25	0xbc2c5311	-0.010517851
26	0x3c42693c	0.01186591
27	0xbe5bf4c6	-0.21480092
28	0xbddc66f7	-0.107618265
29	0xbe058a5a	-0.13041058
30	0x3e8d2dc8	0.2757399
31	0xbd9ad6bc	-0.075604886
32	0x3ce27600	0.027644157
33	0x3dc0ca4b	0.09413584
34	0xbe9e9153	-0.3097025
35	0x3dbf1ab0	0.09331262
36	0x3c4dc89c	0.012560036
37	0xbd1325e3	-0.035924803
38	0xbe55038a	-0.20802131
39	0x3d99cff1	0.07510365
40	0xbd426918	-0.047463506
41	0xbe1436b0	-0.14473987
42	0x3b303154	0.002688487
43	0x3e71c828	0.2361151
44	0xbe101ab4	-0.14072686
45	0xbdf05652	-0.11735214
46	0xbe72c377	-0.23707376
47	0x3d2835e2	0.04106701
48	0x3e7dec07	0.24797069
49	0x3e041b76	0.129011
50	0xbe2c26a4	-0.16811615
51	0xbe68bba0	-0.22727823
52	0xbe31ab55	-0.17350514
53	0xbe918f05	-0.28429428
54	0xbe148c88	-0.14506733
55	0xbd29e7ac	-0.041480705
56	0xbe02be17	-0.12767826
57	0xbd12ae13	-0.03581054
58	0xbd874c80	-0.06606388
59	0x3daed3ee	0.08536516
60	0xbd38dc4c	-0.045131966
61	0x3df74df3	0.120754145
62	0xbe562f2c	-0.20916432
63	0x3ddf4f08	0.10903746
64	0xbe025445	-0.12727459
65	0xbe054672	-0.13015154
66	0xbe2a4316	-0.16627154
67	0xbe32d38d	-0.17463513
68	0xbd797c69	-0.060909662
69	0xbe8fec3c	-0.2810992
70	0xbe835625	-0.2565166
71	0x3d8d5d93	0.069026135
72	0x3e07deb2	0.13268545
73	0x3c3206f2	0.010865914
74	0xbe4587a2	-0.19290021
75	0x3e78a2ae	0.24280807
76	0xbe0484c4	-0.12941271
77	0x3e6617c9	0.22470011
78	0xbdcf115c	-0.10110733
79	0xbde8afe0	-0.113616705
80	0x3e18afd1	0.14910819
81	0x3d8fe618	0.07026309
82	0x3de53464	0.11191633
83	0xbda23687	-0.079205565
84	0x3e110464	0.14161831
85	0x3e4e6e46	0.20159253
86	0xbeb4591d	-0.35224238
87	0xbe1cf7f4	-0.15328962
88	0x3cd3d79e	0.02585965
89	0x3cae54e3	0.021280712
90	0x3d07320e	0.03300672
91	0xbe0977a8	-0.13424551
92	0xbdd980aa	-0.10620244
93	0x3e1c73fe	0.15278623
94	0x3e799bdc	0.24375862
95	0xbe0001fa	-0.12500754
96	0xbe3fd3e0	-0.18733168
97	0x3e1c0986	0.15238008
98	0xbe8c4f2f	-0.27404162
99	0x3d94cc52	0.072655335

layers_mu.1.bias f4 [10]
0	0xbd49a216	-0.049226843
1	0xbd1e636b	-0.03866903
2	0xbd1533bc	-0.03642629
3	0xbd1180f4	-0.03552337
4	0xbd38e60b	-0.04514126
5	0xbd43b473	-0.04777951
6	0xbd39cf43	-0.045363676
7	0xbd04ae48	-0.03239277
8	0xbd01418c	-0.03155665
9	0xbd12ba25	-0.035822053

layers_mu.3.weight f4 [50, 10]
0	0xc0159f96	-2.3378654
1	0x3f3e0d1f	0.7423877
2	0xbfe902c3	-1.8203968
3	0x3f837adb	1.0271868
4	0x3dea5cc1	0.11443473
5	0x3f94edc0	1.1635056
6	0xbf6eef1e	-0.93333614
7	0xbf66759e	-0.9002322
8	0xbed683cf	-0.41897437
9	0x3fae3f5e	1.3613088
10	0xbeac25ea	-0.33622676
11	0xbd2c06aa	-0.041998543
12	0xbf006902	-0.5016023
13	0xbeffac23	-0.49936017
14	0x3f33be2d	0.7021206
15	0x3d889a6e	0.0667008
16	0x3ebe5768	0.3717606
17	0xbda79548	-0.0818277
18	0x3f3b1720	0.7308216
19	0xbec28938	-0.37995315
20	0xbf2e8ca7	-0.6818337
21	0xbee1aea1	-0.44078544
22	0xbd42c4ef	-0.04755109
23	0xbe0c5dc5	-0.13707645
24	0xbe5c4f4b	-0.21514623
25	0x3e4d3226	0.20038661
26	0x3ecb815d	0.39747134
27	0x3ceb6d82	0.02873874
28	0x3f39155a	0.72298205
29	0x3d87a239	0.066227384
30	0x3f247cfd	0.64253217
31	0xbe9dd26b	-0.308246
32	0xbeab931c	-0.33510673
33	0xbf0a7c0c	-0.5409553
34	0xbe17a1b6	-0.14807782
35	0x3f30a5fe	0.69003284
36	0xbf3815d9	-0.71908337
37	0x3e0e893d	0.1391954
38	0xbd29366b	-0.041311663
39	0xbe75d8e5	-0.2400852
40	0xbe8c2613	-0.27372798
41	0xbd1d5b00	-0.038416862
42	0x3ead5320	0.33852482
43	0xbf114682	-0.5674821
44	0xbe12059b	-0.14259951
45	0x3dbe093e	0.092791066
46	0xbeb19450	-0.34683466
47	0x3c7d64a0	0.015465885
48	0x3b1b382c	0.0023684604
49	0xbcf9d588	-0.030497327
50	0x3ec40c21	0.38290504
51	0xbe465289	-0.19367422
52	0x3ef0434a	0.46926337
53	0x3eef0794	0.4668547
54	0x3eb8e1c0	0.36109734
55	0x3f209e54	0.6274159
56	0xbeb26f6c	-0.34850633
57	0xbe4c8b97	-0.19975124
58	0xbeacee69	-0.33775643
59	0xbe0dffa5	-0.13867052
60	0xbe6d97a0	-0.23202372
61	0x3ede5d0b	0.4343036
62	0xbe91cd52	-0.2847696
63	0xbf4e1711	-0.80503947
64	0xbe0766aa	-0.13222757
65	0x3da708cf	0.08155977
66	0xbedb0861	-0.4277983
67	0xbf4b3e49	-0.79391915
68	0x3f65a55a	0.8970543
69	0xbe225c8e	-0.1585562
70	0xbcaaf5f2	-0.020869229
71	0xbedd09df	-0.43171594
72	0x3efe2dd1	0.4964433
73	0xbe2cd2be	-0.16877267
74	0xbd84f8e3	-0.06492784
75	0x3e8a95da	0.27067453
76	0x3dc408ce	0.09571992
77	0xbe632d5b	-0.2218527
78	0x3e289270	0.16462111
79	0x3f082110	0.5317545
80	0x401d9ae8	2.4625797
81	0x400418a8	2.064005
82	0xc00413d2	-2.0637097
83	0xbe578a47	-0.21048842
84	0xc0232c4c	-2.5495787
85	0xbf1d5a44	-0.6146586
86	0x3ff638c7	1.9236077
87	0xbfb11f15	-1.383761
88	0x3f421153	0.75807685
89	0x3fc5929e	1.5435369
90	0xbd335b68	-0.043788344
91	0x3f24aabb	0.64323014
92	0x3ef351f7	0.47523472
93	0x3e646df2	0.22307566
94	0x3eded710	0.43523455
95	0x3e4a3998	0.19748533
96	0xbde7a920	-0.11311555
97	0xbcb7e534	-0.02244816
98	0xbecfa0a4	-0.40552247
99	0xbf329a16	-0.69766366
100	0xbeb3acbd	-0.35092726
101	0x3fda3e43	1.7050251
102	0x3fcc1dcd	1.5946594
103	0xc0142e0e	-2.315311
104	0xc0180df3	-2.3758514
105	0xbb8da34c	-0.004322445
106	0xc005eb86	-2.0925002
107	0x3f90466c	1.1271491
108	0xbfdd0c1d	-1.7269322
109	0x3f4dbc97	0.8036589
110	0xbefc025a	-0.49220544
111	0xbe2dca2c	-0.16971654
112	0x3f13461e	0.57528865
113	0x3e583bc1	0.21116544
114	0xbde0881c	-0.10963461
115	0xbe6375ba	-0.22212878
116	0x3c0e48d0	0.008684352
117	0x3f2a2997	0.6646971
118	0x3e47c7a3	0.19509749
119	0x3e4af615	0.19820435
120	0xbecdd47a	-0.4020117
121	0x3d8dc90b	0.069231115
122	0xbed0c6c7	-0.40776655
123	0x3e7a8d98	0.24468076
124	0xbf08dbd6	-0.53460443
125	0x3eac14c3	0.3360959
126	0x3e217b91	0.15769793
127	0xbf40b5a1	-0.75277144
128	0xbd9e066f	-0.07716071
129	0x3e662492	0.22474888
130	0xbec55dc9	-0.38548115
131	0xbed470f1	-0.41492417
132	0xbe7b6c54	-0.24553043
133	0xbe6bceca	-0.23028103
134	0xbea4d46a	-0.3219331
135	0x3e6fd8a5	0.23422487
136	0xbebc3b5d	-0.3676404
137	0xbe7857c5	-0.24252231
138	0x3e98dd0f	0.29856154
139	0x3eac7c1a	0.33688432
140	0xbe0d5049	-0.13800158
141	0x3e8abe7a	0.27098447
142	0x3eb19590	0.3468442
143	0xbed8150d	-0.4220356
144	0x3e1618cf	0.14657901
145	0x3ea8b2b5	0.32948843
146	0xbea69970	-0.3253894
147	0xbf4a7219	-0.7908035
148	0x3e5c0f0e	0.21490118
149	0x3f15dd58	0.5854087
150	0xbeb0964b	-0.34489664
151	0xbe02fbf2	-0.12791422
152	0xbd823117	-0.063570194
153	0x3df58c84	0.11989692
154	0xbca8fcfd	-0.020628447
155	0xbe47e286	-0.19520006
156	0x3d99c445	0.075081386
157	0x3f35e4d1	0.7105227
158	0xbe83571e	-0.25652403
159	0x3d6d36fc	0.057913765
160	0x3db45a5e	0.08806299
161	0x3e3c2d09	0.18376555
162	0x3d3e4393	0.046451163
163	0xbaa137a0	-0.0012299903
164	0xbe6da570	-0.2320764
165	0xbd52d30d	-0.051470805
166	0xbd52626e	-0.0513634
167	0x3effab85	0.49935547
168	0x3eef0a0a	0.46687347
169	0xbec35b41	-0.3815556
170	0xbe8f2592	-0.2795835
171	0xbf19ef7b	-0.60131043
172	0x3d35c909	0.044381175
173	0x3e31810f	0.17334388
174	0xbca940ee	-0.020660844
175	0xbe7fd6bf	-0.24984263
176	0xbe86563f	-0.26237676
177	0x3e1660ce	0.14685366
178	0x3ebcd7f0	0.36883497
179	0xbddc8ea5	-0.10769395
180	0xbf9cba2f	-1.2244319
181	0x3ea41202	0.3204499
182	0xbd378c94	-0.0448118
183	0xbd7e859a	-0.06213913
184	0xc0053398	-2.081274
185	0x3fd365b7	1.6515416
186	0xbdc17d58	-0.094477355
187	0xbf1a9c37	-0.60394615
188	0x40233a76	2.5504432
189	0xc053ef14	-3.3114672
190	0xbea29ea4	-0.31761658
191	0xbe0b8f80	-0.1362896
192	0xbb710614	-0.0036777304
193	0xbe80b380	-0.25136948
194	0xbf1e350e	-0.61799705
195	0x3d9cfc1c	0.076652735
196	0x3ee6835c	0.45022094
197	0x3cfdcb72	0.0309808
198	0xbe1ddef4	-0.15417081
199	0xbe768bae	-0.24076721
200	0xbd4ae08e	-0.04953056
201	0x3ef1f286	0.47255343
202	0xbe8868c8	-0.26642442
203	0x39981f40	0.00029014982
204	0x3e01193c	0.12607282
205	0x3ebb3a50	0.36567926
206	0x3e97a16c	0.29615343
207	0x3dead250	0.11465895
208	0xbeea3e1c	-0.4575051
209	0x3e36e81f	0.17861985
210	0x3e802b62	0.25033098
211	0xbdd85fd7	-0.10565155
212	0x3e9ced5c	0.3064984
213	0xbe931281	-0.28725055
214	0xbd2c3420	-0.042041898
215	0xbee06f49	-0.43834904
216	0x3e72b887	0.23703204
217	0xbf7a52ae	-0.9778241
218	0xbe9d1283	-0.30678186
219	0x3da55420	0.08072686
220	0xbd28e130	-0.04123038
221	0x3c2050a0	0.0097848475
222	0x3c2c42f7	0.010514013
223	0x3e780dcd	0.24224015
224	0xbe2a7e5b	-0.16649763
225	0x3f44fc9b	0.76947945
226	0xbea2b3be	-0.31777757
227	0x3e33c5fc	0.17555994
228	0x3e47667f	0.19472693
229	0xbf1f7ac2	-0.6229669
230	0x3eba8b5a	0.36434442
231	0xbfeb504a	-1.8383877
232	0xbfda97cd	-1.7077576
233	0xbfac0d9d	-1.3441654
234	0xbd0a10d6	-0.033707462
235	0xbfe598df	-1.7937278
236	0xbf710d0e	-0.94160545
237	0xc0216a3b	-2.5221088
238	0xbf5b5e97	-0.8569121
239	0xbf868f39	-1.0512458
240	0xbc4ada44	-0.01238114
241	0xbe49d99e	-0.1971192
242	0x3ece1ab3	0.40254745
243	0xbead1c32	-0.33810574
244	0xbe72afd8	-0.23699892
245	0x3cd0fe16	0.025511783
246	0x3e87949b	0.26480564
247	0x3dc3d66b	0.09562381
248	0x3e40df60	0.18835211
249	0x3da8fb5b	0.08251067
250	0x3e21903a	0.15777674
251	0x3e7d61d2	0.24744347
252	0x3ec3c8a4	0.38239014
253	0xbebb2afb	-0.3655623
254	0xbe6cf102	-0.23138812
255	0x3e3101ac	0.17285794

layers_mu.3.bias f4 [50]
0	0x3f797647	0.974461
1	0x3c9cd434	0.019144155
2	0x3dbf1204	0.09329608
3	0x3ecccd1d	0.4000024
4	0x3ee040af	0.4379935
5	0xbf0b29e8	-0.5436082
6	0x3f356afd	0.70866376
7	0xbeab2a2b	-0.3343061
8	0xbf74d6d3	-0.95640296
9	0xbebc1240	-0.36732674
10	0x3fdf465f	1.744335
11	0xbecdaf24	-0.40172684
12	0x3f13fe9f	0.57810396
13	0x3f2a4b99	0.665216
14	0xbdf647d8	-0.12025422
15	0x3d621188	0.0551925
16	0xbe78ec89	-0.24308981
17	0x3ec82157	0.39087936
18	0x3fbe2013	1.4853538
19	0x3f03b4ba	0.5144764
20	0xbed0f3b1	-0.40810922
21	0x3f16447c	0.5869825
22	0xbd9e04d5	-0.077157654
23	0x40b6f4a8	5.7173653
24	0xbe1b9855	-0.15194829
25	0xbee8a5f7	-0.4543912
26	0x3e88419b	0.26612553
27	0xbd9cfa08	-0.07664877
28	0x3d60c2bd	0.054873217
29	0x3ee03b33	0.43795165
30	0x3b3aa9d6	0.0028482578
31	0x3e22feda	0.1591753
32	0xbf4b41c2	-0.79397213
33	0x3e2317e0	0.15927076
34	0x3b997ba0	0.0046839267
35	0x3d6243d6	0.055240475
36	0x3d4dd2ee	0.050249986
37	0x3dc85d6d	0.097834446
38	0x3e8c1b79	0.2736471
39	0x3f0eda90	0.5580225
40	0x3ef3ec52	0.47641236
41	0xbe3a48b3	-0.18191795
42	0x3ea56466	0.3230316
43	0xbe41b0d8	-0.18915117
44	0x3d9e1ed5	0.077207245
45	0xbea0735e	-0.31338018
46	0x3eab7e33	0.3349472
47	0xbf8c1220	-1.0943031
48	0xbebe2482	-0.37137228
49	0x3f795604	0.97396874

layers_sigma.0.weight f4 [10, 50]
0	0x3e57bd1f	0.21068238
1	0x3ea03b57	0.31295273
2	0xbdfe3a13	-0.124134205
3	0xbe1c2f5e	-0.15252444
4	0xbeed303a	-0.46325856
5	0x3dbaea5f	0.09126734
6	0xbe67f789	-0.22653021
7	0xbd9d1b5c	-0.07671234
8	0x3f0d8c8e	0.55292594
9	0xbd8ef8ba	-0.069810346
10	0x3ebb7111	0.366097
11	0xbdc96def	-0.09835421
12	0xc01be186	-2.4356399
13	0x3d06ed5a	0.0329412
14	0x3ee16c29	0.44027832
15	0x3c39c920	0.011339456
16	0xbd1c210a	-0.038117446
17	0xbf01ee71	-0.5075446
18	0x3e2cf3c0	0.16889858
19	0xbe9d2a97	-0.30696556
20	0xbe81be14	-0.2534033
21	0xbe189214	-0.14899474
22	0xbe3d2ba1	-0.18473674
23	0xbeccd236	-0.40004128
24	0xbea4ab55	-0.32161966
25	0xbe4bfd1b	-0.19920771
26	0x3f5bb2d8	0.8581977
27	0xbdc16641	-0.094433315
28	0x3f13d204	0.57742333
29	0xbf3e1aaf	-0.74259466
30	0x3ee00638	0.43754745
31	0x3e936b8d	0.28792992
32	0x3ec0ec42	0.3768025
33	0x3f02b815	0.51062137
34	0x3ed45895	0.41473833
35	0xbed9d599	-0.42545775
36	0x3e9461ab	0.28980765
37	0x3b8194e8	0.0039545186
38	0x3d9e2276	0.07721417
39	0xbdbdb5fc	-0.092632264
40	0xbf528d61	-0.8224698
41	0x3cfff39e	0.031244095
42	0xbe9ae824	-0.30255234
43	0x3ee07210	0.43837023
44	0xbcd1588a	-0.025554914
45	0x3e28ec91	0.16496493
46	0x3ebe70cb	0.3719543
47	0x3e78e572	0.24306276
48	0xbecea593	-0.40360698
49	0x3e60c25f	0.21949147
50	0xbf4f0a3e	-0.80875003
51	0x3ed094a2	0.40738398
52	0xbe7d88b8	-0.24759185
53	0xbea4aa00	-0.3216095
54	0xbf04e68d	-0.5191429
55	0x3e315059	0.17315806
56	0xbeb88e62	-0.3604613
57	0x3e3a771a	0.18209496
58	0x3e74d48a	0.23909202
59	0xbdd3f1ae	-0.10348831
60	0x3e521e57	0.20519386
61	0xbe4ea907	-0.20181666
62	0x4032e867	2.7954347
63	0xbda0a158	-0.07843274
64	0x3f096cb0	0.5368147
65	0xbe0a1d5a	-0.13487759
66	0xbda16da1	-0.07882238
67	0xbf36f51d	-0.71467763
68	0xbdde6fc6	-0.10861163
69	0xbe816a79	-0.25276545
70	0xbedaeb3a	-0.4275759
71	0xbeb86807	-0.36016867
72	0xbe8e4ba6	-0.2779209
73	0xbfb5663d	-1.4171826
74	0xbf0bb5be	-0.5457419
75	0xbd766488	-0.060154468
76	0x3e8ebcc1	0.27878383
77	0xbe20f9be	-0.15720269
78	0x3e0c5d86	0.13707551
79	0x3edf9e66	0.43675536
80	0x3edcab33	0.43099365
81	0x3eb9438f	0.36184356
82	0x3ecd44d2	0.40091568
83	0x3f2a960c	0.66635203
84	0x3f10a708	0.5650487
85	0xbf064840	-0.52453995
86	0x3e924cf2	0.2857433
87	0xbe04f305	-0.1298333
88	0x3e80a537	0.2512605
89	0xba4166d0	-0.0007377686
90	0x3eaf2212	0.3420568
91	0x3d92fc6a	0.071770504
92	0xbdec1aa8	-0.11528522
93	0x3f08989f	0.5335788
94	0xbde1339b	-0.10996171
95	0x3e115386	0.14192018
96	0x3f190f18	0.59788656
97	0x3e95535a	0.29165155
98	0xbed892d5	-0.42299524
99	0xbf56e233	-0.839389
100	0xbf0f4f20	-0.5598011
101	0x3c8e8c26	0.017400812
102	0xbe481b00	-0.1954155
103	0xbe41bc0a	-0.18919387
104	0xbce0a158	-0.027420685
105	0x3e8f3057	0.27966568
106	0xbe3573e9	-0.17719997
107	0x3ed941bf	0.42432973
108	0x3e0fc272	0.14039019
109	0xbb89995a	-0.004199189
110	0x3e752fe2	0.23944047
111	0xbd738880	-0.05945635
112	0xbe57ea54	-0.21085483
113	0xbde30b9e	-0.110862
114	0xbdff04ba	-0.124520734
115	0xbdad5bd2	-0.08464779
116	0xbd9453dc	-0.072425574
117	0xbc7bb694	-0.015363354
118	0xbe4eb4b5	-0.20186122
119	0x3e6477b1	0.22311284
120	0xbdeb5ed2	-0.11492695
121	0xbeb78119	-0.3584068
122	0x3e27d7ac	0.16390866
123	0xbf6d50e0	-0.9270153
124	0xbe388528	-0.18019545
125	0x3e49d362	0.19709542
126	0xbcb671d4	-0.022271074
127	0x3c7d5e30	0.015464351
128	0x3f0bde41	0.5463601
129	0xc0156b47	-2.3346727
130	0xbe4d5250	-0.20050931
131	0x3e31aa0f	0.17350028
132	0x3d150485	0.036381263
133	0xbd7c33fb	-0.06157301
134	0x3d9704b8	0.07373947
135	0x3e28ed6d	0.16496821
136	0xbe425afa	-0.18980017
137	0xbe0f3ac0	-0.13987255
138	0x3df2f9aa	0.11864026
139	0x3db42cd2	0.08797611
140	0x3f8fdca2	1.1239207
141	0x3c7c1066	0.015384769
142	0x3e79feee	0.24413654
143	0x3c36bc28	0.011153258
144	0xbdc64f30	-0.096830726
145	0xbdad1ab7	-0.08452361
146	0x3ed0c3db	0.40774426
147	0xbd6ab0d2	-0.057297535
148	0xbe24cb5a	-0.16093197
149	0xbf081024	-0.5314963
150	0x3d9bbf9e	0.076049075
151	0x3d827da3	0.063716196
152	0xbd4de2da	-0.05026517
153	0xbb89b220	-0.0042021424
154	0xbd4a129a	-0.049334146
155	0x3cb80f5d	0.022468263
156	0xbd472b0f	-0.04862505
157	0xbc984c07	-0.01859094
158	0x3e63d3dc	0.22248787
159	0xbce41de4	-0.027846284
160	0xbe62ef3f	-0.22161578
161	0x3d0c2590	0.03421551
162	0xbde20723	-0.110365175
163	0xbe065e1e	-0.1312184
164	0xbdcdf342	-0.10056163
165	0x3d75f2f3	0.060046148
166	0x3e1b5dd6	0.15172514
167	0xbd2ad1e0	-0.04170406
168	0xbd501ec4	-0.05081059
169	0xbd0e6ace	-0.034769826
170	0x3d4a0099	0.049316976
171	0xbdf20567	-0.11817437
172	0x3d94212c	0.072328895
173	0xbe372064	-0.1788345
174	0x3c743764	0.014905784
175	0x3ce46797	0.027881427
176	0xbec93cfc	-0.3930434
177	0xbd0e6880	-0.034767628
178	0x3d76518d	0.060136367
179	0xbcab237f	-0.02089095
180	0x3d84a008	0.06475836
181	0xbd724f95	-0.059157927
182	0x3dbc983e	0.092087254
183	0xbce86f64	-0.028373428
184	0x3ddcb7cb	0.10777243
185	0xbcce9d4a	-0.025221486
186	0xbd16e5f3	-0.03684039
187	0xbd801274	-0.0625352
188	0xba8bbac0	-0.0010660514
189	0xbcba80bd	-0.022766465
190	0xbd92bf0f	-0.07165348
191	0x3d9cc77c	0.07655236
192	0x3d059a25	0.032617707
193	0x3b38990c	0.0028167395
194	0xbd5c9bee	-0.053859644
195	0xbd961d05	-0.07329754
196	0xbcdf5730	-0.027263254
197	0xbde8d94f	-0.11369573
198	0x3d50136a	0.050799765
199	0x398d3080	0.0002692975
200	0x3f077d8b	0.5292594
201	0x3e6c0e8f	0.23052429
202	0x3df55f7b	0.11981102
203	0x3e7555cf	0.23958515
204	0xbec5b842	-0.3861714
205	0xbcdaf507	-0.026728166
206	0xbc280cb7	-0.010256938
207	0xbf04f035	-0.51929027
208	0xbdd12054	-0.10211244
209	0x3d0ed150	0.034867585
210	0x3ef12b87	0.4710352
211	0x3cbd7877	0.023128731
212	0x3efc5c6f	0.4928927
213	0x3dfca304	0.1233578
214	0x3ead4917	0.33844826
215	0x3dbac6c7	0.09119945
216	0x3d1fc8bc	0.039009795
217	0xbe995ba8	-0.2995274
218	0x3e65b668	0.22432864
219	0xbefe9f49	-0.497309
220	0xbda25e9f	-0.07928204
221	0x3e8eb41f	0.27871796
222	0xbe1646ad	-0.14675398
223	0x3e0ee7c4	0.13955599
224	0xbcdaf0ba	-0.026726115
225	0xbe93fa16	-0.28901738
226	0x3f3e5b2b	0.7435786
227	0xbdae0ea1	-0.08498884
228	0x3e389dec	0.18028992
229	0xbf518cfa	-0.8185574
230	0x3d66f46d	0.056385446
231	0xbd0cd074	-0.034378484
232	0x3e9f1161	0.31067947
233	0x3e993ba6	0.2992832
234	0x3da199c8	0.078906596
235	0xbef0c3f5	-0.47024503
236	0x3eedced2	0.46446854
237	0x3e316ef7	0.17327486
238	0xbe09207c	-0.13391298
239	0xbe8c3538	-0.27384353
240	0x4013fef0	2.3124352
241	0xbce00c9d	-0.027349764
242	0xbf014243	-0.5049173
243	0x3eac645e	0.33670324
244	0x3decd03c	0.11563155
245	0x3e286d43	0.1644793
246	0xbdff9393	-0.124793194
247	0x3e1f5446	0.15559492
248	0xbec996c1	-0.3937283
249	0x3eeb6e61	0.4598265
250	0xbd23fb9e	-0.040034883
251	0x3eb037d8	0.34417605
252	0xbe198df1	-0.14995553
253	0xbe411a50	-0.18857694
254	0xbf0f1271	-0.55887514
255	0x3ea3e25d	0.3200864

layers_sigma.0.bias f4 [10]
0	0x3e81cc47	0.25351164
1	0xbd2ce6dd	-0.042212356
2	0xbcb8208a	-0.022476453
3	0xbced3f64	-0.028960891
4	0xbeb11736	-0.3458802
5	0xbf932b1b	-1.149753
6	0x3c0abe2a	0.00846819
7	0x3b719ab9	0.0036865904
8	0x3d5583b7	0.052127566
9	0x3e13e17b	0.14441483

layers_sigma.1.weight f4 [10, 10]
0	0x3e0aff98	0.13574064
1	0x3d3091ed	0.043107916
2	0xbe823d1f	-0.25437257
3	0x3b79f2d8	0.003813913
4	0x3ecede86	0.40404147
5	0x3a938940	0.0011256114
6	0x3e36ba8d	0.17844601
7	0x3d7e17c4	0.062034383
8	0xbc5ff689	-0.013669618
9	0xbe97e886	-0.2966959
10	0x3c6e9a7a	0.014563197
11	0x3ea425ae	0.32059997
12	0x3eb79bbb	0.35861
13	0x3cbb1682	0.022837881
14	0xbeb411ac	-0.35169733
15	0x3e21f251	0.15815093
16	0x3d55982c	0.052147076
17	0xbd083234	-0.033251002
18	0x3c697db2	0.0142511595
19	0x3ea04a9e	0.31306928
20	0x3e9247d3	0.28570423
21	0xbcc0fe39	-0.023558723
22	0xbf116167	-0.5678925
23	0x3cb60e87	0.022223724
24	0xbf4c1d63	-0.7973234
25	0x3efcd771	0.4938312
26	0xbecafc92	-0.3964582
27	0x3e8e4e95	0.27794328
28	0xbcfd9528	-0.030954912
29	0xbf4cfd24	-0.8007376
30	0xbf457daa	-0.77144873
31	0x3f174754	0.59093213
32	0xbdbdba79	-0.092640825
33	0xbcd6f942	-0.026241902
34	0x3dd476d8	0.1037423
35	0x3d9e5162	0.07730366
36	0xbe204cb2	-0.15654257
37	0x3d98d458	0.07462376
38	0xbd01e59a	-0.031713106
39	0xbed86f8d	-0.42272606
40	0x3d02f859	0.031975124
41	0xbe693a9a	-0.22776261
42	0x3dd9c04a	0.10632379
43	0x3d2c6419	0.042087648
44	0xbe311f9a	-0.17297211
45	0xbeeec41e	-0.46634
46	0xbefb00f7	-0.49024174
47	0xbd6679ef	-0.05626863
48	0xbcdd2ee6	-0.026999902
49	0x3eb1764a	0.3466056
50	0xbefcc468	-0.49368596
51	0x3d60f619	0.054922197
52	0xbf2f3d94	-0.68453336
53	0xbb59afce	-0.003321636
54	0xbe81135c	-0.25210083
55	0x3eca8323	0.39553174
56	0x3f056d33	0.5211975
57	0x3cf4d34b	0.029885909
58	0x3dc1fab6	0.094716474
59	0x3f219ac7	0.63126796
60	0x3f043f71	0.51659304
61	0xbd960a0a	-0.073261335
62	0x3f3a2845	0.72717696
63	0xbb8c1b40	-0.0042757094
64	0x3e882d50	0.2659707
65	0xbec5fe79	-0.3867071
66	0xbf0e357d	-0.55550367
67	0xbd06b342	-0.032885797
68	0xbe11e4fd	-0.14247508
69	0xbf2c89ae	-0.6739758
70	0x3f4fa646	0.8111309
71	0xbf2fd750	-0.68687916
72	0x3de2e6ed	0.11079202
73	0xbcf90781	-0.030399086
74	0xbd2bd888	-0.041954547
75	0x3bc5ae2c	0.006032726
76	0x3e1f0bda	0.15531865
77	0xbd96b69d	-0.073590495
78	0xbbe8fda7	-0.007110316
79	0x3edb5af5	0.42842832
80	0x3df26933	0.118364714
81	0xbf5fe2ec	-0.8745563
82	0xbdbe77ed	-0.09300218
83	0x3bb36646	0.0054748384
84	0xbee0bc50	-0.4389367
85	0xbf29dd0c	-0.66352916
86	0x3f525024	0.82153535
87	0xbe212250	-0.15735745
88	0xbc01f533	-0.007931995
89	0xbcb0756c	-0.021540366
90	0x3e5f7c97	0.21824871
91	0xbd28bf96	-0.041198336
92	0xbee02bdc	-0.43783462
93	0xbc337a9e	-0.010954527
94	0xbf17ac52	-0.59247315
95	0x3ecd8e42	0.40147597
96	0xbe983e49	-0.2973502
97	0x3e54e037	0.20788656
98	0xbd675d5d	-0.056485523
99	0xbf1cc3d9	-0.6123634

layers_sigma.1.bias f4 [10]
0	0x3f979731	1.1843015
1	0x3ff5cc36	1.9202945
2	0xbf9fd025	-1.2485396
3	0xbf9a5230	-1.2056332
4	0x3fdc1858	1.7194929
5	0xbf9f223f	-1.2432326
6	0xbffe3f8d	-1.9863144
7	0xc0010fa0	-2.0165787
8	0x3fe98321	1.8243142
9	0x3f8b567c	1.0885768

layers_sigma.3.weight f4 [50, 10]
0	0xbf455bea	-0.77093375
1	0xbf5912ba	-0.847942
2	0x3d0ae9e8	0.033914477
3	0xbe8c73fd	-0.27432242
4	0xbf0f6a6d	-0.5602177
5	0xbda4059e	-0.08008884
6	0xbdae6b3e	-0.085165486
7	0xbdac1b90	-0.08403695
8	0xbe9f460d	-0.31108132
9	0xbe0555bd	-0.13020988
10	0xbef467f4	-0.4773556
11	0xbed17d69	-0.40915993
12	0xbdbfd86a	-0.093674496
13	0x3c971b87	0.018445743
14	0xbedbc9bc	-0.4292735
15	0xbf0a029e	-0.53910244
16	0xbf0686e4	-0.52549577
17	0x3e13ad71	0.14421631
18	0xbe59789c	-0.21237415
19	0x3cfe68d2	0.031055842
20	0x3f1e9a7c	0.61954474
21	0x3f0babde	0.54559124
22	0x3e819b3e	0.25313753
23	0x3eb10476	0.34573716
24	0x3ef51bd9	0.4787281
25	0xbd5cce3a	-0.05390761
26	0xbd2cf1a4	-0.042222634
27	0x3e4ed15b	0.2019705
28	0x3e7dda0b	0.24790208
29	0xbe4a89f3	-0.19779186
30	0xbe52fc94	-0.20604163
31	0xbe135869	-0.14389195
32	0xbc8e07f8	-0.017337784
33	0x3dde61d6	0.108585045
34	0xbe2942f8	-0.16529453
35	0x3d48fab6	0.04906722
36	0x3dad8489	0.08472545
37	0x3d92a51b	0.071603976
38	0x3d8dc362	0.06922032
39	0xbbe900e3	-0.0071107014
40	0xbe3f6bc4	-0.18693453
41	0xbe6a20e1	-0.22864105
42	0xbe3136f0	-0.17306113
43	0xbddae92a	-0.10689004
44	0xbddd9786	-0.108199164
45	0xbd8ac3f0	-0.06775653
46	0xbdab2266	-0.0835617
47	0xbd74285e	-0.05960881
48	0xbddffe98	-0.10937232
49	0x3e14cba5	0.14530809
50	0xbdb901c8	-0.09033543
51	0x3d79f5d8	0.06102547
52	0x3c7af1a2	0.015316399
53	0x3d71742a	0.058948673
54	0xbe149244	-0.14508921
55	0xbe9bcf5e	-0.30431646
56	0xbe65c590	-0.22438645
57	0xbd084bec	-0.03327553
58	0x3e691e84	0.22765547
59	0xbcccc759	-0.0249974
60	0xbe36fc7b	-0.17869751
61	0xbdcf8463	-0.10132673
62	0x3e9b0e12	0.30284172
63	0xbd82813d	-0.063723065
64	0xbe87a354	-0.26491797
65	0xbe55bafc	-0.2087211
66	0xbe14a2b2	-0.14515188
67	0xbda8bde8	-0.08239347
68	0x3dc98866	0.09840469
69	0xbeadc8b4	-0.33942187
70	0xbf34bdec	-0.706023
71	0xbe8541e0	-0.2602682
72	0xbe5b7f3f	-0.2143526
73	0x3e23b680	0.15987587
74	0xbf421994	-0.7582028
75	0xbdbbb73c	-0.091658086
76	0x3d8d832e	0.06909786
77	0x3dc798c8	0.097459376
78	0x3e76136a	0.24030843
79	0x3debc4e7	0.115121655
80	0xbf26f97e	-0.65224445
81	0xbf36424e	-0.7119492
82	0x3dbbc9e1	0.09169365
83	0xbe334686	-0.17507371
84	0xbef35ddd	-0.4753255
85	0xbc1c1146	-0.009525603
86	0xbc8c9c32	-0.017164323
87	0xbce9d934	-0.028545953
88	0xbe5d0a73	-0.21586017
89	0xbda91bfa	-0.08257289
90	0x3e8444ce	0.25833744
91	0x3ed38247	0.4131033
92	0xbdd3b4c4	-0.10337213
93	0x3e6227a2	0.22085431
94	0x3d8f454b	0.069956385
95	0xbd52b845	-0.051445264
96	0x3c78e2b6	0.015190771
97	0x3db5dc26	0.088798806
98	0x3e9a81ac	0.30177057
99	0x3dfa6c5b	0.122276984
100	0xbf2c1f27	-0.67235035
101	0xbf399545	-0.7249339
102	0x3d77a826	0.060463093
103	0xbe529113	-0.20563154
104	0xbef7a8a7	-0.4837086
105	0xbda2b04e	-0.07943784
106	0xbdaef193	-0.085421704
107	0xbd7681cd	-0.06018238
108	0xbe87999a	-0.26484376
109	0xbde58e09	-0.11208732
110	0x3ec0239e	0.37527174
111	0x3e83115d	0.25599185
112	0x3e158fba	0.14605609
113	0xbd93e2f4	-0.07221022
114	0x3eb465a8	0.35233808
115	0xbdc10ffe	-0.094268784
116	0xbdf8552b	-0.121256195
117	0xbdf6e610	-0.120556
118	0x3d84519a	0.06460877
119	0xbdb5b15f	-0.088717215
120	0xbe3251c9	-0.17414011
121	0x3ce1bc78	0.02755569
122	0xbd25f562	-0.04051722
123	0x40907c74	4.515192
124	0xbd603219	-0.054735277
125	0xbd1a9087	-0.03773549
126	0xbd1ee296	-0.038790308
127	0x408dd6fe	4.432494
128	0xbd537d26	-0.051633023
129	0x3cae8ef0	0.021308392
130	0xbe0b9c6b	-0.13633887
131	0xbe50dc37	-0.20396505
132	0x3ed1a7f0	0.4094844
133	0x3ea8d750	0.3297677
134	0xbdf1ae77	-0.11800855
135	0xbec8f83e	-0.39251894
136	0xbec836bb	-0.39104256
137	0x3ea755e7	0.32682726
138	0xbbf33dca	-0.0074231373
139	0xbee1a80d	-0.44073525
140	0xbd54114b	-0.051774304
141	0xbe30e79c	-0.17275852
142	0xbdc610bf	-0.09671163
143	0x3d012540	0.031529665
144	0x3d8f5576	0.06998722
145	0x3e810df0	0.25205946
146	0x3e4a6f6b	0.19769065
147	0x3dcb4090	0.09924424
148	0xbe363338	-0.17792976
149	0x3dadf7fa	0.084945634
150	0xbe9f4ab5	-0.31111684
151	0xbee470cd	-0.4461731
152	0x3b1cd31c	0.0023929542
153	0xbd7953ff	-0.06087112
154	0xbd3df723	-0.046378266
155	0x3e17cae0	0.14823484
156	0x3d928f57	0.07156246
157	0x3d916a0e	0.071003065
158	0xbea8da9a	-0.3297928
159	0xbceaecb2	-0.028677318
160	0xbe064ef0	-0.1311605
161	0xbe4bca30	-0.19901347
162	0x3e49ea34	0.19718248
163	0x3da86619	0.082225986
164	0xbbd80dd7	-0.0065934467
165	0x3ead3101	0.3382645
166	0x3e9e63bd	0.3093547
167	0x3def1c39	0.11675305
168	0xbdc53d63	-0.09630849
169	0xbe4a1796	-0.1973556
170	0xbe35cec7	-0.1775466
171	0xbeda035b	-0.42580685
172	0xbe8a766c	-0.27043474
173	0xbebdae6b	-0.37047133
174	0x3d97d563	0.07413747
175	0x3e8eac67	0.27865908
176	0x3e00c0dd	0.12573572
177	0xbe075fbd	-0.13220115
178	0xbf085dcd	-0.5326813
179	0x3e876099	0.26440886
180	0xbf47ebd8	-0.78094244
181	0xbf464db6	-0.7746233
182	0xbcad6179	-0.021164643
183	0xbe5494ab	-0.20759837
184	0xbf179b1f	-0.5922107
185	0xbd5491ef	-0.051896986
186	0xbcd00a05	-0.025395403
187	0xbd53b881	-0.05168963
188	0xbe8962b6	-0.26833123
189	0xbdb52be4	-0.08846262
190	0xbf792010	-0.9731455
191	0xbfa16882	-1.2610018
192	0x3ea61345	0.32436576
193	0xbee3c5a5	-0.44486728
194	0xbee5aab1	-0.4485679
195	0x3d15f728	0.03661266
196	0xbe0efae6	-0.13962898
197	0xbdc3661d	-0.09540961
198	0xbf40cb8f	-0.75310606
199	0xbed4f3a5	-0.41592136
200	0x3e726bff	0.2367401
201	0x3dacdab3	0.08440151
202	0xbd3458be	-0.044029944
203	0xbda0643d	-0.07831619
204	0x3e87be04	0.26512158
205	0x3bcffced	0.00634729
206	0xbd40e81f	-0.047096368
207	0xbd697d00	-0.057003975
208	0xbd9ed0d5	-0.07754675
209	0x3da4a2aa	0.08038838
210	0x3e9a95a7	0.301923
211	0x3e7c28e1	0.24624969
212	0xbdf95eb0	-0.12176263
213	0x3e8a3e04	0.2700044
214	0x3e839e9e	0.25706953
215	0x3dd6102e	0.10452305
216	0x3dba22ef	0.09088694
217	0x3e4e3e14	0.20140868
218	0x3dc36f74	0.09542742
219	0x3e22436d	0.15846033
220	0x3ed6ca37	0.41951153
221	0x3ea667c4	0.32501042
222	0x3d40993b	0.047021132
223	0x3e0683c1	0.13136198
224	0x3eba2789	0.36358288
225	0xbd26288a	-0.040566005
226	0xbdb9a54d	-0.09064732
227	0x3df6514d	0.12027226
228	0x392f7180	0.00016731583
229	0x3c165b53	0.009177047
230	0xbf3c30d4	-0.73512006
231	0xbf49b401	-0.7879029
232	0x3dd40b27	0.1035369
233	0xbe548350	-0.20753217
234	0xbef968bc	-0.48712718
235	0xbcb6126c	-0.022225581
236	0xbd569530	-0.05238837
237	0xbd902ef9	-0.07040209
238	0xbe85ef93	-0.26159343
239	0xbda9dc46	-0.08293967
240	0xbdfbfde0	-0.12304282
241	0xbe560ab0	-0.20902514
242	0xbd2b0490	-0.041752398
243	0xbe083adb	-0.13303702
244	0xbd953eb2	-0.07287349
245	0x3d8a45ee	0.06751619
246	0x3d16c8c7	0.03681257
247	0xbd2f5bd2	-0.042812176
248	0xbe3f624d	-0.18689843
249	0x3cb2fa4f	0.021847872
250	0xbe93edf8	-0.28892493
251	0x3e4b8a47	0.19876967
252	0xbeaf0843	-0.3418599
253	0x3d1660c9	0.036713395
254	0xbf06aaaa	-0.5260416
255	0x3db340d5	0.087526

layers_sigma.3.bias f4 [50]
0	0xbf131661	-0.5745602
1	0x3fbe6966	1.4875915
2	0xbfb523a2	-1.4151499
3	0x3e14b6aa	0.14522806
4	0x3f03bd3d	0.5146063
5	0x3e20807c	0.15674013
6	0x3f1e1dba	0.6176411
7	0x3f849fcd	1.0361267
8	0xbf429bc8	-0.76018953
9	0xbf8267ba	-1.0187905
10	0xbf5395fb	-0.8265073
11	0xbf1960b2	-0.5991317
12	0xc04eaf5b	-3.2294528
13	0x3f05476e	0.5206212
14	0x3dbc5aa2	0.09196974
15	0x3f1b82b0	0.6074629
16	0x3d656f04	0.056014076
17	0x3f4c7a3a	0.79874
18	0xbf487ba9	-0.7831369
19	0x4034e53c	2.8264914
20	0xbee1ae61	-0.44078353
21	0xbf5daa6d	-0.86588174
22	0xbf6f9955	-0.9359334
23	0xbf1e0d4a	-0.6173903
24	0x3ecdf6d2	0.4022737
25	0xbd1eb969	-0.03875104
26	0xbf2cc0dc	-0.6748178
27	0xbf6b8a69	-0.9200807
28	0xbf30ca9e	-0.6905917
29	0xc05e76ae	-3.4759936
30	0xbf5bad5a	-0.8581139
31	0xbf346f28	-0.7048211
32	0x3f9813af	1.1881007
33	0x3f007a45	0.5018657
34	0xbf856d37	-1.0423955
35	0xbd3efe07	-0.046628978
36	0x3decd97c	0.11564919
37	0xbea66e42	-0.32505995
38	0xbed2f66c	-0.4120363
39	0xbf165d9e	-0.587366
40	0x3f838c3b	1.027717
41	0xbe3d0259	-0.18457927
42	0x3e6d61c6	0.23181829
43	0x3f454fbb	0.77074784
44	0x3f3131c4	0.6921656
45	0x3e2b7194	0.16742545
46	0x3f798f1f	0.9748401
47	0xbf577ebd	-0.8417776
48	0x3e3554d6	0.17708144
49	0xbefe72ab	-0.4969686

square_avg f4 [10, 50]
0	0x40122ae2	2.2838674
1	0x3efaa763	0.4895583
2	0x3e900b12	0.28133446
3	0x3edfd03d	0.4371356
4	0x3e83d3bc	0.25747478
5	0x3ec2e2b0	0.38063574
6	0x3f213552	0.62971985
7	0x3ec3147c	0.38101566
8	0x40182990	2.3775368
9	0x3ec26fe8	0.37976003
10	0x3f842e78	1.0326681
11	0x3f0426fe	0.51622
12	0x3edb8efe	0.42882532
13	0x3ed43679	0.4144781
14	0x3f3aa7ab	0.7291209
15	0x3ea387e1	0.31939605
16	0x3ef2b91c	0.47406852
17	0x3ed486f2	0.41509205
18	0x3f9d8632	1.2306578
19	0x3ed60ae2	0.41805178
20	0x3ea54811	0.32281545
21	0x3f2f6a78	0.68521833
22	0x3eb7edd2	0.3592363
23	0x3fd6d9ba	1.6785195
24	0x3e947689	0.28996685
25	0x3e9d584e	0.30731434
26	0x3ffff3fa	1.9996331
27	0x3ee8db23	0.45479688
28	0x401e1e48	2.4705982
29	0x3ea6be47	0.32567045
30	0x3fd16b90	1.636095
31	0x401f3d4d	2.4881165
32	0x3f66af2e	0.90111053
33	0x3eb18a1d	0.34675685
34	0x3eb894a7	0.36050913
35	0x3e5b5c28	0.21421874
36	0x3eb0c23c	0.3452319
37	0x3eba10b8	0.3634088
38	0x3ea6c079	0.3256872
39	0x3ed8e138	0.42359328
40	0x3e99f11b	0.3006676
41	0x3efb6a00	0.4910431
42	0x3f08fe8c	0.5351341
43	0x3e9cb717	0.30608436
44	0x3e580e5e	0.2109923
45	0x3e7a9c99	0.244738
46	0x3e96ca51	0.2945123
47	0x3fe0c4e2	1.7560084
48	0x3edf101d	0.4356698
49	0x40122ae2	2.2838674
50	0x3fc26a29	1.5188648
51	0x3e59f8d8	0.21286333
52	0x3e5c8fdf	0.21539257
53	0x3e52c1a3	0.20581679
54	0x3e5715ff	0.21004485
55	0x3e706294	0.23475105
56	0x3ebd06a8	0.3691914
57	0x3e8fa633	0.28056487
58	0x3f99961e	1.1998937
59	0x3e7cf52c	0.247029
60	0x3f709466	0.9397644
61	0x3e894308	0.26808953
62	0x3ea795a1	0.32731345
63	0x3e9f2e7d	0.31090155
64	0x3efb20c1	0.49048427
65	0x3e363696	0.1779426
66	0x3ea7102c	0.32629526
67	0x3e694dd5	0.22783597
68	0x3f4f2d1b	0.809282
69	0x3e76cd6f	0.24101804
70	0x3e3eb3a2	0.18623212
71	0x3ed9ff82	0.4257775
72	0x3e5778ae	0.2104213
73	0x3f99ba1c	1.2009921
74	0x3e6f4bdd	0.23368783
75	0x3e4ce826	0.20010433
76	0x3f836526	1.0265243
77	0x3eb2a448	0.34890962
78	0x3f91d8fa	1.1394341
79	0x3e3bc93b	0.18338482
80	0x3f75faf2	0.9608604
81	0x3f98cffa	1.193847
82	0x3eded63a	0.43522817
83	0x3e901cb0	0.28146887
84	0x3e8e5e38	0.27806258
85	0x3e2ec339	0.17066659
86	0x3e71407d	0.23559757
87	0x3e2daf4b	0.169614
88	0x3e480caf	0.19536088
89	0x3e72e176	0.23718819
90	0x3e7ebe69	0.24877323
91	0x3e88d2ad	0.26723233
92	0x3ea81dc2	0.32835203
93	0x3e2e4931	0.17020108
94	0x3dc908d7	0.09816139
95	0x3e1419a6	0.14462909
96	0x3e23d508	0.15999234
97	0x3f950238	1.1641302
98	0x3ebe4205	0.37159744
99	0x3fc26a2c	1.5188651
100	0x402ed300	2.7316284
101	0x3eb46b57	0.35238144
102	0x3e9fa9cb	0.3118423
103	0x3ec5bbb3	0.38619766
104	0x3e96c8a3	0.2944995
105	0x3ed39d22	0.4133082
106	0x3f26cd57	0.65157074
107	0x3ed6b37f	0.4193382
108	0x4014b986	2.3238235
109	0x3eb6e001	0.35717776
110	0x3fc1e6a2	1.5148509
111	0x3ecbe524	0.39823258
112	0x3edf304d	0.43591538
113	0x3ecd4ca0	0.40097523
114	0x3f49f5d8	0.7889075
115	0x3e92d173	0.28675422
116	0x3ed96ad5	0.4246432
117	0x3e91b0cd	0.284552
118	0x3f9a0f98	1.2036009
119	0x3eb41e20	0.35179234
120	0x3e8b3d6e	0.27195305
121	0x3f2c432e	0.6729001
122	0x3eb593c3	0.35464296
123	0x3feb2a0d	1.8372208
124	0x3e97dbef	0.29659984
125	0x3e91838c	0.28420675
126	0x3fe9fc79	1.8280174
127	0x3ef3d0ba	0.47620183
128	0x3ffdef81	1.9838716
129	0x3eb48427	0.35257074
130	0x3fc0fb5e	1.5076711
131	0x3fc29a2c	1.52033
132	0x3f0ee9b1	0.55825335
133	0x3ecc509b	0.39905247
134	0x3ecd23af	0.40066287
135	0x3e7a14bd	0.24421974
136	0x3e9006af	0.281301
137	0x3e70d619	0.23519172
138	0x3e8b78e3	0.27240667
139	0x3ec0513c	0.37561977
140	0x3e9f02c5	0.310568
141	0x3e9eef20	0.31041813
142	0x3ed3eeb6	0.4139306
143	0x3e6921cd	0.227668
144	0x3e3c9f0e	0.1842005
145	0x3e781d7c	0.24229997
146	0x3e6c7b15	0.23093827
147	0x3fee0088	1.8593912
148	0x3efdd8bd	0.4957942
149	0x402ed300	2.7316284
150	0x3fc8bfd6	1.5683544
151	0x3e86306b	0.26208815
152	0x3e910ee6	0.2833168
153	0x3e7281e8	0.23682368
154	0x3e1c6773	0.15273838
155	0x3e3a4a55	0.18192418
156	0x3edf6609	0.43632534
157	0x3e941061	0.28918746
158	0x3fb34bac	1.4007468
159	0x3e8539bd	0.26020613
160	0x3f90c0ce	1.1308839
161	0x3e8e856d	0.2783617
162	0x3e86e48d	0.26346245
163	0x3ea42a62	0.32063586
164	0x3ee28147	0.44239256
165	0x3e48048d	0.19532986
166	0x3ea7e2f2	0.32790333
167	0x3e8758bf	0.26434895
168	0x3fa4d0c4	1.287621
169	0x3e7a3f4d	0.2443821
170	0x3e79da20	0.24399614
171	0x3ef98ade	0.4873876
172	0x3e9ce599	0.3064392
173	0x3f9a0f25	1.2035872
174	0x3e5231ad	0.20526762
175	0x3e1eb8c9	0.15500177
176	0x3fa1f1b1	1.2651883
177	0x3eb9b720	0.36272526
178	0x3faf17c3	1.3679127
179	0x3e441f62	0.19152597
180	0x3f83dc54	1.0301614
181	0x3fc9efc6	1.5776298
182	0x3ef4b1d3	0.4779192
183	0x3e82c7b6	0.25542992
184	0x3e7f2eab	0.24920146
185	0x3e347ca2	0.17625669
186	0x3e3f92f4	0.18708402
187	0x3e292af4	0.16520292
188	0x3e4bf2d1	0.19916846
189	0x3e3af191	0.18256213
190	0x3e50b800	0.2038269
191	0x3e8b0b18	0.271569
192	0x3ec07ba0	0.37594318
193	0x3e4c18d3	0.19931345
194	0x3df46b58	0.11934537
195	0x3e2a25c0	0.16615963
196	0x3e2c0614	0.16799194
197	0x3f7bc66a	0.9834963
198	0x3ec9119f	0.39271256
199	0x3fc8bfd3	1.568354
200	0x403050be	2.754928
201	0x3ecd2f49	0.40075138
202	0x3eed26d1	0.46318677
203	0x3ed440f1	0.41455796
204	0x3eb45b2d	0.35225812
205	0x3ebe062a	0.37114078
206	0x3f093d4d	0.5360916
207	0x3ed49ec4	0.4152738
208	0x3ff73a27	1.9314622
209	0x3ed00fd2	0.4063707
210	0x3fb27581	1.3942109
211	0x3f046f3c	0.5173223
212	0x3ebcd91a	0.36884385
213	0x3ecc7fc8	0.3994124
214	0x3f13063d	0.57431394
215	0x3ea5d84e	0.3239159
216	0x3eee191d	0.46503535
217	0x3ed71cc1	0.42014125
218	0x3fea1160	1.8286552
219	0x3f036d50	0.5133867
220	0x3ec9db3b	0.39425072
221	0x3f4fd915	0.81190616
222	0x3ed97525	0.42472187
223	0x40016cfc	2.0222769
224	0x3ee5fe30	0.44920492
225	0x3eb106e6	0.34575576
226	0x3fd1f3f3	1.6402572
227	0x3f179475	0.592109
228	0x3fe95d89	1.823167
229	0x3ec4cc2b	0.38437018
230	0x3fe2dd69	1.7723819
231	0x4006fd39	2.1092055
232	0x3f13fb8c	0.57805705
233	0x3ec6abe1	0.38803008
234	0x3ed74d3d	0.42051116
235	0x3eabca8f	0.33552977
236	0x3ecdef14	0.40221465
237	0x3ea8ab8d	0.32943383
238	0x3ea38d6c	0.31943834
239	0x3ee73eb0	0.45165014
240	0x3e861c7c	0.26193607
241	0x3f1d6fc7	0.61498684
242	0x3f408d76	0.7521585
243	0x3e99eb18	0.30062175
244	0x3e4beae5	0.19913824
245	0x3e8442f1	0.25832322
246	0x3e920fb1	0.28527597
247	0x3fef99f2	1.8718855
248	0x3f152ee1	0.58274657
249	0x403050be	2.754928
250	0x406860cd	3.6309083
251	0x3f0ae3b7	0.54253715
252	0x3ec557a3	0.38543424
253	0x3e864df4	0.2623135
254	0x3ec2a8a4	0.38019288
255	0x3ece1e43	0.40257463

square_avg f4 [10]
0	0x42146d80	37.106934
1	0x41d63fca	26.781147
2	0x42409283	48.143078
3	0x41e4f1ad	28.618006
4	0x420a76c4	34.615982
5	0x4224a2c0	41.158936
6	0x41df7fe4	27.937447
7	0x41c8136b	25.009481
8	0x4246616c	49.59514
9	0x42b08f5a	88.27998

square_avg f4 [10, 10]
0	0x418e4e5d	17.788263
1	0x418248ba	16.285511
2	0x41b7dda8	22.98323
3	0x415fb26c	13.98106
4	0x4218fb2b	38.24528
5	0x41b8e51f	23.111876
6	0x41418ba6	12.096594
7	0x4163d7a8	14.24015
8	0x41ce7d9d	25.811335
9	0x41ed9cef	29.701628
10	0x4190b97c	18.090569
11	0x4135635a	11.336756
12	0x41905f7a	18.04662
13	0x41222c25	10.135777
14	0x41895e15	17.170938
15	0x41a1d4f6	20.228985
16	0x41229984	10.162479
17	0x411b5aa0	9.709625
18	0x41a0ec00	20.115234
19	0x41d329e5	26.395456
20	0x41ae4758	21.784836
21	0x419f78e3	19.934027
22	0x41d5d342	26.728153
23	0x417a5022	15.644564
24	0x41e84bde	29.037045
25	0x4207aab6	33.91671
26	0x4199c809	19.222673
27	0x4161fab2	14.123705
28	0x41f88377	31.064192
29	0x427368f0	60.852478
30	0x41abcfff	21.47656
31	0x416b8424	14.719761
32	0x41aa6135	21.297464
33	0x4163f727	14.24784
34	0x41cca0d2	25.578526
35	0x41ba985f	23.3244
36	0x4148ef5b	12.558436
37	0x4156f6c8	13.435249
38	0x419f46e6	19.909618
39	0x420b8117	34.876064
40	0x41835c01	16.419924
41	0x413a2895	11.634908
42	0x41868a11	16.817415
43	0x415f313b	13.949519
44	0x41981e44	19.014778
45	0x418af2bc	17.368523
46	0x4159e3f5	13.618154
47	0x41173c01	9.452149
48	0x419d924d	19.696436
49	0x42139cff	36.903316
50	0x41825b24	16.294502
51	0x413610fe	11.3791485
52	0x41a7d5d1	20.979403
53	0x412fea85	10.994756
54	0x418bb2ea	17.46236
55	0x418c6e08	17.553726
56	0x4139b188	11.605843
57	0x41324175	11.140981
58	0x418551d8	16.664963
59	0x41ef9523	29.94782
60	0x4196ba27	18.840895
61	0x417b53b2	15.707933
62	0x41b308dc	22.379326
63	0x41413b47	12.076972
64	0x419fc430	19.970795
65	0x41b01bc1	22.013552
66	0x4167a42d	14.477582
67	0x4173ffaf	15.249923
68	0x419fc6c1	19.972048
69	0x41f6bc63	30.841986
70	0x41c7fb0d	24.997583
71	0x41a35c82	20.42017
72	0x4197d541	18.979128
73	0x416d2467	14.821387
74	0x41ca1d2a	25.26424
75	0x41c7bf09	24.968279
76	0x4171ecf6	15.120352
77	0x4178acfb	15.542232
78	0x41daa059	27.328295
79	0x423beac1	46.97925
80	0x419fcfe6	19.976513
81	0x412ede99	10.929345
82	0x4196b9ab	18.840658
83	0x41596866	13.587988
84	0x41a9cd4b	21.22524
85	0x41ae2752	21.7692
86	0x41496ea4	12.589512
87	0x412a8aeb	10.6589155
88	0x41b3119f	22.383604
89	0x420b7c9f	34.8717
90	0x41a7e59f	20.98712
91	0x416c96e9	14.786843
92	0x41b3ebaa	22.49007
93	0x418a9959	17.324877
94	0x41d62341	26.767214
95	0x41c6726c	24.80587
96	0x415526ba	13.321955
97	0x4158d8e7	13.552955
98	0x41c4833b	24.564077
99	0x42273937	41.805874

square_avg f4 [10]
0	0x4352e531	210.89528
1	0x430e2493	142.14287
2	0x435b2110	219.12915
3	0x43351773	181.0916
4	0x4308825b	136.5092
5	0x431f083a	159.03214
6	0x431b33b6	155.202
7	0x43319d87	177.61534
8	0x430f9f29	143.62172
9	0x430a777c	138.46674
