feed_forward/saved_models/nhid20_lr0.01_nlayers3_seed5.pt (torch, 55877 bytes, 32 tensors)

layers_mu.0.weight f4 [20, 50]
0	0xbf7688f7	-0.9630274
1	0x3d35f386	0.044421695
2	0xbbed046c	-0.007233193
3	0x3910ea80	0.00013820268
4	0x3e0bdd85	0.13658722
5	0x3ab7f2f8	0.0014034202
6	0x3b8962ba	0.0041926773
7	0x3e171b67	0.14756547
8	0x3bc3244e	0.0059552556
9	0xbcc5c98a	-0.024143953
10	0xbdecfbd2	-0.115714684
11	0xbb30ada0	-0.0026958957
12	0xbe87b264	-0.2650329
13	0xbdf4ecdd	-0.119592406
14	0x3aa0b190	0.0012259949
15	0x3bdb5d61	0.0066944812
16	0x3c6c835e	0.014435617
17	0xbb2aee50	-0.0026081987
18	0x3e15d8ea	0.14633527
19	0xbc579c80	-0.013159871
20	0xbb4245ca	-0.0029643648
21	0x3e4493c5	0.19196995
22	0xba93a0f3	-0.0011263177
23	0x3a19bae2	0.00058643345
24	0xbc00ee40	-0.007869303
25	0xbbfd4126	-0.0077287136
26	0x3bb0411e	0.0053788563
27	0xbab33e88	-0.0013675252
28	0x3be9b296	0.007131885
29	0xbb01e654	-0.0019821124
30	0x3b9ef5bf	0.0048510726
31	0xbc2d8ab8	-0.010592155
32	0xbddedebb	-0.10882326
33	0xbe72ad3e	-0.23698899
34	0xbb52a030	-0.0032138936
35	0x3c072b8c	0.0082501285
36	0x3b392562	0.0028251042
37	0xbca55446	-0.020181786
38	0xbaf2e998	-0.0018532751
39	0xbb08a649	-0.0020851067
40	0xbe0b3f5b	-0.13598387
41	0x3b8569a4	0.0040714312
42	0x3b105038	0.002202047
43	0xbab2ab48	-0.0013631368
44	0x3b98a8f4	0.0046588127
45	0x3b7a9e10	0.0038241185
46	0x3d51f101	0.05125523
47	0xbec8f24e	-0.39247364
48	0x3bce66a4	0.006298857
49	0xbf6821c1	-0.90676504
50	0xbeb55f72	-0.35424381
51	0xbeb6b5de	-0.3568563
52	0x3b7fdac0	0.0039040297
53	0xbe00294f	-0.12515758
54	0xbd9d31be	-0.07675503
55	0xbc19953c	-0.009373959
56	0xbb8b4f3c	-0.004251389
57	0x3e950f8d	0.29113427
58	0x3c053722	0.0081308205
59	0x3e0aff2c	0.13573903
60	0x3e222ef5	0.15838225
61	0x3c350b20	0.011050016
62	0x3edc98f7	0.43085453
63	0xbc009837	-0.007848791
64	0xba158a4c	-0.0005704507
65	0xbcb4ac54	-0.022054829
66	0x3c5e38b3	0.013563323
67	0x398086f8	0.00024514622
68	0xbf03443e	-0.51276004
69	0x3becb530	0.0072237477
70	0xbc4b52c6	-0.012409871
71	0xbdbf796e	-0.09349333
72	0xbb781d7a	-0.0037859366
73	0x3b203f24	0.0024451697
74	0x3b17dc2c	0.0023172004
75	0xbb867346	-0.004103097
76	0x3b8e8cdf	0.0043502892
77	0x39451740	0.00018796045
78	0x3a935020	0.0011239089
79	0x3cda494d	0.02664628
80	0x398d6dc0	0.00026975386
81	0x3bc6171e	0.0060452363
82	0x3f37a7e6	0.7174057
83	0x3d9eabe9	0.07747633
84	0x3bb29970	0.00545042
85	0xbba33576	-0.0049807383
86	0x3c98853c	0.018618219
87	0x3e390ff8	0.18072498
88	0x3a16cb80	0.000575237
89	0x3ca42b6a	0.020040233
90	0x3ecb3cb3	0.39694747
91	0xbad505a5	-0.0016252293
92	0x3dabe255	0.08392779
93	0x3bde10d4	0.0067769084
94	0x3a04674c	0.0005050793
95	0xbc03dba4	-0.008047972
96	0xbe670370	-0.22559905
97	0x3f813e0c	1.009706
98	0x3bae1138	0.005312111
99	0xbeef5af6	-0.46749085
100	0xbd65996f	-0.05605453
101	0xbdbabe15	-0.091182865
102	0x3c7b6236	0.0153432395
103	0xbde24bdf	-0.110496275
104	0xbeb39624	-0.35075486
105	0xbc6ea9df	-0.014566868
106	0x3c413970	0.011793479
107	0x3f11537b	0.56768006
108	0x3bc63862	0.006049202
109	0xbdaae15a	-0.08343764
110	0xbeabb593	-0.33536968
111	0xbc076a4d	-0.00826509
112	0xbe6b8551	-0.23000075
113	0x3df70200	0.12060928
114	0x3c84dcf0	0.016218632
115	0x3c39a431	0.01133065
116	0xbb3605aa	-0.0027774372
117	0xbb1d2f31	-0.0023984427
118	0xbe8ea640	-0.27861214
119	0xbc6611da	-0.014042342
120	0x3c29399f	0.010328679
121	0xbca25846	-0.019817483
122	0xbc71c914	-0.014757413
123	0x3c2a997c	0.01041257
124	0xbb36640a	-0.0027830624
125	0xbc1baa7b	-0.009501095
126	0x3be94ccc	0.0071197506
127	0x3c3bf85c	0.011472788
128	0xbb82a75c	-0.003987236
129	0xbc7e0dec	-0.015506249
130	0x3c61ea2d	0.013788742
131	0xbbbab168	-0.005697418
132	0xbf1ddfec	-0.616698
133	0x3e6d8165	0.23193891
134	0xbb152c3c	-0.0022761961
135	0x3bbf1c66	0.005832243
136	0xbc2905d2	-0.010316329
137	0x3da29899	0.07939262
138	0x3b96b414	0.0045991037
139	0x3bf8e874	0.00759607
140	0x3f5c0280	0.85941315
141	0xba65a4c0	-0.00087602064
142	0x3d94e9ce	0.07271157
143	0x3b3085c6	0.0026935204
144	0x3b92f626	0.0044849096
145	0xbc1aec1c	-0.009455707
146	0x3f499adb	0.78751916
147	0xbddf3fd6	-0.109008476
148	0xbb92f625	-0.004484909
149	0x3d67d37f	0.056598183
150	0x3e242d91	0.16033007
151	0x3cd9b248	0.026574269
152	0x3970ff40	0.00022983272
153	0x3d4c724c	0.04991369
154	0x3dc1e658	0.09467763
155	0x3b0d6a4c	0.002157825
156	0x3b445aa0	0.0029961243
157	0x3e4857b5	0.19564708
158	0x3ab022f6	0.0013438154
159	0xbdfd6bcd	-0.12374077
160	0xbe1f1ef1	-0.15539147
161	0x3bb604fa	0.0055547925
162	0x3d9d62cf	0.07684862
163	0xbf6a72ce	-0.9158143
164	0x3ca8a01f	0.020584164
165	0xbcd06272	-0.025437567
166	0x3bcbab4e	0.0062154895
167	0x3c318660	0.01083526
168	0x3df6fc38	0.12059826
169	0x3ce05649	0.027384894
170	0xbb8faf86	-0.0043849377
171	0x3e0df8d3	0.1386445
172	0x3bb3886d	0.0054789097
173	0x3bcf50b3	0.006326759
174	0xbc22c096	-0.009933611
175	0xbbaab75e	-0.0052098474
176	0x3bf605a1	0.0075079952
177	0xbbb7ec36	-0.0056128753
178	0x3c2f3d72	0.010695802
179	0x3ce7ffc2	0.028320197
180	0x3c1ddcc6	0.009635156
181	0xba8f4c1e	-0.0010932719
182	0xbe824b21	-0.25447944
183	0x3da3fb9f	0.08006977
184	0xbc106cb1	-0.008814977
185	0xbc01f7d9	-0.007932627
186	0x3c1fe980	0.009760261
187	0x3f8bce8c	1.0922408
188	0xbc6a39ac	-0.014295977
189	0x3cc4a2e3	0.024003452
190	0xbe5b3e27	-0.21410428
191	0x3b1209f1	0.0022283758
192	0x3da3628b	0.0797778
193	0xbbe131d5	-0.0068723955
194	0xbbd8f1c1	-0.006620616
195	0xbbdd3170	-0.006750278
196	0xbd15c146	-0.036561273
197	0x3d6310a7	0.055435803
198	0x3b2d7004	0.0026464472
199	0x3e0f0218	0.13965642
200	0x3ce2b1f2	0.027672742
201	0xbe9c25e3	-0.30497655
202	0xbc4a2647	-0.012338228
203	0xbe1880e6	-0.14892921
204	0xbf3cd0a6	-0.7375587
205	0x3c5a0c2a	0.013308564
206	0x3c10ba9d	0.008833555
207	0xbeea319d	-0.45740977
208	0xbbcbd8f9	-0.0062209335
209	0x3d3b7966	0.04577007
210	0xbf015e89	-0.50534874
211	0xbc5bee91	-0.013423578
212	0xbdc516c8	-0.09623486
213	0x3d19533c	0.037432894
214	0xbc23d97f	-0.010000586
215	0xbca030b5	-0.019554475
216	0xbbd29a9c	-0.0064271223
217	0x3bf5ba3c	0.0074990075
218	0x3d00785f	0.031364795
219	0xbc7a07f3	-0.015260684
220	0xbc1057ce	-0.008809997
221	0xbe628f5e	-0.22125003
222	0x3bbd4cb2	0.005776965
223	0x3b0dbde8	0.0021628086
224	0xbb37ec2c	-0.0028064353
225	0x3a1c9670	0.00059733447
226	0xbc57aa0e	-0.013163103
227	0x3b521190	0.0032053925
228	0xbbc845c4	-0.0061118323
229	0xbb49ec8c	-0.003081116
230	0xbb0f7dfc	-0.002189516
231	0xbb5376e4	-0.003226691
232	0x3f39fc75	0.72650844
233	0xbe7165f8	-0.23574054
234	0xbc208b0a	-0.0097987745
235	0xbb366e70	-0.0027836822
236	0x39e36b10	0.00043376582
237	0x3e13b21d	0.14423414
238	0x3b72cf50	0.0037049837
239	0x3b0227b4	0.001986009
240	0xbea0c323	-0.31398878
241	0x3bbe53c9	0.005808328
242	0x3d4f0ad4	0.050547436
243	0xbc065c62	-0.008200737
244	0xbb1e7bb0	-0.002418261
245	0x3bd958dc	0.0066329073
246	0x3f70111b	0.937761
247	0xbd9d3d35	-0.0767769
248	0xbc7d069e	-0.015443472
249	0xbdad9250	-0.084751725
250	0x3e24a13c	0.16077131
251	0xbea231ed	-0.31678715
252	0xbc016214	-0.007896919
253	0xbcdaacb0	-0.026693672
254	0x3cd9718e	0.026543405
255	0x3c7676dc	0.015042987

layers_mu.0.bias f4 [20]
0	0xbbf427fb	-0.007451055
1	0xbc47db22	-0.012198241
2	0xbc713235	-0.014721443
3	0xbc71389b	-0.014722968
4	0x3c6ac26a	0.0143285785
5	0x3c514ee1	0.012775154
6	0xbb94866c	-0.004532626
7	0xbb4060cc	-0.002935457
8	0x3ca25316	0.01981501
9	0x3b14f417	0.0022728497
10	0x3b147a58	0.002265593
11	0x3bbbd5f4	0.0057322923
12	0xbc6372e6	-0.013882374
13	0xbb7c9118	-0.003853863
14	0xbaf27e8b	-0.0018500848
15	0x3b0a5560	0.0021108016
16	0x3ba08aa5	0.00489934
17	0x3bf553c2	0.0074867913
18	0x3a5bd4fc	0.0008385924
19	0xbce66a8c	-0.028126977

layers_mu.1.weight f4 [20, 20]
0	0xbe9a7c72	-0.3017307
1	0x3d5e367d	0.054251183
2	0x3d003909	0.031304393
3	0x3e6d3359	0.23164119
4	0x3e00b48c	0.12568873
5	0x3d364727	0.04450145
6	0xbe06a307	-0.13148127
7	0xbe706765	-0.23476942
8	0x3e63cecf	0.2224686
9	0x3d2a2083	0.04153491
10	0xbee55f96	-0.4479949
11	0x3c9e4632	0.019320581
12	0x3dcbe1d0	0.0995518
13	0x3d5f12f5	0.05446144
14	0x3cb4795f	0.02203053
15	0x3e047300	0.12934494
16	0x3e197fb2	0.14990118
17	0x3e2cab0b	0.16862123
18	0x3c1770d8	0.009243213
19	0x3d719e28	0.05898872
20	0x3d373042	0.044723757
21	0x3b5d5436	0.0033772117
22	0x3df99d4a	0.12188204
23	0xbd1604d6	-0.036625706
24	0xbdb61b38	-0.0889191
25	0x3cb213f2	0.021738026
26	0x3e1c5b28	0.15269148
27	0xbc11cd3e	-0.008899031
28	0xbaff93e0	-0.0019499026
29	0xbdfe0a55	-0.124043144
30	0xbd98fa55	-0.07469622
31	0xbd6538b7	-0.05596229
32	0x3da9a709	0.082838126
33	0xbe057a21	-0.1303487
34	0x3e9a545a	0.3014248
35	0x3e19e7c1	0.15029813
36	0xbe259ec8	-0.16173851
37	0x3d69fa65	0.05712356
38	0x3e6c2ec3	0.23064713
39	0x3e9c9976	0.3058583
40	0x3de860df	0.11346602
41	0xbd836802	-0.06416322
42	0x3e7a9ce7	0.24473916
43	0x3e36e92c	0.17862386
44	0xbd4479f5	-0.04796787
45	0x3e2fa0d1	0.1715119
46	0xbe5a1500	-0.21297073
47	0x3e93e508	0.28885674
48	0x3cd51a47	0.026013507
49	0xbdcf592c	-0.1012443
50	0xbe3b0ce0	-0.1826663
51	0x3e48bd7e	0.19603536
52	0xbc31eb76	-0.010859361
53	0xba188750	-0.0005818503
54	0x3de7b75b	0.11314269
55	0xbddea775	-0.10871784
56	0xbd4becf7	-0.049786534
57	0x3e217046	0.15765485
58	0xbd2c6f36	-0.042098247
59	0x3d61395f	0.054986354
60	0x3e05eb68	0.13078082
61	0xbd120016	-0.035644613
62	0xbd845620	-0.064617395
63	0x3dde1e6c	0.10845646
64	0x3deeebac	0.116660446
65	0x3d2c0205	0.041994113
66	0xbe0ed063	-0.1394668
67	0xbe75069c	-0.23928303
68	0xbe42f6f4	-0.19039518
69	0x3d725a8f	0.059168395
70	0xbe897f77	-0.2685506
71	0x3e013246	0.12616834
72	0x3e1355b7	0.14388166
73	0xbe15b2cc	-0.14618987
74	0x3e96df3f	0.29467198
75	0xbd74d143	-0.05976988
76	0xbd9a3091	-0.075287946
77	0xbe1479e4	-0.14499623
78	0xbc000461	-0.007813544
79	0xbe507934	-0.20358735
80	0x3dba50be	0.090974316
81	0x3ed4253f	0.41434667
82	0x3ba1986c	0.0049315
83	0x3e898255	0.26857248
84	0x3d3ce39f	0.046115514
85	0xbdcd6ff9	-0.10031123
86	0xbdd02d95	-0.10164944
87	0xbe0367fc	-0.12832636
88	0xbd02ce30	-0.031934917
89	0x3d39e172	0.045381017
90	0x3e5f7325	0.21821268
91	0x3dc56884	0.096390754
92	0xbc9029f2	-0.017598126
93	0xbd8bd3bc	-0.068274945
94	0xbd2a1bb9	-0.041530345
95	0x3cfc8267	0.0308239
96	0xbe85cb24	-0.26131546
97	0x3dae560c	0.08512506
98	0x3dcb4b6d	0.09926496
99	0x3c79e83d	0.015253124
100	0x3c518b42	0.012789549
101	0xbd23c66e	-0.03998416
102	0x3dc42250	0.09576857
103	0x3db9fdcd	0.09081612
104	0xbd92c35c	-0.07166168
105	0xbe3c425c	-0.18384689
106	0xbd9a5eaa	-0.07537587
107	0xbe14522b	-0.1448447
108	0xbe19ddba	-0.15025988
109	0x3d92c6e8	0.071668446
110	0xbe59cea7	-0.21270238
111	0xbcc65e75	-0.024214962
112	0xbe70a74f	-0.23501323
113	0xbd3db2f8	-0.046313256
114	0x3ada6f52	0.0016665256
115	0xbe0220cc	-0.12707824
116	0x3dc39284	0.0954943
117	0x3d9ec56d	0.077525
118	0xbe4b2855	-0.19839604
119	0x3eb895ab	0.36051688
120	0x3e3e39f0	0.18576789
121	0xbd0ae314	-0.033907965
122	0x3e32be8c	0.174555
123	0xbe1ca3c6	-0.1529685
124	0xbcbe30a0	-0.023216546
125	0xbe81ad96	-0.25327748
126	0xbd9633d0	-0.07334101
127	0xbe18021c	-0.14844555
128	0x3e1990e0	0.14996672
129	0xbd88772c	-0.06663355
130	0xbe1a324b	-0.15058248
131	0x3ddb65c4	0.1071277
132	0xbdc067d1	-0.093948014
133	0x3d72a3cc	0.05923824
134	0x3c82fd24	0.015989847
135	0x3e775164	0.24152142
136	0xbe845edf	-0.2585363
137	0x3e32e0a0	0.174685
138	0xbe29cde3	-0.16582446
139	0xbe1a82d5	-0.15088971
140	0x3d8dd43d	0.06925247
141	0xbe364e5a	-0.17803326
142	0xbcd21ff7	-0.025650008
143	0x3d93dd52	0.07219948
144	0x3e25a9c8	0.16178048
145	0xbe0d93a1	-0.13825847
146	0xbd95c838	-0.07313579
147	0x3e0ec919	0.139439
148	0xbdf22f4e	-0.11825429
149	0x3da83c27	0.08214598
150	0xbd662a96	-0.056192957
151	0xbe025a29	-0.12729706
152	0x3e2e4e20	0.1702199
153	0xbebdf5c6	-0.37101573
154	0xbe0ea9c9	-0.13931955
155	0x3e445af6	0.19175324
156	0x3c29d9a6	0.010366833
157	0x3e84277e	0.2581138
158	0xbd69b1fa	-0.057054497
159	0x3d9f69e8	0.07783872
160	0x3e15483d	0.14578338
161	0x3debafa5	0.11508111
162	0xbe2f66ce	-0.1712906
163	0xbd9a3578	-0.075297296
164	0xbe674057	-0.22583137
165	0xbe430f20	-0.19048738
166	0xbe07894e	-0.13235971
167	0x3d93b53e	0.072123036
168	0x3e2bb721	0.16769077
169	0x3d839c1b	0.06426259
170	0xbeb7f022	-0.35925394
171	0x3da400d0	0.080079675
172	0x3daf3ed6	0.08556907
173	0xbd95b21c	-0.07309362
174	0x3ddee19b	0.108828746
175	0xbe6c71e5	-0.23090322
176	0x3e09df23	0.13464026
177	0x3e359871	0.17733933
178	0x3dfd7bfb	0.12377163
179	0xbccafb56	-0.02477805
180	0xbd9ca21d	-0.07648108
181	0xbc7bf117	-0.0153773045
182	0xbdaa2917	-0.083086185
183	0x3e8f8206	0.28028888
184	0xbdc3ba39	-0.095570035
185	0xbdd7bf4f	-0.10534536
186	0x3c87be64	0.016570278
187	0x3d9b8fda	0.07595797
188	0x3da39130	0.07986677
189	0xbea58d58	-0.323344
190	0xbdaa7837	-0.083237104
191	0xbe656b42	-0.22404197
192	0x3d833fdc	0.064086646
193	0xbd8445e7	-0.06458645
194	0x3ddd2f50	0.1080004
195	0xbd92b871	-0.07164086
196	0xbe5cd001	-0.21563722
197	0xbda76213	-0.08173003
198	0xbe7a8b92	-0.24467304
199	0xbc9b2a1e	-0.018940981
200	0xbc9de158	-0.019272491
201	0x3e0fb4db	0.14033835
202	0xbe6803fb	-0.22657768
203	0x3c7085e5	0.01468036
204	0xbd5c38dc	-0.053765163
205	0x3d17ad14	0.037030295
206	0x3e10cc62	0.14140466
207	0x3e3411ec	0.17584962
208	0xbe1039e8	-0.1408459
209	0xbdad25d9	-0.084544845
210	0xbe74e1ec	-0.23914307
211	0x3e51e511	0.20497538
212	0xbd9da2a8	-0.0769704
213	0xbd1dab36	-0.038493358
214	0x3e29190a	0.16513458
215	0x3e70245b	0.23451369
216	0x3e382ca0	0.17985773
217	0x3dff4729	0.124647446
218	0xbe7edbbc	-0.2488851
219	0xbc1f42a6	-0.00972048
220	0x3e13369d	0.14376302
221	0xbe57b535	-0.21065219
222	0xbe90fffa	-0.28320295
223	0x3e8d60ee	0.27613014
224	0xbe0e2836	-0.13882527
225	0x3e3755d6	0.17903838
226	0x3d0faf93	0.03507955
227	0xbcd6ad64	-0.026205726
228	0xbd47022a	-0.04858605
229	0xbd60a955	-0.054848988
230	0xbed1bbf0	-0.40963697
231	0x3db47fb8	0.08813423
232	0xbde8ae71	-0.11361397
233	0x3da4f659	0.080547996
234	0xbe3e1112	-0.185612
235	0x3c15662b	0.009118597
236	0xbe831ef1	-0.25609544
237	0x3dd10314	0.10205665
238	0x3e25b4e4	0.16182286
239	0xbbfeac77	-0.0077720243
240	0x3e05044b	0.12989919
241	0x3d866b0c	0.06563386
242	0x3d94cb3b	0.07265326
243	0x3e151a92	0.14560917
244	0x3e4de224	0.20105797
245	0x3ce57f54	0.028014816
246	0x3ea49a23	0.32148847
247	0xbc1adeb3	-0.00945251
248	0x3c039bc1	0.00803274
249	0x3e3bcde9	0.18340267
250	0xbe59ad48	-0.21257508
251	0xbdf0676e	-0.11738478
252	0xbd072eb7	-0.033003535
253	0x3e10c513	0.14137678
254	0x3dbd99bb	0.092578374
255	0xbe4fca73	-0.20292072

layers_mu.1.bias f4 [20]
0	0xbe0a8be5	-0.13529928
1	0xbe81d694	-0.25359023
2	0xbe66b894	-0.22531348
3	0xbe5f73b7	-0.21821485
4	0xbe72aa60	-0.23697805
5	0xbe69db91	-0.22837664
6	0xbe813048	-0.25232148
7	0xbe4125c2	-0.1886206
8	0xbe69cc84	-0.22831923
9	0xbe45518e	-0.19269392
10	0xbe6e1e72	-0.23253801
11	0xbe5d2111	-0.21594645
12	0xbe3c8f70	-0.18414092
13	0xbe9323c0	-0.28738213
14	0xbe537efb	-0.20653908
15	0xbe419a06	-0.18906412
16	0xbe33727f	-0.17524146
17	0xbe33172c	-0.17489308
18	0xbe5b3946	-0.21408567
19	0xbe1e7abe	-0.1547651

layers_mu.3.weight f4 [20, 20]
0	0x3e904cf8	0.28183722
1	0x3f919e9f	1.1376532
2	0x3e9fe060	0.31225872
3	0xbff59802	-1.9187014
4	0xbf4ab61b	-0.7918412
5	0x3e0aef65	0.13567884
6	0x3f57f93f	0.84364694
7	0xbfcfb08b	-1.6225752
8	0xbd4acf0a	-0.049513854
9	0xbf9ce820	-1.2258339
10	0xbf94b141	-1.1616594
11	0x3db33812	0.08750929
12	0xbf294710	-0.6612406
13	0x3f44e1d6	0.769071
14	0x3d8f04b0	0.06983316
15	0xbe2eece1	-0.1708255
16	0xbf0360a8	-0.5131936
17	0x3f9c6cc4	1.2220693
18	0xbecc0585	-0.3984796
19	0x3f511087	0.81665844
20	0x3bcf7aa5	0.006331759
21	0xbd5139dd	-0.051080573
22	0x3f40eb3d	0.75358945
23	0x3f88fa9f	1.0701483
24	0xc0045e75	-2.0682652
25	0x3fbbf188	1.4683084
26	0xbe8b745c	-0.27237213
27	0xbe37d985	-0.17954071
28	0x3dad49cd	0.08461342
29	0xbec74769	-0.3892167
30	0xbfb3f9af	-1.4060572
31	0xbf5f5d40	-0.87251663
32	0x3fb93e0d	1.4472061
33	0xbf85dd58	-1.0458174
34	0x3c6ff160	0.014644951
35	0x3e855991	0.26044896
36	0xbf86786c	-1.05055
37	0xbef6559c	-0.4811219
38	0x3d20e62f	0.03928202
39	0x3fc6240e	1.5479753
40	0xbee383ae	-0.444364
41	0x3ece2b2e	0.40267318
42	0xbf8ddad3	-1.1082405
43	0xbe7fcb3c	-0.24979872
44	0x3dbdb8b8	0.09263748
45	0x3faf8706	1.3713081
46	0xbef2b127	-0.47400782
47	0xbf85025f	-1.0391349
48	0x3f2d49d0	0.67690754
49	0x3f89cd5b	1.0765795
50	0x3ef29459	0.47378805
51	0x3fd785d6	1.6837718
52	0x3e9b1709	0.30291012
53	0x3f4b515e	0.7942103
54	0xbf25c35e	-0.6475123
55	0xbee86e4c	-0.4539665
56	0xc0009f2e	-2.0097156
57	0xbefe95f2	-0.49723774
58	0x3f502118	0.813005
59	0xbfac393a	-1.3454964
60	0x3f44c927	0.76869434
61	0xbeb51bc7	-0.35372755
62	0xbd690470	-0.056888998
63	0xbf8eb1a1	-1.1147958
64	0x3d1a753b	0.037709456
65	0xbf993cd2	-1.1971686
66	0x3d088365	0.033328433
67	0xbf25d308	-0.64775133
68	0x3f5f9dcc	0.87350154
69	0x40144371	2.3166163
70	0x3f002159	0.50050884
71	0xbf5b664c	-0.8570297
72	0xbf6e2a13	-0.9303295
73	0xbe0a3d40	-0.13499928
74	0x3ee96b22	0.45589548
75	0x3f1aa684	0.6041033
76	0xbf12a21d	-0.57278615
77	0xbf10d401	-0.5657349
78	0xbf73a548	-0.95174074
79	0x3fbb7c21	1.4647256
80	0x3f057758	0.5213523
81	0x3f868329	1.0508777
82	0xbf9661a7	-1.1748551
83	0xbe9e3d4f	-0.3090615
84	0xbf156141	-0.5835152
85	0x3e48945f	0.19587849
86	0xbeed0e7c	-0.46300113
87	0x3f04eb53	0.51921576
88	0xbf456b17	-0.7711653
89	0x3f86824b	1.0508512
90	0xbfc837cb	-1.5642027
91	0xbe5621f8	-0.20911396
92	0x3fd2e504	1.647614
93	0x3f6915e7	0.91049045
94	0x3eeb7979	0.45991114
95	0xbf079676	-0.5296396
96	0x3fc5b0ed	1.5444618
97	0xbf4f2237	-0.8091158
98	0xbfedb449	-1.8570644
99	0xbf5a6c0b	-0.8532111
100	0x3f18bfec	0.5966785
101	0xbe9578dc	-0.2919377
102	0xbf4a4958	-0.79018164
103	0x3faaf916	1.3357265
104	0xbfbc1b19	-1.469577
105	0xbfdf6843	-1.7453693
106	0xbf710a84	-0.9415667
107	0x3f088250	0.5332384
108	0x3f20a673	0.6275398
109	0xbf4f683f	-0.8101844
110	0x3f15b015	0.58471805
111	0x3f92bdb6	1.1464145
112	0xbf3d0590	-0.7383661
113	0x3f764e3f	0.96213144
114	0x3fed2e5f	1.8529776
115	0xbf7c014c	-0.9843948
116	0xbee684e7	-0.4502327
117	0xbe2fb7bc	-0.17159933
118	0xbf049aa8	-0.51798487
119	0x3efa3c49	0.4887412
120	0x3e98e34b	0.2986091
121	0xbf3ffd47	-0.74995846
122	0x3fb3ad29	1.4037219
123	0xbe902f2d	-0.28160992
124	0xbdb49e47	-0.088192515
125	0xbe06c5a0	-0.13161325
126	0x3e5bba27	0.2145773
127	0x3dc23927	0.09483557
128	0xc01c276f	-2.4399068
129	0xbd9aad14	-0.07552543
130	0xbf2c3741	-0.6727181
131	0xbefa083b	-0.48834404
132	0xbef0eb78	-0.47054648
133	0x3f9b561f	1.2135657
134	0x3f31b11e	0.69410884
135	0x3faae136	1.3349979
136	0xbe21bfc3	-0.15795808
137	0xbef0a569	-0.47001198
138	0x3f8850ec	1.0649695
139	0xbfbaffc7	-1.4609307
140	0xbfe5f2c0	-1.7964706
141	0x3f4d67fd	0.802368
142	0x3f2317ae	0.6370801
143	0x3f16f7b4	0.58971715
144	0xbf165da2	-0.5873662
145	0x3c25d29c	0.010121014
146	0xbe199c66	-0.15001068
147	0x3fb50314	1.4141564
148	0x3d9f6efc	0.077848405
149	0x3f07072e	0.5274533
150	0xbf748464	-0.9551451
151	0x3d1873dc	0.037219867
152	0xbfe13666	-1.7594726
153	0x3f844c86	1.0335853
154	0xbfe8a6eb	-1.8175939
155	0xbf158180	-0.58400726
156	0x3f3ce537	0.73787254
157	0xbf5cb92f	-0.8622007
158	0x3f3ac4bf	0.7295646
159	0x3f5b15de	0.8558024
160	0xbe8abd28	-0.2709744
161	0xbfdef5ed	-1.74188
162	0xbe330797	-0.17483364
163	0x3f52acc4	0.8229487
164	0x3f9fc5d5	1.2482249
165	0x3f961a52	1.1726782
166	0x3e620681	0.22072794
167	0xbe9b8a10	-0.3037877
168	0x3f25d80d	0.6478279
169	0xbe8f2011	-0.27954152
170	0xbfc70d2b	-1.5550894
171	0x3f014fb1	0.50512224
172	0xbf3e2235	-0.74270946
173	0xbf0411d4	-0.51589704
174	0xbf0514a5	-0.51984626
175	0x3d22719d	0.03965913
176	0x3e6924b6	0.2276791
177	0x3fa40540	1.2814102
178	0xbfdc9f3e	-1.7236097
179	0xbd9a36ae	-0.075299606
180	0xbb915338	-0.0044349693
181	0x3f6d7293	0.9275295
182	0xbcaa0f06	-0.020759117
183	0x3f337233	0.7009613
184	0x3f6fc108	0.9365392
185	0x3edb9d4c	0.42893445
186	0xc0125e15	-2.2869923
187	0xbfe45e0e	-1.7841203
188	0xbfc27aa3	-1.5193676
189	0xbf21e3a3	-0.6323797
190	0x3f74e96a	0.9566866
191	0xbd87d16c	-0.06631741
192	0xbf0c3650	-0.54770374
193	0xbe92e836	-0.28692788
194	0xbe1610da	-0.14654866
195	0x3efbd57f	0.49186322
196	0x3f328d37	0.69746727
197	0x3eacbc60	0.3373747
198	0xbdfa6bec	-0.12227616
199	0x3fa24649	1.2677699
200	0xbedda556	-0.43290204
201	0xbebafadb	-0.36519513
202	0x3dee4fea	0.11636336
203	0x3f0ec21c	0.5576494
204	0xbdfa82e6	-0.12231998
205	0xbf7ea2ae	-0.9946698
206	0xbd52c3bf	-0.05145621
207	0xbed9b229	-0.42518738
208	0xbef12ea6	-0.47105902
209	0xbe848473	-0.258823
210	0xbcbe34d2	-0.023218546
211	0x3e8ff991	0.28120092
212	0x3e258205	0.1616288
213	0xbfb8a0f6	-1.4424121
214	0xbe00cb0a	-0.12577453
215	0xbe66657b	-0.22499649
216	0xbe85dc41	-0.26144603
217	0xbf364e3c	-0.71213126
218	0xbf0b1c9c	-0.5434053
219	0xbf1e0b14	-0.61735654
220	0xc00a177c	-2.1576834
221	0xbf99f720	-1.2028542
222	0x3f1be958	0.6090293
223	0xbf9cde2e	-1.2255304
224	0x3f2fc9a9	0.68667084
225	0xbde046dd	-0.10951016
226	0xbe118955	-0.14212544
227	0x3f63d43b	0.88995713
228	0x3deb04fe	0.114755616
229	0xbf46b87f	-0.7762527
230	0x3fa06d03	1.2533268
231	0xbef2af87	-0.47399542
232	0x3fd58bb9	1.6683265
233	0x3f6d103c	0.92602897
234	0x3ec817d2	0.39080673
235	0xbf825b14	-1.0184045
236	0x3dc7bea8	0.09753162
237	0x3f96b81d	1.1774937
238	0xbf33d0b8	-0.70240355
239	0x3cc12d60	0.023581207
240	0xbbd33d70	-0.006446533
241	0x3f40c1be	0.7529563
242	0xbf4f15f8	-0.80892897
243	0xbf29c2e4	-0.66313004
244	0xbf460fee	-0.77368057
245	0x3f1c53f6	0.61065614
246	0xbf3822cc	-0.71928096
247	0x3fb7ce14	1.4359765
248	0xbf3f5305	-0.7473605
249	0x3f16a82c	0.5885036
250	0x3dfcd0c0	0.123445034
251	0xbe36f1aa	-0.17865625
252	0xbf616a3c	-0.88052726
253	0xbfc198b1	-1.5124723
254	0x3dccc903	0.099992774
255	0x3dddc650	0.10828841

layers_mu.3.bias f4 [20]
0	0x3f7710c8	0.9650998
1	0x3e91d450	0.28482294
2	0x3dad349d	0.08457301
3	0xbd320ca2	-0.04346908
4	0x3e869325	0.26284137
5	0x3e8b9906	0.27265185
6	0x3e9c75d1	0.30558637
7	0x3e508370	0.2036264
8	0x3ef144c1	0.47122768
9	0xbbd492c9	-0.0064872247
10	0x3f5ca744	0.8619273
11	0xbe919e9c	-0.28441322
12	0x3f1a26a7	0.6021523
13	0x3efafa01	0.49018863
14	0x3f51c949	0.8194776
15	0x3de453ca	0.11148794
16	0xbf31ae2f	-0.6940641
17	0x3e84c5e6	0.25932235
18	0x3dd2e4e1	0.102975614
19	0x3f030eaf	0.5119428

layers_mu.5.weight f4 [50, 20]
0	0x3dee5bde	0.11638616
1	0x3f44e9ef	0.76919454
2	0xbf1699c6	-0.5882839
3	0x3f16f90f	0.58973783
4	0x3dfa8d3a	0.12233968
5	0x3eff120e	0.49818462
6	0xbc2d69be	-0.010584293
7	0xbe263562	-0.16231301
8	0xbe107a44	-0.1410914
9	0x3f77d0ca	0.9680296
10	0x3f16ca85	0.5890277
11	0xbf8f836f	-1.1211985
12	0x3ee691ef	0.45033213
13	0x3f015c50	0.5053148
14	0x3ee5d110	0.44886065
15	0x3de64cdc	0.112451285
16	0xbfd635e3	-1.6735195
17	0xbe450a70	-0.19242263
18	0x3f5f311e	0.8718432
19	0x3e0db649	0.13839068
20	0xbf0494d3	-0.5178959
21	0x3fd1229b	1.6338686
22	0x3fcc31e9	1.5952731
23	0x3ec9475e	0.3931226
24	0xbe75d2a9	-0.24006142
25	0xbeffb109	-0.49939755
26	0x3fa4e3cb	1.2882017
27	0xbf31e33d	-0.69487363
28	0xbe01b3be	-0.12666222
29	0xc00dc23f	-2.2149808
30	0xc0095fc3	-2.1464698
31	0x3d4b42dd	0.049624313
32	0xbf6a5a52	-0.9154407
33	0x3fc91def	1.571226
34	0xbf42c83b	-0.7608678
35	0x401761c3	2.365342
36	0xbfcf434e	-1.6192415
37	0x3e92cd09	0.28672054
38	0xbefc63d1	-0.49294904
39	0xbff27922	-1.8943217
40	0x3e9fa698	0.31181788
41	0x3e6247de	0.22097728
42	0x3ecde0cb	0.40210566
43	0x3cdc3302	0.026879791
44	0x3ed1fd56	0.41013592
45	0xbec9b741	-0.39397624
46	0x3e8b1ed4	0.27171957
47	0x3d825c14	0.06365219
48	0x3eff99b7	0.49921963
49	0xbf1ea8fb	-0.61976594
50	0x3c88b588	0.016688123
51	0x3dbd3842	0.09239246
52	0x3e09e98e	0.13468
53	0xbed32961	-0.41242507
54	0x3e94dba6	0.29073828
55	0x3e226a04	0.15860754
56	0xbeefe5d8	-0.46855044
57	0x3f216941	0.6305123
58	0x3efdde58	0.49583697
59	0xbebedf2d	-0.37279645
60	0xc0000c2d	-2.0007432
61	0x3f65058c	0.8946159
62	0xbd265c45	-0.04061534
63	0x3e5dd396	0.21662745
64	0xbf8c77a7	-1.0974015
65	0x3e955b21	0.29171088
66	0xbfb6bc03	-1.4276127
67	0x3d93c6c8	0.07215649
68	0x3f41b58e	0.75667655
69	0xbf2c0ddf	-0.67208666
70	0x40810c85	4.0327783
71	0xbf45f198	-0.7732177
72	0xc00cf1b4	-2.2022524
73	0x3dbe32ac	0.09287009
74	0x3f30b389	0.6902395
75	0x3e706c33	0.23478775
76	0x3f8125db	1.0089678
77	0x3e86dfaf	0.26342532
78	0x3f866b03	1.0501407
79	0xbd6e54ee	-0.058186464
80	0x3f89cd01	1.0765687
81	0xbf28a443	-0.65875643
82	0xbf6b52b5	-0.91923076
83	0x3f0cefdd	0.550535
84	0xbf03cf2f	-0.5148801
85	0x3faa5558	1.3307295
86	0xbf9a0592	-1.203295
87	0xbe09ccdd	-0.13457055
88	0x3f23044a	0.6367842
89	0x3d7e7e0b	0.062131923
90	0xbed18def	-0.409286
91	0x3f8eed12	1.1166098
92	0xbe9832af	-0.2972617
93	0xbfb4aab9	-1.41146
94	0xbef7a5fb	-0.4836882
95	0x3fd619ab	1.6726583
96	0xbf199519	-0.5999313
97	0x3e0b0ece	0.13579866
98	0x3eb68cd7	0.35654327
99	0xbf80c6c3	-1.0060657
100	0xbeeb7c50	-0.4599328
101	0xbe703c13	-0.23460416
102	0x3df1832c	0.11792597
103	0xbbe143af	-0.0068745236
104	0xbe2254cc	-0.1585266
105	0x3ef68a0d	0.481522
106	0x3e304aa5	0.17215975
107	0xbe56f134	-0.20990449
108	0xbe2bde29	-0.16783966
109	0x3e68251b	0.22670405
110	0x3f45466a	0.7706057
111	0xbdae387c	-0.08506867
112	0x3dd6b6ec	0.10484108
113	0x3e0722d0	0.13196874
114	0xbc3d9190	-0.011570349
115	0xbd882976	-0.06648533
116	0x3e0d29d6	0.1378549
117	0x3c1e50a8	0.009662785
118	0xbeefc92b	-0.46833166
119	0x3eed53ca	0.46352988
120	0xbcda1f39	-0.026626216
121	0x3e998a4a	0.2998832
122	0xbe9d6444	-0.3074056
123	0x3ea58b9c	0.32333076
124	0x3ee34967	0.4439194
125	0x3c6c9016	0.01443865
126	0xbec684e7	-0.3877327
127	0xbe9bf22e	-0.30458206
128	0xbdb24960	-0.087054014
129	0x3e73393f	0.23752306
130	0x3f82a3b8	1.0206213
131	0x3f2051f1	0.6262503
132	0xbd46dd50	-0.048550904
133	0x3ee17c8f	0.44040343
134	0xbf45e9e0	-0.7730999
135	0xbe57ff83	-0.21093564
136	0xbdbc7989	-0.092028685
137	0x3e3f799e	0.18698737
138	0x3edc4856	0.43023938
139	0x3e8975c4	0.2684766
140	0x3df9ba6c	0.1219376
141	0x3c2c042c	0.0104990415
142	0x3d71912c	0.058976337
143	0xbfb2af03	-1.3959659
144	0x3f1b6063	0.6069395
145	0xbfbe204e	-1.4853609
146	0x3e8df69f	0.2772722
147	0xbe2aebd4	-0.16691524
148	0x3fb7fa80	1.4373322
149	0x3fb11aae	1.3836267
150	0x3e79a599	0.24379577
151	0x3f157f7a	0.5839764
152	0xbf8114ef	-1.0084513
153	0xbd55e5ee	-0.05222123
154	0xbf1d6530	-0.61482525
155	0x3fc0e9e6	1.507138
156	0xbecf1c3d	-0.40451232
157	0xbfd5159a	-1.6647217
158	0x3edae156	0.42750043
159	0x3f82f40f	1.0230731
160	0x3f10191b	0.5628831
161	0x3d1b4fc0	0.037917852
162	0xbc440508	-0.01196409
163	0xbe1f9c2c	-0.15586919
164	0x3e2cc73a	0.16872874
165	0xbe3c0c7c	-0.18364137
166	0xbe26bde2	-0.16283372
167	0x3ca98d22	0.02069718
168	0x3ec8c694	0.39214003
169	0xbc094ff6	-0.008380881
170	0x3e7aa7e2	0.24478105
171	0x3d7e1234	0.06202908
172	0xbe89efae	-0.26940674
173	0xbde765eb	-0.11298736
174	0xbebde901	-0.3709183
175	0xbdb724ea	-0.08942588
176	0x3e148cf9	0.14506902
177	0x3f7c93e4	0.98663163
178	0xbe15ad90	-0.1461699
179	0x3de74fd4	0.11294523
180	0xc01f9332	-2.493359
181	0xbf0e7a44	-0.5565531
182	0xbf85d1bd	-1.0454632
183	0x3e5636ef	0.20919393
184	0xbfa19fd1	-1.2626897
185	0x3ea1c909	0.3159869
186	0x3fc63122	1.5483744
187	0xbf1477c1	-0.5799523
188	0x3f7fb273	0.99881667
189	0xbf8303ae	-1.0235498
190	0x3fbfd440	1.4986649
191	0x3b1d0df0	0.0023964606
192	0x40409d8a	3.0096154
193	0xbf8c4a16	-1.0960109
194	0xbf25d221	-0.64773756
195	0x3faa91f9	1.3325797
196	0xbe02a508	-0.12758267
197	0xbe8413ec	-0.2579645
198	0xbd8f0bc0	-0.06984663
199	0x3fa18991	1.2620107
200	0x3ed1e8db	0.40997967
201	0x3ee7037d	0.4511985
202	0x3eba268f	0.36357543
203	0x401873bf	2.3820646
204	0xbdeec0e5	-0.116578855
205	0xbd6458ef	-0.055748876
206	0xbf965af0	-1.1746502
207	0xbf2f99b7	-0.68593925
208	0x3f56175f	0.8362941
209	0xbf076ad5	-0.5289739
210	0xbeaa9240	-0.33314705
211	0x3ef87dc5	0.48533455
212	0xbe7cb493	-0.24678259
213	0x3e1ee9ae	0.15518829
214	0x3f7c3028	0.9851098
215	0xbe87847f	-0.26468274
216	0xbe6113d5	-0.21980222
217	0xbfd65146	-1.6743553
218	0xc0054ad0	-2.0826912
219	0x3fbabd66	1.458905
220	0x3e0da551	0.13832594
221	0x3e28faf4	0.16501981
222	0x3f12e3ec	0.5737903
223	0x3eb763c4	0.35818303
224	0x3e9031b6	0.28162926
225	0xbebe3b19	-0.37154463
226	0x3e22bf48	0.1589328
227	0x3da5d034	0.08096352
228	0x3eea4913	0.45758876
229	0x3e89c48a	0.2690776
230	0xbed03d62	-0.4067183
231	0xbdce55a3	-0.10074928
232	0xbdaf1308	-0.08548552
233	0xbe385265	-0.18000181
234	0xbeb760c7	-0.35816023
235	0xbecb0fcd	-0.39660493
236	0xbd558a5a	-0.052133895
237	0x3d798dec	0.060926363
238	0xbdcaff52	-0.0991198
239	0x3d2ae110	0.041718543
240	0xbf919a0f	-1.137514
241	0xbec03d70	-0.37546873
242	0x3f868885	1.0510412
243	0xbef6f0f4	-0.48230708
244	0x3ea58a3f	0.32332036
245	0xbf233a05	-0.63760406
246	0xbf197aae	-0.5995282
247	0x3fa4ac1a	1.2865021
248	0xbe95a1af	-0.29224917
249	0x3ed3ca97	0.413655
250	0xbf829588	-1.0201883
251	0x3f44af5e	0.7683009
252	0xbe80cce1	-0.2515631
253	0xbf8f6f74	-1.1205888
254	0x4009e8e1	2.1548388
255	0x3f544852	0.8292285

layers_mu.5.bias f4 [50]
0	0xbf3428d8	-0.7037482
1	0x3f0e95e0	0.5569744
2	0xbf3ea9a0	-0.7447758
3	0x3f2b219a	0.66848147
4	0x3e284436	0.1643227
5	0xbd9b54c9	-0.07584531
6	0xbf0e96cd	-0.55698854
7	0xbedb1ce9	-0.42795494
8	0xbf122e4a	-0.5710188
9	0x3dbbbd96	0.0916702
10	0xbe07e0f6	-0.1326941
11	0xbee662c7	-0.44997236
12	0xbf881f16	-1.0634487
13	0xbf43feca	-0.7656065
14	0xbf1a8dcf	-0.6037263
15	0xc022dad5	-2.5446064
16	0x3dfc8771	0.12330521
17	0x3f81bf16	1.013644
18	0xbd691494	-0.05690439
19	0x3ec618a4	0.38690674
20	0xbff6a59e	-1.9269292
21	0x3d87de3d	0.066341855
22	0x3ff1df19	1.8896209
23	0x3f178127	0.59181446
24	0xbf51d580	-0.819664
25	0xbfaf910d	-1.3716141
26	0xbf83812c	-1.0273795
27	0x3e2b3368	0.16718829
28	0xbcdf97d0	-0.02729407
29	0x402ba130	2.681713
30	0xbe96cd69	-0.2945359
31	0x3f3d16fb	0.7386319
32	0xbec28285	-0.37990203
33	0xbf3d7b1d	-0.7401598
34	0xbfa51bfc	-1.2899165
35	0xbf89aa35	-1.0755068
36	0x3f140b34	0.57829595
37	0x400115c5	2.0169537
38	0xbf840886	-1.0315101
39	0x3fee6cec	1.862699
40	0xbeb85620	-0.36003208
41	0x3f0efa9c	0.5585115
42	0x3f96093c	1.1721568
43	0x3e57b981	0.21066858
44	0xbfe6e2de	-1.8037984
45	0x3ec387d2	0.3818956
46	0xbec68f54	-0.38781226
47	0x3e7b7ab2	0.24558523
48	0xbeacd041	-0.33752635
49	0xbf08aef0	-0.53391933

layers_sigma.0.weight f4 [20, 50]
0	0xbd0406c0	-0.032233
1	0xbd2a977e	-0.04164838
2	0x3e5dfbbe	0.21678063
3	0x3b435e1c	0.0029810732
4	0xbe9e46c1	-0.30913356
5	0x3d3dbdaf	0.046323474
6	0x3dd0acac	0.101891845
7	0x3d06d214	0.03291519
8	0xbcb18a19	-0.021672295
9	0xbcadeab6	-0.021230083
10	0xbd92d05b	-0.07168647
11	0xbcb42546	-0.02199043
12	0x3d98f400	0.07468414
13	0xbd477e8f	-0.04870468
14	0xbd2c18fb	-0.04201601
15	0x3cf2380e	0.029567745
16	0xbd95c813	-0.07313552
17	0xbe0d0aae	-0.13773605
18	0xbcca94b2	-0.024729107
19	0xbd4ccab4	-0.049998
20	0x3ddda44e	0.10822354
21	0x3cbba0ab	0.02290376
22	0xbd95a9fd	-0.07307813
23	0x3ef4e273	0.47829017
24	0x3cde171f	0.027110634
25	0x3bbda4cc	0.0057874676
26	0xbd40d831	-0.047081176
27	0x3d0b0ae6	0.03394594
28	0x3e100ce1	0.14067413
29	0xbd6f52bd	-0.058428515
30	0xbe5c4662	-0.21511224
31	0x3d5dae3d	0.054121245
32	0x3d895d1c	0.06707212
33	0xbce84992	-0.028355394
34	0xbd850e28	-0.06496841
35	0xbdcb8183	-0.09936812
36	0xbdc7c2d7	-0.097539596
37	0x3d3e61d2	0.046480007
38	0xbf878134	-1.0586305
39	0xbc476984	-0.012171153
40	0xbe81bb72	-0.25338322
41	0xbcbb7453	-0.022882616
42	0xbd575126	-0.052567624
43	0xbe33bd87	-0.17552768
44	0x3da91264	0.08255461
45	0x3dae67c4	0.085158855
46	0x3e18564c	0.1487667
47	0xbcf68d44	-0.030096658
48	0x3eeaacf1	0.4583507
49	0x3e088cce	0.13334963
50	0xbe0eb5e3	-0.13936572
51	0x3d1cb695	0.03826006
52	0xbc238ff9	-0.009983056
53	0xbd290b1e	-0.041270368
54	0x3e86b330	0.26308584
55	0x3c84c5ec	0.016207658
56	0xbcf1abed	-0.029500926
57	0xbd287339	-0.04112551
58	0x3d61c280	0.05511713
59	0x3d9f5812	0.0778047
60	0x3ddf8dea	0.1091574
61	0x3b8eca14	0.0043575857
62	0x3d3222f2	0.043490358
63	0xbcb119a2	-0.021618668
64	0x3d838fb6	0.06423895
65	0x3d6bab14	0.0575362
66	0x3c85d94f	0.016338972
67	0xbcc07d58	-0.023497269
68	0xbd98bdc5	-0.07458071
69	0x3da4d627	0.08048659
70	0x3ab31f94	0.0013666027
71	0xbc6ab20e	-0.014324678
72	0x3ba0ea70	0.0049107596
73	0xbce22ffd	-0.027610773
74	0x3d950866	0.072769925
75	0x3d06f486	0.03294804
76	0x3c9b1ce2	0.01893467
77	0xbd6ef1c6	-0.058336042
78	0x3d8e2d50	0.069422364
79	0x3d3cda27	0.046106484
80	0x3c5d3d9a	0.0135034565
81	0x3c9f7b16	0.019467872
82	0xbcc1d1f6	-0.023659687
83	0x3dede1be	0.116153225
84	0xbd557db7	-0.052121844
85	0x3d11b908	0.03557685
86	0x3d3ce96a	0.04612104
87	0xbd8a153e	-0.06742333
88	0x3d0f2559	0.034947727
89	0xbcee4f00	-0.029090405
90	0x3cd5f91a	0.026119757
91	0xbd485550	-0.048909485
92	0xbe038855	-0.12844975
93	0x3d739381	0.059466843
94	0x3c336caf	0.010951205
95	0xbd45198f	-0.048120078
96	0x3d0582e8	0.032595545
97	0xbd14d37c	-0.0363345
98	0x3d826b4d	0.06368122
99	0x3d0b5197	0.034013357
100	0xbe13ffb8	-0.14453018
101	0x3da361eb	0.07977661
102	0xbecc3e11	-0.39891103
103	0xbbf581ca	-0.0074922787
104	0xbd051d63	-0.03249873
105	0xbeb8ac76	-0.36069077
106	0x3da3a568	0.07990533
107	0xbc0de916	-0.008661529
108	0xbfba3ef9	-1.4550468
109	0xbdd747e1	-0.10511757
110	0xbe2e384a	-0.1701366
111	0xbd400e0c	-0.046888396
112	0x3e0b392e	0.13596031
113	0xbe85d3d7	-0.26138183
114	0xbcf2bd20	-0.029631197
115	0x3dc58e69	0.09646303
116	0xbe3ddff4	-0.18542463
117	0x3fa72c0a	1.3060315
118	0xbd9806e3	-0.074231885
119	0xbd381f12	-0.044951506
120	0x3cdad268	0.026711658
121	0x3d91097f	0.07081889
122	0x3ce4158a	0.027842302
123	0xbd72ddc2	-0.059293516
124	0x3c68974e	0.01419623
125	0x3d311246	0.043230318
126	0xbc4bae05	-0.012431626
127	0xbd146de0	-0.036237597
128	0xbc1086fc	-0.008821245
129	0xbcfc3264	-0.030785747
130	0x3f469052	0.77563965
131	0x3d609e09	0.054838214
132	0x3eb08679	0.34477594
133	0x3ea0f8ab	0.3143972
134	0xbd41cab5	-0.047312457
135	0x3c256cd8	0.010096751
136	0xbd2d3478	-0.042286366
137	0xbdfb8356	-0.1228091
138	0xbeac7f04	-0.33690655
139	0xbc566925	-0.013086592
140	0x3e4a7a8a	0.19773307
141	0xbd0d7197	-0.034532156
142	0x3e236174	0.15955144
143	0x3feaec48	1.8353357
144	0xbb5d27bc	-0.0033745607
145	0x3e722b74	0.23649389
146	0x3e0b4afc	0.13602823
147	0x3eb2fa36	0.3495652
148	0xbeac8262	-0.33693224
149	0xbe1a65ea	-0.1507794
150	0x3b1fb500	0.002436936
151	0xbd8a4b20	-0.0675261
152	0x3e42317b	0.18964188
153	0x3dc4cb1a	0.09609051
154	0x3e2c8fc4	0.16851717
155	0x3f7e44be	0.9932364
156	0xbd5a5c6a	-0.05331079
157	0xbe549f01	-0.2076378
158	0xbc1b5396	-0.009480378
159	0xbe881af9	-0.26583079
160	0xbe12064c	-0.14260215
161	0xbd8bb69c	-0.06821939
162	0xbe08d779	-0.13363446
163	0x3e282022	0.16418508
164	0x3c64f866	0.013975238
165	0xbd818030	-0.06323278
166	0x3b86e6e8	0.0041168816
167	0xbf02cbf8	-0.5109248
168	0xbe30176e	-0.17196438
169	0x3d606824	0.054786816
170	0xbda602fa	-0.081060365
171	0xbe206288	-0.15662587
172	0x3d95e138	0.07318348
173	0x3f2ab6d8	0.6668525
174	0x3d4744e2	0.048649676
175	0x3e0c21f1	0.13684823
176	0xbd2ca24a	-0.04214696
177	0x3cdca8be	0.026935931
178	0x3d9f7d3c	0.077875584
179	0x3e109cd7	0.1412233
180	0xbee5dda6	-0.44895667
181	0x3d3c3821	0.045951966
182	0x3b163bb0	0.002292376
183	0xbdb974ec	-0.09055504
184	0xbdb61104	-0.08889964
185	0xbde0c0a2	-0.10974242
186	0xbd311bb8	-0.043239325
187	0x3ccf6a2a	0.025319178
188	0x3f8ea7c3	1.1144947
189	0xbcb9dc82	-0.022688154
190	0x3d8f3d9d	0.06994174
191	0xbdb3557d	-0.0875654
192	0xbd54672c	-0.051856205
193	0x3f8b470e	1.0881059
194	0xbd178227	-0.036989357
195	0x3f554649	0.8331037
196	0x3e7168f2	0.2357519
197	0xbe327d54	-0.17430621
198	0x3f28b850	0.6590624
199	0xbd128b56	-0.035777412
200	0xbc08b40e	-0.00834371
201	0x3db5b0a1	0.0887158
202	0x3f64d2b5	0.89384013
203	0x3e173cf7	0.1476935
204	0x3e641b0c	0.22275943
205	0xbf00624a	-0.5014998
206	0xbbfa36b7	-0.007635917
207	0x3bd1a802	0.006398202
208	0xbfb159d7	-1.3855542
209	0x3cadc498	0.021211907
210	0x3e57526e	0.21027538
211	0x3d0bd51b	0.03413878
212	0xbd07a888	-0.03311971
213	0x3df5970b	0.119917
214	0x3a0e82e0	0.0005436372
215	0x3d7fa5bc	0.062413916
216	0x3f829d43	1.0204242
217	0xbde5bdd7	-0.1121785
218	0xbe8afc8e	-0.2714581
219	0xbd09670e	-0.033545546
220	0x3d79b164	0.06096019
221	0x3e824df5	0.25450101
222	0xbd70c3a7	-0.05878034
223	0x3ea9f277	0.33192798
224	0xbd005874	-0.031334355
225	0xbd341c28	-0.043972164
226	0x3c8e4b01	0.017369749
227	0x3c377abd	0.011198697
228	0xbced3d18	-0.028959796
229	0xbde32dfe	-0.11092757
230	0xbf946b2c	-1.1595206
231	0xbd703585	-0.05864479
232	0x3da165fe	0.078807816
233	0x3dcce8fa	0.10005374
234	0x3d85a766	0.06526069
235	0x3d285bf4	0.04110332
236	0x3cf75b37	0.030194862
237	0xbe036bfd	-0.12834163
238	0x3d86890d	0.06569109
239	0xbcdfece1	-0.027334632
240	0x3e7a794b	0.24460332
241	0x3d3a2c56	0.04545244
242	0xbcf79bed	-0.030225718
243	0xbe9863e3	-0.29763708
244	0x3d8dc8ea	0.06923087
245	0x3f92de55	1.14741
246	0xbdf59a20	-0.11992288
247	0xbe3fd726	-0.18734416
248	0xbf80eb74	-1.0071855
249	0x3c403c66	0.01173315
250	0x3dd64253	0.10461869
251	0x3e091e19	0.13390388
252	0xbf6a444a	-0.9151045
253	0xbe8e850e	-0.27835888
254	0xbdf61f34	-0.1201767
255	0xbe96689b	-0.29376683

layers_sigma.0.bias f4 [20]
0	0x3d2e833c	0.042605624
1	0xbcfec49e	-0.031099614
2	0x3d71d33a	0.059039332
3	0x3d01b5c9	0.031667504
4	0x3d15ce52	0.036573716
5	0x3d35552c	0.04427068
6	0xbc9bd523	-0.01902253
7	0xbc366e5c	-0.01113471
8	0xbcf206ad	-0.029544199
9	0xbd0a4b2e	-0.033763103
10	0xbef1c384	-0.4721948
11	0xbcf4416d	-0.029816354
12	0x3d879844	0.06620839
13	0x3dffb507	0.124857
14	0x3b5c403d	0.0033607625
15	0xbbaa3bb2	-0.0051951045
16	0x3dbcd720	0.09220719
17	0x3e264fe9	0.16241421
18	0xbcac1bae	-0.021009292
19	0xbc9dadff	-0.019248007

layers_sigma.1.weight f4 [20, 20]
0	0xbfa58c2a	-1.29334
1	0xbd5e1245	-0.054216642
2	0xbed07f9f	-0.40722367
3	0x3fcef3bd	1.6168133
4	0x3d818a1c	0.063251704
5	0xbeded03d	-0.43518248
6	0x3ef3532b	0.4752439
7	0x3ee3bdf8	0.44480872
8	0xbf26e327	-0.65190357
9	0x3d63db3b	0.055628996
10	0xbfe2da9c	-1.7722964
11	0x3f195a9c	0.59903884
12	0xbe4b30f5	-0.19842894
13	0x3eab47a6	0.334531
14	0x3c952dd2	0.018210325
15	0x3f6895a8	0.9085336
16	0xbed088ec	-0.40729463
17	0xbf4d0fb2	-0.80102074
18	0xbd6a54b3	-0.05720968
19	0x3f721d43	0.945759
20	0x3de7cf04	0.11318782
21	0x3d63843a	0.055546023
22	0xbf26c536	-0.6514467
23	0x3e996eaa	0.29967242
24	0xbe030430	-0.12794566
25	0xbed254af	-0.41080233
26	0x3c93e559	0.018053697
27	0xbde1d264	-0.11026457
28	0xbed05b0b	-0.4069446
29	0xbe950689	-0.29106548
30	0xbf2ca348	-0.6743665
31	0x3f0b555c	0.54427123
32	0x3d798a73	0.06092305
33	0xbf3233de	-0.69610393
34	0x3ce28028	0.027649
35	0xbb21ec15	-0.0024707366
36	0x3ed4e551	0.41581205
37	0x3e1451e2	0.14484361
38	0x3a6da1e0	0.0009064954
39	0xbf92389d	-1.1423527
40	0x3e2c275e	0.16811892
41	0xbc6ea986	-0.014566785
42	0xbe186afe	-0.14884564
43	0x3e82ed5c	0.25571716
44	0xbf0ec9d1	-0.557767
45	0x3e567fec	0.20947236
46	0xbd10c6cf	-0.03534585
47	0x3f155fe6	0.58349454
48	0xbdbb158f	-0.09134971
49	0xbf5ad082	-0.8547441
50	0x3f48e958	0.78481054
51	0xbca2f59f	-0.019892512
52	0xbd86bfe9	-0.06579573
53	0x3f47c834	0.7803986
54	0x3cd73260	0.026269138
55	0xbc4c423a	-0.0124669615
56	0xbf0e583c	-0.55603385
57	0xbc01a45d	-0.007912722
58	0xba148b58	-0.0005666516
59	0xbe97e394	-0.29665816
60	0x3d2b6f28	0.041854054
61	0x3ca24eba	0.01981293
62	0xbf48a5f2	-0.7837821
63	0xbf07d14b	-0.5305373
64	0x3dbbbeec	0.09167275
65	0x3e431379	0.19050397
66	0x3cb41f86	0.021987688
67	0xbd23c84f	-0.03998595
68	0xbe1c41b0	-0.15259433
69	0x3ebb3b50	0.3656869
70	0xbec756f5	-0.3893353
71	0xbdeb06a1	-0.11475874
72	0xbf2e5a87	-0.68106884
73	0x3f02c2be	0.51078403
74	0xbc1a5fff	-0.009422301
75	0xbb569ed0	-0.0032748468
76	0xbe1c66ae	-0.15273544
77	0xbeaffc93	-0.34372386
78	0xbcde311d	-0.027123028
79	0xbd8f4d3a	-0.06997152
80	0xbdd092fd	-0.10184286
81	0xbd2fe3d6	-0.04294189
82	0x3ed2eca1	0.4119616
83	0xbe55b517	-0.20869862
84	0xbf474cee	-0.7785176
85	0x3e8e6fc4	0.27819645
86	0x3eebd851	0.46063474
87	0xbec8f3c0	-0.39248466
88	0xbe940705	-0.28911605
89	0xbee29766	-0.44256133
90	0xbe870f5b	-0.26378903
91	0x3d402c28	0.04691711
92	0xbe5fd171	-0.2185724
93	0xbd91cc84	-0.071190864
94	0xbc072299	-0.008247995
95	0xbc79604c	-0.015220713
96	0x3f5b8425	0.8574851
97	0xbf3ad696	-0.7298368
98	0x3c1f7b10	0.00973393
99	0x3d6ce01f	0.057830926
100	0x3d86cf60	0.065825224
101	0xbd122721	-0.035681847
102	0xbf581b2f	-0.8441648
103	0xbf1c1bd6	-0.60979974
104	0x3de7be31	0.11315573
105	0x3e7a0d3a	0.24419108
106	0x3bcd23d3	0.006260374
107	0xbd7485df	-0.059697982
108	0xbe21d340	-0.15803242
109	0x3ecf38c2	0.4047299
110	0xbe99a313	-0.30007228
111	0xbe008a57	-0.12552772
112	0xbf3dac20	-0.74090767
113	0x3f0cbca5	0.5497535
114	0x3be4be1f	0.006980672
115	0x3a9e1962	0.0012062008
116	0xbdffd530	-0.12491834
117	0xbeaee0ae	-0.34155792
118	0xbc243342	-0.010021986
119	0xbd917b77	-0.07103627
120	0x3ea96625	0.33085743
121	0xbdc04b69	-0.09389383
122	0x3e230d58	0.15923059
123	0xbe8f6be6	-0.28012007
124	0xbcbf6df4	-0.02336786
125	0x3e03fa4a	0.12888446
126	0xbdd2a893	-0.10286059
127	0xbdc90539	-0.09815449
128	0x3dad054e	0.084482774
129	0xbc82fd7a	-0.015990008
130	0xbd92a4f3	-0.07160368
131	0xbe2e2a01	-0.1700821
132	0x3db8226d	0.08990941
133	0xbc934604	-0.017977722
134	0x3cd4c21e	0.025971469
135	0xbded3265	-0.115818776
136	0x3db00d63	0.08596303
137	0x3e5de8b6	0.21670803
138	0xbbe9e684	-0.0071380753
139	0xbe68e5ec	-0.22743958
140	0x3d11ca3a	0.03559325
141	0xbca07060	-0.019584835
142	0xbe346f80	-0.17620659
143	0x3f0bf0fa	0.54664576
144	0xbe4ba429	-0.19886841
145	0xbe8d342a	-0.2757886
146	0xbcdd7b8d	-0.027036453
147	0xbf345368	-0.7043977
148	0xbf1dd4e7	-0.6165299
149	0x3ce6bc12	0.02816585
150	0x3e44cbc5	0.19218357
151	0xbf947e7b	-1.1601099
152	0xbd5a132d	-0.053240944
153	0xbea56c5c	-0.32309234
154	0xbb8b8642	-0.004257948
155	0xbd5727f5	-0.05252834
156	0xbe0c39ad	-0.13693877
157	0x3df0904e	0.11746274
158	0xbcb15da7	-0.021651102
159	0xbd8361c1	-0.064151295
160	0x3d7d1df0	0.06179613
161	0xbca60b0a	-0.020268936
162	0xbdb81370	-0.089880824
163	0xbee85ad3	-0.45381793
164	0xbef0539d	-0.46938792
165	0xbe17e12d	-0.14831991
166	0xbce49624	-0.027903624
167	0xbe473309	-0.19453062
168	0x3dcf6ea5	0.10128526
169	0x3dcb49b9	0.09926171
170	0x3f274841	0.65344626
171	0x3db0573c	0.08610389
172	0xbdb2b96b	-0.08726772
173	0xbf0f6ec3	-0.56028384
174	0x3b8f5eec	0.0043753292
175	0x3d8b7b80	0.06810665
176	0xbf2f5721	-0.68492323
177	0xbee44aa2	-0.4458819
178	0xbd37bc96	-0.044857584
179	0xbc9d91f4	-0.019234635
180	0x3d22bf84	0.039733425
181	0x3d1dca32	0.038522907
182	0x3f2c4d05	0.6730502
183	0xbe6aa051	-0.22912718
184	0xbd900a2f	-0.07033192
185	0x3ed40903	0.41413125
186	0xbd57a5ba	-0.052648284
187	0x3e02123b	0.12702267
188	0x3e87ed03	0.26548013
189	0x3e03f46a	0.12886205
190	0xbf974c27	-1.1820115
191	0xbf2aac66	-0.6666931
192	0x3e434cab	0.19072215
193	0x3f0ad6c4	0.54233956
194	0x3cb93ea4	0.022612877
195	0xbc89f09c	-0.016838364
196	0xbf209792	-0.6273128
197	0xbe86aa5b	-0.26301846
198	0xbcdc4c02	-0.026891712
199	0x3f76f211	0.96463114
200	0x3df667b6	0.120315
201	0xbcd9134b	-0.026498457
202	0xbe052ea5	-0.13006075
203	0x3c8afe5e	0.016966995
204	0x3ea926ef	0.33037516
205	0xbe9cf344	-0.30654347
206	0xbd4a0741	-0.049323324
207	0x3e1d02ee	0.15333149
208	0x3f0c8c73	0.5490181
209	0xbeb5cd7d	-0.35508338
210	0x3e00d712	0.12582043
211	0xbf115d60	-0.56783104
212	0xbe300923	-0.17190985
213	0xbe50060c	-0.20314807
214	0x3c85927b	0.016305199
215	0xbd29c6d3	-0.04144938
216	0x3e45ae88	0.1930486
217	0xbf1bb40f	-0.6082162
218	0xbcbe04f8	-0.023195729
219	0xbda99b8b	-0.082816206
220	0xbdf59031	-0.11990393
221	0xb983cd60	-0.00025139283
222	0xbd030713	-0.03198917
223	0xbeb0951d	-0.34488764
224	0xbe9db327	-0.30800745
225	0xbf2dd1ef	-0.6789846
226	0x3c8b9cb5	0.017042497
227	0xbf13e0ac	-0.577647
228	0x3e9b7a16	0.30366582
229	0xbf33cc73	-0.7023384
230	0xbf0cda59	-0.5502067
231	0x3d833c71	0.06408013
232	0xbf02b27f	-0.51053613
233	0x3e1c533c	0.15266126
234	0x3b42a51c	0.0029700464
235	0x3d140b02	0.03614331
236	0xbd796820	-0.060890317
237	0x3f28b64b	0.65903157
238	0x3d12fac5	0.035883684
239	0x3e958950	0.29206324
240	0x3d04c6bf	0.0324161
241	0xbcfdcddb	-0.030981949
242	0xbf3a4d35	-0.7277406
243	0x3a97b238	0.0011573499
244	0xbf527486	-0.8220905
245	0xbe394c46	-0.18095502
246	0xbdf33505	-0.11875347
247	0x3cdf9617	0.027293248
248	0x3edd5bc8	0.43234086
249	0x3e962b69	0.29329994
250	0xbeb02c6a	-0.34408885
251	0xbd6b4d32	-0.057446666
252	0x3f4dd1bf	0.8039817
253	0x3eb82f8e	0.3597378
254	0x3b97893e	0.004624515
255	0xbd6e965a	-0.058248855

layers_sigma.1.bias f4 [20]
0	0x402d346e	2.706325
1	0x3f96b9a2	1.1775401
2	0xbf907297	-1.128497
3	0x3f7e5bfe	0.9935912
4	0x3fa1a9e6	1.2629974
5	0xbfa82291	-1.3135549
6	0x3f33b036	0.7019075
7	0x3fa8539b	1.3150514
8	0x3d808898	0.06276053
9	0x3f47bd5b	0.7802331
10	0xbef62621	-0.48075965
11	0x3f783c13	0.96966666
12	0x3f651303	0.89482135
13	0x3fb80241	1.4375688
14	0x3f88b540	1.0680313
15	0x3f505308	0.81376696
16	0x3fb51cf8	1.4149466
17	0x3fb7289c	1.4309268
18	0x3f958236	1.1680362
19	0x3f6bfdb2	0.92183983
