vae/saved_models/free_endpoints/various_s/free_nepochs600_lr0.001_N20_n2000_b150_s4_resumedFalse_testFalse.pt (torch, 23481 bytes, 36 tensors)

enc_shared.weight f4 [15, 20]
0	0xbe8850d3	-0.26624164
1	0x3bee3a92	0.0072701657
2	0x3e0fb5e5	0.14034231
3	0xbccb362b	-0.024806103
4	0xbcdb941a	-0.026804019
5	0x3db4673e	0.088087544
6	0xbe3bbd98	-0.18334043
7	0x3cb2b9d2	0.021817122
8	0xbd1a2742	-0.037635095
9	0x3d2f8295	0.042849142
10	0x3d236c62	0.039898284
11	0xbd298be7	-0.041393187
12	0xbdf7c94f	-0.120989434
13	0xbcce776b	-0.025203427
14	0xbdce0fa2	-0.100615755
15	0x3db1ce09	0.08681876
16	0xbce8c0db	-0.028412273
17	0x3c50fbad	0.012755317
18	0x3d20de48	0.039274484
19	0xbea02266	-0.31276244
20	0xbea8cc6c	-0.32968462
21	0xbde63773	-0.11241045
22	0xbdb28b72	-0.08718003
23	0xbabca215	-0.0014391566
24	0xbe321513	-0.17390852
25	0x3db2e21c	0.08734533
26	0x3e168307	0.1469842
27	0xbcc53797	-0.024074359
28	0xbc1cf5a2	-0.009580048
29	0xbb458833	-0.0030140996
30	0xba49a6c3	-0.0007692391
31	0x3e151ab9	0.14560975
32	0x3e3518c4	0.17685229
33	0xbd9dd646	-0.07706885
34	0x3d7e30c0	0.06205821
35	0xbdc4159c	-0.09574434
36	0xbdb92350	-0.090399384
37	0xbbf726fc	-0.007542489
38	0xbcfc5f5d	-0.030807192
39	0xbee54f02	-0.4478684
40	0xbaf3f692	-0.0018612912
41	0xbe758e62	-0.23980096
42	0x3cc44f9a	0.023963738
43	0xbd5c0501	-0.05371571
44	0x3dc72481	0.097237594
45	0xbcd3292a	-0.025776464
46	0x3e40c9b3	0.18826942
47	0xbe418cbb	-0.1890134
48	0x3b0d6066	0.002157235
49	0xbd1db505	-0.03850271
50	0xbe3f3604	-0.18672949
51	0x3b06e2f6	0.0020582057
52	0xbdfc6a04	-0.123249084
53	0x3d46b44a	0.04851178
54	0xbe3db903	-0.18527608
55	0x3ee99e7d	0.4562873
56	0xbe024f29	-0.1272551
57	0xbd32d936	-0.04366418
58	0x3d7f61c1	0.062349085
59	0x3e45d2e7	0.19318734
60	0xbe317902	-0.17331317
61	0x3d63d5c8	0.0556238
62	0xbca30a53	-0.019902384
63	0x3e3808fc	0.17972177
64	0x3d3ad018	0.04560861
65	0xbd50f835	-0.05101796
66	0x3e7c823d	0.24659057
67	0xbd8b81c1	-0.06811858
68	0x3e46d62a	0.19417635
69	0x3d115780	0.035483837
70	0xbb0a36b8	-0.0021089744
71	0x3e453548	0.19258606
72	0x3dab0160	0.08349872
73	0xbdbdd1e5	-0.0926855
74	0xbdf259a6	-0.11833505
75	0xbc37a58e	-0.011208905
76	0x3d1b4a40	0.037912607
77	0x3cb4d9fa	0.022076596
78	0xbd59cccc	-0.053173825
79	0xbd2a5924	-0.041588917
80	0xbcbe6e01	-0.023245813
81	0x3d2e3daa	0.042539276
82	0x3d8bad13	0.06820121
83	0xbd920aef	-0.07130992
84	0x3db0fba7	0.08641749
85	0xbe207c05	-0.1567231
86	0x3d82f3e5	0.063941754
87	0x3d7fc821	0.062446717
88	0x3e098b02	0.13431934
89	0xbddf2320	-0.108953714
90	0x3e2efcea	0.17088667
91	0xbbac880d	-0.005265242
92	0x3e0168f1	0.12637688
93	0xbd99ad51	-0.075037606
94	0xbd90830c	-0.07056245
95	0x3e5f961f	0.2183461
96	0x3dd1f58a	0.10251911
97	0xbd692d15	-0.05692776
98	0xbdf10f91	-0.11770547
99	0xbdcab062	-0.098969236
100	0x3ebcf224	0.3690349
101	0x3d3706dd	0.04468428
102	0x3d850acf	0.06496202
103	0xbdf13cc1	-0.11779166
104	0x3dd4bd0c	0.1038762
105	0xbd0f6567	-0.035008814
106	0x3dccedee	0.10006319
107	0x3da6d0d0	0.081452966
108	0xbcc55ed4	-0.02409307
109	0x3d6eb244	0.058275476
110	0x3e99e7d7	0.30059692
111	0xbc8fed0e	-0.017569091
112	0xbe2dd136	-0.16974339
113	0x3c7a54a3	0.015278968
114	0x3b4da632	0.0031379578
115	0x3dadc4bd	0.084847905
116	0xbd4d0ebd	-0.050062884
117	0xbda8e250	-0.08246291
118	0x3e5061ba	0.2034978
119	0x3ea5b535	0.32364812
120	0x3eba6dfd	0.3641204
121	0xbb6d33a6	-0.0036194115
122	0x3d8cad8e	0.068690404
123	0x3ddc38c3	0.10753014
124	0x3e411316	0.18854937
125	0xbe0456c8	-0.1292373
126	0xbd83f305	-0.06442837
127	0x3d817c8f	0.06322586
128	0x3d4ab8cb	0.04949264
129	0x3da21e5e	0.07915948
130	0xbd157efc	-0.036498055
131	0xbdab6749	-0.083693095
132	0xbdc13f37	-0.094358854
133	0x3d7079cc	0.058709905
134	0xbe40af17	-0.18816791
135	0xb9925df9	-0.00027917305
136	0x3d38fbe0	0.04516208
137	0x3d1b5e59	0.037931774
138	0xbd9661d1	-0.07342876
139	0x3eab6658	0.3347652
140	0x3e98519c	0.29749763
141	0x3dc70310	0.09717381
142	0xbd2d1a28	-0.042261273
143	0xbbf6f36d	-0.007536343
144	0xbd79e156	-0.061005913
145	0xbd063bb9	-0.0327718
146	0x3cc296cb	0.023753544
147	0xbcda5464	-0.026651569
148	0xbc940a6c	-0.018071376
149	0xbdc4207c	-0.095765084
150	0xbd9ee8a4	-0.077592164
151	0xbcbbf6c4	-0.022944815
152	0x3c7049c8	0.014666028
153	0x3c11cbee	0.008898718
154	0x3d1cfda9	0.038327847
155	0xbc526872	-0.0128422845
156	0xbc8ada65	-0.016949842
157	0x3d1caa12	0.03824813
158	0x3d9749ef	0.073871486
159	0x3eb04776	0.3442952
160	0xbea74503	-0.3266984
161	0x3d8a6de1	0.06759239
162	0x3d91f805	0.07127384
163	0x3d60de3d	0.054899443
164	0x3e25aca4	0.16179138
165	0xbe08a751	-0.13345076
166	0xbbe41aa7	-0.006961185
167	0xbd374cf9	-0.04475114
168	0xbd6a562f	-0.057211097
169	0x3d8e3c4a	0.06945093
170	0xbc8217eb	-0.015880546
171	0xbe10d534	-0.1414383
172	0xbdd3043b	-0.10303541
173	0x3dee4079	0.11633391
174	0xbdba45f4	-0.09095374
175	0xbd80b023	-0.062835954
176	0xbc599e1b	-0.013282324
177	0x3dcd3717	0.10020273
178	0x3e39959a	0.18123475
179	0xbb783344	-0.0037872354
180	0x3ebd4bdd	0.36971942
181	0xbdac2573	-0.0840558
182	0x3c9f6b5c	0.019460373
183	0x3ca4c273	0.020112252
184	0xbde3b6e0	-0.11118865
185	0x3d2cdfb9	0.042205546
186	0xbd8cf12d	-0.06881938
187	0x3d8bc7cf	0.0682522
188	0x3da6a224	0.081363946
189	0x3ce364f6	0.027758103
190	0xbd2144a1	-0.03937209
191	0x3ddd8b38	0.108175695
192	0x3dfc742b	0.12326845
193	0xbdc64543	-0.096811794
194	0xbdafdb9e	-0.085868105
195	0x3a8e525f	0.0010858289
196	0xbcca2538	-0.02467595
197	0xb9f6c2e3	-0.00047065978
198	0xbe11037f	-0.1416149
199	0x3cd43bc8	0.025907412
200	0xbe9532ac	-0.29140222
201	0x3dc00409	0.0937577
202	0xbda12046	-0.07867484
203	0xbdfd2633	-0.123608015
204	0x3dd4e70d	0.10395632
205	0x3d06c002	0.032897957
206	0xbe2e01aa	-0.16992822
207	0x3e19240d	0.14955159
208	0xbd10820d	-0.035280276
209	0xbe4e32b6	-0.20136532
210	0x3dfe0f21	0.12405229
211	0xbde550cb	-0.11197051
212	0xbe8f2c90	-0.27963686
213	0x3d150679	0.036383126
214	0xbdd5e67b	-0.10444351
215	0x3e7e012d	0.24805136
216	0x3d866624	0.065624505
217	0xbd92fe9d	-0.0717747
218	0xbd1c3563	-0.03813685
219	0x3d5b391d	0.053521264
220	0xbe54e35f	-0.2078986
221	0x3d03cb2f	0.032176193
222	0x3d1e39cb	0.038629334
223	0x3da84781	0.08216763
224	0xbdceae1f	-0.10091805
225	0x3dfaf7da	0.12254305
226	0xbdc9887f	-0.09840488
227	0xbbda2051	-0.0066566844
228	0x3d86a5e7	0.06574612
229	0xbdacf488	-0.08445078
230	0xbe261de8	-0.16222346
231	0xbd078e04	-0.03309442
232	0x3da222e9	0.07916815
233	0x3e0ac1e9	0.13550533
234	0x3da250ce	0.079255685
235	0xbe462c1c	-0.19352764
236	0x3e2b30b4	0.16717798
237	0x3d0f3102	0.034958847
238	0xbc56f6c6	-0.013120359
239	0xbebf5829	-0.37371948
240	0xbe7c680e	-0.24649069
241	0xbd5068a9	-0.05088106
242	0xbe0fbfd8	-0.14038026
243	0x3bbc78bc	0.0057516973
244	0x3e2f8ad3	0.17142801
245	0xbe0b5ce5	-0.13609655
246	0xbe8a47c8	-0.2700789
247	0x3e59049f	0.21193169
248	0x3c43e0cd	0.011955452
249	0x3d87d2ca	0.06632002
250	0xbd4519e0	-0.04812038
251	0x3d7a008b	0.061035674
252	0xbe3a710e	-0.1820719
253	0x3cdd7d4c	0.027037285
254	0xbe7142c5	-0.23560627
255	0x3ddb4850	0.10707152

enc_shared.bias f4 [15]
0	0x3f0f89e2	0.5606977
1	0x3f33e11b	0.7026536
2	0x3e390283	0.18067364
3	0xbe91308b	-0.28357348
4	0x3e6bf266	0.23041686
5	0x3eae5fa7	0.34057352
6	0x3f314547	0.69246334
7	0x3f271845	0.6527141
8	0xbee2fc30	-0.4433303
9	0xbf2fee13	-0.6872265
10	0xbef06bb3	-0.46957168
11	0x3f39955c	0.7249353
12	0x3f1f7749	0.6229139
13	0x3f05759c	0.5213258
14	0x3e951574	0.2911793

enc_mu.weight f4 [4, 15]
0	0x3eb0bfdc	0.34521377
1	0x3ef4131b	0.47670826
2	0xbd032de2	-0.03202618
3	0x3e6c7116	0.23090014
4	0x3e412094	0.18860084
5	0xbe5cf41f	-0.215775
6	0xbf056f13	-0.5212261
7	0xbee3572c	-0.44402444
8	0x3eed32ef	0.46327922
9	0xbefb05b6	-0.49027795
10	0x3e1e0162	0.15430215
11	0x3de00dc7	0.10940128
12	0x3e09486f	0.13406537
13	0xbe2c22e1	-0.1681018
14	0xbe3cf737	-0.1845368
15	0x3e6848a8	0.22683966
16	0xbf085ba5	-0.5326484
17	0xbf147c6b	-0.58002347
18	0xbeeb3219	-0.4593666
19	0x3d68da4c	0.05684881
20	0x3f4d08b2	0.80091393
21	0x3ea3e5cb	0.32011256
22	0xbe587ffa	-0.21142569
23	0x3e18d618	0.1492542
24	0xbe9355b2	-0.28776318
25	0x3f4bac50	0.79559803
26	0xbe97c795	-0.29644457
27	0x3ef06a7a	0.46956235
28	0xbe69b582	-0.22823146
29	0xbdfe7b74	-0.124258906
30	0xbf197b14	-0.5995343
31	0xbe6e8f92	-0.23296955
32	0xbe109693	-0.1411994
33	0x3e98cffb	0.29846177
34	0x3e619049	0.22027697
35	0x3ebe2826	0.37140006
36	0x3e1a350e	0.15059301
37	0x3ee0c55a	0.43900567
38	0x3ea56088	0.3230021
39	0xbea4d387	-0.32192633
40	0xbd553a2a	-0.052057423
41	0xbeb3993d	-0.3507785
42	0xbe83f0d9	-0.2576969
43	0x3f37a9cf	0.7174348
44	0xbf04103d	-0.5158728
45	0x3e161f94	0.14660484
46	0x3b1e7e95	0.0024184335
47	0xbf7fa406	-0.99859655
48	0xbf29b0b2	-0.6628524
49	0xbe5a9e2f	-0.21349405
50	0xbe062f1f	-0.13103913
51	0xbe9ef77b	-0.31048188
52	0x3e5e2634	0.21694261
53	0xbca56606	-0.02019025
54	0xbe61dfad	-0.22057982
55	0xbe9c7e07	-0.305649
56	0x3f23ca47	0.63980526
57	0xbf156436	-0.58356035
58	0xbe5c6d7d	-0.21526141
59	0xbf282a3c	-0.65689445

enc_mu.bias f4 [4]
0	0x3e1b4bda	0.15165654
1	0x3dd3616a	0.10321315
2	0x3dba6f47	0.09103256
3	0xbd8b745a	-0.06809302

enc_log_var.weight f4 [4, 15]
0	0xbf91c3e3	-1.1387905
1	0xbfaecec0	-1.3656845
2	0xbe830082	-0.25586325
3	0x3f420483	0.75788134
4	0xbf62da65	-0.88614494
5	0xbf4534c6	-0.7703365
6	0xbf80f125	-1.0073591
7	0xbf9f0689	-1.2423869
8	0x3f7f7025	0.99780494
9	0x3febacea	1.8412144
10	0x3f8d7591	1.1051503
11	0xbfb06764	-1.3781552
12	0xbf825dd0	-1.0184879
13	0xbf8032d0	-1.0015507
14	0xbf1a3d20	-0.6024952
15	0xbe700d97	-0.23442684
16	0xbed96ab6	-0.42464226
17	0xbd837769	-0.0641926
18	0x3ea707f0	0.32623243
19	0xbdbd1ee3	-0.09234407
20	0xbd8d2632	-0.06892051
21	0xbe82ac2b	-0.2552198
22	0xbdc3b20e	-0.095554456
23	0x3e070b19	0.13187827
24	0x3e9657f2	0.29363972
25	0x3e23a162	0.15979531
26	0xbed63af8	-0.41841865
27	0xbe00ccf4	-0.12578183
28	0xbe839961	-0.25702956
29	0xbe68b775	-0.22726233
30	0xbec3175b	-0.38103756
31	0xbf11e3d5	-0.5698827
32	0x39aa2fd6	0.00032460567
33	0x3ea95f4c	0.33080518
34	0xbe9d3b24	-0.30709183
35	0xbe59c10e	-0.21265051
36	0xbecb7f35	-0.3974549
37	0xbf021aac	-0.5082195
38	0x3e833b66	0.25631255
39	0x3f3aac21	0.729189
40	0x3e95ee49	0.2928336
41	0xbf00a8aa	-0.5025736
42	0xbecc766e	-0.39934105
43	0xbf18b541	-0.5965157
44	0xbecc192c	-0.39862955
45	0xbde5deaf	-0.11224114
46	0xbeb1fc18	-0.34762645
47	0xbd9d1588	-0.076701224
48	0x3e6f34c4	0.23359972
49	0xbe076ea6	-0.13225803
50	0xbd606cda	-0.05479131
51	0xbe3080f9	-0.17236699
52	0xbe95133a	-0.2911623
53	0x3e004c1f	0.12529038
54	0x3e822b25	0.25423542
55	0x3d845a17	0.06462496
56	0xbe3cccb7	-0.18437468
57	0xbe86dd09	-0.2634051
58	0xbe9c0e2e	-0.30479568
59	0xbe709660	-0.23494864

enc_log_var.bias f4 [4]
0	0xbfb08c09	-1.3792735
1	0xbed10068	-0.40820622
2	0xbef8d8a0	-0.48602772
3	0xbf16658b	-0.5874869

dec_shared.weight f4 [15, 4]
0	0x3e8278ae	0.25482696
1	0xbd8684f5	-0.06568328
2	0xbc110392	-0.008850949
3	0x3e9857f8	0.29754615
4	0xbea975cb	-0.3309768
5	0x3e43dec2	0.19127944
6	0x3e791f16	0.24328265
7	0xbe7896d5	-0.24276288
8	0xbe6f3626	-0.233605
9	0xbeefb4d9	-0.46817663
10	0xbeccadb4	-0.39976275
11	0xbdb9e899	-0.090775676
12	0xbedd4e48	-0.43223786
13	0xbd940099	-0.072266765
14	0xbe6b8606	-0.23000345
15	0xbe2779b2	-0.16355017
16	0xbe3393ae	-0.17536804
17	0x3da7ffd5	0.08203093
18	0xbee98c0f	-0.4561467
19	0xbcc56122	-0.024094168
20	0xbedd4b6a	-0.432216
21	0xbcfffeaf	-0.031249372
22	0xbf3317f5	-0.6995843
23	0xbdbe4157	-0.09289806
24	0xbe4db75b	-0.20089476
25	0x3e5fdfe3	0.2186275
26	0xbe94470e	-0.2896046
27	0xbcc8151d	-0.02442413
28	0x3e8c3a08	0.27388024
29	0x3e281ab6	0.1641644
30	0xbe5ded81	-0.21672632
31	0xbe4bede9	-0.19914974
32	0xbeab9d09	-0.33518246
33	0xbe63b004	-0.22235113
34	0x3dba4780	0.09095669
35	0x3e52860c	0.20558947
36	0xbead1ccf	-0.33811042
37	0x3e56c5a6	0.20973834
38	0xbc9fca86	-0.01950575
39	0xbdca0d67	-0.098658375
40	0x3f225b9f	0.6342105
41	0x3d2850bf	0.04109263
42	0x3e8297c1	0.25506404
43	0x3db582ae	0.08862816
44	0xbe902dd2	-0.28159958
45	0x3e097eaf	0.13427232
46	0x3e7b6e0d	0.245537
47	0xbda9cd8e	-0.082911596
48	0xbee1a196	-0.44068593
49	0x3e77ce7a	0.24199858
50	0xbe9a1250	-0.30092096
51	0x3e992f8c	0.29919088
52	0xbec73c73	-0.38913307
53	0xbe8c521f	-0.27406403
54	0xbdb2e9e0	-0.08736014
55	0xbc72c47d	-0.014817354
56	0x3eac28d3	0.33624896
57	0xbd9b9fda	-0.07598849
58	0x3e93cb67	0.2886612
59	0xbe8c688b	-0.2742351

dec_shared.bias f4 [15]
0	0x3f6637dc	0.89928985
1	0x3f7bc288	0.98343706
2	0xbe835ea2	-0.25658137
3	0x3f177948	0.59169436
4	0x3f4228c7	0.7584347
5	0x3b7bd354	0.0038425522
6	0xbf776dba	-0.96651804
7	0xbf2e6cc0	-0.6813469
8	0xbf26f0bc	-0.6521108
9	0x3f2067fd	0.62658674
10	0x3f5452c8	0.82938814
11	0xbf25ca57	-0.6476187
12	0xbeacd795	-0.33758226
13	0x3f61cade	0.88200176
14	0xbf3e0cc3	-0.7423822

dec_mu.weight f4 [20, 15]
0	0xbe6bfdba	-0.23046008
1	0x3ea31709	0.31853512
2	0x3d3cf3bc	0.04613088
3	0x3e0bec4f	0.13664363
4	0x3d977ec3	0.07397225
5	0x3de8ee16	0.11373536
6	0x3e722305	0.23646171
7	0xbee3a233	-0.44459686
8	0x3ee4fa9c	0.4472245
9	0x3e816a44	0.25276387
10	0xbe26169a	-0.1621956
11	0x3f118efd	0.5685881
12	0x3d8946b2	0.06702937
13	0x3e52334b	0.20527379
14	0xbe06b504	-0.1315499
15	0x3ee13c75	0.43991438
16	0xbe5fae09	-0.21843733
17	0xbf0e8cce	-0.556836
18	0xbe89c542	-0.26908308
19	0x3de3cca9	0.1112302
20	0xbe04c575	-0.12965949
21	0x3dc17451	0.09446014
22	0x3d4f15b6	0.050557815
23	0xbe8dc815	-0.27691713
24	0xbe5cb7f0	-0.21554542
25	0x3ed8a3cf	0.42312476
26	0xbe13263d	-0.14370055
27	0x3e34c108	0.1765176
28	0xbf0e678e	-0.5562676
29	0xbdb5a16c	-0.088686794
30	0x3d15514b	0.03645448
31	0xbe412330	-0.18861079
32	0xbe32fcc0	-0.17479229
33	0x3e75a47f	0.23988532
34	0x3e5b1d60	0.21397924
35	0x3e82b50f	0.25528762
36	0x3ebb88c8	0.36627793
37	0x3da987e5	0.08277873
38	0x3e410d5b	0.18852751
39	0xbdef5d29	-0.11687691
40	0xbd8ca453	-0.0686728
41	0xbe79f373	-0.24409275
42	0x3d290e86	0.041273616
43	0xbd46caf1	-0.048533384
44	0xbe30337f	-0.17207144
45	0xbde0d525	-0.10978154
46	0xbe50e38f	-0.20399307
47	0x3eae5ed7	0.34056732
48	0x3d514118	0.05108747
49	0xbd823902	-0.063585296
50	0x3ca644d5	0.020296494
51	0xbdd0a401	-0.10187531
52	0x3de9dac0	0.114186764
53	0x3d538ef5	0.051650006
54	0x3e6af1f0	0.22943854
55	0xbc6a74b5	-0.014310052
56	0xbea3b222	-0.31971842
57	0x3d76c3a9	0.06024519
58	0x3e210b27	0.1572691
59	0x3e05f823	0.13082938
60	0xbdc0a7fe	-0.09407042
61	0x3e42856c	0.18996209
62	0xbea2ca1f	-0.3179483
63	0x3e8983fc	0.2685851
64	0xbea56575	-0.32303968
65	0xbea0942d	-0.3136305
66	0xbe104494	-0.1408866
67	0x3dcecc4d	0.10097561
68	0xbe9cad05	-0.30600753
69	0x3e55bc8c	0.20872706
70	0xbe8e8c03	-0.27841195
71	0x3e7d0fa1	0.24712993
72	0xbe972e5d	-0.2952756
73	0xbdee5ac6	-0.116384074
74	0x3e8331b0	0.25623846
75	0x3e277f97	0.16357265
76	0xbeb86b37	-0.36019298
77	0x3d9611f6	0.073276445
78	0x3b62e1a4	0.0034619356
79	0x3eb290a0	0.34875965
80	0x3f3a59b2	0.72793114
81	0x3e3dccf9	0.18535222
82	0x3e240728	0.16018355
83	0x3ed9e01b	0.4255379
84	0x3dc99e0e	0.098446
85	0xbe0441a3	-0.12915663
86	0xbe54da5c	-0.20786422
87	0x3eaf8b91	0.34286168
88	0x3ebb1a5e	0.36543554
89	0xbead8348	-0.33889222
90	0xbe264c39	-0.16240014
91	0x3e38d34a	0.1804935
92	0xbdccb8ce	-0.09996186
93	0xbe1bf47d	-0.15229984
94	0xbf0055f9	-0.50131184
95	0xbed17564	-0.40909874
96	0xbeb66f8a	-0.35631973
97	0xbe8e3c8d	-0.27780572
98	0x3e41aca8	0.1891352
99	0xbe1145d1	-0.14186789
100	0x3e33ddda	0.17565098
101	0x3d33ab34	0.043864444
102	0xbf08b869	-0.5340639
103	0x3e21cd93	0.15801077
104	0x3ec037be	0.37542528
105	0x3d2761e1	0.04086483
106	0xbccef8f4	-0.025265194
107	0xbe1e43cc	-0.1545555
108	0x3d01f0ee	0.03172391
109	0x3c767bfd	0.01504421
110	0xbe2d9b20	-0.16953707
111	0x3d83ccdb	0.064355575
112	0x3e5dd80e	0.2166445
113	0xbe65cf71	-0.22442414
114	0x3edc2ff5	0.43005338
115	0x3d1171de	0.035508983
116	0x3e216f00	0.15765
117	0x3f106957	0.56410736
118	0xbec8f5e3	-0.39250097
119	0xbec3f378	-0.3827169
120	0xbedea0cf	-0.43482062
121	0x3e976f5d	0.2957715
122	0x3eba8f3d	0.36437407
123	0x3eb6f636	0.3573472
124	0xbe20aa2d	-0.15689917
125	0xbf01b362	-0.5066434
126	0xbe870f27	-0.26378748
127	0x3e48e466	0.19618377
128	0xbe5d21e6	-0.21594962
129	0xbe94b410	-0.29043627
130	0x3b96401e	0.00458528
131	0xbd9cdba0	-0.07659078
132	0xbf1e94ef	-0.61946005
133	0xbd9495fe	-0.07255171
134	0x3e7c06b5	0.24611934
135	0xbdb37621	-0.08762766
136	0xbda04c0f	-0.07827007
137	0x3dc44540	0.09583521
138	0xbd383b3c	-0.044978365
139	0xbc2ecf92	-0.010669606
140	0x3eaa0c4f	0.33212516
141	0x3e25f0c2	0.16205123
142	0xbdee9753	-0.116499566
143	0xbde8c596	-0.113658115
144	0x3e615ad0	0.22007298
145	0x3c8dd1c7	0.017311944
146	0xbd3cb180	-0.046067715
147	0x3e0fe3ad	0.14051695
148	0xbc569aa1	-0.01309839
149	0x3d145a9c	0.036219224
150	0xbe07f188	-0.1327573
151	0x3e749379	0.23884381
152	0xbf2a0720	-0.6641712
153	0xbdf00c1f	-0.11721062
154	0xbebfb84b	-0.37445292
155	0xbe1453e2	-0.14485124
156	0xbe474b45	-0.19462307
157	0x3ea84a2c	0.3286909
158	0xbe406a10	-0.1879046
159	0xbd6c6de2	-0.05772198
160	0x3e2262fc	0.15858072
161	0x3d99683d	0.07490585
162	0x3dd2470c	0.10267457
163	0xbe9d92fe	-0.3077621
164	0xbe3a5187	-0.18195163
165	0xbe974be1	-0.2955008
166	0x3db3a365	0.087713994
167	0x3e7e949b	0.24861376
168	0x3e7cca7e	0.2468662
169	0x3e6a4eb1	0.22881581
170	0x3ed259f1	0.41084245
171	0x3e433067	0.19061433
172	0x3e1ee8bf	0.15518473
173	0x3e1dda1d	0.15415235
174	0xbe193208	-0.14960492
175	0xbe1b9f3c	-0.15197462
176	0xbe3b0bb8	-0.18266189
177	0xbe6b91ff	-0.23004912
178	0x3e917070	0.28406096
179	0x3e079b12	0.13242748
180	0x3e93a31c	0.2883538
181	0xbe2b1b61	-0.16709663
182	0x3e9b1681	0.30290607
183	0x3e6a1c01	0.22862245
184	0xbd8b3cbf	-0.06798696
185	0xbe974114	-0.29541838
186	0xbe989f51	-0.2980905
187	0xbec70580	-0.38871384
188	0x3edca825	0.43097034
189	0xbeb6609f	-0.3562059
190	0xbdfc757d	-0.123270966
191	0xbe8db5da	-0.27677804
192	0x3bb432aa	0.0054992037
193	0xbae6531d	-0.0017572377
194	0x3d84a5b5	0.064769186
195	0x3e1dbf64	0.15405041
196	0x3d53617a	0.051606633
197	0xbe467b8a	-0.19383064
198	0x3dca032c	0.09863886
199	0xbdfcb21a	-0.12338658
200	0x3e374635	0.17897876
201	0x3d044487	0.032291915
202	0x3c6714fe	0.014104126
203	0xbe23e4f2	-0.16005304
204	0xbd32af51	-0.043624226
205	0xbdcb30cd	-0.099214174
206	0x38f9d8bc	0.00011913615
207	0x3dddd96c	0.108324856
208	0xbdfafeb0	-0.12255609
209	0xbea9ff73	-0.33202705
210	0x3ed98b2d	0.42488995
211	0xbe13f413	-0.14448576
212	0xbebfc74a	-0.37456733
213	0xbebcb0de	-0.3685369
214	0xbe295aed	-0.16538592
215	0xbedddfe2	-0.43334872
216	0xbe061e80	-0.13097572
217	0xbf2fc463	-0.6865904
218	0x3f0a32c7	0.5398373
219	0xbde62a1b	-0.112385
220	0x3dd31c88	0.10308176
221	0x3e7c2ba0	0.24626017
222	0x3da10edd	0.07864163
223	0x3e60c8a7	0.21951543
224	0xbde1060a	-0.1098748
225	0xbec2a99d	-0.3802003
226	0x3e8a2e6a	0.26988536
227	0x3dab9a4c	0.08379039
228	0xbcb8d0bf	-0.022560475
229	0x3e28e758	0.164945
230	0x3ea0d5a7	0.31413004
231	0x3df1e058	0.11810368
232	0x3ed73214	0.42030394
233	0xbf23a0fb	-0.6391751
234	0xbe19539c	-0.149733
235	0x3ddcfb24	0.10790089
236	0x3d0735cf	0.0330103
237	0xbf0a0abd	-0.53922635
238	0xbd3d4160	-0.046204925
239	0x3f09a52a	0.53767645
240	0x3e889b1c	0.2668084
241	0xbb821005	-0.003969195
242	0x3c3ff9c1	0.011717261
243	0x3e9c2415	0.30496278
244	0x3e826979	0.25471094
245	0xbc6a3d8f	-0.014296903
246	0x3e275c15	0.1634372
247	0xbd1420c3	-0.036164057
248	0xbd18d0aa	-0.037308373
249	0x3cb943d2	0.022615347
250	0xbe03a33b	-0.12855236
251	0x3df357bd	0.11881969
252	0x3ef1bed4	0.47215903
253	0xbdc21d6a	-0.094782665
254	0xbdf92ca4	-0.12166718
255	0x3e9a8c25	0.30185047

dec_mu.bias f4 [20]
0	0x3d95ee2d	0.07320819
1	0xbd9418c6	-0.07231288
2	0x3e178270	0.14795852
3	0x3c064c7d	0.008196947
4	0x3d82feb1	0.06396235
5	0xbd5f3370	-0.054492414
6	0xbb6af50d	-0.0035851628
7	0x3ccc4876	0.024936896
8	0x3c688b34	0.014193345
9	0x3d858529	0.06519539
10	0x3e06d6c1	0.1316786
11	0x3dec7bed	0.115470745
12	0xbe14b3cc	-0.14521712
13	0xbe482f24	-0.19549233
14	0xbe5633e7	-0.20918237
15	0x3e455455	0.19270451
16	0xbe13a7c0	-0.1441946
17	0xbe763e22	-0.2404714
18	0x3994a079	0.0002834832
19	0x3cdbe996	0.02684478

dec_log_var.weight f4 [20, 15]
0	0xbf8bb5e1	-1.091488
1	0xbf7f6fee	-0.99780166
2	0x3eb4e744	0.35332692
3	0xbf6b71e3	-0.9197065
4	0xbf4c410b	-0.7978675
5	0x3e55bc14	0.20872527
6	0x3f8df128	1.108922
7	0x3f6fa898	0.9361663
8	0x3f9ee50d	1.2413651
9	0xbf81992f	-1.0124873
10	0xbf8ee002	-1.1162112
11	0x3f585c53	0.84515876
12	0x3f410ce8	0.7541032
13	0xbf75b100	-0.95973206
14	0x3f88262f	1.0636653
15	0xbe886b90	-0.26644564
16	0xbd6b2438	-0.057407588
17	0xbcecec26	-0.028921198
18	0xbf078810	-0.5294199
19	0xbe1bc992	-0.15213612
20	0x3d7b46f4	0.061346963
21	0xbd9cd8fc	-0.07658574
22	0x3e2922f8	0.16517246
23	0x3de3e3cf	0.111274354
24	0xbe7b42ae	-0.24537155
25	0xbec1c338	-0.37844253
26	0xbc10167d	-0.008794424
27	0xbce3e26a	-0.027817924
28	0x3e17e98e	0.14835188
29	0xbd43d13d	-0.047806967
30	0xbe697824	-0.22799736
31	0xbde5bb59	-0.11217374
32	0x3e2f5acd	0.17124481
33	0xbef98a7c	-0.48738468
34	0x3d946f4f	0.07247793
35	0x3da93d99	0.08263702
36	0xbe0434cb	-0.12910764
37	0x3d4f386c	0.050590917
38	0x3e85bd7d	0.2612113
39	0xbe467c3e	-0.19383332
40	0xbef3bc97	-0.4760482
41	0x3e8ba689	0.27275494
42	0xbd38457a	-0.044988133
43	0xbf1588be	-0.58411777
44	0x3df785e6	0.12086086
45	0xbe51aa21	-0.20475055
46	0xbe9aae4f	-0.30211112
47	0x3d30e817	0.043190088
48	0xbda1473b	-0.07874914
49	0xbeeee6c2	-0.4666043
50	0x3a2c4e7b	0.0006572974
51	0x3ee940cf	0.45557258
52	0xbda35f5d	-0.079771735
53	0xbdac334e	-0.08408223
54	0xbebc0087	-0.36719152
55	0xbe73035b	-0.23731749
56	0x3e1e994b	0.15488164
57	0x3e8b58d6	0.27216214
58	0xbddc20ac	-0.10748419
59	0x3e53c6f9	0.20681371
60	0xbe866c46	-0.2625448
61	0xbee358bf	-0.44403645
62	0xbd2fab13	-0.04288776
63	0xbd9d352f	-0.076761596
64	0xbe29a959	-0.16568507
65	0x3e5c4a09	0.21512617
66	0xbde2606b	-0.110535465
67	0x3e38aa72	0.1803377
68	0x3e78b13c	0.2428636
69	0xbf020da7	-0.5080208
70	0xbea6eafa	-0.32601148
71	0x3f128b2b	0.57243603
72	0x3e009152	0.12555435
73	0xbeafdc7d	-0.34347907
74	0x3e79c382	0.24390987
75	0xbe462e35	-0.19353564
76	0xbeaf5001	-0.34240726
77	0x3ddbaedf	0.107267134
78	0xbda6b3fd	-0.08139799
79	0xbe24c03b	-0.16088955
80	0x3e4aa7a7	0.19790517
81	0x3d353858	0.044243187
82	0x3d862ce2	0.065515295
83	0x3d87f1f9	0.066379495
84	0xbea10cbe	-0.31455034
85	0xbe639eb8	-0.22228515
86	0x3ed6ea5c	0.41975677
87	0x3cf64253	0.030060923
88	0xbeb17355	-0.34658304
89	0x3e21256c	0.15736932
90	0xbecc2cc4	-0.39877903
91	0xbf1049b4	-0.5636246
92	0x3e5a2ad8	0.21305406
93	0xbdf36b75	-0.1188573
94	0xbef3040a	-0.4746402
95	0x3cf8b555	0.030359903
96	0x3ebdc351	0.37063077
97	0x3dc0ccee	0.09414087
98	0x3e0d9c84	0.13829237
99	0xbe4be485	-0.19911392
100	0xbe99631b	-0.29958424
101	0x3efb88e8	0.4912789
102	0x3d3d43f0	0.04620737
103	0xbed50e51	-0.41612485
104	0x3e11cc5a	0.1423811
105	0xbec462dc	-0.38356674
106	0xbe91a907	-0.2844927
107	0xbd145d29	-0.036221657
108	0xbd0d23be	-0.034457915
109	0xbedfc0b1	-0.437017
110	0x3e184153	0.14868669
111	0x3de83700	0.113386154
112	0x3e2e0326	0.16993389
113	0x3e7dad02	0.24773028
114	0xbe5c6a4d	-0.21524926
115	0xbe8d7432	-0.27627712
116	0x3dfd194e	0.12358342
117	0x3d0b8ec8	0.034071714
118	0xbe45be63	-0.19310908
119	0x3d27f083	0.041000854
120	0xbdbd87ef	-0.09254443
121	0xbc2e4476	-0.01063644
122	0xbcc01a2a	-0.023449976
123	0xbdb0ed73	-0.0863904
124	0x3dc34043	0.09533741
125	0xbd8a24ef	-0.06745326
126	0x3e8edb37	0.27901623
127	0x3e81d8a8	0.25360608
128	0x3f181013	0.5939953
129	0x3e725fc4	0.23669344
130	0xbd274c80	-0.04084444
131	0xbe629ad5	-0.22129376
132	0x3e4e2438	0.20131004
133	0xbe2a1cd5	-0.16612561
134	0x3ece0ab5	0.40242544
135	0xbed22b80	-0.41048813
136	0xbdd1d097	-0.102448635
137	0x3e05d525	0.1306959
138	0x3d0d5722	0.034506924
139	0xbea26a47	-0.31721708
140	0x3e46584a	0.19369617
141	0x3e96f9e1	0.29487517
142	0x3ce36722	0.027759138
143	0x3e275b68	0.16343462
144	0xbea902ca	-0.3300994
145	0x3e78040c	0.24220294
146	0x3e257f67	0.16161881
147	0x3e58c60b	0.21169297
148	0xbe468f39	-0.19390573
149	0x3ea80808	0.32818627
150	0xbece1706	-0.4025194
151	0xbe7e3aed	-0.24827166
152	0x3c957725	0.01824529
153	0xbda9c0a8	-0.082886994
154	0xbeacd33a	-0.33754903
155	0x3dbeaf91	0.093108304
156	0x3e876b15	0.26448885
157	0xbccdef51	-0.025138529
158	0x3e1cfe66	0.1533142
159	0xbea2b18f	-0.3177609
160	0xbe00d902	-0.12582782
161	0x3dbcde0a	0.09222038
162	0x3e686b68	0.22697222
163	0xbd895e4a	-0.06707437
164	0x3ec85238	0.39125228
165	0xbe9b8f08	-0.30382562
166	0xbcce4c43	-0.025182849
167	0x3dc1abd7	0.09456604
168	0xbdeac5ab	-0.114634834
169	0xbed3bd7f	-0.41355512
170	0x3dc9c5f5	0.098522104
171	0x3ee35077	0.44397327
172	0x3e84292d	0.25812665
173	0x3ee379dd	0.44428912
174	0xbe10f034	-0.1415413
175	0xbd13c223	-0.036073815
176	0xbbb3d3ad	-0.00548788
177	0x3abb3b10	0.001428457
178	0xbe999ab7	-0.3000085
179	0x3e0705f7	0.13185869
180	0xbe992b5e	-0.299159
181	0xbee22e0d	-0.4417576
182	0x3e806af8	0.2508161
183	0xbd9e4414	-0.077278286
184	0xbec40219	-0.3828285
185	0xbda41642	-0.08012058
186	0x3edd4db0	0.43223333
187	0x3e1c46a2	0.1526132
188	0x3e210a23	0.15726523
189	0xbdc33470	-0.09531486
190	0x3de931bf	0.113864414
191	0x3e7c031e	0.24610564
192	0x3e81d709	0.2535937
193	0x3ca3bf4d	0.01998868
194	0x3e6fbc4d	0.23411675
195	0xbe99c358	-0.30031848
196	0xbed5e11f	-0.41773316
197	0x3e04d6b9	0.12972535
198	0xbcee2968	-0.029072478
199	0xbf2467fc	-0.6422117
200	0xbe0f9779	-0.14022626
201	0x3ec9b7a5	0.39397922
202	0x3dd04b1c	0.10170576
203	0xbe184b14	-0.1487239
204	0xbdcc1c95	-0.09966389
205	0xbe1d1f62	-0.15344003
206	0xbe03dd7e	-0.12877461
207	0x3ec07b6b	0.3759416
208	0x3e388c03	0.1802216
209	0x3e50af30	0.20379329
210	0xbf027b50	-0.5096941
211	0xbe4cf051	-0.20013548
212	0x3db6824c	0.08911571
213	0xbbc1c40b	-0.0059132627
214	0x3d3f2af2	0.046671815
215	0x3d528c7a	0.0514035
216	0x3eadd13d	0.339487
217	0x3e22c5a5	0.15895708
218	0x3efbea02	0.4920197
219	0xbeb4aaf6	-0.35286683
220	0xbe2590a4	-0.16168457
221	0x3e18580f	0.14877342
222	0x3d443f5d	0.04791199
223	0xbf0905be	-0.53524387
224	0x3e18a437	0.14906393
225	0xbec67644	-0.38762105
226	0xbe2f1d16	-0.17100939
227	0x3e1875b6	0.14888653
228	0x3e3bb270	0.18329787
229	0xbedcbb37	-0.43111584
230	0x3e0bb782	0.13644221
231	0x3eb5dd0c	0.35520208
232	0x3ebb518f	0.36585662
233	0x3f047cf6	0.51753175
234	0xbed3c5d7	-0.41361877
235	0x3e839a32	0.2570358
236	0x3e84996f	0.2589831
237	0x3d37bbbf	0.044856783
238	0xbe96e390	-0.2947049
239	0x3d500741	0.050788168
240	0xbe725aa2	-0.23667386
241	0xbc27fada	-0.010252679
242	0xbd1e9df2	-0.038724847
243	0xbe1c8475	-0.15284903
244	0xbf0f7a73	-0.5604622
245	0x3dd25f32	0.10272063
246	0x3e0011c0	0.12506771
247	0xbc81d7be	-0.015849944
248	0xbe120efc	-0.14263529
249	0xbe548c44	-0.20756632
250	0xbe238a1a	-0.1597065
251	0xbe965e7f	-0.2936897
252	0x3f0ca7a3	0.54943293
253	0x3e215245	0.1575404
254	0x3f1bb846	0.60828054
255	0xbe9e20d4	-0.3088442

dec_log_var.bias f4 [20]
0	0xbf34113f	-0.70338815
1	0xbeadd190	-0.33948946
2	0xbebdcdca	-0.37071067
3	0xbe533dde	-0.20629069
4	0xbe067d73	-0.13133793
5	0xbe9c70b2	-0.3055473
6	0xbe8a3072	-0.26990086
7	0xbe802395	-0.25027147
8	0x3be674e7	0.007032979
9	0xbddf6fac	-0.109099716
10	0xbe21fe3f	-0.15819643
11	0xbe73883f	-0.23782443
12	0xbee2449b	-0.44192967
13	0xbeb0851f	-0.34476563
14	0xbe983277	-0.29726002
15	0xbeb5f77c	-0.35540378
16	0xbe6d18c8	-0.23153985
17	0xbe45d6f2	-0.19320276
18	0xbebffef4	-0.374992
19	0xbf49b5df	-0.7879314

exp_avg f4 [15, 20]
0	0xbebf6d9e	-0.3738832
1	0x3ef2262c	0.47294748
2	0xbd5d639c	-0.054050073
3	0xbf05a56c	-0.5220554
4	0x3e00e22c	0.12586278
5	0xbedca9d2	-0.43098313
6	0x3b97909f	0.0046253945
7	0xbf1824c5	-0.59431106
8	0x3f7ecd39	0.99531895
9	0x3e9b7d41	0.30369
10	0xbdc8e913	-0.098100804
11	0x3e7aeacf	0.24503635
12	0xbf13d2df	-0.5774364
13	0x3e4d8119	0.20068778
14	0xbf773a21	-0.9657307
15	0x3f9f6dc6	1.2455375
16	0xbf01ae8b	-0.50656956
17	0x3d718241	0.05896211
18	0xbe038854	-0.12844974
19	0xbebf6d9e	-0.3738832
20	0xbf221ee7	-0.63328403
21	0x3f03819c	0.51369643
22	0xbe75d0ae	-0.24005386
23	0xbf0f71d4	-0.5603306
24	0x3ea16bb3	0.3152748
25	0xbf660737	-0.8985476
26	0x3f03382f	0.51257604
27	0xbf62ccfe	-0.88594043
28	0x3fb9d0cb	1.4516844
29	0x3e77eb0a	0.24210754
30	0x3b84b726	0.0040501533
31	0x3e8905bb	0.26762185
32	0xbf03b87e	-0.5145339
33	0x3df6e449	0.12055261
34	0xbf8778a4	-1.0583692
35	0x3fd5813c	1.6680064
36	0xbf5a5407	-0.85284466
37	0x3e40ef37	0.18841253
38	0x3d8b778b	0.068099104
39	0xbf221ee7	-0.63328403
40	0xbb109b24	-0.0022065127
41	0xbc91e659	-0.017810034
42	0xbbdcb11b	-0.00673498
43	0x3d9e317f	0.077242844
44	0xbbfdae25	-0.007741707
45	0x3b87c9a4	0.0041439105
46	0x3d02ddc5	0.031949777
47	0x3d1855f4	0.037191346
48	0xbdb818ea	-0.08989127
49	0xbcf87439	-0.030328857
50	0x3c24895c	0.010042515
51	0xbd057bf3	-0.03258891
52	0x3d9f31e3	0.07773187
53	0xbd26ad99	-0.0406929
54	0x3de3ca1c	0.11122534
55	0xbdcbd899	-0.09953422
56	0x3c4a560b	0.012349616
57	0x3c12ca84	0.008959416
58	0x3d353aab	0.044245403
59	0xbb109b24	-0.0022065127
60	0xbeabae97	-0.3353164
61	0x3ebc2e2d	0.3675398
62	0xbdddfbb7	-0.108390264
63	0xbec8c84e	-0.3921532
64	0x3e2038f1	0.15646721
65	0xbf125f41	-0.57176596
66	0x3e46976e	0.19393703
67	0xbf08fb13	-0.5350811
68	0x3f4f876e	0.81066024
69	0x3e4d89e7	0.20072137
70	0xbc952201	-0.01820469
71	0x3dfaee2f	0.12252461
72	0xbec601a8	-0.3867314
73	0x3db76aa4	0.08955887
74	0xbf197112	-0.59938157
75	0x3f767bb2	0.96282494
76	0xbee25cbe	-0.44211382
77	0x3e290ea6	0.16509494
78	0xbd960545	-0.07325224
79	0xbeabae97	-0.3353164
80	0xbea9f48f	-0.33194396
81	0x3e38f616	0.18062624
82	0xbd1513d3	-0.03639586
83	0xbe896676	-0.26835984
84	0x3c91f79e	0.017818268
85	0xbe90ea39	-0.28303698
86	0x3dbf2893	0.09333911
87	0xbf02fc94	-0.51166654
88	0x3f2c046c	0.6719425
89	0x3e6e0dd9	0.2324747
90	0xbe309857	-0.17245613
91	0x3e7a982e	0.24472114
92	0xbe7adf5a	-0.24499264
93	0x3dc3b352	0.09555687
94	0xbf232eb4	-0.6374314
95	0x3f5f0649	0.87118965
96	0xbed8f974	-0.42377818
97	0x3e5aa6a2	0.21352628
98	0xbce972f3	-0.028497195
99	0xbea9f48f	-0.33194396
100	0x3e8e98d2	0.27850968
101	0xbebad861	-0.3649321
102	0x3d5bdafa	0.05367563
103	0x3eb1e989	0.34748486
104	0xbdc63fd3	-0.09680142
105	0x3eaa2319	0.33229902
106	0xbd292baf	-0.041301426
107	0x3ecba960	0.3977766
108	0xbf2ce9c1	-0.6754418
109	0xbe3ecf1b	-0.18633692
110	0x3ccc9a36	0.024975877
111	0xbe155a46	-0.14585218
112	0x3eafcf44	0.3433782
113	0xbe1e619a	-0.1546692
114	0x3f2aa763	0.6666166
115	0xbf6218cf	-0.88319105
116	0x3ecc4b1e	0.3990106
117	0xbdf6945f	-0.12040018
118	0x3d2f4d42	0.04279829
119	0x3e8e98d2	0.27850968
120	0x3f0dd362	0.5540067
121	0xbf02719d	-0.5095461
122	0x3c8f5ca5	0.017500231
123	0x3f301cdd	0.6879404
124	0xbdf53a4e	-0.11974011
125	0x3ee868b8	0.45392394
126	0x3dba5927	0.09099036
127	0x3f515cb5	0.81782085
128	0xbfb9184c	-1.446054
129	0xbee4570b	-0.4459766
130	0x3e00add7	0.12566315
131	0xbedf3f4a	-0.43602973
132	0x3f3a47cd	0.7276581
133	0xbe9029e1	-0.2815695
134	0x3fbf8af8	1.4964285
135	0xbfe5893d	-1.7932507
136	0x3f32d803	0.6986086
137	0xbe69b090	-0.2282126
138	0x3e303944	0.17209345
139	0x3f0dd362	0.5540067
140	0x3eff2e37	0.49839947
141	0xbef4d7e3	-0.47820958
142	0x3d9f15c7	0.077678256
143	0x3f162aa4	0.58658814
144	0xbe56c3b5	-0.20973094
145	0x3f0dd57b	0.5540387
146	0xbe0173ed	-0.12641878
147	0x3f49256b	0.7857272
148	0xbfac7ae4	-1.3475003
149	0xbea14de2	-0.31504732
150	0x3d6f4137	0.058411803
151	0xbeae60b8	-0.34058166
152	0x3f2bc66c	0.6709964
153	0xbe6525eb	-0.22377746
154	0x3f9d0517	1.2267178
155	0xbfc769f9	-1.5579215
156	0x3f1d2cca	0.6139647
157	0xbe34f90c	-0.17673129
158	0x3dcff673	0.10154428
159	0x3eff2e37	0.49839947
160	0xbf1da8a8	-0.61585474
161	0x3ed1f311	0.41005757
162	0xbdc5c671	-0.0965699
163	0xbf373fc2	-0.7158166
164	0x3e83ec81	0.25766376
165	0xbf331106	-0.6994785
166	0x3e38674d	0.18008156
167	0xbf8418d0	-1.0320072
168	0x3fda074d	1.7033478
169	0x3ef79957	0.48359177
170	0xbe47720e	-0.19477102
171	0x3eff636a	0.49880534
172	0xbf38d483	-0.7219927
173	0x3e8064d6	0.25076932
174	0xbfc5b709	-1.5446483
175	0x3ffdf337	1.9839848
176	0xbf5202b4	-0.82035375
177	0x3e4b8a0b	0.19876878
178	0xbdf34826	-0.118789956
179	0xbf1da8a8	-0.61585474
180	0x3f23ee0b	0.640351
181	0xbf04c447	-0.51861995
182	0x3e1e8b59	0.15482844
183	0x3f1063dc	0.56402373
184	0xbe85fedb	-0.26171002
185	0x3f5041bc	0.813503
186	0xbecc0837	-0.39850017
187	0x3f771655	0.9651845
188	0xbfb67353	-1.4253944
189	0xbeb1edc4	-0.34751713
190	0x3db5eb16	0.0888273
191	0xbe9e8bd1	-0.30966046
192	0x3f18ee77	0.5973887
193	0xbdf61987	-0.12016588
194	0x3f907404	1.1285405
195	0xbfdf6798	-1.7453489
196	0x3f4b622e	0.79446685
197	0xbe62c19b	-0.22144167
198	0xbdd9fc47	-0.10643821
199	0x3f23ee0b	0.640351
200	0xbe4b2cb8	-0.19841278
201	0x3e00ca78	0.12577236
202	0xbcc27c16	-0.02374081
203	0xbe540475	-0.20704825
204	0x3d5c22b6	0.05374404
205	0xbe326c42	-0.1742411
206	0x3d654eb0	0.055983245
207	0xbeb54087	-0.35400793
208	0x3f0646ff	0.5245208
209	0x3e25b88a	0.16183677
210	0xbdac6983	-0.08418562
211	0x3e2c7e3d	0.16845031
212	0xbe652fb8	-0.22381485
213	0x3da967a0	0.08271718
214	0xbef5c0fb	-0.47998795
215	0x3f1c5926	0.6107353
216	0xbe7fa0d0	-0.24963689
217	0x3dc73f8e	0.09728919
218	0xbd289efb	-0.04116724
219	0xbe4b2cb8	-0.19841278
220	0xbdd63e61	-0.104611166
221	0x3df83238	0.121189535
222	0xbc97e98c	-0.018543981
223	0xbe105e42	-0.14098457
224	0x3d55788b	0.05211691
225	0xbe20eea7	-0.15716039
226	0x3d817779	0.06321616
227	0xbe426a51	-0.18985869
228	0x3eb6490e	0.3560261
229	0x3d98fcd5	0.07470099
230	0x3b164d0f	0.0022934114
231	0x3d7488fb	0.059700947
232	0xbe21e04e	-0.15808222
233	0x3d550b86	0.052012943
234	0xbe84ac54	-0.25912726
235	0x3ebc90b5	0.36829153
236	0xbe10174e	-0.1407139
237	0x3cf9e59e	0.030504998
238	0xbcd04e03	-0.025427824
239	0xbdd63e61	-0.104611166
240	0xbe1058d9	-0.14096393
241	0x3e01a27a	0.12659636
242	0xbcc01703	-0.023448473
243	0xbe5746af	-0.21023057
244	0x3d6c9764	0.057761565
245	0xbe0cb8a4	-0.1374231
246	0xbcc4d36e	-0.024026599
247	0xbe6077e6	-0.21920738
248	0x3eb7a2db	0.35866436
249	0x3de1abb3	0.11019077
250	0xbd620d33	-0.05518837
251	0x3e0a11a8	0.13483298
252	0xbe459ee6	-0.19298896
253	0x3da34f6a	0.079741314
254	0xbec5dfa3	-0.38647184
255	0x3eef5487	0.46744177

exp_avg_sq f4 [15, 20]
0	0x40aaac30	5.333519
1	0x40eb2d82	7.349305
2	0x402cfb28	2.7028294
3	0x3fca8506	1.5821846
4	0x4070ac74	3.7605257
5	0x416f3d59	14.952477
6	0x4157d3e0	13.489227
7	0x40815136	4.0411634
8	0x40f6408b	7.695379
9	0x401fee7a	2.4989305
10	0x40a1b993	5.053903
11	0x40a1e854	5.0596104
12	0x40095d60	2.1463242
13	0x4016e462	2.3576894
14	0x41148fd4	9.285114
15	0x40e38330	7.109764
16	0x40eee42b	7.4653525
17	0x40a40b95	5.126414
18	0x4094a28c	4.644842
19	0x40aaac30	5.333519
20	0x41034f8a	8.206919
21	0x41349017	11.285178
22	0x4063caa6	3.5592437
23	0x40129de5	2.290887
24	0x40aed183	5.463075
25	0x419f8897	19.941694
26	0x41877e52	16.93668
27	0x40c730e7	6.2247195
28	0x414aa515	12.665303
29	0x40743520	3.8157425
30	0x40f7da27	7.74538
31	0x40f40314	7.6253757
32	0x403cd659	2.9505827
33	0x4049c270	3.1524925
34	0x414d17e6	12.818335
35	0x413ebfc9	11.921823
36	0x4118c012	9.546892
37	0x410a95ce	8.661573
38	0x40c32ec9	6.099461
39	0x41034f8a	8.206919
40	0x3d6f5ef6	0.05844017
41	0x3cedb669	0.029017644
42	0x3cd36dd4	0.025809206
43	0x3c657c16	0.014006635
44	0x3d35b674	0.044363454
45	0x3e20d38e	0.15705702
46	0x3e0ec280	0.13941383
47	0x3d3698a9	0.04457918
48	0x3df59ee2	0.11993195
49	0x3d066d41	0.032819036
50	0x3d1e85f2	0.03870196
51	0x3d01650b	0.031590503
52	0x3cf0ca7b	0.029393425
53	0x3cef8979	0.029240357
54	0x3dbb140f	0.09134685
55	0x3dab05ef	0.08350741
56	0x3d8535e4	0.065044194
57	0x3d91189a	0.070847705
58	0x3d546196	0.051850878
59	0x3d6f5ef6	0.05844017
60	0x40552a29	3.3306983
61	0x40b41bc9	5.6283917
62	0x3fb4b753	1.4118446
63	0x3f7dd5b0	0.99154186
64	0x40045727	2.0678194
65	0x40f347d7	7.6025195
66	0x40c2a64e	6.082801
67	0x40099e91	2.1503031
68	0x407f0237	3.9845102
69	0x3fb1a134	1.387732
70	0x404e7ada	3.2262483
71	0x404a36ff	3.1596067
72	0x3f69b20b	0.91287297
73	0x3f824853	1.0178322
74	0x409181d5	4.5470986
75	0x407cdf66	3.9511352
76	0x40666f71	3.6005518
77	0x40507da8	3.2576694
78	0x4014ae4e	2.3231387
79	0x40552a29	3.3306983
80	0x40144145	2.3164837
81	0x400b95fc	2.1810293
82	0x3f66e9f3	0.9020073
83	0x3f071e47	0.52780575
84	0x3f91051b	1.1329683
85	0x407bc4bb	3.9338825
86	0x407c3e6f	3.9413106
87	0x3ffe3b02	1.9861758
88	0x4011fbba	2.2809892
89	0x3f7aa960	0.97914696
90	0x3fd6868d	1.6759812
91	0x3febbdb5	1.8417269
92	0x3f101ca5	0.5629371
93	0x3f360276	0.71097505
94	0x4070b77a	3.7611985
95	0x40770f1d	3.8602974
96	0x402e569d	2.7240365
97	0x402b0cef	2.6726644
98	0x3fcb67ea	1.5891087
99	0x40144145	2.3164837
100	0x4043b43b	3.0578754
101	0x40a2e450	5.09037
102	0x3fac8268	1.3477297
103	0x3f61aa64	0.8815062
104	0x3fd81716	1.6882045
105	0x40f0e9ab	7.528524
106	0x40cda3d1	6.426247
107	0x3fe1ab15	1.7630335
108	0x406360e9	3.55279
109	0x3fa0798c	1.2537093
110	0x402e12d2	2.7198987
111	0x403a3271	2.9093287
112	0x3f73b57a	0.95198786
113	0x3f847633	1.0348572
114	0x4092f4f1	4.5924
115	0x4055fac9	3.3434317
116	0x4067b2b8	3.6202831
117	0x401fb854	2.4956255
118	0x401e864f	2.4769475
119	0x4043b43b	3.0578754
120	0x413fcf50	11.988113
121	0x41813eeb	16.155722
122	0x409bea43	4.8723464
123	0x40483d5e	3.1287456
124	0x40d2e368	6.5902596
125	0x41d65008	26.789078
126	0x41bb5fa8	23.421707
127	0x41039452	8.223711
128	0x4172fb04	15.186283
129	0x40a8efe4	5.2792835
130	0x41274053	10.453204
131	0x41242762	10.259615
132	0x40703edb	3.7538364
133	0x40804e8c	4.0095882
134	0x41906fb8	18.05455
135	0x41800f18	16.00737
136	0x415ae665	13.681249
137	0x412daa8c	10.854137
138	0x41123ffe	9.140623
139	0x413fcf50	11.988113
140	0x41145793	9.27138
141	0x414f4488	12.954231
142	0x40746a6f	3.8189962
143	0x401d99b2	2.4625058
144	0x40b2377c	5.569273
145	0x41aef3af	21.868986
146	0x41947191	18.555452
147	0x40c6ec6a	6.216359
148	0x4147e6bf	12.4938345
149	0x407c097f	3.9380796
150	0x410579b3	8.342212
151	0x41030bdc	8.190395
152	0x40460c9f	3.0945203
153	0x404dd499	3.216101
154	0x415eb776	13.91979
155	0x4142405c	12.140713
156	0x41267e65	10.405858
157	0x410627ae	8.384687
158	0x40e375de	7.108138
159	0x41145793	9.27138
160	0x413c21e9	11.758279
161	0x414f8c41	12.971742
162	0x40a69da3	5.206743
163	0x404ddd8e	3.2166476
164	0x40f9d127	7.8067813
165	0x41dac30a	27.345234
166	0x41c05cf4	24.045387
167	0x4117c71d	9.486112
168	0x4191222b	18.141684
169	0x40b29b74	5.581476
170	0x41232e72	10.198839
171	0x4120e3a1	10.055573
172	0x4082b0b5	4.0840707
173	0x408e0c71	4.4390187
174	0x41995c78	19.17015
175	0x4197c321	18.970278
176	0x4163c5bc	14.235775
177	0x414cdfc5	12.804631
178	0x41079818	8.474632
179	0x413c21e9	11.758279
180	0x4103dd4d	8.2415285
181	0x40f197fd	7.5498033
182	0x40699c6b	3.650172
183	0x400305b5	2.0472233
184	0x40a67d3f	5.202789
185	0x41916b85	18.1775
186	0x41840081	16.500246
187	0x40dfc56a	6.9928484
188	0x413ffd7f	11.999389
189	0x4075a399	3.8381102
190	0x40d4e902	6.6534433
191	0x40d6ed52	6.71647
192	0x402da200	2.7130127
193	0x4042cb55	3.0436604
194	0x415b709d	13.7149935
195	0x415feaac	13.994793
196	0x41246b96	10.276266
197	0x4116cac9	9.424508
198	0x40b7ea3b	5.7473426
199	0x4103dd4d	8.2415285
200	0x3faa78c2	1.3318102
201	0x3fb739af	1.4314479
202	0x3f18eb93	0.5973446
203	0x3eab7b27	0.33492395
204	0x3f549d6c	0.83052707
205	0x404337bf	3.0502775
206	0x4035f239	2.842909
207	0x3f86cc10	1.0531025
208	0x3fd64e34	1.6742616
209	0x3f18523d	0.59500486
210	0x3f85d9f3	1.0457138
211	0x3f8b9b32	1.0906737
212	0x3ed75e75	0.42064252
213	0x3ef71ea3	0.4826556
214	0x401078d6	2.2573752
215	0x40052ee2	2.0809865
216	0x3fe4831c	1.7852511
217	0x3fb2c9db	1.3967851
218	0x3f83e5a3	1.0304455
219	0x3faa78c2	1.3318102
220	0x3ee26747	0.4421942
221	0x3f18f593	0.59749717
222	0x3e61ef51	0.22063948
223	0x3e05a170	0.13049865
224	0x3ead927c	0.3390082
225	0x3f9f0b61	1.2425348
226	0x3f862ae0	1.0481834
227	0x3ea1467d	0.3149909
228	0x3f389f32	0.7211791
229	0x3e53abd1	0.20671012
230	0x3edd8070	0.43262053
231	0x3ecbaa61	0.39778426
232	0x3e3171b4	0.1732853
233	0x3e34e87f	0.17666815
234	0x3f387a6c	0.720618
235	0x3f1e81d0	0.6191683
236	0x3f19d085	0.600838
237	0x3ed29e4f	0.41136405
238	0x3eb19aef	0.34688517
239	0x3ee26747	0.4421942
240	0x3f3ca21a	0.7368485
241	0x3f7fc7f7	0.999145
242	0x3eb92767	0.36162874
243	0x3e66f60c	0.22554797
244	0x3ee795dd	0.45231524
245	0x3ff3ce52	1.9047339
246	0x3fe22a85	1.7669226
247	0x3f0d0d71	0.55098635
248	0x3f68a26d	0.9087284
249	0x3ea957af	0.3307471
250	0x3f284d83	0.65743273
251	0x3f305a7d	0.68888074
252	0x3e865623	0.26237592
253	0x3e9fde8e	0.31224483
254	0x3fa3b5fd	1.2789913
255	0x3f78c265	0.9717162

exp_avg f4 [15]
0	0xbf205a20	-0.6263752
1	0xbeefef4c	-0.46862257
2	0x3d5f66cf	0.054541405
3	0x3d28aa76	0.04117819
4	0xbe829e94	-0.2551161
5	0x3e10c13c	0.14136213
6	0x3caee2f8	0.021348462
7	0xbe6b5911	-0.22983195
8	0x3dd1179a	0.1020958
9	0x3f104d31	0.56367785
10	0x3d7d1b97	0.06179389
11	0x3bb27b69	0.0054468405
12	0xbe93a712	-0.28838402
13	0xbd3f4e47	-0.04670551
14	0x3e2de472	0.16981676

exp_avg_sq f4 [15]
0	0x4122a9bc	10.166439
1	0x41832808	16.394547
2	0x3dd875cf	0.10569345
3	0x40acb1f1	5.3967214
4	0x405dfaae	3.4684253
5	0x408e5196	4.447459
6	0x41ac9c79	21.576403
7	0x41768d4a	15.409494
8	0x41a8bc1c	21.09185
9	0x416f1415	14.942403
10	0x400c6c64	2.1941156
11	0x3f404087	0.7509846
12	0x3fa1eec6	1.2650993
13	0x400abb62	2.167687
14	0x404b7d2f	3.1795156

exp_avg f4 [4, 15]
0	0x3f5447ef	0.8292226
1	0xbe7694a6	-0.24080142
2	0x403b52e3	2.926934
3	0x3fedfacc	1.8592162
4	0x3fc7cb27	1.5608872
5	0xbf079d31	-0.5297423
6	0xbedffda3	-0.43748197
7	0xbfa1f42b	-1.2652639
8	0x3f971f9c	1.1806521
9	0xbd20c14c	-0.039246842
10	0x3fea0698	1.8283262
11	0xbf94576f	-1.1589183
12	0x3fba21a9	1.4541522
13	0xbf61b2fd	-0.8816374
14	0x3ee6fef6	0.45116395
15	0xbb0a15ff	-0.002107024
16	0xbbe843b8	-0.007088151
17	0x3b80c6a2	0.003929929
18	0xbc801a80	-0.015637636
19	0xbcb5132d	-0.02210387
20	0xba42dee6	-0.0007433727
21	0x3c845153	0.01615206
22	0x3c604b9d	0.013689903
23	0xbc9e9aa0	-0.01936084
24	0x3c971f50	0.018447548
25	0xbc5cc376	-0.013474336
26	0x3bf6b9cf	0.0075294743
27	0x3a843bf3	0.0010088667
28	0xbbfc7798	-0.0077046864
29	0x3cb5035a	0.022096325
30	0x3cdea02b	0.027175983
31	0x3c458e33	0.012057829
32	0x3d2be37f	0.041965004
33	0x3c93314b	0.01796784
34	0xbc802728	-0.015643671
35	0xbd6390f0	-0.055558145
36	0xbcc08342	-0.023500089
37	0xbd14d9a9	-0.03634039
38	0x3c31a776	0.010843148
39	0x3cd89963	0.026440328
40	0x3b48d9b5	0.0030647342
41	0xba31068e	-0.0006752991
42	0x3c23efa4	0.010005865
43	0xbd49014e	-0.04907351
44	0x3d06db7c	0.03292416
45	0x3a4da755	0.0007845064
46	0xbc8432a0	-0.016137421
47	0x3d178ba1	0.036998395
48	0x3c56be85	0.013106947
49	0x3c65bbbc	0.01402181
50	0x3c0d5016	0.008625051
51	0x3bdcd036	0.006738688
52	0xbc4f1a0d	-0.012640488
53	0xbadaef7d	-0.0016703453
54	0x3c3a5f21	0.01137522
55	0x3c8d7e13	0.017272031
56	0xbc5b5e41	-0.013389171
57	0x3c1972ca	0.009365747
58	0xbc137856	-0.009000858
59	0x3c6e9e96	0.014564177

exp_avg_sq f4 [4, 15]
0	0x4253d5cc	52.958786
1	0x42866479	67.196236
2	0x42758a35	61.384968
3	0x423a520c	46.580124
4	0x4234f462	45.238655
5	0x423a0e96	46.514244
6	0x4266e874	57.727005
7	0x423fe927	47.977688
8	0x421b3e5c	38.810898
9	0x428b227b	69.567345
10	0x421160b4	36.344437
11	0x4247e871	49.976994
12	0x423f173c	47.77269
13	0x42805b00	64.177734
14	0x42265ac7	41.58865
15	0x3b95d3ab	0.004572352
16	0x3bf968ab	0.0076113543
17	0x3bde3bcf	0.006782032
18	0x3b3b3d0f	0.002857033
19	0x3bcdd155	0.006281058
20	0x3b2143a9	0.002460698
21	0x3bbafe9d	0.005706622
22	0x3bac9a49	0.0052674157
23	0x3bd68c0d	0.006547457
24	0x3c08d0f2	0.008350598
25	0x3c1c68b5	0.0095464485
26	0x3bd6dce5	0.0065570944
27	0x3b508a45	0.0031820696
28	0x3bc88df0	0.006120436
29	0x3bbeb46a	0.005819847
30	0x3d388994	0.04505308
31	0x3d4d22a5	0.050081868
32	0x3d0532c6	0.032519124
33	0x3d3e7951	0.046502415
34	0x3d26df9d	0.040740598
35	0x3cdd5287	0.027016891
36	0x3d96a3d8	0.073554695
37	0x3d4c84f3	0.049931478
38	0x3d84a463	0.06476667
39	0x3d85babb	0.06529757
40	0x3d1d3041	0.038376097
41	0x3d4e90a8	0.050430924
42	0x3d47d82d	0.048790146
43	0x3d7e05b7	0.06201717
44	0x3d946dd6	0.07247512
45	0x3bd06dce	0.006360746
46	0x3bbbe055	0.0057335296
47	0x3c2e48e5	0.010637497
48	0x3ba75b86	0.005107346
49	0x3bf7760d	0.0075519145
50	0x3bc35fd7	0.0059623527
51	0x3ba4dd74	0.005031282
52	0x3b66eb0c	0.0035235314
53	0x3b77a273	0.0037786036
54	0x3bd3f783	0.0064687147
55	0x3b825fa3	0.003978686
56	0x3b95d37f	0.0045723314
57	0x3c02e5a0	0.007989317
58	0x3b7cc1e7	0.0038567723
59	0x3b85b3c5	0.004080268

exp_avg f4 [4]
0	0xbf4b7aff	-0.7948455
1	0x3bc417f4	0.0059843007
2	0xbd005fe9	-0.031341467
3	0xbb40c174	-0.0029412182

exp_avg_sq f4 [4]
0	0x430b53d3	139.32744
1	0x3c794bec	0.015215855
2	0x3e08ad93	0.13347463
3	0x3c58ec94	0.013239998

exp_avg f4 [4, 15]
0	0x3b81adef	0.003957502
1	0x3c1d2b1a	0.009592796
2	0xba60da45	-0.00085774466
3	0xba9b1651	-0.0011832212
4	0x3b7c0259	0.0038453548
5	0x3aaa71ef	0.0013003926
6	0x3bb565ad	0.0055358023
7	0x3bcac5c8	0.006188128
8	0xbb49be97	-0.0030783766
9	0xbc362e84	-0.011119489
10	0xbb88d6d8	-0.004176002
11	0x3be68c5e	0.007035776
12	0x3b687659	0.0035470931
13	0x3b9d591c	0.0048018824
14	0x3a19cfbb	0.0005867441
15	0xba63ad56	-0.0008685192
16	0xbb03081b	-0.0019993845
17	0x3a40cf66	0.00073551235
18	0x3afafb4c	0.0019148379
19	0xb9d63a79	-0.00040860826
20	0xbb1da935	-0.0024057154
21	0xbb7f3787	-0.003894301
22	0xbb5e650b	-0.0033934738
23	0x3b12488b	0.002232107
24	0x3b291784	0.002580137
25	0x3a9d707b	0.0012011671
26	0xbaefb7dc	-0.0018289047
27	0xbaf145a3	-0.0018407594
28	0xbb5408b5	-0.0032353823
29	0xba1b9903	-0.0005935581
30	0xbbac6ca2	-0.0052619735
31	0xbb9e1e91	-0.004825421
32	0xb9e36f01	-0.00043379518
33	0x3b331e41	0.0027331265
34	0xbacafcc3	-0.0015486706
35	0xbb8376e3	-0.004011975
36	0xbbb5cd98	-0.0055481903
37	0xbbde7dec	-0.0067899134
38	0x3b58a558	0.0033057537
39	0x3b55fffa	0.0032653795
40	0x3b55b372	0.0032608178
41	0xbbaf92bb	-0.005358068
42	0xbb9658ac	-0.004588207
43	0xbb1dd7e2	-0.0024084975
44	0xbad97052	-0.001658926
45	0xbb75318c	-0.0037413565
46	0xbb86a5c1	-0.004109115
47	0xbaae8de0	-0.0013317429
48	0x3a5a9e72	0.000833965
49	0xbacdbc41	-0.0015696363
50	0xbb1c0983	-0.002380938
51	0xbb8f76d9	-0.0043781814
52	0xbb956554	-0.0045591984
53	0x3b5710c1	0.0032816383
54	0x3b974d24	0.00461735
55	0x3b7ecc0a	0.003887894
56	0xbbb458a2	-0.00550373
57	0xbb69c49c	-0.0035670167
58	0xbb188434	-0.0023272159
59	0xbafe1d04	-0.001938731

exp_avg_sq f4 [4, 15]
0	0x39fad14e	0.0004783966
1	0x3a3b00db	0.00071336114
2	0x39032520	0.00012506964
3	0x392a24ca	0.00016226168
4	0x391e6987	0.00015107366
5	0x395d4298	0.0002110101
6	0x3a2c9c97	0.0006584613
7	0x3a344d61	0.00068779854
8	0x39b8e3ab	0.0003526484
9	0x3a4b4586	0.0007754195
10	0x39bb61d0	0.00035740295
11	0x3a4f6285	0.0007911104
12	0x3a0b2e20	0.00053093024
13	0x39ddd15e	0.00042308395
14	0x3964376b	0.00021764419
15	0x38ebe52a	0.00011248358
16	0x390c1a2d	0.00013361192
17	0x38785eb4	5.9216007e-05
18	0x388fc533	6.8555026e-05
19	0x386adb58	5.5994227e-05
20	0x38a46627	7.839157e-05
21	0x3919b519	0.00014658681
22	0x391db5b0	0.0001504037
23	0x38c2f49a	9.2962015e-05
24	0x3914ec9a	0.00014202521
25	0x38a1c0e4	7.713007e-05
26	0x394e9309	0.00019700466
27	0x39088013	0.00013017682
28	0x39017b3b	0.00012348306
29	0x388a9de6	6.609764e-05
30	0x399d354a	0.00029985077
31	0x39d5d1a8	0.00040782732
32	0x388140ad	6.163246e-05
33	0x389236ca	6.972028e-05
34	0x38cb78f4	9.7023236e-05
35	0x3905fafc	0.00012777367
36	0x39860c8c	0.0002556782
37	0x39a579ec	0.0003156209
38	0x390dfc2a	0.00013540746
39	0x39dcc643	0.00042109386
40	0x395c1c3b	0.00020991352
41	0x3a02f380	0.0004995391
42	0x39973b1f	0.00028845013
43	0x3968d48f	0.00022204428
44	0x38b3f71c	8.581413e-05
45	0x3949ac26	0.00019232984
46	0x3983703c	0.00025069888
47	0x3841e08e	4.622392e-05
48	0x3874cc5a	5.836445e-05
49	0x38542989	5.058342e-05
50	0x3899eb38	7.3394214e-05
51	0x393073a2	0.00016827745
52	0x3959fa18	0.000207879
53	0x38c61318	9.444932e-05
54	0x39852f97	0.00025403194
55	0x3911bbdf	0.00013898265
56	0x39a09b19	0.00030633135
57	0x3943f534	0.00018687994
58	0x391d5a1d	0.00015006257
59	0x389281a9	6.9859736e-05

exp_avg f4 [4]
0	0x3c8002ac	0.015626274
1	0xbb0438f3	-0.0020175546
2	0xbbc7c341	-0.006096274
3	0xbbcb146b	-0.0061975024

exp_avg_sq f4 [4]
0	0x3b34030f	0.0027467643
1	0x3a476fff	0.0007607936
2	0x3ac7b030	0.0015235003
3	0x3a7267df	0.00092470454

exp_avg f4 [15, 4]
0	0x3ef25ecb	0.47337946
1	0x3d8bef94	0.06832805
2	0xbe6e6d8f	-0.23283981
3	0xbf9a9fa1	-1.2079965
4	0xbec4fe33	-0.3847519
5	0xbd56605a	-0.05233798
6	0x3ef1f504	0.47257245
7	0x3fa6c84d	1.3029877
8	0xbcd1ddf0	-0.025618523
9	0xbd9df451	-0.07712615
10	0x3e1619c0	0.1465826
11	0x3e8b7830	0.27240133
12	0xbf0f339d	-0.5593813
13	0xbe716c44	-0.23576456
14	0x3f06a489	0.5259481
15	0x3fb0fbd3	1.3826851
16	0xbcdb4fce	-0.026771452
17	0xbd926e9c	-0.07150003
18	0x3e53a546	0.20668516
19	0x3e4ddf88	0.20104802
20	0xbebff2c6	-0.3748991
21	0x3dc1e992	0.09468378
22	0x3e8735c4	0.26408207
23	0x3f1f241f	0.6216449
24	0xbe9663d3	-0.29373035
25	0xbd179c45	-0.037014265
26	0x3ea733b6	0.3265664
27	0x3f3d35a2	0.7390996
28	0x3f92ab95	1.1458613
29	0x3e60d474	0.21956044
30	0xbf48e7ca	-0.7847868
31	0xc029ae75	-2.651273
32	0xbf7fff90	-0.9999933
33	0xbe84df3a	-0.25951558
34	0x3f4e024f	0.8047227
35	0x4023f013	2.561528
36	0xbf15e97a	-0.5855938
37	0xbe23803b	-0.15966885
38	0x3f2f519c	0.684839
39	0x3fcfc982	1.623337
40	0x3eed5818	0.46356273
41	0x3ca743eb	0.020418128
42	0xbe4156d8	-0.18880785
43	0xbf671bcd	-0.90276796
44	0xbfa9b9fe	-1.3259885
45	0xbe9f20a1	-0.3107958
46	0x3f80bb5a	1.0057175
47	0x404d58de	3.208549
48	0xbec093d9	-0.376128
49	0x3d183e61	0.037168864
50	0x3e2a2718	0.16616476
51	0x3f1bc524	0.6084769
52	0xbe992af7	-0.29915592
53	0xbdd7df0b	-0.10540589
54	0x3e81d983	0.2536126
55	0x3f5bdf9a	0.85888064
56	0x3e9c67c9	0.30547932
57	0x3e214184	0.15747648
58	0xbec4e835	-0.3845841
59	0xbf799685	-0.974953

exp_avg_sq f4 [15, 4]
0	0x4101809b	8.093898
1	0x40bf491b	5.977674
2	0x4105537c	8.332882
3	0x40dc6d7d	6.8883653
4	0x4140281e	12.009794
5	0x410e7948	8.90461
6	0x4137c3f7	11.485343
7	0x40d366fe	6.6063223
8	0x3f67b98f	0.90517515
9	0x3f338c04	0.7013552
10	0x3f5889aa	0.8458506
11	0x3ee87b7b	0.45406708
12	0x4120d9a0	10.053131
13	0x41041f23	8.257602
14	0x4129a9f4	10.603992
15	0x40e6b712	7.2098475
16	0x3e98f1cb	0.29871973
17	0x3e761c21	0.24034168
18	0x3f14d434	0.58136296
19	0x3e31a7bd	0.17349143
20	0x405e186f	3.4702413
21	0x402ed4a6	2.731729
22	0x400fd9e3	2.2476737
23	0x40138e22	2.30555
24	0x4053f6ea	3.3119454
25	0x402dabf3	2.71362
26	0x40938e1b	4.611097
27	0x400a2d5b	2.1590183
28	0x421e12ec	39.51848
29	0x41ed3504	29.650887
30	0x421f6f3e	39.858635
31	0x41e10053	28.125158
32	0x420699be	33.65014
33	0x41d6b09d	26.836237
34	0x42189218	38.14267
35	0x41b5ca20	22.723694
36	0x41696963	14.588229
37	0x41336542	11.212221
38	0x41677531	14.466111
39	0x4116b443	9.419009
40	0x40862a86	4.192691
41	0x40627fc8	3.5390491
42	0x40b69607	5.705814
43	0x40500c29	3.2507422
44	0x423ee5f4	47.724564
45	0x4213bd5a	36.934914
46	0x425818d4	54.024246
47	0x42176973	37.852978
48	0x401bf3c2	2.4367528
49	0x3fe23b58	1.767436
50	0x40468454	3.1018267
51	0x3fe86cc2	1.815819
52	0x40a1e998	5.059765
53	0x4052d0e3	3.2939994
54	0x4075c7b0	3.840313
55	0x403f9132	2.993237
56	0x409fe36c	4.9965115
57	0x40807691	4.0144734
58	0x40a4d4e1	5.150986
59	0x40805508	4.01038
