vae/saved_models/fixed_endpoints/fixed1.0_nepochs200_lr0.01_N30_n1000_b117_s10.pt (torch, 157113 bytes, 36 tensors)

enc_shared.weight f4 [100, 30]
00000000: 945e d73d fb15 07bd 9e36 11be f08c 1a3e
00000010: b542 64be 54f5 b53e c809 f13c 7ce5 5e3e
00000020: 6db7 923e 256e 213e e22f 4f3a 3c53 ecbd
00000030: b44f cbbd b147 4f3e 95d5 22be ca46 cc3c
00000040: 9057 cebd f43e 49be 8696 2bbe ebe7 853d
00000050: 482c 96bd 329c a63d 13ab 9abe 1e44 cd3c
00000060: 4351 abbe 2eee 83be 4e9b 973c a7e6 d93c
00000070: 6eed 7abe e7df 0c3d 7ae0 653d 25f5 053e
00000080: c3e1 55bd ecae bd3d b4fd d0bd 1f4c 0fbe
00000090: 5008 a1bd 0d7f ab3d a947 31be 2d88 2abe
000000a0: 221a 473e 9ab0 4dbe d5ba cbbd 4ac1 07bd
000000b0: ad82 4fbd b2b3 213e 9c17 b5bd da9b bd3c
000000c0: cf00 9f3e 1dfd 63be e8c7 0f3d 3867 8e3d
000000d0: d14f 71bd bb81 fd3d 0bff ad3d 949f 5a3e
000000e0: 55fd 573d 5ced e9bd 3b4c a53d a1dc 14be
000000f0: 2d86 fdbd 5a70 6e3b ee73 a7bd 6ac0 ca3c
00000100: 0064 c0bd 3398 9339 8a1d d83d 7ac6 0d3d
00000110: 6cd7 f7bd a97e 34be 4234 0cbe 7cc0 3a3e
00000120: 60a8 9fbc c6be fcbd a1d2 30bd a881 1c3d
00000130: fcec 183e dfba 183e 4183 733e 2462 66be
00000140: 8009 993d 3816 4bbe 180f 88bc 4a27 0a3e
00000150: 44c4 41bd b3a2 26be bb31 06bf 8a53 333e
00000160: 9fbb 02bd 5d36 c4bd e96d 2c3c 41ab 6f3e
00000170: e3b6 92be 051f d93c 3638 3d3d a5ca d03d
00000180: b5c1 eb3c d8e0 33be debb 9cbe eec1 9c3e
00000190: 48b4 57be 9399 ea3c 1378 1fbe 249f 0b3d
000001a0: 4e16 dd3e 4ecf 25bd 9ef8 0ebe 7eca 0b3e
000001b0: e19e 0ebf d169 013e 74be 2fbe 964c e23e
000001c0: c402 44be e444 56be f766 f1bd 9fa2 05bc
000001d0: d150 cc3d 9dd6 be3d 2898 e8bc a6dd 4b3e
000001e0: bffc d0bc 35c2 61bd cf33 6a3d 734d 58be
000001f0: 38b0 123e 49d5 a0bd 978b f6bd 4abf 38bd
00000200: 6c00 9e3e c97b 7cbc 1f77 56be 8de3 713e
00000210: 1e2b 503d c4df 7c3e d603 babd 763b 883d
00000220: d4b0 03be f269 a83d a100 5f3e 7981 d33e
00000230: d124 e23d 5912 53be f525 b4bd 7629 113e
00000240: b4ae 13be 587b 42be 46f2 d53c 3909 96be
00000250: 491c 1abe a116 bdbd a359 abbd a6dc 893e
00000260: 34c9 913e 9dce 4e3e 2095 64bc 5ad8 d33c
00000270: ea0d 27be b9e4 973c 0ac4 c73d 7179 85bd
00000280: 07a4 44be f834 583e 87ea 9bbd 63df b8be
00000290: fb54 4cbd bda9 e3be 8cb0 36be 966d 393e
000002a0: 905a 853e 4bd0 80be ac4c f13b 9b1a 02be
000002b0: d46d c43d 32ff dfbe 754b bbbc 6241 313e
000002c0: 0a6f 9cbc a279 97bb 24c3 07be 4756 32be
000002d0: fae5 993d f10e bf3d 808c 3a3e 9c71 cabd
000002e0: 548f 03bd 54a6 383e 1555 013d 4a4b 583e
000002f0: 8d7e 07be 3fc6 f63c fb6f 133e 3d2c 35bd
00000300: 5914 88bc 13f1 06bd d02c 12be 8ef2 353e
00000310: 3906 63bd 3c4a 3bbe 3389 8fbd 95e2 2f3c
00000320: 87ec 18bd 7fc5 efbc 72e1 1abe ba3c c8bd
00000330: 3aae 6dbe 228a a43d 4d7c 6b3d fa04 8cbd
00000340: 05dc 013e fe64 22be ef64 a3bd 07a0 133c
00000350: b76d 643e b17a 6dbe 1aaf b23d 137b db3d
00000360: a26c 75be 08c3 003c 727c ae3c c1ba 87be
00000370: 3c5d 11be 92e9 a93e 2b3a 2abe 98ef e13d
00000380: 9d6e 06be f340 29be c918 073e 2a86 9ebe
00000390: e359 e1bd 214c 19bd 1760 36bc 923c a8bd
000003a0: a561 45be dda6 b93e 4f3c 203e d515 893e
000003b0: a43e b23e eee0 003e ffc2 843e a607 01be
000003c0: 9b01 10be a34f c33c d2fa 1bbe e161 d23d
000003d0: 74e5 133c ec31 213e 3a52 3bbd 28f2 003e
000003e0: bd7b 8ebe 70b1 e4bd ca0e c23d c39e 80bd
000003f0: 62cd 11bd f35e 24be a4c3 e4ba 2901 203d
0.10516086 -0.032979947 -0.14180991 0.15092826 -0.22291072 0.35538733 0.02942361 0.21767229
0.28655568 0.15764673 0.00079035584 -0.11539313 -0.099273115 0.20242192 -0.15901788 0.024936099
-0.10075295 -0.19652921 -0.16756639 0.065383755 -0.07332665 0.08135261 -0.30208644 0.025056895
-0.33460435 -0.25767654 0.018506672 0.026599241 -0.24504635 0.034393217 0.05612228 0.13081796
-0.052217256 0.09261879 -0.1020464 -0.13993882 -0.078629136 0.083738424 -0.17312492 -0.1665351
0.19443563 -0.200869 -0.09947745 -0.03314332 -0.05066173 0.15791205 -0.08842394 0.023145605
0.31055304 -0.22264524 0.035102755 0.06953281 -0.05891401 0.1237826 0.08495911 0.21349937
0.05273183 -0.11422226 0.080711804 -0.14537288 -0.123791076 0.0036382885 -0.08176409 0.024749953
-0.093940735 0.00028151422 0.10552509 0.03461311 -0.12101635 -0.17626442 -0.1369181 0.1823749
-0.019489467 -0.12341075 -0.04316962 0.038209587 0.14934152 0.14915036 0.23780538 -0.22498375
0.07472515 -0.19832695 -0.01660876 0.1349155 -0.047306314 -0.16273002 -0.5241963 0.17512336
-0.03191721 -0.095806815 0.0105242515 0.23405172 -0.28655156 0.02650405 0.046196185 0.101949014
0.02877889 -0.1756624 -0.3061208 0.30616707 -0.21064866 0.028637683 -0.15573148 0.034087315
0.4318108 -0.040480904 -0.13962027 0.13651463 -0.5571118 0.12638022 -0.17162496 0.44199055
-0.1914168 -0.20924717 -0.11787217 -0.008156448 0.09976352 0.09318278 -0.028392866 0.19908771
-0.025511144 -0.05511685 0.057178315 -0.21123295 0.14325035 -0.07853181 -0.120383434 -0.045104302
0.30859697 -0.015410372 -0.20943879 0.2362196 0.05082237 0.24694735 -0.09082763 0.06651966
-0.12860423 0.082233325 0.21777584 0.41309717 0.110421784 -0.20612468 -0.08796302 0.14175972
-0.14422113 -0.18992364 0.026116502 -0.2930391 -0.15049852 -0.09232832 -0.08366706 0.26926154
0.28473818 0.20196004 -0.01395157 0.02586 -0.16313902 0.01854168 0.09754188 -0.06517304
-0.19203196 0.21113956 -0.07613092 -0.3610793 -0.04988573 -0.44465438 -0.17840785 0.1810821
0.26045656 -0.25158915 0.0073638763 -0.12705462 0.095912606 -0.43749386 -0.02286313 0.17310098
-0.019095916 -0.004622654 -0.13258034 -0.17415725 0.07514568 0.09329022 0.18217659 -0.098849505
-0.03211911 0.18032199 0.03157528 0.2112247 -0.13231869 0.030123828 0.14398186 -0.044231642
-0.016611265 -0.03294475 -0.14274907 0.17768309 -0.055425856 -0.18290037 -0.070085905 0.010735174
-0.037334945 -0.029268978 -0.15125063 -0.09777208 -0.23210993 0.08034159 0.05749159 -0.06836887
0.12681587 -0.15858838 -0.07978236 0.009010321 0.22307478 -0.23191334 0.08724804 0.10716834
-0.23967221 0.007858999 0.021299575 -0.2650967 -0.14195722 0.33186013 -0.16623752 0.11032027
-0.13128133 -0.16528682 0.13193049 -0.30961734 -0.11003473 -0.037426118 -0.011131308 -0.08214678
-0.1927553 0.3626012 0.15648006 0.2677447 0.34813416 0.12585804 0.2593002 -0.12600574
-0.14063112 0.023841685 -0.15232399 0.10272575 0.009026874 0.157417 -0.045732714 0.12592375
-0.2782878 -0.11166656 0.09475477 -0.062802814 -0.03559626 -0.16051845 -0.0017453325 0.039063606

enc_shared.bias f4 [100]
00000000: 64f3 d13c 2981 0bbd b223 7bbe c53e 413e
00000010: 472b 283d cdd9 b4be f8c8 dfbd 1f70 4fbe
00000020: e8a9 ac3c fefc 00be ffc5 dfbc 040d b93d
00000030: 91f5 f5bd d52d bd3d b310 35be 90c3 693e
00000040: f0e0 cbbc 941c a73d 6a36 973d 2a2e 713e
00000050: 9db2 813d b0b8 a9bd 27a3 b33d 6973 383e
00000060: 0f48 903c 6d1b 173d ed8f 25bd 4044 4ebe
00000070: 4cef 493d 9b97 4dbe c742 183d ad27 91bd
00000080: 5747 b1bb 14d7 52be a7ef eebc 4efd 7a3c
00000090: eb59 ad3b 5f4f e7bd dde8 f6bd e205 25bc
000000a0: 790e 80be 267a 93bd 9ec7 d13b 0beb 763d
000000b0: 2e42 ccbd 39f9 813e 1736 093e 3f6b 733d
000000c0: 3184 3c3e 16ad 0e3e e27c cb3c adc9 acbc
000000d0: 1aee a1be 230c 88be 4a25 043d 3e0a 623e
000000e0: 95cf 3bbd e2cf f8bd 2f70 37be 1ed3 c23d
000000f0: d301 c03d 7b71 103e f3aa 0f3e 634b 523e
00000100: ebf3 403e e12c 113e 7711 25bd 554f 853b
00000110: eaec 0f3e cd97 1fbb 6dbf 5e3e 3471 9cbd
00000120: 996e 0e3e c8d7 0dbe 460d 6f3d b6eb 95bd
00000130: 7aa4 6ebe 257d 08be bc52 f1bd 1a43 33bd
00000140: 61c9 f7bd 2fd1 373e e6f4 c33d eb43 09be
00000150: 6b37 443e ce20 b53e a272 4ebd 9cc2 2abe
00000160: e7ae bcbd 1b8c 313d 21e1 273e 828e 5f3d
00000170: b6b7 643e 93df 173d dda4 d23d 425a 91bd
00000180: a917 4a3b 0367 b93d b60d 04be 190c 923d
0.025628753 -0.034058724 -0.24525335 0.18871601 0.041056897 -0.3532242 -0.109270036 -0.20257615
0.021077111 -0.12596509 -0.027316092 0.09035686 -0.12009729 0.092372574 -0.17682151 0.22828507
-0.024887532 0.08159748 0.073834255 0.23552766 0.06332896 -0.082871795 0.08771353 0.18012775
0.017612485 0.03689139 -0.04042046 -0.20143223 0.049300477 -0.20077364 0.03717306 -0.07087646
-0.0054101157 -0.20589858 -0.02916701 0.015319182 0.00529026 -0.11294436 -0.12056134 -0.010072203
-0.25011042 -0.07201032 0.00640197 0.06028275 -0.0997356 0.25385454 0.1339954 0.05942845
0.18409802 0.13933215 0.024839822 -0.02109226 -0.3162697 -0.2657176 0.032262124 0.2207422
-0.045852263 -0.121490255 -0.17913888 0.09512924 0.09375348 0.1410579 0.14030056 0.2053657
0.18843047 0.14177276 -0.04029986 0.004068295 0.1405522 -0.0024351955 0.2175271 -0.07638779
0.13909377 -0.13851845 0.058362268 -0.07320349 -0.2330493 -0.13328989 -0.117833585 -0.043765165
-0.12098957 0.17950891 0.09568195 -0.13404815 0.19161765 0.3537659 -0.05040229 -0.166758
-0.092130475 0.043346506 0.16394474 0.054579265 0.22335705 0.03707845 0.102853514 -0.070972934
0.0030836856 0.09052851 -0.12895855 0.07131214

enc_mu.weight f4 [10, 100]
00000000: ce2c 223e 4828 e9bc 6b45 9e3c 2224 183e
00000010: 66cc 063e 1669 03be 8290 363d c9b4 073d
00000020: f012 583c 6d6a b2bc 61fb 5f3c caa5 32bd
00000030: f46a 123e fdeb f83d 9498 c83d 0c90 2e3d
00000040: f3ed 33be ef0a 413d b130 483c c141 25bd
00000050: 6fda ce3d 05d9 81be dd7b ad3c 227f 833d
00000060: 5dac 9bbc 32cc 9abd 5748 81bd 7c52 c73d
00000070: 60ed 983d eee5 3cbd 7be0 a4bd 409a e23d
00000080: daab 80bd 4d46 c5bc a96e 3f3e 0ea6 1abe
00000090: 78f4 37bb 3d76 823d 21a3 18be 1a6e 783d
000000a0: a48b 0e3d 7d75 cf3d e9ce 39bd 6536 203e
000000b0: 864c 493c cf92 e9bd 90c9 ad3d 5523 b5bd
000000c0: 482d b73b a8b6 3e3c 6e6b 783d 7786 e9bc
000000d0: f4a8 c5bd 8996 8dbd cfbf 753e 8a96 d53d
000000e0: 641d bdbc b06e 213c 0df9 c1bc fa68 3fbd
000000f0: 341b e33d b049 1dbe 48dd 5a3d 8628 3cbe
00000100: c9fd babd 010f 1e3e 0b8c a3bd e840 4d3e
00000110: 6bf4 bbbd 1560 98bd 20c5 993d 4c4b a03d
00000120: 12ed d7bd b2c1 753e 0d6a d83d 1374 2a3e
00000130: 63ea 32bd 88af ed3d d48c d53d 5c6f c83d
00000140: 8d31 06bd e864 393e d8fa 7fbd 2658 62bd
00000150: a839 a3bd 9740 a43d e111 fabd cc54 51be
00000160: 46d1 303e e9e4 23be 696d 133d e3a7 f0bc
00000170: c0d3 923d 1279 dd3b 6446 af3c a256 00be
00000180: cfff f9bc a47c 563e 3d30 143c 96e4 1bbd
00000190: 6744 6d3d 2dc9 44bd 68ea ba3d 9a6a 4c3d
000001a0: 6d18 ca3d e12b acbc a4e7 c7bb 4ab3 d6bd
000001b0: 5b0c d2bc 3db1 963c 4bd7 28be 830d dc3b
000001c0: b83c 003e 7111 373d 6947 763c 5587 03be
000001d0: b1b0 cebc fb1b b33c dd84 d8bd 51c7 b63c
000001e0: 98ee e73d f318 8bbe 4bcd 723c d375 df3d
000001f0: 9440 2d3e 225e c339 5e3c e5bd 03fa bd3b
00000200: 351c dfbd 5508 7a3d 5dbc ef3d dbae eaba
00000210: d50f 3c3c 816c 423d 2785 803c 85d4 2b3e
00000220: dd97 0d3e e286 133d 50a8 c23d a952 0bbc
00000230: 0b84 53bc ce50 32be 4f9e 4abd 831a ce3d
00000240: 3374 ad3d 20f2 f83d 251f 0ebe 3177 ad3c
00000250: 6fb5 06bd 11f1 4ebd f200 403e 8038 49be
00000260: afa0 80bd 4e54 b93b 8129 f5bc dcf4 0dbc
00000270: 9f4a 803d c37c d7bd 9091 75bd c2a3 efbc
00000280: 6abb 453d 15bb d4bd d3ea 1e3d 6d46 9cbd
00000290: 5b04 c43d 336a e33b 9991 373d 6561 033e
000002a0: 02f6 aa3d 3d44 a93d dadf 38be 0560 82bd
000002b0: 97bf 843c fd30 553d 8348 47be df7e 073d
000002c0: a760 fc3d 2855 0b3e c07f a2bc e751 67bd
000002d0: 444c fbbd c344 d23d d80b bd39 234f debc
000002e0: 3cc0 99bd e036 27bd 7474 ea3d 2038 babd
000002f0: 3f44 c5bd f6c0 163e d9f7 29be 3521 043d
00000300: b8ae 12be 5cb6 ea3c 1138 09be cd9d d3bc
00000310: fb0e 513d 91df 82be 99e7 e3bd 539e c43d
00000320: aede 4c3d c6a4 5cbe 22b3 c5bd 6fee 4c3c
00000330: 7a9a 0b3e 697a 063e dbd3 1a3d b70f 6a3d
00000340: f9aa d2bd a0a7 13be ece3 82bd f734 a53e
00000350: e9f1 77bd 1fef 95bd ba13 2a3d 6c56 01be
00000360: b37b a3bd e075 d43d bc63 3bbd 1e11 9bbd
00000370: 541d 293c bf68 f3ba ea46 463c 4a3f 23be
00000380: 4ea9 15be ef55 7a3d aa3c 49be 7e30 ddbd
00000390: 7f15 b63c 540a 7e3d b594 09be 6816 efbd
000003a0: c4f2 dbbd e11c 3c3d 2aad c23d 319a ddbc
000003b0: cc3d 923d 8648 81bc c832 23be 0d76 dd3d
000003c0: 042d dc3d ea84 f7bd a446 cc3d 2e29 0d3e
000003d0: 859c 543c 8c9a 7d3d 7e6b 62bd 30ca 05be
000003e0: 94e9 443c dab0 ee3d 2176 91bd bf03 613d
000003f0: d3d4 e7bd fc50 3cbd 007e 9abd 2769 98bb
0.15837404 -0.02846159 0.01932021 0.14857534 0.1316391 -0.12833056 0.044571407 0.033131395
0.013188109 -0.021779263 0.013670773 -0.04361514 0.14298612 0.12154386 0.09794727 0.042617843
-0.17571239 0.047129568 0.01221864 -0.04034591 0.10100257 -0.25360885 0.021177227 0.06420733
-0.019003088 -0.075584784 -0.06312626 0.097325295 0.07467151 -0.046117716 -0.08050629 0.11064577
-0.06282778 -0.024081374 0.18694557 -0.15102407 -0.0028069299 0.063702084 -0.14905979 0.060651876
0.03480114 0.10129831 -0.04536334 0.1564575 0.012286311 -0.11404955 0.084857106 -0.0884463
0.0055901147 0.011640228 0.060649328 -0.0285065 -0.09651366 -0.06913478 0.2399895 0.10429104
-0.023085304 0.00985305 -0.023678327 -0.046730973 0.11089173 -0.15360141 0.053433686 -0.18374833
-0.09130437 0.15435411 -0.079856955 0.20044291 -0.091774784 -0.07440201 0.07508302 0.07826862
-0.105432644 0.2399967 0.105671026 0.16645841 -0.04368056 0.116057456 0.104272515 0.09786865
-0.0327621 0.18104899 -0.062495083 -0.055259846 -0.079699814 0.08020132 -0.122104414 -0.20442504
0.17267331 -0.16005291 0.035993014 -0.02937693 0.07169294 0.0067588175 0.02139587 -0.12533048
-0.030517487 0.20945984 0.009044704 -0.038059793 0.05792656 -0.04804342 0.09126741 0.04990635
0.0986794 -0.021017017 -0.0061006118 -0.104834154 -0.025640657 0.01839506 -0.16488378 0.006715478
0.12523162 0.044694368 0.015031674 -0.12844594 -0.025230737 0.021863928 -0.10572217 0.022311838
0.11324805 -0.27167472 0.0148194535 0.10911145 0.16919166 0.00037263433 -0.11193155 0.005797626
-0.10894052 0.061043102 0.11705849 -0.0017904894 0.011478384 0.04746676 0.015688492 0.16780289
0.13827462 0.036017306 0.09504759 -0.008503594 -0.0129098995 -0.17413637 -0.04946738 0.100636505
0.08469429 0.12155557 -0.13879068 0.021174999 -0.032887872 -0.050522868 0.1875036 -0.1965046
-0.06280648 0.005655802 -0.029927017 -0.008664336 0.06264233 -0.10521843 -0.059953272 -0.02925289
0.048274435 -0.103872456 0.038798165 -0.0763062 0.09571143 0.00694015 0.044816587 0.12830122
0.083477035 0.082649685 -0.18054143 -0.063659705 0.016204638 0.052048672 -0.19461255 0.033079978
0.123231225 0.13606703 -0.019836307 -0.056474593 -0.12270406 0.102670215 0.00036057713 -0.027137345
-0.07507369 -0.040823817 0.11447993 -0.09092736 -0.096321575 0.14722046 -0.16598453 0.03225823
-0.14324462 0.028651409 -0.13400294 -0.025832081 0.051039677 -0.25561193 -0.11128158 0.096005104
0.05001705 -0.21547231 -0.096533075 0.012508019 0.13633147 0.13132633 0.037799697 0.057143893
-0.10286517 -0.14419413 -0.06391129 0.3226697 -0.060533438 -0.07320999 0.04152272 -0.12630624
-0.07982578 0.10374045 -0.04574941 -0.07571624 0.010321934 -0.0018570645 0.012101868 -0.15942112
-0.14615366 0.06111711 -0.19652048 -0.10800265 0.022227047 0.06202157 -0.13435633 -0.116741955
-0.10739663 0.04592598 0.09505685 -0.027051063 0.07140693 -0.015781652 -0.1593734 0.10813532
0.107507735 -0.12085898 0.09974411 0.1378524 0.01297677 0.061914966 -0.055278294 -0.1306541
0.01201858 0.116548255 -0.071026094 0.054935213 -0.1131989 -0.04597567 -0.07543564 -0.004651207

enc_mu.bias f4 [10]
00000000: de2e 15bd 9078 90bd 0a9d cd3c b689 973c
00000010: 64ae 9e3d f29a 41bc e5c5 593d 28fb aeb9
00000020: 013a eb3c 8c11 d4bb
-0.03642165 -0.070542455 0.025099296 0.018498283 0.07748106 -0.011816727 0.053167243 -0.00033374992
0.028714182 -0.0064718183

enc_log_var.weight f4 [10, 100]
00000000: aff1 3ebe a28d ed3c f781 2e3e c221 06be
00000010: 1b31 8bbc a1e4 8b3e 759e 1e3e 7283 c33d
00000020: 7504 873e 4633 013d c0c4 853d fa92 d43c
00000030: dcbc 5e3e 591c 93be 4562 803e 1dfe 13be
00000040: bfd4 5c3e c5dd e53b 8cea 01be addd fbbd
00000050: 2e54 97be 62b7 71bd 1a23 3dbe eab0 31be
00000060: 80c4 69bd 58ba 033e 6cec 08be f76e 063d
00000070: f8d6 6b3e 4dc4 10bd bbff 6cbd f65e 30be
00000080: b8a0 67be d14c 043e 6af5 313c d5d8 c63d
00000090: 57de 433e 6d28 993e f555 6c3e 095c 33bc
000000a0: 810b 8b3e 25c7 0a3d 92bc c23c dd5a 57be
000000b0: b841 9c3e 1b68 15be df65 f9bd 7414 0f3e
000000c0: a8ef 85be 9fe2 25bd b41a 4ebe 80ac ee3d
000000d0: b152 773e e7e5 c23e 75f8 623e 5eb3 c9be
000000e0: e7e7 70be d3f5 513e 02b0 a73e 9ffd d9bd
000000f0: 4d39 3e3e 5009 4ebe ba56 51be a999 0c3d
00000100: 71b2 10be ffe5 42bd fda4 3dbd b446 a43c
00000110: 83a4 b6bd 4c7d 1f3e b882 98be df98 6bbd
00000120: 2bbc 2b3e 260b f1bb 3353 22be 9295 7a3e
00000130: 6546 813e c91d 633d 13b9 30bb 51de 0c3d
00000140: 0e35 163e 601a 4abe b294 3f3d 4d32 673e
00000150: c22c 18be ffd1 a4be 6493 cfbd 93d2 8f3e
00000160: e72a 953e f5d4 f3be 7cac 8d3d 23ef b03d
00000170: f180 62be 53d1 32be 6fea 833d c433 2d3e
00000180: 9a0d 953e f7c5 7abe 3205 323e 1145 11bd
00000190: d834 343d 4c1d 1d3c 54d9 203e 5955 f6bb
000001a0: 721d d8bc d01f a83e 1423 943e 9dec 213e
000001b0: db13 9e3d 9ff0 943d 6ab4 933e 3e49 983c
000001c0: 640c 533e d443 98be 84d4 7a3e 6aa8 38be
000001d0: d279 da3d 8f0d b3bc 559f 59be ff76 7bbe
000001e0: e1ef d6bd ac6e ca3b feb9 0cbe 11a4 96be
000001f0: d5a9 523d fc58 a4bc 8a20 063d 1ab5 2d3e
00000200: f9a2 383e be9c 8f3d 7b08 2c3e 8b6d 3dbe
00000210: f3a8 8bbe 9651 863e 2eaa e03b 600c e63b
00000220: d55b 153d 2ef9 523e 2f31 783e a7b1 4ebc
00000230: ae0e 7b3e cabc 0c3e 5f65 8a3d 7f7a 40be
00000240: 5609 263e a523 87be 24b9 45be 1f6f 063d
00000250: 255a 6cbe cb83 b6bd 61c6 27be 68af 273e
00000260: 6a33 a43e c113 a53e a02a c83d 40ca b8be
00000270: d434 4cbe dc3a 803e f7ad 3c3e 88f2 51bd
00000280: 41d2 8cb9 3fe1 2ebe 4fe4 44be bca9 bdbd
00000290: 798e 0abe fe7c a63d cfab 6dbd a8d1 a3bd
000002a0: 1a35 62bd 3273 bd3d 502c b9be 324a 52bd
000002b0: dda3 82bd 9adc 183e b620 02be 952a 323e
000002c0: d169 e43d 9b93 853e 80e6 b33d 85b4 5abd
000002d0: 6913 a23e a98c 6abe 6531 483e b1d0 af3e
000002e0: 1c9d 37be d26b abbe 00b3 36be 8417 873e
000002f0: 8458 013f 2bf7 58be 5be8 8a3d e569 a63d
00000300: 1aa6 96be 1063 81be 35d7 9f3d f4b3 723e
00000310: 4982 723e ec9a 12be 9f88 1a3e 5c14 93bd
00000320: 843c 41be 339c cf3c 32b1 313e 6204 3ebe
00000330: 0ddc 0f38 cc6d a43e 67ed d13d 7051 4e3e
00000340: 5419 813e fbaf 883e 48e0 5b3e 1262 cd3c
00000350: eb9c bd3d c0d4 fdbd 1d0a 873e 6e22 f1bd
00000360: d94f 543b de55 b73d c40d 14be defc e7bd
00000370: d574 9bbe 8677 0fbe bec1 38be 6f24 19be
00000380: c913 51bd e0cf e73d 98a5 2dbe 2563 8e3e
00000390: 8f1d 2c3e daf1 4b3d ab6a 7f3e 5190 44be
000003a0: acdb eabd 615e 623c 3717 1abd 1f5c 6cbe
000003b0: e951 163e d38c 243e cc93 f13d 59fe 2c3e
000003c0: e4e1 9f3e 60fb 05bb 4c7a c4ba 9b37 66be
000003d0: 874c 4a3e 3bb1 54be e403 ddbd 0fe0 b03e
000003e0: b875 3ebe 8d67 d6bd 208c aabd 5139 403c
000003f0: 7f7a 8e3e 921d a73e f4e0 ee3d 919c 93be
-0.18646882 0.0289982 0.17041765 -0.13098815 -0.016991189 0.27322868 0.15490134 0.095465556
0.26370588 0.03154304 0.06531668 0.02594899 0.21751732 -0.28732565 0.25074974 -0.14452405
0.21565531 0.0070149624 -0.12687129 -0.12298141 -0.29556412 -0.059012778 -0.18470421 -0.17352644
-0.057072163 0.12864053 -0.13371438 0.032820668 0.23031223 -0.035343457 -0.05786107 -0.17223725
-0.22619903 0.12919928 0.010861734 0.09709326 0.19127785 0.29913655 0.23079665 -0.010947236
0.27157214 0.033881325 0.023771558 -0.21030755 0.3051889 -0.14590494 -0.121776335 0.13972646
-0.26159406 -0.040499326 -0.20127374 0.116539955 0.24152638 0.38066027 0.22165091 -0.3939466
-0.23525964 0.20503931 0.3275147 -0.106440775 0.18576546 -0.2012074 -0.2044324 0.03432623
-0.1413057 -0.047582623 -0.046299923 0.020053245 -0.08918097 0.1557514 -0.2978723 -0.057518836
0.16770999 -0.0073560653 -0.1585205 0.24471119 0.2524902 0.055448327 -0.0026965782 0.034391705
0.14668676 -0.19736624 0.046772666 0.22577782 -0.14860824 -0.32191464 -0.101355344 0.28090343
0.29134294 -0.4762341 0.069176644 0.08639362 -0.221195 -0.17462663 0.06441199 0.16914278
0.2911194 -0.2448958 0.17384794 -0.035466257 0.04399571 0.009589504 0.15707904 -0.0075174985
-0.026381228 0.3283677 0.28933012 0.15812917 0.07718631 0.07272457 0.28848583 0.018589612
0.20610195 -0.2973925 0.24495131 -0.18032995 0.10667767 -0.021857051 -0.21252187 -0.24557112
-0.10494972 0.006177744 -0.13742825 -0.29422048 0.051431496 -0.020061962 0.032745875 0.16963616
0.18030919 0.07012318 0.1680011 -0.18498819 -0.27277336 0.2623412 0.0068562245 0.007020518
0.03646453 0.20602867 0.24237512 -0.012615598 0.24517319 0.13743892 0.06757616 -0.18796729
0.16214499 -0.26394382 -0.19308907 0.032820817 -0.23081262 -0.08911856 -0.1638427 0.16375506
0.32070476 0.32241634 0.09773755 -0.36091805 -0.19942027 0.25044906 0.18425737 -0.051256686
-0.00026859532 -0.17078112 -0.19227718 -0.0926089 -0.13530912 0.08129309 -0.058025178 -0.07998973
-0.055226423 0.092504874 -0.3616662 -0.05134029 -0.06378911 0.14927903 -0.1270779 0.17399056
0.111529954 0.26089177 0.08784199 -0.053394813 0.31655434 -0.2290522 0.19550093 0.34338906
-0.17931026 -0.33480698 -0.1784172 0.26385128 0.5052569 -0.21188037 0.067825995 0.081256665
-0.294236 -0.2527089 0.07804719 0.23701459 0.23682512 -0.1431691 0.1509118 -0.071816176
-0.18870741 0.025343036 0.17352751 -0.1855636 3.4298795e-05 0.32115018 0.10250359 0.20148253
0.25214636 0.26696762 0.21472275 0.025071178 0.09258445 -0.123940945 0.26374903 -0.11774145
0.0032396226 0.08951925 -0.14458376 -0.113275275 -0.30362573 -0.14010438 -0.18042657 -0.14955305
-0.05104426 0.11318946 -0.169577 0.27810016 0.1680815 0.049791194 0.24943034 -0.19195677
-0.1146768 0.013816447 -0.037619796 -0.23082016 0.14679684 0.16069345 0.11795768 0.16893901
0.31227028 -0.002044402 -0.0014990061 -0.2248215 0.19755755 -0.20770733 -0.10791758 0.34545943
-0.18599594 -0.104689695 -0.08327508 0.011732415 0.27827832 0.32639748 0.11664 -0.28830388

enc_log_var.bias f4 [10]
00000000: 7675 9ebe e05a b6be f27b 45be 1575 65be
00000010: 7fa8 b6be c51c 183d d679 92be c52c 3dbe
00000020: e4ee c7be dc35 b6be
-0.3094899 -0.35616207 -0.19285563 -0.22407945 -0.35675427 0.03713681 -0.28608578 -0.1847411
-0.39049447 -0.35587966

dec_shared.weight f4 [100, 10]
00000000: 3058 f53d f131 9f3e 3852 8ebe f0c8 65bd
00000010: 2a85 8e3e e35e e33a dbfa 77be f526 453d
00000020: cc2b 823e b888 a43d 49ec a63e f248 8bbe
00000030: d334 213e 9057 0c3d 9f80 e83d 6be9 98ba
00000040: 247c a7bc 7ced efbd cfa9 a73d 206c 283e
00000050: a919 e73c 6773 41bd 5733 183e 35df 2bbf
00000060: 8224 e93d 3d2f d9ba 16f4 50bd 51b7 0e3d
00000070: fae1 9e3e 721d 8b3e 485c ae3e dcb5 9f3e
00000080: dba3 003e 498b 0f3d bf63 f4be a621 18bb
00000090: f38d bdbe 1667 d53d 88ed 2abf 4471 c93d
000000a0: 8727 fa3d 4198 1a3e 70fd 16be 4258 d03e
000000b0: 6caa 303e 75cc 28bb af41 c7bc 1af1 86be
000000c0: 0b7a 7bbd 1114 4e3e 1e04 05bd c05b ddbe
000000d0: a825 99be 46fe d83e 0313 e13d 5f82 4abb
000000e0: 12b6 483e aec6 b8bd 2e27 e8be 3b80 24bd
000000f0: e66c 4fbe 3c73 1f3e ecbe d03b f0fb 353f
00000100: 495e e23d 03c5 983b 9a46 86be e36e c2be
00000110: e45b cf3e cfbc 55bd 603b 11bf d3d9 163f
00000120: 39ba 783d 0d29 02be 7edd 1c3f cba4 603b
00000130: 669b e1be c7f0 98be 44a3 f63d 867a 023f
00000140: 4be5 213d 41ac 85bd f177 86bd 8c26 debd
00000150: 7f46 60be 8f1c 653a 2a0e c8bd fa05 88be
00000160: 55b3 06be 2a14 91be e729 25bf 6997 b3be
00000170: af4e 023f 592d 5d3f a76a 06bf deee 91bb
00000180: 6cad c03d 8623 53be 9a8a 56bf 8f78 873e
00000190: 4c78 c7bd 638e 85be f251 2f3e a5aa 8c3e
000001a0: e92c abbe fd5b 19bb 3d64 43bd 18b0 923e
000001b0: 619b 31bf 0cd1 783e 86f8 e1be 3931 863e
000001c0: 04b3 ec3d b0b8 9fbe d809 c53d 6762 07bb
000001d0: 8058 af3d c4ff 5a3e c736 053e 681e 0cbf
000001e0: 4125 3f3e b7f3 4dbe a278 89be e654 c03d
000001f0: e48f 0f3c 309f 853b 9707 4d3e 9b99 2d3c
00000200: ce70 9cbe 6816 efbe 9095 8bbe 55df e93d
00000210: 7637 4abe 0037 8d3d fbdc bfbe c960 273b
00000220: eca0 b33d e876 9e3e ca0b 1c3d 6c74 e1be
00000230: 5f8b 8ebd eddb 9e3e 21bb c1be 68a1 27be
00000240: 64d6 853d bdf3 90bb 65ef 083f 895c 4d3e
00000250: 76f0 6bbe bbd9 c93e 91b4 c63e 7bb3 0ebf
00000260: 1af8 3a3e 3158 5fbe ffa9 bbbe 5be9 7abb
00000270: d5d5 84be 3af7 993b 4503 c23e 1731 b23c
00000280: 7333 b23e 7645 613e 5c5a a03e aebd 4d3e
00000290: 3fc6 eebe 69d2 2bba aff8 d13b 840c 2e3e
000002a0: a7d1 2f3e deb5 5d3e f4e8 a53e d6c6 22be
000002b0: 7bbb ecbe 64c0 83be 6474 a1bd aed7 1fba
000002c0: 5b9c 083e a4f3 e9be 2fe7 e33d a68c bb3e
000002d0: f92a 01bf 288f 94be 7409 41bd 9942 f1be
000002e0: b70a 213d dd2b a8bb 2877 4f3e bed3 5abe
000002f0: d2f4 4bbe 06bc ab3e c4e2 fd3e c6ad f1bd
00000300: efcb 903d 46e9 2ebe 18a7 a0be 0738 25ba
00000310: 6af8 8b3d 58a6 65be 6725 033f 0986 07be
00000320: d34d 0c3f d489 633e 434f 1f3d f99b 07be
00000330: 00ab bf3e b7c2 00ba 7853 79bd cb7d 823e
00000340: ee14 d6be 3087 673e 7070 c0bd 8652 853e
00000350: 6a32 ecbd e87d c7bd c71d 6c3e be15 81bb
00000360: 0c2f 733e 2cce 8c3e 6a90 173e 5300 de3c
00000370: 1368 96be 4a06 603e fbc6 8d3e 1ec1 023f
00000380: e9b5 983e a00b a03a f509 8d3e 3eab 073e
00000390: 24b5 07bd 8d4d ccbe ed2d a23d 5d4a 9fbe
000003a0: 7f15 ecbc 4d20 a93e 732e 9d3e d1ef 213b
000003b0: db86 51be 35e9 35be 0057 cdbe 5ef6 6f3e
000003c0: 9120 043e 1fb2 c1be ffe9 323d ae05 613e
000003d0: 8b5c afbe bd17 293b 9c15 a43c b011 cfbe
000003e0: f6fe 7f3e 3189 cebe d874 21be 9df0 fcbd
000003f0: e5b7 203e fcaa 4f3e 0f83 8ebe 5b66 0e3b
0.11979711 0.3109279 -0.27797103 -0.056099832 0.2783597 0.0017347004 -0.24216788 0.048132855
0.2542404 0.080338895 0.32602146 -0.2720409 0.15742807 0.034263194 0.113526575 -0.0011666244
-0.020444937 -0.117152184 0.08186685 0.16447496 0.028210478 -0.047229197 0.14863335 -0.6713746
0.113839164 -0.0016569864 -0.05101403 0.034842793 0.3103178 0.27170902 0.3405478 0.31193435
0.12562506 0.035044942 -0.4773235 -0.0023213415 -0.3702236 0.10420053 -0.66768694 0.09836057
0.122145705 0.15097143 -0.14745116 0.40692335 0.17252511 -0.0025756632 -0.024323313 -0.2635582
-0.061395686 0.20124842 -0.03247463 -0.43234062 -0.29911542 0.42381495 0.10989954 -0.003090046
0.19600704 -0.0902227 -0.45342392 -0.040161353 -0.20256385 0.15571302 0.006370416 0.7108755
0.1105314 0.0046621575 -0.2622574 -0.37975225 0.40499794 -0.052182015 -0.56731224 0.58926123
0.06072447 -0.12710972 0.6127547 0.0034277912 -0.44063872 -0.298712 0.12042859 0.50968206
0.03952531 -0.065269955 -0.06565846 -0.10847196 -0.21901892 0.00087399123 -0.097683266 -0.2656706
-0.13154347 -0.28335696 -0.6451706 -0.35076454 0.5090131 0.8639732 -0.5250649 -0.004453524
0.094080776 -0.2061902 -0.8380524 0.26459166 -0.09739742 -0.26085195 0.17121103 0.2747394
-0.334327 -0.0023400777 -0.047703017 0.28649974 -0.69377714 0.24298495 -0.4413492 0.2620943
0.11557582 -0.31195593 0.09621018 -0.0020658018 0.08561802 0.2138663 0.13009177 -0.54733896
0.18666555 -0.20112501 -0.26849848 0.09391193 0.008762334 0.0040778145 0.20022427 0.010595704
-0.30554813 -0.46696782 -0.27262545 0.1141955 -0.19747719 0.06895256 -0.37473282 0.0025539866
0.08770928 0.30950093 0.03809718 -0.44034135 -0.06960177 0.31027165 -0.3783808 -0.16370165
0.065350324 -0.004423587 0.5349029 0.2005483 -0.23040947 0.39423928 0.38809636 -0.55742615
0.18258706 -0.21810986 -0.36653134 -0.0038286063 -0.2594439 0.004698661 0.3789312 0.021751923
0.34804878 0.21999153 0.3131894 0.20091888 -0.46635625 -0.0006554486 0.006407819 0.16996962
0.1716982 0.21651408 0.32404292 -0.15896162 -0.46236786 -0.2573272 -0.07883528 -0.00060975074
0.13340895 -0.45693696 0.11128079 0.36630744 -0.50456196 -0.2901547 -0.047128156 -0.47121122
0.03931686 -0.005132182 0.20260298 -0.21369836 -0.1991761 0.33541888 0.4958707 -0.11800723
0.07070147 -0.17081174 -0.31377482 -0.0006302599 0.068344906 -0.22426736 0.51228946 -0.13234724
0.5480625 0.22220546 0.03889395 -0.13243093 0.3743515 -0.0004911827 -0.060870618 0.25486597
-0.41812843 0.22610164 -0.09396446 0.26039523 -0.11533053 -0.097408116 0.23058234 -0.0039393594
0.23748416 0.27501047 0.14801183 0.027099764 -0.29376277 0.21877399 0.27690873 0.51075923
0.29826286 0.0012210496 0.2754666 0.13248917 -0.033131734 -0.39902917 0.07918916 -0.31111422
-0.028818844 0.33032456 0.306995 0.0024709592 -0.204616 -0.17764743 -0.40105438 0.23433825
0.12903048 -0.37831208 0.043680187 0.21974823 -0.34250292 0.0025801503 0.020029835 -0.40443182
0.24999604 -0.40339044 -0.15767229 -0.12350581 0.1569515 0.20280069 -0.27834365 0.002172849

dec_shared.bias f4 [100]
00000000: 229f ee3e 2bdc 993e 6eb0 783e 7a76 e4be
00000010: 7cc7 f7be 1c21 a43e 12a9 8b3e 01b5 c8be
00000020: ce9e 66be 4e87 313e c03f ddbe 7c7a c93e
00000030: ec05 cbbe 911a d8bd 1c5f e8bd 83e3 8abe
00000040: bf4e 21bf 94ac da3e 5a41 bebd f811 933e
00000050: 7862 afbe c0eb c3be 82bf a83e 60a7 053e
00000060: 7ad9 04be aadb e63e 211c 07bf 06ed 4bbe
00000070: b3f9 a1be 9f0b dfbe 2b9b 2c3e 6390 37bd
00000080: 464f 9fbe ed8f ed3e fb35 1cbf d320 fb3e
00000090: 296b 73be 9b71 63be 546a e63e 4679 d03e
000000a0: 397f b8bd 4c59 4abc 1c3e 23bf 4450 dfbe
000000b0: eecc 1c3f 86d8 213f 960b ba3e 0db8 0cbf
000000c0: a438 cbbe 73f0 603e 93e1 ac3e 69ca 4ebf
000000d0: 5f6b d3be 83aa ab3d d8fb 5abe 4b75 e3be
000000e0: a9c5 df3e 72eb 613e a940 df3e d2d7 e4be
000000f0: 1096 e83e a4c0 b1be 22ca b1be 8fd4 a3be
00000100: 864e ddbe bc1d cc3e 74c3 bb3e 2680 8cbe
00000110: 4d34 8b3e 35a4 fe3e 490e 8fbe 66c4 4f3e
00000120: 57fb cabe 88d6 b1be d0bd e63e c79a 98be
00000130: e861 2b3f 09dd 60be 0611 87be 1b4c 0b3f
00000140: c701 2c3d 090e c53e fca5 e5be a689 bf3e
00000150: 5e03 c8be 46c2 73be 2299 f83e 69bc 053f
00000160: 0347 9cbe 0d31 08bd 0203 65be f9e2 903e
00000170: 79a9 a13e 81e4 49bf 2ba0 bc3e 2829 cb3e
00000180: 1282 8b3e 350a 05bf 2539 16be 6f78 d6be
0.46605784 0.30050787 0.24286053 -0.4462164 -0.48394382 0.3205651 0.27277428 -0.39200595
-0.22521517 0.17336771 -0.432127 0.3935126 -0.39652956 -0.10551942 -0.11346266 -0.27126703
-0.6301078 0.42709792 -0.092898086 0.28724647 -0.34254813 -0.382658 0.3295861 0.1305213
-0.12973586 0.45089465 -0.52777296 -0.19914636 -0.31635818 -0.43563554 0.16856067 -0.044815432
-0.31115168 0.4639887 -0.6101987 0.4904848 -0.23771347 -0.22211306 0.45002997 0.40717524
-0.09008641 -0.012350392 -0.63766646 -0.43615925 0.612502 0.63221014 0.36336964 -0.5496834
-0.3969165 0.21966724 0.3376585 -0.80777603 -0.41292855 0.08382132 -0.21385133 -0.44425425
0.4370549 0.22062472 0.4360402 -0.44695908 0.4542699 -0.34717286 -0.34724528 -0.31998107
-0.4322397 0.39866436 0.36672556 -0.2744152 0.2718834 0.49734655 -0.27940586 0.20289764
-0.39644882 -0.34733987 0.4506669 -0.29805586 0.6694627 -0.21959318 -0.26380175 0.54413
0.041993883 0.3848727 -0.448532 0.37409705 -0.3906507 -0.23804578 0.4855433 0.52240616
-0.30522928 -0.033249903 -0.22364429 0.28298166 0.3157461 -0.78864294 0.36840948 0.39679837
0.27247673 -0.519687 -0.14670236 -0.4188876

dec_mu.weight f4 [30, 100]
00000000: b042 b63d 7b94 3fbd 64af d63b c9eb d53b
00000010: 2b41 2e3c e785 47bc 618f ad3c d46e 913c
00000020: d176 6dbd 4e6d 33bc 5d4f 6fbd b542 00bc
00000030: a5aa 2ebd 7e6a 3fbc 4ad1 4ebc 72a8 29bd
00000040: d27c 393d ae00 0fbd 749a 84bd 62b0 fabc
00000050: ad4f 23bd 87fe b5bd 4fa1 07bb 85f3 9f3c
00000060: f2b0 363d 57a5 093d b72e 47bd 2637 57bd
00000070: 10ba 32bd a96a 14bd cf37 853d 69b8 f03c
00000080: 288e df3c ab6c 02bc cd99 efbc fb23 39bd
00000090: dc9f 8d3b 40ef 01be 5e9f c03d f3c8 e53c
000000a0: 3371 223c 83d0 433d 9435 b6bd ed2f dabc
000000b0: a0cc 803d 02fd 8d3b e72c b83d 9aa9 9a3c
000000c0: 5236 c9bd c430 863c b5ff 263d 7bd7 283a
000000d0: 6778 73bd e58e 793a 4e10 48bd 471b 103c
000000e0: 234d 7d3d 229f 803d 5401 193e 20a9 c1bd
000000f0: 3141 153b 2270 d9bd e41a d5bd 8dd8 d23c
00000100: 19de 0bbd e2f6 033e c3fd 053e 4c22 f1bd
00000110: 2338 173d 70a7 bd3d 63f0 9ebd a51f 9f3c
00000120: 39a8 643c ac3a f4bd de83 1b3c b805 3bbc
00000130: 1d9f d93c 5865 98bd ce8c 84bc 3310 823a
00000140: 69e4 143c 50e5 15ba cd1d 003c 4a2a f53d
00000150: 5ef7 cbbd 592a 86bc af7b f03b 0572 473c
00000160: 14f8 24b9 459e 47bb 6802 c53c 8912 da3b
00000170: 3c09 253c 2db4 fe3c 3ebc d93c 77f7 4c3d
00000180: d063 ee3d 581e a1bd c5a9 67bd 22fe d9bc
00000190: b1f1 063e 257f d7bd 292f c53d 658e 32be
000001a0: 095a 283e dea6 67bd bc78 33be 9774 3d3e
000001b0: 89e4 88bd 00c0 333e fb01 f1bd de25 19bd
000001c0: 6144 513d 8323 74bc 6369 43bd fa03 97be
000001d0: 53da 34bd b5ec 593e 68c6 41be a901 2d3e
000001e0: 4aca 56be de3f 903d 4c70 37bd d97c 043e
000001f0: f7e9 0d3d cb6a b63c 2183 c93d 7033 4ebc
00000200: f1c2 a3bd e45b 99bd d11b 333e 18ca 3cbd
00000210: 0529 023c 7092 653e dc3e be3c b6e9 093e
00000220: 799e 8ebe 1dc4 4a3e 172d 85bd e09d 91bd
00000230: f00f 13be 07a3 883d fdfa 103e cad6 a4bd
00000240: 7ce0 7fbe 7ed9 1bbe cef8 59bd 927c 4f3e
00000250: 3e58 bbbd 8cd1 03be 707d 233d fb6d c73d
00000260: d5f9 b73d c3aa 2cbd 1876 483c 539f 4c3e
00000270: c515 afbd 8fa3 7e3d f18f f7bd 936e aabd
00000280: 1ed6 50bd 0d88 ba3d 8eec a13d 83b2 d5bd
00000290: 3dc0 0cbe 8908 adbd 28f0 ce3d 8d4b bbbd
000002a0: 49b3 edbd 43bf 8c3d 3ad8 8e3c 9362 673e
000002b0: 730a 46be 754a dfbd 2d1a 6e3d 6a38 72bd
000002c0: 8212 013e 6cf8 52be f48d 893d faef 64be
000002d0: 8a98 57bd 54fb e3bd 3863 793e e6a4 abbc
000002e0: 9a70 843c b48c 30bc c149 86be 5c74 efbc
000002f0: 7925 d4bd 7995 37be 520e 06bd 9ed3 4e3e
00000300: ff70 bdbe e359 bcbd 19a7 83be 574a 283d
00000310: 252e 383e 9c3f 42be 60d9 193e f756 af3d
00000320: 3c5b e33d 1105 443d 1fa1 7d3e 8226 353e
00000330: e873 bfbd 5e99 363e f7cc 3a3e a50c 323d
00000340: de80 02be 5fbb 65be 29b5 fdbd 4295 04be
00000350: 53ac 733d ec32 59bd c304 98bd f94a d2bd
00000360: f90e ea3c 7f06 33bd a9d2 123d 54b8 9abd
00000370: 51a0 6ebd d9e3 85be fcaa 273e c9f4 033e
00000380: fd86 cc3b 5e57 833d 4648 803e 2048 8b3e
00000390: d8f5 8fbc a344 423d 7b88 a2be 7079 db3d
000003a0: 980a 223e 1598 693e abf1 06be b1b5 2e3c
000003b0: 2741 76be db3d 6ebd e671 afbd 9120 0a3c
000003c0: 8559 103b 53e5 3b3d 0546 823e 4062 8fbd
000003d0: 06d0 443d a36d a6bd daae 103d 5553 cf3e
000003e0: 6cfc 923d 2e4e d03c c0f7 7abd f506 463d
000003f0: 4f7d 073e e7db a3bb fee9 af3d 2ff8 043d
0.088994384 -0.04677246 0.00655167 0.006528352 0.010635654 -0.012177921 0.021186532 0.017753042
-0.05797464 -0.010951353 -0.058425296 -0.007828404 -0.042643208 -0.011683105 -0.012623141 -0.041420408
0.045285054 -0.034912758 -0.06474772 -0.030601684 -0.039870907 -0.08886438 -0.0020695513 0.019525299
0.044602342 0.033604946 -0.048628535 -0.052542828 -0.043634474 -0.03623453 0.06504785 0.029384809
0.027289465 -0.007960479 -0.029248143 -0.04520033 0.0043220352 -0.12688923 0.09405397 0.028049922
0.009914684 0.047806274 -0.08896938 -0.02663418 0.06289029 0.0043331394 0.089929394 0.0188797
-0.09824814 0.016380675 0.040771205 0.00064408005 -0.059440996 0.0009519889 -0.048843674 0.008795566
0.06184114 0.06280352 0.14941913 -0.09456086 0.0022774453 -0.10617091 -0.104055196 0.025738025
-0.034147356 0.12887147 0.13085084 -0.1177412 0.03691877 0.09260452 -0.07760694 0.019424269
0.013956123 -0.11925253 0.009491889 -0.011414938 0.026565129 -0.07441205 -0.016180422 0.0009923041
0.00908766 -0.0005718069 0.007819605 0.119709566 -0.09959291 -0.016377615 0.007338963 0.0121731805
-0.00015732675 -0.0030459326 0.024048999 0.0066550416 0.010073002 0.031091774 0.026579019 0.05004069
0.116401315 -0.07867116 -0.05655839 -0.026610438 0.13178135 -0.10522298 0.09628136 -0.17437132
0.16440596 -0.05655562 -0.17526525 0.18501507 -0.066842146 0.17553711 -0.11767956 -0.03738963
0.0510906 -0.014901045 -0.047707926 -0.2949522 -0.044153523 0.21281703 -0.18923342 0.16895165
-0.20975605 0.07043432 -0.04478483 0.1293825 0.034646954 0.02226772 0.09839464 -0.012585506
-0.079961665 -0.0748823 0.1749108 -0.04609117 0.00794435 0.22419143 0.023223333 0.1346806
-0.2785528 0.19801374 -0.06502741 -0.071101904 -0.14361548 0.0667172 0.14158244 -0.0804878
-0.24987978 -0.15219685 -0.053215794 0.20262364 -0.0914769 -0.12872905 0.03991455 0.09737774
0.089831986 -0.04215504 0.012235187 0.19982652 -0.08549074 0.0621677 -0.120880015 -0.083218716
-0.050985448 0.09107981 0.07906447 -0.10434439 -0.13745208 -0.084488936 0.101044 -0.091452695
-0.116064616 0.06872418 0.01743709 0.22596197 -0.19339924 -0.109028734 0.058130432 -0.059135832
0.12604716 -0.20602578 0.067165285 -0.22357169 -0.052635707 -0.111319214 0.24354255 -0.020952653
0.016166974 -0.010775734 -0.26228145 -0.02923029 -0.1035871 -0.17928113 -0.0327285 0.20197913
-0.37000272 -0.09196832 -0.25713423 0.04108652 0.17986353 -0.18969578 0.15024328 0.08561509
0.11101386 0.047856394 0.24768494 0.17690471 -0.09348279 0.17831942 0.1824225 0.04346909
-0.12744471 -0.22434758 -0.12388069 -0.12947562 0.059490513 -0.05302708 -0.07422783 -0.10268206
0.028571593 -0.043707367 0.035845432 -0.07554689 -0.05825836 -0.26150396 0.16373819 0.12886347
0.006241678 0.06413148 0.2505514 0.27203465 -0.017573282 0.04742874 -0.3174475 0.10716522
0.15824354 0.22811921 -0.13178127 0.010663436 -0.24048291 -0.05816446 -0.08566646 0.008430616
0.0022026014 0.045872997 0.25444046 -0.070011616 0.04804995 -0.0812638 0.035323 0.40493265
0.07177052 0.025427904 -0.06127143 0.04834648 0.13231395 -0.0050005796 0.08589552 0.03246325

dec_mu.bias f4 [30]
00000000: c29b d93d 74e7 c0bd 9c47 00be 44a8 30bd
00000010: 5452 823d 1dcc 383d 2f7f 64bd 800c 8ebc
00000020: 3b90 58bc e461 7abd 6c51 bd3a 61f3 573b
00000030: 2c17 7fbd 2712 c6ba 6f50 873d 52d9 113d
00000040: a7ea 5b3c 1766 b13c ae80 06bd 2cc0 8a3d
00000050: 84a1 aa3d 42f0 dd3c 1bd2 9fbd 40ba 503d
00000060: 657e 82bd 80a7 893d b4b9 8c3d 1557 623d
00000070: db16 e0bc b94b 223d
0.106254116 -0.09419146 -0.12527317 -0.04312922 0.06363359 0.045116533 -0.055785354 -0.017339945
-0.013217981 -0.061128512 0.0014443821 0.0032951462 -0.062277958 -0.0015111611 0.06607138 0.035607643
0.013422645 0.021655126 -0.032837562 0.06774935 0.08331588 0.027092103 -0.07803746 0.05095887
-0.06371764 0.06721401 0.068713576 0.05525883 -0.027354648 0.039622996

dec_log_var.weight f4 [30, 100]
00000000: e114 c2be 3bac a4be 6e7a b8be 2023 6d3c
00000010: ab93 c93e 4198 90be c4de b4be 0651 f73e
00000020: 9cd3 5f3e e454 493b 939e 783e 8cb5 63bd
00000030: 258a c83e b126 7d3e c228 203e 1141 dd3d
00000040: 192e 593e 20a1 88bd e655 883e 10da 52bc
00000050: 4ba8 b43e 6499 a53e 2c24 9bbe fd72 8ebe
00000060: e5fd 6b3d 6c6e abbe b492 0a3e ef44 8c3e
00000070: 31cf 753e cbdf 8d3e 5969 a6be a4e9 f2bc
00000080: 1441 a23e 6479 8dbe 2d3b d83e 0ff0 5d3b
00000090: 6d4b a7bd f27b c23e 3291 d2be 977b 97be
000000a0: 7913 94bb 2a0e b1be cb12 cd3e ecab d13e
000000b0: ecd1 40be b58b 52be 5415 9abe 72b2 533e
000000c0: 10f3 853e f69f 30be 14fb a1be a01e 573e
000000d0: ee15 943e 678d e53d 371a 733e e8ef c43e
000000e0: fc1f 19bf e03f 5bbe 17ec 8abe 058d 9a3e
000000f0: 9e71 6abe 81ae 5b3e 3274 a03e d829 7e3e
00000100: 2595 a93e 9031 c6be 5eae 9bbe 4320 933e
00000110: ac05 8ebe 5680 a7be e324 4b3e ed60 393e
00000120: 3e3e 3d3e 514a 853e 653d 53be b4c0 ff3d
00000130: 2cca 2fbe a83d 893e c270 443e e1e8 08bf
00000140: 9f74 963e 4b7e 4bbe 4089 c13e 7db8 b7be
00000150: ca99 813e a29f 3f3e aa56 66be b2e9 60bc
00000160: 4e92 863e 95a4 43bd f299 543d 6779 ebbd
00000170: 9536 8cbe ae89 dd3e 5b33 a6be afb0 36be
00000180: 6e4b 6fbe 9914 9c3e ff0e e73c c7d5 933e
00000190: 1413 93be 1562 5e3c 4b46 573e f283 87be
000001a0: 86ef de3d ff03 493e a316 b63c 63fb 3e3e
000001b0: ebf0 d23d ed0c 83be ed04 8dbd bb4c 66be
000001c0: e030 2bbe cdc3 113f 74b1 1e3f d563 043e
000001d0: 6b8a 243d c4f9 02bf c92f 9cbc 5b4f 13be
000001e0: 77cb a33e 08fa c03e 36c4 1cbe bf1c 7f3e
000001f0: 364f f93d e19e 393e dbc2 1d3f c5c1 533c
00000200: 6876 0c3e 24c7 1e3f 744e e6be 2c82 a8be
00000210: 6348 6e3e 0fe0 9bbd d588 d93d 516b 74bf
00000220: 7c20 923e ba1c 4cbc c65e aebe 7de0 a6be
00000230: 1bff 5abe 7af0 bdbe db28 553e 2e3d 863e
00000240: 4b00 a03d 1016 4fbf 78db 32be 0f9d 8f3e
00000250: 73f0 8e3b 4ff9 d0bc d1a6 3abe dc11 973e
00000260: a2a4 f8bd 1531 50be ea98 123f 28bb e43e
00000270: 8808 63be 39e0 58be 8253 37be e180 da3c
00000280: d448 f6bd 5777 ae3d fcf2 3a3e baa1 4bbc
00000290: 5822 2e3c 4877 cdbd 1dde eebd 2282 1e3e
000002a0: 6913 c2be a2be 61be cd3f 0b3f c493 b83d
000002b0: b976 4bbe b346 b93d 7b55 52bd 4ed9 da3c
000002c0: 6311 14be b3b1 0fbf 9638 cc3d 3c50 8cbc
000002d0: 8155 933e 461f 20be cbd6 1a3e 8626 13be
000002e0: ec15 bb3e 6c4f 0d3f 1ac5 603d eac3 1ebf
000002f0: c4e9 b53d 1f1f 44be 0b39 0c3f 6b4f 3e3d
00000300: 393c 91be f25d 343e 28ff 24bf 405c 0cbe
00000310: 6352 2bbe e081 cd3d 6e20 923d 99be 103f
00000320: 6244 28bf 272f 64be b42c afbd 3454 cabe
00000330: 20ef a53e 3481 20bf d471 a93d bf8d 0c3f
00000340: 1a41 f33d 1220 a53e ac67 2e3e a8ca 02be
00000350: 0863 7d3e 863c 5e3e 0f5b f1bc 1265 fbbe
00000360: f73f 2cbe b32d ffbd 5a74 03be d779 2abe
00000370: ee2b 9fbd eea0 773d 87bb bebd 43ce 773d
00000380: 3021 30be 6a7e 0fbf 4e02 7ebe caa0 69be
00000390: 4839 013e be21 a43e ceb0 24bf f609 c3bd
000003a0: 5a04 ab3e cd7b 663d 5e14 9e3e 66b5 113d
000003b0: f2a6 57be e37b 0f3e 1ad1 d0be 615e debe
000003c0: 5924 e9be 2de2 0c3e 1184 013e d322 043f
000003d0: 4f3a 28be 1101 483e 7845 00be 25a8 ba3e
000003e0: 66bc 373e bbc4 fc3d 395b 89be c3ae 453e
000003f0: 45d2 d63e 0fa3 e5bb ec84 55be 4238 c53e
-0.37906554 -0.3216265 -0.36030906 0.0144737065 0.39370474 -0.2824116 -0.35326207 0.48304003
0.21858066 0.0030720765 0.24279241 -0.05559306 0.39167896 0.24721791 0.15640548 0.10803426
0.21208991 -0.06671357 0.26628035 -0.012869373 0.35284647 0.3234359 -0.30301034 -0.27822104
0.05761518 -0.33482683 0.13532525 0.27396342 0.24004818 0.27709803 -0.3250225 -0.029652424
0.31690276 -0.27631676 0.42232648 0.003386501 -0.08168683 0.37985188 -0.411264 -0.2958648
-0.004518923 -0.3458112 0.400534 0.40951478 -0.18830079 -0.20561107 -0.30094397 0.2067354
0.26162004 -0.1724852 -0.3163687 0.21007776 0.2892298 0.11208611 0.23740469 0.38464284
-0.5981443 -0.21411085 -0.27133247 0.30185714 -0.22894904 0.21453287 0.3133865 0.2482065
0.331216 -0.38709688 -0.3040647 0.2873555 -0.27738702 -0.327151 0.1983829 0.1810338
0.18480775 0.2603326 -0.20628889 0.12487927 -0.17166966 0.26804852 0.19183639 -0.53480345
0.2938585 -0.19872396 0.37800026 -0.3588294 0.25312644 0.18713239 -0.22493997 -0.013727592
0.26283497 -0.04776438 0.051904626 -0.11497765 -0.27385393 0.43269104 -0.32461056 -0.17840837
-0.23368618 0.30484465 0.028205393 0.28874037 -0.28725493 0.013573189 0.21022908 -0.26467854
0.10885529 0.1963043 0.02222759 0.18650584 0.10299858 -0.255958 -0.06885705 -0.22490208
-0.16717863 0.56939393 0.6198952 0.12928708 0.04017107 -0.5116236 -0.019065754 -0.1438574
0.3199117 0.3769076 -0.15309224 0.2491331 0.121733114 0.18127014 0.6162545 0.012924616
0.13717043 0.62022614 -0.4498173 -0.32911813 0.23269801 -0.07611095 0.10621802 -0.9547625
0.2854041 -0.012458021 -0.3405668 -0.32593146 -0.21386378 -0.37097532 0.20816366 0.2621855
0.07812556 -0.8089304 -0.17466533 0.28049514 0.00436216 -0.025509505 -0.18227698 0.29505813
-0.12140776 -0.20331223 0.5726458 0.4467404 -0.22171223 -0.21179284 -0.1790295 0.026672782
-0.120256096 0.08518856 0.18256754 -0.012428695 0.010628305 -0.10032517 -0.116634585 0.15479329
-0.37905434 -0.22045377 0.5439423 0.09012559 -0.19869508 0.09046688 -0.05135105 0.026714947
-0.14459758 -0.5613052 0.099717304 -0.017128102 0.28776172 -0.1563693 0.15121 -0.14370164
0.36540163 0.55199313 0.05487547 -0.6201769 0.08882478 -0.19152497 0.5477454 0.046462458
-0.2836626 0.17613962 -0.6445184 -0.13707066 -0.16730647 0.10034537 0.07135092 0.5654083
-0.65729344 -0.22283612 -0.08553448 -0.39517367 0.32409 -0.6269715 0.08273664 0.5490379
0.118776515 0.3225103 0.17031735 -0.1277262 0.24744809 0.21702775 -0.029462365 -0.49100548
-0.16821276 -0.12459888 -0.12837353 -0.1664804 -0.07772051 0.06045621 -0.09313112 0.06049944
-0.1720016 -0.5605227 -0.24805567 -0.22815242 0.12619507 0.32056993 -0.6433228 -0.09523384
0.33401757 0.05627041 0.30874914 0.035573386 -0.21059778 0.14012103 -0.40784532 -0.4343138
-0.45535544 0.13758154 0.12648036 0.5161564 -0.16428493 0.19531657 -0.125265 0.3645641
0.17942962 0.12342211 -0.2682741 0.19304948 0.41957298 -0.0070079635 -0.20851487 0.38519484

dec_log_var.bias f4 [30]
00000000: 7a33 c4be 2ab9 73be 1f79 c2be 1e7d 8ebe
00000010: 8108 5cbe bdb9 ccbe 366e ebbe 27de 86be
00000020: 7ad5 8dbe 91f1 acbe cd54 b4be ebc8 8fbe
00000030: ca74 3ebe c0d5 77be a59c 99be 9abb 84be
00000040: 028e 62be fae8 52be 975c 36be 96b9 84be
00000050: d108 52be 375f a2be 7ae5 82be 87a0 3ebe
00000060: 9c69 93be 0f2d c5be 7c96 39be 615e 5ebe
00000070: 150a cdbe ce4c 64be
-0.38320524 -0.23801103 -0.37983033 -0.27829832 -0.21487619 -0.39985457 -0.45982522 -0.26341364
-0.27701932 -0.3377805 -0.35220948 -0.28082976 -0.18599239 -0.24202633 -0.30002323 -0.2592438
-0.22124484 -0.20596686 -0.17808758 -0.2592284 -0.20511176 -0.31713268 -0.25565702 -0.18615924
-0.2879151 -0.3851094 -0.18123811 -0.2171569 -0.40046754 -0.22294924
