vae/saved_models/fixed_endpoints/fixed-0.5_nepochs100_lr0.01_N20_n2000_b150_s10.pt (torch, 121209 bytes, 36 tensors)

enc_shared.weight f4 [100, 20]
0	0x38c238e0	9.261235e-05
1	0xbcf3d031	-0.02976236
2	0xbcbd54a9	-0.023111658
3	0xbdd8d8cc	-0.10588226
4	0xbdf4d4db	-0.119546615
5	0xbc9be555	-0.019030252
6	0xbca2fcc0	-0.019895911
7	0x3d4fe021	0.050750855
8	0x3c1b1e9d	0.009467748
9	0xbc4bc58c	-0.012437236
10	0x3d39014e	0.04516726
11	0xbcfb633f	-0.030686973
12	0x3d198098	0.037476152
13	0x3bc6ad2b	0.0060631237
14	0x3ce6b8c9	0.028164284
15	0x3bdce6dc	0.006741388
16	0xbacbc875	-0.0015547412
17	0x3e1cc86e	0.15310833
18	0x3dd90ea6	0.10598497
19	0x3cd43fe1	0.025909366
20	0x3e562cb6	0.20915493
21	0x3cf15d56	0.029463451
22	0x3b6d85f2	0.0036243168
23	0x3cf5f2e8	0.030023053
24	0x3d275a65	0.04085769
25	0x3ca71291	0.020394595
26	0x3cd1e949	0.025623934
27	0x3d765d2c	0.06014745
28	0xb9d489b9	-0.00040538402
29	0xbdbb3f2c	-0.091429085
30	0xbd847532	-0.06467666
31	0xbcc7879b	-0.024356654
32	0xbc8265f1	-0.01591775
33	0x3c6a0d3c	0.014285382
34	0x3d131e88	0.03591779
35	0x3ce580a0	0.028015435
36	0xbcf486b1	-0.029849382
37	0xbcca0fda	-0.024665762
38	0xbc45c90e	-0.012071861
39	0xbda2cce9	-0.0794924
40	0xbe22548f	-0.15852569
41	0xbe037c01	-0.12840272
42	0xbd58cfb3	-0.052932452
43	0xbc2ba64f	-0.010476663
44	0xbc6cd114	-0.014454145
45	0xbd258954	-0.04041417
46	0xbc90e67a	-0.017688025
47	0x3d35d283	0.044390213
48	0x3bd26e2a	0.006421824
49	0x3bd6686a	0.006543209
50	0x3cf7e5de	0.030260976
51	0x3d365bb8	0.044521064
52	0xbc78ac11	-0.015177743
53	0x3cd58314	0.02606348
54	0xbc51ebb2	-0.012812542
55	0xbd3436ce	-0.04399758
56	0xbd2f4232	-0.04278774
57	0xbd157aa4	-0.036493912
58	0x3cd32cb1	0.025778146
59	0xbd1bd421	-0.0380441
60	0xbeb31f54	-0.3498484
61	0xbd200c0a	-0.03907398
62	0xbd877828	-0.06614715
63	0xbd0ea106	-0.034821533
64	0xbd422b8f	-0.047404822
65	0x3cd5aee9	0.02608438
66	0xbc0b1575	-0.0084890025
67	0x3d21f732	0.039542384
68	0x3cc257c3	0.023723489
69	0xbafe6173	-0.0019407704
70	0xbcf54e19	-0.029944466
71	0x3c45a38f	0.012062921
72	0x3d7031c0	0.058641195
73	0x3bc2283b	0.005925206
74	0xbd88b83f	-0.06675767
75	0xbcbf5a73	-0.02335856
76	0x3a5d497a	0.000844143
77	0x3dc352f2	0.09537305
78	0x3d9955a9	0.074870415
79	0xbe96e041	-0.29467967
80	0x3e82c82c	0.25543344
81	0xbe8b4c43	-0.2720662
82	0xbd1af1ae	-0.03782814
83	0x3dd67b6d	0.1047276
84	0x3e393c29	0.18089356
85	0xbc987645	-0.018611083
86	0xbe5628ff	-0.20914076
87	0xbdb244bd	-0.08704517
88	0x3daa9211	0.08328641
89	0x3d23f9c7	0.040033128
90	0x3df56cb6	0.119836256
91	0xbc1811e2	-0.009281607
92	0xbe1c0020	-0.15234423
93	0x3e57d9e1	0.21079208
94	0x3e490e7d	0.19634433
95	0xbc541241	-0.012943805
96	0xbd15f6fe	-0.036612503
97	0x3e057eb2	0.13036612
98	0x3e017dd6	0.12645659
99	0x3b982527	0.004643101
100	0xbdaf09d0	-0.085467935
101	0xbae8bfa7	-0.0017757312
102	0xbc421e73	-0.01184808
103	0x3c02b31a	0.007977271
104	0x3a85a877	0.0010197301
105	0x3d7e15fd	0.06203269
106	0x3daaae37	0.0833401
107	0x3cff3c92	0.031156812
108	0xbb7cef86	-0.0038594916
109	0x3c8b8072	0.017029021
110	0xbabc3a14	-0.001436057
111	0x3ce0d196	0.027443688
112	0xbbfa1394	-0.0076317284
113	0xbaaa0f75	-0.0012974577
114	0xbc8533a7	-0.016259981
115	0xbcbcc070	-0.02304098
116	0x3c2f37e4	0.010694478
117	0xbd463953	-0.048394512
118	0x3c8ffc0a	0.017576236
119	0xbd03b89f	-0.03215849
120	0xbe825cbc	-0.25461376
121	0xbea7beae	-0.32762665
122	0xbd9609a8	-0.073260605
123	0xbcd22c83	-0.02565599
124	0x3e51adff	0.2047653
125	0x3c896b9c	0.016774945
126	0xba99cca1	-0.0011733958
127	0x3eb29c45	0.3488485
128	0x3d92860f	0.07154476
129	0xbdb813da	-0.089881614
130	0x3ea37bd3	0.31930408
131	0xbdc17f26	-0.0944808
132	0x3d2be2d2	0.04196436
133	0xbdb108a4	-0.08644226
134	0xbe90eed1	-0.28307202
135	0xbca5b9bc	-0.020230167
136	0x3eaa4231	0.33253625
137	0x3d8525fe	0.06501387
138	0xbe88f51d	-0.26749507
139	0xbed21e71	-0.4103885
140	0xbe6bdb8c	-0.23032969
141	0x3ca8b303	0.020593172
142	0xbe940107	-0.28907034
143	0x3e52f366	0.20600662
144	0x3e9f83fb	0.3115538
145	0xbe9c79a7	-0.30561563
146	0x3dc078ce	0.09398042
147	0xbe1e371f	-0.15450715
148	0xbe0fe983	-0.14053921
149	0x3e493a07	0.19651042
150	0x3e3753d4	0.17903072
151	0xbe662db9	-0.2247838
152	0x3d12ed31	0.035870735
153	0x3d7be84f	0.061500844
154	0x3e99de77	0.3005254
155	0xbe5d9363	-0.21638255
156	0x3e8dc109	0.27686337
157	0x3d80aa4b	0.06282481
158	0xbe8df4ac	-0.27725732
159	0x3d9c1d7c	0.07622811
160	0x3da91fb0	0.08257997
161	0x3d7f7406	0.062366508
162	0xbd5d26bc	-0.053992018
163	0xbc67d8fa	-0.014150852
164	0x3df87280	0.12131214
165	0x3d38a213	0.04507644
166	0xbc8cdd6a	-0.017195422
167	0x3c021cf7	0.007941476
168	0xbbac1ba3	-0.005252318
169	0xbd198204	-0.03747751
170	0xbd02981f	-0.031883355
171	0xbd0a5e59	-0.033781383
172	0xbd125c8f	-0.035732802
173	0xbd134aea	-0.035960115
174	0xbd40948d	-0.04701667
175	0x3cf62798	0.030048177
176	0x3d181baf	0.037135776
177	0x3be6b6d4	0.007040838
178	0xbc944138	-0.018097505
179	0xbdd8fb84	-0.10594848
180	0xbe74167e	-0.23836705
181	0x3cdc911d	0.026924664
182	0xbd176b0c	-0.036967322
183	0xbabace1d	-0.00142521
184	0x3d296eb6	0.041365348
185	0x3d6c20df	0.057648536
186	0x3d0be3ef	0.03415292
187	0x3d267542	0.04063917
188	0x3cff1e96	0.031142514
189	0xbc7f728f	-0.015591278
190	0xbd6ee57b	-0.05832432
191	0xbd36bdf2	-0.04461474
192	0xbd18e897	-0.03733119
193	0xbca340f2	-0.01992843
194	0xbdb35194	-0.08755794
195	0xbd226c36	-0.03965398
196	0xbcbf7495	-0.02337102
197	0xbcf53a90	-0.029935151
198	0x3b8bf932	0.0042716498
199	0xbe200b8f	-0.15629409
200	0xbe085824	-0.13314873
201	0x3dc6afb1	0.09701479
202	0x3e5bd7ff	0.21469115
203	0x3e502e35	0.20330127
204	0xbe34ab45	-0.17643459
205	0x3cfa8bc9	0.030584233
206	0xbedae372	-0.42751652
207	0x3e53a5b8	0.20668685
208	0xbe9c528b	-0.30531725
209	0x3e3f6c31	0.18693615
210	0x3ce2df2c	0.027694307
211	0xbe169919	-0.1470684
212	0x3cba1b9d	0.022718245
213	0x3d8c3d47	0.06847625
214	0xbc62f8c4	-0.013853256
215	0xbd5d212a	-0.053986706
216	0xbe8f5ff3	-0.2800289
217	0x3d647b72	0.05578179
218	0x3dc7f42e	0.097633705
219	0xbe3f15fe	-0.18660733
220	0x3daae091	0.08343614
221	0xbd505139	-0.05085871
222	0x3d3070b6	0.04307624
223	0xbe9ab645	-0.30217186
224	0xbc233217	-0.009960673
225	0xb9c2dbe0	-0.00037166383
226	0x3ecda8d1	0.4016786
227	0xbe5c5e10	-0.21520257
228	0x3e26a23f	0.1627283
229	0xbe4d2330	-0.20032954
230	0xbe0cbc9c	-0.13743824
231	0x3e0c41c0	0.13696957
232	0xbd8fc922	-0.07020785
233	0x3e3f2912	0.18668011
234	0xbe9914bb	-0.2989863
235	0x3e86c59f	0.26322648
236	0xbe8fe55e	-0.2810468
237	0xbe613efd	-0.21996684
238	0xbd9d86cd	-0.07691727
239	0x3c8ebe22	0.017424647
240	0x3dc75168	0.09732324
241	0xbd9ebeb7	-0.0775122
242	0xbd498633	-0.049200248
243	0x3b85f9fe	0.0040886393
244	0x3b90a731	0.004414462
245	0xbda1b957	-0.07896679
246	0x3a69d371	0.0008919752
247	0x3ce0ea1d	0.027455384
248	0x3da0ce67	0.07851868
249	0x3de92f22	0.11385943
250	0x3cbc70db	0.023003032
251	0xbbbf9951	-0.005847134
252	0xbd3c5f34	-0.04598923
253	0x3ca3b06e	0.01998159
254	0xbc8d45ae	-0.01724514
255	0xbc9d44f0	-0.019197911

enc_shared.bias f4 [100]
0	0x3d51fdcb	0.051267426
1	0x3d8f2bb2	0.06990756
2	0xbdc08990	-0.09401238
3	0xbe8fe339	-0.28103045
4	0x3dca7d6c	0.098872036
5	0xbd3da104	-0.046296135
6	0xbe4bf9cb	-0.19919507
7	0xbdd35176	-0.10318272
8	0xbcb5a5cf	-0.02217379
9	0xbe3979b3	-0.18112831
10	0x3e428e83	0.18999676
11	0xbdf57186	-0.119845435
12	0x3c864048	0.016388074
13	0xbe84ffce	-0.25976413
14	0xbdfa6ed2	-0.122281685
15	0xbcaee6c0	-0.021350265
16	0xbeafe12f	-0.3435149
17	0xbc6a3bd3	-0.01429649
18	0x3cafff50	0.021484047
19	0xbd887c35	-0.066643156
20	0x3df12f9b	0.11776658
21	0x3db7b02f	0.08969151
22	0x3d4f9241	0.050676588
23	0xbe29d237	-0.16584097
24	0x3e1d6a29	0.15372528
25	0xbd34da3c	-0.044153437
26	0xbde001e7	-0.10937863
27	0xbde5f7cd	-0.11228905
28	0x3c375534	0.011189748
29	0x3e885551	0.2662759
30	0x3da4eb4f	0.08052694
31	0xbe528c59	-0.20561351
32	0xbda9b9e6	-0.082874104
33	0x3e384bbf	0.17997645
34	0xbe1a6cbe	-0.15080544
35	0xbd706ee0	-0.05869949
36	0x3e96de51	0.2946649
37	0xbd91f435	-0.07126657
38	0x3e47ef80	0.19524956
39	0x3d128a3c	0.03577636
40	0xbd342489	-0.043980155
41	0xbe3a6972	-0.18204287
42	0x3cdcd588	0.026957288
43	0xbde8cf26	-0.113676354
44	0x3e901304	0.28139508
45	0x3df7bd14	0.12096611
46	0x3e935657	0.2877681
47	0x3dfef585	0.12449173
48	0x3e2eecd5	0.17082532
49	0x3d811fea	0.06304915
50	0xbdcf1204	-0.10110858
51	0xbe886cc9	-0.26645496
52	0x3dfb8656	0.12281482
53	0x3e202757	0.15640007
54	0x3d94eb4e	0.07271443
55	0xbe5bad98	-0.2145294
56	0xbdb58c2c	-0.08864626
57	0xbe201930	-0.15634608
58	0x3dc2cade	0.0951135
59	0x3dbeb568	0.09311944
60	0xbd250593	-0.04028852
61	0xbcfe7180	-0.03105998
62	0x3de07de4	0.10961512
63	0xbd034b97	-0.03205451
64	0xbe7bbe50	-0.24584317
65	0xbdfeb343	-0.12436535
66	0x3e7a19b8	0.24423873
67	0x3e6d32ec	0.23163956
68	0x3e177a01	0.14792635
69	0xbe49a1a4	-0.19690567
70	0x3d7c014c	0.061524674
71	0xbe11e866	-0.14248809
72	0xbdae867a	-0.08521743
73	0x3cdf47ce	0.027255919
74	0x3b55cef5	0.0032624577
75	0xbdac005a	-0.083985046
76	0x3e5d5244	0.21613413
77	0x3e0a251b	0.13490717
78	0xbe4d8ec2	-0.20073989
79	0xbdf9181f	-0.12162804
80	0x3ebf082a	0.37310916
81	0x3e2e5736	0.17025456
82	0xbdc3d895	-0.09562794
83	0x3dea0429	0.11426575
84	0x3e2f865f	0.17141102
85	0xbdcc2546	-0.09968047
86	0xbe142dce	-0.14470598
87	0x3d8825a9	0.06647808
88	0x3e48cde4	0.19609791
89	0x3d478c02	0.048717506
90	0x3e1ae3ef	0.15126012
91	0x3e71931c	0.23591274
92	0xbd940a1b	-0.0722849
93	0x3e0ea323	0.13929419
94	0xbe0376cd	-0.12838288
95	0xbdbacc61	-0.091210134
96	0xbddea27a	-0.10870834
97	0xbe01b9c9	-0.12668528
98	0xbe8a7faf	-0.2705054
99	0x3cb3b8d8	0.021938726

enc_mu.weight f4 [10, 100]
0	0x3c9891a5	0.018624136
1	0x3c8f5c32	0.017500017
2	0xbcdc9489	-0.026926296
3	0x3ad582e9	0.0016289625
4	0x3bede9ea	0.0072605507
5	0xbc64cad0	-0.01396437
6	0xbd88b504	-0.06675151
7	0xbc4e4b5e	-0.012591211
8	0xbc7341e6	-0.014847254
9	0xbc0f62b8	-0.008751564
10	0x3cb25c99	0.02177267
11	0x3d1bb31c	0.03801261
12	0xbd0a031f	-0.033694383
13	0xbda0f5dc	-0.07859394
14	0xbcd65ddf	-0.026167808
15	0x3c9b631a	0.018968154
16	0xbd45e892	-0.0483175
17	0x3d3e9c70	0.04653591
18	0x3c4df797	0.012571237
19	0xbadaa0c5	-0.0016679993
20	0x3d81b5bc	0.06333491
21	0x3c86be0b	0.016448041
22	0x3cd94e50	0.0265266
23	0xbbc47242	-0.005995066
24	0x3c9c68d2	0.019092951
25	0xbb8b7c19	-0.004256737
26	0xbda85b0a	-0.08220489
27	0xbd0123f0	-0.031528413
28	0xbb9743c9	-0.004616235
29	0xbd485524	-0.04890932
30	0x3c5fb1e9	0.013653257
31	0xbd577619	-0.05260286
32	0x3cb96d21	0.022635045
33	0xbc38ff14	-0.011291284
34	0x3c9be91e	0.019032057
35	0x3d15878f	0.036506232
36	0x3d07284f	0.032997426
37	0x3ae3fe74	0.0017394559
38	0x3c22c9f7	0.0099358475
39	0xbc072610	-0.008248821
40	0x3d17ab16	0.037028395
41	0xbd7e045a	-0.06201587
42	0x3c24b08f	0.0100518605
43	0x3d41ee9d	0.0473467
44	0x3c3e533a	0.011616522
45	0x3cdceb35	0.026967624
46	0x3db4ab57	0.08821743
47	0x3b43035a	0.0029756636
48	0x3c77940f	0.0151109835
49	0xbceaa732	-0.028644178
50	0xbc89cb5b	-0.0168206
51	0xbc74ef90	-0.014949694
52	0xbcbcf540	-0.023066163
53	0x3cf64409	0.030061739
54	0x3d102843	0.035194647
55	0x3cb97207	0.02263738
56	0x3d669e8a	0.05630354
57	0x3c94747f	0.018121956
58	0x3bafd681	0.005366147
59	0x3c74d8bb	0.014944251
60	0xbc630a70	-0.013857469
61	0xbc6db1d6	-0.014507731
62	0x3d2bc5be	0.04193663
63	0x3d15b874	0.03655286
64	0x3d1645ea	0.03668777
65	0x3c85948f	0.01630619
66	0x3cc4d814	0.024028815
67	0xbc512cd8	-0.012767039
68	0x3c9ba3ed	0.018999064
69	0x39a9bb2c	0.00032373646
70	0x3c3e7045	0.011623447
71	0xbb9ab595	-0.0047213533
72	0x3d5076dd	0.050894607
73	0x3d8561dc	0.06512806
74	0xbc46a33d	-0.01212388
75	0x3bcd78be	0.006270497
76	0x3c8cc68c	0.017184518
77	0x3c120d36	0.008914283
78	0xbcf20808	-0.029544845
79	0xbc8bf55b	-0.017084768
80	0x3cbbd078	0.022926554
81	0x3dcd5b24	0.10027149
82	0xbcd486e3	-0.025943225
83	0xbd20563b	-0.039144736
84	0x3c5d84e5	0.013520454
85	0x3c52353e	0.012830077
86	0x3bf49a2e	0.0074646687
87	0x3d0211f2	0.031755395
88	0x3d099971	0.0335936
89	0x3cc41ded	0.023940051
90	0xbb23cc26	-0.0024993508
91	0x3c929f2c	0.017898165
92	0xbcd3cd2c	-0.02585467
93	0x3c2d63aa	0.010582844
94	0xba739ca3	-0.0009293055
95	0xbcde497c	-0.02713465
96	0xbcc42f9c	-0.023948483
97	0x3cbf7b50	0.02337423
98	0x39c17b93	0.000369039
99	0xbc9a5454	-0.018839039
100	0xbd06e10c	-0.032929465
101	0x3c91cbe8	0.017797425
102	0xbb2cf20f	-0.0026389395
103	0xbbb4e777	-0.005520757
104	0xbd89849a	-0.06714745
105	0x3cbc9b91	0.023023399
106	0xbd7498d2	-0.059716053
107	0x3d8bbafa	0.06822772
108	0x3a84a9c2	0.0010121393
109	0x3cad5102	0.021156792
110	0x39073fd4	0.00012898381
111	0x3dcca2dd	0.09992001
112	0x3b21ec68	0.002470756
113	0xbd8e8f0c	-0.06960878
114	0xbb872e31	-0.0041253795
115	0xbb761344	-0.0037548104
116	0xb9da708b	-0.0004166405
117	0xbc7045c6	-0.014665073
118	0xbc2c8950	-0.010530785
119	0xbbfb6439	-0.0076718596
120	0xbd828ec3	-0.06374886
121	0xbd367e8b	-0.044554275
122	0xbc0ca0b0	-0.008583233
123	0x3bfa49f5	0.007638211
124	0xbcc64308	-0.024201885
125	0xbc885b73	-0.016645169
126	0xbd11200a	-0.035430945
127	0x3e4f53e6	0.20246848
128	0xbcbd9d60	-0.023146331
129	0x3dcb0c43	0.09914448
130	0x3db3e83d	0.0878453
131	0x3ab32132	0.0013666509
132	0x3c96f5ad	0.018427694
133	0xbd83ff7a	-0.06445213
134	0xbcb8cb8d	-0.022557998
135	0x3df31ac9	0.11870343
136	0x3c4b76e8	0.012418486
137	0xbc8127d3	-0.01576606
138	0xbe849529	-0.2589505
139	0x3ca03da9	0.019560652
140	0x3be29ceb	0.0069156787
141	0x3cbde77b	0.023181668
142	0xbb441c8b	-0.002992424
143	0xbc91587a	-0.017742384
144	0x3c9348ac	0.017978989
145	0xbc0bbc74	-0.008528817
146	0xbe079bd3	-0.13243036
147	0xbc354c1e	-0.011065511
148	0xbc57b1f7	-0.013164989
149	0xbc87230b	-0.016496202
150	0xbb87b3c2	-0.004141302
151	0xbda19dcc	-0.078914255
152	0x3bd86df0	0.0066049024
153	0xbd17e932	-0.037087627
154	0xbe18df14	-0.14928848
155	0x3da9c156	0.08288829
156	0x3db2dbe0	0.08733344
157	0x3d4237c8	0.04741648
158	0x3e3ef1d5	0.18646939
159	0xbd175242	-0.03694368
160	0x3bb20ae9	0.0054334295
161	0xbb882505	-0.0041548037
162	0xbc4cb1c8	-0.012493558
163	0xbe0f665e	-0.14003894
164	0x3cf59399	0.029977607
165	0x3cad2730	0.02113685
166	0x3ce44a5b	0.027867487
167	0xbc99e806	-0.018787395
168	0x3c05359e	0.008130459
169	0x3c7f7a48	0.015593119
170	0x3b5b445c	0.0033457493
171	0x3cc23a3b	0.023709407
172	0xbe17b73f	-0.14815997
173	0xbe436149	-0.1908008
174	0x3cd82b40	0.02638781
175	0xbc2f553b	-0.010701473
176	0xbc973757	-0.018459005
177	0xbca8e2ca	-0.020615954
178	0xb959d20c	-0.00020772981
179	0xbe9df5bf	-0.30851552
180	0xbd453a84	-0.048151508
181	0xbcdcb0dc	-0.026939802
182	0x3d0e9187	0.034806754
183	0x3db75f57	0.089537315
184	0xbdeaff8b	-0.11474522
185	0x3c7c36fd	0.01539397
186	0xbec1523d	-0.37758055
187	0x3b77fd47	0.0037840174
188	0x3c14f7a8	0.009092249
189	0xbc3529e5	-0.011057352
190	0xbc014385	-0.007889633
191	0xbdc3140f	-0.0952531
192	0x3c1dae30	0.009624049
193	0x3cd41d53	0.02589289
194	0x3e5d53d1	0.21614005
195	0xbd3522fd	-0.04422282
196	0xbc42e12f	-0.011894508
197	0x3d62a07d	0.055328835
198	0xbb9d6723	-0.0048035546
199	0xbc8a66c5	-0.016894707
200	0x3a7dbc21	0.00096792175
201	0x3c4e138a	0.012577901
202	0x3c8b2c12	0.016988788
203	0x3caee855	0.021351019
204	0x3cb2b6ed	0.021815741
205	0x3cc7952c	0.024363123
206	0xbd83436a	-0.064093426
207	0xbe1a341b	-0.15058939
208	0xbbc95900	-0.006144643
209	0x3c6488e5	0.013948654
210	0x3dbd2832	0.09236182
211	0x3e2a5d2e	0.16637108
212	0xbbc4656d	-0.005993536
213	0x3de3d680	0.11124897
214	0xbb9caecb	-0.004781579
215	0x3c8d1900	0.017223835
216	0x3e1e1280	0.15436745
217	0x3b47f522	0.00305111
218	0xbbb35a00	-0.0054733753
219	0x3c88fa0f	0.0167208
220	0x3c8f5e6e	0.017501082
221	0xbe4e5c3b	-0.2015237
222	0x3bdfc725	0.00682916
223	0xbbc28f73	-0.0059375106
224	0xbb461b2b	-0.0030228596
225	0x3ca804bf	0.020510076
226	0xbc91858f	-0.017763881
227	0xbd1e8eb2	-0.038710304
228	0xbc13a58c	-0.009011637
229	0x3e0e3b0e	0.13889715
230	0x3cc2a857	0.023761911
231	0xbbb22605	-0.005436661
232	0x3c7558fb	0.014974828
233	0xbe315fda	-0.1732172
234	0x3c3caf48	0.0115164
235	0xbe18f985	-0.14938934
236	0xbc99f25a	-0.01879232
237	0xbc39f981	-0.01135099
238	0x3da7dc7f	0.08196353
239	0xbb86658a	-0.00410146
240	0xbdcd88e8	-0.100358784
241	0xbaf8f41e	-0.0018993651
242	0xbb32b27c	-0.002726703
243	0xbcce53b3	-0.025186395
244	0xbc13a2f4	-0.009011019
245	0x3c406cb8	0.011744671
246	0xbb328d53	-0.002724488
247	0xbb0afb5b	-0.0021206948
248	0x3a341c53	0.0006870676
249	0xbcfbfbfd	-0.030759806
250	0x3ba06d7c	0.004895864
251	0xbca19c1c	-0.019727759
252	0xbd75c028	-0.059997708
253	0xbb3fc01b	-0.002925879
254	0xbe658d83	-0.22417264
255	0x3a48716d	0.0007646296

enc_mu.bias f4 [10]
0	0xbc09f149	-0.008419343
1	0xbd5d10a4	-0.053970948
2	0xbb481db9	-0.0030535294
3	0xbdf1a6d5	-0.11799399
4	0x3d5d5bb9	0.05404255
5	0x3da6ec24	0.08150509
6	0xbd909ab2	-0.07060756
7	0xbcb5dd02	-0.022200111
8	0x3d29d406	0.041461967
9	0x3d606571	0.054784242

enc_log_var.weight f4 [10, 100]
0	0x3c95a0c1	0.01826513
1	0xbbef402b	-0.0073013506
2	0x3d2c32de	0.0420407
3	0x3c6dfce3	0.014525625
4	0x3c14b5e2	0.009076567
5	0x3da21682	0.07914449
6	0xbcb5e890	-0.022205621
7	0xb96a9835	-0.0002237268
8	0x3ceb02af	0.028687803
9	0x3d1a399c	0.037652597
10	0xbc1c4395	-0.009537597
11	0xba62d443	-0.0008652845
12	0x3c8af6a5	0.016963312
13	0x3c0c257d	0.00855386
14	0x3d8beb72	0.06832017
15	0xbd0010c1	-0.031265978
16	0x3c492bcf	0.012278511
17	0x3b2d333b	0.002642824
18	0xbd4271fc	-0.047471985
19	0xbbdcb067	-0.006734896
20	0xbb391a27	-0.0028244348
21	0x3c9ae0ee	0.018906083
22	0xbd8cf374	-0.068823725
23	0xbd9d7103	-0.07687571
24	0x3b4bee57	0.0031117403
25	0x3c021a08	0.007940777
26	0x3c9df143	0.019280082
27	0xbc0f79f7	-0.008757106
28	0x3d523f91	0.051330153
29	0xbbb8e544	-0.005642565
30	0xbcaca1e3	-0.021073287
31	0x3ca3f4b1	0.020014139
32	0xbd31337d	-0.043261994
33	0xbbc01126	-0.0058614193
34	0xbd6793dc	-0.056537494
35	0xbbef4e5c	-0.0073030423
36	0x3c026c3e	0.007960377
37	0xbcf06438	-0.029344663
38	0x3ba1d75f	0.0049390043
39	0x3d8be1cc	0.06830177
40	0x3c3a477e	0.011369584
41	0x3bea0f52	0.0071429396
42	0xbd2cd04c	-0.042190835
43	0x3c04e780	0.0081118345
44	0x3895bbe9	7.139875e-05
45	0x3d07ed51	0.033185307
46	0xbb4d7a58	-0.003135344
47	0x3cd6218b	0.026139041
48	0x3c848fcf	0.016181855
49	0xbcf73f6b	-0.030181607
50	0x3cd4dc7d	0.025984043
51	0xbce99991	-0.028515609
52	0x3ace3e51	0.0015735124
53	0xbb73393c	-0.0037112972
54	0x3c0b88e9	0.008516529
55	0x3bad49cc	0.0052883383
56	0x3bfd5371	0.0077308943
57	0xb95949a2	-0.00020722163
58	0xbbd96ce5	-0.0066352957
59	0x3b5edcca	0.0034006112
60	0x3cceecf0	0.025259465
61	0xbaf7b039	-0.0018897123
62	0xbc0ac398	-0.008469485
63	0x3be83d87	0.0070874128
64	0x3cacf3d5	0.021112362
65	0xbccf5a50	-0.025311619
66	0xbd63a537	-0.055577483
67	0xbb675b66	-0.003530228
68	0xbc79a359	-0.015236699
69	0xbc5fbfa4	-0.0136565305
70	0xbc455eee	-0.012046559
71	0x3d13f63d	0.036123503
72	0x3c1232ef	0.008923276
73	0xbb1249ed	-0.0022321895
74	0x3b21e790	0.0024704672
75	0x3dafaf17	0.085783176
76	0xbd33aab2	-0.04386396
77	0x3bbf7919	0.0058432934
78	0xbd666f0e	-0.056258254
79	0x3b9656fb	0.0045880056
80	0xbb7c79fe	-0.0038524861
81	0x3c7bc648	0.015367098
82	0x3db06c60	0.08614421
83	0xbc743963	-0.01490626
84	0xbc96f56e	-0.018427577
85	0xbd026dad	-0.031842876
86	0x3c2d0c1d	0.01056197
87	0x3c25fc66	0.010130977
88	0xbc5ff978	-0.013670318
89	0x3c609d56	0.013709387
90	0xbd229705	-0.039694805
91	0x3b33a4ae	0.002741139
92	0xbbc28db5	-0.005937303
93	0x3adea65d	0.0016986836
94	0xbb01eaa3	-0.0019823692
95	0x3be0e5aa	0.0068633156
96	0x39e0ff93	0.00042915027
97	0xbb45add0	-0.0030163415
98	0xbc268f1a	-0.010165954
99	0xbdc61a15	-0.096729435
100	0x3ce831e7	0.028344108
101	0x3bb58736	0.0055398
102	0xbd49ce4e	-0.049269013
103	0xbbba4906	-0.0056849746
104	0x3d18b546	0.03728225
105	0xbca8efbc	-0.020622127
106	0xbdfcad8f	-0.12337791
107	0x3cfbd50b	0.030741235
108	0xbb62b8bb	-0.0034594971
109	0x3d2b7f6a	0.04186956
110	0xbd83ac6b	-0.064293705
111	0xbd2df892	-0.042473383
112	0xbca73ef3	-0.020415759
113	0x3d56511f	0.052323457
114	0xbce8d891	-0.02842358
115	0x3c818fce	0.015815642
116	0x3d5b8835	0.053596694
117	0x3d26f613	0.04076202
118	0x3d5897a5	0.052878994
119	0xbcfdbc59	-0.0309736
120	0xb9e9e58c	-0.0004461225
121	0xbd34685b	-0.044044834
122	0x3ca42dc9	0.020041363
123	0x3d069be1	0.0328635
124	0x3ba85b55	0.0051378408
125	0xbd702a75	-0.05863424
126	0x3a14b3d4	0.00056725484
127	0xbc31ccfb	-0.010852094
128	0xbc686355	-0.014183839
129	0x3c5f4000	0.013626099
130	0x3cdfa8e7	0.027302219
131	0x3bc99896	0.006152223
132	0xbcd7f4e5	-0.026361892
133	0xbd5cef31	-0.05393905
134	0xbabbe381	-0.0014334769
135	0x3d0d44f2	0.03448958
136	0x3cdfca9e	0.027318295
137	0x3d4fbf17	0.050719347
138	0x3daadfed	0.08343492
139	0x3c512347	0.012764758
140	0x3c9b8318	0.018983409
141	0x3d1f88ed	0.038948942
142	0x3d00de16	0.031461798
143	0xbd7b44a3	-0.061344754
144	0xbcfe8359	-0.03106849
145	0xbda6e7f6	-0.08149712
146	0xbd93dde9	-0.072200604
147	0x3c9cb6c9	0.019130128
148	0xbc3d79bc	-0.011564668
149	0xbd6e0bd0	-0.058116734
150	0xbd4517b1	-0.048118297
151	0x3d6e9b1d	0.058253396
152	0xbcb60dca	-0.022223372
153	0xbcd8aa14	-0.026448287
154	0xbbacbe11	-0.005271681
155	0xbc12cec8	-0.008960433
156	0xbd58d0a5	-0.052933354
157	0x3d394d11	0.045239512
158	0xbd6f6271	-0.05844349
159	0xbd25a46b	-0.040440004
160	0x3cce60d5	0.025192657
161	0xbc2bfd8a	-0.01049746
162	0xbd3ab291	-0.04558045
163	0xbc2dc3f4	-0.010605801
164	0x3d96ddbf	0.073665135
165	0x3d95ebff	0.07320403
166	0x3b586b50	0.0033022948
167	0xbbc400fd	-0.005981563
168	0x3d9c2292	0.07623781
169	0xbbe7a529	-0.007069249
170	0x3cdcbb68	0.026944831
171	0x3d58b2b5	0.052904803
172	0x3cbb8c52	0.022894058
173	0x3d102096	0.035187326
174	0xbc162433	-0.009163904
175	0xbd109516	-0.03529843
176	0x3c62c821	0.01384166
177	0xbce18d3d	-0.027533168
178	0xbd74be8c	-0.059752032
179	0xbd410f86	-0.047133945
180	0xbc07770b	-0.008268128
181	0x3ccca188	0.024979368
182	0x3b9b4e74	0.004739577
183	0xbd72f226	-0.059312962
184	0xbd8e791b	-0.06956693
185	0x3ca45dbd	0.02006423
186	0xbd380f0f	-0.044936236
187	0x3c3ee693	0.011651653
188	0x3c5148d0	0.0127737075
189	0xbabdb9ec	-0.0014474965
190	0xbd32bc42	-0.043636568
191	0x3db50eba	0.088406995
192	0x3ccade83	0.024764305
193	0x3ce98f87	0.028510822
194	0x3dc51e94	0.09624973
195	0xbc810b8a	-0.015752573
196	0xbb99ce0c	-0.004693752
197	0x3c05e81b	0.008173014
198	0xbbfc6fd6	-0.0077037616
199	0x3c9580c1	0.018249871
200	0x3c9b5db1	0.018965574
201	0x3aded082	0.0016999396
202	0x3c6116e1	0.013738365
203	0x3ce0631e	0.027391013
204	0xbcbb3679	-0.022853123
205	0x3ce97650	0.028498799
206	0x3d402ed5	0.046919663
207	0x3c8b7cd8	0.017027304
208	0x3cee2009	0.02906801
209	0x3d1be1dc	0.038057193
210	0xbc8b0091	-0.016968044
211	0x3d34cd8b	0.044141334
212	0x395a9b2a	0.00020847903
213	0x3e0cc794	0.13748008
214	0x3d242049	0.040069852
215	0xbc6b08bd	-0.014345345
216	0xbdd2a9f5	-0.10286323
217	0xbd3143f9	-0.043277714
218	0xbd1d2922	-0.038369305
219	0x3c9097e9	0.017650561
220	0x3d4964b0	0.04916829
221	0x3cc4da4e	0.024029877
222	0xbc81bf83	-0.01583839
223	0xbcb4159c	-0.02198296
224	0xbca2a68f	-0.019854812
225	0xbd1c65f4	-0.038183168
226	0xbc9f7035	-0.019462684
227	0x3d9221c0	0.071353436
228	0x3a598d11	0.00082989136
229	0xbd5f5676	-0.054525815
230	0xbc9b930e	-0.01899102
231	0xbc5a6e20	-0.01333192
232	0xbc579a95	-0.013159414
233	0xbcd53e76	-0.02603076
234	0x3c8e5b95	0.017377654
235	0x3c2ecc86	0.010668879
236	0xbc53c94b	-0.01292641
237	0x3c9c488b	0.01907756
238	0x3c9d2e89	0.019187229
239	0x3d1f4495	0.038883764
240	0x3d14e69c	0.03635274
241	0xbcd9b8c6	-0.026577365
242	0xbc982128	-0.018570498
243	0xbb2c64dd	-0.0026305236
244	0xbc81163e	-0.015757676
245	0xbc90f186	-0.017693292
246	0xbe224263	-0.15845637
247	0x3c6548bc	0.013994392
248	0xbcb6465a	-0.022250343
249	0x3cbfc9fa	0.02341174
250	0xbc2d583a	-0.010580117
251	0x3bf0c407	0.007347587
252	0x3c7e60db	0.015526022
253	0xbc929507	-0.017893327
254	0xbd355c3f	-0.044277426
255	0x3de88ee0	0.11355376

enc_log_var.bias f4 [10]
0	0xbcab886f	-0.02093908
1	0xbf42079a	-0.7579285
2	0xbf885a9d	-1.0652653
3	0xbec3298c	-0.38117635
4	0xbf551cef	-0.83247274
5	0xbeaff4e2	-0.34366518
6	0xbf8ac8e9	-1.0842563
7	0xbf96f41f	-1.179325
8	0xbf1513d4	-0.5823338
9	0xbf950a1d	-1.1643711

dec_shared.weight f4 [100, 10]
0	0x3b100434	0.0021975162
1	0x3bb545a7	0.005531985
2	0xbb23343c	-0.002490296
3	0xbb92a216	-0.0044748886
4	0xbaaa716d	-0.0013003774
5	0x3b688c5b	0.003548405
6	0xbb848765	-0.0040444606
7	0x3ab51410	0.0013815183
8	0x3a8b9ce8	0.001065162
9	0x3af65777	0.0018794377
10	0x3c55add3	0.013041931
11	0xbc1f48ca	-0.009721944
12	0x3cae80a4	0.021301575
13	0x3a040052	0.0005035448
14	0x3c5c49eb	0.013445358
15	0x3deb4448	0.11487633
16	0x3c2d5b13	0.010580796
17	0x3c86cad8	0.016454145
18	0xbc293ed0	-0.010329917
19	0xbcd80488	-0.026369348
20	0x3b58ce18	0.0033081826
21	0xbd0bce2f	-0.03413218
22	0x3cbd95e7	0.023142768
23	0x3b759120	0.0037470534
24	0x3c9f9ad3	0.019483006
25	0xbcf734eb	-0.0301766
26	0x3c1caf0e	0.009563221
27	0xbc35cd52	-0.011096315
28	0xbbb27d06	-0.005447033
29	0xbbc5c816	-0.006035815
30	0xb9547982	-0.0002026316
31	0xba45a057	-0.0007538846
32	0xbc95c540	-0.018282533
33	0xbba34661	-0.004982755
34	0x3bedcdcc	0.007257199
35	0x3b67005e	0.0035248022
36	0x3b9114fd	0.004427551
37	0x3ad6187b	0.00163342
38	0x3b74726c	0.0037299646
39	0x3becbbb2	0.0072245235
40	0x3d20498a	0.039132632
41	0xbbd12cdb	-0.006383521
42	0x3b068c67	0.0020530464
43	0xbc2d5757	-0.0105799055
44	0xbb8753d0	-0.0041298643
45	0xbb0fa43c	-0.002191796
46	0xbb4d62bf	-0.0031339375
47	0xbc7eef6d	-0.015560013
48	0x3c805369	0.015664773
49	0xbc5dc5fe	-0.013535975
50	0x3d36425a	0.04449687
51	0xbb9c3c0f	-0.0047679017
52	0x3bc737e8	0.0060796626
53	0xbbf1cc52	-0.007379093
54	0xbc11de54	-0.008903105
55	0x3baa4d33	0.005197191
56	0xbb9b3182	-0.0047361264
57	0xbc26e6a3	-0.010186824
58	0x3c238a45	0.0099816965
59	0xbc4575a4	-0.0120519735
60	0xbd5fca84	-0.054636493
61	0x39dabc7e	0.00041720638
62	0x3ab96138	0.0014143353
63	0xbc34c8af	-0.011034175
64	0x3cf02b4b	0.029317519
65	0xbbe18112	-0.0068818415
66	0xbb03c33e	-0.0020105387
67	0xbbe378d0	-0.006941892
68	0xbc5a2e43	-0.013316694
69	0xbba53c8c	-0.005042618
70	0x3b25785d	0.0025248744
71	0xb98515f0	-0.00025384082
72	0xba854327	-0.0010167108
73	0x3c7d3cf8	0.015456431
74	0xbc24d52c	-0.01006059
75	0x3b299a00	0.0025879145
76	0xbbbd0819	-0.0057687876
77	0xbb8396bb	-0.004015771
78	0x3ccbe72b	0.024890503
79	0x3c32cf9d	0.010913757
80	0xbc2c1070	-0.010501966
81	0xbd94d68e	-0.072674856
82	0xbbff0b92	-0.0077833617
83	0x3ccc43a9	0.024934607
84	0xbc22d442	-0.0099383015
85	0x3dad456f	0.08460509
86	0xbae5518c	-0.0017495616
87	0xbd9348fb	-0.07191654
88	0xbc960a28	-0.01831539
89	0xbcc4b7d1	-0.024013432
90	0x3c0db11c	0.008648183
91	0xbbdb20d5	-0.0066872635
92	0xb854a71f	-5.0700382e-05
93	0x3b1a9acd	0.0023590804
94	0xbbc59752	-0.0060300017
95	0xbc0fd373	-0.008778441
96	0xbba400c6	-0.005004975
97	0xbb63689a	-0.0034699799
98	0xbabd770d	-0.0014455036
99	0x3ad1bae0	0.0016001128
100	0xbc00d34c	-0.007862877
101	0xbc89fa24	-0.01684291
102	0x3c2a602f	0.0103989085
103	0xb8ce1187	-9.82611e-05
104	0x3bcf7ba1	0.0063318764
105	0x3cbcd174	0.023049094
106	0x3a151d88	0.00056882994
107	0x3b278b7c	0.0025565317
108	0xbbb3239f	-0.005466893
109	0xbc078c29	-0.008273163
110	0x3d23d0c5	0.03999402
111	0xbd4e40f5	-0.050354917
112	0xbca6b375	-0.020349244
113	0x3c6db05c	0.014507379
114	0x3e4aab16	0.19791827
115	0x3d63806c	0.055542395
116	0xbe6076fa	-0.21920386
117	0xbec1d483	-0.37857446
118	0x3e473227	0.19452725
119	0x3ea856d9	0.3287876
120	0x39b2f92e	0.0003413646
121	0xbba7fba7	-0.005126435
122	0x3b710b84	0.0036780545
123	0x3a415d52	0.00073762715
124	0xba9f685a	-0.0012161836
125	0xbaa3d50f	-0.001249941
126	0xbb16f989	-0.0023036918
127	0xbc199fce	-0.009376479
128	0xbb6717dd	-0.0035262026
129	0xbc01ee16	-0.007930299
130	0x3c1107f6	0.008851996
131	0x3d884923	0.06654575
132	0x3dbb1aa3	0.0913594
133	0xbd22b927	-0.039727356
134	0xba6dcc4b	-0.00090712745
135	0x3e1def46	0.15423307
136	0xbcde0094	-0.027099885
137	0x3d823d57	0.06359356
138	0xbd4c3c59	-0.04986224
139	0xbc4969d5	-0.012293299
140	0x3d1fdd13	0.039029192
141	0x3b245777	0.0025076547
142	0x3bfd0663	0.0077217086
143	0xbcf40978	-0.029789671
144	0xbbd2061b	-0.0064094192
145	0x3d1660f4	0.036713555
146	0x3a9892a5	0.0011640383
147	0xbbe5662b	-0.0070007048
148	0xbbd845e0	-0.0066001266
149	0x3b1b293d	0.0023675703
150	0xbd8364c8	-0.06415707
151	0xbc18b866	-0.009321308
152	0xbbdcd92c	-0.006739756
153	0xbcd4aaa7	-0.02596028
154	0x3d5c900e	0.05384832
155	0xbc920307	-0.01782371
156	0xba9cbc01	-0.0011957885
157	0xbca35e50	-0.019942433
158	0xbc6176e2	-0.013761254
159	0xbc9b0436	-0.018922906
160	0xbc238bf8	-0.009982102
161	0xbb9e14e0	-0.004824266
162	0x3b7c7d1d	0.0038526722
163	0x3c499e83	0.012305859
164	0x3b960adb	0.004578931
165	0x3bbfa324	0.0058483053
166	0x3a96aebd	0.0011496168
167	0xbc178f57	-0.0092504835
168	0x38c46340	9.364495e-05
169	0xbba5c746	-0.0050591556
170	0x3d522801	0.051307682
171	0xbbb50d96	-0.005525301
172	0x3c573f4e	0.013137652
173	0x3bb9dc15	0.005671988
174	0xbcf522c6	-0.029923808
175	0x3ca457c1	0.020061376
176	0xbb0194a4	-0.0019772435
177	0x39b16348	0.0003383404
178	0x3be757e5	0.0070600384
179	0x3a2a7900	0.0006503016
180	0xbd856fb4	-0.06515446
181	0x3babf697	0.0052479017
182	0x3d2d2181	0.04226828
183	0xbb77899d	-0.0037771233
184	0xbbf4f29f	-0.0074752118
185	0xbb4f006a	-0.003158594
186	0xbc92be4a	-0.017913003
187	0xbce589de	-0.028019842
188	0x3b5cd50f	0.0033696329
189	0xbcfc5c02	-0.030805591
190	0xba5f414b	-0.00085165043
191	0x3b2d5e83	0.0026454038
192	0xbaf73b3d	-0.0018862259
193	0xbb1c4524	-0.0023844922
194	0xbb9004c5	-0.0043951
195	0xbbab1e95	-0.0052221515
196	0xbb0fbdb7	-0.0021933147
197	0x3b9a1f84	0.004703464
198	0x3bdfc472	0.006828838
199	0x3b560a36	0.0032659895
200	0x3c03f0de	0.008053033
201	0xbb6539ba	-0.0034977035
202	0x3997b5eb	0.00028936504
203	0xbb59ef6f	-0.0033254286
204	0x3c17bee6	0.009261822
205	0xbb834f15	-0.00400723
206	0xbadd39a6	-0.0016878142
207	0xbc04ddd0	-0.008109525
208	0xbc37f77b	-0.011228438
209	0xbca18a74	-0.01971934
210	0x3c0cd512	0.008595722
211	0xbbcac1bd	-0.006187646
212	0xbb2bc394	-0.0026209103
213	0xbbc3f5f4	-0.0059802476
214	0x3a866cde	0.0010255834
215	0xbc39c654	-0.011338789
216	0xbb89865e	-0.004196926
217	0x3a6ddf0c	0.0009074069
218	0x3abb0389	0.0014268021
219	0x3aa00316	0.0012207951
220	0x3c56f9e6	0.013121104
221	0x3d0966c5	0.033545274
222	0xbc8b3051	-0.016990812
223	0xbcb5ce82	-0.022193197
224	0xbd4af155	-0.04954656
225	0x3a87062a	0.001030152
226	0x3a988685	0.001163677
227	0x3c17203f	0.009223997
228	0x3c7b40d5	0.015335281
229	0x3cea650d	0.028612638
230	0xbdafcae7	-0.085836224
231	0x3c2e79e2	0.010649176
232	0xbc0bc696	-0.008531233
233	0x3a01f0aa	0.0004956821
234	0x3d133cd0	0.035946667
235	0xbbac8084	-0.0052643437
236	0x3b08b61c	0.0020860499
237	0x3c79bc32	0.015242623
238	0xbcffbb1b	-0.031217149
239	0x3cd6df7e	0.026229616
240	0xbca2b51c	-0.01986175
241	0x3bc1001a	0.0058899047
242	0xbb5ef45d	-0.0034020164
243	0x3c19809f	0.009369045
244	0x3b262256	0.0025350056
245	0x3c28cffb	0.010303493
246	0xbafa845e	-0.0019112935
247	0xbb6e7738	-0.0036386978
248	0xbb548ec1	-0.003243372
249	0xbae57a1b	-0.0017507704
250	0x3c5f32cc	0.013622951
251	0xbb2bb987	-0.0026203112
252	0xbc32d070	-0.010913953
253	0xbb6d4118	-0.003620213
254	0x3c127d7f	0.008941053
255	0xbb07d752	-0.0020727706

dec_shared.bias f4 [100]
0	0x3b08ae5f	0.0020855886
1	0xbd299579	-0.041402314
2	0xbbda3197	-0.0066587436
3	0xbbd41edc	-0.0064734053
4	0xbaa576f8	-0.0012623956
5	0xbae71c57	-0.0017632347
6	0x3c0e1c1b	0.008673693
7	0xbbeac77f	-0.007164895
8	0xbe2bfaed	-0.1679494
9	0x3b812212	0.003940829
10	0xbc34e2e3	-0.011040422
11	0xbe3afc08	-0.18260205
12	0xbb5a3406	-0.0033295169
13	0x3eb1f809	0.34759548
14	0xbcd70a64	-0.026250072
15	0x3c0369b3	0.008020806
16	0xbc45d670	-0.012075052
17	0xbb082555	-0.0020774205
18	0x3c41f151	0.0118373195
19	0x3bc318d3	0.005953887
20	0xbae314db	-0.0017324941
21	0x3c86156c	0.016367637
22	0x3c31fdd3	0.010863739
23	0x3be46c62	0.006970928
24	0xbbf0dbb7	-0.007350411
25	0xbb19ac68	-0.002344871
26	0x3c2b52e6	0.010456776
27	0x3b5c6002	0.003362656
28	0x3af2896d	0.0018504091
29	0x3a8fff5d	0.0010986138
30	0x3e90f11e	0.28308958
31	0x3d53504f	0.05159026
32	0x3d01e899	0.031715963
33	0xbe3adf92	-0.18249348
34	0x3c3e7ad2	0.011625962
35	0xbc78a90d	-0.015177024
36	0x3b33beb6	0.0027426905
37	0x3ce9671b	0.028491547
38	0x3f3de1f3	0.74172896
39	0xbb26e844	-0.002546803
40	0xbeb485e7	-0.3525841
41	0xbbd4b936	-0.0064918054
42	0x3bee4d79	0.007272419
43	0xbcabc73f	-0.020969031
44	0x3c69f9d4	0.014280755
45	0x3ace10a3	0.0015721511
46	0x3c873c37	0.016508205
47	0xba2a57ee	-0.0006498088
48	0xbbfb3891	-0.0076666554
49	0xbce5aa7c	-0.028035395
50	0xbef5ddc6	-0.48020762
51	0xbc5e210b	-0.013557683
52	0xbdd1c1ea	-0.10242064
53	0x3ebc4822	0.36773783
54	0x3985c2a2	0.0002551275
55	0x3b0bee8d	0.0021351904
56	0xbf048682	-0.5176774
57	0x3c227065	0.009914492
58	0xbb02fa57	-0.001998564
59	0xbe252936	-0.16129002
60	0x3e1909bc	0.1494512
61	0x3e4e7434	0.20161515
62	0x3bf70c94	0.007539341
63	0xbb820451	-0.0039677997
64	0xbbabe14a	-0.0052453624
65	0x3e98b36b	0.29824385
66	0xbc10dc09	-0.008841523
67	0xbb6c25e8	-0.0036033336
68	0xbc4d8929	-0.012544909
69	0x3e519445	0.20466717
70	0x39a93e1b	0.00032280464
71	0xbefab98e	-0.48969692
72	0x3c731ab6	0.014837911
73	0x3b4e40c3	0.0031471706
74	0xbd587c86	-0.05285313
75	0x3c0c245d	0.008553592
76	0x3abe44cc	0.0014516353
77	0xbb31e6c1	-0.0027145597
78	0x3caea80b	0.021320364
79	0xbf1d45bb	-0.61434525
80	0x3b89714e	0.004194415
81	0x3e08b7f6	0.13351426
82	0x3c3f439c	0.011673834
83	0x3efea65c	0.49736297
84	0xbc3b891c	-0.011446264
85	0x3e140870	0.14456344
86	0x3c0e9a4f	0.008703782
87	0x3b7dfad7	0.0038754249
88	0xbc995511	-0.01871732
89	0xbc32291e	-0.010874061
90	0xbea20df2	-0.31651264
91	0xbc28afd0	-0.010295823
92	0xbeeeafb8	-0.46618438
93	0x3d043a9e	0.032282464
94	0x3c9b02d9	0.018922256
95	0x3bdfa7c6	0.00682542
96	0xbc2b22bf	-0.010445296
97	0x3ebcaac0	0.36849022
98	0xbc6be2b5	-0.014397313
99	0xbbfefd08	-0.0077816285

dec_mu.weight f4 [20, 100]
0	0x3b2bc7d2	0.0026211631
1	0xbb0b51c2	-0.0021258448
2	0xbb4d89f9	-0.0031362756
3	0xb9da991b	-0.00041694273
4	0x3bea2140	0.007145077
5	0x3c76d4e4	0.0150654055
6	0x3b3c7e92	0.0028761965
7	0x3b6e9c82	0.0036409204
8	0xbbc039f3	-0.005866283
9	0xbb1895b5	-0.0023282592
10	0x3b8a347e	0.0042176833
11	0x3b903543	0.0044008805
12	0x3b8e75cf	0.00434754
13	0x3b0b0c34	0.002121699
14	0xbc048c20	-0.008090049
15	0x3ce1d90e	0.02756932
16	0x3bd0bd0e	0.0063701933
17	0xbca3b981	-0.019985916
18	0x3cae3425	0.021265099
19	0xbb55d939	-0.0032630695
20	0xb862a2ac	-5.40341e-05
21	0xbbc902d2	-0.0061343694
22	0xbbc9902b	-0.0061512194
23	0xbc28a509	-0.010293254
24	0x3c0ba318	0.008522771
25	0x3bd3d9a7	0.006465155
26	0xbc0f2e0a	-0.008739004
27	0xb97f257a	-0.00024332656
28	0x3b0867d3	0.0020813837
29	0x3af2a91a	0.0018513531
30	0x3b81584b	0.003947293
31	0x3c4f8141	0.012665094
32	0xbb42e078	-0.0029735845
33	0x3c3cef34	0.01153164
34	0x3cf7bf66	0.030242633
35	0xbc5fce35	-0.013660003
36	0xbc98b0de	-0.018639024
37	0xbb7f1c31	-0.0038926715
38	0xbd208184	-0.039186016
39	0xbc8fc8c5	-0.017551789
40	0x3be52069	0.006992389
41	0xba60d265	-0.0008576273
42	0xbb7e275d	-0.0038780787
43	0xbc72d8ea	-0.014822224
44	0xbcc654d6	-0.024210375
45	0x3b8b1168	0.0042440183
46	0x3d127cc4	0.035763517
47	0xbc391b79	-0.011298054
48	0x3d0b6145	0.03402831
49	0x3c244b77	0.010027758
50	0xbb21fc92	-0.0024717194
51	0xbc15981a	-0.009130502
52	0x3c0a61dd	0.008446184
53	0xbba5607a	-0.0050469013
54	0xb8af959b	-8.3725165e-05
55	0x3b4d4a0f	0.003132466
56	0xbb7fb0c7	-0.003901528
57	0x3d74ec9d	0.059795965
58	0x3c914e5f	0.017737566
59	0x3ba97035	0.005170847
60	0xbbd619bb	-0.006533829
61	0xbb043b24	-0.0020176852
62	0xbd56291d	-0.052285302
63	0x3bb48cd0	0.00550995
64	0x3a0ba2e9	0.00053267047
65	0x3c343eca	0.011001298
66	0xbc3b769b	-0.011441852
67	0x3c4b23f4	0.012398709
68	0x3b41f264	0.002959394
69	0x3ad9d13d	0.0016618144
70	0x3c7a6f8a	0.015285382
71	0xbc2eb27f	-0.010662674
72	0xbae1b71a	-0.0017220706
73	0x3c022c50	0.007945135
74	0xbba4c3c6	-0.005028221
75	0x3d5d006a	0.053955473
76	0xbcc00c9f	-0.023443518
77	0x3b2b00da	0.0026093037
78	0x3bfb1bf7	0.007663246
79	0x3c2685b5	0.010163714
80	0xbb21a74f	-0.0024666374
81	0x3bd4f237	0.006498601
82	0x3605bc30	1.9928084e-06
83	0x3bd0b9f4	0.0063698236
84	0xbc89ed7b	-0.016836872
85	0x3bf397bb	0.007433859
86	0xb897d559	-7.23998e-05
87	0xbc4c91b0	-0.0124859065
88	0x3bf11a8e	0.007357902
89	0x3b3ae318	0.0028516706
90	0x3c79607c	0.015220758
91	0x3c26b050	0.010173872
92	0x3c53505c	0.012897577
93	0xbc4d8ce6	-0.0125458
94	0xbc073250	-0.0082517415
95	0x3c62e4f1	0.013848529
96	0x3b747365	0.0037300226
97	0xbc15d1e8	-0.009144284
98	0x3c146bf6	0.009058943
99	0xbb58b925	-0.003306934
100	0xbb852722	-0.004063503
101	0x3ddb49d2	0.107074395
102	0xbcf90c63	-0.030401414
103	0xbb228d33	-0.00248034
104	0xbac41c0b	-0.0014961971
105	0x3c9aea27	0.01891048
106	0xbc4195eb	-0.011815528
107	0xbbafae94	-0.0053613875
108	0x3d5f2061	0.05447424
109	0xbc818cf5	-0.015814284
110	0x3d078bbb	0.03309224
111	0xbe66fc1b	-0.22557108
112	0x3c876215	0.016526261
113	0x3cc1637b	0.023607006
114	0x3d79387e	0.06084489
115	0xbc6aaee5	-0.014323925
116	0x3d36b55b	0.044606548
117	0x3c916b5a	0.017751385
118	0x3beb80f6	0.007187004
119	0xbc8f6201	-0.017502787
120	0x3c4ffa27	0.012693918
121	0xbd160dd2	-0.036634274
122	0x3c8a17a9	0.016856985
123	0xbca1d107	-0.019752992
124	0x3c4f6b18	0.0126598105
125	0x3b64726e	0.0034858244
126	0xbc1e49a0	-0.009661108
127	0x3adaceb4	0.0016693682
128	0x3cd6a753	0.026202833
129	0x3b63554d	0.0034688294
130	0x3dc0f9f1	0.094226725
131	0x3c322298	0.010872506
132	0xbd0e5076	-0.034744702
133	0x3e8d4939	0.27594927
134	0xb9b19555	-0.00033871332
135	0x3c456165	0.012047146
136	0x3bd9a7cd	0.006642318
137	0xbdf30780	-0.11866665
138	0x3d8e190a	0.069383696
139	0xbc9e88f1	-0.019352408
140	0xbd48762d	-0.048940826
141	0x3ca748c7	0.020420445
142	0xbd3ef26b	-0.046617907
143	0x3c66d9f3	0.014090049
144	0xbc235672	-0.009969341
145	0x3b909aae	0.0044129705
146	0xbc8c3f6d	-0.017120088
147	0x3b7335d3	0.003711094
148	0xbaa3bf33	-0.0012492895
149	0x3e609a1a	0.21933785
150	0xbe0311c8	-0.12799752
151	0x39bfbb7c	0.00036570046
152	0x3e03b83f	0.12863253
153	0x3d705647	0.05867603
154	0xbb783f18	-0.0037879404
155	0xbb8e8182	-0.0043489346
156	0xbde5ff2e	-0.11230312
157	0x3bdc1f74	0.0067176167
158	0xbbcf7b40	-0.006331831
159	0x3c083580	0.008313537
160	0xbddc3bbe	-0.107535824
161	0xbe863863	-0.26214895
162	0xbcb399aa	-0.021923859
163	0x3bb5ed09	0.0055519384
164	0xbc3c1df2	-0.011481749
165	0x3e6a5fed	0.22888155
166	0xbb0336ae	-0.0020021605
167	0x3bd007ef	0.006348602
168	0x3d132f2b	0.035933655
169	0x3d973398	0.073828876
170	0x3c7c99a8	0.015417494
171	0x3daec729	0.085340805
172	0xbd464bf0	-0.048412263
173	0x3bbdcba4	0.005792098
174	0x3c013a85	0.007887487
175	0x3b7bab9b	0.0038401845
176	0xbc93101d	-0.01795202
177	0x3d7b3bdd	0.061336387
178	0xbc476cb5	-0.012171914
179	0xbe8d6a8e	-0.27620357
180	0xbc192e36	-0.009349396
181	0xbdd26221	-0.10272623
182	0xbce85b66	-0.028363895
183	0x3d25f4aa	0.040516533
184	0x3cce6573	0.02519486
185	0x3e28a5f0	0.1646955
186	0xbc9a0af0	-0.018804044
187	0xbb9bb250	-0.004751481
188	0x3bca874a	0.0061806785
189	0x3c813bb4	0.015775539
190	0xbe5f1196	-0.21784052
191	0x3c4a19a1	0.012335212
192	0xbd03ad48	-0.032147676
193	0xbde92999	-0.11384887
194	0xbd4e9a6c	-0.050440237
195	0x3c04eb61	0.008112759
196	0x3d1f1d15	0.038846094
197	0x3e9341e7	0.28761217
198	0x3d7603fb	0.06006239
199	0x3c728eae	0.014804525
200	0xbba0af5a	-0.004903716
201	0x3d0e04d0	0.03467256
202	0x3d91178a	0.07084568
203	0xbb110c73	-0.0022132664
204	0xbc0d62c6	-0.008629506
205	0xbc7552cd	-0.0149733545
206	0x3c52adb0	0.012858793
207	0xbc5b4f21	-0.013385565
208	0x3c96a5bf	0.01838958
209	0x3a6adaee	0.00089590147
210	0x3c2ac3a1	0.010422618
211	0xbdd5366e	-0.10410772
212	0x3b715b4a	0.0036828094
213	0x3d30b2af	0.043139156
214	0xbbd294e6	-0.0064264415
215	0xba8c9d69	-0.0010728064
216	0xbb147339	-0.0022651686
217	0xba91d0e3	-0.0011124875
218	0xbbcce533	-0.0062529086
219	0x3a8ca41f	0.0010730064
220	0x3c27da28	0.010244884
221	0x3cc76547	0.024340285
222	0xbd910db2	-0.0708269
223	0x3c1668f2	0.009180294
224	0xbc273fa7	-0.010208047
225	0xb9a2062c	-0.00030903646
226	0x3c8d6128	0.017258242
227	0x3aef53c6	0.0018259219
228	0x3b9775f4	0.0046222154
229	0xbbe7e2f9	-0.007076618
230	0xbe311ce1	-0.17296173
231	0x3d67f494	0.056629732
232	0x3c79866f	0.015229805
233	0xbe1fbbc3	-0.15598969
234	0xbc7d7dd9	-0.015471899
235	0x3c0afea1	0.00848356
236	0x3b955f1e	0.004558458
237	0x3d0aa0c9	0.033844743
238	0x3df94add	0.12172482
239	0x3b5e346f	0.0033905765
240	0x3e0bde2b	0.13658969
241	0x3b77fbaf	0.0037839224
242	0x3de75287	0.11295038
243	0xbc354788	-0.011064418
244	0x3c219e7b	0.009864445
245	0xbab3adcc	-0.0013708412
246	0xbc173972	-0.009230005
247	0x3ab69156	0.0013928812
248	0xbb73436a	-0.003711904
249	0xbe60eaa9	-0.21964516
250	0xbe909d26	-0.28244895
251	0x39cb71d3	0.00038803983
252	0xbdf73742	-0.120710865
253	0xbd67d697	-0.056601133
254	0xbc7a3188	-0.015270598
255	0xb8c4ddce	-9.387323e-05

dec_mu.bias f4 [20]
0	0xbeeeb6db	-0.46623883
1	0xbe3ae74f	-0.182523
2	0xbe17bb49	-0.14817537
3	0xbd81f8c6	-0.06346278
4	0x3c00b7e4	0.007856343
5	0x3e28ce0e	0.16484854
6	0xbc9c4661	-0.019076528
7	0xbbda3951	-0.0066596647
8	0xbb5aa2fc	-0.0033361306
9	0xbe06cc4e	-0.13163874
10	0x3b517514	0.0031960653
11	0x3c5ab214	0.013348121
12	0xbc442fcd	-0.011974287
13	0xbd916f11	-0.07101262
14	0xbdcd56d7	-0.10026329
15	0x3d2372f6	0.039904557
16	0x3d583690	0.05278641
17	0xbda65d53	-0.08123269
18	0x3d994cd6	0.074853584
19	0xbeed8710	-0.46392107

dec_log_var.weight f4 [20, 100]
0	0x3b0f9245	0.0021907252
1	0x3e8bf4c5	0.27335182
2	0x3d978226	0.07397871
3	0x3d367c94	0.0445524
4	0x3bbd858b	0.005783742
5	0x3cad4db7	0.021155221
6	0xbb76590c	-0.0037589697
7	0x3db93b9e	0.09044574
8	0x3f3ba6eb	0.7330157
9	0xbd31a02e	-0.04336565
10	0x3dedde43	0.11614659
11	0x3e9bf21e	0.30458158
12	0xbcb2dd57	-0.021834059
13	0xbf84189d	-1.0320011
14	0x3e1971f1	0.14984871
15	0x3ae9b8d6	0.0017831575
16	0x3e326b67	0.17423783
17	0x3d56b5a1	0.05241931
18	0xba68766d	-0.00088677445
19	0xbd05fbb3	-0.032710742
20	0x3d6add1d	0.057339776
21	0xbe546f76	-0.20745644
22	0xbe3b09bf	-0.18265437
23	0x3d1dea10	0.038553298
24	0x3dab86ae	0.083752975
25	0xbb72e8ec	-0.0037065102
26	0x3b9a28ef	0.0047045867
27	0xbd1cc067	-0.038269427
28	0xbdac6b27	-0.08418875
29	0xbd498fb5	-0.049209315
30	0xbf087cda	-0.5331551
31	0xbea53eff	-0.32274625
32	0xbe822a42	-0.25422865
33	0x3f356fdf	0.70873827
34	0xbbecc14a	-0.0072251903
35	0x3cd7495e	0.026280101
36	0xbd87e92a	-0.066362694
37	0xbe3740aa	-0.17895761
38	0xbfa8b21f	-1.3179358
39	0x3a9edaed	0.0012119688
40	0x3eea7237	0.45790264
41	0x3da2dbdd	0.07952092
42	0xbe4c08ba	-0.19925204
43	0xbc7935e5	-0.015210603
44	0x3b061d7a	0.0020464347
45	0x3c596d0d	0.013270629
46	0x3d8312c8	0.064000666
47	0xbc5f5fcb	-0.013633679
48	0xbc86cd2c	-0.016455255
49	0x3c38989a	0.011266852
50	0x3f3f027c	0.74613166
51	0xbb26d9e4	-0.0025459463
52	0x3f108eb3	0.5646774
53	0xbf2f9d40	-0.6859932
54	0xbc9d3c4b	-0.019193789
55	0x3cce3943	0.025173789
56	0x3f33a4d7	0.701734
57	0x3cbd1b14	0.0230842
58	0x3cebad49	0.028769152
59	0x3f34ed30	0.7067442
60	0xbf345583	-0.7044298
61	0xbf086bcd	-0.5328949
62	0xbd927df0	-0.07152927
63	0x3b8809bd	0.0041515515
64	0x3d2e7d22	0.042599805
65	0xbe0a8e10	-0.13530755
66	0x3d79a01e	0.060943715
67	0x3d5d0ae9	0.053965483
68	0x3e1051eb	0.14093749
69	0xbeebc919	-0.46051863
70	0x3c51aded	0.012797815
71	0x3eb460cd	0.35230103
72	0xbe2fb556	-0.17159018
73	0xbbe53b88	-0.006995622
74	0x3ee2c76b	0.4429277
75	0x3a7a4c6b	0.00095481303
76	0xbd6f4bd1	-0.058421914
77	0xbe27e94b	-0.16397588
78	0xbd9c7d71	-0.076411135
79	0x3ef4be9b	0.4780167
80	0xbd960549	-0.07325227
81	0xbf452884	-0.77014947
82	0x3c2b2e93	0.010448116
83	0xbf07c547	-0.53035396
84	0x3c18d54b	0.009328197
85	0xbe9285fa	-0.2861784
86	0xbdb977b7	-0.09056037
87	0xbd0be43e	-0.034153216
88	0x3e6ad918	0.22934377
89	0x3cb8f82d	0.022579277
90	0x3da915e3	0.08256128
91	0xbc91ed5f	-0.017813383
92	0x3f294c26	0.6613182
93	0xbdee9704	-0.11649898
94	0xbdc9f39a	-0.098609164
95	0x3d4d9ff9	0.05020139
96	0x3e2c297b	0.16812699
97	0xbef0ea9f	-0.47054002
98	0x3de4ca8e	0.11171447
99	0xbca7805d	-0.02044695
100	0xbd86a5ec	-0.06574616
101	0x3be64a7a	0.0070279213
102	0x3e3a5239	0.18195428
103	0xbd41f029	-0.047348175
104	0xbad25d74	-0.001604958
105	0xbd8c1c0c	-0.06841287
106	0x3c230b34	0.0099514015
107	0xbda9998b	-0.08281239
108	0x3e82306e	0.25427574
109	0x3cc26d7c	0.023733847
110	0x3d4e074b	0.050299924
111	0x3e93a351	0.28835538
112	0x3cdd6af6	0.027028542
113	0xbeda8446	-0.42679042
114	0x3d5e0d06	0.05421164
115	0x3c26e94c	0.010187458
116	0x3dde5547	0.10856109
117	0xbb283e57	-0.0025671923
118	0xbd0f5f41	-0.03500295
119	0xbd61a4a0	-0.05508864
120	0xbc69f18c	-0.014278781
121	0x3ce40d08	0.027838245
122	0xbd6cde90	-0.05782944
123	0xbc4f3bd1	-0.012648539
124	0x3d4ac1ec	0.049501345
125	0x3cf4ec0a	0.029897708
126	0xbd6bc3c8	-0.05755976
127	0xbd2dee99	-0.042463873
128	0x3e260d5f	0.16216038
129	0xbdbacab5	-0.091206945
130	0xbe4eae68	-0.20183718
131	0xbe22caeb	-0.1589772
132	0xbdd28623	-0.10279491
133	0x3d84bee8	0.06481725
134	0xbc2503f5	-0.010071744
135	0xbc311ade	-0.010809628
136	0xbcfa08da	-0.030521799
137	0xbc8fe8a4	-0.017566986
138	0xbeffbed5	-0.4995028
139	0x3b7fd170	0.0039034747
140	0xbdfe5ba2	-0.12419821
141	0x3d9e8080	0.07739353
142	0x3df60521	0.12012697
143	0xbc3f30b3	-0.011669326
144	0x3d0a0913	0.03370006
145	0x3c8d61e4	0.017258592
146	0xbcf40ed4	-0.029792227
147	0x3c6acea8	0.014331497
148	0x3c8e2020	0.017349303
149	0x3df27d47	0.11840301
150	0x3e55612d	0.20837851
151	0x3cddc386	0.027070772
152	0x3d9aaca4	0.0755246
153	0x3d283e50	0.04107505
154	0xbd29cddc	-0.04145609
155	0xbc8ef250	-0.017449528
156	0x3ea2adf6	0.31773347
157	0xbb88cb3e	-0.004174619
158	0xbba0ab60	-0.004903242
159	0x3b31c950	0.0027128048
160	0x3ca4be92	0.020110402
161	0xbe321d02	-0.17393878
162	0x3c21513c	0.009846028
163	0x3d142af1	0.036173765
164	0xbcb58fc8	-0.022163287
165	0x3e24bb91	0.16087176
166	0xbcc1fd17	-0.023680253
167	0xbd69dd95	-0.057096083
168	0x3db8533b	0.0900025
169	0xbe371eda	-0.17882863
170	0x3d77fc07	0.060543086
171	0xbea3dac9	-0.32002857
172	0xbd04f0d3	-0.03245623
173	0x3c33187c	0.0109311305
174	0x3d65569b	0.055990797
175	0xbc6464ab	-0.013940017
176	0xbd09b672	-0.03362126
177	0xbd8ec2c8	-0.06970745
178	0x3cb3766e	0.021907058
179	0x3ed28725	0.41118732
180	0xbae530c9	-0.0017485853
181	0xbe264d81	-0.16240503
182	0x3d211408	0.039325744
183	0xbec3e6cd	-0.38262025
184	0x3d3a6915	0.04551037
185	0xbebc0bed	-0.3672785
186	0xbd4c5139	-0.049882147
187	0x3c877632	0.016535852
188	0x3d8c607a	0.06854339
189	0xbcb01860	-0.021495998
190	0xbe3bd45a	-0.18342724
191	0x3d11e031	0.035614196
192	0x3e8ef61e	0.27922148
193	0x3ce28332	0.02765045
194	0xbe09ce01	-0.1345749
195	0x3ca0bf3e	0.019622441
196	0x3e0097b5	0.12557872
197	0x3e3a5126	0.18195018
198	0x3d270408	0.04077533
199	0x3c937326	0.017999243
200	0xbcec824d	-0.028870726
201	0x3e1a520a	0.15070358
202	0xbc85ac44	-0.016317494
203	0xbd021244	-0.0317557
204	0xbd6c24b8	-0.057652205
205	0x3b92770e	0.004469759
206	0x3cae6e23	0.021292752
207	0xbd85b432	-0.0652851
208	0x3d9624cc	0.07331237
209	0xbdae3c3e	-0.08507584
210	0x3d7e624b	0.06210546
211	0xbded21bc	-0.115787
212	0xbd121f3a	-0.03567431
213	0xbe490fd5	-0.19634946
214	0x3d6bf03b	0.05760215
215	0x3d566be1	0.052348975
216	0xbc2000f1	-0.009765849
217	0xb8c409f5	-9.347863e-05
218	0xbd201095	-0.039078314
219	0xbd75ab68	-0.05997792
220	0x3dc6e1d8	0.09711045
221	0xbdf57681	-0.119854935
222	0xbd9f5d82	-0.07781507
223	0x3c1d6de9	0.009608724
224	0xbd926eb1	-0.07150019
225	0x3a2c62af	0.00065759843
226	0xbb23a318	-0.0024969038
227	0xbab2e5d6	-0.0013648819
228	0xbdafdb3b	-0.08586737
229	0xbc87bf52	-0.01657072
230	0xbcd024dc	-0.0254082
231	0x3ced78ab	0.028988203
232	0x3d8bb768	0.06822091
233	0x3ec13802	0.37738043
234	0x3c9cacef	0.01912543
235	0x3c71c3c6	0.014756149
236	0xbc014f31	-0.007892416
237	0xbd11b30a	-0.035571136
238	0xbec1bbcc	-0.3783859
239	0x3cd837b8	0.026393756
240	0x3e4ce310	0.20008492
241	0x3d1d768f	0.038443144
242	0xbd5ef1f4	-0.054429963
243	0x3bcab97b	0.006186662
244	0x3c32168f	0.010869636
245	0x3d9d66f5	0.07685653
246	0x3bd3c8bc	0.0064631384
247	0xbd3f135c	-0.046649322
248	0x3cc8f016	0.024528544
249	0xbeabddbd	-0.3356761
250	0x3e1ac304	0.15113455
251	0xbc7f7899	-0.015592718
252	0xb86955ed	-5.5631554e-05
253	0x3ad807bd	0.0016481798
254	0xbd13684d	-0.03598814
255	0x3d2ba43d	0.041904677

dec_log_var.bias f4 [20]
0	0xbfd49d0a	-1.6610425
1	0xbf0b21e9	-0.5434862
2	0xbea90ce4	-0.33017647
3	0xbeeeb9df	-0.46626183
4	0xbf31f8ee	-0.6952046
5	0xbefc1815	-0.49237123
6	0xbeb0f0b7	-0.3455865
7	0xbf0cb24d	-0.54959565
8	0xbea9cda8	-0.33164716
9	0xbf49457c	-0.7862165
10	0xbf144a61	-0.57925993
11	0xbeb9c733	-0.3628479
12	0xbf04a36f	-0.5181188
13	0xbeb4f39d	-0.35342112
14	0xbee82f0a	-0.45348388
15	0xbedd3714	-0.43206084
16	0xbecb504c	-0.397097
17	0xbf081ea0	-0.5317173
18	0xbea3b22f	-0.3197188
19	0xbfc64a58	-1.5491438
