vae/saved_models/fixed_endpoints/fixed-1.0_nepochs100_lr0.01_N20_n2000_b150_s10.pt (torch, 121209 bytes, 36 tensors)

enc_shared.weight f4 [100, 20]
000000 9b dd 87 bd 6d d4 a4 3c 0e 10 44 bd a1 45 9d be
       -0.06634065 0.020120824 -0.047866873 -0.30717185
000010 09 b7 26 3e 96 57 89 3d 6e f2 89 be 33 eb 09 3e
       0.1628076 0.06706159 -0.26942772 0.13468628
000020 04 56 37 3d 2d 9a be 3e 1a 21 73 be c8 69 2d be
       0.044759765 0.37227002 -0.23743096 -0.16934884
000030 6f ca 14 3e 8a ca ee bc a0 75 7f 3d 71 11 8e 3e
       0.14530347 -0.029149313 0.062368035 0.27747682
000040 ef 8b c1 3d 33 4b 37 3d b7 e8 81 bd f9 7d 75 3e
       0.09450518 0.04474945 -0.06343215 0.23973836
000050 53 c7 a9 3c 90 5b 89 3d 7b cb 4b 3d 3b d6 d3 bd
       0.020724928 0.06706917 0.0497546 -0.103435956
000060 a7 d1 a4 be 35 6a 3f be fb 59 06 be 4d 28 1b 3d
       -0.32191202 -0.18692859 -0.13120262 0.03788023
000070 a4 41 16 be c9 25 3f 3e 31 55 84 3e c6 79 89 be
       -0.14673477 0.18666758 0.25846246 -0.26850718
000080 d6 a7 4f 3e c7 b6 74 3e 6a 9c 2a be 45 45 a1 bd
       0.20278868 0.23897849 -0.1666123 -0.0787454
000090 e0 f7 b7 bd f8 75 aa bc ab 1f d4 3d 5b f1 48 be
       -0.08982825 -0.020808205 0.10357603 -0.1962332
0000a0 aa 50 28 3b 4c dd 6c 3d e2 5b ad 3b 21 6d f6 3d
       0.0025682845 0.057828233 0.0052904943 0.120325334
0000b0 ae 01 0f bd 4a c1 29 be 97 e2 b2 bd 0b 58 8b bc
       -0.03491371 -0.1657764 -0.08734625 -0.017009756
0000c0 6a 28 8e 3d f5 37 30 bd 55 f5 0d be c9 eb 5f bc
       0.06941302 -0.043022115 -0.13863118 -0.013667055
0000d0 23 85 65 3c 23 f8 4f bd 1c fb e6 bb 25 78 4a bd
       0.014008793 -0.05077375 -0.0070489775 -0.049430985
0000e0 32 71 f9 3c 3f c2 37 3d 6b 45 23 3e 99 74 2a bd
       0.030449484 0.044862982 0.1594445 -0.041615102
0000f0 d2 cc 01 3e 04 2d 5a bd b6 b7 c7 bd 52 5d 3d be
       0.12675789 -0.053265586 -0.09751837 -0.1849263
000100 4a 98 4a be cc 55 31 be ab 02 ae bd 1c 3a 15 3e
       -0.19784656 -0.17317885 -0.084966026 0.14572948
000110 c0 15 da bd 7a 48 b0 3d e0 41 76 3c 11 c5 eb bd
       -0.1064868 0.08607574 0.015030354 -0.11512197
000120 3e 93 c1 3c fa 3c 22 3e 09 cc 90 be 6d a6 27 be
       0.02362978 0.15843573 -0.28280666 -0.1637208
000130 0e e2 28 3e 90 cd 87 be 91 13 41 3e 3e 1f 0b 3e
       0.16492483 -0.2652402 0.1885512 0.13586137
000140 0d d6 ae 3c 45 9e 74 3c 5c 8d 25 3b c4 4a ee 3d
       0.021342302 0.0149303125 0.0025261259 0.11635354
000150 5e 4a 55 3e 26 6d 7a 3b 05 78 96 bb 98 b8 6a 3e
       0.2082915 0.003821203 -0.004591944 0.2292198
000160 dc fb df bd d5 c2 81 be 78 79 9e be b6 a8 54 3e
       -0.1093671 -0.25343958 -0.30952048 0.20767483
000170 c4 b1 d7 bd e8 92 7a be e3 a7 94 3c 56 58 b2 3e
       -0.10531953 -0.24470103 0.01814646 0.3483302
000180 8f 14 09 3d 3a 4a e4 bd f9 31 74 3e ed 7d 2c bb
       0.03346687 -0.1114697 0.23847188 -0.0026320175
000190 d4 44 8b bd 74 03 ec 3d 0a 23 36 be 58 e3 58 3e
       -0.06800237 0.11524096 -0.17786804 0.21180475
0001a0 70 4b f8 3d 97 b7 96 bd 9a 78 4b be dd 8c 27 be
       0.121237636 -0.07359236 -0.19870225 -0.16362329
0001b0 fe 66 cf bd a3 b3 58 bd 23 1b 0b 3e 4e a7 a5 3e
       -0.10127066 -0.05290569 0.1358457 0.32354206
0001c0 d0 ca 58 bd de 1a 89 3e 95 39 91 bd 04 2b ae bd
       -0.052927792 0.2677831 -0.07091061 -0.08504298
0001d0 33 d8 86 3e 6c bf 03 3e ac 66 5e 3e 15 7c 9f bd
       0.26336822 0.1286599 0.21718854 -0.07787339
0001e0 45 bf 23 be 58 df ad bd 95 82 1c 3d 21 ef d4 3d
       -0.15990932 -0.08489865 0.03821047 0.10397173
0001f0 68 54 d0 bd 09 57 83 3e a1 65 81 be 2b d7 8c 3d
       -0.10172349 0.2565234 -0.2527285 0.068769775
000200 68 08 75 3d f5 95 b6 be a2 fe 48 3d 11 f6 b4 3e
       0.05982247 -0.35661283 0.04907096 0.35343984
000210 b4 37 aa bb 64 48 d5 bd 2c bc 43 be e7 66 53 bd
       -0.0051946286 -0.10414198 -0.1911475 -0.051611807
000220 9e 07 95 3c a1 45 ea 3d 3f ed b2 3d 0d 59 33 bd
       0.018192109 0.11439062 0.08736657 -0.043786097
000230 a9 0f 3a 3d 59 36 05 3e 18 0b e2 bc 1c d4 87 bd
       0.04542509 0.13009013 -0.02759318 -0.066322535
000240 d3 7f c9 bd 7e e9 12 be 2a 87 df bc e3 a9 2a 3b
       -0.09838834 -0.14346883 -0.027286131 0.0026041202
000250 0f 01 b3 3a 87 4a 05 be 95 a1 cc 3d 1f 32 df bd
       0.0013656932 -0.13016711 0.09991757 -0.10898232
000260 2a 98 78 bd db 01 17 3d a2 d5 72 bc 46 4f fb 3d
       -0.06069199 0.036867004 -0.014821442 0.122709796
000270 e9 26 08 3e 29 c9 e5 3d 94 56 1b bc 57 42 13 be
       0.13296093 0.11220009 -0.009481091 -0.14380775
000280 54 37 1a 3d 7f 53 bd bd 1d 66 51 bd bb 67 0b be
       0.03765042 -0.09244441 -0.051122773 -0.13613789
000290 7d 83 11 3e 9f 79 16 be 07 4d 60 be ba 11 8d 3d
       0.14210315 -0.14694832 -0.21904384 0.06888147
0002a0 50 46 cf 3d bd ea ce bd 22 d7 71 bd da c7 e6 bd
       0.10120833 -0.101033665 -0.059043057 -0.112685874
0002b0 2c 04 77 be 45 f3 d3 bd 2c 66 3e bc 1d 79 cb bd
       -0.24122685 -0.10349134 -0.011621039 -0.0993521
0002c0 93 7e e9 bd 57 d6 3a bd d8 82 fe bd 81 6b 8a bd
       -0.11401095 -0.045614567 -0.124273 -0.06758786
0002d0 51 51 bf 3d ff 68 3d 3e 7f b2 4f 3d 75 fa 12 bc
       0.09341682 0.18497084 0.050707337 -0.008970846
0002e0 f3 6c 38 3e 86 48 1c be d7 a1 7b be 18 1b ae 3d
       0.18010311 -0.1526204 -0.24573456 0.085012615
0002f0 d4 9e 68 3c 1e 83 a5 be 37 83 8c 3b 83 e0 a7 3e
       0.014198024 -0.32326597 0.004288103 0.32788476
000300 da 56 c7 bc 23 e5 fd bd 80 e1 11 3e b0 de 70 be
       -0.024333406 -0.1239722 0.14246178 -0.23522449
000310 23 57 59 3c 31 4b e1 bd b2 21 02 3e a2 2a d5 3c
       0.013265404 -0.1100067 0.12708166 0.026021305
000320 0e ec 90 3d 61 0c a4 3c 82 7d fd bd 60 ee 76 3e
       0.07076274 0.020025434 -0.12377454 0.2411437
000330 9d a3 4f 3e 27 e9 70 3d 6d ea 23 be e9 7e 5e bd
       0.20277257 0.0588161 -0.16007395 -0.05432025
000340 35 0d 26 3e c2 be d7 bc 4a 6c 9f 3d 61 aa 9d 3e
       0.16215976 -0.026336078 0.077843264 0.3079405
000350 51 4a 0c 3e 19 ff 84 3d b4 dd 5c 3e 38 56 c5 be
       0.13700224 0.064939685 0.21568948 -0.38542342
000360 72 a8 47 3e b7 c5 1e 3e 34 16 23 3e 09 31 5f 3c
       0.1949785 0.1550511 0.15926439 0.013622531
000370 01 af dd bd 2a 8e 7c be 7e 16 60 3e 8d a1 78 bd
       -0.10824395 -0.24663606 0.2188358 -0.06070094
000380 70 a5 41 b9 25 95 27 3d bd b9 8f be fe 3d 41 3e
       -0.00018467545 0.04091372 -0.28071395 0.18871304
000390 10 ba 61 bd 8c ca 0b be 25 e6 0b be 74 af 26 3d
       -0.055109084 -0.13651484 -0.13662012 0.04069467
0003a0 c5 24 f0 be a2 e7 d5 bc 69 8b 84 3e c3 97 4d be
       -0.46903053 -0.026111428 0.25887612 -0.20077424
0003b0 f1 35 e8 3a 7f 7f 11 3e 69 77 83 bd e9 f4 62 3e
       0.0017716271 0.14208792 -0.0641926 0.22163738
0003c0 9b bb ae bd 6e 50 f8 bd ea 64 2a be 94 86 a8 bd
       -0.08531877 -0.12124716 -0.16640058 -0.08228794
0003d0 29 39 c7 3e 2f 67 fa 3c 90 a4 9d be 8d 34 90 3e
       0.38910797 0.03056678 -0.30789614 0.28165093
0003e0 9c b0 b0 bd 2f 33 92 be 99 a4 50 3d aa 26 0f 3e
       -0.086274356 -0.28554675 0.050938223 0.13979593
0003f0 58 99 c1 3d c9 ac a5 3c 52 e6 20 3e 18 d3 9c 3e
       0.09453076 0.020223992 0.1571286 0.30629802

enc_shared.bias f4 [100]
000000 98 7b ad bb c1 8d 24 be 8a f5 96 bd 99 f6 1f 3e
       -0.0052942745 -0.160697 -0.073710516 0.15621413
000010 b1 e0 73 bd 0e 3e 8e be 40 c6 69 be 13 6b ba bd
       -0.059540454 -0.2778172 -0.22829533 -0.09102454
000020 4e dc 92 3c 55 4b 4e be 28 f5 cb bd 82 44 b8 bd
       0.017927315 -0.20145924 -0.09958869 -0.08997442
000030 79 3a ba 3d 00 0d 24 3e 3d 21 21 3d cb f0 f3 bc
       0.09093184 0.16020584 0.03933834 -0.029777905
000040 85 d0 37 be 00 13 79 bd cb 85 1c bd e2 45 03 3e
       -0.17950638 -0.060809135 -0.038213532 0.12819627
000050 86 2b 9a bd 7f 00 31 bd d5 fe da bd 17 23 13 3d
       -0.07527833 -0.043213364 -0.106931366 0.035922136
000060 ac b8 48 bd 3b d2 8c be 45 03 8c 3d a7 70 9f 3d
       -0.04900424 -0.27504143 0.06836561 0.077851586
000070 da 42 02 be 10 c8 3a be 11 b9 f1 bc 89 88 75 3d
       -0.12720814 -0.1824038 -0.029507192 0.059944663
000080 a6 95 f6 bd c4 32 54 bd 0f 19 06 be f1 28 0a 3e
       -0.12040262 -0.051806226 -0.13095497 0.1349218
000090 87 72 32 3e 62 8b 8b 3e 81 ef fe bd e8 de 83 3d
       0.17426501 0.27254778 -0.124480255 0.06439
0000a0 02 ab 90 3d 98 db 7e 3d 21 ab ee 3c 05 7e e2 bd
       0.07063867 0.06222114 0.029134335 -0.110591926
0000b0 0d c0 89 be 35 f1 e7 bc d1 52 e7 3d 6c 70 14 3e
       -0.26904336 -0.028313259 0.11295093 0.1449601
0000c0 b4 ef a6 3a ed 48 f5 3d 67 32 60 be 4c fd e6 3d
       0.0012736232 0.119768 -0.21894227 0.11278781
0000d0 b3 7b 48 3b 42 d6 2d be 0b c6 13 3e b1 a0 82 be
       0.0030591309 -0.16976264 0.14431016 -0.25513223
0000e0 e0 ed 80 3d 4e 3b 0d be 25 8f b2 3d bd 9d a7 3a
       0.06295371 -0.13792154 0.08718709 0.0012788099
0000f0 a5 b0 31 be c8 d1 4d be 65 b2 89 bd c9 a0 11 be
       -0.17352541 -0.20099556 -0.06723479 -0.14221491
000100 04 bf 75 3e 84 6b 34 be 59 e9 65 bd 62 61 25 3d
       0.23998648 -0.17619139 -0.05613074 0.040376075
000110 91 90 bc 3c ee 47 53 bd c2 b5 24 3e de 50 33 3e
       0.023018153 -0.05158227 0.1608496 0.17511317
000120 92 2a 8f 3d 35 6a 99 bd ea df 5d 3e e7 ec 8a 3e
       0.069905415 -0.074909605 0.21667448 0.27133867
000130 15 39 b1 3c 21 48 08 3e 45 69 3f 3e 81 8b 0f 3e
       0.021633664 0.13308765 0.18692501 0.1401806
000140 13 d1 93 3d eb 80 67 3e 6f 51 ba 3d 0d b9 5a 3e
       0.07217612 0.22607772 0.090975635 0.21359654
000150 dd 10 66 bd 33 d2 25 be 1b c0 04 be 11 c6 f4 bd
       -0.056168426 -0.16193466 -0.12963907 -0.11951841
000160 b6 25 da 3d a6 5a 0d 3e 9c 3d 06 3d 2c 8b 92 bc
       0.10651724 0.13804111 0.0327736 -0.017888628
000170 6f 06 f2 3d fb 06 1d 3e e6 1e 13 3e ff a2 93 3d
       0.11817633 0.15334694 0.14367256 0.072088234
000180 5e a9 c1 3c f5 90 ca 3c e3 e3 d3 3d ac 64 47 3e
       0.02364033 0.024727324 0.103462 0.19471997

enc_mu.weight f4 [10, 100]
000000 8d d2 3b bd da 51 04 3b 47 ed 05 bb 5f 45 fa bc
       -0.045855094 0.002019039 -0.0020435618 -0.030550657
000010 4b dd 14 bc 85 a0 c0 bd 14 4e 46 bd 94 b3 0a 3c
       -0.0090859635 -0.09405617 -0.048414305 0.008465666
000020 a2 83 0c 3c 46 a0 ac 3d fb 64 53 ba c8 8e ff bd
       0.008576306 0.08429007 -0.00080640585 -0.12478405
000030 8b b4 75 3c de e8 a0 bc 6e 63 46 39 ac 39 2f 3e
       0.014996658 -0.01964229 0.00018919792 0.17111844
000040 2b f0 ea bb b5 92 30 3d 8d 16 5b bd 68 87 86 3b
       -0.0071697435 0.04310866 -0.053488303 0.004105497
000050 ef 01 50 3c ee 9c 19 3b af c7 bd bb 62 c9 08 be
       0.0126957735 0.0023439485 -0.0057916264 -0.13358071
000060 3f f6 89 bd 7b 31 51 bd d9 fa 05 3e f5 2f 1c bd
       -0.06736421 -0.05107258 0.13083972 -0.038131673
000070 c0 b9 45 bb a4 ab e0 bb 95 9f 14 be 9f fc 7a 3d
       -0.003017053 -0.0068563987 -0.14514 0.061276074
000080 a9 03 7b bb a9 05 37 bb ba a4 9b 3c 4f 7a 23 3c
       -0.0038301742 -0.0027926958 0.018999446 0.009977891
000090 22 54 bf 3c 1d 31 89 3d ad 84 46 bd ea 74 08 ba
       0.023355547 0.06698821 -0.048466373 -0.000520541
0000a0 8e f6 0d 3d 66 3d e9 3b 1d df a4 3c b4 42 e0 3d
       0.03465896 0.007117915 0.02012592 0.109502226
0000b0 c2 1d 1d bd 9a 83 95 3d 09 58 f1 bc 8a 06 cf 3d
       -0.038358457 0.07300492 -0.029460924 0.10108669
0000c0 a0 8f 4a bd 8f 98 42 be db 15 dd 3d f4 0c 82 38
       -0.049453378 -0.19003509 0.10795184 6.201296e-05
0000d0 9b e3 b2 bd e8 f7 1e 3c 16 1c ab 3c 09 69 d0 bd
       -0.087348185 0.00970266 0.020887416 -0.10176284
0000e0 c1 26 a8 bb a0 e4 f4 bb e9 e7 11 3e 62 64 fb bb
       -0.005131573 -0.0074735433 0.14248623 -0.0076718787
0000f0 fb 10 18 bc 45 d8 25 bd a8 8f f1 bc fc 01 92 be
       -0.009281392 -0.040489454 -0.029487446 -0.2851714
000100 70 0d 16 bd 85 2e 3b bd c3 3c de 3c 60 5a 25 3d
       -0.03663391 -0.04569866 0.027128583 0.04036939
000110 d6 e2 d1 3c 78 ee d8 bc a9 5c 1c ba 66 ae a9 bb
       0.02562086 -0.026480898 -0.0005964735 -0.0051782606
000120 bb 85 cd 3c 64 c5 10 3e 60 5f 30 3d 9c b9 71 3e
       0.025088182 0.14137799 0.043059707 0.2360596
000130 02 7b 65 39 6a 1e 30 3b 74 23 36 be c3 04 33 3c
       0.00021884966 0.0026873597 -0.17786962 0.010926428
000140 fc d8 c9 bd ca 6c b1 3d 88 87 e8 3a 02 6f 20 3e
       -0.098558396 0.08663328 0.0017740587 0.15667346
000150 b9 5b a0 3c 56 3f 40 bd 84 6d 5e 3d a0 29 8c 3c
       0.019574987 -0.0469354 0.05430366 0.017109692
000160 b8 96 0a bd e9 c8 f0 bd a7 b3 80 bb 49 0a 50 3d
       -0.033835143 -0.117570706 -0.003927666 0.05079106
000170 2e 32 84 3d e0 83 1b bc 0e 29 bc 3b 97 49 8c bc
       0.064548835 -0.009491891 0.005742199 -0.017124934
000180 75 c9 da bd 6b f0 74 be c6 52 d1 3d dd 55 1b bd
       -0.10682956 -0.23919837 0.10220866 -0.037923682
000190 dd 51 b3 3d 12 be e2 bd c2 d9 17 bc 27 9d e1 3c
       0.087558486 -0.11071409 -0.009268226 0.027540756
0001a0 58 25 4d 3d 90 c4 14 be 6c 53 f2 3c 9f 5b a6 bc
       0.050084442 -0.14528108 0.029580794 -0.02030736
0001b0 40 da 11 3d 58 10 db 3d 59 2a d4 ba 48 18 c0 3c
       0.03560853 0.10696477 -0.0016186937 0.023449078
0001c0 ca 8b 1c be 65 02 2c bd e6 a9 6a bb 67 7a 9f bd
       -0.152877 -0.04199447 -0.0035806834 -0.07787018
0001d0 ad 33 c0 3c 75 b5 9d 3c 2a 40 84 bd aa d8 17 3a
       0.023462141 0.019251565 -0.06457551 0.00057924783
0001e0 40 2f 73 3d dd 54 9a bc d9 68 9c 3b 88 5c 18 3d
       0.059371233 -0.018839294 0.004773241 0.03719762
0001f0 bc 59 a1 3e 42 fa b0 3d 3b ae ac bd c9 c0 e1 bd
       0.31513774 0.08641483 -0.08431669 -0.11023099
000200 8e 7e 2a bd 24 ad ba bb ff 46 69 3c a7 3b 15 3e
       -0.0416246 -0.0056969095 0.014238118 0.14573537
000210 14 42 b8 3c 99 a7 2e 3d 24 c5 34 bd ad 52 ff bd
       0.022492446 0.042640302 -0.04413332 -0.12466941
000220 98 33 a8 bd a9 ca c7 bd da 78 8a bd 64 1d 7a 3c
       -0.08212966 -0.09755451 -0.06761332 0.015265796
000230 c0 bb 03 3d ea c3 ab 39 6b a4 d2 ba 86 12 33 3d
       0.032161474 0.0003276163 -0.0016070729 0.043718837
000240 25 93 a4 3d b7 90 1d 3e e4 46 8f 3d c8 cc 09 bd
       0.08035878 0.15387236 0.06995943 -0.03364256
000250 6e 36 d7 3d af 82 ef bd 8a 8a 01 3e 7b 37 62 bd
       0.105084285 -0.11694848 0.12650505 -0.05522869
000260 ed d6 8d bd c8 51 cb 3d 14 42 30 3e af 41 d1 bd
       -0.069257595 0.09927708 0.17212707 -0.10217606
000270 15 eb 2f bc c3 84 d6 bb 09 ef 43 3d 24 ce 5b bc
       -0.0107372 -0.006546588 0.047835384 -0.013415847
000280 10 79 82 bd 0b 25 e2 bd 44 34 d8 ba 35 e4 73 3d
       -0.06370747 -0.11042222 -0.0016495069 0.059543807
000290 eb 95 57 bb be 73 9c bd 0e 7a 2d bc 66 f8 ac bc
       -0.0032895755 -0.076392636 -0.010588182 -0.02111454
0002a0 25 f3 2e 3c 43 32 57 3d 72 a7 d7 bc d3 b1 d7 bc
       0.010678087 0.052538168 -0.026324961 -0.02632991
0002b0 11 70 da bd a0 16 de 3d 0e 9b b8 3c be df ac bd
       -0.10665906 0.10844159 0.022534873 -0.08441113
0002c0 ff 62 48 bc a0 0b df 3d 5b 98 f2 b9 bf 4b 22 3d
       -0.012230634 0.10890889 -0.0004627135 0.03962302
0002d0 95 9e 45 be ca 4c 54 be a0 26 10 bd 26 12 cd bd
       -0.19298775 -0.20732418 -0.035193086 -0.10013227
0002e0 72 ec 96 3b 39 0e 76 3e fa 1c a4 bd cd 7e c4 bc
       0.004605823 0.24028863 -0.08013339 -0.023986245
0002f0 43 9b e4 3d 68 de 65 3d 0c 20 eb bc f9 0e b8 bd
       0.11162426 0.056120306 -0.028701805 -0.08987231
000300 54 d8 19 bd 7c 5c 2e 3d 26 c9 e7 bc 2a aa 1a 3d
       -0.037559822 0.04256867 -0.028294157 0.037759937
000310 d4 7f d0 bd ac 73 c6 3c 00 67 1e 3d 40 4a 4b be
       -0.10180631 0.024225079 0.038672447 -0.19852543
000320 76 99 32 3e 7e ad dc 3d ed 7a cb 3b 1b fa 08 3e
       0.17441353 0.107752785 0.0062097223 0.13376658
000330 fa 8c 49 bc 6f 8d f2 bd 35 03 4d be 0d a6 6c bb
       -0.012301678 -0.118433826 -0.20020755 -0.0036109716
000340 cd 7a 56 3c 7b 20 1e be 93 20 01 be 42 7b 81 bc
       0.013090801 -0.15442078 -0.12610082 -0.015805844
000350 d3 06 30 bd 7b 21 47 3e 5b 27 fb bc 70 fd 39 3e
       -0.042975258 0.19446366 -0.030658415 0.18163085
000360 c4 e3 be bb 71 3d 99 bd e8 83 b5 bd e8 9b 85 3c
       -0.0058254916 -0.07482422 -0.0886305 0.016309693
000370 58 69 72 3e 10 4c 19 bc 93 16 b5 bc 63 cc cc bd
       0.23672998 -0.009356514 -0.02210549 -0.09999921
000380 86 b3 02 3e 71 51 36 bc 15 54 1c 3e 3d 69 eb 3d
       0.12763795 -0.011127816 0.1526645 0.11494682
000390 3b 1b a7 3c fa 9e 1b bc 07 0b a8 3d b8 98 09 3e
       0.020398727 -0.009498352 0.08205228 0.13437164
0003a0 9b 53 2a bc 8f 3f be bc 01 c1 f7 3c af c7 a8 bd
       -0.01039591 -0.023223666 0.030243399 -0.082412116
0003b0 8a b9 ee bc 52 22 10 3e 1f cd 80 bd f2 a5 48 bc
       -0.029141206 0.14075592 -0.06289124 -0.012246596
0003c0 4b ed 3c 3d f9 01 be 3b 31 92 9c 3c 0e cd 04 be
       0.046124738 0.005798575 0.019112678 -0.12968847
0003d0 61 ef af bb 90 76 bd bb 36 ac be bc 5d 77 57 be
       -0.0053691124 -0.005781956 -0.023275476 -0.21041627
0003e0 0c f5 e5 3c 6c ce cc 3d 47 d9 0b be e2 b4 fb bc
       0.028070949 0.10000309 -0.13657103 -0.0307259
0003f0 55 a3 77 bd 9e cd 7c bd a5 b6 06 be 0d df 72 3e
       -0.0604585 -0.06171953 -0.13155611 0.237179

enc_mu.bias f4 [10]
000000 0e b4 4b bd 60 e2 0f 3d 02 3b ad 3d f6 3d 82 bd
       -0.04973226 0.035127997 0.084585205 -0.06359474
000010 6b 87 2a bd eb 8d 95 bd 9b a2 2b bc 2d ad 8c bc
       -0.04163305 -0.07302459 -0.01047578 -0.01717242
000020 aa 4d d0 3d 61 f9 a8 3d
       0.10171063 0.0825069

enc_log_var.weight f4 [10, 100]
000000 51 51 cd 3d 3b f4 30 3d 94 9f 2b 3d c6 b1 bf bd
       0.100252755 0.043201666 0.041900232 -0.093600795
000010 1d fb eb 3d 52 69 64 be c9 de 81 3d 9f 72 91 bd
       0.115225054 -0.22305802 0.06341321 -0.0710194
000020 33 f9 9a bd c0 2e 6e 3e b3 4c a8 3c d8 18 c0 bc
       -0.07567062 0.23260021 0.020544386 -0.023449346
000030 0b b9 ae bd b2 62 d7 3c 25 c6 ac bb c1 a5 6b 3e
       -0.08531388 0.026292179 -0.005272644 0.23012449
000040 98 6d 61 3d cf 50 c5 3c 4f b5 b3 3d 0d 35 42 bd
       0.055036157 0.024086384 0.08774816 -0.047413874
000050 a3 e1 d7 bd 7f 36 ba 3c ee 01 17 3c 12 f2 06 3e
       -0.10541084 0.022731064 0.009216769 0.1317828
000060 fe 02 8a bd ab 45 85 3e 26 09 0c 3e f9 09 e3 3d
       -0.06738852 0.26029715 0.13675365 0.110858865
000070 15 36 82 3b 7a e8 33 3d 78 5e e3 3c 55 4f 52 ba
       0.0039737322 0.04392288 0.027755007 -0.00080226857
000080 a2 d6 f2 3c 6c ea 8b 3c 70 83 bf 3c d3 69 4a bd
       0.02964336 0.017079554 0.023378104 -0.049417328
000090 37 0e e3 bd 17 69 8d 3e 4e 4d cb 3e 79 8e d5 3c
       -0.11086696 0.2761924 0.39707416 0.026068913
0000a0 c5 5c 10 3d 48 ef 92 3c 34 89 af 3c 33 fd 27 3e
       0.035244722 0.017936364 0.021427728 0.16405182
0000b0 18 d4 02 be cf 2e 3f 3d 8e 9e 9e 3c 6a 52 54 be
       -0.1277622 0.0466755 0.019362714 -0.20734563
0000c0 17 f6 88 bd 01 f7 3a be 05 52 51 3e 8e 4f 7e bd
       -0.06687563 -0.18258287 0.20441444 -0.062087588
0000d0 31 75 ca bd 58 a4 7a 3e d0 53 96 be e1 56 8c 3e
       -0.09885634 0.24476755 -0.2936082 0.27410033
0000e0 e3 7c 9c bd a0 08 fd bb f1 95 28 be e7 a4 a1 39
       -0.07641008 -0.0077219754 -0.16463448 0.00030831175
0000f0 64 f2 3e bd 29 62 d7 bc fe c5 8a 3d 3a ae 52 bd
       -0.04661788 -0.026291924 0.06776045 -0.051435687
000100 a4 5e be 3d f0 24 91 3d a2 90 6e 3e 15 65 ae 3d
       0.09295395 0.070871234 0.2329736 0.085153736
000110 1b cd 85 3d de 8e 49 be df 38 be 39 fc c2 0b be
       0.065332614 -0.19683406 0.00036281996 -0.136486
000120 85 0c 7c be 3a a2 14 3e 0c 92 13 bd 45 ab 92 3d
       -0.24614151 0.1451501 -0.036027953 0.07161573
000130 40 5d 43 3d 45 83 37 3c 53 bc 88 be 00 63 64 3d
       0.047696352 0.011200731 -0.2670618 0.055758476
000140 35 ad a6 3a 38 b0 cb 3d af d3 8d bd 62 46 9b bd
       0.0012716415 0.099457204 -0.06925141 -0.07581784
000150 47 9d 99 3b 35 7d 1a 3e 26 ce 8b 3d 59 b8 9f 3e
       0.0046879384 0.15086825 0.06826429 0.31195334
000160 d1 11 a0 be e7 2e 7f bd f6 c6 3a 3d 2e 91 14 bd
       -0.31263593 -0.06230059 0.0455999 -0.036271267
000170 81 de b1 be 36 1e 8e 3d e1 e6 01 bd e6 23 10 bd
       -0.3474007 0.06939356 -0.031714324 -0.035190485
000180 95 fc 20 3c cd 0a d4 bd 58 08 7a 3e ca e7 a2 be
       0.009825845 -0.103536226 0.24417245 -0.31817466
000190 82 81 19 3d 01 86 c9 bc 01 01 f7 bc 37 f2 54 3d
       0.037477024 -0.02460003 -0.030151846 0.051988807
0001a0 8b 0f 95 3b e4 c8 a9 bb 6a cf f0 bd eb 00 1a bd
       0.004548972 -0.0051814187 -0.11758311 -0.03759853
0001b0 a0 55 24 bd 46 7e 59 bd 3b 7f 74 3d 82 20 a8 3c
       -0.04012072 -0.05309894 0.05969165 0.020523313
0001c0 c8 89 a1 bc 5c ac e6 3d c8 2e 61 3d dc 81 0a 3c
       -0.01971902 0.11263344 0.054976255 0.008453812
0001d0 42 b2 a3 bc 38 33 d6 bc b1 db 5b 3d cd 22 06 3d
       -0.01998246 -0.02614747 0.05367631 0.032748032
0001e0 f8 e0 71 bd 3d 5a de bd 9c c6 c6 bc 50 c1 cc bc
       -0.059052438 -0.10857055 -0.024264626 -0.024994522
0001f0 9b 6c 32 bd c4 01 1a bd 27 26 a3 bc 52 73 15 3b
       -0.043560605 -0.03759934 -0.019915653 0.0022804332
000200 92 f8 00 bd ab 7b 48 b7 1c 16 3c 3d 79 18 93 3c
       -0.031487055 -1.1949723e-05 0.045919523 0.017956005
000210 4a af bd bd 07 cd 56 bd 95 55 df bc e0 b6 92 3d
       -0.09261949 -0.052441623 -0.027262488 0.07163787
000220 a0 80 b2 3c b8 6a 61 3d c9 48 91 3d 3d 3d 2a 3d
       0.021789849 0.055033416 0.07093961 0.041562308
000230 25 79 79 3d 9b 14 24 bd 2a 47 43 bd 6c b5 36 3d
       0.060906548 -0.040058713 -0.04767529 0.04460661
000240 ac 3a 90 bd 3c d5 d9 bb fb c0 9a bc b9 20 d3 3a
       -0.07042441 -0.006647734 -0.018890848 0.0016107775
000250 0a eb 92 bd 83 05 a0 3c 4a 3d 61 bc 78 a0 1c 3d
       -0.071737364 0.019533878 -0.013747523 0.038238972
000260 a7 ff bd 3c 88 56 d7 3d c7 fa 2c bc 7f ef 27 bc
       0.023193194 0.105145514 -0.010557837 -0.010249971
000270 a8 da 54 3c 2b 4e 62 bd f2 39 03 3d c2 5d 76 bc
       0.012991585 -0.055250328 0.032037683 -0.015037002
000280 40 88 77 bc c0 2e d5 bd ba ab 64 3d 20 50 8f bd
       -0.015108168 -0.104093075 0.055827834 -0.069977045
000290 8b 5e 09 3e 94 09 bc bc 84 48 ad 3d a8 89 85 3d
       0.13414972 -0.022953786 0.08461097 0.065203965
0002a0 c5 1e 03 bd f1 59 88 bd f6 9e 42 3d 96 b3 92 3d
       -0.032011766 -0.0665778 0.04751488 0.071631595
0002b0 d6 d3 04 3d 2a ba 2c 3d 00 b4 d0 3c 04 2c 9c 3c
       0.032428585 0.042169727 0.025476456 0.019063957
0002c0 a7 80 0d 3b c9 e8 2d bc b6 6d e1 3c 95 ce 40 3d
       0.0021591575 -0.010614582 0.027518135 0.047072012
0002d0 5c 48 0a 3c 12 f2 64 3d 28 6c 66 bd 99 0a cf 3a
       0.008440103 0.05589492 -0.05625549 0.0015796005
0002e0 cb cf 0b 3d d1 2b d3 bc 42 a8 aa 3b e8 09 96 3d
       0.034133714 -0.02577773 0.005208046 0.07326108
0002f0 8f 6e 0e be 07 a1 9d 3c d7 f0 88 bd 97 f8 aa bd
       -0.13909362 0.019241823 -0.066865616 -0.08348196
000300 2d b9 5e bb ce 8b 4b bb 39 87 25 3d be 4f af 3d
       -0.0033984885 -0.0031058672 0.04041216 0.085601315
000310 05 d1 80 3d c2 1f b9 bd 81 8e ce 3d ac ad d6 3c
       0.06289867 -0.090392604 0.10085774 0.02620586
000320 ed 5e 07 3e 0e 37 e6 bd 6d 77 fa bc 07 24 4b bc
       0.13219805 -0.112409696 -0.030574525 -0.012398726
000330 38 c8 04 bd 40 85 04 be a5 8b 56 bc 3a 8f fe bd
       -0.032417506 -0.12941456 -0.013094817 -0.12429662
000340 ef ef c3 3d 65 e5 f8 3d 44 6a dd 3c a1 1f cd 3c
       0.09567248 0.121531285 0.02702821 0.025039496
000350 71 9a da bd cc 8a c7 3d c1 1c b9 3c 62 22 ca 3d
       -0.106739886 0.0974327 0.022596719 0.09869839
000360 89 6c 74 bd 79 52 7f 3c 2b d1 a7 bc a5 bc 9f 3d
       -0.05967382 0.015583628 -0.020485481 0.07799653
000370 88 4a 8e bd e2 35 5a 3d 69 9a 35 bd 72 b1 da 3d
       -0.069478095 0.053274043 -0.04433671 0.10678376
000380 e4 e5 1b be dc 90 af 3d d4 f2 e1 3c 12 07 0f 3e
       -0.15224415 0.085725516 0.02758161 0.13967541
000390 6c 07 c1 3c fc 48 bd bb 79 a8 a2 3c ed f4 0a bc
       0.02356311 -0.0057765227 0.019855725 -0.008481246
0003a0 79 6a 20 3c 96 b2 d2 3c 3f f9 45 bd 34 20 2e bd
       0.00979101 0.025719922 -0.048333403 -0.04251118
0003b0 4e 3d 56 3d 05 08 18 3e bc af 65 3e ff da 83 3d
       0.05230456 0.14846809 0.22430319 0.064382546
0003c0 1a c5 d9 3c c6 e9 d8 3c df 41 11 3d 42 84 be 3d
       0.026583243 0.02647866 0.03546321 0.0930257
0003d0 5d 40 95 bd ca 12 6b ba fd c7 80 bd 12 69 04 3c
       -0.07287667 -0.00089673384 -0.06288145 0.008081691
0003e0 64 8d 15 3c de d3 48 3c 3f 89 b7 3d d9 8f 6d 3d
       0.009127948 0.012257544 0.089617245 0.057998512
0003f0 cb 7d aa bd bd 2d b3 3c 89 78 58 be 08 bc f3 3d
       -0.08324774 0.021872396 -0.2113973 0.119010985

enc_log_var.bias f4 [10]
000000 3d 69 63 bf 54 e2 db bd c4 63 0c bf 7c 9b 16 bf
       -0.88832456 -0.10736528 -0.5483973 -0.58831
000010 39 57 15 bf 37 8d 07 bf fd 30 60 bf cc ae 08 be
       -0.58336216 -0.5294985 -0.8757475 -0.1334793
000020 8d 3a 71 bf ca 42 9a be
       -0.94229966 -0.3012908

dec_shared.weight f4 [100, 10]
000000 a8 5b f4 3b 5b 8e a4 bd 70 08 b2 ba b5 60 9f 3c
       0.0074572153 -0.08034965 -0.0013582837 0.019455293
000010 61 96 6f 3b ad 92 08 3c a7 27 a7 3c f2 30 8c bd
       0.0036558139 0.0083357515 0.02040465 -0.06845273
000020 d3 67 10 3d 4f cf dd 3c d4 19 63 3d 61 93 a9 3d
       0.035255264 0.027076392 0.055444553 0.082800634
000030 d7 ae b1 3d 59 87 58 3c 5b b8 ad b9 65 1e a2 bd
       0.08675926 0.013215863 -0.00033134487 -0.079159535
000040 dd 6c b6 bc 1d 12 a8 3d 3c 8e f5 bc bc 56 aa 3c
       -0.022268707 0.0820658 -0.02997505 0.020793311
000050 21 33 31 3c 78 bd 32 bd 5e 88 da 3b 75 41 ff bc
       0.010815413 -0.043637723 0.0066690883 -0.031159142
000060 7e 50 67 3b 19 41 e5 bb 95 3e 11 bb 08 61 8d 3d
       0.003529578 -0.0069962856 -0.0022162546 0.06903273
000070 37 3a ff bc 36 c5 c5 3c 22 90 22 3f 09 94 d9 bd
       -0.031155689 0.024141889 0.6350118 -0.106239386
000080 45 d7 e0 3d 13 10 68 3e b9 11 99 be 32 a9 c4 bc
       0.109785594 0.22662382 -0.29896334 -0.02400646
000090 52 aa 10 bf 7d f7 22 3c eb cf e2 be 94 64 50 bd
       -0.5650989 0.009946701 -0.44299254 -0.05087717
0000a0 85 f1 35 3e 30 1b 9c bc 95 2c 06 bc 71 54 bf 3e
       0.17767914 -0.019055933 -0.00818934 0.3736911
0000b0 69 4e 93 be ca 83 d3 bc 66 d1 cf be 71 0c f8 bd
       -0.2877076 -0.025819678 -0.40589446 -0.12111748
0000c0 5a 20 64 3e b7 ae 44 3e 38 3b 5f be f3 4d 31 3d
       0.22277966 0.19207273 -0.21799934 0.04328723
0000d0 cc c6 3c bd ad c4 37 3d d4 b7 d2 3d 52 09 86 bd
       -0.046088025 0.0448653 0.10288969 -0.065447465
0000e0 3e 6f 1b be f6 44 b9 3d 45 43 7e bd 75 b1 5c bc
       -0.15179154 0.090463564 -0.062075872 -0.013470043
0000f0 30 68 16 bb 2c 97 d5 bc a5 be dd 3d 32 60 c8 3c
       -0.0022950284 -0.02607306 0.10827378 0.024459932
000100 4f fd 08 bd 84 b7 96 3c 98 63 16 bc b5 7e 8a bd
       -0.0334447 0.018398054 -0.009179018 -0.06762449
000110 45 b0 67 bd cc f3 f9 bc d0 60 94 3a 93 13 ed 3c
       -0.056564588 -0.03051176 0.0011320356 0.028939998
000120 a3 4f 2d 3c 8f f1 be 3b 2d e1 70 3b 7f 84 1e bc
       0.010578069 0.005827136 0.003675531 -0.009675144
000130 2e b8 b3 3a ed 15 ce 3b 2e 05 d6 38 0a 30 cd bb
       0.0013711506 0.006289235 0.0001020528 -0.00626183
000140 ec e8 4c 3e 34 12 7b bc ba b4 2f be 53 15 85 3e
       0.20010728 -0.015324164 -0.17158785 0.25992832
000150 61 6c 18 3d 8b f8 82 be e2 f3 46 3e 14 84 af bd
       0.037212733 -0.25580248 0.19428971 -0.08570114
000160 6f 64 9d be be 1c 1e 3e da dc 8c be 21 20 92 3c
       -0.30740687 0.15440652 -0.27512246 0.017837586
000170 31 27 d8 bd 93 2b f0 3e 85 5f cb 3e bf a1 84 be
       -0.1055435 0.46908244 0.39721313 -0.25904652
000180 a5 65 b8 bd d9 c2 27 bd 70 e3 e5 be bd 90 07 be
       -0.09003762 -0.040957306 -0.44900084 -0.13238807
000190 9c dd a8 3d c0 26 16 3d c7 a2 0d 3e ed 7f 99 bd
       0.08245394 0.03665805 0.13831626 -0.07495103
0001a0 03 cd c8 3c 46 5d 81 3d 56 09 45 3d 0e 95 bb bc
       0.02451182 0.063166186 0.048104607 -0.022898223
0001b0 6e 3a 8f bd a1 ff 50 3d bf d5 29 3f 2b 5a e0 bc
       -0.069935665 0.051025037 0.66341776 -0.027386745
0001c0 50 3a 91 3e 1d e7 28 be b4 a8 01 3c fe 2a 8e be
       0.283648 -0.16494413 0.007913757 -0.27767175
0001d0 49 05 cd bd 38 7c 2f 3d 0e 11 81 bd 68 3d 92 be
       -0.10010774 0.042843074 -0.06302081 -0.28562474
0001e0 af f4 00 bc 06 59 e9 bc 6e a6 c7 bb ee 9b 9e bc
       -0.007870837 -0.028484832 -0.006092838 -0.019361462
0001f0 b5 a0 82 bc ff de 5c 3b ef b3 8e bb 5e 19 cf 3c
       -0.015945772 0.0033702252 -0.004354946 0.02528065
000200 64 78 92 bc 1f bd fd 3c 99 4a 1a 3f 28 48 77 3d
       -0.017879672 0.030973969 0.60270077 0.060371548
000210 96 35 b4 be f6 bd 10 3d 7c 0d 93 be a7 b7 35 be
       -0.35197133 0.03533741 -0.28721225 -0.17745839
000220 7a 1f 84 3e a5 9e 74 bc cd 6c e6 be 4a 2b 18 3e
       0.25805265 -0.014930402 -0.45004883 0.14860263
000230 b4 94 2d 3d 10 55 c1 3d f1 58 ef bc 01 53 af bd
       0.042378142 0.094400525 -0.029217215 -0.085607536
000240 f1 2f 20 be 86 a3 eb bd 37 6b 8f be 84 2a 2a 3c
       -0.15643288 -0.11505799 -0.28011486 0.010386113
000250 91 47 a1 bd 94 7e 35 3e c9 1d ef 3e 40 11 cc 3c
       -0.07874978 0.17724067 0.46702412 0.02491057
000260 04 a5 1d 3e 6a 4e 54 be 0e f5 7f be 24 31 ae 3e
       0.1539498 -0.20733038 -0.24995825 0.34021866
000270 e6 a9 a1 be db 3a f6 3d b6 be 5c bd 6b 97 01 3e
       -0.31574935 0.120229445 -0.053892814 0.12655418
000280 78 3a 00 3e a0 05 0c bd ee 9e 0c 3e d4 5d 07 3d
       0.12522304 -0.034185052 0.13732502 0.033048466
000290 69 52 d8 3d 3f 35 c7 39 3f e2 69 3d 12 38 8d 3c
       0.105625935 0.0003799591 0.05710053 0.01723865
0002a0 11 68 f8 bd ca fa f4 bd c3 b5 5e 3d 34 97 d8 bc
       -0.12129224 -0.11961897 0.05437256 -0.026439287
0002b0 d8 cb 8a 3e 3b 62 22 3e 07 13 cc be d3 f1 a3 be
       0.27108645 0.15857784 -0.39858267 -0.32020435
0002c0 fb 9f 85 be f3 26 b9 3d d7 b2 04 3f 8a 26 31 bd
       -0.26098618 0.09040632 0.5183539 -0.043249644
0002d0 58 1e 53 3d e1 fc bb 3c 14 2a 89 3d a0 7a ee bc
       0.05154261 0.02294773 0.06697479 -0.029111207
0002e0 7c c9 c1 3d 6c 2d cb 3b 3f f9 fe 3c fd cf 35 bd
       0.09462258 0.006200483 0.03112471 -0.044387806
0002f0 55 31 0a 3d 13 44 bc 3d be f0 47 bd 60 6d 60 bb
       0.033738453 0.091926716 -0.048813574 -0.003424488
000300 8f 9b f8 bc 50 04 1b 3c d2 90 ba bc f9 46 87 3d
       -0.030347614 0.009461477 -0.022774134 0.06605334
000310 1a af b9 3c 2b 54 62 bd 02 3d 49 3d 3a 76 84 3c
       0.022666503 -0.05525605 0.049130447 0.016169656
000320 fb f9 9e be a7 ea 51 3d b8 d7 5d 3d 96 67 6e 3e
       -0.31050095 0.051249173 0.054160804 0.23281702
000330 05 a7 16 3d 5c b5 7d bc d0 02 90 3e 8b 71 51 bd
       0.036780376 -0.015485134 0.28127146 -0.051133674
000340 c6 f6 76 bf 76 95 a2 3d 55 5b 0f be 5f 10 ef bb
       -0.96470296 0.07938664 -0.13999684 -0.0072956528
000350 87 67 97 3c ec 52 87 3d f7 3b 0b be 5c ac 52 bd
       0.018481983 0.06607613 -0.13597094 -0.051433906
000360 97 12 a4 3d ff b8 e6 3b e9 69 a3 3d f2 a6 e7 bd
       0.08011358 0.007041096 0.07979185 -0.11311139
000370 ef 10 35 3c b9 e6 c4 bc ed b0 f5 bb 59 b5 3e bc
       0.011051401 -0.024035798 -0.007497898 -0.011639916
000380 34 24 6a bb 3d bc 13 3c 7a 4d 19 bb 66 12 b7 3c
       -0.0035727145 0.0090170475 -0.0023392127 0.02234764
000390 05 b4 30 bb 62 bd a2 3c a0 bb 24 3d 0a a0 75 3c
       -0.0026962769 0.019865695 0.040217996 0.01499177
0003a0 5d fb 17 bd 79 73 31 3d ce 28 46 3c 06 e8 4c bc
       -0.037104953 0.043323014 0.0120946895 -0.012506491
0003b0 7f 1c 74 3c 6b ca e3 3c e3 90 ba ba 79 a3 bd bc
       0.014899372 0.027806481 -0.0014233853 -0.023149239
0003c0 d9 e8 93 bd b9 12 42 3d 44 3b e1 3c ef 89 d6 3d
       -0.072221465 0.047381137 0.02749408 0.104755275
0003d0 a7 1e ab 3d 7b d5 c5 3d bc 69 94 be 19 aa 11 be
       0.08355456 0.09659859 -0.2898692 -0.14225043
0003e0 98 a5 57 be 4b 74 58 3b 2a 92 64 bc ac b5 9a bd
       -0.21059263 0.00330283 -0.013950864 -0.075541824
0003f0 55 15 e1 3d b4 e1 e1 3e 1b 6b 25 be b9 e2 f4 3d
       0.10990397 0.4411751 -0.16154139 0.119573064

dec_shared.bias f4 [100]
000000 21 b5 eb 3c bd d8 ef 3d 3a 0e 03 3a 3d f3 5f bd
       0.028772892 0.117112614 0.00049993733 -0.05467533
000010 0e 81 ac 3e ac d3 53 be 99 83 a6 bd 4f a5 3b bb
       0.3369221 -0.20686215 -0.08130569 -0.0028632467
000020 25 60 78 3e 41 a8 45 3e cd 27 7c 3e 36 8d 0d 3e
       0.24255426 0.19302465 0.24624558 0.13823399
000030 d1 d0 8a b9 80 9d 35 bf 54 0c 18 be 4d e5 16 bf
       -0.00026476991 -0.7094345 -0.14848453 -0.58943635
000040 f4 e4 1b 3f bb ae bb be 26 ea ab bd 44 a8 9b bd
       0.6089623 -0.36656746 -0.0839427 -0.076004535
000050 c0 f4 f2 be 7e cf 06 be 07 f4 4a 3a 79 66 c1 3e
       -0.47452354 -0.1316509 0.00077420514 0.37773493
000060 5f c7 8b 3e 65 eb 8d 3e fb 73 50 bd 56 19 c7 3e
       0.27300546 0.27718654 -0.050891858 0.38886517
000070 ee 6b 6b bc 5d 6f 08 3f 08 15 56 3e ab 2e d0 3e
       -0.014368994 0.53294927 0.2090646 0.40660605
000080 81 77 97 3d 41 6d d8 bc 4b 5c b7 3e e9 8c 40 be
       0.073958404 -0.026419284 0.358126 -0.18803753
000090 f3 e9 01 bd 57 9b 16 3d ea b6 a7 ba d0 df b4 bb
       -0.031717252 0.036769237 -0.0012795602 -0.0055198446
0000a0 ed 7d 0b 3f 9c 2c 09 3f 72 b7 ac 3d 01 79 b1 be
       0.5448902 0.53583694 0.08433427 -0.3466263
0000b0 f2 fb 0c bc 21 69 74 be f9 a3 8c bb e2 fa dd 3b
       -0.00860499 -0.23868228 -0.004292008 0.0067742923
0000c0 d5 ab 80 3b 45 16 b8 be 60 80 89 3e 09 06 9d be
       0.003926734 -0.3595449 0.26855755 -0.30668667
0000d0 ac ef 38 3e 56 aa 7d b8 2d c7 34 3f e8 83 53 3e
       0.18060178 -6.047854e-05 0.7061642 0.20655787
0000e0 cc a2 68 bc 25 db d8 3d 32 98 3f 3b eb e3 ba 3d
       -0.01419897 0.105886735 0.0029235003 0.09125503
0000f0 b7 1e eb be 2d ae 13 3c 0d 76 d4 bd 18 f7 0e bf
       -0.4592187 0.009013695 -0.10374079 -0.55845785
000100 c1 42 48 bd eb 1b 16 3c 15 11 88 be 11 4d d8 3e
       -0.048891786 0.00916193 -0.26575533 0.42246297
000110 41 d6 fc 3c 05 b8 42 3e 02 a4 db be 23 e5 75 bb
       0.030863883 0.1901551 -0.42898566 -0.003752061
000120 91 e2 be bc d1 35 18 3d a0 af 9d 3e 89 24 c0 3e
       -0.023301395 0.0371607 0.30798054 0.37527874
000130 fc c8 4f 3a 35 a5 09 3e 56 61 44 3d bd bf 12 bb
       0.00079263723 0.13441928 0.04794439 -0.0022392117
000140 5b ab ec be 86 41 13 bb 5e 95 b3 3b 88 c3 fc be
       -0.46224484 -0.0022469475 0.0054804524 -0.49367929
000150 5b 8e f0 ba 71 f1 3e 3b 3c e8 c4 be b6 f9 7e 3c
       -0.0018352972 0.002913561 -0.3845843 0.015562465
000160 b6 2b 91 3e ea 77 7d 3e d3 bd 9f 3e 21 fd 87 be
       0.2835366 0.24752775 0.31199512 -0.2656031
000170 87 77 b5 be 97 4c a8 3b 33 89 ea 3d fa 7c 9d 3e
       -0.35442755 0.0051360833 0.1145195 0.30759412
000180 2f 91 e2 3e 09 e7 5a be 3d 64 79 3a ac 38 7c be
       0.4425139 -0.21377195 0.0009513533 -0.24630994

dec_mu.weight f4 [20, 100]
000000 cf 2a 8f bb 6c c7 82 bb 5c c8 95 3c ab c5 5e 3c
       -0.004369117 -0.003991058 0.018284015 0.013596932
000010 64 2e 04 bd 6f db 5c 3c 7a 99 9d bb d2 47 94 bb
       -0.032270804 0.013480051 -0.0048095556 -0.004525163
000020 ff 6c 83 3c 1c 02 02 bc 03 c6 86 bc fc b5 2d 3d
       0.016043184 -0.007935073 -0.016451841 0.042409882
000030 25 8a 96 3c 0a 76 be 3b 28 ae b3 3c a0 57 81 3c
       0.01837642 0.005812411 0.02193363 0.015788853
000040 63 07 04 be 4e fd 06 bc 6e 3a c2 ba 45 a2 be bb
       -0.12893443 -0.0082391035 -0.0014818439 -0.005817684
000050 8c bf c5 bc 88 3d 60 bb 25 be 8c 3b 40 69 7b bd
       -0.024139188 -0.0034216363 0.004295128 -0.06137967
000060 9c cf 88 bb 8d 06 1b 3b 1e 99 b5 3b 8c f5 4d bd
       -0.0041751396 0.0023655028 0.0055419346 -0.050283
000070 7c b3 b3 bb 3e 5c df bc 8f 7c 73 3c 9d 27 7b bd
       -0.0054840427 -0.027265664 0.01486124 -0.061317075
000080 ef fd 89 bb 25 51 d7 b8 92 11 44 bd b6 ad 7d bb
       -0.0042111794 -0.00010267113 -0.04786832 -0.0038708276
000090 fc 29 eb 3b 60 58 74 3c da 00 2c bb 59 65 99 3b
       0.007176636 0.014913648 -0.0026245625 0.004681271
0000a0 c0 8b 02 be d6 5a 60 b9 24 a1 04 bb cb 6b 62 3d
       -0.12748623 -0.00021396144 -0.002023765 0.05527858
0000b0 43 46 4e bb de 09 fa 3b c2 81 a3 ba 24 97 9e 3c
       -0.0031474985 0.007630571 -0.0012474584 0.019359179
0000c0 23 77 93 3b dc d0 0c 3d 94 3f bd bb a3 8f c1 3c
       0.004500286 0.03437887 -0.0057754014 0.023628062
0000d0 e0 9e 25 bb bc ff 31 bb fd ac 2c be 35 7b c7 bc
       -0.0025271699 -0.0027160486 -0.16862865 -0.024350742
0000e0 02 3f 20 39 5a 5a 1d bb 2d 04 54 3a c5 6d 2d bc
       0.00015282261 -0.0024010153 0.00080877804 -0.010585253
0000f0 79 f7 f2 3c f9 31 9a 39 ae 7e b4 ba 37 b2 c0 3c
       0.02965902 0.00029410401 -0.0013770664 0.02352248
000100 98 98 58 3a df 76 9d 3b 3e 0e 73 3c c5 e6 17 bc
       0.00082624843 0.0048054303 0.014834939 -0.009271328
000110 46 9e 83 bb 41 ed 86 bc 28 0b 53 3c 5f 5e e4 b8
       -0.0040166704 -0.016470553 0.012881078 -0.00010889465
000120 aa d1 d2 39 23 fa 2e 3c 51 ac 5a bc 33 05 95 bb
       0.00040210533 0.010679754 -0.0133467475 -0.004547739
000130 6b 6e 5a 3b 8f 85 20 bc 53 9a 25 bb 69 de 4c bb
       0.0033329974 -0.009797468 -0.0025268986 -0.0031260496
000140 f1 52 cf 3c 52 be a2 bb 20 06 a9 39 b2 cc a7 3d
       0.025308104 -0.0049665356 0.00032238755 0.081933394
000150 ef 26 c2 3a 4d 6d 6a bb f2 3d 93 3d db e3 8a 3b
       0.0014812629 -0.0035770715 0.071895495 0.0042385883
000160 44 90 c0 3c e8 8a ae bc 62 f3 2b bd 85 c6 b8 3b
       0.023506291 -0.02130647 -0.041980155 0.0056388997
000170 57 28 1f 3c 27 57 c3 3b 4d 4b 0e bc 39 e3 9a bc
       0.009714208 0.005961317 -0.008684945 -0.018907176
000180 4f 61 92 bd cd 95 aa 3c 23 79 b8 b7 16 bc 2e 3c
       -0.071474664 0.020823384 -2.1990918e-05 0.01066496
000190 6a c7 88 3c 1a 72 49 bd 6f 00 ad bc 6c 8a 17 3e
       0.01669665 -0.04918108 -0.02111837 0.14798898
0001a0 75 fb 20 3d be be 15 bd 62 48 33 bd 86 f3 cd bc
       0.039302308 -0.03655886 -0.0437702 -0.025140535
0001b0 9f 05 c6 3d ac b0 50 3e 6f be ef bd 7d e0 22 be
       0.09669041 0.20379895 -0.11706244 -0.15905948
0001c0 cf f5 41 3c 39 60 ac 3d 11 e3 c1 bd 78 e7 2c 3c
       0.0118383905 0.084167905 -0.094671376 0.010553233
0001d0 e3 80 31 bd c5 16 81 bd cc c3 09 bd 13 35 ef 3d
       -0.043335807 -0.06303171 -0.033633992 0.11680045
0001e0 48 2e 12 bd 8f 7f 7b 3d bf ca 1b 3d 3e 66 c9 3d
       -0.03568867 0.061400946 0.03803515 0.09833954
0001f0 0a 8c c0 3c 1f db 80 3e 22 fa 14 be df 06 b3 3d
       0.023504276 0.25167176 -0.14548543 0.08741545
000200 03 fe 0b 3d 81 fc 6f 3e d1 fa 3d bd ef ae ac bb
       0.03417779 0.23436166 -0.046381775 -0.005269877
000210 45 95 ea 3d c7 8b 02 3d fa e2 0b 3c b4 50 54 bc
       0.11454252 0.031871583 0.008538002 -0.012958694
000220 3f af b0 bd 3d 51 59 be a6 d4 63 bc 09 b5 09 be
       -0.086271755 -0.21222396 -0.01390568 -0.13447966
000230 d0 f8 aa 3d 6a 26 24 3e 6d d6 a9 bc ed 6a 90 3d
       0.083482385 0.16030279 -0.020732129 0.070516445
000240 80 80 86 3d dd 50 87 3d ab 4f 60 bc 0a ef 2c bd
       0.06567478 0.0660722 -0.013690869 -0.042220153
000250 73 81 43 3d 6d 71 a5 be 2d 56 0e bd 9f 55 b4 be
       0.047730874 -0.323131 -0.034750152 -0.35221574
000260 88 af a5 3b ec 09 9c bc b2 9c 14 bd 86 6a a6 3d
       0.0050563253 -0.0190477 -0.03628225 0.081257865
000270 32 59 2d bd 1c 53 4e bc f2 89 18 3d 23 ef ac 3d
       -0.04232139 -0.012593057 0.03724093 0.08444049
000280 00 2d a2 be cb 72 32 bd 00 59 d8 3d f2 8a a1 3e
       -0.31674957 -0.043566506 0.105638504 0.3155132
000290 00 35 6a bd 58 bb 6d bd 0f 65 23 3d 63 09 8e 3b
       -0.05717945 -0.058039993 0.0398913 0.004334615
0002a0 bf a8 bf 3d f8 77 08 3e 95 25 03 3e a9 44 43 bd
       0.09358358 0.13327014 0.12807305 -0.0476729
0002b0 bc a3 5e 3d 6c 65 c3 bd 33 53 91 be ba 14 9d bd
       0.054355368 -0.09540829 -0.28383788 -0.07669969
0002c0 24 89 7f bc ff 69 1d 3d bd 14 7c bd 22 68 87 3d
       -0.015596662 0.038431164 -0.061543215 0.06611659
0002d0 8f e9 e5 bd fb d9 8e 3d f7 d2 2e 3d 73 75 ec bc
       -0.112261884 0.0697517 0.04268166 -0.028864598
0002e0 8e 26 9f 3d 0d e8 89 bc f1 78 ca 3d 73 6e f6 3a
       0.077710256 -0.016834283 0.09886349 0.0018801227
0002f0 59 55 0b 3d fe a5 50 bd 0b c3 87 bd a8 8b ec bd
       0.03401694 -0.050939552 -0.06628998 -0.11550075
000300 a1 d6 54 be 10 22 d9 bd 88 e0 37 3e 4d d7 8b bd
       -0.20785 -0.106022 0.17956746 -0.06828175
000310 d1 6c 17 3d a8 c4 3a bc c7 e4 0a bc f6 da 07 3e
       0.03696901 -0.011399426 -0.008477396 0.1326712
000320 60 d5 49 bd 3c d5 74 bd 26 55 0c 3c 16 8d cc be
       -0.049275756 -0.05977367 0.008565223 -0.3995139
000330 60 09 fa 3c 34 67 87 bd 38 61 9c 3d 52 e6 75 bc
       0.030522048 -0.06611481 0.076357305 -0.015008526
000340 ef b3 02 3e 17 bf 3e 3e 18 93 be bd 30 83 8a bd
       0.12763952 0.18627582 -0.093054 -0.06763303
000350 aa 5b 93 3b e3 7e a0 3d 12 8a 83 3c 22 89 8f 3e
       0.004497011 0.07836702 0.016057048 0.28034312
000360 f0 d8 5e 3d 11 a5 d3 3e 2d 0a 83 bd 8c e7 69 3b
       0.054406106 0.41336873 -0.06398425 0.0035690991
000370 12 63 14 3e c3 07 1d bd b1 e3 4a 3c 95 49 8b 3b
       0.14490917 -0.03833748 0.012383387 0.004250715
000380 3f f3 94 3e 6b 02 91 3d e9 64 a5 3d b9 b2 32 bd
       0.29091832 0.07080539 0.08075888 -0.043627474
000390 9d 55 cb 3b 6d 8b 5b 3e 17 41 21 bc 57 32 c7 3d
       0.0062052743 0.21439905 -0.009842179 0.097263984
0003a0 75 ea 93 3d 72 c2 2e 3d f6 65 ac 3d e6 ac 44 bd
       0.072224535 0.042665906 0.08417885 -0.04801645
0003b0 58 f2 64 3d ed 6f ca bd 1e 5a b8 ba 41 73 ec 3a
       0.05589518 -0.098846294 -0.0014064943 0.001803972
0003c0 7f e2 35 bd 91 3e 61 3e d7 9f 81 bd 9e 3e 5a 3c
       -0.044405457 0.21996523 -0.06329315 0.013320593
0003d0 c6 2f 00 3d 20 d4 94 3e f4 02 bf bb db 93 06 3d
       0.03129556 0.2906809 -0.0058292095 0.03285585
0003e0 eb 32 1c bd 8c 39 a8 3d 8c e9 3f be 83 94 e1 3d
       -0.038134497 0.08214101 -0.18741435 0.110146545
0003f0 36 53 6d be e6 72 20 bd f8 f8 b5 3d 4c ce 0c 3d
       -0.23176274 -0.039172076 0.08885378 0.034376428

dec_mu.bias f4 [20]
000000 51 13 d7 be 86 bd bc 3d 7a 40 83 3d f4 f5 08 3d
       -0.42006925 0.09215836 0.06408782 0.033437684
000010 50 2a 87 3d f0 2d d2 3c 99 ff 19 be e6 4d 3d bc
       0.06599867 0.02565667 -0.15038909 -0.011554217
000020 80 5d 6d 3d 08 4d e8 bc be 74 30 bb 24 6e c8 3d
       0.057950497 -0.028357044 -0.0026925053 0.09786633
000030 8e ae 98 bd 97 88 dd 3d dc f9 09 bd 59 55 b9 bd
       -0.07455169 0.10817068 -0.03368555 -0.09049482
000040 c6 15 43 bc 19 48 70 3d af 8a f6 3b 5b cc a0 be
       -0.011907047 0.058662508 0.0075238566 -0.3140591

dec_log_var.weight f4 [20, 100]
000000 5c 7b 37 be 1a 48 7e be f8 d0 1c 3d e2 bf a4 3d
       -0.17918152 -0.24832192 0.038285226 0.08044411
000010 e5 f7 92 be cd 5b 6e 3e 7b df 85 3e 84 2f 2d 3d
       -0.28704754 0.23277207 0.26147065 0.042281643
000020 e8 a5 8f be 72 45 0e be 7f b2 ad be 36 98 93 bd
       -0.28056264 -0.13893679 -0.33925244 -0.07206766
000030 6d c5 a4 bd 2d 25 a6 3e 00 0b 4d 3e 98 af 7a 3e
       -0.080454685 0.32450238 0.20023727 0.24481046
000040 bd 47 b3 be 38 d6 27 3e 7d 7b 8a 3e 54 0e 70 3e
       -0.3501567 0.16390312 0.2704734 0.23442966
000050 f3 d7 82 bd f4 1b 78 3e 81 01 59 3d b1 19 cb be
       -0.06388845 0.24229413 0.05297995 -0.39668038
000060 8b bd 64 be 2c 06 4c be 09 d4 4d 3e c8 59 c2 be
       -0.2233793 -0.1992423 0.20100416 -0.37959123
000070 4b 17 db 3d 56 a9 57 be af 66 7a be 0b 12 b4 be
       0.10697802 -0.2106069 -0.24453233 -0.35170016
000080 d8 90 70 be 6e b4 0c 3e 21 00 df be 0c 09 91 3e
       -0.23492754 0.13740703 -0.43554786 0.28327215
000090 58 3e 27 3e 58 5d 7a 3d 4b f6 ba 3a 94 5b 2e bd
       0.16332376 0.061124176 0.0014264075 -0.042567804
0000a0 73 00 d0 be f4 6a 67 be 39 f6 74 be 34 be c2 3e
       -0.40625343 -0.22599393 -0.23922051 0.38035738
0000b0 31 08 f4 3d 81 99 8d 3e cb 73 1d 3c 4a 54 8d 3c
       0.11915625 0.27656177 0.009610127 0.017252106
0000c0 e6 f9 48 3c 6e 1a a2 3e 75 ef 6d be 40 71 ed 3d
       0.012266612 0.3166079 -0.23235877 0.11593866
0000d0 60 df 89 be 78 ec 8c 3c 5d 72 ef be f5 6b 91 be
       -0.26928234 0.0172026 -0.4676694 -0.28402677
0000e0 a8 d6 1a 3e 3c fc 6c be bf ea ac bc 17 18 64 be
       0.15120947 -0.23143095 -0.02110803 -0.22274815
0000f0 fa ce 4a 3e ff 37 04 be f1 e8 20 3e 13 ad e9 3e
       0.19805518 -0.12911986 0.1571386 0.45639858
000100 16 89 61 3e 59 0e 2d bd b0 ae 09 3e ea 27 31 be
       0.2202495 -0.04225001 0.13445544 -0.17300382
000110 96 f8 f7 bb 47 55 8f be 4d fb 06 3e c6 1e 0e 3e
       -0.0075674755 -0.2799475 0.13181801 0.13878927
000120 bf 22 04 3e 85 59 02 3e a4 d9 a3 be d5 29 07 be
       0.1290388 0.12729461 -0.32001984 -0.13199551
000130 c2 c9 0b 3c 2b e9 19 be ef 64 47 be 9e 48 76 3d
       0.0085319895 -0.15030353 -0.19472097 0.060127847
000140 ad 27 be 3e 6a 12 dd 3c 70 f9 5d bd 5f 85 ca 3e
       0.37139645 0.02698632 -0.05419296 0.3955488
000150 71 e0 0f 3d 4e 73 d8 3d 59 cb e6 3e cb 8a 06 be
       0.035126153 0.105688676 0.45077017 -0.13138883
000160 65 dc 1a be ef e3 ce be 31 c8 d5 be 19 84 85 3e
       -0.15123136 -0.40408275 -0.41754296 0.26077345
000170 c0 cf 31 3e 6e 03 7d 3d c9 18 f8 bd 8e e6 ed be
       0.17364407 0.06177085 -0.121141024 -0.46464962
000180 2a c8 d9 be 3a fe e7 3e e6 4f 34 3d 38 68 66 3e
       -0.42535526 0.45311147 0.04402151 0.22500694
000190 c8 6f d2 bd 84 3b 0e bc 0f 20 e0 bc 99 c3 b8 bc
       -0.10275227 -0.008681182 -0.027359037 -0.022554206
0001a0 f3 58 40 bd bd 72 0c 3e 1f a0 8c bc 9e da 1b 3c
       -0.04695983 0.13715644 -0.017166195 0.009512572
0001b0 bb d5 1e 3b e9 ab 0b bd 66 33 f7 bd 61 d5 cf 3d
       0.002423628 -0.034099493 -0.1207035 0.10148121
0001c0 2b 91 af 3d ca 7a ce 3e 3f a0 fe 3d 3a 79 ab be
       0.085726105 0.40328056 0.12432908 -0.33490926
0001d0 79 f4 82 be 3f ad 72 be 78 6f 3e bd d3 05 7f 3c
       -0.25577143 -0.236989 -0.046493024 0.015565353
0001e0 c0 a8 0a bf aa 69 8f 3c b0 00 9c 3c 6d 18 92 bd
       -0.5416374 0.01750644 0.019043297 -0.07133565
0001f0 03 83 9f bd b6 08 6d bd 1f 9b 44 3e e0 27 02 be
       -0.077886604 -0.057869636 0.19199799 -0.12710524
000200 13 d0 26 be 72 f3 83 be 62 cd 60 3d 25 52 b3 bd
       -0.16290312 -0.25771672 0.05488337 -0.08755902
000210 f6 8c 41 bd 51 03 c6 3d 0f a1 c4 bd d2 fc d6 3c
       -0.04725357 0.09668601 -0.09601032 0.026243601
000220 69 45 f3 3d f5 a9 60 bd cc 7f 99 bc 5e 72 4d 3d
       0.11878473 -0.054849584 -0.018737696 0.050157897
000230 fc c5 80 be d1 64 9c be 17 54 1a be 9c 7c 1b 3e
       -0.2515105 -0.30545667 -0.1507114 0.15184253
000240 06 40 11 bc 99 cd f3 3d da fe ee bd c8 ad 97 bc
       -0.008865362 0.11904449 -0.11669703 -0.018515483
000250 23 e5 07 3e b3 ef d8 3d 7c c8 0c 3d 28 a0 31 3c
       0.13271002 0.10592594 0.034370884 0.010841407
000260 09 78 c5 bd 29 f3 0c 3e e7 f9 8f be 37 93 c1 bb
       -0.096420355 0.13764633 -0.28120348 -0.005907442
000270 dd 35 39 3e d3 14 00 3d cb ce 94 3d b3 ba 98 bd
       0.18086953 0.03126986 0.07266005 -0.07457485
000280 95 5c e0 bd 33 1e 06 bd fd 3a a8 3d f8 65 03 3e
       -0.109551586 -0.032743644 0.08214376 0.12831867
000290 8d 5a ae 3c 0f b5 62 bd d6 88 f7 3d 80 63 1b be
       0.021283412 -0.055348452 0.12086646 -0.15174675
0002a0 1a 55 08 be b7 b5 74 be 86 74 24 3e 49 7c 4c 3d
       -0.13313714 -0.23897444 0.16060075 0.049923215
0002b0 0b 63 9a 3d f7 aa e0 bd 22 bb 13 3d da 3d 8c 3e
       0.07538422 -0.10970109 0.036067136 0.2739094
0002c0 05 a1 ca 3c a0 7d ec 3d b3 12 8c bd 26 7b 3d 3d
       0.024734983 0.115473986 -0.06839504 0.04626002
0002d0 c6 9e 97 3e 93 41 4d 3c 6c f6 af bd ae 3e 58 3e
       0.29613322 0.012527841 -0.08591923 0.2111766
0002e0 d9 22 ca bd 7c 59 6d 3d 4c f6 81 3d 6e 61 71 bd
       -0.09869928 0.057946667 0.063458055 -0.058930807
0002f0 76 1d 6b bd 52 a7 25 be bb a1 ad bd 96 2c 28 3d
       -0.057401143 -0.16177109 -0.08478113 0.041058145
000300 88 8f 79 be 36 6f 48 bd 0c 4f 17 be fc 58 8d 3d
       -0.24371159 -0.048934184 -0.14776248 0.06901738
000310 74 2c 9d be d5 ab e0 3d 55 fb b9 bb 36 3a dd 3d
       -0.30697978 0.10970274 -0.005675713 0.108021185
000320 ff c0 4c bd 0d 79 7a bd 3c 22 23 bc b0 36 1e 3e
       -0.049988743 -0.0611506 -0.009956893 0.15450549
000330 a2 01 07 be c1 21 14 3e 89 7b 18 3e 5c 1a 0d 3e
       -0.13184217 0.14466001 0.14890875 0.13779587
000340 0f 14 9c 3d a5 73 90 bd ef ab 1e be 1a 95 bf 3d
       0.076210134 -0.070533074 -0.15495275 0.09354611
000350 b0 ee 36 bd 74 bf 1e 3e bd ec 79 bd 1f 44 79 be
       -0.044661224 0.15502721 -0.061016787 -0.24342392
000360 fe ed 27 3d 89 e1 79 3e 5f e7 4c 3e 98 a0 97 3d
       0.04099845 0.24402441 0.20010136 0.07403678
000370 7f ba ca bd fe 4d c6 bd 2b 27 d2 bc 88 47 3f be
       -0.098988526 -0.096828446 -0.025653442 -0.18679631
000380 68 55 d3 38 df bb 75 3e 3d 11 97 bb 9e d9 86 be
       0.00010077172 0.23997448 -0.0046102093 -0.26337904
000390 3b cc 35 bd ae de 89 3e cd ae cd bd f0 14 4f be
       -0.044384222 0.26927704 -0.10043106 -0.20222831
0003a0 00 2f e2 bd 66 f4 a9 bd 82 04 2b be 9e d3 97 3d
       -0.11044121 -0.082985684 -0.16700938 0.0741341
0003b0 cd 6a b4 3c d8 c2 eb bd 0a 2d 9d 3c eb b4 97 bc
       0.022023583 -0.11511773 0.019186515 -0.018518886
0003c0 f7 5a 69 be 93 45 15 be 81 78 11 be b4 a7 97 3e
       -0.22788607 -0.14577322 -0.14206125 0.29620135
0003d0 2f 48 21 bc 71 8e 7d bc 07 9e 98 3c ad ef 2e bc
       -0.00984387 -0.015475855 0.01863004 -0.01067726
0003e0 c4 5c 4d 39 ae 50 81 3e f7 a2 ca bd 44 ab 30 bd
       0.00019584881 0.25256866 -0.09894364 -0.04313208
0003f0 35 4f 8c 3d 07 ea 29 bd ff b6 7f be fb 65 63 3d
       0.06851045 -0.04148295 -0.24972151 0.055517178

dec_log_var.bias f4 [20]
000000 7a 7d c0 be d9 6e 1d be fa e6 87 be ce fd af be
       -0.3759573 -0.15374316 -0.2654341 -0.34373325
000010 0f 36 11 be 3c e0 81 be 18 e6 6a be 06 4d 68 be
       -0.14180778 -0.2536639 -0.22939336 -0.22685632
000020 71 b3 66 be ab 4b 56 be a5 04 9b be 6d 5a 25 be
       -0.22529389 -0.20927303 -0.3027698 -0.16147776
000030 b4 a3 80 be 2a 67 a6 be 72 b1 b2 be dc 04 42 be
       -0.25124896 -0.32500583 -0.34901005 -0.18947166
000040 98 32 14 be b8 d1 56 be b1 0b 14 be 4b 98 d4 be
       -0.14472425 -0.20978439 -0.14457585 -0.4152244
