vae/saved_models/fixed_endpoints/fixed0.0_nepochs200_lr0.01_N30_n1000_b138_s10.pt (torch, 157113 bytes, 36 tensors)

enc_shared.weight f4 [100, 30]
000000 1b ad aa 3e 5e 9d f1 3d 63 63 d1 bd 5c af 02 3d
       0.33335194 0.117975935 -0.10224035 0.031905517
000010 dd a1 a9 3d f9 df 0c 3e 15 02 4a bd 19 03 1f bb
       0.08282826 0.13757314 -0.04931839 -0.002426332
000020 15 51 6d bd 45 9e bf 3d 92 6d b1 bc 4d e4 13 3e
       -0.057938654 0.093563594 -0.021658693 0.14442559
000030 ea f8 66 be 7c 97 c4 3c 9a 6e 85 3e df 33 50 3e
       -0.2255589 0.023998015 0.26060945 0.20332287
000040 20 9c 77 be ab ee 38 3e ed 56 76 be 4c fc b6 3d
       -0.2418065 0.18059795 -0.24056597 0.089348406
000050 f9 5a 86 bd 3c 59 04 3d 7f 17 44 3d 2c f0 3c be
       -0.065603204 0.032311663 0.04787397 -0.18450993
000060 ac d5 1d be a8 a7 0b 3e ff 28 18 be 0d b6 dc bc
       -0.1541354 0.13638175 -0.14859389 -0.026942277
000070 96 51 77 be e6 f0 26 3e 77 38 4e 3e 87 f2 24 bd
       -0.24152216 0.16302833 0.20138727 -0.040270355
000080 59 e3 37 3e 3b 4a ef bd f8 14 ee 3d de 9f 5e 3c
       0.1795782 -0.1168408 0.11625093 0.01358792
000090 de 4d 3e 3e 39 14 99 bc c0 3c 12 be 22 4d 7a be
       0.18584391 -0.0186864 -0.14280987 -0.24443486
0000a0 2c 60 8e 3d 3a 4c 1b bd f7 7f 1e be 14 bc 7a 3d
       0.06951937 -0.037914492 -0.15478502 0.06121452
0000b0 20 56 f4 3d ea 7c 06 be 2e 07 bd 3c 96 fc 0c bd
       0.119304895 -0.13133588 0.023074713 -0.034420572
0000c0 d5 0f 1c bd 57 f9 73 bd 25 82 01 3e 01 ea 93 bc
       -0.038101036 -0.05956396 0.12647302 -0.018055918
0000d0 4c 90 39 3e 04 55 69 be ec 93 55 bd f1 26 05 bd
       0.18121451 -0.22786337 -0.052143022 -0.03250784
0000e0 86 67 c3 3d 4d 57 0c bd b8 b5 01 be e3 fa a8 bd
       0.0954123 -0.034262944 -0.12666976 -0.08250978
0000f0 18 b9 15 bf d4 de a3 3d ec 56 cb 3c e3 d3 08 3e
       -0.58485556 0.080014855 0.024821721 0.13362078
000100 d7 30 ec bd a1 8a 08 bc c5 6e fc bd 93 1e f2 bd
       -0.11532753 -0.008333833 -0.12325815 -0.11822238
000110 75 8c 37 bd 3d 02 82 3c 71 ea 13 3e 2f 85 3a 3c
       -0.044811685 0.015870208 0.14444901 0.0113842925
000120 97 c6 cc bd 2d cf 44 3d 67 1b 1e 3e 80 e5 14 be
       -0.099988155 0.04804914 0.1544014 -0.14540672
000130 ea af 73 3e ad 6e 42 be 68 a3 a2 bd 45 f8 57 3e
       0.23797575 -0.18987532 -0.079413235 0.21090801
000140 f0 7a b1 bd 6e a5 6b 3e 4a db 73 be c7 ec 88 bd
       -0.086660266 0.23012325 -0.23814121 -0.06685787
000150 58 db 00 3e 41 b1 47 3e e4 16 16 be 5d 04 13 3e
       0.12583673 0.19501211 -0.1465717 0.14357133
000160 e9 ff 22 bd 4c 8b fd be 2a f5 fd 3e 0b 50 66 bd
       -0.039794836 -0.49520338 0.49601108 -0.05622868
000170 40 52 31 bd e3 a6 9d 3c 7f 69 b2 bc 1c fb 28 3c
       -0.04329133 0.019244617 -0.02177882 0.010313775
000180 46 79 99 bd a3 7a 83 3d c8 7d 04 bd d6 82 12 3d
       -0.07493834 0.064198755 -0.032346517 0.035769306
000190 57 e5 a2 bd 5c 4d 3a 3e b7 bb 82 3c e2 a7 9e bd
       -0.07953899 0.18193573 0.01595865 -0.07746865
0001a0 e7 8f ab bc 7a 79 2c bd f3 7c ce bd e7 61 bc bd
       -0.020942641 -0.042108037 -0.10082426 -0.09198361
0001b0 97 72 49 3e ab a5 54 bd 20 f7 43 3e cd 48 4a bd
       0.19672619 -0.051915806 0.1913724 -0.049385834
0001c0 eb f0 c9 3d c1 44 2c be 65 a2 4c bc ec 44 c0 bd
       0.098604046 -0.16823103 -0.01248989 -0.09388146
0001d0 8f b9 74 be 38 3c df 3d 05 eb 34 3e 33 df a8 3e
       -0.2389891 0.10900158 0.17667778 0.32982787
0001e0 cf 14 df bc 39 ec c8 bc bc 5e e2 bd 42 c9 ad bd
       -0.027231602 -0.024526702 -0.110532254 -0.084856525
0001f0 06 92 64 bc a9 59 99 3d c3 f7 ad bd f0 2d d7 3d
       -0.01395083 0.074878044 -0.084945224 0.10506809
000200 85 1f ab bd d7 2d 6f 3d 1e 6f 83 3e 60 d1 bb bd
       -0.08355621 0.058393326 0.25670713 -0.091707945
000210 61 41 7a 3c c3 1d 98 bc a2 54 5c bc 61 04 5d bd
       0.015274377 -0.018568879 -0.013447912 -0.053959254
000220 fc 18 8d 3d 3a 7c 8a 3c 3e 06 16 3d 60 be a6 3d
       0.06889531 0.016904939 0.036627047 0.0814178
000230 4d 8d 5e 3c 19 76 7a 3d 60 0b 7d bc 47 be 9c 3d
       0.013583493 0.061147783 -0.015444607 0.0765348
000240 3b fc 1f be 47 6c 37 be c9 2a 82 3e 88 05 84 3b
       -0.15623562 -0.17912398 0.25423267 0.0040289797
000250 5b 81 b7 bd 4f ce fb bc db d2 14 3f 28 e8 0f 3d
       -0.089602195 -0.030738024 0.5813424 0.03513351
000260 3c 73 8e bd 74 49 a8 3d e2 b6 9b 3d 82 78 70 3c
       -0.06955573 0.08217135 0.076032415 0.014677169
000270 a7 fa 57 3d 62 72 2c 3d f2 df f7 bd 8c a5 8c 3d
       0.052729275 0.04210127 -0.12103261 0.06867513
000280 a0 bf 0c 3e 1d 8b 69 3e 2f 20 8b be d3 64 59 3e
       0.13744974 0.22806974 -0.27172992 0.21229868
000290 36 61 2c 3e 06 eb 85 be ba 09 95 be 15 89 6f be
       0.16833958 -0.2615587 -0.29108983 -0.23392136
0002a0 f5 49 80 bc 17 15 53 be c8 32 51 3e 0e c3 8e 3a
       -0.015660265 -0.20613514 0.20429528 0.0010891871
0002b0 f3 fd 1a be e3 93 4d bc 7c 9b 07 3d 63 8b 61 3d
       -0.15135936 -0.012547466 0.033107266 0.05506457
0002c0 bf fc 01 be 32 61 4b be dd 49 0f 3e 35 03 be 3e
       -0.12694071 -0.19861296 0.1399302 0.37111822
0002d0 99 c3 09 be b8 32 1c bd 1b 0d 93 bb a9 57 1c 3e
       -0.13453521 -0.038134307 -0.0044876463 0.15267815
0002e0 92 d8 1c 3e 31 12 41 be 2b eb 04 be f7 3d 07 bd
       0.1531699 -0.18854596 -0.12980334 -0.03301808
0002f0 91 62 96 bd 3e 81 a0 3c 7a 87 8e bc f0 13 16 3e
       -0.07343019 0.019592877 -0.017398585 0.14656043
000300 a7 19 03 3d 2b 40 ad bc c5 29 e0 3d d1 67 b2 bd
       0.032006886 -0.021148762 0.10945467 -0.08711208
000310 e4 03 19 3e 99 78 d8 bc e3 b9 8c 3c 2b b1 ee 3d
       0.1494289 -0.026424693 0.017178481 0.11654886
000320 44 ce 0a 3c 88 2d 45 bd 33 cc 0b bd 29 c4 ed bd
       0.008472029 -0.048139125 -0.034130286 -0.1160968
000330 9b 89 11 be d2 b2 85 be 97 8f 84 3d 2e 72 76 3d
       -0.14212649 -0.26112992 0.064727 0.060167484
000340 74 07 3d be 52 de 85 be 0b 6d 6c be ba 57 85 3e
       -0.18459874 -0.2614618 -0.23088472 0.26043493
000350 5f d6 e4 3d 6d 1c c6 bd 8d a5 23 bd a3 1a 3f 3e
       0.111737005 -0.096733905 -0.039952803 0.18662505
000360 53 80 dd bd 4a c4 9c 3e 55 fa 10 3d 17 30 28 3e
       -0.108154915 0.30618507 0.035394985 0.16424595
000370 67 32 32 3e fa df 28 bd bc 2f a0 bd 8e a5 a5 bd
       0.1740204 -0.041229226 -0.078216046 -0.08088218
000380 fa 9e 00 be 42 11 41 3d 10 86 8f 3d 4d 36 13 3e
       -0.12560645 0.0471356 0.07007992 0.14376183
000390 97 23 44 be 83 76 6d 3e 65 99 18 3c 83 1c a2 3c
       -0.19154201 0.2318974 0.009313916 0.019788986
0003a0 6f 09 8f 3d 3d 0b 7a 3d ac 6c 38 be 53 25 ad 3d
       0.06984221 0.061045874 -0.18010205 0.08454385
0003b0 d9 0c 34 be 5d 13 5c bd 00 60 28 be 93 b0 35 3d
       -0.17583026 -0.053729404 -0.16442871 0.044357847
0003c0 58 99 f7 3b 89 7a 82 3d a3 b5 6d 3e f8 8d d1 3d
       0.007556122 0.06371028 0.2321382 0.102321565
0003d0 f4 51 96 bc 32 ca 19 bd 7a fb 29 be c7 bd 28 3e
       -0.018349625 -0.037546344 -0.16599837 0.16478644
0003e0 e6 b5 47 be 94 a6 c3 3d b3 56 37 3d 4e a8 46 3c
       -0.19502982 0.09553257 0.044760417 0.012125088
0003f0 05 4d 87 bd 26 b3 e0 bd 59 4a 7a be c6 98 8f bd
       -0.06606487 -0.1097167 -0.24442424 -0.07011561

enc_shared.bias f4 [100]
000000 1a 18 14 3e a8 e2 b7 be 7b 6a a3 be 87 6c 7f be
       0.14462319 -0.35915112 -0.31917176 -0.24943744
000010 b2 6c c6 be ed 13 7f bd 15 49 a0 3e cb 7e 99 be
       -0.38754803 -0.062274862 0.31305757 -0.29979548
000020 65 8c c1 3d 14 66 d9 3d bd f8 1e be 88 a5 9a 3e
       0.09450606 0.10615173 -0.15524574 0.30204415
000030 6c 21 a2 3d 8a 43 15 3e ad c3 71 be ff d7 2e bd
       0.07916531 0.14576545 -0.236098 -0.04268646
000040 95 98 ca be 2a c9 9a 3e cc a5 88 3c fe 07 94 bd
       -0.39569536 0.302316 0.01668062 -0.07228087
000050 cd 7b 8c bd 95 ea a2 be 26 91 17 be 3b 9d 08 bd
       -0.068595506 -0.31819597 -0.14801463 -0.03335307
000060 99 22 49 be 87 82 80 3e 1d 2c d3 be be 1c 08 be
       -0.19642104 0.25099584 -0.41244593 -0.13292214
000070 b2 ec f2 3d 96 43 a3 bc 1e 9c 40 3e 61 0b 99 3e
       0.11861552 -0.019929688 0.18809554 0.29891494
000080 96 c6 84 be 11 fa ef bd b3 c1 91 be f8 bf a8 be
       -0.2593276 -0.11717618 -0.28468093 -0.3295896
000090 00 9f a1 3e e6 00 21 3e f2 6a 8c bc 8d fb bb 3e
       0.3156662 0.15722999 -0.01714084 0.36715356
0000a0 30 9e 37 bd 2c 12 6f 3e 97 a7 0b 3d ae f7 51 3e
       -0.044828594 0.23346776 0.034095373 0.20504639
0000b0 a1 b1 ec 3e 57 33 82 be f6 1f a3 be 72 48 97 be
       0.4622927 -0.25429794 -0.31860322 -0.2954746
0000c0 9f 97 1e 3e 60 86 fc 3e 47 f5 53 3c b1 c8 33 be
       0.15487526 0.4932127 0.012936897 -0.17557026
0000d0 89 0f 50 3e 6f a2 a0 be 4e d2 90 3a 33 47 95 be
       0.20318426 -0.31373927 0.0011049004 -0.29155883
0000e0 06 58 e6 bd 28 c1 6c 3e ff e3 17 3d 79 15 c0 3d
       -0.11247258 0.23120558 0.03708267 0.093790956
0000f0 3c 24 a8 3c b7 b2 26 3e 33 79 bf be 1e 60 bf 3e
       0.02052509 0.16279112 -0.37397155 0.3737802
000100 78 20 17 3d 74 a4 91 3e 12 e0 f1 3e 87 4d b0 3e
       0.0368962 0.2844578 0.47241265 0.3443415
000110 47 e8 9f be eb 74 66 be d9 fa 94 3e 65 b2 9b 3e
       -0.312319 -0.22505538 0.29097632 0.30409542
000120 f9 94 87 be 47 9d 21 3e 72 1d 02 be 56 9b 3d be
       -0.26480845 0.15782653 -0.12706545 -0.18516287
000130 1f 0c 4f be f4 95 45 be 86 cd 36 be 2a 6e 13 be
       -0.20219468 -0.19295484 -0.17851838 -0.14397493
000140 b2 7c 05 3e 10 31 56 3e b9 e6 98 3e d3 9c 36 be
       0.13035849 0.20917153 0.29863527 -0.17833261
000150 60 45 dc 3c 93 c9 b0 be eb 88 56 be 3b a3 4b 3e
       0.02688855 -0.3452879 -0.20950668 0.19886486
000160 f6 93 bc 3e 95 44 78 3d 3a d8 4d bd e8 c5 9e bd
       0.36831635 0.06061228 -0.050255038 -0.07752591
000170 08 a4 cb 3c a9 13 1e be 22 93 58 bc d0 ba a0 3e
       0.02485849 -0.15437187 -0.013218673 0.31392527
000180 bf 0b 48 be 4d 44 64 be 68 17 8b be a8 63 af 3e
       -0.19535731 -0.2229168 -0.27166295 0.3425572

enc_mu.weight f4 [10, 100]
000000 b4 d2 c7 bc be 26 89 3d 80 cd 00 3e e4 b9 76 bd
       -0.024392463 0.066968426 0.12578392 -0.060235873
000010 fa 4e 3e 3d 87 e6 6a 3d 49 9b 10 bd 49 39 20 3c
       0.046462037 0.057348754 -0.03530434 0.009779283
000020 fc f4 9a bd 3c 88 03 b9 85 4f 0b 3e f6 97 45 3d
       -0.07566258 -0.00012543885 0.13604553 0.048240624
000030 3f ae 26 3e 3d cd 97 bd 27 3a d7 3d 82 97 5b 3e
       0.16277407 -0.07412193 0.105091386 0.21444514
000040 ae 80 4b bd 37 15 27 3e 15 a6 9f bd 73 1f 5a 3e
       -0.049683265 0.16316687 -0.077953495 0.2130106
000050 53 91 f3 bd 5d 50 7b 3d 4c 5e d9 bd 42 6e 57 bc
       -0.11892953 0.061355937 -0.10613689 -0.013148846
000060 3b 93 df bc 95 9d 1c 3d ef bc 52 bd 61 d5 73 3c
       -0.027291885 0.03823622 -0.051449712 0.014882416
000070 be 83 57 3e f3 c5 34 3d d7 94 57 be ab 71 d3 bc
       0.2104635 0.04413409 -0.21052872 -0.025811037
000080 0a 3e 28 3c de 68 c8 3d a3 47 4b 3b 38 ce 19 be
       0.0102686975 0.09785627 0.003101804 -0.15020072
000090 47 95 66 3b bb 1d 05 bd 10 a2 4c 3d 7f 07 59 bd
       0.003518419 -0.032499056 0.049959242 -0.052985664
0000a0 90 65 97 bc 3b 18 c5 3c c7 86 f1 bd f7 69 fb bb
       -0.018481046 0.024059406 -0.11793285 -0.007672544
0000b0 cd 96 3e bd 85 2a 82 bc ca 3b e2 bb 49 01 02 be
       -0.046530534 -0.015889416 -0.0069041 -0.12695803
0000c0 80 cf 97 bd 64 99 a5 3d da 95 17 be 83 07 c8 3d
       -0.07412624 0.080858976 -0.14803258 0.09767058
0000d0 ef a6 18 3e d9 d8 ce bc 4b cf af 3b 18 97 a9 3d
       0.1490743 -0.025249885 0.0053652874 0.08280772
0000e0 2e a5 97 3d ba 4f 03 be 19 3a e4 ba 1b 97 e1 3d
       0.074045524 -0.12823382 -0.0017412334 0.11015149
0000f0 f1 93 4a 3b d4 0c 77 bc 51 72 9e 3c 4f 93 8a bd
       0.0030910934 -0.015078742 0.01934162 -0.06766378
000100 97 4e 0f be 41 ed e0 3c 01 58 32 3d 32 03 45 be
       -0.13994823 0.027456881 0.04354096 -0.192395
000110 65 2b ae 3b 2d 6d d7 3b 6e fa d2 bd f0 e7 05 bd
       0.0053152316 0.006574294 -0.10301672 -0.032691896
000120 0b 3d d7 bd 1f af 51 bc 1c a0 b8 3d 71 bb 6b be
       -0.1050969 -0.0127981 0.090149134 -0.23020722
000130 54 d7 98 3c 39 22 0c 3c 84 a6 93 bd 51 b0 2f be
       0.018657364 0.008553081 -0.07209495 -0.17157103
000140 de bf ea bd f7 16 08 bd 53 57 5c 3b a3 3d d7 bc
       -0.11462377 -0.033225026 0.0033621385 -0.026274508
000150 34 d2 e3 3d c3 56 02 be b9 3b e5 bd 86 53 23 3d
       0.111240774 -0.1272841 -0.11193032 0.039874576
000160 31 2c b3 bc ae 1c 57 bd 36 1f cc bd 6a 83 47 bb
       -0.021871658 -0.052517585 -0.099668905 -0.003044332
000170 a3 20 40 3e 3d 39 72 bd 49 57 05 bd fe c5 05 3e
       0.1876245 -0.059136618 -0.032553945 0.1306381
000180 f7 a7 1a bd 93 22 1f 3d 8e 36 bb 3d 92 07 f0 3c
       -0.03775784 0.038851332 0.09141265 0.029300485
000190 8d d1 ad bd cf 90 17 be 1d c1 ee bc f2 bc f8 3d
       -0.08487234 -0.14801334 -0.029144818 0.121454135
0001a0 d5 bc 39 bd bd b4 98 bb d3 94 58 bd be c1 5d 3d
       -0.0453461 -0.0046602176 -0.052876305 0.054139845
0001b0 02 c1 3c 3c 81 40 67 3d 31 d7 47 3d 6c ce 00 3d
       0.011520626 0.056458 0.048789207 0.03144686
0001c0 da af eb bd a9 27 f2 bd 5d 7f f5 bd ec 79 0d 3d
       -0.115081504 -0.11823971 -0.11987183 0.034540102
0001d0 f2 52 3c 3d 78 4c 8d 3c fd e1 9c 3c 24 82 56 3d
       0.04597754 0.017248377 0.019150728 0.052370206
0001e0 27 78 d5 3d 28 18 7b 3c 8e 5d 97 3d 97 bf 5c bd
       0.10423308 0.0153255835 0.07390891 -0.05389365
0001f0 07 b7 27 bd 4b 41 61 bd 6c d9 d2 ba 30 e4 18 3c
       -0.040946033 -0.05499391 -0.0016086525 0.009331748
000200 86 24 8e bc e1 62 23 3b d4 df 0f bd 9c 02 a0 bd
       -0.0173514 0.0024930763 -0.03512557 -0.07812998
000210 6f a6 09 3e 13 3d 9e bd c9 9a 94 3d 9e 7b 93 bd
       0.13442396 -0.07726493 0.072560854 -0.072013125
000220 4a 03 0f 3e 7f d4 2f be 3d ce 8b bd ff 7c 79 bd
       0.13966098 -0.17170905 -0.06826446 -0.06091022
000230 d5 bd 45 bd 06 4c 96 3d 0b ae 4d 3d b0 14 ac bc
       -0.04827674 0.07338719 0.05021481 -0.021005958
000240 aa eb 36 bc 90 71 1a bd da 30 9c 3b 1e 78 9e 3d
       -0.011164585 -0.037705958 0.0047665657 0.07737754
000250 46 71 14 bc 20 f8 86 3d 08 b2 ba bb d6 55 4f 3c
       -0.00906021 0.06590295 -0.0056974925 0.012654742
000260 8b 82 04 be 9c af 3a 3c 05 9f 58 bd c5 ec 8a 3d
       -0.12940423 0.011394408 -0.052886028 0.067834415
000270 0e 53 e6 3c 94 0f 16 3c 8d b5 8e bd 37 3e f8 3d
       0.028115775 0.009158988 -0.06968222 0.121212415
000280 41 d2 15 3c 75 25 37 3e 7e 6f b4 3d d1 1a 10 be
       0.009144367 0.17885382 0.08810328 -0.1407273
000290 3a 10 31 bd 24 2c a9 bd a9 14 16 3c 33 1a 08 be
       -0.043228365 -0.08260372 0.009160199 -0.13291244
0002a0 46 3d 01 3d f2 a5 9c bc 4f 31 db bc 7c 17 bb bd
       0.031552576 -0.019122098 -0.02675691 -0.09135339
0002b0 8b d0 b1 bd 60 09 f6 bd 86 40 09 be a8 30 cf bd
       -0.086823545 -0.12013507 -0.1340352 -0.10116702
0002c0 61 cf 13 bd 19 f0 2e bd 8b 35 a0 3d 17 c4 58 bd
       -0.036086444 -0.042709444 0.078227125 -0.05292138
0002d0 47 e7 5a 3d 19 2d 7e 3d f2 80 37 3e 87 98 b0 3d
       0.05344322 0.062054727 0.17920282 0.08622842
0002e0 83 33 d1 bd 24 2a 51 bd 77 a1 c8 bc a3 08 2d 3e
       -0.10214903 -0.05106558 -0.024491055 0.16897826
0002f0 90 fa 30 bd 13 b5 7a 3e 70 aa cb 3d 7f 9e a3 bc
       -0.043207705 0.24483137 0.09944618 -0.019973038
000300 24 59 09 3e d1 bb 16 3d 4d fa 50 3e e3 5a d2 3d
       0.1341291 0.03680021 0.20407982 0.102712415
000310 f3 c5 2f 3e 23 a3 19 3d aa db cc bd 4d 17 bc 3d
       0.17165355 0.037509095 -0.10002835 0.09184132
000320 e8 ae 0a 3e 3d f5 ee 3d 82 2e b6 bb ae 7b 28 3c
       0.13543284 0.11667869 -0.0055597434 0.010283394
000330 e2 70 ac 3c 5e 85 87 bd 8c 7c 42 bd 27 d8 0d 3d
       0.02104992 -0.06617235 -0.04748206 0.034629967
000340 d6 55 95 3d 94 23 96 bc 1b 71 09 3e 54 1e e9 3d
       0.072917625 -0.018327512 0.13422053 0.11382738
000350 52 80 a3 3d 78 23 02 3e a0 0d a1 3d 6d 4c e7 bd
       0.079834595 0.12708843 0.07863927 -0.11293874
000360 a4 83 ae 3c c6 1c ad bd bd 0e f9 bd 83 71 9e bd
       0.021303006 -0.08452754 -0.12161014 -0.077364944
000370 cd 0b 4c bd 54 06 a9 3c b1 c9 d2 3d 13 4a 11 3e
       -0.04981594 0.0206329 0.10292376 0.14188413
000380 73 7d 08 3e 45 80 dd bc 89 63 81 3d 66 05 05 3e
       0.13329105 -0.027038703 0.06317813 0.1299034
000390 1a 3a 95 bd 17 a8 0f 3e f5 9e 99 3d 11 88 b3 bd
       -0.072864726 0.14028965 0.07501022 -0.08766187
0003a0 9e 17 15 bd 37 e8 bb bd 73 1b b4 3d 58 31 90 bd
       -0.036399476 -0.09175151 0.08794298 -0.070406616
0003b0 3d c8 02 be 55 f4 29 be 13 61 63 bc f3 a9 6f 3b
       -0.12771697 -0.16597112 -0.013878125 0.0036569803
0003c0 af b5 d2 3d 8c 72 88 3d 0b 74 2e bd f1 99 99 3d
       0.1028856 0.06662473 -0.042591136 0.07500065
0003d0 da ec f7 bd 4e a3 90 bd e9 c9 c5 bd 36 da fa 3b
       -0.12105723 -0.07062398 -0.09657652 0.0076554073
0003e0 e8 d1 b9 bd fa 5b 6a 3d d6 16 6a 3d d7 5a 91 bd
       -0.090732396 0.057216622 0.057150684 -0.070974045
0003f0 8c 23 08 be b3 b2 29 3e 49 72 4f 3d 23 cd fe 3d
       -0.1329481 0.16572075 0.0506461 0.124414705

enc_mu.bias f4 [10]
000000 12 9a 05 bd dd 13 0d 3d 0b 05 e9 3d 6e 60 b2 bc
       -0.032617636 0.03444277 0.11377915 -0.021774497
000010 8f 91 90 bd 59 0c 89 bc 8a 42 79 bd c8 bb 9a 3d
       -0.07059013 -0.01672952 -0.060854472 0.07555348
000020 f2 77 33 bd 51 e8 b5 bc
       -0.04381556 -0.022205504

enc_log_var.weight f4 [10, 100]
000000 be cf ab bd 6f 43 9b 3e 71 53 6f 3e 4c 94 92 3e
       -0.08389233 0.30324885 0.23371674 0.28628767
000010 4c a8 6f 3e 96 ff ce 3d e3 c1 5f be d5 60 41 3e
       0.23404044 0.10107343 -0.21851306 0.18884595
000020 f4 2c 04 be 82 7a 5b be f9 91 4a 3e 94 a0 0a be
       -0.12907773 -0.21433452 0.19782247 -0.13537818
000030 a5 c5 0b be a0 f8 96 be 7d 90 31 3e fa d4 18 3e
       -0.13649614 -0.2948656 0.17340274 0.14924994
000040 86 5f 9d 3e 33 e5 c5 be b1 55 dd bd 26 48 31 3e
       0.3073694 -0.38651428 -0.1080736 0.17312679
000050 b9 a7 6f 3d 3d ee ba 3e 90 b5 70 3e b4 d2 12 3e
       0.058509562 0.36509886 0.2350676 0.1433819
000060 f5 91 eb 3d e5 9f c0 be 75 31 b6 3e fc 07 bf 3d
       0.115024485 -0.3762199 0.35584608 0.09327695
000070 86 9c 68 be 9e a3 8d bc 9a b4 a6 be 01 6e 57 be
       -0.22715959 -0.017289933 -0.32559663 -0.21038057
000080 c2 3c 80 3e 05 c7 07 3e 3e 6c 8a 3e 73 3f 8e 3e
       0.25046355 0.13259514 0.27035707 0.27782783
000090 2f a8 be be a5 2d 18 3d ed 0c 1b bd 57 b7 c5 be
       -0.3723769 0.037152905 -0.037854124 -0.3861644
0000a0 bc 6f c7 3d 62 d1 2d be 00 6f d9 bd 01 e5 15 be
       0.097381085 -0.16974404 -0.10616875 -0.1463814
0000b0 7f 47 d8 be fa 5f c5 3e 88 0d ad 3e 89 d1 cc 3e
       -0.42242047 0.38549787 0.33799386 0.40003613
0000c0 72 8f b2 be 61 c9 d9 be 19 74 b7 3c 75 65 9d 3e
       -0.34875065 -0.42536452 0.022394227 0.30741468
0000d0 38 e4 70 be 9e 10 f2 3e dc 82 66 3c 85 d8 4b 3e
       -0.23524559 0.47278303 0.014069285 0.19906814
0000e0 83 cb 41 3e ea 1c a5 be 1d 3c 29 be 71 20 19 be
       0.1892529 -0.32248622 -0.16526838 -0.14953782
0000f0 51 d9 9f bd 38 e0 53 be b9 d2 de 3e 0d a5 dd be
       -0.07805122 -0.20691001 0.43520144 -0.43289986
000100 ee f3 a8 bd fb fe b8 be fe 6d c9 be a6 fc 04 bf
       -0.08249651 -0.36132035 -0.3934173 -0.5194801
000110 58 9c a9 3e 89 ce 2b 3e c5 01 68 be 93 cc 3b be
       0.33127093 0.16778006 -0.22656925 -0.18339758
000120 f0 3b dc 3e d1 73 f1 bd fb a1 79 3d 15 58 c7 3e
       0.4301448 -0.11789668 0.060945492 0.3893439
000130 f7 5f 25 3e e2 b2 2c 3e de 07 42 3e f1 13 cb 3d
       0.16149889 0.16865113 0.18948314 0.09915913
000140 cb 33 1b be 7a 4f 84 be de 98 8e be 3e 66 9f 3d
       -0.15156476 -0.25841886 -0.27851003 0.07783173
000150 7d 38 6b bc 74 a6 80 3e 8a 8a 6b 3e bb dc 81 be
       -0.01435673 0.25126994 0.23002067 -0.25363716
000160 0f 48 82 be e4 91 b1 bd a5 9b 3d ba ac d7 4c 3c
       -0.254456 -0.086704046 -0.00072329707 0.012502592
000170 f9 a1 a6 bb b0 7f 68 3c 68 47 78 3d c0 92 ce be
       -0.0050852266 0.014190599 0.060614973 -0.40346336
000180 ad 49 b1 3d 97 be 88 3e 32 bd 90 3e 1e 6b 18 bf
       0.08656631 0.2670791 0.28269345 -0.5953845
000190 24 6c 63 be 31 c7 f2 3e 5f 96 ba 3e 9e 22 f8 3e
       -0.22209221 0.47417596 0.3644285 0.4846391
0001a0 eb 64 7b 3e 26 06 64 3d 2d 24 b1 be 46 5a 98 3e
       0.24550216 0.055669926 -0.34597912 0.29756373
0001b0 1e 58 d9 bd 9c fd 33 be fe f8 80 3e a8 5b 8e be
       -0.1061251 -0.17577213 0.25189966 -0.27804303
0001c0 3b 11 47 be fd be 73 be 97 32 5b 3e 40 a4 4d 3e
       -0.19440167 -0.23803325 0.21406017 0.20082188
0001d0 76 d9 a5 3e 16 35 a8 be 41 6e f9 bc 5c d1 36 3e
       0.32392472 -0.32853 -0.030448081 0.17853302
0001e0 ea 78 8b 3e 26 6d da 3e 0e 46 94 3e 4f 58 f7 bc
       0.27240688 0.426614 0.28959697 -0.030193476
0001f0 c5 84 3f 3e fb 97 8c be 77 bf 71 3e b9 77 92 3b
       0.18702991 -0.27459702 0.23608194 0.0044698385
000200 aa aa 1b be 3a 8f b9 3d e6 6e cc be 30 d8 82 be
       -0.15201822 0.090605214 -0.3992836 -0.25555563
000210 06 7c a9 3e 82 54 1e 3e af 4f 93 3e c3 2a b9 3e
       0.33102435 0.15461925 0.2877173 0.36165437
000220 58 33 a8 be 3e 10 31 be b0 01 bc bc d7 26 e4 be
       -0.32851672 -0.17291352 -0.022950023 -0.44560882
000230 be 65 b8 bc 50 41 6a be 77 cd b5 bc bb 9a 9d be
       -0.022509452 -0.22876477 -0.0221927 -0.30782112
000240 fb de d1 be 21 cd 89 3e 32 d4 67 3e 6d 80 ef 3e
       -0.40990433 0.26914313 0.2263954 0.4677767
000250 cb ad 9c be 60 e1 ae be 59 2d 34 3d 73 45 b2 3e
       -0.30601344 -0.34156322 0.04398856 0.3481861
000260 cc 33 c9 be 26 cf 47 3e 60 d5 85 bd 04 38 b8 3e
       -0.3929733 0.19512615 -0.06534839 0.35980237
000270 80 85 67 3e 75 74 17 be 30 46 40 be 21 4e 86 be
       0.2260952 -0.14790519 -0.18776774 -0.26231483
000280 3a 90 38 be 13 ed 6e be 09 06 eb 3e 63 fb ac be
       -0.18023768 -0.23332624 0.45903042 -0.33785543
000290 98 56 48 b9 2b d3 88 be 2c 8e c5 be 7f 88 b7 be
       -0.00019105745 -0.26723608 -0.3858503 -0.35846326
0002a0 cf 10 29 3e f2 f0 a5 3e 2c fb 84 be dd 8a d1 be
       0.16510318 0.3241039 -0.2597288 -0.40926257
0002b0 ce 72 a3 3e 63 20 54 be 5f 6e 95 3e 99 73 ae 3e
       0.31923527 -0.2071548 0.2918577 0.3407257
0002c0 1c af d8 3e 4d 42 97 3e 89 f4 21 3e 37 88 8e 3e
       0.42321098 0.2954277 0.15815939 0.278383
0002d0 29 fd 9c be 06 97 85 be 56 1f ba be 5a 81 2c 3e
       -0.30661896 -0.26091784 -0.36352032 0.16846219
0002e0 e1 11 21 be 47 73 b4 3e 11 ca 76 3e 11 79 b6 be
       -0.15729477 0.352442 0.2410052 -0.3563924
0002f0 d5 10 9d be 62 87 95 be 4c ca 01 3e 2a 5c 86 3d
       -0.30676904 -0.2920485 0.12674826 0.06560548
000300 7b 65 2f 3d c1 d8 b1 3d c0 e4 6a bd b5 b7 92 be
       0.04282139 0.08683921 -0.05734706 -0.28655782
000310 04 28 0b 3e 02 98 7e 3e 41 cb cb 3e b5 e5 e3 be
       0.13589483 0.24862674 0.39803508 -0.4451119
000320 3e 99 1d be 76 f2 bb 3e 7c 1e c4 3e fe 43 ae 3e
       -0.15390489 0.3670842 0.38304508 0.3403625
000330 74 7a ba 3e 17 d2 52 3e f6 1e d5 be d5 07 93 3e
       0.3642155 0.20587955 -0.41625184 0.28716913
000340 4f 51 7c bd 32 81 47 be 44 f1 ce 3e 4d d4 d3 be
       -0.06160098 -0.19482878 0.40418446 -0.4137291
000350 11 9e 31 be 8e 9c c9 bd e8 eb 1a 3e 20 43 de 3d
       -0.17345454 -0.098443136 0.15129054 0.10852647
000360 d4 79 ad 3e 7e 18 a2 be ca 26 96 3c f4 15 30 3e
       0.3388201 -0.3165931 0.018329043 0.17195874
000370 c5 44 c6 3d 9c 2c 92 3e 11 e0 92 3e 64 c8 cb bd
       0.096810855 0.2854966 0.28686574 -0.09950331
000380 4a 2b c3 3e 5e af 19 be bc f2 d5 3e 12 97 6b 3d
       0.38118964 -0.15008304 0.41786754 0.05751712
000390 9a 80 2e be b9 fd 84 3d e9 d8 83 be db b0 a5 be
       -0.17041245 0.06493706 -0.25751427 -0.32361493
0003a0 4d 26 97 3d 3f 3c 5a 3e e2 72 15 3e b3 da f3 3e
       0.07380352 0.21312045 0.14594606 0.47627792
0003b0 6e a3 bf be 43 81 6a be 8f 22 63 3d c1 62 b9 be
       -0.37429374 -0.22900872 0.05545288 -0.36208156
0003c0 86 b6 81 3d d8 48 86 be 6c f9 44 3d e0 fb 11 be
       0.06333642 -0.2622745 0.04808943 -0.14256239
0003d0 65 e4 a4 be 54 8b c0 3e 8e bb b5 3e e0 43 dc 3e
       -0.322055 0.376063 0.35494655 0.43020535
0003e0 a1 91 ad be a1 cf 95 be 40 db ba ba a4 12 7d 3e
       -0.3390017 -0.2925997 -0.0014256015 0.24714142
0003f0 3d 0b 70 be 0c 45 f4 3e 6c c4 b8 bd 86 f2 92 3e
       -0.23441787 0.4770893 -0.090218395 0.28700656

enc_log_var.bias f4 [10]
000000 24 60 a5 be 23 be c7 be e4 e7 c1 be ef 15 af be
       -0.32299912 -0.3901225 -0.3787223 -0.34196422
000010 c3 40 82 be f4 a5 b3 be 4c 8e 81 be 5d c5 db be
       -0.25440034 -0.3508755 -0.25303876 -0.42924014
000020 46 24 9a be 78 6f eb be
       -0.301058 -0.4598348

dec_shared.weight f4 [100, 10]
000000 a6 22 8d 3d ee c2 f0 39 12 6d ae bc 0e ee 78 3d
       0.06891374 0.000459216 -0.021292243 0.0607739
000010 c3 c3 9a 38 36 73 cf 3d b0 2c 30 bd 86 68 05 3e
       7.379756e-05 0.101293966 -0.043011367 0.13028154
000020 fb 27 ad bc f1 4e 9c bc 22 35 dd be db 8e bc 3e
       -0.021137228 -0.019080611 -0.432046 0.3682774
000030 87 72 c4 be 2a 4d eb 3e c1 1f dc 3e 6f 89 0b be
       -0.38368627 0.4595731 0.42992976 -0.13626646
000040 46 98 2c 3d 93 a0 a1 be 1f b1 cd 3d e1 6c b9 bc
       0.042137407 -0.3156782 0.10043549 -0.022634925
000050 d7 55 2a 3e de 3d fb 3e 84 21 78 be b3 0a b1 be
       0.16634308 0.49070638 -0.24231535 -0.34578475
000060 96 e0 46 be 6c fb 0f bf 2b e4 6b 3e 92 9c 20 be
       -0.1942161 -0.56243014 0.23036258 -0.15684727
000070 cc c5 97 bd 44 8e 2b be e6 e7 b5 bc 5a a0 02 bd
       -0.07410774 -0.16753489 -0.022205304 -0.031891204
000080 89 ac 50 3d 65 2d 94 bd 4c 9f cd bc 73 dc f9 3d
       0.050945792 -0.07235221 -0.025100373 0.122002505
000090 7a e6 f8 3c af bd d0 bc 91 08 4a bd 41 13 46 bc
       0.030383337 -0.025481073 -0.049324576 -0.012089551
0000a0 79 e1 b4 be 80 2d cb bd b8 db 91 bd bc 81 c0 3b
       -0.35328272 -0.09920788 -0.07121986 0.0058748405
0000b0 58 c0 90 bd 09 b5 64 3e 5d 58 ec bd 53 17 52 3e
       -0.07067937 0.22334684 -0.115402915 0.2051671
0000c0 d0 97 f1 bd 2d 32 41 bc 99 05 3d be 90 ed a9 be
       -0.11796534 -0.011791748 -0.18459167 -0.33189058
0000d0 ce f4 a7 3e 0c 8c 15 be 03 e4 04 3f 77 bb fe bd
       0.3280396 -0.14604205 0.5191042 -0.124381
0000e0 ac 3d 4b 3d bb e5 2c bf 50 d0 26 3c e3 6b 65 3c
       0.04961936 -0.6753804 0.0101815015 0.014002773
0000f0 b5 e0 c0 be 28 6b 88 bf 08 2a 61 bf 49 4a 91 be
       -0.37671438 -1.0657701 -0.8795476 -0.28376988
000100 37 69 5d bf 1a 1e 6b 3e f2 35 21 3d 90 35 55 3b
       -0.8648867 0.22960702 0.039358087 0.0032533146
000110 52 fb 25 bd f6 fb 36 be 8a b9 35 bc ea 2f f8 bd
       -0.04052288 -0.17869553 -0.011091599 -0.12118514
000120 ac de b5 3d 70 63 97 be 1f 1e 9d 3e 0b 84 32 be
       0.08880362 -0.29568052 0.30687043 -0.17433183
000130 81 e8 64 be c7 32 f5 3d b5 93 8b be 69 6f 0a 3e
       -0.22354318 0.11972576 -0.2726113 0.13519062
000140 e5 67 d5 be 91 78 d7 be 18 68 84 3d 58 c6 22 be
       -0.41680828 -0.42084172 0.06465167 -0.15895975
000150 98 71 08 bf e0 84 12 3e e6 9b 6f 3c ad 7f e8 3e
       -0.5329833 0.143085 0.014624571 0.4540991
000160 7a 1d 19 3f 9a 0a ed bd 6b 96 a2 3e f6 b7 8a 3c
       0.598106 -0.11574288 0.31755385 0.016933423
000170 35 dc 18 3e 78 19 78 be 3a 4b c6 3e bb 7c bb be
       0.14927752 -0.24228466 0.38729268 -0.366186
000180 8f 9d 16 3d f4 05 d7 3e be f9 02 bd 69 40 24 3f
       0.036771353 0.4199673 -0.031976454 0.6416078
000190 be 8f 97 bd 5a 8b 2d bd 4f 60 9c 3c 3f e2 eb 3c
       -0.074004635 -0.042369224 0.019088892 0.028794406
0001a0 48 d9 fe bc 1c 8b 09 3d 17 1d cc 3d fc 1e 96 3d
       -0.031109467 0.03357993 0.09966486 0.073301286
0001b0 17 4f e6 bd 75 a6 06 be ed 63 50 3e 3e c0 34 bd
       -0.11245554 -0.13149436 0.20350619 -0.04412865
0001c0 51 29 18 3d 17 2b bf 3d b5 43 e1 bd 6c 52 cf 3d
       0.037148777 0.093343906 -0.10999242 0.101231426
0001d0 42 65 ef 3e a0 bc 17 3e f7 60 82 be b0 25 a7 3d
       0.4675694 0.14818048 -0.25464603 0.08161485
0001e0 d3 44 29 3e ea 4c ea bd 2b 9f 6c 3c 5d 36 c0 bd
       0.1653016 -0.114404514 0.0144422455 -0.09385369
0001f0 a2 7d 00 bd f2 0b 94 3e 66 7d 0d 3e 4c d9 78 bd
       -0.031369813 0.28915364 0.13817367 -0.060754105
000200 46 c6 f5 bc a5 7c 06 3e 4f b2 21 be 06 1e 94 3e
       -0.03000177 0.13133486 -0.15790676 0.28929156
000210 ed a0 b8 be b8 72 92 be 6a 43 95 3e 8e 2b 87 be
       -0.36060277 -0.28603148 0.29152995 -0.26400417
000220 e2 a1 c7 bd d5 25 16 3e b6 cd 20 be 94 e6 c9 3e
       -0.097476736 0.1466287 -0.15703472 0.3943373
000230 9f 19 13 be 1b 55 4d be f5 5a a7 be 85 e3 8d 3e
       -0.14365242 -0.20051996 -0.32686582 0.27712646
000240 79 fb 1a be 17 9c 8f 3e c7 d4 79 3d 64 76 e8 bd
       -0.15134992 0.28048775 0.060993936 -0.11350706
000250 be d3 13 3c 44 da 41 3c 95 38 d5 3d 80 b9 8f bc
       0.009022651 0.011831824 0.10411183 -0.017544508
000260 6d ae 76 3e ee 7c 0b bd bf a1 72 3e ff 66 1d be
       0.24089976 -0.03405469 0.23694514 -0.15371321
000270 75 3d ba 3d 69 ab 97 3e f6 dd 1f 3e 56 dc 9e bd
       0.09093753 0.29622963 0.15612015 -0.077568695
000280 ea 2c d3 bd b0 79 a6 3e 7d 12 14 bc f8 d2 00 3e
       -0.10311301 0.32514715 -0.009037611 0.12580478
000290 9c fe c1 be 52 64 82 bc 2b 1d 30 3e 08 fe 57 bd
       -0.37889564 -0.015916977 0.17198627 -0.052732497
0002a0 aa d5 31 3d 34 40 cd 3e a7 c5 55 be 59 5f a5 bc
       0.043416657 0.40088046 -0.2087618 -0.020187067
0002b0 a2 46 34 3e a2 bb fe bc 5d d1 8f bd 57 ab 00 be
       0.1760507 -0.03109533 -0.07022355 -0.12565361
0002c0 d9 cb 6d bc a0 ea 7c 3d 26 20 e6 bd bf f9 e8 bd
       -0.014513933 0.061747193 -0.112366006 -0.1137576
0002d0 a0 50 91 3d 68 a6 82 3b 1b fa e4 3e 24 ba 54 be
       0.07095456 0.0039871223 0.44722065 -0.20774132
0002e0 0c 3b df 3e c3 9e b9 bd 61 15 c1 3e 22 0c 46 3e
       0.43599737 -0.090634845 0.37711623 0.19340566
0002f0 f8 b7 af 3e 5b 0d 31 bb 4c 64 c4 3e 53 6e 10 bf
       0.34320045 -0.0027016017 0.3835777 -0.5641834
000300 fb db a0 3d d0 d5 90 3d 11 f7 9b 3d d4 ca 7a 3e
       0.07854458 0.070720315 0.076154836 0.24491435
000310 8c 10 e6 bd b4 9a 1a bd 64 bc bd be cf 72 10 bf
       -0.11233625 -0.037745193 -0.37057793 -0.56425184
000320 07 d9 34 be 7e b7 01 bc be 36 13 3b 5d 57 6c bc
       -0.17660914 -0.007917283 0.0022463049 -0.014425126
000330 33 c2 62 bd 77 fb 06 bd d7 95 b2 bd 80 e1 88 3d
       -0.055360984 -0.03295466 -0.08719986 0.06683636
000340 47 1d a5 bd d5 12 e4 bc 22 7f c8 be ce 6a 4e 3e
       -0.08062225 -0.027841011 -0.39159495 0.2015793
000350 6d 55 1a 3f 39 f9 8d 3e 7e 26 68 3e d3 f9 29 3d
       0.602866 0.27729204 0.22670934 0.041498017
000360 c2 eb a6 3d 3e 2c fd 3e 01 dc 20 3d 3f eb 2d bf
       0.08150436 0.49447817 0.039272312 -0.6793708
000370 d6 89 87 3e c5 af f9 be 1c 48 df 3e 1a e2 46 3d
       0.26472348 -0.48766914 0.43609703 0.04855547
000380 aa 49 0c 3e 88 ba 6f be d2 6d e3 3d 75 2a ad be
       0.13699976 -0.23411 0.11104931 -0.33821455
000390 cd e5 dc be 01 12 b2 bc 4a fb b2 3e 26 14 79 3e
       -0.43144074 -0.0217371 0.34957343 0.24324092
0003a0 af 01 09 bc 1f 4a 3a 3e da 24 a6 3d 80 7c 09 be
       -0.008362218 0.18192337 0.08112498 -0.13426399
0003b0 d3 f5 44 3d b2 96 6a be 10 37 69 3e e2 3d 8e bc
       0.048086 -0.22909048 0.22774911 -0.017363492
0003c0 af a9 05 3d 75 4e 75 be ec b4 af bc 09 cc 03 be
       0.032632526 -0.2395571 -0.021448575 -0.12870802
0003d0 e9 31 8c 3d 03 f5 ea 3c a9 a9 32 be 2e 41 16 bf
       0.06845457 0.028681284 -0.17447533 -0.58693206
0003e0 4d 06 cd be ce c5 46 be d8 5e 0c be c3 0f 98 bd
       -0.4004387 -0.19411394 -0.13708055 -0.07424881
0003f0 8e 9a d2 3e 58 29 13 bf cc 0b f4 bd 8f c5 90 3e
       0.4113354 -0.5748496 -0.119163126 0.28275725

dec_shared.bias f4 [100]
000000 a8 52 f9 be d5 68 10 be b6 70 1f 3c 61 3e c3 3e
       -0.48695874 -0.1410249 0.009731462 0.3813353
000010 52 fd d5 be e6 af 3c be cd a4 07 bd 04 e4 7a be
       -0.4179483 -0.18426475 -0.03311615 -0.24501044
000020 08 68 d4 3b 37 af 6b 3d db 17 fa 3e 89 51 ab be
       0.006482128 0.057540145 0.48846325 -0.33460644
000030 bd da e1 3e 26 5a 3a 3e 24 41 67 3e 33 da a5 3e
       0.44112197 0.18198451 0.22583443 0.32393035
000040 fd 36 07 3e 60 5e 11 bf e0 5e c0 bd f3 70 84 39
       0.1320457 -0.5678463 -0.09393096 0.00025261156
000050 e7 22 0d 3f 3f ed 8d 3d 1d ae a2 bd 65 18 b4 be
       0.5513138 0.06930017 -0.07943366 -0.35174862
000060 44 43 d6 bd 57 c5 59 3c 7e 67 8f 3d 0a dc 44 3d
       -0.10462049 0.013291678 0.070021614 0.048061408
000070 fe 12 73 3d b6 28 b9 be d6 fc da be 29 93 e9 3a
       0.059344284 -0.36163872 -0.42771024 0.0017820346
000080 22 42 d4 be 58 8f e4 bd d8 7c 74 3d ed 90 be bd
       -0.41456705 -0.11160153 0.059689373 -0.09304986
000090 61 1f b1 bd c7 80 a5 3d c2 8a d4 be 17 04 bc be
       -0.08648563 0.08081203 -0.41512114 -0.3672187
0000a0 9f 90 71 bd 68 2d 8c 3a f2 22 9c be 9b 34 bf be
       -0.058975812 0.0010694684 -0.3049541 -0.37344822
0000b0 68 8a be 3d 42 bb cc bd ff 07 0d 3d 7d 58 d7 3e
       0.09303743 -0.09996654 0.034431454 0.420597
0000c0 26 3d 3b 3e a8 06 04 bf fe 96 3e be 8a 7f f9 3c
       0.18285045 -0.51572657 -0.18612286 0.030456323
0000d0 1f 2f 20 3b 80 2c d9 3d 9f fc f4 be 50 f2 de be
       0.002444215 0.10604191 -0.47848985 -0.43544245
0000e0 81 6f 8d bd 9c 9c 2d 3e 08 41 43 3e de b6 a2 3d
       -0.06906033 0.16954273 0.19067776 0.079450354
0000f0 ad 41 0e 3e 8e e9 7a be 77 cb f5 be b0 8b 09 bf
       0.13892241 -0.24503157 -0.48006794 -0.5372877
000100 33 0b bb 3d d9 03 c1 be f4 14 5b 3d df f9 d7 3e
       0.091329955 -0.37698248 0.05348678 0.42182824
000110 19 38 82 be c3 30 4d be 63 9c 1a 3e 72 c3 fe be
       -0.25433424 -0.20038132 0.1509872 -0.49758488
000120 e1 b6 83 3d b2 b0 91 be 0a 01 99 3e e2 e6 32 bd
       0.06431366 -0.2845512 0.29883605 -0.04367722
000130 25 d2 86 3d 3f 96 34 be c1 43 f6 3c 54 ba 89 bd
       0.06583051 -0.1763544 0.030061604 -0.067249924
000140 a9 70 de bc cd 2a e5 be 09 3a e6 be 26 c2 83 3d
       -0.02715333 -0.44759217 -0.44966152 0.06433515
000150 e2 79 c7 3e b7 7b b4 bc 30 51 6d 3e fc 40 fc bd
       0.38960177 -0.022031648 0.23175502 -0.12317082
000160 24 fe 42 3d c3 31 85 be 87 d5 b9 3e 97 9a bd 3c
       0.04760565 -0.26014528 0.3629572 0.023145003
000170 79 a8 8b bd 5b 3f 9c 3c 0c 07 61 be b5 8e da 3e
       -0.06819243 0.019073179 -0.21975344 0.42687002
000180 9a 1d e5 bd 36 4b 57 3e cc 3e 77 3e 1a 6e a7 bd
       -0.11187287 0.21024784 0.24145049 -0.08175297

dec_mu.weight f4 [30, 100]
000000 03 bb b4 bc d6 5e 13 3d 2c 37 b3 bc f4 11 88 bd
       -0.02206183 0.035979114 -0.021876894 -0.06644049
000010 4c 33 97 bc e8 e6 57 bc 98 ec ec bb f7 b7 96 bc
       -0.018457077 -0.013177611 -0.0072303526 -0.018398268
000020 28 64 1b bd d7 72 6f 3d 62 90 6b 3d ec 38 03 bd
       -0.037937313 0.05845913 0.05751074 -0.032036707
000030 ef cb b6 3c 95 a0 cc bc c8 7b 1b bd c0 99 cf bc
       0.02231404 -0.024978915 -0.037959844 -0.025341868
000040 a5 38 62 3c bc 5b 01 3d 77 98 61 bd f6 1f 08 3d
       0.01380745 0.031581625 -0.055077042 0.033233605
000050 d6 f9 78 bd d2 c0 63 bd f7 35 02 3d a0 24 a5 bc
       -0.060785137 -0.05560381 0.031789746 -0.020159066
000060 88 91 9f 3c cb ef 7b 3d da ae 8e 3d 03 90 5f bc
       0.019478574 0.06150798 0.06966944 -0.013645175
000070 b3 51 de bc f8 8f cd bc d2 1a 77 3d 59 d3 50 3d
       -0.027138567 -0.025093064 0.060328312 0.050982807
000080 d7 88 8c 3d e0 9c 1e bc bd 69 91 bc e9 58 34 bb
       0.06862038 -0.009680957 -0.017750615 -0.0027518815
000090 d2 10 ba bb 84 4e b4 3d 95 5a 80 bc fd 1b 35 bc
       -0.0056782747 0.08804038 -0.015668193 -0.011054036
0000a0 82 f3 bc 3d 07 e3 ac bd 6d 19 ef 3c ac 85 e5 bc
       0.09226133 -0.084417395 0.029186929 -0.028017841
0000b0 27 ad 7a 3b d8 8e f2 3c 32 e2 01 bd 4c 78 06 3d
       0.003825018 0.029609129 -0.031709857 0.032829568
0000c0 39 5f 4d bd 0e 22 24 3d f8 2a 69 b8 92 ff 33 bd
       -0.05013964 0.04007154 -5.5591547e-05 -0.043944903
0000d0 6d 0b 82 bd fc af c0 bb bc e0 8f bc ea c1 4d bd
       -0.063498355 -0.005880354 -0.017563216 -0.05023376
0000e0 6d d8 3f bd 5f 98 db bc dd 63 ab 3c ac b0 8a 3c
       -0.04683726 -0.026806055 0.020921642 0.016929947
0000f0 f0 c5 01 bd 1a 9e 0e bc c3 dc 89 bc 19 4e b0 3b
       -0.03168291 -0.008704687 -0.0168289 0.0053804037
000100 0a a2 09 3d bf 5a e9 bc 0a d2 35 bd 48 61 c1 3c
       0.033601798 -0.028485654 -0.044389762 0.023605958
000110 41 aa e7 3c d9 65 ed 3c a4 62 70 bc d1 a0 6b bd
       0.028279426 0.028979229 -0.014671955 -0.057526413
000120 94 85 2d 3c 23 0e 0f bd 0e 21 77 3c 71 fb a4 3c
       0.01059093 -0.03492559 0.015083564 0.020139428
000130 cd e7 f3 3c df c1 2b bd e7 83 7c bb 50 b5 56 3c
       0.029773617 -0.041932937 -0.0038530768 0.013104752
000140 80 8d 1f bd 4b fa bd 3c f8 ba ab bc 01 38 2c bd
       -0.038953304 0.023190638 -0.020963177 -0.042045597
000150 a5 0d fc 3b c1 ce 3d bd 34 ad 61 3c ab d4 d3 3c
       0.0076920562 -0.046339754 0.013774205 0.025858244
000160 64 67 0a bd 55 19 90 3a f8 35 be bc 87 62 82 bd
       -0.033790007 0.0010993878 -0.023219094 -0.06366449
000170 f7 5c 4e bd 86 cf 0d ba 53 b2 9f 3d 87 f6 ae bd
       -0.050381627 -0.00054096465 0.077976845 -0.08543115
000180 86 f6 60 3b 84 76 4a bc 4e 69 1d 3a 3c ff 5f bc
       0.0034326627 -0.012357358 0.00060047663 -0.013671692
000190 90 5a f0 3d 81 d7 97 3e f1 ff c2 3e 62 a2 ae bc
       0.117360234 0.29656604 0.38085893 -0.021317665
0001a0 a4 71 7b bd c8 6c 0e 3d c8 b0 e2 3e de 18 96 3d
       -0.061387673 0.03477171 0.44275498 0.07328962
0001b0 bf 51 e4 3d dd 6d 8a be fa 49 3e be 1b 8f d3 3c
       0.11148404 -0.27036944 -0.18582907 0.025825074
0001c0 8a a6 66 3e a8 34 82 bd c4 ae db 3d 32 31 24 3e
       0.22524467 -0.063577 0.10726693 0.16034392
0001d0 b3 09 07 3e 0f d6 28 be fc 8d 53 3e 30 89 9b be
       0.13187294 -0.16487907 0.20659631 -0.30378103
0001e0 68 db 10 be 50 cb 2b 3e 11 5b 37 bd 62 01 e2 3d
       -0.14146197 0.16776776 -0.044764582 0.1103542
0001f0 da bb d2 bd b7 35 d8 3e b9 c3 04 3e be 2f a9 bc
       -0.10289736 0.4222848 0.12965287 -0.020652648
000200 dd d9 a3 be 0f 24 0a 3e f1 7f db 3d bd a1 56 be
       -0.32002154 0.13490318 0.10717762 -0.20960136
000210 5c 4d b5 bd 43 fd 05 bd f4 34 e1 3d 27 5a 5b 3e
       -0.08852646 -0.032712232 0.10996428 0.21421109
000220 ce 29 0d 3d a8 94 e1 3d 49 f2 32 3e a0 57 40 bc
       0.034463696 0.11014682 0.17475237 -0.011739641
000230 f4 ea 82 bd 24 cc af 3d 8d 7c ab 3d e1 c9 36 bd
       -0.0639247 0.085838586 0.083733656 -0.04462612
000240 9b dd 52 be 6b 24 ef bd 59 3b f9 be 36 2f d0 bc
       -0.20592348 -0.11676868 -0.4867809 -0.025413137
000250 23 b1 c2 3d 18 6a 50 3d 48 ba 16 3e 48 08 4c bd
       0.095064424 0.05088243 0.14719498 -0.049812585
000260 37 07 0e 3e 68 e8 0d 3e cb f3 b4 3c 00 62 46 bd
       0.1386994 0.13858187 0.022088906 -0.048433304
000270 1c 18 60 be d9 95 a4 3d c8 f1 83 3d ff 20 89 3e
       -0.21884197 0.08036394 0.064426005 0.26782987
000280 9d 6e 8e 3c 9c 23 11 bd a9 eb cd ba 75 a5 89 bd
       0.017386729 -0.03543435 -0.0015710491 -0.067210115
000290 8c 19 a5 be 8b d9 49 3e f9 c4 77 3b 96 7e 86 bc
       -0.32246053 0.19711892 0.0037806614 -0.016417783
0002a0 54 c2 82 be 59 05 93 be 26 af 8d bc db 46 52 bc
       -0.25538886 -0.28715017 -0.017295431 -0.012834276
0002b0 c1 9d c1 bd 76 af 0f 3c 03 98 5e be d8 a4 95 be
       -0.09453917 0.0087698605 -0.21737675 -0.29227328
0002c0 3c 1e e8 3d d3 3c 36 be 5d ac 95 be 2c e2 b7 bd
       0.11333892 -0.1779664 -0.29233065 -0.08978686
0002d0 06 16 98 bc 60 80 32 be 3a 85 52 3b 57 9b df bb
       -0.01856519 -0.17431784 0.0032122866 -0.006823938
0002e0 fc 65 54 bd db 25 2e 3e d4 e3 d6 3d fe 64 66 be
       -0.051855072 0.17006628 0.104926735 -0.22499463
0002f0 f7 c6 c3 bc f6 13 1f be 34 7f 15 3e c5 b7 d8 3d
       -0.023898585 -0.15534958 0.14599305 0.10581926
000300 83 8e 6a 3e 29 eb 1a 3e a2 e7 57 bd 88 bc 01 be
       0.22905926 0.15128769 -0.052711137 -0.12669575
000310 d0 f3 3f bd 63 b1 9c be 07 d0 2e 3d ac 11 15 3e
       -0.046863377 -0.30604085 0.04267886 0.14557523
000320 86 1b 0c 3c c3 23 47 3e d3 f4 86 be ba 04 46 bc
       0.008551484 0.19447236 -0.2635866 -0.012086088
000330 13 44 40 3e eb bc 38 3d dc ad 56 bd c5 0e 87 bd
       0.18775968 0.04510204 -0.0524119 -0.06594614
000340 4c 9d da be c4 4d bc 3d e9 22 82 bd b6 8e cc 3d
       -0.42698133 0.0919452 -0.06354315 0.099881575
000350 55 a9 fc 3d e6 8c 0f be 60 3a b4 3d 2f b8 8e bd
       0.12336985 -0.14018592 0.08800197 -0.06968724
000360 eb 9b 99 bd 7a 17 ab bc 74 55 ba 39 2a 31 cd 3e
       -0.07500442 -0.020885218 0.00035540352 0.40076572
000370 3a d7 97 bd 0d c9 42 bd e9 73 5f be aa 55 ab bd
       -0.07414098 -0.04755502 -0.2182156 -0.083659485
000380 d1 63 81 3e 26 af ce bd 47 4a 97 be 63 e5 64 be
       0.25271466 -0.10092001 -0.29548857 -0.22353129
000390 ab 45 36 be cf 05 5d bc 77 11 86 3d f1 a8 59 bd
       -0.17800014 -0.013490154 0.065463 -0.05313963
0003a0 1d 8e f7 3d e2 58 c3 3d 71 34 89 bd 17 8c a1 3d
       0.12087653 0.095384374 -0.066994555 0.07888048
0003b0 74 d5 c7 bd 7f 15 98 3e 5c 48 93 bd 9a c4 e7 bc
       -0.0975751 0.297039 -0.07191536 -0.02829199
0003c0 2b 21 1e bd 76 c1 34 be c8 0c 1d be ee 2c 18 be
       -0.03860585 -0.17651924 -0.15336907 -0.1486089
0003d0 e3 1f a4 be fb 1f 95 bd df 27 4a be d8 56 70 bd
       -0.32055578 -0.072814904 -0.19741772 -0.05867657
0003e0 77 85 93 3d 75 44 e8 bd 2d 73 e0 bd bc 35 06 be
       0.07203191 -0.11341182 -0.10959468 -0.13106436
0003f0 a9 6c a2 3d df db b1 bd 46 be 1d 3d d7 c3 d2 bd
       0.079308815 -0.08684515 0.038511537 -0.1029126

dec_mu.bias f4 [30]
000000 3e 40 c9 3c 56 ad 98 3d 68 f1 81 bd d0 bd 3e 3d
       0.024566766 0.07454936 -0.06344873 0.046567738
000010 86 e8 96 bb 63 ed cd 3c 3d 61 72 bd 5d 13 7f 3d
       -0.0046053557 0.025137609 -0.059174765 0.062274326
000020 ff 7e 2a bd cf 80 3b 3d 15 39 5b bc 6e f0 6f ba
       -0.04162502 0.04577714 -0.013380309 -0.0009152953
000030 7c e5 d1 3c 79 27 8f 3d 1a 6a c1 3d 60 84 9d bd
       0.025622122 0.06989951 0.094440654 -0.07691264
000040 2d 36 8e 3c 9e e8 96 3d be ba 9e bd 02 88 94 3d
       0.017359817 0.07368587 -0.07750462 0.07252504
000050 d8 5e 1a 3d e3 15 73 bd e1 cf e3 bc 8a 24 4a bc
       0.037688106 -0.059347045 -0.027809085 -0.012337813
000060 e3 fa 8e 3a ab c5 a7 3d f6 86 9b 3c d4 56 f2 bc
       0.001090851 0.08191999 0.018985253 -0.029582419
000070 22 98 b5 3d 75 e7 e3 bc
       0.08866908 -0.027820328

dec_log_var.weight f4 [30, 100]
000000 10 5e b9 3e 59 77 3b 3e f3 8d 3c be 4a c3 8e be
       0.36204576 0.18307246 -0.18413524 -0.2788337
000010 a3 9f cd 3e 30 d3 d8 3e e1 47 7b be 1c cb 9b 3e
       0.40160856 0.42348623 -0.24539138 0.30428398
000020 dc f4 19 3e 5f ec e0 bd 74 a8 e4 be bc ee a4 3e
       0.15034813 -0.10982584 -0.4465977 0.3221339
000030 5c ef 51 be 76 18 d5 be be 66 e1 be 23 76 c2 be
       -0.20501465 -0.41620225 -0.440237 -0.37980756
000040 66 87 91 be ab fb 99 3e 12 ca ba 3e 9b 43 85 3e
       -0.28423613 0.3007482 0.36482292 0.2602814
000050 39 36 ea be 86 a9 61 be d6 b3 8a 3e bb 60 59 3e
       -0.45744494 -0.22037324 0.2709033 0.21228306
000060 24 af 66 3e 8e f5 88 3d d8 21 49 be 08 b5 c7 bd
       0.22527748 0.06687461 -0.19641817 -0.09751326
000070 b5 10 62 be 29 4f 85 3e 47 50 d4 3e 13 51 3d 3e
       -0.22076686 0.26036957 0.41467497 0.18487959
000080 ea 3b 9b 3e ce 93 54 3e 9f 33 aa be 2a 63 51 3e
       0.30319148 0.20759508 -0.3324251 0.20447984
000090 17 e0 a1 3e 08 34 4a be ea fb c5 3e fb 32 a8 3e
       0.3161628 -0.19746411 0.38668758 0.32851395
0000a0 28 b8 15 3e 86 b7 9a be ed e2 ad 3e 46 47 90 3e
       0.14621031 -0.30218142 0.33962193 0.28179377
0000b0 bf f1 b5 be 1b c6 b1 3e 1a d2 29 be d1 bc cd be
       -0.35536 0.34721455 -0.16584054 -0.40183118
0000c0 d7 a6 5f be 6f c0 ba 3e 35 4b cb 3e 12 a2 36 be
       -0.21840988 0.3647494 0.39705816 -0.17835262
0000d0 f9 fb 2f 3e 7f f8 af be c7 50 c4 3e b6 79 f8 3e
       0.17185964 -0.34369275 0.38342878 0.48530358
0000e0 53 78 a8 3e 5e 21 cd be d0 da 8d be d7 5d 73 be
       0.329043 -0.4006452 -0.27706003 -0.23766266
0000f0 69 f3 ff be a8 de e5 3e 78 0d c0 3e 70 46 cb 3e
       -0.49990395 0.44896436 0.37510276 0.39702177
000100 d4 d9 b6 be 56 e8 9e 3e fd 7e bb be a4 3a 65 be
       -0.35713065 0.31036633 -0.36620322 -0.22385651
000110 9a 87 7f 3e 69 ef 8f 3e 4d 65 f6 bd 25 c1 c1 3e
       0.24954072 0.28112343 -0.1203104 0.3784267
000120 e1 9d 68 be 08 3b ae 3e d1 a1 06 bf b3 54 be 3d
       -0.22716476 0.34029412 -0.5259066 0.09293499
000130 f3 b2 7e be 88 b7 0f 3f 84 51 37 3e 32 59 81 3e
       -0.24872951 0.5613942 0.1790219 0.25263363
000140 6d 14 89 3d 48 b9 b4 3e 36 e3 90 3e 7c e6 a2 be
       0.06693349 0.35297608 0.28298348 -0.3181647
000150 07 29 84 be ac b0 3d 3e 46 1a a3 be 13 71 94 3e
       -0.2581255 0.18524426 -0.31855983 0.2899252
000160 f4 34 19 be cc 6d f1 3e 2a cd 70 be e1 c8 8b be
       -0.14961606 0.4715408 -0.23515764 -0.27301696
000170 b3 bd 07 3e 26 95 27 be 93 41 85 3e c9 8f ae be
       0.13255958 -0.1636549 0.26026592 -0.34094074
000180 aa 8b 59 3e 08 38 7f be 0d 14 db be 93 2b cd 3e
       0.21244684 -0.24923718 -0.42788735 0.40072307
000190 43 18 4d 3e 82 84 d1 3e 1d f5 95 be 49 32 c3 be
       0.20028786 0.40921408 -0.2928857 -0.38124302
0001a0 a3 fa 75 3e 24 a3 a4 3d 7e f2 1b 3e 91 c5 e5 3e
       0.24021392 0.08038929 0.15229222 0.44877294
0001b0 46 fa 22 bd c5 dc 06 be e2 04 32 be 5c 9b 1e 3e
       -0.03978946 -0.13170154 -0.17384675 0.15488952
0001c0 03 09 c2 be f2 2b 25 bf 97 df 4c be e3 da a3 be
       -0.378975 -0.6452018 -0.20007168 -0.32002935
0001d0 07 8b 8f be 19 49 a2 3e 12 09 d5 3d 60 8e 87 bb
       -0.28035757 0.31696394 0.10402121 -0.0041368455
0001e0 b8 34 9b be c7 48 ef bd 9a 0c 0b be d7 fe 69 3e
       -0.3031366 -0.11683803 -0.13579026 0.2285112
0001f0 29 1f 23 be 21 78 c3 3d 3e 60 64 be dd 2a 11 3e
       -0.15929855 0.09544397 -0.22302338 0.14176507
000200 6e 28 2c 3e 9f 19 be 3e 55 0f 2f 3e a6 09 45 3c
       0.16812298 0.37128922 0.17095692 0.012026226
000210 28 30 c8 3e 88 00 5f 3d b1 15 5a be ea 5f 8f 3d
       0.3909924 0.054443866 -0.21297337 0.07000716
000220 db 87 30 bd 50 2b 72 be 5a 31 4d 3e 62 1d 97 3e
       -0.043098312 -0.23649335 0.20038357 0.29514605
000230 d7 90 6d bc db 8c 00 3b 0b 5f 80 3e 6c 2d 0e 3f
       -0.014499865 0.0019615206 0.25072512 0.5553806
000240 07 e1 59 bd 10 dd f8 3c fd 0a 42 be 76 93 ba be
       -0.05319312 0.030378848 -0.18949504 -0.3644063
000250 ca ae 85 bd 38 34 e4 3e 5a 5c 25 be 75 1b 15 be
       -0.06527479 0.4457109 -0.1614851 -0.14561255
000260 3e 32 8f 3e dd 2d 1f be 48 07 8c 3e 6a f9 49 3e
       0.2796802 -0.15544839 0.27349305 0.1972405
000270 2b cf cb 3d ca b1 7f be 7d b6 1e be 74 3d 16 bd
       0.099516235 -0.24970165 -0.15499301 -0.0366797
000280 1f 77 23 be 2d 96 25 3f d5 01 f1 3d ec 78 e7 3e
       -0.1596341 0.64682275 0.117679276 0.45209444
000290 81 be 53 be dc 7b 97 3e 09 fa a6 3d ed fe 10 be
       -0.2067814 0.29586685 0.08153159 -0.14159746
0002a0 16 1e 9b 3e ab 09 3d 3e 40 3b 25 be 08 f9 a9 3e
       0.3029639 0.1846072 -0.16135883 0.33197808
0002b0 9c fb 61 3d e7 7a 42 3f eb 19 83 be 9d ae ec bc
       0.055171594 0.75968784 -0.2560571 -0.028891856
0002c0 5c 82 62 be b3 25 b9 bd f1 3d 6e 3d 6e 19 82 3e
       -0.2212004 -0.09040394 0.05816454 0.25410026
0002d0 4e bf 28 be ee ba 96 3e b5 87 76 3e 04 4e 51 be
       -0.16479227 0.2943949 0.24075206 -0.20439917
0002e0 a5 de 12 3d ca 13 48 3e 9b 0c e9 be 46 1f be 3d
       0.03585686 0.19538799 -0.4551743 0.09283309
0002f0 2a 7f a7 bd e8 81 a3 3e 9e 52 66 be 1e 74 8e 3d
       -0.081785515 0.31935048 -0.22492453 0.06955741
000300 a0 db b7 3d ce 44 29 be 3f ca 17 3e ce 7d c5 be
       0.08977437 -0.16530153 0.14823245 -0.38572544
000310 4f 84 1a 3e 59 3f 66 be ba cd b2 be fe 44 3b 3d
       0.15089534 -0.22485103 -0.34922582 0.045720093
000320 5a 07 d4 3e e5 75 93 3e bc f5 dd 3d a9 42 c3 be
       0.4141186 0.28800884 0.10837886 -0.38136795
000330 ae fd 8e 3c 24 0f 23 3d 75 a0 dd 3c d6 c4 c8 3e
       0.017454948 0.03980936 0.027054051 0.39212674
000340 d0 c6 b7 3d b4 1b 64 bd 31 fc a9 be 16 d3 70 3e
       0.08973467 -0.055690482 -0.3320022 0.23518023
000350 81 66 71 be 60 4d e0 be 42 94 d8 be 4f be 2c bf
       -0.23574258 -0.43809032 -0.42300612 -0.6747789
000360 71 77 8d be 61 8d c0 3e 6f 04 af 3e 43 6a f1 3d
       -0.2763019 0.37607864 0.3418307 0.11787846
000370 48 63 cc be 81 f2 c5 bd d4 54 fc bc 5d f6 a5 bc
       -0.39919496 -0.096653946 -0.030802168 -0.020259077
000380 8b 9b 55 3e 4c f9 04 3e bb 87 29 be b7 81 28 bd
       0.20860116 0.12985724 -0.16555683 -0.04113933
000390 c4 c4 96 3d 47 83 8b 3e c5 c8 a0 3d b6 69 9e bc
       0.07361749 0.27248594 0.07850794 -0.019337516
0003a0 53 db 29 3e 60 2a 90 3c db 48 34 be d0 a8 c5 3e
       0.16587572 0.017598331 -0.17605917 0.38605356
0003b0 79 57 f8 bc a3 c7 62 bd a7 a6 99 3e c3 cf 9c 3e
       -0.030315148 -0.05536617 0.30009958 0.3062726
0003c0 4f 19 4f bd ee f4 0a be a7 52 9e 3e 25 a1 81 3e
       -0.050561246 -0.13569996 0.30922434 0.25318256
0003d0 cf 72 aa bd c0 54 81 3e b8 71 9f bc dd d2 cb be
       -0.08322679 0.25259972 -0.019463405 -0.39809313
0003e0 82 ea ac be a8 82 dc 3e ec 7a ec 3e d7 ea 2b bd
       -0.33772665 0.43068433 0.46187532 -0.041972008
0003f0 ff 14 49 3e 5c 98 9f be 87 67 e4 3e 8f c7 b1 3d
       0.19636916 -0.31170928 0.44610235 0.08680641

dec_log_var.bias f4 [30]
000000 d5 c3 d5 be a4 2a 6f be ff 26 b1 be f7 89 c2 be
       -0.4175097 -0.2335611 -0.34600064 -0.37995884
000010 2a 43 bb be 71 cb c4 be 3a dc b8 be f2 0d d5 be
       -0.3657468 -0.38436463 -0.3610552 -0.41612202
000020 a6 2f a1 be 3a 28 d9 be a4 10 de be 85 23 66 be
       -0.31481665 -0.42413503 -0.4337207 -0.22474487
000030 10 64 df be 4e 3c f0 be 45 39 8f be 23 27 a7 be
       -0.4363103 -0.4692101 -0.2797338 -0.32647046
000040 84 35 d8 be aa 6b d6 be 52 8a 9c be f9 e0 cc be
       -0.4222833 -0.41879016 -0.3057428 -0.4001539
000050 00 60 f4 be a1 0e 66 be c2 90 a0 be 26 18 95 be
       -0.47729492 -0.22466518 -0.3136044 -0.29119986
000060 34 48 ae be 24 80 de be 22 a8 a8 be a0 67 b3 be
       -0.34039462 -0.4345714 -0.32940775 -0.35039997
000070 d6 72 da be b7 dc d8 be
       -0.42665738 -0.42355892
