vae/saved_models/free_endpoints/tests/free_nepochs600_lr0.001_N20_n1000_b150_s3_resumedFalse_testTrue.pt (torch, 22905 bytes, 36 tensors)

enc_shared.weight f4 [15, 20]
0	0x3dfd032d	0.12354121
1	0xbd9824d9	-0.07428903
2	0x3d35596b	0.04427473
3	0xbdf7e8fd	-0.12104986
4	0x3df2e17e	0.118594155
5	0xbe4f56d3	-0.20247965
6	0xbda9a118	-0.08282679
7	0x3c7469c5	0.014917796
8	0xbd8c2c74	-0.06844416
9	0xbe1a5e40	-0.15075016
10	0x3e648056	0.22314581
11	0xbc596e1a	-0.013270879
12	0xbd8eeac0	-0.06978369
13	0xbd990259	-0.07471151
14	0xbb933f62	-0.00449364
15	0xbe444484	-0.19166762
16	0xbd09e097	-0.03366145
17	0xbda1f258	-0.079075515
18	0x3ecf66de	0.4050817
19	0x3d825a22	0.06364848
20	0x3e505f19	0.20348777
21	0x3d5e276c	0.054236814
22	0x3e168750	0.14700055
23	0xbd90a7f9	-0.07063288
24	0xbe2e3a45	-0.17014416
25	0x3ddd4ae8	0.10805303
26	0x3c7c3b39	0.015394979
27	0x3d91cf48	0.07119614
28	0xbe31d7b0	-0.17367435
29	0x3d4b52d5	0.04963954
30	0x3dee7a59	0.1164443
31	0x3ce79ce2	0.02827305
32	0x3e0408b0	0.12893939
33	0x3d49ed5c	0.04929863
34	0x3d734c56	0.05939897
35	0xbda5dc1b	-0.080986224
36	0x3c96f4e8	0.018427327
37	0xbe057f8c	-0.13036937
38	0xbd77b116	-0.060471617
39	0x3df85def	0.121272914
40	0x3ed6f09c	0.41980445
41	0xbc25548a	-0.010090956
42	0x3d875ae8	0.06609136
43	0x3bfb1e3f	0.0076635177
44	0x3df39593	0.118937634
45	0xba85e2d8	-0.00102147
46	0xbce0f1bf	-0.027459024
47	0x3e137ae0	0.14402342
48	0x3d2d678a	0.04233507
49	0x3df5858b	0.11988362
50	0xbbf467f8	-0.007458683
51	0x3d5beb01	0.053690914
52	0xbe0392c6	-0.12848958
53	0x3d63e4fc	0.0556383
54	0xbd0c3ad6	-0.034235798
55	0x3ba9b190	0.005178638
56	0xbe15e9a0	-0.14639902
57	0x3c2100f7	0.00982689
58	0x3eb0e8c2	0.3455258
59	0x3eb9d333	0.36293945
60	0x3e9609e3	0.29304418
61	0x3cc92d05	0.0245576
62	0xbdebd5ff	-0.11515426
63	0x3d44a221	0.04800618
64	0xbd17b586	-0.03703835
65	0xbd0f8700	-0.035040855
66	0xbdf0ac03	-0.11751559
67	0xbdf69932	-0.120409384
68	0xbdd57810	-0.10423291
69	0xbd7a9c8f	-0.061184462
70	0xbd4b7182	-0.049668796
71	0x3b84f75d	0.0040578083
72	0x3e2a5772	0.1663492
73	0xbd7530c5	-0.059860963
74	0x3d6dc129	0.05804554
75	0x3d0e4e80	0.034742832
76	0x3da7fc6b	0.08202442
77	0x3de01178	0.10940832
78	0xbe39b9b8	-0.18137252
79	0x3e26a5b4	0.16274148
80	0xbe941ff3	-0.28930625
81	0x3d16ea6b	0.036844652
82	0x3e06ee61	0.13176872
83	0x3d6532d7	0.055956688
84	0xbcba0e76	-0.022711974
85	0xbd73312d	-0.05937307
86	0xbe063900	-0.13107681
87	0x3c0f4e71	0.008746729
88	0xbdb2940c	-0.08719644
89	0xbd2d3a80	-0.042292118
90	0x3d54bfdf	0.051940795
91	0x3d757114	0.059922293
92	0x3c93818c	0.018006109
93	0x3cf8b906	0.030361664
94	0xbd5d1799	-0.053977583
95	0xbd9f1cd8	-0.077691734
96	0xbb046057	-0.0020199025
97	0x3d7fc094	0.062439516
98	0x3dc38dfd	0.095485665
99	0xbeb10bc4	-0.3457929
100	0xbe1b1cbe	-0.15147683
101	0xbd2cf8c6	-0.042229436
102	0x3e3bf26c	0.18354195
103	0x3d9008d0	0.07032931
104	0x3c32c0e5	0.010910247
105	0xbdbc2f6a	-0.09188731
106	0x3e0827ae	0.13296387
107	0xbba9fa72	-0.005187326
108	0x3d2bb046	0.041916154
109	0xbd470415	-0.048587877
110	0x3df05493	0.11734881
111	0xbb7cd67d	-0.0038579993
112	0xbe51acd3	-0.20476083
113	0xbdf5eb38	-0.12007755
114	0x3db29c1f	0.08721184
115	0xbdc0057c	-0.09376046
116	0xbda14717	-0.078748874
117	0xbe426ebf	-0.18987559
118	0x3dc9c901	0.098527916
119	0xbe892a41	-0.2679005
120	0x3e89b494	0.26895583
121	0xbd3c07b5	-0.045905787
122	0x3d61a593	0.055089545
123	0x3d21a1a9	0.03946081
124	0xbe7b823f	-0.24561404
125	0x3d8c09d1	0.0683781
126	0xbe506511	-0.20351054
127	0xbcc34164	-0.023834892
128	0x3dad6201	0.084659584
129	0x3d6e2772	0.058143087
130	0xbd7a7ace	-0.061152272
131	0xbd56d862	-0.052452452
132	0xbdbe62f6	-0.09296219
133	0x3d8db4ad	0.06919227
134	0xbd84197c	-0.06450173
135	0x3d8428dd	0.064531066
136	0xbde1f215	-0.110325016
137	0x3d807823	0.06272914
138	0x3e5fea28	0.21866667
139	0x3e9ce46f	0.3064303
140	0x3f0672d1	0.52518946
141	0xbd185800	-0.0371933
142	0x3b3fd17b	0.0029269147
143	0x3d089b2b	0.033351105
144	0xbd30c596	-0.043157183
145	0x3c64a1fb	0.013954635
146	0x3d00814c	0.031373307
147	0xbe0a75d2	-0.13521507
148	0xbce606c5	-0.0280794
149	0xbdc5230e	-0.09625827
150	0x3dc1ab74	0.0945653
151	0xbd841519	-0.064493366
152	0xbdb6856f	-0.08912169
153	0xbd2ba698	-0.041906923
154	0xbdb92918	-0.09041041
155	0x3d19d24d	0.037554074
156	0x3cdf34e9	0.02724691
157	0xbd35aa83	-0.044352066
158	0xbb2b8d9c	-0.0026176935
159	0x3e9061a4	0.28199494
160	0xbe7a9484	-0.24470717
161	0x3caa91ac	0.020821415
162	0xbe3c20e8	-0.18371928
163	0xbd1f337d	-0.038867462
164	0x3e97d03c	0.29651058
165	0x3c4857fe	0.01222801
166	0x3e518111	0.20459391
167	0x3d53e10f	0.051728304
168	0x3d39927f	0.045305725
169	0xbcfd0f61	-0.030891122
170	0x3d0adb8d	0.033900786
171	0xbd05deb4	-0.03268309
172	0x3e0e45b1	0.13893773
173	0xbd7c54fd	-0.06160449
174	0x3d822328	0.06354362
175	0xbc876194	-0.016526021
176	0x3e516343	0.20448022
177	0xbd3426d8	-0.043982357
178	0xbe8d23ba	-0.2756632
179	0xbe220c5f	-0.15825032
180	0xbebfd203	-0.37464914
181	0xbda647fa	-0.08119197
182	0xbe00b52d	-0.12569113
183	0xbcfc0e5a	-0.030768562
184	0xbd469720	-0.048483968
185	0x3d6e79af	0.058221515
186	0xbd8f8f0a	-0.070097044
187	0xbc46776b	-0.012113432
188	0xbd4b2844	-0.049598947
189	0x3d64e666	0.055883788
190	0xbd45e4a1	-0.04831374
191	0xbcf23a58	-0.029568836
192	0x3db57144	0.08859494
193	0x3c667769	0.014066556
194	0x3de0ece5	0.10982684
195	0x39ea640a	0.00044706493
196	0x3d2c04d1	0.04199678
197	0x3d23b55a	0.039967872
198	0xbdaf9dd1	-0.08575023
199	0xbed11cc6	-0.40842265
200	0x3c251519	0.010075831
201	0x3e6c9b98	0.2310623
202	0x3df2e066	0.11859207
203	0xbe74a1ed	-0.23889895
204	0x3ea92071	0.33032563
205	0xbda59cd8	-0.08086556
206	0x3dd041ef	0.10168826
207	0x3ded1155	0.115755714
208	0xbd43b20c	-0.04777722
209	0x3e452dd4	0.19255763
210	0x3d1ed810	0.038780272
211	0x3d0db6ea	0.03459827
212	0xbde2f287	-0.11081415
213	0xbdcf0ef6	-0.101102754
214	0xbde54be7	-0.11196118
215	0x3e94b1c9	0.2904189
216	0xbe0b0001	-0.1357422
217	0x3db4b8f9	0.08824343
218	0x3e9b5561	0.30338576
219	0x3dee1630	0.11625326
220	0x3eb5c534	0.35502017
221	0x3d274611	0.040838305
222	0xbd9cb292	-0.07651247
223	0xbcd8767c	-0.026423685
224	0x3e5b490d	0.21414585
225	0xbdf10fbc	-0.11770579
226	0xbcbc0307	-0.022950662
227	0xb8eeec6c	-0.000113927614
228	0x3df68965	0.12037925
229	0x3c046d72	0.008082734
230	0x3dbfb2a7	0.09360247
231	0x3d0475a6	0.03233876
232	0x3d60264a	0.054724015
233	0xbd8a51b8	-0.06753868
234	0x3c018cc8	0.0079071
235	0x3d270f11	0.040785853
236	0x3d0d87b6	0.034553252
237	0xbaaeef26	-0.0013346418
238	0x3e38710b	0.18011872
239	0x3debb279	0.1150865
240	0xbeb162f1	-0.346458
241	0x3c9518b9	0.018200265
242	0x3b726ace	0.003698993
243	0xbbe1ac3e	-0.006886988
244	0xbdd8011b	-0.10547086
245	0xbc2d6dbc	-0.010585245
246	0x3dd97a08	0.10618979
247	0xbd5e5db2	-0.054288574
248	0x3bb7bc82	0.0056071887
249	0xbdbfafa3	-0.09359672
250	0x3c074266	0.008255577
251	0xbd07d9cd	-0.033166695
252	0x3cb20533	0.021730995
253	0xbca47b86	-0.020078432
254	0xbd2fb06b	-0.042892855
255	0xbdaf1b39	-0.08550114

enc_shared.bias f4 [15]
0	0x3f04136a	0.51592124
1	0xbbfaf5e5	-0.0076587074
2	0xbf043db8	-0.51656675
3	0x3f49148a	0.78546965
4	0xbf3472d4	-0.70487714
5	0x3ef5cf8e	0.48009914
6	0x3f58c3a9	0.84673554
7	0xbf38e4b4	-0.72223973
8	0x3f0cea08	0.55044603
9	0xbf08fc07	-0.53509563
10	0x3c1b96df	0.00949642
11	0xbf512017	-0.8168959
12	0xbf3495f5	-0.70541316
13	0x3f058d21	0.5216847
14	0xbe32bf18	-0.17455709

enc_mu.weight f4 [3, 15]
0	0xbec71cc6	-0.3888914
1	0x3f067a5d	0.5253046
2	0x3ef06f22	0.46959788
3	0x3cc2c4c6	0.02377547
4	0x3e98f306	0.29872912
5	0xbee51a2d	-0.44746533
6	0x3f0cfe0d	0.5507515
7	0x3d6373d8	0.0555304
8	0xbf3bf7dc	-0.7342508
9	0x3e5fd528	0.21858656
10	0xbda9a073	-0.082825564
11	0xbf00f461	-0.5037289
12	0xbe51b7cb	-0.20480268
13	0x3f088bc7	0.53338283
14	0xbeef5dcc	-0.4675125
15	0x3f2cc13e	0.67482364
16	0xbe75919c	-0.23981327
17	0x3f235cfc	0.6381376
18	0xbdd50d19	-0.10402889
19	0x3d14819f	0.03625643
20	0x3e4ca569	0.19984974
21	0xbd5256a6	-0.051352166
22	0x3e8a5ff3	0.27026328
23	0xbcb407d7	-0.021976395
24	0xbe8edb6d	-0.27901784
25	0x3f3f1dbc	0.74654746
26	0x3e90709b	0.2821091
27	0xbeafecc2	-0.3436032
28	0xbe32d856	-0.17465338
29	0xbf27fe45	-0.6562236
30	0x3dbc86fa	0.09205432
31	0x3e9eca1b	0.3101357
32	0x3ecbe567	0.39823458
33	0x3eae9699	0.34099272
34	0xbed3ff4f	-0.41405722
35	0xbe8a348a	-0.2699321
36	0x3e1f769a	0.15572587
37	0x3f062acd	0.5240906
38	0xbce0ed09	-0.027456777
39	0xbf1bdc4c	-0.6088302
40	0xbe219ad3	-0.15781717
41	0x3e37411d	0.17895932
42	0xbefaf500	-0.49015045
43	0xbf11740e	-0.5681771
44	0x3eab9ab0	0.33516455

enc_mu.bias f4 [3]
0	0x3a80fd8d	0.0009841189
1	0x3bcb2be2	0.0062002996
2	0xbdf04f47	-0.11733871

enc_log_var.weight f4 [3, 15]
0	0xbeac5799	-0.33660582
1	0x3e4baded	0.19890566
2	0x3eec3475	0.46133772
3	0xbf09ffaa	-0.5390574
4	0x3e01d69a	0.1267952
5	0xbe64b263	-0.22333674
6	0xbf194cc3	-0.59882754
7	0x3ed5a2ab	0.41725668
8	0xbead6088	-0.3386271
9	0x3f19c18e	0.60060966
10	0xbd3cc3ff	-0.046085354
11	0x3f45a14f	0.7719926
12	0x3e645c0e	0.22300741
13	0x3d76a2e1	0.060213927
14	0x3df49dcc	0.1194416
15	0xbea4adae	-0.32163757
16	0x3db8ef74	0.09030047
17	0x3ea8c396	0.3296172
18	0xbeef49f8	-0.4673612
19	0x3ecf473b	0.40484032
20	0xbe9ee5cb	-0.31034693
21	0xbe7edc3e	-0.24888703
22	0x3e806c14	0.25082457
23	0xbe16cd0b	-0.14726655
24	0x3eea5618	0.4576881
25	0x3c9e3117	0.019310517
26	0x3f4891f0	0.7834768
27	0x3eb559dd	0.35420123
28	0xbe7de706	-0.2479516
29	0x3ddf64a4	0.109078676
30	0xbf21f1ae	-0.632594
31	0xbd6492b9	-0.055803988
32	0x3f86eeb8	1.0541601
33	0xbfbe613c	-1.4873424
34	0x3fb8310e	1.438997
35	0xbf4827cf	-0.78185743
36	0xbfb04645	-1.3771445
37	0x3fbf5292	1.4947073
38	0xbf5d7715	-0.8650983
39	0x3f946cf6	1.1595752
40	0xbe983802	-0.2973023
41	0x3fb2ef67	1.397931
42	0x3f9d2f93	1.2280143
43	0xbfac0586	-1.3439186
44	0x3f1d1c41	0.6137124

enc_log_var.bias f4 [3]
0	0xbebf7f72	-0.3740192
1	0xbdb3f457	-0.087868385
2	0xbf560a9b	-0.8360993

dec_shared.weight f4 [15, 3]
0	0xbda8ac48	-0.08235985
1	0xbdf28255	-0.11841265
2	0xbeb015e7	-0.3439171
3	0x3e5cb090	0.21551728
4	0x3e5686d4	0.2094987
5	0x3deed5ae	0.1166185
6	0x3ed207fc	0.41021717
7	0x3dec293f	0.115313046
8	0x3e7ee33b	0.24891369
9	0x3dd54209	0.10412986
10	0xbd9b8ec1	-0.075955875
11	0xbe5cf00a	-0.21575943
12	0xbe918f0e	-0.28429455
13	0x3f26c4ad	0.65143853
14	0xbf719343	-0.9436533
15	0x3c1f5d00	0.009726763
16	0xbdf4b69f	-0.11948895
17	0xbe912ef6	-0.2835614
18	0xbe8ecd95	-0.27891222
19	0xbd93feae	-0.07226311
20	0x3ed051a7	0.40687296
21	0x3e7266e9	0.2367207
22	0xbeb07c43	-0.34469804
23	0x3ea234ad	0.31680813
24	0xbf19795a	-0.5995079
25	0x3f5aa97e	0.85414875
26	0x3e868e27	0.2628033
27	0xbe72dbe2	-0.23716691
28	0xbe8bf3cd	-0.27334443
29	0x3ee58916	0.4483115
30	0xbe8e7b29	-0.2782834
31	0x3e8f7d8b	0.2802547
32	0xbdedbf18	-0.11608714
33	0xbe85438a	-0.2602809
34	0xbcf07bda	-0.029355932
35	0x3db8a692	0.09016146
36	0x3ea25447	0.31704924
37	0x3bc698f6	0.006060715
38	0x3d0ff3c4	0.035144582
39	0x3e66ba7a	0.22532073
40	0xbb818031	-0.003952049
41	0x3ed109a2	0.40827662
42	0xbe7932d8	-0.24335802
43	0x3dd4c434	0.10388985
44	0x3ed7c278	0.42140555

dec_shared.bias f4 [15]
0	0xbf2bb9c3	-0.67080325
1	0xbf41f484	-0.75763726
2	0x3f257395	0.6462949
3	0x3f40d7f8	0.7532954
4	0x3c4e652d	0.012597364
5	0xbf85213c	-1.0400767
6	0x3f03a514	0.51423764
7	0x3f0b5b46	0.5443615
8	0x3d1a1c5d	0.037624706
9	0xbefda31f	-0.49538514
10	0x3f7258f6	0.94666994
11	0xbf6ec467	-0.93268436
12	0xbf46d953	-0.7767536
13	0xbf42cbce	-0.7609223
14	0xbf5d13da	-0.86358416

dec_mu.weight f4 [20, 15]
0	0xbee2dec3	-0.4431058
1	0x3e4ef48f	0.20210479
2	0x3e21a66f	0.15786146
3	0xbe2f08e6	-0.17093238
4	0x3d3497b2	0.04408998
5	0xbd0c9d9d	-0.03433
6	0x3eec38b1	0.46137002
7	0x3e20f1bb	0.15717213
8	0xbc03c15f	-0.008041709
9	0x3e613d12	0.21995953
10	0xbd00ef51	-0.03147823
11	0xbc9bf3f3	-0.019037222
12	0x3c4e4b35	0.012591173
13	0x3ee34e6e	0.44395775
14	0x3e92ccc0	0.28671837
15	0x3d1896e7	0.037253287
16	0xbe24c9fb	-0.16092674
17	0xbc1e9800	-0.009679794
18	0x3e97fc23	0.29684553
19	0xbdbea97c	-0.0930967
20	0x3ef67fde	0.4814443
21	0xbec78e48	-0.3897574
22	0x3e02a16d	0.12756892
23	0x3ecabd6b	0.3959764
24	0x3d024929	0.031808052
25	0x3e68d8ad	0.22738905
26	0xbe51f56e	-0.2050378
27	0x3db53b6d	0.08849225
28	0xbd6955b3	-0.056966495
29	0xbead8cc1	-0.3389645
30	0x3e4ed987	0.20200168
31	0x3ee30646	0.44340724
32	0x3e65b369	0.22431721
33	0xbe686225	-0.22693689
34	0xbe664a55	-0.22489293
35	0xbdf8c38d	-0.12146673
36	0xbe9c8bc8	-0.30575395
37	0xbe2108e3	-0.15726046
38	0x3cf40f89	0.029792564
39	0xbe5ab0da	-0.21356526
40	0xbd71c1c7	-0.05902269
41	0xbec38094	-0.38184035
42	0xbdaa8985	-0.08327011
43	0xbe02e572	-0.12782839
44	0xbe930c7f	-0.2872047
45	0x3da2c651	0.07947982
46	0xbdea4a11	-0.11439908
47	0x3dfe8d23	0.124292634
48	0x3e1b08de	0.15140101
49	0x3eac31e5	0.33631817
50	0xbdf67cd1	-0.120355256
51	0x3e1981c2	0.14990905
52	0x3e49d239	0.197091
53	0xbd7f446f	-0.062321123
54	0x3dd01569	0.10160334
55	0xbe9d254a	-0.30692512
56	0xbe36b6f5	-0.1784323
57	0x3d03eac3	0.032206308
58	0x3dfcf747	0.12351852
59	0xbe005afd	-0.1253471
60	0xbdfe93c2	-0.12430526
61	0x3e4c0c5d	0.19926591
62	0xbe2234ec	-0.158405
63	0xbe4319c9	-0.19052805
64	0x3e1c27ec	0.15249604
65	0x3a42ac76	0.00074262114
66	0x3ec8d6ca	0.3922637
67	0xbeb69ee5	-0.35668102
68	0x3e796ddf	0.24358319
69	0x3d87df3b	0.06634375
70	0x3eae6820	0.34063816
71	0x3e1e267d	0.1544437
72	0xbd79a656	-0.060949646
73	0xbdb63e96	-0.08898656
74	0x3ef284fb	0.4736708
75	0xbd0526be	-0.03250765
76	0x3e721f60	0.23644781
77	0x3f21386d	0.62976724
78	0x3e298cb5	0.16557582
79	0xbe838b76	-0.25692338
80	0x3e90ae08	0.28257775
81	0xbe156348	-0.14588654
82	0x3df7c041	0.120972164
83	0xbe59a237	-0.21253286
84	0xbe7db6e3	-0.24776797
85	0xbf0646ff	-0.5245208
86	0xbedf9110	-0.4366536
87	0x3e2dacd9	0.16960467
88	0x3e1217b7	0.14266859
89	0xbe54b224	-0.2077108
90	0xbc84924d	-0.016183043
91	0xbe0166c8	-0.12636864
92	0xbef78d1e	-0.4834985
93	0xbd90933f	-0.07059335
94	0x3dacb1fb	0.084323846
95	0xbd51dd4c	-0.051236436
96	0x3e27444a	0.16334644
97	0xbe45877e	-0.19289967
98	0x3dcc29da	0.0996892
99	0x3e881338	0.26577163
100	0x3d81d6a6	0.06339769
101	0x3f05bfc9	0.52245766
102	0xbec15026	-0.3775646
103	0xbecf6608	-0.4050753
104	0x3e51b742	0.20480064
105	0xbcf54bf0	-0.029943436
106	0x3e5a9ad0	0.21348119
107	0x3e668c30	0.22514415
108	0x3dd31b87	0.10307985
109	0xbed399c8	-0.41328263
110	0x3b72718d	0.003699395
111	0xbdd3a479	-0.10334105
112	0x3dd91859	0.10600347
113	0x3f1f068f	0.6211938
114	0xbe8f0370	-0.2793231
115	0xbe5e0281	-0.21680643
116	0xbe12dbd6	-0.14341673
117	0x3eb126ad	0.3459982
118	0x3e57166a	0.21004644
119	0xbe354e8b	-0.17705743
120	0x3eba0ad9	0.363364
121	0xbec763f6	-0.38943452
122	0xbf2e6e29	-0.6813684
123	0xbe8e811d	-0.2783288
124	0x3cfb7d8b	0.030699512
125	0x3e2f008e	0.17090055
126	0x3f0ccdbb	0.5500142
127	0xbf328896	-0.69739664
128	0x3d45bfe4	0.048278704
129	0xbd9eed7b	-0.077601396
130	0x3e9d25df	0.30692956
131	0x3ef424fe	0.47684473
132	0xbf202981	-0.6256333
133	0xbf332dd6	-0.69991815
134	0x3d75d8fa	0.060021378
135	0xbeb4aff8	-0.35290504
136	0x3ebfe713	0.37480983
137	0x3ed75297	0.420552
138	0xbd350a08	-0.04419902
139	0x3e4fd115	0.20294602
140	0x3d139c94	0.036037996
141	0xbe15d12e	-0.14630577
142	0xbda20d01	-0.079126365
143	0xbdbb7c3a	-0.09154554
144	0xbe5822f7	-0.21107088
145	0xbe8357cd	-0.25652924
146	0xbead01e0	-0.33790493
147	0x3ef70bae	0.48251098
148	0x3dc48d0d	0.09597216
149	0xbe079dee	-0.13243839
150	0x3dcbefaf	0.099578254
151	0xbe03f60e	-0.12886831
152	0xbe32541a	-0.17414895
153	0x3e7bbcad	0.24583693
154	0xbe2860fa	-0.16443244
155	0x3e819c2f	0.2531447
156	0xbc00f4c2	-0.007870855
157	0x3e0ab9fb	0.13547508
158	0x3f551679	0.83237416
159	0xbeace732	-0.33770138
160	0x3dc3ac06	0.09554295
161	0xbde4cfc6	-0.11172442
162	0xbc60d24e	-0.013722016
163	0x3dc601bf	0.09668302
164	0x3d1cf1d3	0.03831656
165	0xbc9ac4e2	-0.01889271
166	0x3e9f0619	0.3105934
167	0x3ee112f3	0.4395977
168	0xbe8acb92	-0.27108437
169	0x3ebf77f3	0.37396201
170	0xbded5bea	-0.11589797
171	0xbe69123e	-0.22760865
172	0x3d7a2bc4	0.061076894
173	0xbede8743	-0.43462572
174	0xbcf9be4f	-0.030486254
175	0x3d4619a4	0.048364297
176	0xbd9a6084	-0.0753794
177	0x3c8f19ea	0.017468411
178	0x3e160185	0.14649017
179	0xbe424e35	-0.18975146
180	0x3e5326b3	0.20620231
181	0xbe9c0f78	-0.30480552
182	0xbe99fa33	-0.300737
183	0x3e71e761	0.2362342
184	0xbee34ef9	-0.4439619
185	0x3bee63fe	0.0072751036
186	0xbc8adb2b	-0.01695021
187	0x3e2eb3fc	0.17060846
188	0xbd908856	-0.07057254
189	0x3ec2b2fe	0.38027185
190	0xbda72217	-0.08160799
191	0x3e4edd8d	0.20201702
192	0x3e4ed119	0.20196952
193	0xbe7bbe79	-0.24584378
194	0xbe034eb5	-0.12822993
195	0xbde22fc9	-0.110442705
196	0x3e87952a	0.2648099
197	0x3e2b378c	0.16720408
198	0x3de626b1	0.112378486
199	0xbea65b2b	-0.3249143
200	0x3db08eab	0.08620962
201	0xbe82310f	-0.25428054
202	0x3d2686a4	0.040655747
203	0x3d14e470	0.036350667
204	0xbe8c1033	-0.2735611
205	0xbc9b846d	-0.018984044
206	0xbeb67d67	-0.3564255
207	0x3e71d7e9	0.2361752
208	0x3ddd368e	0.10801421
209	0xbe862cf5	-0.26206174
210	0x3d96e0e2	0.07367112
211	0xbe8e41f5	-0.27784696
212	0xbe18a6e2	-0.1490741
213	0x3e0b41a1	0.13599254
214	0xbea4f465	-0.32217708
215	0xbd0bc835	-0.03412648
216	0x3e8e0ce0	0.27744198
217	0x3e963c4b	0.29342875
218	0x3e3045a2	0.17214063
219	0x3ed045e3	0.4067832
220	0x3cd1ceb2	0.025611255
221	0x3e91ce3e	0.28477663
222	0xbdf39999	-0.11894531
223	0x3e0f45d1	0.13991477
224	0x3e75899a	0.23978272
225	0xbdb8119d	-0.089877345
226	0x3eb7bff8	0.35888648
227	0x3e3b0f97	0.18267666
228	0x3d1b31df	0.037889358
229	0x3f3b05ef	0.7305593
230	0x3df6979b	0.12040635
231	0xbe00f96b	-0.12595145
232	0xbed35047	-0.41272184
233	0xbe0185ea	-0.1264874
234	0xbec437d8	-0.38323855
235	0xbd74af54	-0.05973752
236	0xbed68abb	-0.41902718
237	0x3e0e8a55	0.13919957
238	0xbe717a2b	-0.2358176
239	0x3db0948b	0.08622082
240	0xbe00c817	-0.12576328
241	0xbe8a1cae	-0.26975006
242	0xbdcf5f97	-0.10125654
243	0x3d0aafc1	0.03385902
244	0xbddce20c	-0.107853025
245	0x3df14918	0.1178152
246	0x3e80ef93	0.2518278
247	0x3dfe07cc	0.12403831
248	0x3e0b01d7	0.1357492
249	0x3e92ed4b	0.28696665
250	0x3dd2008d	0.10254011
251	0x3dfe2ae4	0.124105245
252	0xbd2f6eb0	-0.04283017
253	0x3c8d6a28	0.017262533
254	0x3e1e56d9	0.15462817
255	0x3e6bb63a	0.23018733

dec_mu.bias f4 [20]
0	0x3e2b46b7	0.16726194
1	0xbe90420c	-0.2817539
2	0xbdca4444	-0.09876302
3	0xbe8f40fb	-0.27979264
4	0x3ea56797	0.32305595
5	0xbc97718e	-0.018486764
6	0x3e746df8	0.23870075
7	0x3dd2e8a8	0.10298282
8	0xbcf1390b	-0.029446146
9	0x3dee4273	0.11633768
10	0xbe40923f	-0.18805788
11	0x3b8d6a68	0.004315663
12	0x3e015a46	0.12632093
13	0xbe376dee	-0.17913029
14	0x3dafcb08	0.08583647
15	0xbcf10aed	-0.029424155
16	0xbd94ee18	-0.07271975
17	0x3d33f3d8	0.04393372
18	0xbd918069	-0.071045704
19	0x3deb0ad1	0.114766724

dec_log_var.weight f4 [20, 15]
0	0x3f8e60d1	1.1123296
1	0x3f82fb29	1.0232898
2	0xbf40121a	-0.7502762
3	0xbf4d9d92	-0.8031856
4	0xbe3df3ca	-0.1855003
5	0x3f9977b8	1.198966
6	0xbf847d3b	-1.0350717
7	0xbfa7a161	-1.3096124
8	0xbea38462	-0.31936938
9	0x3f6ad953	0.9173786
10	0xbf7a2a7f	-0.97721094
11	0x3f8af53c	1.085609
12	0x3f9facd6	1.247462
13	0x3f6826c6	0.90684164
14	0x3f96fa19	1.1795074
15	0x3ec33d21	0.38132575
16	0xb92a4be5	-0.00016240736
17	0xbe29827d	-0.16553684
18	0xbe33390a	-0.17502227
19	0xbe3368ea	-0.1752049
20	0x3e9e1145	0.3087255
21	0xbe9bb4a8	-0.30411267
22	0xbf0f8a22	-0.5607015
23	0xbb094f4b	-0.0020951803
24	0x3e4cc92e	0.19998619
25	0xbe9fe033	-0.31225738
26	0xbdde8dbe	-0.10866879
27	0x3d5f505a	0.05451999
28	0x3f000162	0.5000211
29	0x3ce6c9f6	0.028172474
30	0x3eb4e816	0.35333318
31	0x3edef263	0.435443
32	0xbe200e33	-0.15630417
33	0xbe666c1b	-0.22502176
34	0xbe1ee989	-0.15518774
35	0x3e84fd4e	0.25974506
36	0xbe945b8c	-0.28976095
37	0xbe12fadf	-0.14353512
38	0x3c317fdc	0.010833707
39	0xbd6cbf15	-0.057799418
40	0xbe919918	-0.28437114
41	0x3e82a806	0.25518817
42	0x3e8e8f29	0.27843598
43	0xbdb0d55d	-0.08634446
44	0x3eeb88f3	0.4600292
45	0x3e7ee7fb	0.24893181
46	0x3ee8c240	0.454607
47	0xbe8981c6	-0.26856822
48	0xbe15f643	-0.14644723
49	0xbe143b18	-0.14475667
50	0x3ee8faa3	0.4550372
51	0xbd588ca8	-0.052868515
52	0xbe98e06f	-0.2985873
53	0xbd02b912	-0.031914778
54	0xbdf77e4b	-0.12084635
55	0xbedf6070	-0.43628263
56	0x3e922aa3	0.28548154
57	0x3ee49320	0.44643497
58	0x3d159b15	0.03652485
59	0x3ee456b0	0.44597387
60	0x3eba8c5e	0.36435217
61	0x3e99c81a	0.30035478
62	0xbea0d7cb	-0.31414637
63	0xbe588676	-0.21145043
64	0xbe64a1b7	-0.22327314
65	0x3eec4bb8	0.4615152
66	0xbe801d44	-0.25022328
67	0xbecaadd1	-0.39585736
68	0xbdd76ee0	-0.105191946
69	0xbd4ae762	-0.04953707
70	0xbea5a8b8	-0.32355285
71	0x3cd6f93e	0.026241895
72	0x3e62c636	0.22145924
73	0x3e94ae0a	0.2903903
74	0x3f14135f	0.5784206
75	0x3e3f3f22	0.18676427
76	0x3f0f734a	0.5603529
77	0xbe674389	-0.22584356
78	0xbd8fffa3	-0.07031181
79	0x3e0c5630	0.13704753
80	0x3e5f9db7	0.21837507
81	0x3ddfe5e7	0.10932522
82	0xbeba2243	-0.36354265
83	0xbdd5dfbf	-0.10443067
84	0x3e5b2b08	0.21403134
85	0xbeac7d0f	-0.33689162
86	0x3d1a1da0	0.03762591
87	0x3e565c23	0.20933585
88	0x3d849109	0.06472976
89	0x3e88384f	0.2660546
90	0x3ef232f4	0.473045
91	0x3ea1c91c	0.31598747
92	0x3d879382	0.06619932
93	0xbee8a4f4	-0.4543835
94	0x3e2e23f2	0.170059
95	0x3e0606b4	0.13088495
96	0xbeb5b2ff	-0.35488126
97	0x3e4c181e	0.19931075
98	0x3d17a7d0	0.037025273
99	0x3e8376ab	0.25676474
100	0xbeb77b34	-0.35836184
101	0x3e802a09	0.2503207
102	0x3dcaf0aa	0.09909184
103	0x3d02d239	0.031938765
104	0x3ec70d35	0.38877264
105	0x3ca560bb	0.020187726
106	0x3ea53277	0.32265064
107	0xbe6f30dc	-0.23358482
108	0xbc9d6381	-0.019212486
109	0xbdeecc2c	-0.116600364
110	0x3eae6ccb	0.34067377
111	0xbe8242ae	-0.25441498
112	0xbe192e09	-0.14958967
113	0xbd0337c1	-0.032035593
114	0x3de9904a	0.11404474
115	0xbd80d574	-0.06290713
116	0x3eb5e1ab	0.35523733
117	0x3e701fa5	0.23449571
118	0x3d9132d4	0.07089773
119	0x3e38f36a	0.18061605
120	0xbd3af7b4	-0.045646384
121	0x3ead9b6f	0.3390765
122	0xbe50f4ab	-0.20405833
123	0xbe62a355	-0.22132619
124	0x3e1b42b6	0.15162167
125	0xbd80cfe4	-0.06289652
126	0xbcadf294	-0.021233834
127	0x3dca6965	0.09883384
128	0xbd988011	-0.07446302
129	0x3e80c32c	0.25148904
130	0xbe4f6102	-0.2025185
131	0x3e1bf187	0.15228854
132	0x3d95b61a	0.07310124
133	0xbcf86c7d	-0.030325169
134	0xbdde43b9	-0.10852761
135	0x3e2aff2b	0.16698901
136	0x3f0f5a6f	0.55997366
137	0xbebaae2a	-0.36461002
138	0xbd191364	-0.037372008
139	0x3e5d2c49	0.21598925
140	0x3d411349	0.047137532
141	0x3d5c9b0d	0.053858805
142	0xbd58e7da	-0.052955486
143	0xbd8455bf	-0.06461667
144	0x3d4a69e2	0.049417384
145	0xbf026f83	-0.50951403
146	0x3e94054b	0.28910288
147	0x3e8b1a62	0.27168566
148	0x3d76b82e	0.06023424
149	0xbba7eac2	-0.005124421
150	0x3d155081	0.036453728
151	0xbc23a249	-0.009987422
152	0xbd03ce50	-0.032179177
153	0xbe0abbb9	-0.13548173
154	0x3d6d3336	0.057910167
155	0x3ee46e58	0.44615436
156	0xbdc8f66d	-0.09812627
157	0xbeb10acd	-0.34578553
158	0xbccb5cd6	-0.024824541
159	0x3e476ddb	0.194755
160	0xbeb72d4f	-0.35776755
161	0x3c8754c9	0.01651992
162	0x3ecb29e9	0.39680412
163	0xbd25a81a	-0.040443517
164	0x3e8a53f4	0.27017176
165	0x3c8494f3	0.016184306
166	0x3ecf9cde	0.40549368
167	0xbde95025	-0.113922395
168	0xbebd535e	-0.36977667
169	0xbcd1693c	-0.025562875
170	0x3e939e6b	0.288318
171	0xbc834b67	-0.016027166
172	0xbe380c06	-0.17973337
173	0xbe1b913b	-0.1519212
174	0x3d513bef	0.051082548
175	0xbe3226dd	-0.17397638
176	0xbc5dc17f	-0.013534903
177	0x3ea333d1	0.3187547
178	0xbe2ad9b9	-0.16684617
179	0x3ebbcfcb	0.3668197
180	0x3db85c77	0.09002011
181	0x3ed617cd	0.41815034
182	0xbe7322be	-0.23743722
183	0xbee1ddaf	-0.44114444
184	0xbd99d312	-0.075109616
185	0x3dd3e93f	0.103472225
186	0xbe6b3f1b	-0.22973292
187	0xbe64df37	-0.22350775
188	0xbe0598f7	-0.13046633
189	0xbe07bedf	-0.13256405
190	0xbc8734c3	-0.016504651
191	0x3e1cda76	0.15317711
192	0x3e353fb7	0.17700087
193	0x3e5d65b0	0.21620822
194	0x3ec9a4c6	0.39383525
195	0x3ee4d533	0.44693908
196	0x3e8501c6	0.25977916
197	0xbe5d04e5	-0.21583898
198	0xbe96789f	-0.29388902
199	0x3b9fc4ed	0.0048757703
200	0x3eb56c27	0.35434076
201	0xbb73d144	-0.003720359
202	0xbe6a7083	-0.22894482
203	0xbdb87ccc	-0.09008178
204	0xbcd2cb84	-0.02573181
205	0xbe0bf447	-0.13667403
206	0x3eac9088	0.3370402
207	0x3efcac3e	0.4935016
208	0x3efe3f40	0.4965763
209	0x3e2b20fe	0.16711804
210	0x3e8e9ecf	0.27855536
211	0x3e81a9d3	0.25324878
212	0xbe578a69	-0.21048893
213	0xbe353f31	-0.17699887
214	0xbd0364e8	-0.032078654
215	0x3dca59b7	0.09880393
216	0xbe21c69b	-0.15798418
217	0x3d77070d	0.06030946
218	0xbdaf36e8	-0.085553944
219	0xbce65a68	-0.028119281
220	0x3db62274	0.0889329
221	0x3e70255c	0.23451751
222	0x3eecc05c	0.4624051
223	0xbc523290	-0.012829438
224	0x3ee323af	0.44363162
225	0x37037d9b	7.837453e-06
226	0x3e17fed9	0.1484331
227	0xbec5a009	-0.3859866
228	0xbd9a934f	-0.07547628
229	0xbe46d973	-0.19418888
230	0x3e0bd85f	0.13656758
231	0x3d944a2e	0.07240711
232	0xbf188b32	-0.59587395
233	0xbe7b8a11	-0.24564387
234	0xbea1f450	-0.31631708
235	0xbe903d67	-0.28171846
236	0x3e5049bf	0.20340632
237	0x3e947f2b	0.2900327
238	0x3ec98190	0.3935666
239	0x3e6c0598	0.23049009
240	0x3f19e075	0.6010812
241	0x3e85a2db	0.2610081
242	0xbd954f60	-0.0729053
243	0xbe62747d	-0.22114749
244	0x3d2915f9	0.04128072
245	0x3ec0ee18	0.3768165
246	0xbe5fb113	-0.21844892
247	0xbc7bd6f1	-0.01537107
248	0x3d9e121a	0.07718296
249	0x3cea750c	0.028620265
250	0xbe82b95b	-0.2553204
251	0x3eb30637	0.3496568
252	0x3eb8dade	0.36104482
253	0x3e31741d	0.1732945
254	0x3ebd4d31	0.36972955
255	0x3de22f05	0.110441245

dec_log_var.bias f4 [20]
0	0xbf8d34a5	-1.1031691
1	0x3d781737	0.060569014
2	0xbeb5a4f3	-0.3547741
3	0x3c063d83	0.0081933765
4	0xbea318b8	-0.31854796
5	0xbc54433a	-0.012955481
6	0xbe984bd1	-0.29745343
7	0xbe6e93bc	-0.23298544
8	0xbe541949	-0.2071277
9	0xbe26fe7c	-0.16308016
10	0xbde68f3c	-0.112577885
11	0xbe75d6d0	-0.24007726
12	0xbdb82d17	-0.08992975
13	0xbdd2599c	-0.10270998
14	0xbe5f797b	-0.21823685
15	0xbdc333a1	-0.09531332
16	0xbe276760	-0.16348028
17	0xbd4bd63d	-0.04976486
18	0xbe28621c	-0.16443676
19	0xbf927f79	-1.1445152

exp_avg f4 [15, 20]
0	0xbc873327	-0.016503884
1	0x3ca3c00c	0.019989036
2	0xbd080815	-0.033210833
3	0xbc53df15	-0.012931605
4	0x3dbf7c61	0.09349895
5	0xbddcaac7	-0.10774761
6	0x3df009dd	0.11720631
7	0xbc8ac523	-0.016939705
8	0x3e349d8b	0.17638223
9	0xbdd3d041	-0.10342456
10	0x3d99b7c4	0.07505754
11	0xbdba9956	-0.09111278
12	0xbcb0d961	-0.02158803
13	0xbd7869db	-0.060647827
14	0x3c8b0f65	0.016975114
15	0x3c6a43bd	0.014298377
16	0x3d0c149a	0.034199335
17	0xbd3f0a4f	-0.04664069
18	0xbbfb3464	-0.0076661576
19	0xbc873327	-0.016503884
20	0xbc185edf	-0.009299963
21	0x3ceb2d76	0.0287082
22	0xbe0bf98e	-0.13669416
23	0xbd33a36a	-0.043857016
24	0x3e827380	0.25478745
25	0xbee26880	-0.44220352
26	0x3eb54eb4	0.35411608
27	0xbdfd4319	-0.123663135
28	0x3f15f95a	0.58583605
29	0xbe9afb3b	-0.302698
30	0x3e355a6f	0.17710279
31	0xbe877618	-0.26457286
32	0xbd97d495	-0.07413594
33	0xbe8d738f	-0.27627227
34	0x3da86f37	0.082243375
35	0x3d1c3a83	0.03814174
36	0x3e024019	0.12719764
37	0xbdf38570	-0.118906856
38	0xbd96780e	-0.07347117
39	0xbc185edf	-0.009299963
40	0xbac146ca	-0.0014745828
41	0x3cea0802	0.028568272
42	0xbe44d120	-0.192204
43	0xbcac5141	-0.021034839
44	0x3f0267ad	0.50939447
45	0xbf198373	-0.599662
46	0x3ef24b0c	0.4732288
47	0xbe282243	-0.1641932
48	0x3f690d57	0.9103598
49	0xbec6efde	-0.3885488
50	0x3eb022ed	0.34401646
51	0xbea10cdb	-0.3145512
52	0xbe31a1ff	-0.17346953
53	0xbea28ee6	-0.31749648
54	0x3da10519	0.078623004
55	0x3e23f251	0.16010405
56	0x3dfd3231	0.12363089
57	0xbe557a9d	-0.20847555
58	0xbd583a25	-0.052789826
59	0xbac146ca	-0.0014745828
60	0xbc6a8688	-0.014314301
61	0x3d23f0f2	0.040024705
62	0xbe11d0d7	-0.14239822
63	0xbc683503	-0.014172795
64	0x3e9d4dd3	0.30723438
65	0xbeda86bd	-0.42680922
66	0x3e94e5e5	0.29081646
67	0xbe05903a	-0.130433
68	0x3f21ba63	0.6317503
69	0xbe9e03a0	-0.3086214
70	0x3e82381c	0.25433433
71	0xbe6c5fb1	-0.23083378
72	0xbddfc1c3	-0.10925629
73	0xbe5c74ed	-0.21528979
74	0x3dfd62ab	0.12372335
75	0x3e08dcda	0.13365498
76	0x3da6a373	0.08136644
77	0xbe102ec6	-0.14080343
78	0xbcb922f5	-0.022599677
79	0xbc6a8688	-0.014314301
80	0x3c87aed6	0.01656286
81	0xbd853aed	-0.0650538
82	0x3e4dc51e	0.20094725
83	0x3d233d5c	0.03985344
84	0xbed1a3d4	-0.40945303
85	0x3f04ab8d	0.51824266
86	0xbed40db1	-0.41416696
87	0x3e37d1ad	0.17951079
88	0xbf4b9d65	-0.7953704
89	0x3eb60caf	0.35556552
90	0xbe8a0852	-0.26959473
91	0x3ea381b3	0.3193489
92	0x3e01068f	0.12600158
93	0x3e6de6bd	0.23232551
94	0xbdaa96dd	-0.08329556
95	0xbdf973e4	-0.121803075
96	0xbda3a282	-0.0798998
97	0x3e492b75	0.19645484
98	0x3d08ddc0	0.033414602
99	0x3c87aed6	0.01656286
100	0xbcc51377	-0.024057133
101	0x3cf7e1e3	0.030259078
102	0x3e1b8459	0.15187205
103	0x3d1c42ad	0.038149524
104	0xbe79ac27	-0.24382077
105	0x3ebf8767	0.3740799
106	0xbea65531	-0.3248687
107	0x3ddeab3d	0.10872505
108	0xbefb6f27	-0.4910824
109	0x3e830dc9	0.25596455
110	0xbe251442	-0.16121009
111	0x3e3c05d6	0.18361601
112	0x3d37ffb8	0.044921607
113	0x3e21fcc5	0.1581908
114	0xbd7c7aa5	-0.0616404
115	0xbd4f4889	-0.050606284
116	0xbdc7c9f8	-0.09755319
117	0x3dd08f0b	0.10183533
118	0x3dcb3992	0.0992309
119	0xbcc51377	-0.024057133
120	0xbc204697	-0.009782455
121	0x3c3b95dc	0.0114493035
122	0xbd653325	-0.05595698
123	0xbc173646	-0.009229248
124	0x3de9d529	0.1141761
125	0xbe4ccd4c	-0.2000019
126	0x3e18822f	0.14893411
127	0xbd7e1c72	-0.062038846
128	0x3e942eaa	0.28941852
129	0xbdb19553	-0.086710595
130	0x3dae5b2a	0.08513482
131	0xbdbd2166	-0.09234886
132	0xbd2296d0	-0.039694607
133	0xbdda46ca	-0.10658033
134	0x3c8aa338	0.016923532
135	0x3d76edca	0.060285367
136	0x3d598bbe	0.053111784
137	0xbd5ffabf	-0.05468249
138	0xbb9677a6	-0.0045919
139	0xbc204697	-0.009782455
140	0xbd935d3d	-0.07195518
141	0x3d0abd1e	0.033871762
142	0xbe69546c	-0.2278611
143	0xbd08b8c5	-0.033379335
144	0x3ee87d5b	0.4540814
145	0xbf379597	-0.7171263
146	0x3f13210f	0.5747232
147	0xbe6a64d3	-0.22890024
148	0x3f7e84b6	0.9942125
149	0xbef0ba18	-0.47016978
150	0x3ec802c0	0.39064598
151	0xbec8ddd0	-0.3923173
152	0xbe4c4098	-0.19946516
153	0xbec65055	-0.38733163
154	0x3dd22086	0.102601096
155	0x3e3320f8	0.17493045
156	0x3e320a43	0.17386727
157	0xbe2eadf0	-0.1705854
158	0xbd6d030f	-0.057864245
159	0xbd935d3d	-0.07195518
160	0x3b548e18	0.0032433327
161	0xbb107d0a	-0.0022047185
162	0x3c556b95	0.013026138
163	0x3b34305c	0.0027494645
164	0xbcd90988	-0.026493803
165	0x3d236cfa	0.03989885
166	0xbcce29b3	-0.025166368
167	0xbad9dfec	-0.001662252
168	0xbd1e7661	-0.038687114
169	0x3c8ec2c5	0.017426858
170	0xbcb51b05	-0.02210761
171	0x3cad224b	0.021134516
172	0x3c81ff21	0.015868725
173	0x3c54ae64	0.012981031
174	0xbc4ab6dd	-0.0123727
175	0x3ae83030	0.0017714556
176	0xbc2dd382	-0.010609509
177	0x3c23ed2b	0.010005276
178	0x3b839c91	0.004016467
179	0x3b548e18	0.0032433327
180	0xbcc78c2a	-0.024358828
181	0xbdecf51f	-0.11570191
182	0x3e8aa0b0	0.2707572
183	0x3da4bcdf	0.08043837
184	0xbf284a26	-0.6573814
185	0x3f5990bf	0.8498649
186	0xbf277763	-0.65416545
187	0x3e3bfa0b	0.18357103
188	0xbf9cab7c	-1.2239833
189	0x3f08523f	0.532505
190	0xbed731c3	-0.42030153
191	0x3edb7374	0.4286152
192	0x3e161c0a	0.14659134
193	0x3ed59148	0.41712403
194	0xbdb087ff	-0.08619689
195	0xbd769b43	-0.060206663
196	0xbe44eaff	-0.19230269
197	0x3e819b57	0.25313827
198	0x3da1fc46	0.079094455
199	0xbcc78c2a	-0.024358828
200	0xbc4a1295	-0.012333532
201	0xbae46b32	-0.0017426966
202	0x3db6aae3	0.08919313
203	0x3c69afb6	0.014263084
204	0xbdf176ec	-0.11790261
205	0x3e797249	0.24360003
206	0xbe3ea95a	-0.1861929
207	0x3d8566b8	0.06513733
208	0xbe931da7	-0.2873356
209	0x3e2380f9	0.15967168
210	0xbdba7301	-0.091039665
211	0x3dde5e12	0.10857786
212	0xbc7bb588	-0.015363105
213	0x3e169e7e	0.14708897
214	0xbde83400	-0.11338043
215	0x3cf1f1c3	0.029534226
216	0xbda5a6a1	-0.080884226
217	0x3d1fcf51	0.03901607
218	0x3d97486e	0.07386862
219	0xbc4a1295	-0.012333532
220	0xbd212093	-0.039337706
221	0x3d065e9a	0.032805063
222	0xbda685c3	-0.08130982
223	0xbc54c915	-0.012987395
224	0x3e431444	0.190507
225	0xbe84eff9	-0.25964335
226	0x3e4b0e88	0.19829762
227	0xbdaee0be	-0.0853896
228	0x3ed5b634	0.41740572
229	0xbe28faeb	-0.16501968
230	0x3e120e6d	0.14263315
231	0xbdf87047	-0.1213079
232	0xbd8ad259	-0.06778402
233	0xbe1aaae2	-0.15104249
234	0x3bc3d5d8	0.00597642
235	0x3df27888	0.11839396
236	0x3d37f07c	0.04490708
237	0xbdc2c2ca	-0.09509809
238	0x3ccf1b67	0.025281621
239	0xbd212093	-0.039337706
240	0xbc260951	-0.010134057
241	0xbd966457	-0.07343357
242	0x3e4b4023	0.19848685
243	0x3d6551ce	0.05598622
244	0xbee6eac2	-0.4510098
245	0x3f29ac5e	0.66278636
246	0xbeeb7bea	-0.45992976
247	0x3dbdf024	0.09274319
248	0xbf599c66	-0.8500427
249	0x3ec4eee8	0.3846352
250	0xbec561b4	-0.38551104
251	0x3eb91055	0.36145273
252	0x3e2b38d9	0.16720904
253	0x3e900b19	0.28133467
254	0xbdfc6bbc	-0.12325236
255	0xbe105bf0	-0.14097571

exp_avg_sq f4 [15, 20]
0	0x3d60a9de	0.054849498
1	0x3c37f690	0.011228219
2	0x3d229ef2	0.039702363
3	0x3bdbb26f	0.0067046206
4	0x3e11bc77	0.1423205
5	0x3e8ab471	0.2709079
6	0x3e306fa8	0.17230093
7	0x3dc66d41	0.09688807
8	0x3f00163a	0.50033915
9	0x3e202c11	0.1564181
10	0x3da801ce	0.08203469
11	0x3dc994d8	0.09842843
12	0x3d974c12	0.07387556
13	0x3d86119b	0.06546327
14	0x3dfd50c2	0.12368919
15	0x3e977de7	0.29588243
16	0x3d66bb44	0.056330934
17	0x3e524dc0	0.20537472
18	0x3d274e0b	0.040845912
19	0x3d60a9de	0.054849498
20	0x3f87bbbd	1.0604168
21	0x3e0a780d	0.13522358
22	0x3f0f4a67	0.55972904
23	0x3daffe8e	0.08593474
24	0x3fefc41a	1.873172
25	0x40564dda	3.3485017
26	0x4004a3e1	2.0725024
27	0x400dc2cf	2.2150152
28	0x40ee95a0	7.455765
29	0x40206a51	2.506489
30	0x3fad7e16	1.3554103
31	0x3f957c17	1.1678494
32	0x3f9ae585	1.2101294
33	0x3f64584e	0.8919724
34	0x3fc2cf54	1.5219522
35	0x408a0cf2	4.31408
36	0x3f526a0e	0.82193077
37	0x4042bc00	3.0427246
38	0x3f377a34	0.7167084
39	0x3f87bbbd	1.0604168
40	0x4018c3bc	2.3869467
41	0x3e9a5138	0.3014009
42	0x3f950b53	1.1644081
43	0x3e1c0ada	0.15238515
44	0x407eedd7	3.9832666
45	0x40e321b4	7.097864
46	0x4076bfc2	3.855454
47	0x409d7e91	4.9217
48	0x417ff4f6	15.997305
49	0x40a91efa	5.2850313
50	0x40499111	3.1494792
51	0x3ffd47a1	1.9787484
52	0x4033d29d	2.8097298
53	0x3fdc05be	1.7189252
54	0x403a0cf7	2.9070413
55	0x41150e48	9.315987
56	0x3fca6d0b	1.5814527
57	0x40c26b06	6.0755644
58	0x3fc0cbce	1.5062196
59	0x4018c3bc	2.3869467
60	0x3f347118	0.7048507
61	0x3e4c88f3	0.19974117
62	0x3ed8d104	0.42346966
63	0x3d96ff56	0.0737292
64	0x3fe7606e	1.8076303
65	0x405df3f0	3.4680138
66	0x3fe8b779	1.8180991
67	0x3fe3610f	1.7763995
68	0x41020f96	8.128805
69	0x4021e2f8	2.529478
70	0x3fbda777	1.4816731
71	0x3f435bd1	0.76311976
72	0x3fd676f4	1.6755052
73	0x3f385ee0	0.7201977
74	0x3faf512c	1.3696647
75	0x407c73ee	3.9445758
76	0x3f1289e5	0.5724166
77	0x4027305e	2.612327
78	0x3f408d68	0.7521577
79	0x3f347118	0.7048507
80	0x3f958dfe	1.1683958
81	0x3ebc8ca0	0.36826038
82	0x3f11df0d	0.56980973
83	0x3dca295e	0.098711714
84	0x4009a4f3	2.1506927
85	0x407c1eea	3.9393868
86	0x401fb52f	2.4954336
87	0x400ed604	2.2318125
88	0x411e45fd	9.892087
89	0x403082b9	2.7579787
90	0x3fec9eef	1.8486003
91	0x3fb2953a	1.395179
92	0x3ff4a73e	1.9113538
93	0x3f7b1c3f	0.98089975
94	0x4005f607	2.0931413
95	0x40af5dcb	5.4801993
96	0x3f6cc613	0.9248974
97	0x40681cd0	3.6267586
98	0x3f69fa47	0.9139752
99	0x3f958dfe	1.1683958
100	0x3f85a321	1.0440408
101	0x3df7fc37	0.12108653
102	0x3ed217a2	0.41033655
103	0x3da2999a	0.079394534
104	0x3f9e28eb	1.2356237
105	0x40036b10	2.0534096
106	0x3faa3b58	1.329936
107	0x3fca8287	1.5821084
108	0x408f7054	4.482462
109	0x3fda1657	1.7038068
110	0x3f45e6d8	0.77305365
111	0x3f5ad9a1	0.85488325
112	0x3f258bfb	0.6466672
113	0x3f1ecd9d	0.6203249
114	0x3fb9e4ac	1.452291
115	0x405f110c	3.4854155
116	0x3f3df9e4	0.7420943
117	0x40071168	2.1104374
118	0x3f0c6929	0.5484796
119	0x3f85a321	1.0440408
120	0x3e231924	0.15927559
121	0x3cd48d03	0.025946146
122	0x3db058b5	0.086106695
123	0x3c762401	0.015023232
124	0x3ec98d86	0.39365786
125	0x3f1f8f94	0.6232846
126	0x3eac4401	0.33645633
127	0x3e7391b2	0.23786047
128	0x3f9846a0	1.1896553
129	0x3e52b0d8	0.20575273
130	0x3e78f497	0.24312054
131	0x3e15d7f6	0.14633164
132	0x3e1db92d	0.1540267
133	0x3e0e64f6	0.13905701
134	0x3e700b48	0.23441803
135	0x3f26182c	0.64880633
136	0x3e04a3ed	0.12953158
137	0x3ee8f589	0.45499828
138	0x3d907036	0.070526525
139	0x3e231924	0.15927559
140	0x40683bca	3.6286492
141	0x3ed4d0db	0.41565594
142	0x3fa9aec3	1.3256458
143	0x3e6cc2d9	0.23121203
144	0x40ab0d4c	5.345373
145	0x410a5773	8.64635
146	0x4092806f	4.578178
147	0x40ad889e	5.422927
148	0x418f7e19	17.936571
149	0x40a12aef	5.036491
150	0x40832794	4.0985813
151	0x4013fc8a	2.3122888
152	0x403721eb	2.8614452
153	0x40069aa0	2.1031876
154	0x40634317	3.5509698
155	0x413d8cb1	11.8468485
156	0x4005c4fd	2.0901482
157	0x41057e55	8.343343
158	0x3fc0404f	1.5019625
159	0x40683bca	3.6286492
160	0x3ca36643	0.019946223
161	0x3aff5d31	0.0019482729
162	0x3b9bf12f	0.004758976
163	0x3ac41938	0.0014961129
164	0x3c3a54b2	0.011372732
165	0x3c8199f2	0.015820477
166	0x3c52ea75	0.012873282
167	0x3ccd5bf3	0.025068259
168	0x3d812b0e	0.0630704
169	0x3cc11d11	0.02357343
170	0x3c1e3e4f	0.00965841
171	0x3c485438	0.012227111
172	0x3c522e02	0.012828352
173	0x3bd4db49	0.0064958674
174	0x3cdd8ae4	0.027043767
175	0x3d633d74	0.05547853
176	0x3c4eac0a	0.0126142595
177	0x3cdf8af9	0.027287947
178	0x3c3d5876	0.011556735
179	0x3ca36643	0.019946223
180	0x403e209c	2.9707403
181	0x3f245765	0.64195853
182	0x3fcedde4	1.6161466
183	0x3e919d3c	0.28440273
184	0x40c5a9a3	6.1769576
185	0x412d77d7	10.841758
186	0x40d3eac4	6.622408
187	0x40a9ee43	5.3103347
188	0x41bebadc	23.84124
189	0x40c3ff18	6.1248894
190	0x40889741	4.2684636
191	0x40582a1c	3.3775702
192	0x4070ec91	3.7644389
193	0x40288ab1	2.633465
194	0x40a1d764	5.057543
195	0x415505a4	13.313877
196	0x401edf10	2.4823647
197	0x410fb9c6	8.982855
198	0x3ff4cb60	1.9124565
199	0x403e209c	2.9707403
200	0x3eac991e	0.3371057
201	0x3d44dc58	0.0480617
202	0x3e1d4b34	0.15360719
203	0x3cd278ef	0.025692431
204	0x3eec5838	0.46161056
205	0x3f4038a1	0.7508641
206	0x3f006fe8	0.50170755
207	0x3ef7cb53	0.48397312
208	0x3fc0346c	1.5015998
209	0x3eb1601d	0.3464364
210	0x3ea46c82	0.32114035
211	0x3ea3aadd	0.31966296
212	0x3e3a67e7	0.18203698
213	0x3e7299a5	0.23691423
214	0x3eedbd8d	0.46433678
215	0x3f923324	1.1421857
216	0x3e7b86a0	0.24563074
217	0x3f317d94	0.6933224
218	0x3deb0f56	0.114775345
219	0x3eac991e	0.3371057
220	0x3e85ea2f	0.2615523
221	0x3d5967f8	0.053077668
222	0x3e001850	0.12509274
223	0x3c7cf024	0.015438113
224	0x3f2d20e6	0.67628324
225	0x3f955766	1.1667297
226	0x3f10b1fb	0.56521577
227	0x3ed94ed1	0.42442945
228	0x400b891b	2.1802433
229	0x3ef2a8f2	0.4739452
230	0x3f0345a3	0.5127813
231	0x3e5ab3ee	0.213577
232	0x3ea6d790	0.32586336
233	0x3e676615	0.22597535
234	0x3e8cf01c	0.2752694
235	0x3f8de8d8	1.1086683
236	0x3e21040e	0.15724203
237	0x3f4d7a67	0.80264896
238	0x3e005738	0.12533271
239	0x3e85ea2f	0.2615523
240	0x3fd2cbca	1.6468441
241	0x3edb455b	0.42826352
242	0x3f384e48	0.7199445
243	0x3e0fcd8b	0.14043252
244	0x4068b4e6	3.6360412
245	0x40c6bb2c	6.210348
246	0x405abe96	3.4178824
247	0x4003ff6c	2.0624647
248	0x41473d7c	12.452511
249	0x400efff6	2.2343726
250	0x402754c8	2.6145496
251	0x3fd565fd	1.6671749
252	0x3fde151e	1.7350194
253	0x3fab24b0	1.3370571
254	0x4026b819	2.6049864
255	0x40e40adf	7.126327

exp_avg f4 [15]
0	0xbd665ea0	-0.056242585
1	0xbcf98015	-0.030456582
2	0x3dd3eb22	0.103475824
3	0xbd4f8a60	-0.050669074
4	0x3ea7f952	0.32807404
5	0x3dfb2eee	0.122648105
6	0x3d40ca4a	0.047067918
7	0x3e810d99	0.25205687
8	0x3c13d7bb	0.009023602
9	0x3e8dec79	0.27719477
10	0x3ab75467	0.0013986946
11	0x3e22bc0c	0.15892047
12	0x3da6fe9d	0.081540324
13	0xbe4b6ef4	-0.19866544
14	0xbd39af49	-0.04533318

exp_avg_sq f4 [15]
0	0x3f57994b	0.8421828
1	0x4162ffe3	14.187472
2	0x41b4e233	22.610449
3	0x411bbf53	9.73421
4	0x4157c980	13.486694
5	0x411601ee	9.375471
6	0x3fbb5625	1.4635664
7	0x41d97385	27.181406
8	0x3dc338fa	0.09532352
9	0x420c26b4	35.037796
10	0x404d42aa	3.2071939
11	0x4030a781	2.7602236
12	0x41727fac	15.15617
13	0x42246743	41.10084
14	0x4185cbe0	16.724548

exp_avg f4 [3, 15]
0	0x3c71ffe7	0.0147704845
1	0x3b9a5346	0.004709634
2	0x3a033fbe	0.0005006752
3	0x3c2326d3	0.009957987
4	0xbc978d69	-0.018500047
5	0x3aebda83	0.0017994199
6	0xbc452271	-0.012032137
7	0xbb159cf1	-0.002282914
8	0x3be2f7ab	0.006926497
9	0xbc2e8508	-0.010651834
10	0xbb8e78c8	-0.0043478943
11	0x3c5309a8	0.01288072
12	0xbc575366	-0.013142442
13	0xbc2e36ff	-0.010633229
14	0x3c202feb	0.0097770495
15	0xbc026a3a	-0.007959897
16	0xbbc2fdc7	-0.005950663
17	0xbca832fd	-0.020532126
18	0x3c2e2764	0.010629509
19	0xbb39623a	-0.0028287307
20	0x3b4a2790	0.0030846335
21	0x3cc1944a	0.02363028
22	0xbc721441	-0.014775337
23	0x3c122245	0.008919303
24	0x3af7cf3d	0.0018906366
25	0xbc81ef51	-0.015861185
26	0xbcb08beb	-0.021551093
27	0x3b5654bb	0.0032704312
28	0x3c8bee88	0.017081514
29	0xba9b5184	-0.0011849855
30	0x3ef49294	0.4776808
31	0xbf859391	-1.0435659
32	0xbe971a40	-0.29512215
33	0xbebf3615	-0.3734595
34	0xbe36485a	-0.17801037
35	0x3f2b72e1	0.66972166
36	0xbf12b5e1	-0.57308775
37	0x3dd74f59	0.10513181
38	0x3f79a82b	0.9752223
39	0xbe53ff21	-0.20702793
40	0x3e564e3c	0.20928282
41	0x3f2802fd	0.6562956
42	0x3e98a2b3	0.2981163
43	0xbe6cc195	-0.2312072
44	0x3de0db7f	0.109793656

exp_avg_sq f4 [3, 15]
0	0x3c50edb4	0.012751985
1	0x3c1d2dc9	0.009593436
2	0x3b3be033	0.0028667569
3	0x3c751e36	0.014960816
4	0x3c69590d	0.014242423
5	0x3b8e7148	0.0043470003
6	0x3bfcacf8	0.007711049
7	0x3b8b725f	0.0042555775
8	0x3c279596	0.010228535
9	0x3c3df9e8	0.011595227
10	0x3c196bf9	0.009364122
11	0x3bc38780	0.0059670806
12	0x3c52a765	0.012857293
13	0x3b5e4796	0.003391718
14	0x3b1d8405	0.0024034989
15	0x3bdedd06	0.0068012504
16	0x3b67cd91	0.003537033
17	0x3bc11b29	0.0058931303
18	0x3bfdeda2	0.0077492753
19	0x3be94161	0.0071183895
20	0x3b7fec15	0.0039050628
21	0x3c557f04	0.013030771
22	0x3c025572	0.007954942
23	0x3ba674a0	0.0050798208
24	0x3bea3466	0.0071473597
25	0x3bf9e5be	0.0076262644
26	0x3c2e87f5	0.010652532
27	0x3c1bd321	0.009510786
28	0x3ba9c038	0.005180385
29	0x3b3674ea	0.0027840682
30	0x427c78fc	63.11815
31	0x41e2cf3f	28.351194
32	0x41a207de	20.253841
33	0x42963b5c	75.11594
34	0x429da671	78.82508
35	0x4242f4bb	48.738995
36	0x42c7ba5d	99.86399
37	0x427b1f5a	62.780617
38	0x423c5cce	47.09063
39	0x428430c0	66.095215
40	0x41f63aab	30.778646
41	0x42a25cdd	81.18137
42	0x42b52163	90.56521
43	0x42264534	41.56758
44	0x419ee06e	19.859585

exp_avg f4 [3]
0	0xbc014ef6	-0.007892361
1	0x3d200690	0.03906876
2	0xbdde8b6e	-0.10866438

exp_avg_sq f4 [3]
0	0x3cbd1dd0	0.023085505
1	0x3d00cb41	0.031443838
2	0x4350e3dc	208.89008

exp_avg f4 [3, 15]
0	0xb9e7b44c	-0.00044194085
1	0x3964b195	0.00021809929
2	0xb9d2e53a	-0.00040225108
3	0xbac3d04e	-0.0014939399
4	0x3ab48f56	0.0013775628
5	0x3960d3e6	0.00021441243
6	0x3a63f61a	0.0008696035
7	0x3abfc6b6	0.0014631364
8	0x39848299	0.00025274305
9	0x39d6722d	0.00040902328
10	0x3a44aff3	0.0007503025
11	0xbaf0f63e	-0.0018383933
12	0x39036a78	0.00012532796
13	0xba2face7	-0.00067014847
14	0xb8f9688b	-0.00011892718
15	0xba22eda2	-0.00062152196
16	0x3a75997b	0.00093688787
17	0xba6b5ed1	-0.00089786673
18	0x39dd543d	0.00042215167
19	0x3a50d7fb	0.0007966754
20	0x3a2b3d84	0.0006532299
21	0xb77cda04	-1.5071131e-05
22	0xbb0378bd	-0.002006098
23	0x3a906917	0.0011017647
24	0x398709e7	0.00025756584
25	0x3a990ad6	0.0011676203
26	0xbb34bd0d	-0.0027578503
27	0x39d6d638	0.00040976866
28	0x3b006496	0.0019591204
29	0xbad8e3e0	-0.0016547404
30	0x3c3ee6ac	0.011651676
31	0x3a4637bd	0.0007561406
32	0xbc771561	-0.015080781
33	0x3cf4cb2f	0.029882042
34	0xbcc77570	-0.02434799
35	0x3c226362	0.00991139
36	0x3d058c5d	0.032604564
37	0xbcc87474	-0.024469592
38	0x3c784ae2	0.015154572
39	0xbc97e202	-0.018540386
40	0x3a5d947c	0.0008452607
41	0xbcd6e73b	-0.026233306
42	0xbcd17993	-0.025570666
43	0x3c975148	0.018471375
44	0xbb8d9682	-0.0043209204

exp_avg_sq f4 [3, 15]
0	0x38a70398	7.96385e-05
1	0x37e04ab7	2.6737673e-05
2	0x3893d32a	7.0488386e-05
3	0x392d5367	0.00016529635
4	0x3928062c	0.00016024028
5	0x38a0d7f9	7.6696226e-05
6	0x395864b4	0.0002063688
7	0x3900a1ba	0.00012267279
8	0x38ca70ca	9.653119e-05
9	0x3907b4d8	0.00012941973
10	0x37b70fbe	2.182263e-05
11	0x392bbea6	0.00016378853
12	0x393cba05	0.00017998375
13	0x38803702	6.1137616e-05
14	0x37b8fb6f	2.2051592e-05
15	0x395c3d64	0.00021003705
16	0x384917c0	4.7944253e-05
17	0x38f9894e	0.0001189882
18	0x3986bae8	0.00025697728
19	0x3984a9b5	0.00025303444
20	0x391663d3	0.00014342302
21	0x39a76ec6	0.00031935255
22	0x3967c092	0.00022101615
23	0x3926a9b0	0.00015894207
24	0x396b622f	0.00022447923
25	0x38696c62	5.565247e-05
26	0x397a36f5	0.00023862331
27	0x39a90a79	0.00032241995
28	0x390fbe54	0.00013708445
29	0x3866902b	5.497054e-05
30	0x3987c06a	0.00025892566
31	0x38b8b8ca	8.808223e-05
32	0x397c445c	0.00024058059
33	0x3a58f75c	0.00082766055
34	0x3a0ccd8f	0.0005371207
35	0x394d1b06	0.0001956039
36	0x3a87a746	0.0010349534
37	0x3a111828	0.00055349106
38	0x3995b9e5	0.00028557997
39	0x39e419ac	0.00043506676
40	0x3944a1d5	0.00018752304
41	0x3a3c9952	0.00071944774
42	0x3a403ca6	0.0007333256
43	0x3991ef79	0.00027834976
44	0x388e9361	6.798539e-05

exp_avg f4 [3]
0	0x3b7fbd59	0.0039022772
1	0x3af70210	0.0018845219
2	0x3d390dfb	0.04517935

exp_avg_sq f4 [3]
0	0x3a69f43e	0.00089246396
1	0x3acf5844	0.0015819152
2	0x3b878b56	0.004136483

exp_avg f4 [15, 3]
0	0x3f76c900	0.9640045
1	0xbee139a3	-0.43989286
2	0x3e5c4bfd	0.21513362
3	0xbf1c2cff	-0.6100616
4	0x3e803b88	0.2504542
5	0xbe66a049	-0.22522081
6	0xbf12237e	-0.57085407
7	0x3e9cda95	0.30635515
8	0xbd8687d5	-0.06568877
9	0x3f506233	0.8139984
10	0xbe86d6e2	-0.26335818
11	0x3ebec177	0.37256977
12	0xbd82a8ca	-0.0637985
13	0xbe00eef1	-0.12591149
14	0x3c895dbd	0.01676833
15	0x3ec2b95b	0.3803204
16	0xbe27867a	-0.16359892
17	0x3e787e8b	0.24267022
18	0xbff2d0c8	-1.8969965
19	0x3f15ab7b	0.58464783
20	0x3dcbe2d5	0.09955374
21	0xbf1738f9	-0.5907131
22	0x3de1149b	0.10990258
23	0x3ccb3116	0.02480368
24	0x3dc676d7	0.09690636
25	0xbdb54940	-0.08851862
26	0xbce493f9	-0.02790259
27	0xbf58dcd8	-0.8471198
28	0x3e46a38d	0.19398327
29	0x3dc71131	0.09720076
30	0x3dd511fd	0.104038216
31	0xbe0cf5c7	-0.13765632
32	0x3da5c94a	0.080950335
33	0x3d1426bf	0.036169764
34	0xbbca1d2b	-0.006168028
35	0xbc3255e9	-0.01088474
36	0xbd8c14ec	-0.06839928
37	0x3d35e24c	0.044405267
38	0xbc0602fe	-0.008179424
39	0xbf890fc5	-1.0707937
40	0x3e84cd8d	0.25938073
41	0xbd975c59	-0.07390661
42	0xbf530e4c	-0.8244369
43	0x3ee37c84	0.44430935
44	0xbe9ddef1	-0.30834153

exp_avg_sq f4 [15, 3]
0	0x415a54cb	13.645701
1	0x412c88a5	10.7833605
2	0x4112cd94	9.17519
3	0x40a1443f	5.039581
4	0x40db1d05	6.8472924
5	0x406d3e05	3.7069104
6	0x4093d5a2	4.619828
7	0x40583e9b	3.3788211
8	0x4018077a	2.3754563
9	0x410b685e	8.71298
10	0x41146899	9.275537
11	0x40e63e24	7.1950855
12	0x3f866131	1.049841
13	0x3f15401a	0.58300936
14	0x3ebbf1e4	0.36707985
15	0x401a9144	2.4151163
16	0x40051c34	2.0798464
17	0x40150910	2.3286781
18	0x42096f12	34.358467
19	0x42175b80	37.839355
20	0x41999b56	19.200848
21	0x40bb8223	5.859636
22	0x40c8ff41	6.281159
23	0x405f99c1	3.4937594
24	0x3d4401b6	0.047853194
25	0x3d8b5825	0.068039216
26	0x3f8a6738	1.081275
27	0x40de6dad	6.950888
28	0x40b9ba03	5.8039565
29	0x40b95705	5.7918725
30	0x3e5a7426	0.2133337
31	0x3e46f187	0.19428073
32	0x3e7ef328	0.24897444
33	0x3d6d9b3c	0.05800937
34	0x3d281faf	0.04104584
35	0x3c92ed36	0.017935377
36	0x3e109823	0.14120536
37	0x3e993227	0.29921076
38	0x3dbb9a46	0.09160285
39	0x41b22cd7	22.271894
40	0x41eb7440	29.431763
41	0x41c3d3e6	24.478466
42	0x410efb80	8.936401
43	0x4118c2c2	9.547548
44	0x4116ab03	9.416751

exp_avg f4 [15]
0	0x3e3666be	0.1781263
1	0xbd3a6dad	-0.04551475
2	0x3dde0dc1	0.10842467
3	0xbe08d17b	-0.1336116
4	0xbbb06f0b	-0.005384331
5	0x3a10e130	0.00055267196
6	0xbf4f608b	-0.8100669
7	0xbccc85d0	-0.02496615
8	0x3c8befd4	0.017082132
9	0x3e88a762	0.26690203
10	0x3cd19487	0.025583519
11	0x3d265dcb	0.04061679
12	0x3cb60e61	0.022223653
13	0xbda9a5cb	-0.082835756
14	0x3eb5ed64	0.35532677

exp_avg_sq f4 [15]
0	0x41cd6819	25.675829
1	0x413029c7	11.0102
2	0x40eeadc3	7.458711
3	0x4192138b	18.259542
4	0x3f84c17e	1.0371549
5	0x40a3b011	5.1152425
6	0x42973799	75.60859
7	0x41539650	13.224197
8	0x3d121f66	0.035674475
9	0x4173f945	15.248357
10	0x3edbc1c1	0.4292126
11	0x3ce682cc	0.02813854
12	0x3eb6d724	0.35711014
13	0x426b263d	58.787342
14	0x419a727d	19.305902
