vae/saved_models/free_endpoints/tests/free_nepochs50_lr0.001_N20_n2000_b150_s3_resumedFalse_testTrue.pt (torch, 22905 bytes, 36 tensors)

enc_shared.weight f4 [15, 20]
0.102423064 0.056868788 -0.24041985 0.10516912 0.024810167 -0.11646809 -0.055291086 0.1095704
0.1938467 0.04162647 0.16328618 0.10870044 0.052677397 -0.07764455 0.07881093 -0.21747266
0.13857679 0.10184934 -0.1387905 0.15923576 0.11672042 0.13952094 -0.11584092 -0.22519372
0.2472361 -0.06388155 0.21997789 -0.07039788 0.12429395 -0.16340183 0.038586613 -0.2264161
-0.07928389 0.1393125 0.1772625 0.08030879 -0.024230368 0.08906912 -0.08799214 -0.187205
0.37262022 -0.20198672 -0.05836897 0.0052530635 0.14328718 0.086314894 -0.033407852 0.11426891
0.08756704 0.14536788 -0.13458611 -0.0009671238 -0.13546556 -0.09726318 0.25110418 -0.11415554
-0.004936292 -0.005800692 -0.22819516 0.3625812 -0.02045173 0.09935152 -0.042979233 0.1840879
0.12704965 -0.07506107 0.1461583 -0.22857352 0.23333384 0.0059828735 -0.03557915 0.017390266
-0.2338703 -0.08049112 -0.22883925 0.20839274 0.040443677 0.15521623 0.24604717 -0.3209206
-0.043629885 0.07162983 0.004801671 0.07529425 -0.1709773 -0.13101792 -0.08030105 0.109849565
0.022329303 0.096561186 0.050983362 0.28098094 -0.2456104 0.09267302 -0.08595993 0.024768647
0.17977685 -0.23975699 0.17738818 0.24863051 -0.0057122903 -0.14816307 -0.20975274 -0.23575334
0.18695924 -0.062134568 -0.066830166 0.116005234 -0.07140732 -0.1685192 -0.0672238 0.1002118
0.04150064 0.16918556 0.32210085 -0.3447081 0.14749368 -0.06396375 -0.09336818 0.057078924
-0.005921829 -0.15873247 0.29849273 0.18693955 -0.051002868 0.07520964 -0.14033116 -0.12793079
0.059646316 -0.06490592 -0.045370635 -0.085966595 0.10794323 0.028391562 0.017573977 -0.06605156
0.13125482 0.012382932 -0.18594989 0.111134775 -0.065394595 -0.16864309 0.014207148 0.027501533
-0.23569995 0.2525521 0.09678945 0.15785827 -0.04699475 0.1894265 -0.2571683 0.25576133
0.11524266 -0.062620945 -0.2813738 -0.0032631285 -0.039999783 -0.011244336 0.032124586 -0.05514873
0.13283025 0.05197561 -0.03525168 -0.0048396518 0.029814046 0.03763029 0.12975755 -0.04355833
-0.19054079 0.10653116 0.071934715 0.1005461 -0.014506516 0.14010817 -0.04200286 0.08227378
0.19751641 0.0959398 -0.11775491 -0.12281014 0.1731712 -0.0876662 0.11789208 -0.17257363
0.11635803 -0.14983349 0.15584667 -0.006128458 -0.034030985 -0.023965105 0.09148614 -0.028218504
-0.10369653 0.22205377 0.05658357 -0.14871176 -0.018113855 0.005553655 -0.22808188 0.06732599
0.04362678 -0.087670684 0.058030996 -0.07252403 0.18453726 -0.2003766 0.019209227 0.045378488
0.042922914 -0.07611423 0.15681966 0.1072387 0.07533571 -0.068822205 0.29903948 -0.2026049
-0.14653519 -0.10228377 0.022021035 0.07668219 0.23679973 0.1304226 0.14252703 -0.02051637
-0.09175236 0.10247594 -0.16508776 -0.050339434 -0.18110204 -0.03086761 -0.14956655 0.07553293
-0.1235736 0.13736635 -0.13305208 -0.13930622 -0.09237677 0.013735674 0.16777386 0.01899174
0.15458442 0.10777893 -0.043602806 -0.044553038 -0.004305033 0.06600621 -0.1915685 -0.0505722
-0.14646979 0.2960813 -0.07313044 0.13652718 -0.24648005 0.020856775 0.11092244 0.08434887
00000000: 2fc3 d13d 3fef 683d 9f30 76be e862 d73d
00000010: b13e cb3c d286 eebd e878 62bd 7266 e03d
00000020: c07f 463e 8480 2a3d 7e34 273e 569e de3d
00000030: 41c4 573d 1b04 9fbd a067 a13d 27b1 5ebe
00000040: 13e7 0d3e 6396 d03d 191f 0ebe b30e 233e
00000050: 1e0b ef3d 94de 0e3e 013e edbd 2f99 66be
00000060: 762b 7d3e 55d4 82bd e241 613e c42c 90bd
00000070: d48d fe3d cf52 27be ff0c 1e3d 9fd9 67be
00000080: 985f a2bd f0a7 0e3e 4d84 353e ef78 a43d
00000090: c47e c6bc df69 b63d 3935 b4bd abb2 3fbe
000000a0: 14c8 be3e 9bd5 4ebe 4d14 6fbd e421 ac3b
000000b0: e0b9 123e ddc5 b03d acd6 08bd d105 ea3d
000000c0: 5956 b33d 51db 143e f1d0 09be 9486 7dba
000000d0: 7cb7 0abe eb31 c7bd ba90 803e 61ca e9bd
000000e0: 9ec0 a1bb bb13 bebb feab 69be 3ea4 b93e
000000f0: 638a a7bc cf78 cb3d fe0a 30bd 8a81 3c3e
00000100: 4e19 023e 9eb9 99bd 85aa 153e 2d0f 6abe
00000110: 11ef 6e3e fb0b c43b 71bb 11bd 0876 8e3c
00000120: b27b 6fbe 87d8 a4bd d654 6abe e864 553e
00000130: 45a8 253d 01f1 1e3e caf3 7b3e b44f a4be
00000140: 40b5 32bd a9b2 923d 5657 9d3b df33 9a3d
00000150: ac14 2fbe 9029 06be e074 a4bd cff8 e03d
00000160: f1eb b63c dfc1 c53d eed3 503d bcdc 8f3e
00000170: 4b81 7bbe 5acb bd3d c30b b0bd 9ee7 ca3c
00000180: 6c17 383e db82 75be 3fa5 353e ff98 7e3e
00000190: 2a2e bbbb 0fb8 17be 6cc9 56be 5369 71be
000001a0: 3e72 3f3e d180 7ebd 41de 88bd 2794 ed3d
000001b0: 003e 92bd 4c90 2cbe a2ac 89bd d83b cd3d
000001c0: 93fc 293d fb3e 2d3e 67ea a43e 957d b0be
000001d0: 9508 173e 6dff 82bd d137 bfbd 97cb 693d
000001e0: e70b c2bb c48a 22be 0ad4 983e 156d 3f3e
000001f0: 62e8 50bd 8307 9a3d f9b2 0fbe 4a00 03be
00000200: b24f 743d 65ed 84bd 8fd6 39bd 410f b0bd
00000210: 5711 dd3d 6c95 e83c 4df7 8f3c 0a46 87bd
00000220: aa67 063e c8e1 4a3c a669 3ebe a19a e33d
00000230: 9aed 85bd c6b0 2cbe 19c5 683c e54a e13c
00000240: 545b 71be 824e 813e 8c39 c63d 99a5 213e
00000250: 917d 40bd 05f9 413e 90ab 83be 26f3 823e
00000260: 5804 ec3d 693f 80bd 3a10 90be 36da 55bb
00000270: d0d6 23bd 2a3a 38bc 1295 033d a2e3 61bd
00000280: a704 083e 61e4 543d 1164 10bd f195 9ebb
00000290: 963c f43c 3822 1a3d 2adf 043e 386a 32bd
000002a0: 201d 43be 022d da3d 8252 933d 1deb cd3d
000002b0: bdac 6dbc 8478 0f3e 310b 2cbd 287f a83d
000002c0: be41 4a3e 167c c43d 7c29 f1bd e283 fbbd
000002d0: cb53 313e 568a b3bd 6771 f13d 24b7 30be
000002e0: 1e4d ee3d f36d 19be 4596 1f3e 3bd1 c8bb
000002f0: 1364 0bbd 7852 c4bc 165d bb3d 7e2a e7bc
00000300: d95e d4bd 1062 633e 2cc4 673d e547 18be
00000310: 8263 94bc 6ffb b53b 4c8e 69be 35e2 893d
00000320: ffb1 323d b08c b3bd e9b1 6d3d 7b87 94bd
00000330: 56f7 3c3e 862f 4dbe ab5c 9d3c cbde 393d
00000340: f0cf 2f3d c7e1 9bbd 5595 203e f79f db3d
00000350: 9c49 9a3d a8f2 8cbd b41b 993e a977 4fbe
00000360: 520d 16be 277a d1bd 7565 b43c 8d0b 9d3d
00000370: a17b 723e 818d 053e 9bf2 113e f211 a8bc
00000380: a9e8 bbbd e8de d13d c40c 29be b930 4ebd
00000390: d072 39be 12de fcbc f927 19be 02b1 9a3d
000003a0: 2814 fdbd c4a9 0c3e ce3e 08be 4aa6 0ebe
000003b0: 0830 bdbd 980b 613c e9cc 2b3e 9194 9b3c
000003c0: 614b 1e3e 33bb dc3d db98 32bd 3f7d 36bd
000003d0: 3c11 8dbb 442e 873d 882a 44be cc24 4fbd
000003e0: 2dfc 15be f897 973e 6ac5 95bd c8cd 0b3e
000003f0: 4465 7cbe d4db aa3c 4e2b e33d 1abf ac3d

enc_shared.bias f4 [15]
-0.4481151 -0.09790104 0.115821645 0.19272958 -0.09721772 0.1426971 -0.08319556 -0.011046887
-0.49519557 -0.17796186 0.4491852 -0.29279497 0.14459741 0.5110628 0.2666863
00000000: 586f e5be 5780 c8bd e633 ed3d e75a 453e
00000010: 151a c7bd 301f 123e 6f62 aabd 01fe 34bc
00000020: 468a fdbe a23b 36be 9afb e53e 39e9 95be
00000030: 5811 143e 03d5 023f 1b8b 883e

enc_mu.weight f4 [3, 15]
0.039335106 -0.18697584 0.012617534 0.04817005 0.1390558 -0.16710101 0.26417845 0.30664796
-0.013853976 -0.097780265 -0.19005887 -0.07146288 0.012155447 -0.046286434 0.0024869351 0.23541045
0.1026288 0.22140592 -0.20576115 -0.095569 0.24136978 0.02774903 -0.18775667 -0.11808956
0.23472372 0.22796285 -0.07254708 -0.05044596 -0.13717465 0.012212879 0.086449794 0.14260195
-0.27952063 0.38856086 -0.18369931 -0.04079126 -0.21883802 -0.25751403 -0.1799031 -0.116357744
0.20781809 -0.22150484 -0.13511953 -0.0070273136 -0.3357047
00000000: d91d 213d 9876 3fbe c6b9 4e3c f54d 453d
00000010: a564 0e3e 871c 2bbe 6642 873e f600 9d3e
00000020: c9fb 62bc 0541 c8bd cb9e 42be 215b 92bd
00000030: a427 473c d896 3dbd d9fb 223b 700f 713e
00000040: 0c2f d23d 3cb8 623e 0db3 52be aeb9 c3bd
00000050: a429 773e ef51 e33c 4943 40be f0d8 f1bd
00000060: 6a5b 703e 186f 693e 9093 94bd 6ca0 4ebd
00000070: 8377 0cbe 8718 483c 970c b13d 3f06 123e
00000080: 541d 8fbe 73f1 c63e ac1b 3cbe bc14 27bd
00000090: 1317 60be e1d8 83be 8538 38be f84c eebd
000000a0: 44ce 543e 2ad2 62be c65c 0abe 6145 e6bb
000000b0: 7de1 abbe

enc_mu.bias f4 [3]
0.2265307 -0.060335934 -0.06453991
00000000: aaf7 673e d022 77bd 802d 84bd

enc_log_var.weight f4 [3, 15]
0.16891798 -0.1021598 -0.13420053 -0.18282823 0.11624457 -0.00714504 0.03123918 0.037243493
0.046125814 0.21735868 -0.24907257 -0.15451616 -0.12416794 -0.3407387 0.016703188 -0.119552895
0.24663484 0.028630322 -0.16222942 0.12992822 -0.08088056 0.042765725 -0.09675803 0.088342205
-0.064023 -0.005965196 0.24024834 -0.09751836 -0.12294306 0.008511489 0.38549402 0.20202014
-0.060444824 -0.15043443 0.12761173 -0.15930879 0.10693059 -0.06376589 0.5234858 0.1573234
-0.43246412 0.33141303 -0.2501038 -0.3918868 -0.27725926
00000000: d6f8 2c3e 2839 d1bd dd6b 09be 5337 3bbe
00000010: a211 ee3d f120 eabb 4fe9 ff3c a28c 183d
00000020: 6cee 3c3d 4693 5e3e e10c 7fbe 7c39 1ebe
00000030: c34b febd 4e75 aebe 20d5 883c 26d8 f4bd
00000040: d88d 7c3e 238a ea3c 781f 26be e70b 053e
00000050: b5a4 a5bd 1d2b 2f3d 1329 c6bd c2ec b43d
00000060: 7e1e 83bd b177 c3bb a903 763e b5b7 c7bd
00000070: 92c9 fbbd c673 0b3c 795f c53e 5ede 4e3e
00000080: fe94 77bd 7c0b 1abe a6ac 023e d821 23be
00000090: 6dfe da3d b197 82bd 2a03 063f 6319 213e
000000a0: f06b ddbe f8ae a93e 9b0d 80be 63a5 c8be
000000b0: edf4 8dbe

enc_log_var.bias f4 [3]
-0.12064464 -0.24806625 -0.42464793
00000000: 8914 f7bd 1405 7ebe 746b d9be

dec_shared.weight f4 [15, 3]
0.24473287 -0.1379874 -0.48363274 0.35495517 -0.41578877 0.102096334 -0.062702574 -0.3786227
0.13373117 -0.1442645 -0.06422419 0.47084016 0.24650082 -0.22221446 -0.1253093 -0.37797475
-0.14559716 0.11111535 -0.068853185 0.37942046 0.4102684 0.12663792 0.303905 -0.1697054
0.04366735 -0.10707359 -0.17560267 0.20079388 -0.10015163 -0.18285848 0.20937924 0.073955506
0.055375837 -0.101541944 -0.002513806 0.57673967 0.01786713 0.06997095 0.3727204 0.30518103
0.48430768 -0.48114175 -0.06384737 -0.05764469 -0.33758375
00000000: 419b 7a3e 924c 0dbe b69e f7be afbc b53e
00000010: 44e2 d4be e217 d13d 356a 80bd d6da c1be
00000020: d3f0 083e 13ba 13be f987 83bd f611 f13e
00000030: b66a 7c3e 308c 63be 1551 00be e885 c1be
00000040: 6c17 15be 7290 e33d e602 8dbd 6643 c23e
00000050: b30e d23e 5fad 013e 7099 9b3e 41c7 2dbe
00000060: 89dc 323d 6649 dbbd 30d1 33be e99c 4d3e
00000070: 4c1c cdbd 413f 3bbe 8367 563e fc75 973d
00000080: c6d1 623d 39f5 cfbd abbe 24bb 36a5 133f
00000090: 165e 923c ee4c 8f3d 35d5 be3e b040 9c3e
000000a0: 2df7 f73e 3658 f6be 69c2 82bd d71c 6cbd
000000b0: c7d7 acbe

dec_shared.bias f4 [15]
-0.39516285 0.43004075 -0.55082095 -0.2873567 0.3505584 -0.5339043 0.64269423 -0.4510951
0.4414731 0.6883521 -0.80220914 -0.41001642 0.7312979 -0.1263978 -0.43106434
00000000: c952 cabe 4d2e dc3e 9a02 0dbf 6b20 93be
00000010: 647c b33e f4ad 08bf 9c87 243f f0f5 e6be
00000020: c308 e23e d837 303f 945d 4dbf aced d1be
00000030: 5736 3b3f 6d6e 01be 77b4 dcbe

dec_mu.weight f4 [20, 15]
0.02736056 -0.32433188 -0.0010849586 0.04976372 0.32655987 0.0041081654 -0.18678312 0.17403387
0.11559423 -0.124456644 -0.2576204 -0.36971486 0.18066938 0.2906665 0.006792503 -0.23280191
0.05551298 0.2688861 0.13804425 0.06795292 0.21737619 0.13032423 0.12003922 -0.116857335
-0.082410485 -0.110933006 0.2222448 0.05215525 0.040471032 -0.08362952 0.20241043 -0.048183728
0.081807934 -0.10685911 0.018292265 0.14045428 0.042644512 0.023264224 0.32205397 0.2868006
0.10730519 -0.13900685 -0.26565084 -0.025176642 -0.22099446 0.22849652 0.03607189 -0.09468291
-0.20837131 0.15640324 -0.05403518 0.1049933 -0.21085538 -0.1131936 0.16067602 -0.054636475
0.1508719 -0.18823881 -0.06977962 -0.102308646 -0.197071 0.054265644 -0.12431907 0.0945531
-0.0736682 0.113157384 0.17738044 -0.18978725 -0.045373634 -0.2196626 0.003566927 0.20457694
-0.12937781 0.16957211 -0.09060284 0.28592947 0.25514933 0.10938212 -0.26203877 0.026822109
-0.10434909 -0.32202637 0.18874373 0.09848774 0.08041872 -0.18158819 -0.03993451 -0.2072524
0.26448452 0.07031709 -0.17793372 -0.14596322 0.16319716 0.3057678 -0.012528004 -0.0382167
0.22753197 0.042578556 0.0036033436 -0.2506857 -0.011846762 0.31890702 0.20347925 -0.026161237
-0.12665619 0.06097985 -0.07986119 -0.103401385 -0.20652977 0.02140413 0.17074104 0.15416083
0.12342391 0.25227258 0.15425321 0.08620432 -0.04377659 0.053986978 -0.0931254 0.22286068
-0.11684017 0.18229994 -0.20578867 0.3697974 -0.0069133504 -0.07609617 0.017759455 0.038623735
-0.1944666 -0.1309118 0.059009854 0.20064741 0.061296593 -0.19102836 -0.17772532 0.26454756
-0.16782688 0.17979409 -0.06791105 0.07602925 -0.16754706 -0.12858245 0.036271688 0.22183108
-0.15585883 0.15267156 -0.22899216 0.08766852 -0.09960834 -0.08411684 0.008186598 -0.13567248
0.22159465 0.1896083 0.012210545 0.1524785 0.12031768 0.109522514 -0.36396152 0.0944627
-0.16799691 0.323484 0.08332042 0.080978364 -0.03730808 0.055911202 0.10765763 -0.16296792
0.11302239 -0.01507364 -0.033081945 -0.012280529 -0.09657724 0.21713847 0.22734888 0.3451091
-0.39895567 -0.33513293 -0.09073944 0.14710817 -0.08145974 -0.024497867 -0.12671517 -0.115390204
-0.03144669 0.038470548 -0.05512575 0.03339876 0.23457214 0.02127437 0.0053185867 0.32907793
-0.17421484 0.051054895 -0.18801858 0.21992543 -0.07436304 -0.13129382 -0.09309772 -0.12195893
-0.0100460155 -0.09391054 0.20711005 0.35336617 0.10508619 -0.115454085 0.22113618 -0.08056443
-0.16540408 0.095694356 -0.104877785 -0.27618295 -0.2076795 -0.11658339 0.08025592 0.10999727
0.15486664 -0.12812169 -0.036367055 -0.19644709 -0.15540364 0.3543739 0.29325637 0.08998112
0.08226749 0.113052875 0.15382311 0.044847246 0.21079771 0.013961746 0.0357074 -0.13947336
-0.013122721 -0.16457367 0.19977577 0.13031948 0.27906963 0.17118387 -0.0656327 0.0033027513
0.15305853 0.0038728684 0.04841073 -0.20394489 0.19016823 -0.03812623 0.13696069 0.25656238
-0.09680493 0.19446157 -0.08290684 -0.13111275 -0.33441517 -0.09176385 -0.0017907278 0.13198322
00000000: 4123 e03c d40e a6be 2b35 8eba 0bd5 4b3d
00000010: db32 a73e ca9d 863b 1344 3fbe ef35 323e
00000020: abbc ec3d 20e3 febd d2e6 83be 444b bdbe
00000030: 6501 393e 3dd2 943e a593 de3b a063 6ebe
00000040: 9461 633d 70ab 893e 795b 0d3e e72a 8b3d
00000050: dd97 5e3e b773 053e 1fd7 f53d e652 efbd
00000060: d4c6 a8bd d830 e3bd 2494 633e bea0 553d
00000070: f4c4 253d f445 abbd ae44 4f3e 4d5c 45bd
00000080: eb8a a73d f3d8 dabd a9d9 953c 3fd3 0f3e
00000090: 03ac 2e3d 9d94 be3c 42e4 a43e 87d7 923e
000000a0: d3c2 db3d d057 0ebe 6303 88be 3f3f cebc
000000b0: 5f4c 62be fefa 693e 1ec0 133d 1de9 c1bd
000000c0: 4a5f 55be 2c28 203e fe53 5dbd ba06 d73d
000000d0: 79ea 57be 0cd2 e7bd 4188 243e 7fca 5fbd
000000e0: 2a7e 1a3e adc1 40be 9ee8 8ebd 3287 d1bd
000000f0: fbcc 49be a745 5e3d ff9a febd 0ea5 c13d
00000100: 5adf 96bd 0fbf e73d 38a3 353e 9757 42be
00000110: b4d9 39bd 3cef 60be 1bc3 693b 9e7c 513e
00000120: 9e7b 04be 50a4 2d3e fb8d b9bd 5965 923e
00000130: efa2 823e bc03 e03d f229 86be 0aba db3c
00000140: fab4 d5bd a4e0 a4be 0946 413e f1b3 c93d
00000150: 92b2 a43d 41f2 39be 5e92 23bd f939 54be
00000160: 846a 873e 6802 903d 4234 36be 6277 15be
00000170: 281d 273e 998d 9c3e 4242 4dbc 1d89 1cbd
00000180: 24fe 683e da66 2e3d 1326 6c3b e059 80be
00000190: ec18 42bc c847 a33e dd5c 503e 1750 d6bc
000001a0: 29b2 01be 02c6 793d 438e a3bd 1bc4 d3bd
000001b0: 8a7c 53be b757 af3c bdd6 2e3e 56dc 1d3e
000001c0: adc5 fc3d df29 813e 8ef4 1d3e e48b b03d
000001d0: 154f 33bd 7321 5d3d 88b8 bebd 9735 643e
000001e0: e649 efbd d6ac 3a3e 44ba 52be 1656 bd3e
000001f0: 6389 e2bb 4fd8 9bbd 477c 913c ec33 1e3d
00000200: 4122 47be be0d 06be 51b4 713d 8476 4d3e
00000210: 2312 7b3d f09c 43be a0fd 35be c772 873e
00000220: cfda 2bbe f11b 383e f314 8bbd 39b5 9b3d
00000230: 7591 2bbe 1eab 03be 9f91 143d b027 633e
00000240: 7599 1fbe ef55 1c3e ec7c 6abe 8e8b b33d
00000250: 75ff cbbd 7345 acbd 1521 063c baed 0abe
00000260: b5e9 623e ae28 423e bd0e 483c 5323 1c3e
00000270: 1e69 f63d 574d e03d 2a59 babe a975 c13d
00000280: 6207 2cbe b29f a53e e5a3 aa3d fcd7 a53d
00000290: 5bd0 18bd 2503 653d 9b7b dc3d 10e1 26be
000002a0: 4878 e73d 6ef7 76bc ef80 07bd 4634 49bc
000002b0: 4aca c5bd 8c59 5e3e 25ce 683e 24b2 b03e
000002c0: eb43 ccbe 8b96 abbe 99d5 b9bd 86a3 163e
000002d0: 5dd4 a6bd c0af c8bc 9fc1 01be b351 ecbd
000002e0: 3fce 00bd 4b93 1d3d 8acb 61bd 23cd 083d
000002f0: ae33 703e 9647 ae3c 8a47 ae3b e77c a83e
00000300: 6065 32be f01e 513d f187 40be 2234 613e
00000310: a64b 98bd e371 06be 04aa bebd 9ac5 f9bd
00000320: 0b98 24bc 2b54 c0bd a814 543e 69ec b43e
00000330: 6e37 d73d 3173 ecbd 8671 623e f7fe a4bd
00000340: b05f 29be 67fb c33d 2aca d6bd da67 8dbe
00000350: efa9 54be 46c3 eebd 375d a43d 4046 e13d
00000360: 5c95 1e3e 5532 03be 9ff5 14bd 6d29 49be
00000370: 2222 1fbe 7f70 b53e b325 963e 0548 b83d
00000380: dc7b a83d 4488 e73d ce83 1d3e bfb1 373d
00000390: 5bdb 573e cfbf 643c ec41 123d 1bd2 0ebe
000003a0: ae00 57bc 0086 28be 0592 4c3e 7872 053e
000003b0: 37e2 8e3e d34a 2f3e 706a 86bd f972 583b
000003c0: 60bb 1c3e f3cf 7d3b 544a 463d eed6 50be
000003d0: 76bb 423e 402a 1cbd 6c3f 0c3e 255c 833e
000003e0: aa41 c6bd ef20 473e 10cb a9bd 6c42 06be
000003f0: 7738 abbe afee bbbd dbb6 eaba 9c26 073e

dec_mu.bias f4 [20]
-0.12269959 0.1451046 -0.05353611 -0.21735449 0.064019956 0.08823673 0.08201263 -0.08709837
-0.031502903 0.1178981 0.253851 0.034833696 -0.0056981924 0.021119678 -0.13534158 0.10052598
0.00038592416 -0.020250259 0.1450504 0.015041905
00000000: ec49 fbbd 4d96 143e ae48 5bbd 2d92 5ebe
00000010: e51c 833d 75b5 b43d 3df6 a73d a160 b2bd
00000020: 3009 01bd 8f74 f13d c2f8 813e c7ad 0e3d
00000030: e7b7 babb 2d03 ad3c fc96 0abe 91e0 cd3d
00000040: dd55 ca39 dfe3 a5bc 1888 143e 5372 763c

dec_log_var.weight f4 [20, 15]
0.3048231 -0.25572333 0.05769294 0.19137704 0.007911881 -0.035765152 0.046093397 0.19022468
-0.38383603 -0.32077882 0.1988417 -0.04116029 -0.35824773 -0.18869007 0.29637337 -0.2261592
0.076908275 0.06551714 -0.10021609 -0.2355572 0.04870218 -0.17540634 -0.1139552 -0.19934118
0.15788016 0.18944377 -0.10793643 0.03367501 0.18665487 -0.03054373 0.33235806 -0.017410833
0.28683904 0.31272754 -0.082033694 0.3253051 -0.1075741 0.16707774 -0.39787352 -0.15764065
0.16998605 0.14556514 -0.17470554 0.25507984 0.15716153 0.39963797 -0.18800141 0.37316307
0.3738736 -0.10118944 0.2581976 -0.040022377 0.05600337 -0.43203446 -0.09043163 0.1809281
0.31425008 -0.34716502 0.39799824 0.29155746 0.42873394 0.035292506 0.13012053 0.03683061
-0.3136406 0.4252251 -0.13339573 0.38887632 -0.32110587 -0.030519024 0.17916863 0.33341014
-0.065895505 0.11149769 0.11741974 0.013614644 -0.2969161 0.13807356 -0.21445534 0.056507044
0.19924194 -0.2807643 0.30326787 -0.31077376 -0.039604355 -0.12087871 0.054370567 0.15114458
-0.083345786 0.07764411 0.06611556 -0.12537424 0.31125942 0.3361887 -0.02237621 0.07150621
-0.056847695 0.052634742 0.054118436 -0.27628958 0.3111865 0.2772962 -0.22059694 0.42313886
0.24341477 0.29294127 -0.13142212 0.23950088 0.1213629 0.014235467 0.20413041 -0.21988097
0.15270227 -0.38642618 -0.2671964 0.11967256 0.25434196 -0.27564883 0.14435157 0.05821069
0.25475752 -0.07609164 -0.03034824 0.24760927 -0.023479216 0.0068912352 0.0603263 0.02628474
0.004116861 -0.15841751 0.06477044 -0.006151154 0.015150917 -0.012942038 0.123008296 0.25391945
-0.100376084 0.3418384 -0.11616726 -0.07940271 0.18703474 -0.29801503 0.04465018 -0.42765427
-0.09970269 0.20411743 0.32298893 -0.15172085 0.026238369 0.10360813 0.31428468 -0.07452969
0.11238522 0.18496834 -0.2665118 0.005650306 -0.045897346 0.102919586 -0.13825464 -0.00915671
0.023523198 0.100408785 -0.092424415 0.0149257565 0.25493386 0.20757224 -0.2768926 0.03284991
0.032817032 -0.3561325 -0.05031736 -0.086596385 0.21029441 -0.20283912 -0.06823325 -0.02531302
0.0844361 0.029132709 -0.113513455 0.4056018 0.19325665 -0.4401627 0.11406725 0.24132521
-0.112800114 0.026780475 -0.3685429 0.12112257 0.0022255394 -0.22724065 0.3176481 0.24250624
-0.11215107 0.14821646 0.14948489 0.23531078 0.004380386 0.29286158 0.04950282 -0.3999728
0.24910519 -0.17410547 0.40290695 -0.47597894 -0.28465354 0.020482413 0.27555802 -0.022834867
0.27212733 0.4558012 0.19847016 0.0121059995 0.003622262 0.18660346 -0.13279091 0.18236938
-0.1787702 0.1043779 -0.23445855 0.085342154 0.2626281 0.11133483 -0.29280442 -0.025089912
0.09929362 0.20061493 -0.25354743 0.26762486 -0.03976337 -0.01972652 -0.0050717453 -0.11241978
-0.048480585 -0.30950388 -0.07922749 0.07949047 -0.08487862 -0.2598928 -0.07390534 -0.11191874
0.11086788 -0.14602377 0.14779058 -0.095937446 -0.24799669 0.17454684 -0.24112134 -0.02422948
-0.080796465 -0.2869725 0.35392252 -0.056579717 0.0476861 -0.01908453 0.13269669 0.18680045
00000000: c611 9c3e 2bee 82be 6f4f 6c3d 58f8 433e
00000010: d6a0 013c 7b7e 12bd 6ecc 3c3d 42ca 423e
00000020: 2886 c4be 1f3d a4be 299d 4b3e b197 28bd
00000030: 3f6c b7be f837 41be 40be 973e 4796 67be
00000040: 1682 9d3d da2d 863d 183e cdbd e835 71be
00000050: f07b 473d b89d 33be 5861 e9bd 1820 4cbe
00000060: 56ab 213e 8cfd 413e c60d ddbd cfee 093d
00000070: 7422 3f3e d836 fabc d62a aa3e 2aa1 8ebc
00000080: 91dc 923e d31d a03e 4801 a8bd 648e a63e
00000090: cf4f dcbd 6d16 2b3e 14b6 cbbe 8d6c 21be
000000a0: d310 2e3e 070f 153e 02e6 32be d399 823e
000000b0: f4ee 203e 599d cc3e 7183 40be 3b0f bf3e
000000c0: 5c6c bf3e 693c cfbd 7a32 843e 81ee 23bd
000000d0: ca63 653d 9f33 ddbe 3834 b9bd 3745 393e
000000e0: 63e5 a03e 9dbf b1be 6dc6 cb3e 0547 953e
000000f0: 0483 db3e e08e 103d 513e 053e b2db 163d
00000100: 8095 a0be 1bb7 d93e e498 08be cc1a c73e
00000110: fd67 a4be 0803 fabc fb77 373e bcb4 aa3e
00000120: 39f4 86bd e758 e43d c379 f03d f50f 5f3c
00000130: 6305 98be 2863 0d3e 2e9a 5bbe ee73 673d
00000140: 1406 4c3e 57c0 8fbe ed45 9b3e bd1d 9fbe
00000150: 2d38 22bd 428f f7bd acb3 5e3d a5c5 1a3e
00000160: 32b1 aabd e003 9f3d 9867 873d 1b62 00be
00000170: 655d 9f3e ed20 ac3e 504e b7bc d971 923d
00000180: 21d9 68bd 8797 573d 4bab 5d3d d475 8dbe
00000190: d653 9f3e c4f9 8d3e 2ae4 61be a8a5 d83e
000001a0: b941 793e 66fc 953e 8593 06be b83f 753e
000001b0: 1d8d f83d e03b 693c 9007 513e 7a28 61be
000001c0: fc5d 1c3e a7d9 c5be f7cd 88be e316 f53d
000001d0: 1c39 823e d821 8dbe e6d0 133e 556e 6e3d
000001e0: 946f 823e efd5 9bbd df9c f8bc 498d 7d3e
000001f0: 7c57 c0bc dfcf e13b b618 773d 1853 d73c
00000200: bce6 863b 3338 22be 5da6 843d 9f8f c9bb
00000210: 8d3b 783c d70a 54bc c6eb fb3d bb01 823e
00000220: fa91 cdbd 7105 af3e 1ae9 edbd e39d a2bd
00000230: 0986 3f3e 6d95 98be 1be3 363d 80f5 dabe
00000240: ed30 ccbd 2904 513e ce5e a53e b65c 1bbe
00000250: d9f1 d63c 8030 d43d ece9 a03e 06a3 98bd
00000260: 392a e63d 5768 3d3e 3c74 88be 3426 b93b
00000270: dbfe 3bbd 81c7 d23d a092 0dbe 0606 16bc
00000280: b9b3 c03c 1fa3 cd3d 0349 bdbd 298b 743c
00000290: b186 823e d18d 543e dec4 8dbe a18d 063d
000002a0: 276b 063d 0057 b6be 9319 4ebd 7259 b1bd
000002b0: 6b57 573e 0fb5 4fbe e0bd 8bbd 405d cfbc
000002c0: d6ec ac3d b8a7 ee3c be79 e8bd 0aab cf3e
000002d0: 12e5 453e 015d e1be 179c e93d f51d 773e
000002e0: bf03 e7bd ba62 db3c a8b1 bcbe 1c0f f83d
000002f0: 5bda 113b c6b1 68be c6a2 a23e 8e53 783e
00000300: 76af e5bd 0ec6 173e 9112 193e 4ff5 703e
00000310: 5789 8f3b f4f1 953e 78c3 4a3d 3cc9 ccbe
00000320: 6e15 7f3e b448 32be d249 ce3e 83b3 f3be
00000330: 1cbe 91be bcca a73c f115 8d3e 3010 bbbc
00000340: 4654 8b3e c65e e93e c33b 4b3e 3e58 463c
00000350: 7963 6d3b fa14 3f3e 57fa 07be 0abf 3a3e
00000360: 890f 37be 15c4 d53d e715 70be dec7 ae3d
00000370: 3177 863e 8403 e43d 76ea 95be 5c89 cdbc
00000380: 745a cb3d 006e 4d3e f8d0 81be 2006 893e
00000390: eade 22bd 8399 a1bc e230 a6bb 573c e6bd
000003a0: 9493 46bd 4b77 9ebe 0642 a2bd e6cb a23d
000003b0: d8d4 adbd ab10 85be af5b 97bd a735 e5bd
000003c0: b30e e33d 4187 15be 6a56 173e da7a c4bd
000003d0: d8f2 7dbe 68bc 323e 83e8 76be e77c c6bc
000003e0: 9e78 a5bd 0fee 92be 5535 b53e 22c0 67bd
000003f0: 8052 433d 2957 9cbc a4e1 073e 9e48 3f3e

dec_log_var.bias f4 [20]
-0.20347682 -0.2532352 -0.37295845 -0.12324685 -0.15084228 -0.24098693 0.044198547 0.0076145697
-0.2181639 -0.284895 -0.34113976 -0.39167508 -0.02087247 -0.09415517 -0.020066854 -0.33499718
-0.019103594 -0.13754663 -0.04488885 -0.14575188
00000000: 3a5c 50be 0ba8 81be 69f4 bebe d868 fcbd
00000010: 6676 1abe 47c5 76be 8909 353d a483 f93b
00000020: 5b66 5fbe c2dd 91be dfa9 aebe a389 c8be
00000030: befc aabc 6dd4 c0bd 3e63 a4bc c084 abbe
00000040: 247f 9cbc 06d9 0cbe 5fdd 37bd fb3f 15be

exp_avg f4 [15, 20]
-0.010976877 0.011060715 0.008445666 0.0046868143 -0.015318487 0.007821488 -0.0152177 0.0017497606
-0.0012475358 0.005606019 0.0015131417 0.0040715523 -0.00746589 0.0039774016 -0.012395558 0.008472028
0.0053600506 0.0052281143 0.0061372286 -0.010976877 -0.010274475 0.0070126434 0.0039916546 0.003471882
-0.004352822 0.001850427 -0.0021969972 -0.0074178996 0.008978675 -0.00012583335 -0.0038731124 0.0030867558
-0.0019258482 -0.002396189 -0.007968422 0.011850192 -0.0047890735 0.0040802998 0.0053858766 -0.010274475
-0.012097315 0.00037353628 0.007361832 0.009088245 -0.009774561 0.0097932555 -0.010267458 -0.002420902
-0.004313573 0.0055540875 -0.0021777845 0.013791242 -0.0047695544 0.002770829 -0.012770162 0.010576735
0.0009088131 0.0022334033 0.012714306 -0.012097315 0.011388804 0.0023185655 -0.002673866 -0.008142657
0.009431389 -0.0061173844 0.0093859 0.0012711335 0.001006994 -0.0017486911 -3.212476e-06 -0.01189127
0.0037394322 -0.0010190007 0.0119037675 -0.0065363413 -0.008150967 -0.0017535151 -0.008576775 0.011388804
0.0076389504 -0.0044976496 -0.011540667 -0.0050355475 0.0052301046 -0.0120152 0.010099535 0.004523431
-0.0060720867 -0.0025863429 0.009355312 -0.0055054645 -0.0008747572 0.0021224339 0.008160125 -0.009001865
0.002257268 0.00201513 -0.006570613 0.0076389504 -0.02188259 0.00677179 0.011798387 0.0083828475
-0.007619886 0.009160056 -0.015499021 -0.0013145108 0.005809548 0.0029497503 -0.0048586433 0.008512934
-0.0011897895 -0.002584442 -0.010216801 0.010779982 0.007497258 -0.0058412263 0.017689543 -0.02188259
-0.00019694657 -0.0007085159 -0.0028397266 -0.0011778778 -0.0027581924 -0.003323941 0.002323395 0.004348885
-0.012179756 0.0028954821 0.0061443355 0.0012153883 -0.0036366056 0.00719481 0.0018248021 -0.0031783644
-0.0002793662 0.002246229 0.0019998497 -0.00019694657 0.013400806 -0.00698075 -0.008857128 -0.006275392
0.007697351 -0.007106227 0.011046049 0.0065464266 -0.008279734 -0.0018904018 0.007079092 -0.006409693
0.0034299062 0.004446692 0.0129976915 -0.014620967 0.0026962003 -0.0035297885 -0.0074653933 0.013400806
0.008667312 -0.0011155664 -0.009735258 -0.0024250064 5.1469004e-05 -0.0035799237 0.008134692 -0.0020977326
-0.002323106 -0.0012082764 0.005530024 -0.004154048 -0.0023805008 0.0012649545 0.0033032915 -0.005292247
0.006148919 0.0056563164 -0.00895619 0.008667312 -0.026346523 0.009287542 0.008995744 0.010282762
-0.013615414 0.0032734533 -0.009534419 -0.006294177 0.008198083 0.003808406 0.00097350567 0.009710935
-0.004632919 0.0011371443 -0.018112294 0.020874048 0.0013950475 0.0021658135 0.018164847 -0.026346523
-0.01529936 0.007655057 0.010821484 0.0037589811 0.0045421934 -0.0007988062 -0.0025314828 -0.00407683
0.015160021 -0.0013954388 -0.0007284245 0.006500109 0.0010127078 -0.002826706 0.00069047615 0.010717539
-0.0096157305 -0.0041216756 0.01728877 -0.01529936 0.0014861517 -0.001993057 -0.0029043201 0.0019471066
-0.0012691978 0.002162059 0.001301498 -0.0032113227 0.0020815881 -9.2100534e-05 0.00014406754 0.0023932555
-0.0019037588 -0.00052807265 -0.004581095 -0.0005803545 0.0061570425 0.00017626335 -0.0012438286 0.0014861517
0.0040533515 -0.006718609 -0.0023731345 4.059788e-05 0.004141992 0.0012053055 0.0007108267 0.001472465
-0.00052612036 -0.00064699183 0.0003814031 0.0021092978 0.0016435573 -0.00072843017 0.0010757279 -0.0041932673
00000000: 5cd8 33bc 0038 353c b15f 0a3c d993 993b
00000010: 64fa 7abc b325 003c a953 79bc 3958 e53a
00000020: 5b84 a3ba b2b2 b73b 9c54 c63a a86a 853b
00000030: 6da4 f4bb dd54 823b bd16 4bbc 43ce 0a3c
00000040: 5da3 af3b 9a50 ab3b ce1a c93b 5cd8 33bc
00000050: 4656 28bc 51ca e53b 6dcc 823b 8488 633b
00000060: 1ea2 8ebb 078a f23a 7ffb 0fbb da11 f3bb
00000070: 4b1b 133c 22f2 03b9 0bd4 7dbb 2b4b 4a3b
00000080: be6c fcba 6109 1dbb fc8d 02bc 4f27 423c
00000090: a9ed 9cbb 09b4 853b 027c b03b 4656 28bc
000000a0: d133 46bc 31d7 c339 863b f13b dde6 143c
000000b0: 7b25 20bc e473 203c d738 28bc ffa7 1ebb
000000c0: df58 8dbb 10ff b53b 29b9 0ebb a9f4 613c
000000d0: ec49 9cbb cc96 353b f139 51bc 0b4a 2d3c
000000e0: 6a3d 6e3a 4a5e 123b aa4f 503c d133 46bc
000000f0: 1b98 3a3c 13f3 173b 073c 2fbb c768 05bc
00000100: 1d86 1a3c 5774 c8bb 51c7 193c 2a9c a63a
00000110: 1dfd 833a 5634 e5ba eb95 57b6 9ad3 42bc
00000120: 4311 753b fd8f 85ba 0508 433c ce2e d6bb
00000130: a28b 05bc 34d6 e5ba 9a85 0cbc 1b98 3a3c
00000140: 2950 fa3b 0561 93bb 1115 3dbc 3c01 a5bb
00000150: 4c61 ab3b 67db 44bc 8578 253c 4a39 943b
00000160: 5bf8 c6bb a27f 29bb 0647 193c 2f67 b4bb
00000170: f64f 65ba 8818 0b3b 0cb2 053c 8f7c 13bc
00000180: acee 133b 4510 043b 4c4e d7bb 2950 fa3b
00000190: 1e43 b3bc e4e5 dd3b 064e 413c 3658 093c
000001a0: 3db0 f9bb 0f14 163c 9bef 7dbc aa4b acba
000001b0: 055e be3b 9950 413b 4135 9fbb d579 0b3c
000001c0: b6f2 9bba be5f 29bb 5f64 27bc 869e 303c
000001d0: 8fab f53b c267 bfbb a9e9 903c 1e43 b3bc
000001e0: 7183 4eb9 b2bb 39ba b51a 3abb 0563 9aba
000001f0: cac2 34bb 7ad6 59bb 1a44 183b 1781 8e3b
00000200: 998d 47bc 21c2 3d3b 6c56 c93b aa4d 9f3a
00000210: 1e54 6ebb 71c2 eb3b 332e ef3a 1b4c 50bb
00000220: e677 92b9 7835 133b e90f 033b 7183 4eb9
00000230: 0e8f 5b3c c6be e4bb 7d1d 11bc cea1 cdbb
00000240: 0f3a fc3b 5adb e8bb 7dfa 343c 6883 d63b
00000250: b9a7 07bc 5cc7 f7ba baf7 e73b 6708 d2bb
00000260: 47c8 603b 8eb5 913b 45f4 543c c88c 6fbc
00000270: bcb2 303b 0654 67bb 42a0 f4bb 0e8f 5b3c
00000280: 5701 0e3c 3238 92ba a280 1fbc dbec 1ebb
00000290: 6ce0 5738 279d 6abb 5f47 053c 1d7a 09bb
000002a0: 403f 18bb 075f 9eba 3435 b53b ae1e 88bb
000002b0: 2d02 1cbb d4cc a53a 097c 583b 966a adbb
000002c0: df7c c93b 9f58 b93b fcbc 12bc 5701 0e3c
000002d0: aad4 d7bc c62a 183c e362 133c 0879 283c
000002e0: 2f13 5fbc 6f87 563b 4036 1cbc 623f cebb
000002f0: 4151 063c 7396 793b dc32 7f3a 9d1a 1f3c
00000300: becf 97bb 3b0c 953a 3c60 94bc 0d00 ab3c
00000310: 07da b63a 52f0 0d3b 72ce 943c aad4 d7bc
00000320: 2baa 7abc 46d7 fa3b 984c 313c 3d59 763b
00000330: aed6 943b fa66 51ba 3ce7 25bb ee96 85bb
00000340: bd61 783c 28e7 b6ba bef3 3eba defe d43b
00000350: d6bc 843a 4240 39bb 1201 353a 9e98 2f3c
00000360: 4c8b 1dbc 1f0f 87bb 2ea1 8d3c 2baa 7abc
00000370: faca c23a f39d 02bb 6856 3ebb 0e36 ff3a
00000380: 365b a6ba 55b1 0d3b 0797 aa3a 0e75 52bb
00000390: 416b 083b 1926 c1b8 d610 1739 2ad8 1c3b
000003a0: 8c87 f9ba 5b6e 0aba 031d 96bb ee22 18ba
000003b0: 04c1 c93b 55d3 3839 f607 a3ba faca c23a
000003c0: fad1 843b c727 dcbb 9786 1bbb a447 2a38
000003d0: 8cb9 873b 57fb 9d3a c656 3a3a baff c03a
000003e0: 57eb 09ba e39a 29ba 0ff7 c739 253c 0a3b
000003f0: a26c d73a 1ff4 3eba 70ff 8c3a ad67 89bb

exp_avg_sq f4 [15, 20]
7.7092714e-05 0.0001086527 7.538646e-05 2.5425237e-05 8.5990905e-05 0.0002888159 0.00030814277 4.146124e-05
6.607042e-05 4.1839725e-05 7.9258156e-05 6.384692e-05 4.4278822e-05 3.547566e-05 0.00014947921 7.141261e-05
0.00020515248 7.597227e-05 6.277592e-05 7.7092714e-05 6.4692e-05 7.8709156e-05 2.3790946e-05 8.291968e-06
2.2525634e-05 7.467041e-05 6.411841e-05 4.1582876e-05 4.9797232e-05 2.4277953e-05 4.9052087e-05 4.1555584e-05
1.267385e-05 1.6875982e-05 6.927805e-05 7.5801414e-05 4.9905248e-05 7.184483e-05 5.20397e-05 6.4692e-05
4.2586653e-05 3.0871182e-05 1.8423265e-05 2.7150945e-05 3.250155e-05 0.00010200415 9.2831906e-05 3.1095948e-05
5.761336e-05 2.1795171e-05 3.4823493e-05 5.6695804e-05 2.1658985e-05 2.4059307e-05 8.2219514e-05 6.3874235e-05
4.700626e-05 2.4154873e-05 4.9325965e-05 4.2586653e-05 0.00012390915 0.0001896606 6.331886e-05 3.892565e-05
6.547136e-05 0.00025364858 0.00019638657 5.5389715e-05 6.857176e-05 3.7236565e-05 0.000116498915 0.0001316257
3.3803884e-05 3.91961e-05 0.00012949554 5.0939576e-05 0.000107798034 3.0097533e-05 9.732208e-05 0.00012390915
0.00015317809 0.00030655338 0.00013293105 2.2512211e-05 6.2124585e-05 0.0002734099 0.00034728672 8.865937e-05
0.000111808906 0.00010615627 0.00019856184 0.00011104746 2.7648066e-05 4.2973064e-05 0.0001756854 5.7826634e-05
0.00026896334 0.00011537103 0.00012200759 0.00015317809 6.473865e-05 8.057268e-05 7.877992e-05 2.0765405e-05
6.429765e-05 0.0002175201 0.0002985014 4.257627e-05 8.943861e-05 5.2955278e-05 8.08154e-05 4.17611e-05
1.5812724e-05 2.0995609e-05 0.00012272722 4.4643923e-05 0.00023705802 6.217026e-05 3.823552e-05 6.473865e-05
7.692036e-05 0.00013825325 4.6906214e-05 1.417404e-05 2.591216e-05 0.00013582596 0.00014913743 4.7679594e-05
9.878585e-05 5.0301493e-05 9.623668e-05 6.4672e-05 2.2880418e-05 3.6711426e-05 8.727789e-05 3.8155347e-05
9.7443415e-05 7.7563134e-05 7.4537595e-05 7.692036e-05 0.00019703523 0.0002854928 0.00012418668 2.780222e-05
8.654794e-05 0.00030786052 0.00037933953 0.0001055669 0.00013951905 0.00011488684 0.00018264579 0.000113161106
3.5292487e-05 4.7273636e-05 0.00020147783 0.00014413163 0.00031323932 0.00020322112 0.00014398374 0.00019703523
7.823248e-05 0.00017112971 0.00014579397 2.8393399e-05 9.192351e-05 0.00039701376 0.00048785296 6.964846e-05
0.00016535258 8.140294e-05 0.00012922399 7.860653e-05 4.1812866e-05 3.9383907e-05 0.00021625884 5.0008104e-05
0.0003527978 9.742444e-05 8.3462495e-05 7.823248e-05 0.0001537122 0.0001629154 4.5415105e-05 3.2757293e-05
6.598869e-05 0.00019485559 0.00019230359 6.672212e-05 9.5460266e-05 4.2109004e-05 0.00010031501 0.00010891237
3.6656395e-05 3.503384e-05 0.00016429876 0.00014954306 0.000118487 6.456451e-05 9.765857e-05 0.0001537122
9.697734e-05 0.00018298153 0.000103321225 1.7749991e-05 5.3564218e-05 0.00023314603 0.00022651613 6.533654e-05
0.00019482232 6.662694e-05 0.00013701424 8.217466e-05 2.7668037e-05 2.4624052e-05 0.00012258664 9.089061e-05
0.00016751292 9.4378294e-05 6.8421825e-05 9.697734e-05 1.911523e-05 9.519221e-05 1.8983106e-05 8.893639e-06
1.094995e-05 5.6526733e-05 7.290398e-05 3.2904933e-05 3.4315945e-05 1.0955774e-05 2.2200575e-05 4.2908494e-05
1.1778574e-05 2.042467e-05 5.9783255e-05 1.3585671e-05 3.2041702e-05 1.8742452e-05 4.1602325e-05 1.911523e-05
1.607683e-05 2.095833e-05 1.1443427e-05 4.2886763e-06 1.5787173e-05 4.9281898e-05 4.239496e-05 8.759813e-06
6.6695725e-06 8.197667e-06 1.1260154e-05 9.951878e-06 7.6026704e-06 4.8286756e-06 2.6241856e-05 1.9219397e-05
00000000: d6ac a138 79dc e338 cc18 9e38 4848 d537
00000010: 0456 b438 376c 9739 398e a139 abe6 2d38
00000020: 498f 8a38 107d 2f38 6637 a638 8ee5 8538
00000030: 06b8 3938 b3cb 1438 85bd 1c39 5ac3 9538
00000040: 331e 5739 4d53 9f38 91a6 8338 d6ac a138
00000050: 41ab 8738 a810 a538 ab92 c737 bb1d 0b37
00000060: 6ef5 bc37 5f98 9c38 4f77 8638 4669 2e38
00000070: 5fdd 5038 82a8 cb37 47bd 4d38 f84b 2e38
00000080: c5a1 5437 e590 8d37 5f49 9138 93f7 9e38
00000090: 5a51 5138 66ab 9638 3445 5a38 41ab 8738
000000a0: 129f 3238 ae7b 0138 a98b 9a37 36c2 e337
000000b0: 4652 0838 10eb d538 c0ae c238 056d 0238
000000c0: e0a5 7138 c6d4 b637 710f 1238 a8cc 6d38
000000d0: 51b0 b537 f8d2 c937 446d ac38 38f4 8538
000000e0: 9628 4538 32a0 ca37 5ae3 4e38 129f 3238
000000f0: 9ced 0139 a1df 4639 0eca 8438 1944 2338
00000100: ab4d 8938 23fc 8439 1eed 4d39 4152 6838
00000110: 2fce 8f38 752e 1c38 e150 f438 0105 0a39
00000120: a5c8 0d38 7e66 2438 32c9 0739 f4a7 5538
00000130: a111 e238 f679 fc37 6519 cc38 9ced 0139
00000140: 6e9e 2039 e6b8 a039 6863 0b39 9bd8 bc37
00000150: e248 8238 7558 8f39 0914 b639 a3ee b938
00000160: f37a ea38 37a0 de38 0a35 5039 27e2 e838
00000170: c5ed e737 fa3d 3438 3138 3839 e08a 7238
00000180: a603 8d39 5af3 f138 53de ff38 6e9e 2039
00000190: 4cc4 8738 21f9 a838 a636 a538 5e31 ae37
000001a0: 8ad7 8638 1b16 6439 2e80 9c39 ec93 3238
000001b0: fd90 bb38 4c1c 5e38 707b a938 a428 2f38
000001c0: 91a5 8437 ba1f b037 56b0 0039 0c40 3b38
000001d0: c792 7839 6761 8238 145f 2038 4cc4 8738
000001e0: 4e50 a138 13f8 1039 2abd 4438 0acd 6d37
000001f0: f15d d937 816c 0e39 c661 1c39 93fb 4738
00000200: 402b cf38 d1fa 5238 add2 c938 84a0 8738
00000210: 53ef bf37 98fa 1938 f608 b738 fe08 2038
00000220: 895a cc38 64a9 a238 1151 9c38 4e50 a138
00000230: 3e9b 4e39 32ae 9539 1c38 0239 d038 e937
00000240: 1281 b538 5768 a139 17e2 c639 cc63 dd38
00000250: dc4b 1239 67ef f038 9b84 3f39 e850 ed38
00000260: 0507 1438 ae47 4638 cb43 5339 0a22 1739
00000270: 453a a439 c117 5539 57fa 1639 3e9b 4e39
00000280: be10 a438 4871 3339 45e0 1839 5c2e ee37
00000290: 0fc7 c038 4926 d039 84c6 ff39 3b10 9238
000002a0: 7f62 2d39 dfb6 aa38 4d80 0739 8fd9 a438
000002b0: 3960 2f38 2630 2538 8ac3 6239 cbbf 5138
000002c0: b8f7 b839 5950 cc38 9608 af38 be10 a438
000002d0: ce2d 2139 45d4 2a39 197c 3e38 e064 0938
000002e0: 6863 8a38 2652 4c39 1aa5 4939 2aed 8b38
000002f0: d731 c838 339e 3038 3660 d238 e267 e438
00000300: 81bf 1938 4df1 1238 9d47 2c39 a9ce 1c39
00000310: 397c f838 cf66 8738 0cce cc38 ce2d 2139
00000320: 5060 cb38 bbde 3f39 29ae d838 d1e5 9437
00000330: 24aa 6038 a978 7439 f684 6d39 4a05 8938
00000340: 3849 4c39 11ba 8b38 7bab 0f39 2f55 ac38
00000350: a818 e837 c08f ce37 9a8a 0039 869c be38
00000360: 68a6 2f39 f6ec c538 b07d 8f38 5060 cb38
00000370: a559 a037 eea1 c738 e93d 9f37 e335 1537
00000380: adb5 3737 1e17 6d38 07e4 9838 6703 0a38
00000390: 77ee 0f38 b1ce 3737 5f3b ba37 a5f8 3338
000003a0: 979c 4537 a555 ab37 c8bf 7a38 03ee 6337
000003b0: 8464 0638 1c39 9d37 287e 2e38 a559 a037
000003c0: bbdc 8637 accf af37 25fd 3f37 73e7 8f36
000003d0: b26e 8437 09b4 4e38 3ed1 3138 1cf7 1237
000003e0: 31cb df36 b688 0937 fee9 3c37 fef6 2637
000003f0: 711a ff36 0206 a236 f521 dc37 5739 a137

exp_avg f4 [15]
0.041246127 0.02284187 -0.020506712 0.010073334 0.021025827 -0.029929677 0.014726397 -0.00696674
0.06994389 0.0045792935 -0.045714043 0.033107255 -0.03390814 -0.053022183 -0.03818892
00000000: b3f1 283d e01e bb3c b1fd a7bc a00a 253c
00000010: 5b3e ac3c 152f f5bc fc46 713c 4049 e4bb
00000020: be3e 8f3d e60d 963b a63e 3bbd 799b 073d
00000030: 43e3 0abd ca2d 59bd fc6b 1cbd

exp_avg_sq f4 [15]
0.0004775106 0.00021566323 0.00018702021 0.0003138136 0.0003968149 0.00019114357 0.00019386565 0.00032099825
0.00087702763 0.0001710649 0.0005599209 0.00019172998 0.0002436417 0.0007604612 0.00042491054
00000000: 635a fa39 a823 6239 db1a 4439 5987 a439
00000010: 980b d039 b66d 4839 6a48 4b39 a84b a839
00000020: 54e8 653a e25f 3339 a8c7 123a 200b 4939
00000030: 127a 7f39 b059 473a 87c6 de39

exp_avg f4 [3, 15]
-0.008203372 0.004734924 0.020758841 -0.030113079 -0.005839345 0.0373381 -0.016955845 -0.017144548
-0.0109791765 0.03368122 0.030609617 -0.00046511326 0.023136947 0.019624721 0.021678383 -0.051669866
-0.04277083 -0.10681116 0.0560949 0.036098 -0.09111535 -0.008386202 0.058766957 0.010341561
-0.075432815 -0.06855835 0.03406388 -0.017214999 0.0034750414 -0.025645033 -0.013707413 -0.023825595
0.042619374 -0.034000777 0.006113144 0.016643869 0.021521335 0.014660338 -0.013179074 0.004922802
0.0048601753 0.023984402 0.042431153 0.020752877 0.042705376
00000000: 7067 06bc 6c27 9b3b 720e aa3c b4af f6bc
00000010: fa57 bfbb d6ef 183d fce6 8abc b972 8cbc
00000020: 01e2 33bc 52f5 093d 05c1 fa3c 72da f3b9
00000030: b289 bd3c 06c4 a03c dd96 b13c c8a3 53bd
00000040: 7730 2fbd cfbf dabd c4c3 653d 7fdb 133d
00000050: af9a babd 4866 09bc 9fb5 703d a76f 293c
00000060: 857c 9abd 5268 8cbd 9186 0b3d 7806 8dbc
00000070: 85bd 633b 8815 d2bc 0f95 60bc e52d c3bc
00000080: a791 2e3d 6644 0bbd c550 c83b b958 883c
00000090: 834d b03c ea31 703c 0bed 57bc 754f a13b
000000a0: 1b42 9f3b f07a c43c 4acc 2d3d f001 aa3c
000000b0: d5eb 2e3d

exp_avg_sq f4 [3, 15]
0.00031879236 0.0010201002 0.00086739665 0.0011017105 0.00045592475 0.00031437055 0.0005555501 0.0007604976
0.00031614525 0.00032055302 0.00091280707 0.00070075976 0.00085606694 0.00049259065 0.0012921364 0.0010692177
0.0020896895 0.0020934388 0.002394208 0.0009487495 0.001669865 0.0008330118 0.001462041 0.0006363469
0.0012187897 0.0017603365 0.0015496098 0.001306412 0.0003605597 0.0020683105 0.00039430996 0.001094342
0.001137502 0.0013710517 0.00025195154 0.00018490443 0.0005627328 0.0007963936 0.0004479989 0.00020450196
0.0013111812 0.0012018937 0.0012186638 0.00063305517 0.0014779723
00000000: 9623 a739 e2b4 853a 0162 633a 4567 903a
00000010: 2f09 ef39 1ad2 a439 56a2 113a 215c 473a
00000020: 4cc0 a539 e60f a839 7249 6f3a 31b3 373a
00000030: ae69 603a 3321 013a e75c a93a fe24 8c3a
00000040: 2cf3 083b 1332 093b 25e8 1c3b 80b5 783a
00000050: 5fdf da3a 7a5e 5a3a f5a1 bf3a 84d0 263a
00000060: ccbf 9f3a 17bb e63a 471c cb3a ea3b ab3a
00000070: 8109 bd39 7e8c 073b 63bb ce39 0670 8f3a
00000080: 3c18 953a dcb4 b33a 5d18 8439 e8e2 4139
00000090: 5c84 133a 12c5 503a 65e1 ea39 946f 5639
000000a0: f1db ab3a dc88 9d3a 92bb 9f3a 9df3 253a
000000b0: 85b8 c13a

exp_avg f4 [3]
0.056929134 -0.030365184 0.041049555
00000000: 862e 693d 68c0 f8bc 9423 283d

exp_avg_sq f4 [3]
0.003812325 0.0024132845 0.005177731
00000000: 33d8 793b 3228 1e3b f5a9 a93b

exp_avg f4 [3, 15]
0.006764422 0.0015890705 0.0091165025 -0.0067818244 -0.0024875079 0.01027317 0.0032142191 -0.002808244
0.00046562424 0.00782865 0.004395954 -0.0050811428 0.0015028656 -0.0025344247 0.0045282384 -0.009384543
-0.0011141864 0.005816449 -0.00024027901 0.00042238014 0.005696719 -0.000673076 -0.001573797 -0.011160315
-0.00094886613 0.009821684 -0.0048006447 0.0045949137 0.012030203 0.0064245923 -0.06371111 -0.0072980486
0.008183329 0.027445031 -0.010543122 0.010376904 -0.0130655235 -0.0036441914 -0.07221571 -0.026686942
0.04979407 -0.033372387 0.019506194 0.0758366 0.027738063
00000000: 16a8 dd3b 5c48 d03a 625d 153c 113a debb
00000010: 7505 23bb cc50 283c a6a5 523b 840a 38bb
00000020: 071f f439 bd43 003c ef0b 903b b77f a6bb
00000030: cdfb c43a 9718 26bb 9e61 943b a0c1 19bc
00000040: e409 92ba e997 be3b 68f3 7bb9 e772 dd39
00000050: 8bab ba3b 5e71 30ba dd47 ceba c1d9 36bc
00000060: 54bd 78ba 21eb 203c ba4e 9dbb ee90 963b
00000070: 541a 453c 6385 d23b f87a 82bd 7824 efbb
00000080: 5f13 063c 67d4 e03c 0fbd 2cbc e403 2a3c
00000090: c710 56bc 63d3 6ebb d5e5 93bd 939e dabc
000000a0: def4 4b3d 7cb1 08bd 74cb 9f3c 3850 9b3d
000000b0: ef3a e33c

exp_avg_sq f4 [3, 15]
3.2441778e-05 4.246558e-05 5.1108636e-05 7.382719e-05 3.116199e-05 5.1099127e-05 3.0846637e-05 5.3005457e-05
4.703728e-05 3.2591364e-05 6.4753556e-05 4.7480207e-05 4.1871266e-05 8.2139784e-05 9.104179e-05 2.8941446e-05
2.1113721e-05 2.9792254e-05 0.00011639017 3.2827593e-05 6.449856e-05 3.3989123e-05 7.0606104e-05 3.0017962e-05
1.1939382e-05 3.165985e-05 1.858839e-05 7.632311e-05 4.879523e-05 4.6233123e-05 0.0007194579 0.00014057632
8.390727e-05 0.00024244832 6.893555e-05 8.151415e-05 7.7246594e-05 9.0251226e-05 0.00076784485 0.00018871191
0.00043601514 0.00021068085 0.000118304975 0.0010777703 0.0002958621
00000000: 1812 0838 121d 3238 7b5d 5638 acd3 9a38
00000010: efb3 0238 4553 5638 5361 0138 2d52 5e38
00000020: e549 4538 b6b2 0838 4dcc 8738 7c25 4738
00000030: ee9e 2f38 7642 ac38 b0ed be38 48c7 f237
00000040: 5f1d b137 61ea f937 7f16 f438 5cb0 0938
00000050: 6743 8738 8b8f 0e38 5d12 9438 15cf fb37
00000060: 414f 4837 81ca 0438 43ee 9b37 a80f a038
00000070: 7ba9 4c38 70ea 4138 019a 3c3a ab67 1339
00000080: 5ff7 af38 ba39 7e39 7e91 9038 93f2 aa38
00000090: 73ff a138 4245 bd38 3249 493a f8e0 4539
000000a0: f698 e439 36ea 5c39 801a f838 f843 8d3a
000000b0: f01d 9b39

exp_avg f4 [3]
0.0021049925 0.025488997 0.17838691
00000000: eaf3 093b 4dce d03c 0fab 363e

exp_avg_sq f4 [3]
0.00085781666 0.00012838568 0.009868582
00000000: 1adf 603a 459f 0639 d5af 213c

exp_avg f4 [15, 3]
-0.06811695 0.10838115 0.053518876 -0.023428798 0.039474454 0.07121319 -0.07854592 0.03799779
-0.0036975062 -0.093354136 0.040988732 -0.23023677 0.07753755 -0.07606927 0.04179357 -0.035070803
-0.021728992 -0.030585477 -0.010284969 0.032711767 -0.050680373 0.03420097 0.039150212 0.038932856
0.12927572 -0.054546274 0.06276329 0.016915407 0.04066014 0.12020601 -0.07648478 0.10118109
-0.043165676 -0.09593648 0.024091326 -0.2281274 0.049570248 -0.03769809 -0.034277737 0.098859854
-0.050018597 0.04451458 0.05386782 -0.037861306 -0.03193239
00000000: e680 8bbd f0f6 dd3d 9c36 5b3d c0ed bfbc
00000010: f7af 213d 39d8 913d afdc a0bd 92a3 1b3d
00000020: dc51 72bb 7430 bfbd cde3 273d 30c3 6bbe
00000030: 02cc 9e3d 35ca 9bbd bc2f 2b3d 67a6 0fbd
00000040: 0001 b2bc 658e fabc 4982 28bc c6fc 053d
00000050: 3996 4fbd 5116 0c3d f95b 203d 0f78 1f3d
00000060: db60 043e ea6b 5fbd 0a8a 803d 2e92 8a3c
00000070: 3f8b 263d 922e f63d 0da4 9cbd 0838 cf3d
00000080: 7ece 30bd 587a c4bd 2c5b c53c 3b9a 69be
00000090: 2c0a 4b3d 5069 1abd d066 0cbd 0977 ca3d
000000a0: 4de0 4cbd ec54 363d 81a4 5c3d 7514 1bbd
000000b0: 8acb 02bd

exp_avg_sq f4 [15, 3]
0.002781509 0.003962872 0.017088395 0.0018146974 0.0018119491 0.017048724 0.005112397 0.002163365
0.028831284 0.008187448 0.00920053 0.03078786 0.0022804718 0.0030470325 0.012135805 0.0017602828
0.0023204985 0.011791242 0.0018564551 0.0014581637 0.009233956 0.005070523 0.002533792 0.02263074
0.0045821844 0.0017146255 0.028137658 0.0042513823 0.0022577483 0.03282671 0.007634673 0.005973686
0.021631667 0.0097187 0.005139289 0.057304088 0.0072074453 0.0026325386 0.020094238 0.004948955
0.0045824586 0.014355837 0.0038818326 0.003055686 0.010912289
00000000: fa49 363b fbda 813b f6fc 8b3c 24db ed3a
00000010: ec7e ed3a c4a9 8b3c e585 a73b 3ec7 0d3b
00000020: 962f ec3c a524 063c d2bd 163c d236 fc3c
00000030: f873 153b b9b0 473b 41d5 463c 4ab9 e63a
00000040: 8113 183b 0e30 413c 4c54 f33a db1f bf3a
00000050: 054a 173c a126 a63b fa0d 263b 1a64 b93c
00000060: 2626 963b 49bd e03a f280 e63c 2e4f 8b3b
00000070: bbf6 133b 4d75 063d 472c fa3b e9be c33b
00000080: e534 b13c 2f3b 1f3c 7b67 a83b b1b7 6a3d
00000090: 6f2c ec3b ab86 2c3b ac9c a43c d82a a23b
000000a0: 7328 963b bf34 6b3c 5866 7e3b e741 483b
000000b0: 75c9 323c

exp_avg f4 [15]
0.040035926 -0.09863742 0.11206767 0.0007334703 -0.15179065 0.07770028 -0.018305842 0.123139545
-0.19782408 -0.03632063 0.103926316 -0.04568635 -0.051762033 -0.01032153 0.1516423
00000000: b6fc 233d 6a02 cabd bc83 e53d 5c46 403a
00000010: 026f 1bbe 5321 9f3d 22f6 95bc 9630 fc3d
00000020: 6592 4abe f1c4 14bd 52d7 d43d 9c21 3bbd
00000030: 6d04 54bd a21b 29bc 1e48 1b3e

exp_avg_sq f4 [15]
0.023500971 0.008600034 0.007383364 0.0045633228 0.012286821 0.0060290266 0.0046402058 0.00636844
0.027409459 0.009232483 0.008706884 0.011633189 0.007675508 0.0053167655 0.017741706
00000000: 1c85 c03c 28e7 0c3c 25f0 f13b ed87 953b
00000010: aa4e 493c 248f c53b de0c 983b 59ae d03b
00000020: cd89 e03c d743 173c 52a7 0e3c 2299 3e3c
00000030: d482 fb3b 4338 ae3b 0e57 913c
