supervised/saved_models/ff/N10_M10000_nhid10_Nc3_lr1e-05_nlayers1_seed2.pt (torch, 7247 bytes, 12 tensors)

layer1.weight f4 [10, 10]
-0.26369894 -0.19479583 0.26744345 0.030130923 0.1552039 0.206704 0.17747204 -0.024612656
0.13120082 0.0680476 -0.29834512 0.28163677 0.23640357 -0.24239628 -0.12944971 -0.039923478
-0.04138562 -0.13132901 0.2788797 0.060671546 -0.045879837 0.11816744 0.3074934 -0.16900823
0.2668588 0.28592157 0.2850795 -0.22060023 -0.11764193 -0.15469131 -0.2572171 0.26525423
0.16940865 -0.003734859 -0.12342763 0.0658149 -0.22583812 0.3051847 0.04332768 0.023599336
0.05499671 -0.012846556 0.10571219 0.0939996 0.23784952 -0.30839607 -0.14141746 -0.07218396
-0.14110647 0.061611664 0.15345085 -0.14703652 -0.11663917 0.14754015 -0.21320015 0.289876
0.12315181 -0.23186658 0.0476966 0.16889623 -0.21445037 0.22253463 0.16193806 -0.036123283
0.14392026 -0.17493695 -0.25692454 0.12915672 0.30407903 -0.27079335 -0.14849058 -0.10810661
-0.11645002 -0.2340844 0.15682743 0.03417536 -0.089077026 0.17665458 -0.16942729 0.23447622
0.10198731 -0.2076148 0.10766731 -0.051438626 -0.12791592 0.24246778 -0.02207546 0.27194524
0.03639971 0.067703374 -0.23837025 0.09321518 0.17428347 -0.22933388 -0.2110052 -0.14824966
-0.294492 -0.28386793 0.2388738 -0.26826972
00000000: 8c03 87be 8f78 47be 59ee 883e 20d5 f63c
00000010: c5ed 1e3e 37aa 533e 3bbb 353e 7ba0 c9bc
00000020: 8259 063e 8a5c 8b3d b1c0 98be b232 903e
00000030: c713 723e bb36 78be 778e 04be cd86 23bd
00000040: f883 29bd 1d7b 06be 52c9 8e3e ba82 783d
00000050: 7fec 3bbd c501 f23d c66f 9d3e 7e10 2dbe
00000060: b7a1 883e 5064 923e f1f5 913e 07e5 61be
00000070: 41ee f0bd 6667 1ebe f6b1 83be 67cf 873e
00000080: 7679 2d3e 89c4 74bb a0c7 fcbd f6c9 863d
00000090: 1c42 67be 2b41 9c3e 5e78 313d 6553 c13c
000000a0: 3b44 613d 5c7a 52bc a27f d83d dd82 c03d
000000b0: d38e 733e 17e6 9dbe bdcf 10be 2fd5 93bd
000000c0: 377e 10be 835c 7c3d 3822 1d3e be90 16be
000000d0: 84e0 eebd c414 173e 2451 5abe a16a 943e
000000e0: 0437 fc3d 6f6e 6dbe 835d 433d 22f3 2c3e
000000f0: e198 5bbe 1ee0 633e 17d3 253e 02f6 13bd
00000100: d55f 133e ac22 33be 9d8b 83be a941 043e
00000110: 3fb0 9b3e 6da5 8abe ea0d 18be 0067 ddbd
00000120: 597d eebd d2b3 6fbe 5f97 203e 76fb 0b3d
00000130: 046e b6bd f0e4 343e 597e 2dbe 891a 703e
00000140: b9de d03d f998 54be ae80 dc3d 4fb1 52bd
00000150: 64fc 02be 7949 783e 98d7 b4bc 683c 8b3e
00000160: dd17 153d 11a8 8a3d 5517 74be 9ae7 be3d
00000170: 5e77 323e 80d6 6abe bf11 58be c2ce 17be
00000180: a8c7 96be 2357 91be 559b 743e a65a 89be

layer1.bias f4 [10]
0.31446615 0.060691066 0.13124764 0.13298438 0.12756181 -0.038292978 -0.101251125 -0.17050675
0.058693632 -0.06721665
00000000: b501 a13e 3297 783d c865 063e 0f2d 083e
00000010: 909f 023e 19d9 1cbd c05c cfbd 5299 2ebe
00000020: bc68 703d e2a8 89bd

layerlast.weight f4 [36, 10]
0.30936134 0.28471804 -0.13335569 -0.0043128785 -0.24689852 -0.13884456 0.22989531 0.04365303
-0.14374901 -0.27568617 -0.152851 -0.05010756 -0.28785244 -0.18809663 -0.23886646 0.29711133
0.20392303 -0.20320211 0.20264007 -0.2678316 -0.13053626 -0.18702914 0.10184452 0.24418807
-0.22592366 0.16863444 0.2903427 -0.30070195 0.2600476 0.28617328 0.05114582 0.30285245
0.08697608 -0.038891856 0.23038898 -0.19797434 -0.2827045 0.05974175 -0.21079424 -0.28044754
-0.06452682 0.1032718 0.057828084 -0.282288 -0.16837724 -0.24928644 -0.051820945 -0.056626596
0.2701476 -0.024188362 0.095847465 0.12173335 0.0982765 0.19525997 -0.05576417 -0.22595213
-0.23142225 -0.06803129 -0.1982363 -0.027086882 0.19468056 -0.10837567 -0.18783487 0.026607817
-0.28583664 -0.23496948 0.25635394 0.099564955 0.26290748 0.0065001766 -0.11502052 -0.045484636
0.29841125 -0.10521618 -0.18892196 0.09128503 -0.25570625 0.2248193 0.26107806 -0.01847166
-0.086699955 -0.08929101 -0.23413783 0.16794951 -0.15474124 0.3085018 0.24059069 0.17348735
-0.10000606 0.14693497 -0.02108548 0.11794828 -0.17708996 0.07795605 0.20576787 0.29996085
-0.28086862 -0.26381427 0.17784137 -0.16053006 0.10792281 0.124270454 0.0340368 0.24218416
0.09881046 0.28756234 -0.16746758 0.09548324 -0.13417427 -0.12100357 -0.22578211 0.018110935
-0.1322843 -0.31544182 0.060841694 -0.05910935 -0.10489166 -0.1498434 0.21228635 0.14715363
0.28172255 -0.29973346 0.2104023 0.036839005 0.08715215 0.21319218 0.15236789 0.19388184
0.12173868 -0.06276762 0.17427053 -0.25384337 0.08422815 0.21555655 0.038704667 -0.27483293
0.18050054 0.21563675 0.07601184 -0.0780962 0.20010328 0.21540567 -0.2186297 0.030945953
-0.020164587 -0.16728167 -0.17521322 0.20375578 0.11120019 0.25470355 0.17582949 -0.08984526
0.2915831 -0.31122962 0.2660056 0.1805128 -0.30671957 -0.00023752605 0.18831255 -0.10350287
-0.18618108 -0.18165798 -0.050080832 0.1991291 -0.16118763 0.057009667 0.16621865 0.226892
0.24510056 -0.30806968 -0.16139564 0.18802777 0.012789757 0.054136988 -0.18381265 -0.30390504
0.3100645 0.07558624 0.17586146 -0.22202092 0.19713278 0.20239417 -0.031181028 -0.28455555
0.0719327 -0.265256 -0.063426785 0.0185043 0.03813626 -0.1417893 0.30953947 0.06252549
-0.1804806 0.24547347 0.23944062 -0.020377593 0.08556094 -0.015612806 -0.09543469 0.27940592
0.11929049 -0.14225712 -0.2128591 -0.14926289 0.28445625 0.0372202 -0.29054022 0.27403396
0.19400775 -0.059624467 0.035042044 0.25872317 0.1428743 0.25983915 -0.059731204 -0.16740525
0.021732407 -0.056679524 0.31142375 0.2655343 -0.10405024 -0.14147368 -0.24752434 0.28690004
-0.1706123 0.03514884 -0.21338207 -0.09280561 0.13676007 0.06530586 -0.121316604 -0.28673947
-0.06254189 0.06567435 -0.06492318 0.27985603 0.1770083 -0.0034398248 0.23530285 0.17136128
-0.1590481 0.0017040503 -0.108650535 0.23340407 0.09436702 -0.31169334 0.027258288 0.2657546
0.1865228 -0.15752658 0.10796236 -0.3016522 0.18085155 0.22409779 0.11451777 0.27419278
00000000: 9c64 9e3e 90c6 913e 658e 08be 0c53 8dbb
00000010: f7d2 7cbe 452d 0ebe ad69 6b3e 85cd 323d
00000020: f132 13be bd26 8dbe f984 1cbe 963d 4dbd
00000030: 6561 93be 679c 40be 6999 74be fa1e 983e
00000040: 33d1 503e 3714 50be e180 4f3e 3921 89be
00000050: 4cab 05be 9184 3fbe dc93 d03d 700c 7a3e
00000060: 8858 67be 82ae 2c3e cca7 943e 9bf5 99be
00000070: f624 853e 4e85 923e 487e 513d 7a0f 9b3e
00000080: 8420 b23d 114d 1fbd 17eb 6b3e c9b9 4abe
00000090: a5be 90be c4b3 743d 72da 57be d296 8fbe
000000a0: a326 84bd 2a80 d33d 24dd 6c3d 0e88 90be
000000b0: 156b 2cbe f244 7fbe 3342 54bd 4af1 67bd
000000c0: c950 8a3e ac26 c6bc ad4b c43d 564f f93d
000000d0: 3145 c93d 3bf2 473e f868 64bd ff5f 67be
000000e0: f4f9 6cbe fd53 8bbd 75fe 4abe 4fe5 ddbc
000000f0: 575a 473e 10f4 ddbd c957 40be a3f8 d93c
00000100: 2e59 92be d79b 70be d340 833e b6e8 cb3d
00000110: cf9b 863e 6fff d43b e18f ebbd 194e 3abd
00000120: 5cc9 983e 957b d7bd c274 41be a5f3 ba3d
00000130: eeeb 82be 0837 663e 06ac 853e e151 97bc
00000140: bf8f b1bd 34de b6bd d4c1 6fbe f5fa 2b3e
00000150: 7d74 1ebe f3f3 9d3e 685d 763e aba6 313e
00000160: facf ccbd 1f76 163e 75bb acbc de8e f13d
00000170: 1257 35be 6ca7 9f3d d0b4 523e 7894 993e
00000180: 03ce 8fbe aa12 87be 0c1c 363e fe61 24be
00000190: a206 dd3d 8281 fe3d 2c6a 0b3d 20ff 773e
000001a0: 235d ca3d 5f3b 933e 9f7c 2bbe b88c c33d
000001b0: fb64 09be b8d0 f7bd 6d33 67be 625d 943c
000001c0: 8975 07be 9781 a1be 2435 793d a51c 72bd
000001d0: 70d1 d6bd 8c70 19be 9861 593e 71af 163e
000001e0: f03d 903e aa76 99be b373 573e 7fe4 163d
000001f0: d47c b23d 0d4f 5a3e 5406 1c3e f688 463e
00000200: 2152 f93d 4f8c 80bd f973 323e c2f7 81be
00000210: cf7f ac3d dbba 5c3e c988 1e3d e7b6 8cbe
00000220: 22d5 383e e1cf 5c3e 18ac 9b3d e7f0 9fbd
00000230: e0e7 4c3e 4e93 5c3e 77e0 5fbe 5e82 fd3c
00000240: 3430 a5bc e34b 2bbe 186b 33be 5ba5 503e
00000250: edbc e33d 8168 823e a50c 343e cb00 b8bd
00000260: 614a 953e 7d59 9fbe e331 883e 59d8 383e
00000270: 590a 9dbe 6a10 79b9 01d5 403e 50f9 d3bd
00000280: 41a6 3ebe 8d04 3abe 8f21 4dbd 80e8 4b3e
00000290: 5f0e 25be f882 693d 3935 2a3e 6056 683e
000002a0: a4fb 7a3e 4fbb 9dbe e644 25be 5a8a 403e
000002b0: 218c 513c bfbe 5d3d 6239 3cbe 7199 9bbe
000002c0: c6c0 9e3e f5cc 9a3d 0715 343e 7459 63be
000002d0: 2ddd 493e 6b40 4f3e 5b6f ffbc 44b1 91be
000002e0: 7451 933d a2cf 87be e7e5 81bd 5496 973c
000002f0: c434 1c3d 3731 11be f57b 9e3e 5d0d 803d
00000300: e8cf 38be 665d 7b3e ec2f 753e e9ee a6bc
00000310: 933a af3d dbcc 7fbc 4373 c3bd 4b0e 8f3e
00000320: 934e f43d daab 11be bcf7 59be 5fd8 18be
00000330: 40a4 913e 3574 183d b0c1 94be 2e4e 8c3e
00000340: f8a9 463e c938 74bd 3f88 0f3d 5d77 843e
00000350: a44d 123e a309 853e b5a8 74bd 486c 2bbe
00000360: 2908 b23c ca28 68bd ef72 9f3e 1df4 873e
00000370: 4b18 d5bd 7ade 10be 0577 7dbe 90e4 923e
00000380: feb4 2ebe 3bf8 0f3d d480 5abe de10 bebd
00000390: d50a 0c3e 14bf 853d d774 f8bd 84cf 92be
000003a0: f615 80bd 4680 863d 72f6 84bd 4a49 8f3e
000003b0: aa41 353e af6e 61bb 3bf3 703e 5579 2f3e
000003c0: 81dd 22be 715a df3a 2c84 debd 7a01 6f3e
000003d0: 7f43 c13d 4596 9fbe c64c df3c fd10 883e
000003e0: d5ff 3e3e a64e 21be 5f1b dd3d 2872 9abe
000003f0: 2631 393e e479 653e 4b88 ea3d ff62 8c3e

layerlast.bias f4 [36]
-0.11896692 0.017573232 0.2525719 0.014197135 -0.16854098 0.15973881 0.075714275 0.23806041
-0.037515633 0.08756261 -0.15451121 -0.0060678357 -0.1066908 0.2575845 0.24482456 -0.26680368
-0.22680344 0.31098014 0.17809847 -0.2236794 0.04461861 -0.111578874 -0.21795814 -0.20983806
-0.03550611 -0.103302374 -0.065292574 0.18772025 0.16660617 0.17956193 -0.27389896 -0.20867749
0.21838473 0.084309235 -0.20785396 -0.30534697
00000000: eea4 f3bd bdf5 8f3c 1b51 813e 1a9b 683c
00000010: 0296 2cbe 9292 233e 1610 9b3d 1cc6 733e
00000020: fea9 19bd 0754 b33d 3038 1ebe b2d4 c6bb
00000030: b580 dabd 1ee2 833e 4ab3 7a3e 7e9a 88be
00000040: 293f 68be ca38 9f3e 725f 363e 360c 65be
00000050: 01c2 363d 7783 e4bd 6b30 5fbe cadf 56be
00000060: db6e 11bd 3290 d3bd 1db8 85bd bd39 403e
00000070: cf9a 2a3e 15df 373e 7c3c 8cbe 8daf 55be
00000080: 3fa0 5f3e 52aa ac3d abd7 54be 7056 9cbe

layers.0.weight f4 [10, 10]
-0.26369894 -0.19479583 0.26744345 0.030130923 0.1552039 0.206704 0.17747204 -0.024612656
0.13120082 0.0680476 -0.29834512 0.28163677 0.23640357 -0.24239628 -0.12944971 -0.039923478
-0.04138562 -0.13132901 0.2788797 0.060671546 -0.045879837 0.11816744 0.3074934 -0.16900823
0.2668588 0.28592157 0.2850795 -0.22060023 -0.11764193 -0.15469131 -0.2572171 0.26525423
0.16940865 -0.003734859 -0.12342763 0.0658149 -0.22583812 0.3051847 0.04332768 0.023599336
0.05499671 -0.012846556 0.10571219 0.0939996 0.23784952 -0.30839607 -0.14141746 -0.07218396
-0.14110647 0.061611664 0.15345085 -0.14703652 -0.11663917 0.14754015 -0.21320015 0.289876
0.12315181 -0.23186658 0.0476966 0.16889623 -0.21445037 0.22253463 0.16193806 -0.036123283
0.14392026 -0.17493695 -0.25692454 0.12915672 0.30407903 -0.27079335 -0.14849058 -0.10810661
-0.11645002 -0.2340844 0.15682743 0.03417536 -0.089077026 0.17665458 -0.16942729 0.23447622
0.10198731 -0.2076148 0.10766731 -0.051438626 -0.12791592 0.24246778 -0.02207546 0.27194524
0.03639971 0.067703374 -0.23837025 0.09321518 0.17428347 -0.22933388 -0.2110052 -0.14824966
-0.294492 -0.28386793 0.2388738 -0.26826972
00000000: 8c03 87be 8f78 47be 59ee 883e 20d5 f63c
00000010: c5ed 1e3e 37aa 533e 3bbb 353e 7ba0 c9bc
00000020: 8259 063e 8a5c 8b3d b1c0 98be b232 903e
00000030: c713 723e bb36 78be 778e 04be cd86 23bd
00000040: f883 29bd 1d7b 06be 52c9 8e3e ba82 783d
00000050: 7fec 3bbd c501 f23d c66f 9d3e 7e10 2dbe
00000060: b7a1 883e 5064 923e f1f5 913e 07e5 61be
00000070: 41ee f0bd 6667 1ebe f6b1 83be 67cf 873e
00000080: 7679 2d3e 89c4 74bb a0c7 fcbd f6c9 863d
00000090: 1c42 67be 2b41 9c3e 5e78 313d 6553 c13c
000000a0: 3b44 613d 5c7a 52bc a27f d83d dd82 c03d
000000b0: d38e 733e 17e6 9dbe bdcf 10be 2fd5 93bd
000000c0: 377e 10be 835c 7c3d 3822 1d3e be90 16be
000000d0: 84e0 eebd c414 173e 2451 5abe a16a 943e
000000e0: 0437 fc3d 6f6e 6dbe 835d 433d 22f3 2c3e
000000f0: e198 5bbe 1ee0 633e 17d3 253e 02f6 13bd
00000100: d55f 133e ac22 33be 9d8b 83be a941 043e
00000110: 3fb0 9b3e 6da5 8abe ea0d 18be 0067 ddbd
00000120: 597d eebd d2b3 6fbe 5f97 203e 76fb 0b3d
00000130: 046e b6bd f0e4 343e 597e 2dbe 891a 703e
00000140: b9de d03d f998 54be ae80 dc3d 4fb1 52bd
00000150: 64fc 02be 7949 783e 98d7 b4bc 683c 8b3e
00000160: dd17 153d 11a8 8a3d 5517 74be 9ae7 be3d
00000170: 5e77 323e 80d6 6abe bf11 58be c2ce 17be
00000180: a8c7 96be 2357 91be 559b 743e a65a 89be

layers.0.bias f4 [10]
0.31446615 0.060691066 0.13124764 0.13298438 0.12756181 -0.038292978 -0.101251125 -0.17050675
0.058693632 -0.06721665
00000000: b501 a13e 3297 783d c865 063e 0f2d 083e
00000010: 909f 023e 19d9 1cbd c05c cfbd 5299 2ebe
00000020: bc68 703d e2a8 89bd

layers.2.weight f4 [36, 10]
0.30936134 0.28471804 -0.13335569 -0.0043128785 -0.24689852 -0.13884456 0.22989531 0.04365303
-0.14374901 -0.27568617 -0.152851 -0.05010756 -0.28785244 -0.18809663 -0.23886646 0.29711133
0.20392303 -0.20320211 0.20264007 -0.2678316 -0.13053626 -0.18702914 0.10184452 0.24418807
-0.22592366 0.16863444 0.2903427 -0.30070195 0.2600476 0.28617328 0.05114582 0.30285245
0.08697608 -0.038891856 0.23038898 -0.19797434 -0.2827045 0.05974175 -0.21079424 -0.28044754
-0.06452682 0.1032718 0.057828084 -0.282288 -0.16837724 -0.24928644 -0.051820945 -0.056626596
0.2701476 -0.024188362 0.095847465 0.12173335 0.0982765 0.19525997 -0.05576417 -0.22595213
-0.23142225 -0.06803129 -0.1982363 -0.027086882 0.19468056 -0.10837567 -0.18783487 0.026607817
-0.28583664 -0.23496948 0.25635394 0.099564955 0.26290748 0.0065001766 -0.11502052 -0.045484636
0.29841125 -0.10521618 -0.18892196 0.09128503 -0.25570625 0.2248193 0.26107806 -0.01847166
-0.086699955 -0.08929101 -0.23413783 0.16794951 -0.15474124 0.3085018 0.24059069 0.17348735
-0.10000606 0.14693497 -0.02108548 0.11794828 -0.17708996 0.07795605 0.20576787 0.29996085
-0.28086862 -0.26381427 0.17784137 -0.16053006 0.10792281 0.124270454 0.0340368 0.24218416
0.09881046 0.28756234 -0.16746758 0.09548324 -0.13417427 -0.12100357 -0.22578211 0.018110935
-0.1322843 -0.31544182 0.060841694 -0.05910935 -0.10489166 -0.1498434 0.21228635 0.14715363
0.28172255 -0.29973346 0.2104023 0.036839005 0.08715215 0.21319218 0.15236789 0.19388184
0.12173868 -0.06276762 0.17427053 -0.25384337 0.08422815 0.21555655 0.038704667 -0.27483293
0.18050054 0.21563675 0.07601184 -0.0780962 0.20010328 0.21540567 -0.2186297 0.030945953
-0.020164587 -0.16728167 -0.17521322 0.20375578 0.11120019 0.25470355 0.17582949 -0.08984526
0.2915831 -0.31122962 0.2660056 0.1805128 -0.30671957 -0.00023752605 0.18831255 -0.10350287
-0.18618108 -0.18165798 -0.050080832 0.1991291 -0.16118763 0.057009667 0.16621865 0.226892
0.24510056 -0.30806968 -0.16139564 0.18802777 0.012789757 0.054136988 -0.18381265 -0.30390504
0.3100645 0.07558624 0.17586146 -0.22202092 0.19713278 0.20239417 -0.031181028 -0.28455555
0.0719327 -0.265256 -0.063426785 0.0185043 0.03813626 -0.1417893 0.30953947 0.06252549
-0.1804806 0.24547347 0.23944062 -0.020377593 0.08556094 -0.015612806 -0.09543469 0.27940592
0.11929049 -0.14225712 -0.2128591 -0.14926289 0.28445625 0.0372202 -0.29054022 0.27403396
0.19400775 -0.059624467 0.035042044 0.25872317 0.1428743 0.25983915 -0.059731204 -0.16740525
0.021732407 -0.056679524 0.31142375 0.2655343 -0.10405024 -0.14147368 -0.24752434 0.28690004
-0.1706123 0.03514884 -0.21338207 -0.09280561 0.13676007 0.06530586 -0.121316604 -0.28673947
-0.06254189 0.06567435 -0.06492318 0.27985603 0.1770083 -0.0034398248 0.23530285 0.17136128
-0.1590481 0.0017040503 -0.108650535 0.23340407 0.09436702 -0.31169334 0.027258288 0.2657546
0.1865228 -0.15752658 0.10796236 -0.3016522 0.18085155 0.22409779 0.11451777 0.27419278
00000000: 9c64 9e3e 90c6 913e 658e 08be 0c53 8dbb
00000010: f7d2 7cbe 452d 0ebe ad69 6b3e 85cd 323d
00000020: f132 13be bd26 8dbe f984 1cbe 963d 4dbd
00000030: 6561 93be 679c 40be 6999 74be fa1e 983e
00000040: 33d1 503e 3714 50be e180 4f3e 3921 89be
00000050: 4cab 05be 9184 3fbe dc93 d03d 700c 7a3e
00000060: 8858 67be 82ae 2c3e cca7 943e 9bf5 99be
00000070: f624 853e 4e85 923e 487e 513d 7a0f 9b3e
00000080: 8420 b23d 114d 1fbd 17eb 6b3e c9b9 4abe
00000090: a5be 90be c4b3 743d 72da 57be d296 8fbe
000000a0: a326 84bd 2a80 d33d 24dd 6c3d 0e88 90be
000000b0: 156b 2cbe f244 7fbe 3342 54bd 4af1 67bd
000000c0: c950 8a3e ac26 c6bc ad4b c43d 564f f93d
000000d0: 3145 c93d 3bf2 473e f868 64bd ff5f 67be
000000e0: f4f9 6cbe fd53 8bbd 75fe 4abe 4fe5 ddbc
000000f0: 575a 473e 10f4 ddbd c957 40be a3f8 d93c
00000100: 2e59 92be d79b 70be d340 833e b6e8 cb3d
00000110: cf9b 863e 6fff d43b e18f ebbd 194e 3abd
00000120: 5cc9 983e 957b d7bd c274 41be a5f3 ba3d
00000130: eeeb 82be 0837 663e 06ac 853e e151 97bc
00000140: bf8f b1bd 34de b6bd d4c1 6fbe f5fa 2b3e
00000150: 7d74 1ebe f3f3 9d3e 685d 763e aba6 313e
00000160: facf ccbd 1f76 163e 75bb acbc de8e f13d
00000170: 1257 35be 6ca7 9f3d d0b4 523e 7894 993e
00000180: 03ce 8fbe aa12 87be 0c1c 363e fe61 24be
00000190: a206 dd3d 8281 fe3d 2c6a 0b3d 20ff 773e
000001a0: 235d ca3d 5f3b 933e 9f7c 2bbe b88c c33d
000001b0: fb64 09be b8d0 f7bd 6d33 67be 625d 943c
000001c0: 8975 07be 9781 a1be 2435 793d a51c 72bd
000001d0: 70d1 d6bd 8c70 19be 9861 593e 71af 163e
000001e0: f03d 903e aa76 99be b373 573e 7fe4 163d
000001f0: d47c b23d 0d4f 5a3e 5406 1c3e f688 463e
00000200: 2152 f93d 4f8c 80bd f973 323e c2f7 81be
00000210: cf7f ac3d dbba 5c3e c988 1e3d e7b6 8cbe
00000220: 22d5 383e e1cf 5c3e 18ac 9b3d e7f0 9fbd
00000230: e0e7 4c3e 4e93 5c3e 77e0 5fbe 5e82 fd3c
00000240: 3430 a5bc e34b 2bbe 186b 33be 5ba5 503e
00000250: edbc e33d 8168 823e a50c 343e cb00 b8bd
00000260: 614a 953e 7d59 9fbe e331 883e 59d8 383e
00000270: 590a 9dbe 6a10 79b9 01d5 403e 50f9 d3bd
00000280: 41a6 3ebe 8d04 3abe 8f21 4dbd 80e8 4b3e
00000290: 5f0e 25be f882 693d 3935 2a3e 6056 683e
000002a0: a4fb 7a3e 4fbb 9dbe e644 25be 5a8a 403e
000002b0: 218c 513c bfbe 5d3d 6239 3cbe 7199 9bbe
000002c0: c6c0 9e3e f5cc 9a3d 0715 343e 7459 63be
000002d0: 2ddd 493e 6b40 4f3e 5b6f ffbc 44b1 91be
000002e0: 7451 933d a2cf 87be e7e5 81bd 5496 973c
000002f0: c434 1c3d 3731 11be f57b 9e3e 5d0d 803d
00000300: e8cf 38be 665d 7b3e ec2f 753e e9ee a6bc
00000310: 933a af3d dbcc 7fbc 4373 c3bd 4b0e 8f3e
00000320: 934e f43d daab 11be bcf7 59be 5fd8 18be
00000330: 40a4 913e 3574 183d b0c1 94be 2e4e 8c3e
00000340: f8a9 463e c938 74bd 3f88 0f3d 5d77 843e
00000350: a44d 123e a309 853e b5a8 74bd 486c 2bbe
00000360: 2908 b23c ca28 68bd ef72 9f3e 1df4 873e
00000370: 4b18 d5bd 7ade 10be 0577 7dbe 90e4 923e
00000380: feb4 2ebe 3bf8 0f3d d480 5abe de10 bebd
00000390: d50a 0c3e 14bf 853d d774 f8bd 84cf 92be
000003a0: f615 80bd 4680 863d 72f6 84bd 4a49 8f3e
000003b0: aa41 353e af6e 61bb 3bf3 703e 5579 2f3e
000003c0: 81dd 22be 715a df3a 2c84 debd 7a01 6f3e
000003d0: 7f43 c13d 4596 9fbe c64c df3c fd10 883e
000003e0: d5ff 3e3e a64e 21be 5f1b dd3d 2872 9abe
000003f0: 2631 393e e479 653e 4b88 ea3d ff62 8c3e

layers.2.bias f4 [36]
-0.11896692 0.017573232 0.2525719 0.014197135 -0.16854098 0.15973881 0.075714275 0.23806041
-0.037515633 0.08756261 -0.15451121 -0.0060678357 -0.1066908 0.2575845 0.24482456 -0.26680368
-0.22680344 0.31098014 0.17809847 -0.2236794 0.04461861 -0.111578874 -0.21795814 -0.20983806
-0.03550611 -0.103302374 -0.065292574 0.18772025 0.16660617 0.17956193 -0.27389896 -0.20867749
0.21838473 0.084309235 -0.20785396 -0.30534697
00000000: eea4 f3bd bdf5 8f3c 1b51 813e 1a9b 683c
00000010: 0296 2cbe 9292 233e 1610 9b3d 1cc6 733e
00000020: fea9 19bd 0754 b33d 3038 1ebe b2d4 c6bb
00000030: b580 dabd 1ee2 833e 4ab3 7a3e 7e9a 88be
00000040: 293f 68be ca38 9f3e 725f 363e 360c 65be
00000050: 01c2 363d 7783 e4bd 6b30 5fbe cadf 56be
00000060: db6e 11bd 3290 d3bd 1db8 85bd bd39 403e
00000070: cf9a 2a3e 15df 373e 7c3c 8cbe 8daf 55be
00000080: 3fa0 5f3e 52aa ac3d abd7 54be 7056 9cbe

square_avg f4 [10, 10]
6.213804e-05 0.00019251594 5.003408e-05 1.312465e-06 4.067045e-05 1.764075e-06 7.5131597e-06 6.998985e-05
5.507146e-06 6.213804e-05 7.81753e-05 2.2864977e-05 7.047828e-05 3.418717e-05 4.9107634e-06 6.346951e-05
0.00085223507 0.000568996 1.6202912e-05 7.81753e-05 1.0520186e-05 1.3035599e-07 2.4602514e-06 1.9747707e-05
6.473249e-05 5.081839e-05 7.0920537e-06 6.5041904e-06 2.1410257e-08 1.0520186e-05 0.00014942625 0.00014107379
3.4739245e-05 2.1896315e-06 1.7110866e-06 4.2384465e-05 1.0052247e-07 4.7342495e-05 8.285976e-05 0.0001494262
2.0677548e-05 7.408788e-07 5.0362447e-05 6.800864e-05 0.00015146802 0.00018328021 0.00015124155 0.00014219036
4.9935577e-05 2.0677548e-05 5.2034397e-06 3.1340113e-07 4.2863246e-07 0.0001388742 0.0010573886 0.0016027815
0.00083719037 0.00030636234 1.0750283e-05 5.20344e-06 2.6341444e-05 4.494478e-05 1.22860335e-08 1.7401598e-07
4.1010902e-05 1.1907802e-05 0.0004309598 0.000582406 0.00018973072 2.6341444e-05 8.948972e-05 3.826969e-05
1.3882046e-06 2.3739105e-05 0.0003572101 0.00013512908 2.597045e-05 0.00013300512 7.4198863e-07 8.94897e-05
4.778702e-06 5.3948793e-06 0.00011723933 0.00048349082 0.0017954624 0.0013363424 0.0005919534 8.098805e-06
1.6525182e-06 4.778702e-06 0.00070060685 0.0003660456 5.6131787e-05 0.00038423802 0.0010693748 0.0013455357
0.0014970704 0.0011432053 0.0007193293 0.0007006067
00000000: 1b50 8238 1bde 4939 afdb 5138 f427 b035
00000010: 9095 2a38 28c5 ec35 8d19 fc36 84c7 9238
00000020: 06ca b836 1b50 8238 0bf2 a338 2ace bf37
00000030: bdcd 9338 3264 0f38 23c7 a436 ef1a 8538
00000040: 8768 5f3a ad28 153a 7deb 8737 0bf2 a338
00000050: db7f 3037 fbf7 0b34 cc1a 2536 e1a7 a537
00000060: fec0 8738 d525 5538 47f8 ed36 923e da36
00000070: a7e9 b732 db7f 3037 4eaf 1c39 35ed 1339
00000080: fbb4 1138 95f1 1236 7da8 e535 f9c5 3138
00000090: d0de d733 9e91 4638 ffc4 ad38 4aaf 1c39
000000a0: b274 ad37 cee0 4635 443c 5338 dc9f 8e38
000000b0: 63d3 1e39 e82e 4039 9896 1e39 ef18 1539
000000c0: eb71 5138 b274 ad37 3599 ae36 8641 a834
000000d0: cc1e e634 c29e 1139 1398 8a3a 6c14 d23a
000000e0: e576 5b3a 429f a039 1d5c 3437 3699 ae36
000000f0: d2f7 dc37 1783 3c38 8c12 5332 26d9 3a34
00000100: 1f03 2c38 9fc7 4737 72f2 e139 9bac 183a
00000110: 74f2 4639 d2f7 dc37 6dac bb38 c483 2038
00000120: 5952 ba35 5723 c737 ee47 bb39 70b1 0d39
00000130: 1edb d937 4a77 0b39 122d 4735 6bac bb38
00000140: bd58 a036 a905 b536 63de f538 0a7d fd39
00000150: b955 eb3a 3628 af3a 522d 1b3a 1ae0 0737
00000160: 18cc dd35 bd58 a036 eea8 373a cfe9 bf39
00000170: 0c6f 6b38 8e73 c939 442a 8c3a b05c b03a
00000180: 5939 c43a 9bd7 953a 5f91 3c3a eba8 373a

square_avg f4 [10]
0.06383545 9.2384085e-05 0.00029730907 0.007460084 0.00010239812 0.07103224 0.008840869 0.05223878
0.17832573 0.05896681
00000000: 29bc 823d 54be c138 26e0 9b39 b873 f43b
00000010: 92be d638 5a79 913d 4bd9 103c 55f8 553d
00000020: 059b 363e 2f87 713d

square_avg f4 [36, 10]
0.003570729 0.0027192032 0.0030412946 0.0030759068 0.003079652 0.002609213 0.002323403 0.0023824105
0.0029929108 0.0023727757 0.018671775 0.015511583 0.016804423 0.015011627 0.0155298775 0.011500615
0.013579315 0.011134026 0.013123375 0.013750499 0.02359044 0.020050194 0.020268632 0.021494301
0.018639326 0.016192427 0.017894255 0.014094572 0.01801525 0.01819518 0.0022604554 0.0019285645
0.0018312586 0.0022961402 0.0017118023 0.0017146374 0.0017526496 0.0013780354 0.0019012806 0.001799362
0.022076646 0.018160742 0.01913362 0.01926687 0.018281084 0.015090516 0.016048623 0.013607294
0.016864887 0.01617832 3.0933845e-07 2.7797555e-06 2.2585168e-06 5.2264383e-08 2.4060808e-08 1.4399124e-06
2.7030578e-06 5.2723027e-07 2.6767277e-06 2.6877178e-06 0.00028893942 0.00023478446 0.00021776311 0.00034577385
0.00020817673 0.00019083047 0.00024327639 0.00020124295 0.0002847646 0.00022298274 0.0073286532 0.0055013043
0.006313378 0.006141166 0.006102329 0.00513492 0.004659293 0.004845207 0.006095686 0.0047494913
0.0005610363 0.0005322336 0.00043603108 0.0007076925 0.0004103788 0.0004748888 0.0005186023 0.00035109321
0.00050742016 0.0005176635 0.00023390538 0.00013267559 0.00016220835 0.00024451697 0.0002041454 0.00026941212
0.00010148805 0.0001962733 0.00030875692 0.00010682028 0.0058430987 0.0047752834 0.0053906813 0.0040409183
0.005542171 0.0035167674 0.0041141366 0.0035622707 0.0037316207 0.004152719 2.3645782 1.9067154
2.0543149 1.9869874 1.9841193 1.611544 1.6594049 1.4689982 1.8040072 1.6831195
0.004844821 0.0037757827 0.004490084 0.0032337669 0.0043409704 0.0029489854 0.0031047233 0.0029084391
0.0032071774 0.0032025897 0.0073919166 0.005955237 0.006875866 0.0051619317 0.006664659 0.004395379
0.0050359536 0.004450603 0.0048393463 0.0050979354 0.00779448 0.006445541 0.0072551267 0.005395181
0.0068716123 0.00469745 0.005371758 0.0045165564 0.0049713934 0.0055835065 0.00060644804 0.00062883046
0.0005476093 0.00059187965 0.0004905679 0.00038360432 0.000594039 0.00032303276 0.00037669996 0.00059339165
0.004687363 0.004048635 0.004487599 0.0029877033 0.0040627904 0.002700276 0.0033245243 0.0024622353
0.0026187846 0.0035415331 0.0021692612 0.0018472705 0.0020342828 0.0015884389 0.0019269212 0.0012664995
0.0015946755 0.0012755032 0.0013776463 0.0016001073 0.00012035798 8.9562614e-05 0.00012723329 4.320392e-05
0.00012004701 4.7724912e-05 6.830815e-05 6.448707e-05 5.2491814e-05 7.0151975e-05 0.0022077695 0.0019428554
0.0020846927 0.0015268631 0.0019050317 0.0012469911 0.0016612333 0.0011858565 0.0012759677 0.0017231858
2.5695335e-05 2.393185e-06 1.8435021e-05 9.629257e-06 4.3465967e-05 2.4597955e-05 7.4976793e-07 4.2963453e-05
4.794424e-05 4.9703544e-07 0.005987525 0.0051374896 0.005614621 0.0042432197 0.005115179 0.003513946
0.0043217335 0.0033401656 0.003702622 0.0045079417 0.0019516236 0.0016029964 0.0020276823 0.0008844875
0.0018181704 0.0010803477 0.001148428 0.0009807169 0.00092786434 0.0013000902 2.6525402 2.1510916
2.4099722 1.9405508 2.3416076 1.7300417 1.7951353 1.5872226 1.8136483 1.8615057
0.0005394547 0.0005433267 0.0005302768 0.00027584884 0.00037793897 0.0003279044 0.00041308725 0.0001702472
0.00019254939 0.00051217474 0.0079521965 0.006270336 0.0067501976 0.007027625 0.00716761 0.005192367
00000000: e402 6a3b a934 323b 7550 473b 2795 493b
00000010: fdd3 493b 55ff 2a3b 3c44 183b 3722 1c3b
00000020: b624 443b 9280 1b3b 8df5 983c 4b24 7e3c
00000030: 6ea9 893c 54f3 753c 0771 7e3c 136d 3c3c
00000040: c67b 5e3c 7d6b 363c 6d03 573c c649 613c
00000050: bd40 c13c 4e40 a43c 670a a63c d114 b03c
00000060: 80b1 983c fba5 843c f996 923c ebec 663c
00000070: b894 933c 0f0e 953c 2624 143b e3c7 fc3a
00000080: d806 f03a d77a 163b 8e5e e03a afbd e03a
00000090: 29b9 e53a 329f b43a 6434 f93a 92d8 eb3a
000000a0: 15da b43c d6c5 943c 1cbe 9c3c 8ed5 9d3c
000000b0: 36c2 953c 363e 773c 6778 833c 21f1 5e3c
000000c0: 3b28 8a3c 6588 843c 2713 a634 d68b 3a36
000000d0: 0691 1736 4c79 6033 47ae ce32 0343 c135
000000e0: 2e66 3536 fd86 0d35 d5a1 3336 a45e 3436
000000f0: cb7c 9739 7930 7639 5757 6439 fb48 b539
00000100: 044a 5a39 aa19 4839 0218 7f39 be04 5339
00000110: 754c 9539 79d0 6939 3325 f03b 4944 b43b
00000120: 74e0 ce3b d63b c93b 0cf6 c73b d542 a83b
00000130: fcac 983b 8bc4 9e3b 52be c73b 9fa1 9b3b
00000140: 8212 133a 9885 0b3a 1a9b e439 7184 393a
00000150: 1c28 d739 7ffa f839 d0f2 073a ef12 b839
00000160: 6404 053a cfb3 073a 7f44 7539 d51e 0b39
00000170: 7916 2a39 8332 8039 dd0f 5639 e23f 8d39
00000180: fbd5 d438 b6ce 4d39 a7e0 a139 b304 e038
00000190: 7777 bf3b fb79 9c3b 50a4 b03b ae69 843b
000001a0: 1a9b b53b 9179 663b e1cf 863b fc74 693b
000001b0: 358e 743b 8813 883b 4055 1740 400f f43f
000001c0: e579 0340 9a55 fe3f 9ff7 fd3f 1347 ce3f
000001d0: 6167 d43f 2208 bc3f b5e9 e63f 7670 d73f
000001e0: 4ec1 9e3b 1f73 773b 8e21 933b 9bed 533b
000001f0: b33e 8e3b c443 413b 9d78 4b3b 839b 3e3b
00000200: 822f 523b 8ae2 513b e437 f23b 2624 c33b
00000210: f24e e13b 6c25 a93b 3663 da3b 1d07 903b
00000220: a404 a53b 5dd6 913b 6193 9e3b 950c a73b
00000230: d668 ff3b 1e35 d33b 6abc ed3b 0fca b03b
00000240: 432b e13b 11ed 993b 9205 b03b 9fff 933b
00000250: 12e7 a23b d9f5 b63b 0afa 1e3a 19d8 243a
00000260: 708d 0f3a 5f28 1b3a 7499 003a 801e c939
00000270: 48b9 1b3a b95c a939 d07f c539 d78d 1b3a
00000280: 7398 993b 69aa 843b b50c 933b 58cd 433b
00000290: 2821 853b 1df7 303b 43e0 593b 745d 213b
000002a0: ea9f 2b3b 1119 683b 2a2a 0e3b 1d20 f23a
000002b0: 9a51 053b 2a33 d03a bf90 fc3a ac00 a63a
000002c0: 6e04 d13a c92e a73a 2492 b43a b1ba d13a
000002d0: b368 fc38 90d3 bb38 ed69 0539 db35 3538
000002e0: bfc1 fb38 3c2c 4838 a940 8f38 3b3d 8738
000002f0: a82a 5c38 8e1e 9338 3ab0 103b 69a7 fe3a
00000300: 579f 083b 0621 c83a 42b2 f93a 1472 a33a
00000310: bdbd d93a be6e 9b3a 5f3e a73a 85dc e13a
00000320: 508c d737 9b9a 2036 e8a4 9a37 588d 2137
00000330: 3a4f 3638 b557 ce37 a943 4935 a833 3438
00000340: bc17 4938 046c 0535 0033 c43b 6358 a83b
00000350: dbfa b73b b50a 8b3b 3b9d a73b 3b4a 663b
00000360: 549d 8d3b aee6 5a3b b0a7 723b 5bb7 933b
00000370: 9fcd ff3a a21b d23a dde2 043b f4dc 673a
00000380: ad4f ee3a 749a 8d3a d986 963a 668b 803a
00000390: ec3b 733a ca67 aa3a 38c3 2940 7cab 0940
000003a0: fc3c 1a40 f863 f83f e6dc 1540 0272 dd3f
000003b0: fec6 e53f 1c2a cb3f a125 e83f d245 ee3f
000003c0: 316a 0d3a 0a6e 0e3a 4602 0b3a ce9f 9039
000003d0: 1c26 c639 95ea ab39 a293 d839 6284 3239
000003e0: 15e7 4939 7743 063a ee49 023c 6477 cd3b
000003f0: c330 dd3b fe47 e63b 45de ea3b bb24 aa3b

square_avg f4 [36]
0.010791916 0.053395737 0.07002752 0.0069388817 0.065676846 2.162683e-09 0.0008721553 0.021515545
0.001875564 0.0008024001 0.016976872 6.9894953 0.013596836 0.0209741 0.022022568 0.0018691203
0.012902811 0.006206832 0.00028826762 0.0061448277 8.072445e-05 0.016764058 0.0051264158 7.702629
0.0013700597 0.024088841 0.029122507 0.04440909 0.0377402 5.995616e-06 0.05285676 0.3563828
0.006588398 0.06338841 0.0034453114 5.142016
00000000: 94d0 303c 7db5 5a3d 976a 8f3d 8f5f e33b
00000010: 9581 863d 529e 1431 5aa1 643a 5e41 b03c
00000020: 7cd5 f53a 2958 523a 1513 8b3c f2a9 df40
00000030: 43c5 5e3c e0d1 ab3c ac68 b43c 45fd f43a
00000040: 5066 533c ae62 cb3b a022 9739 8d5a c93b
00000050: 9c4a a938 c754 893c 7efb a73b f07b f640
00000060: 9393 b33a f655 c53c 5392 ee3c 4ee6 353d
00000070: 7895 1a3d f32d c936 5480 583d ce77 b63e
00000080: 7de3 d73b c8d1 813d bcca 613b 658b a440
