supervised/saved_models/ff/N30_M10000_nhid20_Nc3_lr0.001_nlayers1_seed2.pt (torch, 24207 bytes, 12 tensors)

layer1.weight f4 [20, 30]
0	0xbe5cf511	-0.2157786
1	0x3e55d98e	0.20883772
2	0x3dd1add7	0.102382354
3	0xbd63beaf	-0.055601772
4	0x3d504ce6	0.050854586
5	0xbe2b9477	-0.16755854
6	0x3d159c32	0.036525913
7	0xbdb58643	-0.08863499
8	0xbddb25c2	-0.10700561
9	0x3e3cb729	0.18429245
10	0x3e144bd0	0.14482045
11	0x3e25679d	0.16152807
12	0x3a0d656a	0.0005393835
13	0x3e1e1128	0.15436232
14	0x3e399100	0.1812172
15	0xbe317a2c	-0.17331761
16	0x3ea58a04	0.3233186
17	0xbdc1eade	-0.094686255
18	0x3da850a8	0.08218509
19	0xbd859a20	-0.06523538
20	0xbd6fe09b	-0.05856381
21	0xbe9828f9	-0.2971876
22	0x3dc9d82a	0.09855683
23	0xbdc46448	-0.0958944
24	0x3d5758ed	0.05257504
25	0xbe268b48	-0.16264069
26	0x3d7392eb	0.059466284
27	0xbd1822dd	-0.037142623
28	0x3e255452	0.16145447
29	0xbb92a978	-0.0044757687
30	0xbd00addc	-0.031415805
31	0x3e3db62d	0.18526526
32	0xbd02b8ac	-0.031914398
33	0x3e51c951	0.20486952
34	0xbe05c261	-0.13062431
35	0xbe144c7b	-0.144823
36	0x3dc3dfa2	0.09564139
37	0xbe3fe47f	-0.18739508
38	0x3db973d7	0.09055298
39	0xbd848f4b	-0.064726435
40	0xbe4859f6	-0.19565567
41	0x3e151b84	0.14561278
42	0xbd4d61ee	-0.05014222
43	0xbd26e4b3	-0.04074545
44	0xbd7f3113	-0.06230266
45	0xbd9ef278	-0.07761091
46	0xbd83292f	-0.064043395
47	0xbda84aaf	-0.0821737
48	0x3dc28ccc	0.09499511
49	0xbdecc983	-0.11561873
50	0x3e59bea9	0.21264137
51	0xbe19dd4c	-0.15025824
52	0xbe13f7a9	-0.14449944
53	0x3d013b68	0.031550795
54	0xbd1b0637	-0.037847724
55	0x3d33894a	0.0438321
56	0x3e2ea117	0.17053638
57	0xbe10b5ae	-0.14131805
58	0x3e6ad279	0.22931851
59	0xbda1d1f2	-0.07901372
60	0x3d5b2ffe	0.053512566
61	0xbde06973	-0.10957613
62	0xbb9a094f	-0.0047008167
63	0xbd43a314	-0.047762945
64	0xbd033cca	-0.032040395
65	0x3e461f0a	0.19347778
66	0x3d83e6cd	0.06440506
67	0x3e615a55	0.22007115
68	0xbd9cf1e7	-0.07663327
69	0x3d955dcb	0.0729328
70	0x3d09f0a7	0.03367677
71	0x3cff0eed	0.031135047
72	0xbd1bab67	-0.03800526
73	0xbcb07e88	-0.02154471
74	0x3d03a204	0.032136932
75	0x3d4d6ae7	0.05015078
76	0x3cf1e67c	0.029528849
77	0x3daf929e	0.08572887
78	0xbd352db6	-0.044233046
79	0x3a8256eb	0.0009944116
80	0xbbd11784	-0.006380977
81	0x3d77bb2f	0.060481247
82	0xbc93fc1d	-0.018064553
83	0x3b3c0d2e	0.002869438
84	0x3db5c9b0	0.088763595
85	0x3dd4bbd8	0.10387391
86	0x3bf73d90	0.0075451806
87	0x3c8c6993	0.017140185
88	0xbe43ca0a	-0.1912004
89	0xbd8dd384	-0.06925109
90	0x3c127379	0.008938664
91	0x3d8018b8	0.06254715
92	0xbd786536	-0.060643397
93	0x3e192585	0.14955719
94	0x3c18f218	0.009335063
95	0x3e152a72	0.14566973
96	0x3d27ca77	0.04096457
97	0xbd6831f2	-0.056688257
98	0x3cc09d9b	0.023512652
99	0xbd3922b1	-0.0451991
100	0xbde18fca	-0.11013754
101	0x3df4e505	0.119577445
102	0x3e20b83b	0.15695278
103	0xbe0a698f	-0.1351683
104	0xbd3e4466	-0.04645195
105	0x3e1ae402	0.1512604
106	0xbd92064b	-0.071301065
107	0x3d0ee4ab	0.034886044
108	0xbd3a1bf7	-0.045436826
109	0xbd19483f	-0.037422415
110	0x3e3748d5	0.17898877
111	0x3cb25605	0.021769533
112	0xbdd39720	-0.10331559
113	0x3dbf44d1	0.093392976
114	0xbe43e0b5	-0.19128688
115	0x3e4ede51	0.20201994
116	0x3e2a0b2e	0.16605827
117	0xbbc3c625	-0.0059745484
118	0xbd94c886	-0.07264809
119	0xbd65dc74	-0.056118444
120	0x3bc373b1	0.005964719
121	0xbcbab1cc	-0.022789858
122	0x3d5f06d1	0.05444986
123	0xbe64bdd9	-0.22338046
124	0x3d86b9e6	0.06578426
125	0x3da0145e	0.07816385
126	0xbd9cc620	-0.07654977
127	0x3d90371a	0.0704176
128	0xbd0a0501	-0.03369618
129	0x3d3e5222	0.046465047
130	0x3d86eb0d	0.06587801
131	0x3d0a0bc3	0.033702623
132	0xbe3d4be0	-0.18485975
133	0x3cc12c23	0.023580616
134	0x3c6c3cf4	0.014418829
135	0xbd81ca1c	-0.063373774
136	0x3de597b1	0.112105735
137	0x3c2246a9	0.009904542
138	0x3cad8611	0.021182092
139	0x3d65fa40	0.05614686
140	0xbdf4b394	-0.11948314
141	0x3d934a71	0.07191933
142	0x3e02fa12	0.12790707
143	0xbe088ab4	-0.13334161
144	0x3cccde17	0.025008244
145	0xbba12a55	-0.0049183764
146	0xbd40430c	-0.04693894
147	0x3e14dfa1	0.14538433
148	0xbd3ccfc3	-0.046096575
149	0x3cc36627	0.023852421
150	0xbe16adce	-0.14714739
151	0x3db5ebfb	0.088829
152	0x3d9759ad	0.07390151
153	0x3cd2cd74	0.025732733
154	0x3a5fbea2	0.00085351814
155	0x3db62765	0.08894233
156	0x3e4b812d	0.19873495
157	0x3d95e273	0.073185824
158	0xbdc1bded	-0.094600536
159	0xbd1e5242	-0.038652666
160	0xbe25cfed	-0.16192599
161	0x3e4b5c13	0.19859342
162	0xbd93a44f	-0.07209074
163	0xbd22f394	-0.039783075
164	0xbca86eff	-0.02056074
165	0x3db618cd	0.08891449
166	0x3cb00239	0.021485435
167	0xb908c710	-0.00013044127
168	0x3d6b9c00	0.05752182
169	0xbd33639d	-0.04379617
170	0x3e53967f	0.20662878
171	0xbd961902	-0.073289886
172	0xbd7ed6e0	-0.06221664
173	0xbb1730e7	-0.002306992
174	0xbcf4c9be	-0.029881354
175	0x3e71e2da	0.23621693
176	0x3e4d90ac	0.20074719
177	0xbd85650e	-0.06513415
178	0x3dda8094	0.106690556
179	0x3cac1ec0	0.021010756
180	0x3e26d4e4	0.16292149
181	0x3db0a034	0.08624306
182	0x3d2ca9bb	0.042154055
183	0xbc3dfbbc	-0.011595663
184	0x3e489af7	0.19590364
185	0xbd3547bf	-0.044257876
186	0xbe2b56c6	-0.1673232
187	0x3e041d7e	0.12901875
188	0xbdd6b0a1	-0.10482908
189	0x3db3267c	0.08747575
190	0x3d893999	0.06700439
191	0x3e1ea54f	0.15492748
192	0xbe49af3d	-0.19695754
193	0x3d5175a6	0.05113759
194	0x3db27c84	0.08715156
195	0x3c8f93de	0.017526563
196	0x3e1ea65d	0.1549315
197	0x3d04b349	0.032397542
198	0xbc941725	-0.018077442
199	0xbdd3df86	-0.10345368
200	0xbc467118	-0.012111925
201	0x3da067d8	0.078323066
202	0x3e02d35d	0.12775941
203	0xbd93a994	-0.07210079
204	0xbd763320	-0.06010735
205	0xbd8ff024	-0.07028225
206	0xbe273822	-0.16330007
207	0x3e490002	0.19628909
208	0x3d072c21	0.03300107
209	0x3cd3f879	0.025875317
210	0x3e041753	0.12899522
211	0xbe83d867	-0.2575104
212	0xbd032fdc	-0.032028064
213	0xbe58a7b7	-0.21157728
214	0x3e040c3d	0.12895294
215	0xbc1bc2ce	-0.009506894
216	0xbe12daec	-0.14341325
217	0x3da701e8	0.081546605
218	0xbc0b2dd2	-0.008494811
219	0x3ddeb70b	0.108747564
220	0x3e4f4b2b	0.20243518
221	0xbe079113	-0.13238935
222	0xbdfc9b73	-0.12334337
223	0xbd5db6ed	-0.05412953
224	0x3e26123f	0.16217898
225	0x3e229d3a	0.1588029
226	0x3d3eb622	0.046560414
227	0x3ccc9fb5	0.024978498
228	0xbd925336	-0.071447775
229	0x3db6c3c6	0.089240596
230	0xbe830a37	-0.2559373
231	0x3cc4d7fe	0.024028774
232	0x3deac06b	0.11462482
233	0xbdf3357d	-0.118754365
234	0x3dcae18b	0.099063
235	0xbe1cc31d	-0.15308805
236	0xbe3b1476	-0.18269524
237	0x3e26daba	0.16294375
238	0xbe082364	-0.1329475
239	0xbc1f3f04	-0.009719614
240	0x3e5f0912	0.21780804
241	0xbd9d2f71	-0.07675064
242	0xbd03431e	-0.03204643
243	0x3c1f6532	0.009728717
244	0xbbeeba61	-0.0072854017
245	0x3df8bcd1	0.12145389
246	0xbce56e97	-0.028006835
247	0x3e16e7ee	0.14736912
248	0x3bcc4148	0.006233368
249	0xbddbaf92	-0.10726847
250	0xbd2a059c	-0.041509256
251	0xbdf900b9	-0.12158341
252	0xba0723e0	-0.0005155187
253	0xbdac9d78	-0.08428472
254	0xbd4d2124	-0.050080433
255	0x3e12cba6	0.14335498

layer1.bias f4 [20]
0	0xbd5ec36d	-0.05438559
1	0xbe1706de	-0.14748713
2	0x3edd7ebc	0.43260753
3	0x3e94e248	0.2907889
4	0x3ea7c73e	0.32769197
5	0x3e13c7f2	0.14431742
6	0x3db20cf4	0.08693877
7	0x3ea8d1b0	0.3297248
8	0x3e0b65ab	0.13613002
9	0x3e5a29ed	0.21305056
10	0x3dfadcad	0.12249122
11	0x3e42bda3	0.19017653
12	0xbc7e92f6	-0.015537968
13	0x3dd1587e	0.10221957
14	0x3e209b90	0.15684342
15	0x3ee7bbe6	0.45260543
16	0x3d355543	0.044270765
17	0x3ea11978	0.31464744
18	0x3edc4d59	0.43027762
19	0x3ddb218c	0.10699758

layerlast.weight f4 [96, 20]
0	0xbe12f655	-0.1435178
1	0xbddb2b05	-0.10701565
2	0x383d77c4	4.5172652e-05
3	0xbe6ca77a	-0.23110762
4	0xbe7baaf1	-0.24576928
5	0x3dcb54d9	0.09928293
6	0x3e196a99	0.1498207
7	0xbd7ae69b	-0.06125508
8	0xbe43463b	-0.1906976
9	0x3db7f2ac	0.08981833
10	0x3dd1acea	0.10238059
11	0x3d722f2c	0.059127018
12	0x3d2e8454	0.042606667
13	0x3d8a2d72	0.06746949
14	0xbde12126	-0.10992651
15	0x3e444edb	0.19170706
16	0xbd088c93	-0.033337187
17	0xbc8c259d	-0.01710778
18	0xbd9a1d6e	-0.075251445
19	0x3d79d71c	0.06099616
20	0x3cc7729c	0.024346642
21	0x3da7a41c	0.08185598
22	0xbd908503	-0.0705662
23	0xbeba03aa	-0.3633092
24	0xbd8418cf	-0.06450044
25	0x3e1ee4a9	0.15516914
26	0x3e2705e4	0.16310841
27	0xbe6f3c1e	-0.23362777
28	0x3e86fb67	0.2636368
29	0xbde319ff	-0.11088943
30	0x3dc3dddf	0.09563803
31	0x3d2be759	0.041968677
32	0xbe92ed2e	-0.2869658
33	0xbe86c3ee	-0.26321357
34	0x3de71909	0.11284072
35	0x3daafdb6	0.08349173
36	0x3e14517a	0.14484206
37	0xbd514cb4	-0.05109854
38	0xbd9cb4d8	-0.07651681
39	0x3db2cdf6	0.0873069
40	0xbee18016	-0.44043034
41	0xbeeec87e	-0.46637338
42	0xbf0b2348	-0.5435071
43	0xbf143ebb	-0.5790822
44	0xbf0e297b	-0.55532044
45	0xbec67174	-0.38758433
46	0xbe640b34	-0.22269899
47	0xbed06a9d	-0.4070634
48	0xbec072a0	-0.37587452
49	0xbedce2ca	-0.43141776
50	0xbf009df4	-0.5024102
51	0xbecef7bb	-0.40423378
52	0xbf0e6c9e	-0.55634487
53	0xbef2aff9	-0.4739988
54	0xbec533ff	-0.38516232
55	0xbec840db	-0.3911198
56	0xbea37295	-0.31923357
57	0xbedd65d6	-0.43241757
58	0xbf1dee7f	-0.6169204
59	0xbebc98a8	-0.36835217
60	0xbe41285f	-0.18863057
61	0xb95d5c64	-0.0002111062
62	0x3dfdc3bd	0.1239085
63	0x3d5fd7df	0.05464923
64	0xbe04720d	-0.12934132
65	0xbdb9482b	-0.09046968
66	0x3d9855aa	0.07438214
67	0x3db01bed	0.085990764
68	0xbe12b9b8	-0.14328659
69	0x3e152a51	0.14566924
70	0xbdbc4c65	-0.091942586
71	0xbd510c93	-0.051037382
72	0x3db84922	0.08998324
73	0x3e152b13	0.14567213
74	0xbe1a92f2	-0.15095118
75	0xbe2c90f7	-0.16852175
76	0x3db7a141	0.089663036
77	0x3b9ffb8c	0.0048822816
78	0x3dd50551	0.10401405
79	0xbd735b06	-0.05941298
80	0xbdad87ca	-0.08473165
81	0x3c3c0a2d	0.0114770355
82	0x3e311e79	0.1729678
83	0xbce0f0de	-0.027458604
84	0x3e0a807b	0.13525574
85	0xbdb12e0e	-0.08651362
86	0x3ddf2be1	0.10897041
87	0xbd29c536	-0.04144784
88	0x3d99d1ac	0.07510695
89	0x3ca6f49a	0.020380307
90	0x3d1a8d5f	0.03773248
91	0x3daafe75	0.08349315
92	0x3d8a1ed6	0.06744163
93	0xbec7cb0c	-0.390221
94	0xbdb64acb	-0.089009844
95	0xbdb656cb	-0.08903273
96	0xbdfeb91a	-0.12437649
97	0xbd453244	-0.04814364
98	0x3e59eb00	0.21281052
99	0x3e2ce486	0.1688405
100	0xbed3ce0d	-0.41368142
101	0xbef948bb	-0.486883
102	0xbf0798b4	-0.5296738
103	0xbec56c95	-0.38559404
104	0xbf02aa09	-0.51040703
105	0xbf2f3876	-0.6844553
106	0xbef76516	-0.4831931
107	0xbe90c296	-0.28273457
108	0xbeb536d4	-0.35393393
109	0xbee2586b	-0.44208083
110	0xbf0ab73e	-0.54185855
111	0xbec03b3a	-0.37545186
112	0xbe938fc4	-0.28820622
113	0xbece8751	-0.40337613
114	0xbe9329a4	-0.28742707
115	0xbedd75c0	-0.432539
116	0xbeb781a4	-0.35841095
117	0xbf140439	-0.57818943
118	0xbf1246fd	-0.5713957
119	0xbec5923f	-0.3858814
120	0x3db67b47	0.08910232
121	0xbe41bab1	-0.18918873
122	0xbd996f47	-0.074919276
123	0x3d5cbaca	0.053889073
124	0xbc900ab5	-0.01758323
125	0x3e469dfd	0.19396205
126	0xbd402f48	-0.04692009
127	0xbe376651	-0.17910124
128	0x3e0f9815	0.14022858
129	0x3e3b9a5a	0.18320599
130	0xbd10f63f	-0.03539109
131	0x3b6683d6	0.0035173795
132	0x3e493fe5	0.1965328
133	0xbb40ddbc	-0.002942904
134	0xbd7be138	-0.061494082
135	0x3e18816c	0.1489312
136	0x3e157301	0.14594652
137	0xbc9749ca	-0.018467803
138	0xbe2f2c3c	-0.17106718
139	0xbe484739	-0.1955842
140	0xbd82c383	-0.06384947
141	0xbe06e97f	-0.13175009
142	0xbe762013	-0.24035673
143	0x3e27c202	0.16382602
144	0xbbc6c9a8	-0.0060665198
145	0x3e6c92a7	0.23102818
146	0x3bc35370	0.0059608743
147	0x3a52e458	0.000804489
148	0x3d2d8f96	0.042373262
149	0x3c06c988	0.00822676
150	0xbd5482c1	-0.05188251
151	0xbd23c222	-0.03998006
152	0x3e63ffc1	0.22265531
153	0xbdfc72c0	-0.12326574
154	0x3c14ff88	0.0090941265
155	0x3e28d5f3	0.16487865
156	0x3e085e5d	0.13317247
157	0xbd20ed32	-0.039288707
158	0xbdd28aca	-0.10280378
159	0xbe281cb1	-0.16417195
160	0xbef76c37	-0.4832475
161	0xbea5ca87	-0.3238108
162	0xbefacbcb	-0.48983607
163	0xbebc6b2c	-0.36800516
164	0xbedbcb85	-0.4292871
165	0xbee6668f	-0.4500012
166	0xbeb3c486	-0.35110873
167	0xbed3b0ca	-0.41345817
168	0xbf0c6132	-0.5483581
169	0xbefe06b0	-0.49614477
170	0xbed043b2	-0.40676647
171	0xbea32cb8	-0.31870055
172	0xbeba48e2	-0.3638373
173	0xbe88e8df	-0.26740167
174	0xbe85336a	-0.26015788
175	0xbf071d4e	-0.5277909
176	0xbeecb57c	-0.46232212
177	0xbf0f2ecc	-0.5593078
178	0xbf00af54	-0.5026753
179	0xbea97f2a	-0.3310483
180	0xbd170e38	-0.036878794
181	0x3e594d9a	0.21221009
182	0x3cbdf5c8	0.023188487
183	0x3e1778c4	0.14792162
184	0xbdcf2392	-0.101142064
185	0x3e631be6	0.22178611
186	0xbdd2de62	-0.102963224
187	0x3e1e2be8	0.15446436
188	0xbd3526c4	-0.044226423
189	0xbe146db1	-0.14494969
190	0x3d0a6a40	0.033792734
191	0xbe59de15	-0.21276124
192	0x3dc9170c	0.09818849
193	0xbdba791a	-0.091051295
194	0xbd610bbc	-0.05494283
195	0xbd237af4	-0.03991218
196	0xbd98de72	-0.07464303
197	0x3e030c5c	0.12797683
198	0x3e564486	0.20924577
199	0x3d8edb7c	0.06975457
200	0xbc3ec8c0	-0.011644542
201	0xbe11011e	-0.14160582
202	0x3e1f84ca	0.15577999
203	0xbd9e17f4	-0.077194124
204	0xbe36a1c5	-0.17835148
205	0x3e1dc084	0.1540547
206	0xbe1d9e98	-0.1539253
207	0x3add9780	0.0016906112
208	0xbd5e4d0c	-0.054272696
209	0x3de40ab4	0.11134854
210	0xbe2ff7a6	-0.17184314
211	0xbe09c349	-0.13453402
212	0xbe60a8df	-0.21939419
213	0xbd514ddc	-0.051099643
214	0xbe5d1afb	-0.21592323
215	0x3df21cb4	0.11821881
216	0x3e04f96a	0.12985769
217	0x3ddf9698	0.10917395
218	0x3e1fff58	0.1562475
219	0xbe1301c6	-0.14356145
220	0x3a929080	0.001118198
221	0xbc493100	-0.012279749
222	0xbe04b468	-0.12959445
223	0xbcabe290	-0.020982057
224	0xbd32e104	-0.043671623
225	0xbe5bf49d	-0.21480031
226	0x3cd6a660	0.02620238
227	0xbd9f59d8	-0.07780808
228	0xbc46fd20	-0.012145311
229	0xbcacd2b0	-0.021096557
230	0xbcd31c30	-0.025770277
231	0x3d3f2468	0.04666558
232	0x3e030cbe	0.1279783
233	0x3e56df4a	0.20983616
234	0xbe44b5c1	-0.19209959
235	0x3e07d15c	0.13263458
236	0x3dbd7740	0.09251261
237	0x3e3d0b82	0.18461421
238	0x3e38a5d4	0.18032008
239	0x3dc7fde4	0.09765223
240	0x3d4d56a8	0.05013147
241	0x3da0e99c	0.078570575
242	0xbdb12636	-0.08649866
243	0xbdeed862	-0.116623655
244	0xbe27660a	-0.16347519
245	0xbdb706aa	-0.08936818
246	0x3e4d85fa	0.20070639
247	0xbe11be40	-0.14232731
248	0xbe2f9403	-0.17146306
249	0x3df21484	0.11820319
250	0x3ddafd00	0.10692787
251	0x3e10d2f0	0.14142966
252	0xbe1d14d6	-0.1533998
253	0x3d36bbb8	0.044612616
254	0xbd850e78	-0.064969
255	0xbe2d34b0	-0.1691463

layerlast.bias f4 [96]
0	0x3e42a717	0.19009052
1	0x3da976bb	0.08274599
2	0xbe85493b	-0.26032433
3	0x3d9b5f24	0.07586506
4	0xbe39a4bf	-0.18129252
5	0xbe96584c	-0.2936424
6	0xbdb114aa	-0.086465195
7	0xbdd664d7	-0.104684524
8	0xbf02dddb	-0.51119775
9	0xbd4a6018	-0.04940805
10	0xbe42cdec	-0.19023865
11	0xbd1cff50	-0.038329422
12	0xbe07110e	-0.131901
13	0x3e1410c6	0.14459524
14	0x3e64e11e	0.223515
15	0x3dbf7844	0.09349111
16	0xbc8696e8	-0.01642938
17	0x3e3390ac	0.17535657
18	0xbe568948	-0.20950806
19	0x3d43db40	0.047816515
20	0xbc839e40	-0.01606667
21	0x3d8f55a0	0.069987535
22	0xbc4cc300	-0.0124976635
23	0x3e2396ba	0.15975466
24	0x3d091390	0.033465922
25	0x3dc6a010	0.09698498
26	0xbc2bfa10	-0.010496631
27	0x3dfbeae4	0.12300661
28	0x3dd0810c	0.10180864
29	0x3df0b8a8	0.117539704
30	0x3c887488	0.016657129
31	0xbe3b7e8e	-0.18309996
32	0xbd9be398	-0.076117694
33	0xbbdba380	-0.0067028403
34	0x3e0da56e	0.13832638
35	0xbe6270ac	-0.22113293
36	0xbdc6e260	-0.09711146
37	0x3deb452c	0.11487803
38	0x3dc1d04c	0.094635576
39	0xbd6309c8	-0.05542925
40	0xbe5bc615	-0.21462281
41	0x3d99226c	0.074772686
42	0xbd89f866	-0.06736831
43	0x3dd1ab4c	0.102377504
44	0x3e5610a4	0.20904785
45	0x3d517d50	0.051144898
46	0x3dcc9634	0.099895865
47	0x3e4f890e	0.20267126
48	0xbd960e2a	-0.0732692
49	0x3d585480	0.05281496
50	0xbc836e20	-0.016043723
51	0x3e007a0a	0.12546554
52	0x3d971ec0	0.07378912
53	0xbc5833f0	-0.013195977
54	0x3d7c63f0	0.061618745
55	0x3b2d1cc0	0.0026414841
56	0xbe1153cc	-0.14192122
57	0x3dc87e90	0.09789765
58	0xbe4140d2	-0.18872383
59	0x3e48c002	0.19604495
60	0xbe092664	-0.13393551
61	0xbc94b5d8	-0.018153116
62	0xbde5ea90	-0.1122638
63	0x3d96b6e8	0.07359105
64	0xbe3f191b	-0.1866192
65	0x3d6b2508	0.057408363
66	0x3df779d8	0.12083787
67	0xbe3d0cc9	-0.18461908
68	0xbdb32572	-0.087473765
69	0x3e35e4de	0.17763087
70	0x3db0ac00	0.086265564
71	0x3e102156	0.14075217
72	0x3cf508b0	0.02991137
73	0x39396c00	0.00017683208
74	0xbdf1d51b	-0.11808225
75	0xbd9d0884	-0.0766764
76	0xbe45e863	-0.1932693
77	0x3e4b4e92	0.19854191
78	0x3d6b2480	0.057407856
79	0xbd411d40	-0.047147036
80	0xbe11bf1f	-0.14233063
81	0x3a904c80	0.0011009127
82	0x3d4eb930	0.050469577
83	0x3c9a2270	0.01881525
84	0x3dbbaad0	0.09163439
85	0xbdf4e825	-0.119583406
86	0xbd2142fc	-0.039370522
87	0xbde4910c	-0.11160478
88	0x3e36aec2	0.17840102
89	0x3e483e46	0.19555005
90	0xbd94eec6	-0.07272105
91	0x3d527de8	0.051389605
92	0x3de2cd14	0.11074272
93	0x3e5a2986	0.21304902
94	0x3e371494	0.17878944
95	0xbd9ceaaa	-0.07661946

layers.0.weight f4 [20, 30]
0	0xbe5cf511	-0.2157786
1	0x3e55d98e	0.20883772
2	0x3dd1add7	0.102382354
3	0xbd63beaf	-0.055601772
4	0x3d504ce6	0.050854586
5	0xbe2b9477	-0.16755854
6	0x3d159c32	0.036525913
7	0xbdb58643	-0.08863499
8	0xbddb25c2	-0.10700561
9	0x3e3cb729	0.18429245
10	0x3e144bd0	0.14482045
11	0x3e25679d	0.16152807
12	0x3a0d656a	0.0005393835
13	0x3e1e1128	0.15436232
14	0x3e399100	0.1812172
15	0xbe317a2c	-0.17331761
16	0x3ea58a04	0.3233186
17	0xbdc1eade	-0.094686255
18	0x3da850a8	0.08218509
19	0xbd859a20	-0.06523538
20	0xbd6fe09b	-0.05856381
21	0xbe9828f9	-0.2971876
22	0x3dc9d82a	0.09855683
23	0xbdc46448	-0.0958944
24	0x3d5758ed	0.05257504
25	0xbe268b48	-0.16264069
26	0x3d7392eb	0.059466284
27	0xbd1822dd	-0.037142623
28	0x3e255452	0.16145447
29	0xbb92a978	-0.0044757687
30	0xbd00addc	-0.031415805
31	0x3e3db62d	0.18526526
32	0xbd02b8ac	-0.031914398
33	0x3e51c951	0.20486952
34	0xbe05c261	-0.13062431
35	0xbe144c7b	-0.144823
36	0x3dc3dfa2	0.09564139
37	0xbe3fe47f	-0.18739508
38	0x3db973d7	0.09055298
39	0xbd848f4b	-0.064726435
40	0xbe4859f6	-0.19565567
41	0x3e151b84	0.14561278
42	0xbd4d61ee	-0.05014222
43	0xbd26e4b3	-0.04074545
44	0xbd7f3113	-0.06230266
45	0xbd9ef278	-0.07761091
46	0xbd83292f	-0.064043395
47	0xbda84aaf	-0.0821737
48	0x3dc28ccc	0.09499511
49	0xbdecc983	-0.11561873
50	0x3e59bea9	0.21264137
51	0xbe19dd4c	-0.15025824
52	0xbe13f7a9	-0.14449944
53	0x3d013b68	0.031550795
54	0xbd1b0637	-0.037847724
55	0x3d33894a	0.0438321
56	0x3e2ea117	0.17053638
57	0xbe10b5ae	-0.14131805
58	0x3e6ad279	0.22931851
59	0xbda1d1f2	-0.07901372
60	0x3d5b2ffe	0.053512566
61	0xbde06973	-0.10957613
62	0xbb9a094f	-0.0047008167
63	0xbd43a314	-0.047762945
64	0xbd033cca	-0.032040395
65	0x3e461f0a	0.19347778
66	0x3d83e6cd	0.06440506
67	0x3e615a55	0.22007115
68	0xbd9cf1e7	-0.07663327
69	0x3d955dcb	0.0729328
70	0x3d09f0a7	0.03367677
71	0x3cff0eed	0.031135047
72	0xbd1bab67	-0.03800526
73	0xbcb07e88	-0.02154471
74	0x3d03a204	0.032136932
75	0x3d4d6ae7	0.05015078
76	0x3cf1e67c	0.029528849
77	0x3daf929e	0.08572887
78	0xbd352db6	-0.044233046
79	0x3a8256eb	0.0009944116
80	0xbbd11784	-0.006380977
81	0x3d77bb2f	0.060481247
82	0xbc93fc1d	-0.018064553
83	0x3b3c0d2e	0.002869438
84	0x3db5c9b0	0.088763595
85	0x3dd4bbd8	0.10387391
86	0x3bf73d90	0.0075451806
87	0x3c8c6993	0.017140185
88	0xbe43ca0a	-0.1912004
89	0xbd8dd384	-0.06925109
90	0x3c127379	0.008938664
91	0x3d8018b8	0.06254715
92	0xbd786536	-0.060643397
93	0x3e192585	0.14955719
94	0x3c18f218	0.009335063
95	0x3e152a72	0.14566973
96	0x3d27ca77	0.04096457
97	0xbd6831f2	-0.056688257
98	0x3cc09d9b	0.023512652
99	0xbd3922b1	-0.0451991
100	0xbde18fca	-0.11013754
101	0x3df4e505	0.119577445
102	0x3e20b83b	0.15695278
103	0xbe0a698f	-0.1351683
104	0xbd3e4466	-0.04645195
105	0x3e1ae402	0.1512604
106	0xbd92064b	-0.071301065
107	0x3d0ee4ab	0.034886044
108	0xbd3a1bf7	-0.045436826
109	0xbd19483f	-0.037422415
110	0x3e3748d5	0.17898877
111	0x3cb25605	0.021769533
112	0xbdd39720	-0.10331559
113	0x3dbf44d1	0.093392976
114	0xbe43e0b5	-0.19128688
115	0x3e4ede51	0.20201994
116	0x3e2a0b2e	0.16605827
117	0xbbc3c625	-0.0059745484
118	0xbd94c886	-0.07264809
119	0xbd65dc74	-0.056118444
120	0x3bc373b1	0.005964719
121	0xbcbab1cc	-0.022789858
122	0x3d5f06d1	0.05444986
123	0xbe64bdd9	-0.22338046
124	0x3d86b9e6	0.06578426
125	0x3da0145e	0.07816385
126	0xbd9cc620	-0.07654977
127	0x3d90371a	0.0704176
128	0xbd0a0501	-0.03369618
129	0x3d3e5222	0.046465047
130	0x3d86eb0d	0.06587801
131	0x3d0a0bc3	0.033702623
132	0xbe3d4be0	-0.18485975
133	0x3cc12c23	0.023580616
134	0x3c6c3cf4	0.014418829
135	0xbd81ca1c	-0.063373774
136	0x3de597b1	0.112105735
137	0x3c2246a9	0.009904542
138	0x3cad8611	0.021182092
139	0x3d65fa40	0.05614686
140	0xbdf4b394	-0.11948314
141	0x3d934a71	0.07191933
142	0x3e02fa12	0.12790707
143	0xbe088ab4	-0.13334161
144	0x3cccde17	0.025008244
145	0xbba12a55	-0.0049183764
146	0xbd40430c	-0.04693894
147	0x3e14dfa1	0.14538433
148	0xbd3ccfc3	-0.046096575
149	0x3cc36627	0.023852421
150	0xbe16adce	-0.14714739
151	0x3db5ebfb	0.088829
152	0x3d9759ad	0.07390151
153	0x3cd2cd74	0.025732733
154	0x3a5fbea2	0.00085351814
155	0x3db62765	0.08894233
156	0x3e4b812d	0.19873495
157	0x3d95e273	0.073185824
158	0xbdc1bded	-0.094600536
159	0xbd1e5242	-0.038652666
160	0xbe25cfed	-0.16192599
161	0x3e4b5c13	0.19859342
162	0xbd93a44f	-0.07209074
163	0xbd22f394	-0.039783075
164	0xbca86eff	-0.02056074
165	0x3db618cd	0.08891449
166	0x3cb00239	0.021485435
167	0xb908c710	-0.00013044127
168	0x3d6b9c00	0.05752182
169	0xbd33639d	-0.04379617
170	0x3e53967f	0.20662878
171	0xbd961902	-0.073289886
172	0xbd7ed6e0	-0.06221664
173	0xbb1730e7	-0.002306992
174	0xbcf4c9be	-0.029881354
175	0x3e71e2da	0.23621693
176	0x3e4d90ac	0.20074719
177	0xbd85650e	-0.06513415
178	0x3dda8094	0.106690556
179	0x3cac1ec0	0.021010756
180	0x3e26d4e4	0.16292149
181	0x3db0a034	0.08624306
182	0x3d2ca9bb	0.042154055
183	0xbc3dfbbc	-0.011595663
184	0x3e489af7	0.19590364
185	0xbd3547bf	-0.044257876
186	0xbe2b56c6	-0.1673232
187	0x3e041d7e	0.12901875
188	0xbdd6b0a1	-0.10482908
189	0x3db3267c	0.08747575
190	0x3d893999	0.06700439
191	0x3e1ea54f	0.15492748
192	0xbe49af3d	-0.19695754
193	0x3d5175a6	0.05113759
194	0x3db27c84	0.08715156
195	0x3c8f93de	0.017526563
196	0x3e1ea65d	0.1549315
197	0x3d04b349	0.032397542
198	0xbc941725	-0.018077442
199	0xbdd3df86	-0.10345368
200	0xbc467118	-0.012111925
201	0x3da067d8	0.078323066
202	0x3e02d35d	0.12775941
203	0xbd93a994	-0.07210079
204	0xbd763320	-0.06010735
205	0xbd8ff024	-0.07028225
206	0xbe273822	-0.16330007
207	0x3e490002	0.19628909
208	0x3d072c21	0.03300107
209	0x3cd3f879	0.025875317
210	0x3e041753	0.12899522
211	0xbe83d867	-0.2575104
212	0xbd032fdc	-0.032028064
213	0xbe58a7b7	-0.21157728
214	0x3e040c3d	0.12895294
215	0xbc1bc2ce	-0.009506894
216	0xbe12daec	-0.14341325
217	0x3da701e8	0.081546605
218	0xbc0b2dd2	-0.008494811
219	0x3ddeb70b	0.108747564
220	0x3e4f4b2b	0.20243518
221	0xbe079113	-0.13238935
222	0xbdfc9b73	-0.12334337
223	0xbd5db6ed	-0.05412953
224	0x3e26123f	0.16217898
225	0x3e229d3a	0.1588029
226	0x3d3eb622	0.046560414
227	0x3ccc9fb5	0.024978498
228	0xbd925336	-0.071447775
229	0x3db6c3c6	0.089240596
230	0xbe830a37	-0.2559373
231	0x3cc4d7fe	0.024028774
232	0x3deac06b	0.11462482
233	0xbdf3357d	-0.118754365
234	0x3dcae18b	0.099063
235	0xbe1cc31d	-0.15308805
236	0xbe3b1476	-0.18269524
237	0x3e26daba	0.16294375
238	0xbe082364	-0.1329475
239	0xbc1f3f04	-0.009719614
240	0x3e5f0912	0.21780804
241	0xbd9d2f71	-0.07675064
242	0xbd03431e	-0.03204643
243	0x3c1f6532	0.009728717
244	0xbbeeba61	-0.0072854017
245	0x3df8bcd1	0.12145389
246	0xbce56e97	-0.028006835
247	0x3e16e7ee	0.14736912
248	0x3bcc4148	0.006233368
249	0xbddbaf92	-0.10726847
250	0xbd2a059c	-0.041509256
251	0xbdf900b9	-0.12158341
252	0xba0723e0	-0.0005155187
253	0xbdac9d78	-0.08428472
254	0xbd4d2124	-0.050080433
255	0x3e12cba6	0.14335498

layers.0.bias f4 [20]
0	0xbd5ec36d	-0.05438559
1	0xbe1706de	-0.14748713
2	0x3edd7ebc	0.43260753
3	0x3e94e248	0.2907889
4	0x3ea7c73e	0.32769197
5	0x3e13c7f2	0.14431742
6	0x3db20cf4	0.08693877
7	0x3ea8d1b0	0.3297248
8	0x3e0b65ab	0.13613002
9	0x3e5a29ed	0.21305056
10	0x3dfadcad	0.12249122
11	0x3e42bda3	0.19017653
12	0xbc7e92f6	-0.015537968
13	0x3dd1587e	0.10221957
14	0x3e209b90	0.15684342
15	0x3ee7bbe6	0.45260543
16	0x3d355543	0.044270765
17	0x3ea11978	0.31464744
18	0x3edc4d59	0.43027762
19	0x3ddb218c	0.10699758

layers.2.weight f4 [96, 20]
0	0xbe12f655	-0.1435178
1	0xbddb2b05	-0.10701565
2	0x383d77c4	4.5172652e-05
3	0xbe6ca77a	-0.23110762
4	0xbe7baaf1	-0.24576928
5	0x3dcb54d9	0.09928293
6	0x3e196a99	0.1498207
7	0xbd7ae69b	-0.06125508
8	0xbe43463b	-0.1906976
9	0x3db7f2ac	0.08981833
10	0x3dd1acea	0.10238059
11	0x3d722f2c	0.059127018
12	0x3d2e8454	0.042606667
13	0x3d8a2d72	0.06746949
14	0xbde12126	-0.10992651
15	0x3e444edb	0.19170706
16	0xbd088c93	-0.033337187
17	0xbc8c259d	-0.01710778
18	0xbd9a1d6e	-0.075251445
19	0x3d79d71c	0.06099616
20	0x3cc7729c	0.024346642
21	0x3da7a41c	0.08185598
22	0xbd908503	-0.0705662
23	0xbeba03aa	-0.3633092
24	0xbd8418cf	-0.06450044
25	0x3e1ee4a9	0.15516914
26	0x3e2705e4	0.16310841
27	0xbe6f3c1e	-0.23362777
28	0x3e86fb67	0.2636368
29	0xbde319ff	-0.11088943
30	0x3dc3dddf	0.09563803
31	0x3d2be759	0.041968677
32	0xbe92ed2e	-0.2869658
33	0xbe86c3ee	-0.26321357
34	0x3de71909	0.11284072
35	0x3daafdb6	0.08349173
36	0x3e14517a	0.14484206
37	0xbd514cb4	-0.05109854
38	0xbd9cb4d8	-0.07651681
39	0x3db2cdf6	0.0873069
40	0xbee18016	-0.44043034
41	0xbeeec87e	-0.46637338
42	0xbf0b2348	-0.5435071
43	0xbf143ebb	-0.5790822
44	0xbf0e297b	-0.55532044
45	0xbec67174	-0.38758433
46	0xbe640b34	-0.22269899
47	0xbed06a9d	-0.4070634
48	0xbec072a0	-0.37587452
49	0xbedce2ca	-0.43141776
50	0xbf009df4	-0.5024102
51	0xbecef7bb	-0.40423378
52	0xbf0e6c9e	-0.55634487
53	0xbef2aff9	-0.4739988
54	0xbec533ff	-0.38516232
55	0xbec840db	-0.3911198
56	0xbea37295	-0.31923357
57	0xbedd65d6	-0.43241757
58	0xbf1dee7f	-0.6169204
59	0xbebc98a8	-0.36835217
60	0xbe41285f	-0.18863057
61	0xb95d5c64	-0.0002111062
62	0x3dfdc3bd	0.1239085
63	0x3d5fd7df	0.05464923
64	0xbe04720d	-0.12934132
65	0xbdb9482b	-0.09046968
66	0x3d9855aa	0.07438214
67	0x3db01bed	0.085990764
68	0xbe12b9b8	-0.14328659
69	0x3e152a51	0.14566924
70	0xbdbc4c65	-0.091942586
71	0xbd510c93	-0.051037382
72	0x3db84922	0.08998324
73	0x3e152b13	0.14567213
74	0xbe1a92f2	-0.15095118
75	0xbe2c90f7	-0.16852175
76	0x3db7a141	0.089663036
77	0x3b9ffb8c	0.0048822816
78	0x3dd50551	0.10401405
79	0xbd735b06	-0.05941298
80	0xbdad87ca	-0.08473165
81	0x3c3c0a2d	0.0114770355
82	0x3e311e79	0.1729678
83	0xbce0f0de	-0.027458604
84	0x3e0a807b	0.13525574
85	0xbdb12e0e	-0.08651362
86	0x3ddf2be1	0.10897041
87	0xbd29c536	-0.04144784
88	0x3d99d1ac	0.07510695
89	0x3ca6f49a	0.020380307
90	0x3d1a8d5f	0.03773248
91	0x3daafe75	0.08349315
92	0x3d8a1ed6	0.06744163
93	0xbec7cb0c	-0.390221
94	0xbdb64acb	-0.089009844
95	0xbdb656cb	-0.08903273
96	0xbdfeb91a	-0.12437649
97	0xbd453244	-0.04814364
98	0x3e59eb00	0.21281052
99	0x3e2ce486	0.1688405
100	0xbed3ce0d	-0.41368142
101	0xbef948bb	-0.486883
102	0xbf0798b4	-0.5296738
103	0xbec56c95	-0.38559404
104	0xbf02aa09	-0.51040703
105	0xbf2f3876	-0.6844553
106	0xbef76516	-0.4831931
107	0xbe90c296	-0.28273457
108	0xbeb536d4	-0.35393393
109	0xbee2586b	-0.44208083
110	0xbf0ab73e	-0.54185855
111	0xbec03b3a	-0.37545186
112	0xbe938fc4	-0.28820622
113	0xbece8751	-0.40337613
114	0xbe9329a4	-0.28742707
115	0xbedd75c0	-0.432539
116	0xbeb781a4	-0.35841095
117	0xbf140439	-0.57818943
118	0xbf1246fd	-0.5713957
119	0xbec5923f	-0.3858814
120	0x3db67b47	0.08910232
121	0xbe41bab1	-0.18918873
122	0xbd996f47	-0.074919276
123	0x3d5cbaca	0.053889073
124	0xbc900ab5	-0.01758323
125	0x3e469dfd	0.19396205
126	0xbd402f48	-0.04692009
127	0xbe376651	-0.17910124
128	0x3e0f9815	0.14022858
129	0x3e3b9a5a	0.18320599
130	0xbd10f63f	-0.03539109
131	0x3b6683d6	0.0035173795
132	0x3e493fe5	0.1965328
133	0xbb40ddbc	-0.002942904
134	0xbd7be138	-0.061494082
135	0x3e18816c	0.1489312
136	0x3e157301	0.14594652
137	0xbc9749ca	-0.018467803
138	0xbe2f2c3c	-0.17106718
139	0xbe484739	-0.1955842
140	0xbd82c383	-0.06384947
141	0xbe06e97f	-0.13175009
142	0xbe762013	-0.24035673
143	0x3e27c202	0.16382602
144	0xbbc6c9a8	-0.0060665198
145	0x3e6c92a7	0.23102818
146	0x3bc35370	0.0059608743
147	0x3a52e458	0.000804489
148	0x3d2d8f96	0.042373262
149	0x3c06c988	0.00822676
150	0xbd5482c1	-0.05188251
151	0xbd23c222	-0.03998006
152	0x3e63ffc1	0.22265531
153	0xbdfc72c0	-0.12326574
154	0x3c14ff88	0.0090941265
155	0x3e28d5f3	0.16487865
156	0x3e085e5d	0.13317247
157	0xbd20ed32	-0.039288707
158	0xbdd28aca	-0.10280378
159	0xbe281cb1	-0.16417195
160	0xbef76c37	-0.4832475
161	0xbea5ca87	-0.3238108
162	0xbefacbcb	-0.48983607
163	0xbebc6b2c	-0.36800516
164	0xbedbcb85	-0.4292871
165	0xbee6668f	-0.4500012
166	0xbeb3c486	-0.35110873
167	0xbed3b0ca	-0.41345817
168	0xbf0c6132	-0.5483581
169	0xbefe06b0	-0.49614477
170	0xbed043b2	-0.40676647
171	0xbea32cb8	-0.31870055
172	0xbeba48e2	-0.3638373
173	0xbe88e8df	-0.26740167
174	0xbe85336a	-0.26015788
175	0xbf071d4e	-0.5277909
176	0xbeecb57c	-0.46232212
177	0xbf0f2ecc	-0.5593078
178	0xbf00af54	-0.5026753
179	0xbea97f2a	-0.3310483
180	0xbd170e38	-0.036878794
181	0x3e594d9a	0.21221009
182	0x3cbdf5c8	0.023188487
183	0x3e1778c4	0.14792162
184	0xbdcf2392	-0.101142064
185	0x3e631be6	0.22178611
186	0xbdd2de62	-0.102963224
187	0x3e1e2be8	0.15446436
188	0xbd3526c4	-0.044226423
189	0xbe146db1	-0.14494969
190	0x3d0a6a40	0.033792734
191	0xbe59de15	-0.21276124
192	0x3dc9170c	0.09818849
193	0xbdba791a	-0.091051295
194	0xbd610bbc	-0.05494283
195	0xbd237af4	-0.03991218
196	0xbd98de72	-0.07464303
197	0x3e030c5c	0.12797683
198	0x3e564486	0.20924577
199	0x3d8edb7c	0.06975457
200	0xbc3ec8c0	-0.011644542
201	0xbe11011e	-0.14160582
202	0x3e1f84ca	0.15577999
203	0xbd9e17f4	-0.077194124
204	0xbe36a1c5	-0.17835148
205	0x3e1dc084	0.1540547
206	0xbe1d9e98	-0.1539253
207	0x3add9780	0.0016906112
208	0xbd5e4d0c	-0.054272696
209	0x3de40ab4	0.11134854
210	0xbe2ff7a6	-0.17184314
211	0xbe09c349	-0.13453402
212	0xbe60a8df	-0.21939419
213	0xbd514ddc	-0.051099643
214	0xbe5d1afb	-0.21592323
215	0x3df21cb4	0.11821881
216	0x3e04f96a	0.12985769
217	0x3ddf9698	0.10917395
218	0x3e1fff58	0.1562475
219	0xbe1301c6	-0.14356145
220	0x3a929080	0.001118198
221	0xbc493100	-0.012279749
222	0xbe04b468	-0.12959445
223	0xbcabe290	-0.020982057
224	0xbd32e104	-0.043671623
225	0xbe5bf49d	-0.21480031
226	0x3cd6a660	0.02620238
227	0xbd9f59d8	-0.07780808
228	0xbc46fd20	-0.012145311
229	0xbcacd2b0	-0.021096557
230	0xbcd31c30	-0.025770277
231	0x3d3f2468	0.04666558
232	0x3e030cbe	0.1279783
233	0x3e56df4a	0.20983616
234	0xbe44b5c1	-0.19209959
235	0x3e07d15c	0.13263458
236	0x3dbd7740	0.09251261
237	0x3e3d0b82	0.18461421
238	0x3e38a5d4	0.18032008
239	0x3dc7fde4	0.09765223
240	0x3d4d56a8	0.05013147
241	0x3da0e99c	0.078570575
242	0xbdb12636	-0.08649866
243	0xbdeed862	-0.116623655
244	0xbe27660a	-0.16347519
245	0xbdb706aa	-0.08936818
246	0x3e4d85fa	0.20070639
247	0xbe11be40	-0.14232731
248	0xbe2f9403	-0.17146306
249	0x3df21484	0.11820319
250	0x3ddafd00	0.10692787
251	0x3e10d2f0	0.14142966
252	0xbe1d14d6	-0.1533998
253	0x3d36bbb8	0.044612616
254	0xbd850e78	-0.064969
255	0xbe2d34b0	-0.1691463

layers.2.bias f4 [96]
0	0x3e42a717	0.19009052
1	0x3da976bb	0.08274599
2	0xbe85493b	-0.26032433
3	0x3d9b5f24	0.07586506
4	0xbe39a4bf	-0.18129252
5	0xbe96584c	-0.2936424
6	0xbdb114aa	-0.086465195
7	0xbdd664d7	-0.104684524
8	0xbf02dddb	-0.51119775
9	0xbd4a6018	-0.04940805
10	0xbe42cdec	-0.19023865
11	0xbd1cff50	-0.038329422
12	0xbe07110e	-0.131901
13	0x3e1410c6	0.14459524
14	0x3e64e11e	0.223515
15	0x3dbf7844	0.09349111
16	0xbc8696e8	-0.01642938
17	0x3e3390ac	0.17535657
18	0xbe568948	-0.20950806
19	0x3d43db40	0.047816515
20	0xbc839e40	-0.01606667
21	0x3d8f55a0	0.069987535
22	0xbc4cc300	-0.0124976635
23	0x3e2396ba	0.15975466
24	0x3d091390	0.033465922
25	0x3dc6a010	0.09698498
26	0xbc2bfa10	-0.010496631
27	0x3dfbeae4	0.12300661
28	0x3dd0810c	0.10180864
29	0x3df0b8a8	0.117539704
30	0x3c887488	0.016657129
31	0xbe3b7e8e	-0.18309996
32	0xbd9be398	-0.076117694
33	0xbbdba380	-0.0067028403
34	0x3e0da56e	0.13832638
35	0xbe6270ac	-0.22113293
36	0xbdc6e260	-0.09711146
37	0x3deb452c	0.11487803
38	0x3dc1d04c	0.094635576
39	0xbd6309c8	-0.05542925
40	0xbe5bc615	-0.21462281
41	0x3d99226c	0.074772686
42	0xbd89f866	-0.06736831
43	0x3dd1ab4c	0.102377504
44	0x3e5610a4	0.20904785
45	0x3d517d50	0.051144898
46	0x3dcc9634	0.099895865
47	0x3e4f890e	0.20267126
48	0xbd960e2a	-0.0732692
49	0x3d585480	0.05281496
50	0xbc836e20	-0.016043723
51	0x3e007a0a	0.12546554
52	0x3d971ec0	0.07378912
53	0xbc5833f0	-0.013195977
54	0x3d7c63f0	0.061618745
55	0x3b2d1cc0	0.0026414841
56	0xbe1153cc	-0.14192122
57	0x3dc87e90	0.09789765
58	0xbe4140d2	-0.18872383
59	0x3e48c002	0.19604495
60	0xbe092664	-0.13393551
61	0xbc94b5d8	-0.018153116
62	0xbde5ea90	-0.1122638
63	0x3d96b6e8	0.07359105
64	0xbe3f191b	-0.1866192
65	0x3d6b2508	0.057408363
66	0x3df779d8	0.12083787
67	0xbe3d0cc9	-0.18461908
68	0xbdb32572	-0.087473765
69	0x3e35e4de	0.17763087
70	0x3db0ac00	0.086265564
71	0x3e102156	0.14075217
72	0x3cf508b0	0.02991137
73	0x39396c00	0.00017683208
74	0xbdf1d51b	-0.11808225
75	0xbd9d0884	-0.0766764
76	0xbe45e863	-0.1932693
77	0x3e4b4e92	0.19854191
78	0x3d6b2480	0.057407856
79	0xbd411d40	-0.047147036
80	0xbe11bf1f	-0.14233063
81	0x3a904c80	0.0011009127
82	0x3d4eb930	0.050469577
83	0x3c9a2270	0.01881525
84	0x3dbbaad0	0.09163439
85	0xbdf4e825	-0.119583406
86	0xbd2142fc	-0.039370522
87	0xbde4910c	-0.11160478
88	0x3e36aec2	0.17840102
89	0x3e483e46	0.19555005
90	0xbd94eec6	-0.07272105
91	0x3d527de8	0.051389605
92	0x3de2cd14	0.11074272
93	0x3e5a2986	0.21304902
94	0x3e371494	0.17878944
95	0xbd9ceaaa	-0.07661946

square_avg f4 [20, 30]
0	0x4b96ed0a	1.9782164e+07
1	0x4bbc95b3	2.4718182e+07
2	0x4bb6b033	2.3945318e+07
3	0x4bc59926	2.5899596e+07
4	0x4ba23e5a	2.1265588e+07
5	0x4bf3adc1	3.1939458e+07
6	0x4b216c28	1.0578984e+07
7	0x4bb327ac	2.34822e+07
8	0x4ba79d36	2.1969516e+07
9	0x4ba0f1c1	2.1095298e+07
10	0x4b7cd42b	1.6569387e+07
11	0x4b5f023b	1.4615099e+07
12	0x4b1a7daa	1.0124714e+07
13	0x4b9fd302	2.0948484e+07
14	0x4bbff0e2	2.5158084e+07
15	0x4bdcb588	2.8928784e+07
16	0x4be851ab	3.0450518e+07
17	0x4b65576a	1.5030122e+07
18	0x4b4bcf90	1.3356944e+07
19	0x4bc64fc6	2.59931e+07
20	0x4b69de2f	1.5326767e+07
21	0x4ae66e91	7.5507925e+06
22	0x4b66928f	1.5110799e+07
23	0x4b46ca48	1.3027912e+07
24	0x4b807bb4	1.6840552e+07
25	0x4b5cb527	1.4464295e+07
26	0x4aefce50	7.85796e+06
27	0x4b87a068	1.7776848e+07
28	0x4b9e9575	2.0785898e+07
29	0x4b96ed04	1.9782152e+07
30	0x4b92d116	1.9243564e+07
31	0x4b23310c	1.0694924e+07
32	0x4b4c7aaf	1.3400751e+07
33	0x4b51ed98	1.3757848e+07
34	0x4b20522f	1.0506799e+07
35	0x4b74ba19	1.6038425e+07
36	0x4b072d2b	8.858923e+06
37	0x4b863e24	1.7595464e+07
38	0x4b90636f	1.8925278e+07
39	0x4b965445	1.9703946e+07
40	0x4b454819	1.2929049e+07
41	0x4b8f2242	1.8760836e+07
42	0x4b28660a	1.103617e+07
43	0x4bae1bd6	2.282078e+07
44	0x4b5ef719	1.4612249e+07
45	0x4b27984f	1.0983503e+07
46	0x4b413309	1.2661513e+07
47	0x4af3231a	7.967117e+06
48	0x4b4802a9	1.3107881e+07
49	0x4ba3d2bb	2.147263e+07
50	0x4b084e06	8.93287e+06
51	0x4b0246c7	8.537799e+06
52	0x4b1f5fb7	1.0444727e+07
53	0x4ae8d994	7.630026e+06
54	0x4ad7cd90	7.071432e+06
55	0x4b198cd2	1.0063058e+07
56	0x4abf7f88	6.275012e+06
57	0x4b6d20ef	1.5540463e+07
58	0x4b858850	1.7502368e+07
59	0x4b92d123	1.924359e+07
60	0x4af477b1	8.0107125e+06
61	0x4b1543bc	9.782204e+06
62	0x4aee7a6a	7.814453e+06
63	0x4ad3d83e	6.941727e+06
64	0x4ace150d	6.7529025e+06
65	0x4b2f41ac	1.1485612e+07
66	0x4a64294d	3.7381952e+06
67	0x4af35a9d	7.9742225e+06
68	0x4ae2057a	7.406269e+06
69	0x4aebaa23	7.7222575e+06
70	0x4aad2a5e	5.674287e+06
71	0x4aa94c32	5.547545e+06
72	0x4a6831d3	3.8042768e+06
73	0x4ae8c586	7.627459e+06
74	0x4afab4b5	8.2151305e+06
75	0x4b10af80	9.482112e+06
76	0x4b017e46	8.48647e+06
77	0x4a78fbb7	4.0793418e+06
78	0x4ab4210f	5.9024715e+06
79	0x4b220ffb	1.0620923e+07
80	0x4ab0e67e	5.796671e+06
81	0x4a277e3a	2.7442065e+06
82	0x4a8c6a90	4.60116e+06
83	0x4a89e889	4.5189805e+06
84	0x4a847a16	4.341003e+06
85	0x4a935610	4.827912e+06
86	0x4a1ec5c0	2.601328e+06
87	0x4ad86383	7.0906255e+06
88	0x4ae7f067	7.6001795e+06
89	0x4af4779b	8.0107015e+06
90	0x4bad5b35	2.2722154e+07
91	0x4b457aeb	1.2942059e+07
92	0x4ba5b376	2.1718764e+07
93	0x4bc9cb8b	2.6449686e+07
94	0x4b846e2f	1.7357918e+07
95	0x4bcf52d6	2.7174316e+07
96	0x4b2769db	1.0971611e+07
97	0x4ba3982c	2.1442648e+07
98	0x4badbf55	2.2773418e+07
99	0x4ba2cc1a	2.1338164e+07
100	0x4b63877b	1.4911355e+07
101	0x4b727a83	1.5891075e+07
102	0x4b23ead9	1.0742489e+07
103	0x4ba33ffc	2.1397496e+07
104	0x4ba79488	2.1965072e+07
105	0x4bb44e31	2.3632994e+07
106	0x4be1545d	2.9534394e+07
107	0x4b68beb8	1.5253176e+07
108	0x4b41cf33	1.2701491e+07
109	0x4bc347fe	2.55959e+07
110	0x4b24b61b	1.0794523e+07
111	0x4b20a159	1.0527065e+07
112	0x4b6172f0	1.4775024e+07
113	0x4b221e69	1.0624617e+07
114	0x4b3f5461	1.2538977e+07
115	0x4b308fd3	1.1571155e+07
116	0x4b13d198	9.687448e+06
117	0x4bae9dec	2.2887384e+07
118	0x4bb299a4	2.340948e+07
119	0x4bad5b2f	2.2722142e+07
120	0x4bad97a5	2.2753098e+07
121	0x4b89cde9	1.806229e+07
122	0x4bd06fc5	2.7320202e+07
123	0x4c12113a	3.8290664e+07
124	0x4bbfd4ae	2.5143644e+07
125	0x4c1ba73f	4.080358e+07
126	0x4b3e820e	1.2485134e+07
127	0x4bc4415c	2.5723576e+07
128	0x4bceb0b0	2.7091296e+07
129	0x4bbeffc7	2.5034638e+07
130	0x4b915662	1.9049668e+07
131	0x4b648167	1.4975335e+07
132	0x4b2bea75	1.1266677e+07
133	0x4ba2027f	2.1234942e+07
134	0x4bf2c9b2	3.1822692e+07
135	0x4c192e6a	4.015556e+07
136	0x4c41cef3	5.0805708e+07
137	0x4baff3df	2.3062462e+07
138	0x4b38b1a7	1.2104103e+07
139	0x4bc41a91	2.5703714e+07
140	0x4b508da8	1.3667752e+07
141	0x4b2ecf43	1.1456323e+07
142	0x4ba796f4	2.1966312e+07
143	0x4b84c1b3	1.7400678e+07
144	0x4bb0cf7a	2.31749e+07
145	0x4b903fa0	1.8906944e+07
146	0x4b14e7bd	9.758653e+06
147	0x4bc9df48	2.6459792e+07
148	0x4bf87518	3.2565808e+07
149	0x4bad97aa	2.2753108e+07
150	0x4bdde2f1	2.9083106e+07
151	0x4ba4d217	2.1603374e+07
152	0x4b999924	2.0132424e+07
153	0x4b93e401	1.9384322e+07
154	0x4b772a9b	1.6198299e+07
155	0x4baab60a	2.2375444e+07
156	0x4b3207f9	1.1667449e+07
157	0x4bb61fff	2.3871486e+07
158	0x4bbfa381	2.5118466e+07
159	0x4bc51e7e	2.5836796e+07
160	0x4b6c3973	1.5481203e+07
161	0x4ba6a619	2.1842994e+07
162	0x4b566777	1.4051191e+07
163	0x4be752a9	3.0319954e+07
164	0x4b8bc615	1.8320426e+07
165	0x4b571299	1.4095001e+07
166	0x4b65149e	1.5013022e+07
167	0x4b08309e	8.925342e+06
168	0x4b88f48f	1.7951006e+07
169	0x4bf8d6b3	3.2615782e+07
170	0x4b6b422c	1.54179e+07
171	0x4b283ccb	1.1025611e+07
172	0x4b3cb5d8	1.236732e+07
173	0x4b181046	9.965638e+06
174	0x4b025924	8.5425e+06
175	0x4b3ce18c	1.2378508e+07
176	0x4b039bbc	8.625084e+06
177	0x4ba81720	2.2031936e+07
178	0x4baf0c5c	2.2943928e+07
179	0x4bdde2fe	2.9083132e+07
180	0x4b123deb	9.584107e+06
181	0x4ae5b0dc	7.52651e+06
182	0x4b38f1b6	1.2120502e+07
183	0x4b758ed7	1.6092887e+07
184	0x4b167ba4	9.862052e+06
185	0x4b7cf6d9	1.6578265e+07
186	0x4aad1fb1	5.6729205e+06
187	0x4b19b56a	1.007345e+07
188	0x4b299af4	1.1115252e+07
189	0x4b22ec54	1.0677332e+07
190	0x4af8e1e3	8.1553775e+06
191	0x4acf0b78	6.784444e+06
192	0x4a87be01	4.4480005e+06
193	0x4b0f2f54	9.383764e+06
194	0x4b4266d2	1.2740306e+07
195	0x4b773f77	1.6203639e+07
196	0x4b928c31	1.920829e+07
197	0x4b02e92f	8.579375e+06
198	0x4aaec542	5.726881e+06
199	0x4b2fda67	1.1524711e+07
200	0x4ab9fea5	6.0946745e+06
201	0x4a8d4409	4.6289965e+06
202	0x4afb927f	8.2435195e+06
203	0x4ac6e82d	6.5177825e+06
204	0x4b0a80fd	9.076989e+06
205	0x4aefd5da	7.858925e+06
206	0x4a6ce1f6	3.8810855e+06
207	0x4b244ff0	1.0768368e+07
208	0x4b45aba3	1.2954531e+07
209	0x4b123df4	9.584116e+06
210	0x4b8b5fed	1.8268122e+07
211	0x4b3f7eb3	1.2549811e+07
212	0x4b3e80a0	1.2484768e+07
213	0x4b278354	1.0978132e+07
214	0x4b153ef7	9.780983e+06
215	0x4b6398c3	1.4915779e+07
216	0x4b010fdd	8.458205e+06
217	0x4b76c215	1.6171541e+07
218	0x4b82787a	1.7101044e+07
219	0x4b8894fa	1.7902068e+07
220	0x4b350d9d	1.1865501e+07
221	0x4b809d1e	1.685766e+07
222	0x4b0d71f9	9.269753e+06
223	0x4b9e5269	2.075157e+07
224	0x4b4864af	1.3132975e+07
225	0x4b139e66	9.674342e+06
226	0x4b0e1075	9.310325e+06
227	0x4ab108a5	5.8010425e+06
228	0x4b419339	1.2686137e+07
229	0x4b9ff679	2.0966642e+07
230	0x4b132536	9.643318e+06
231	0x4ae2fdf0	7.438072e+06
232	0x4affe86b	8.3855895e+06
233	0x4ace1363	6.7526895e+06
234	0x4aa1db2d	5.3037025e+06
235	0x4af5c360	8.053168e+06
236	0x4ab1e159	5.8287805e+06
237	0x4b58e11d	1.4213405e+07
238	0x4b667abb	1.5104699e+07
239	0x4b8b5ff1	1.826813e+07
240	0x4bd954d6	2.848606e+07
241	0x4bc26d0f	2.5483806e+07
242	0x4bf1206a	3.1604948e+07
243	0x4c0c2995	3.674274e+07
244	0x4bd00d87	2.7269902e+07
245	0x4c1a1229	4.0388772e+07
246	0x4b6a9331	1.5373105e+07
247	0x4bf69215	3.2318506e+07
248	0x4bfb18bb	3.2911734e+07
249	0x4bf2e498	3.1836464e+07
250	0x4ba6a652	2.1843108e+07
251	0x4bae5251	2.2848674e+07
252	0x4b638939	1.4911801e+07
253	0x4bedcb35	3.1168106e+07
254	0x4bf062c6	3.1507852e+07
255	0x4c06b533	3.5312844e+07

square_avg f4 [20]
0	0x4f3f7a4a	3.2124626e+09
1	0x4f213881	2.7048348e+09
2	0x4e8fc4c4	1.2060186e+09
3	0x4f484355	3.3598559e+09
4	0x4f76366b	4.1307615e+09
5	0x4f4d8f70	3.4487296e+09
6	0x4ebbde8d	1.5759622e+09
7	0x4f0d8ab6	2.374678e+09
8	0x4f71043c	4.0435866e+09
9	0x4f62efaf	3.8073587e+09
10	0x4e803dbc	1.0757647e+09
11	0x4da21420	3.399035e+08
12	0x4f2a50bf	2.8574185e+09
13	0x4e9e6b26	1.3289111e+09
14	0x4ef77a8c	2.0760018e+09
15	0x4f9a2dda	5.1733924e+09
16	0x4edeff1c	1.8706304e+09
17	0x4beae040	3.0785664e+07
18	0x4f204190	2.6886513e+09
19	0x4f29e530	2.8503695e+09

square_avg f4 [96, 20]
0	0x525d6d18	2.3775452e+11
1	0x524cdcd9	2.1996963e+11
2	0x52aaf5b7	3.6713343e+11
3	0x5298d9f1	3.2824574e+11
4	0x529bf522	3.349163e+11
5	0x52865a71	2.885215e+11
6	0x527ccf02	2.714512e+11
7	0x5299f957	3.306566e+11
8	0x5285d16e	2.8737215e+11
9	0x528d04b9	3.028348e+11
10	0x5285675d	2.864824e+11
11	0x528873ea	2.9303013e+11
12	0x526b2bf0	2.5251362e+11
13	0x528291bf	2.8039548e+11
14	0x52883ba1	2.9255798e+11
15	0x52ac3c62	3.698737e+11
16	0x52732fbd	2.611195e+11
17	0x52943204	3.1824714e+11
18	0x52aa66ae	3.6593356e+11
19	0x5281e00a	2.7890477e+11
20	0x46899ca3	17614.318
21	0x45e840c1	7432.094
22	0x44e9594a	1866.7903
23	0x462d5a6a	11094.604
24	0x45bad456	5978.542
25	0x44bd35bf	1513.6796
26	0x45ceb95a	6615.169
27	0x45f85d0f	7947.6323
28	0x45df8066	7152.05
29	0x45e965dd	7468.733
30	0x471c7370	40051.438
31	0x4681b55e	16602.684
32	0x46925e79	18735.236
33	0x46c39a2a	25037.082
34	0x466e044e	15233.076
35	0x45418732	3096.4497
36	0x456c4997	3780.5994
37	0x47212a60	41258.375
38	0x450d0f17	2256.943
39	0x44b72726	1465.2234
40	0x4b8d6671	1.8533602e+07
41	0x4b789858	1.6291928e+07
42	0x4bceecc8	2.7122064e+07
43	0x4bb41dff	2.3608318e+07
44	0x4bc0458e	2.5201436e+07
45	0x4ba2960d	2.131049e+07
46	0x4b9c2f08	2.0471312e+07
47	0x4bbd9300	2.4847872e+07
48	0x4b9e8515	2.0777514e+07
49	0x4bb091a5	2.3143242e+07
50	0x4b97f2a1	1.9916098e+07
51	0x4bad5dca	2.2723476e+07
52	0x4b888af6	1.789694e+07
53	0x4b967b43	1.972391e+07
54	0x4b9e5ad9	2.075589e+07
55	0x4bd0a661	2.7348162e+07
56	0x4b9630b9	1.9685746e+07
57	0x4bc0ed48	2.5287312e+07
58	0x4bcf0f95	2.7139882e+07
59	0x4b9c47a3	2.048391e+07
60	0x52764534	2.6443075e+11
61	0x525dfd1a	2.3835853e+11
62	0x52b92696	3.9760816e+11
63	0x52a350a8	3.5071643e+11
64	0x52aa7882	3.660831e+11
65	0x52915f82	3.121863e+11
66	0x5289df84	2.9608024e+11
67	0x52a85750	3.6150968e+11
68	0x528ef9c6	3.0703793e+11
69	0x529bc543	3.3451472e+11
70	0x528b7e97	2.9956214e+11
71	0x5297dcbc	3.261217e+11
72	0x5278904e	2.6689323e+11
73	0x52896663	2.9506414e+11
74	0x5290092a	3.0931452e+11
75	0x52ba3dbc	3.9994982e+11
76	0x5284412b	2.840145e+11
77	0x52a67089	3.574263e+11
78	0x52b8423b	3.9569257e+11
79	0x528c37d4	3.0111603e+11
80	0x465b44f4	14033.238
81	0x45d9c6a0	6968.828
82	0x44ce2a78	1649.3271
83	0x45f688de	7889.1084
84	0x4598959c	4882.701
85	0x451482f2	2376.184
86	0x45ac733d	5518.405
87	0x45ed4d8a	7593.6924
88	0x458de4e5	4540.612
89	0x45aa004e	5440.038
90	0x46ccf8c9	26236.393
91	0x4666d2a8	14772.664
92	0x463c3a3b	12046.558
93	0x4688da64	17517.195
94	0x46155421	9557.032
95	0x45253607	2643.3767
96	0x457615ae	3937.355
97	0x46e8abab	29781.834
98	0x4503dee5	2109.931
99	0x4483e2a4	1055.0825
100	0x4bdc60f0	2.8885472e+07
101	0x4bc23e83	2.5459974e+07
102	0x4c242a97	4.3035228e+07
103	0x4c0e5a06	3.731663e+07
104	0x4c184f58	3.9927136e+07
105	0x4bfdbdde	3.3258428e+07
106	0x4bf5803c	3.2178296e+07
107	0x4c181c9a	3.9875176e+07
108	0x4bfdd692	3.3271076e+07
109	0x4c0be707	3.6674588e+07
110	0x4bf0fa01	3.1585282e+07
111	0x4c0aec29	3.64177e+07
112	0x4bdac423	2.8674118e+07
113	0x4bec942a	3.1008852e+07
114	0x4bfe5fa2	3.3341252e+07
115	0x4c25f15c	4.350091e+07
116	0x4bef025b	3.1327414e+07
117	0x4c16df7b	3.9550444e+07
118	0x4c23caa5	4.293698e+07
119	0x4bf84d3a	3.2545396e+07
120	0x526998ca	2.5082269e+11
121	0x525362bf	2.269737e+11
122	0x52b3a74c	3.8580296e+11
123	0x529e328c	3.3972643e+11
124	0x52a5551a	3.550487e+11
125	0x528bb788	3.000398e+11
126	0x5285df14	2.8748664e+11
127	0x52a486d2	3.5331827e+11
128	0x528b71dc	2.9945535e+11
129	0x529573c1	3.2094608e+11
130	0x52875aa5	2.9067067e+11
131	0x5291519c	3.1206972e+11
132	0x5270e932	2.5867613e+11
133	0x5285b1f4	2.871081e+11
134	0x528d7b09	3.038273e+11
135	0x52b60658	3.9089524e+11
136	0x528091fa	2.7610245e+11
137	0x529b6da5	3.3377973e+11
138	0x52b393e7	3.8564027e+11
139	0x52877cac	2.909561e+11
140	0x4622aa60	10410.594
141	0x4603a410	8425.016
142	0x450d25f5	2258.3723
143	0x46091257	8772.585
144	0x45b6f2ca	5854.3486
145	0x4502e4fa	2094.311
146	0x45ddf752	7102.915
147	0x4601add5	8299.458
148	0x459162d6	4652.3545
149	0x459e2a29	5061.27
150	0x46d6a353	27473.662
151	0x464d6bf4	13146.988
152	0x4650b77c	13357.871
153	0x4688c287	17505.264
154	0x460b1de9	8903.478
155	0x455eaee6	3562.9312
156	0x456b15a4	3761.3525
157	0x46c749e4	25508.945
158	0x452bbc80	2747.7812
159	0x44bb68f9	1499.2804
160	0x4b91bba6	1.9101516e+07
161	0x4b88538e	1.7868572e+07
162	0x4bdf385e	2.9257916e+07
163	0x4bc95b11	2.6392098e+07
164	0x4bcbddf0	2.6721248e+07
165	0x4bb08388	2.3136016e+07
166	0x4ba4a673	2.158103e+07
167	0x4bc9bfb7	2.644363e+07
168	0x4badf54d	2.280105e+07
169	0x4bb96029	2.4297554e+07
170	0x4bade7ff	2.2794238e+07
171	0x4bb331c3	2.3487366e+07
172	0x4b99b3a0	2.0145984e+07
173	0x4bab1006	2.2421516e+07
174	0x4bb22929	2.335189e+07
175	0x4be0cf49	2.9466258e+07
176	0x4b9e537a	2.0752116e+07
177	0x4bc3cd16	2.5664044e+07
178	0x4bde9dc3	2.9178758e+07
179	0x4baa4acf	2.2320542e+07
180	0x00000000	0.0
181	0x00000000	0.0
182	0x00000000	0.0
183	0x00000000	0.0
184	0x00000000	0.0
185	0x00000000	0.0
186	0x00000000	0.0
187	0x00000000	0.0
188	0x00000000	0.0
189	0x00000000	0.0
190	0x00000000	0.0
191	0x00000000	0.0
192	0x00000000	0.0
193	0x00000000	0.0
194	0x00000000	0.0
195	0x00000000	0.0
196	0x00000000	0.0
197	0x00000000	0.0
198	0x00000000	0.0
199	0x00000000	0.0
200	0x00000000	0.0
201	0x00000000	0.0
202	0x00000000	0.0
203	0x00000000	0.0
204	0x00000000	0.0
205	0x00000000	0.0
206	0x00000000	0.0
207	0x00000000	0.0
208	0x00000000	0.0
209	0x00000000	0.0
210	0x00000000	0.0
211	0x00000000	0.0
212	0x00000000	0.0
213	0x00000000	0.0
214	0x00000000	0.0
215	0x00000000	0.0
216	0x00000000	0.0
217	0x00000000	0.0
218	0x00000000	0.0
219	0x00000000	0.0
220	0x00000000	0.0
221	0x00000000	0.0
222	0x00000000	0.0
223	0x00000000	0.0
224	0x00000000	0.0
225	0x00000000	0.0
226	0x00000000	0.0
227	0x00000000	0.0
228	0x00000000	0.0
229	0x00000000	0.0
230	0x00000000	0.0
231	0x00000000	0.0
232	0x00000000	0.0
233	0x00000000	0.0
234	0x00000000	0.0
235	0x00000000	0.0
236	0x00000000	0.0
237	0x00000000	0.0
238	0x00000000	0.0
239	0x00000000	0.0
240	0x00000000	0.0
241	0x00000000	0.0
242	0x00000000	0.0
243	0x00000000	0.0
244	0x00000000	0.0
245	0x00000000	0.0
246	0x00000000	0.0
247	0x00000000	0.0
248	0x00000000	0.0
249	0x00000000	0.0
250	0x00000000	0.0
251	0x00000000	0.0
252	0x00000000	0.0
253	0x00000000	0.0
254	0x00000000	0.0
255	0x00000000	0.0

square_avg f4 [96]
0	0x5369deb6	1.00446385e+12
1	0x43d3e0f7	423.75754
2	0x4c8e756b	7.468937e+07
3	0x537e28e9	1.09160805e+12
4	0x44147bb1	593.9327
5	0x4ce24691	1.1863361e+08
6	0x53752b56	1.05299404e+12
7	0x44a33e87	1305.954
8	0x4c999f09	8.054177e+07
9	0x00000000	0.0
10	0x00000000	0.0
11	0x00000000	0.0
12	0x00000000	0.0
13	0x00000000	0.0
14	0x00000000	0.0
15	0x00000000	0.0
16	0x00000000	0.0
17	0x00000000	0.0
18	0x00000000	0.0
19	0x00000000	0.0
20	0x00000000	0.0
21	0x00000000	0.0
22	0x00000000	0.0
23	0x00000000	0.0
24	0x00000000	0.0
25	0x00000000	0.0
26	0x00000000	0.0
27	0x00000000	0.0
28	0x00000000	0.0
29	0x00000000	0.0
30	0x00000000	0.0
31	0x00000000	0.0
32	0x00000000	0.0
33	0x00000000	0.0
34	0x00000000	0.0
35	0x00000000	0.0
36	0x00000000	0.0
37	0x00000000	0.0
38	0x00000000	0.0
39	0x00000000	0.0
40	0x00000000	0.0
41	0x00000000	0.0
42	0x00000000	0.0
43	0x00000000	0.0
44	0x00000000	0.0
45	0x00000000	0.0
46	0x00000000	0.0
47	0x00000000	0.0
48	0x00000000	0.0
49	0x00000000	0.0
50	0x00000000	0.0
51	0x00000000	0.0
52	0x00000000	0.0
53	0x00000000	0.0
54	0x00000000	0.0
55	0x00000000	0.0
56	0x00000000	0.0
57	0x00000000	0.0
58	0x00000000	0.0
59	0x00000000	0.0
60	0x00000000	0.0
61	0x00000000	0.0
62	0x00000000	0.0
63	0x00000000	0.0
64	0x00000000	0.0
65	0x00000000	0.0
66	0x00000000	0.0
67	0x00000000	0.0
68	0x00000000	0.0
69	0x00000000	0.0
70	0x00000000	0.0
71	0x00000000	0.0
72	0x00000000	0.0
73	0x00000000	0.0
74	0x00000000	0.0
75	0x00000000	0.0
76	0x00000000	0.0
77	0x00000000	0.0
78	0x00000000	0.0
79	0x00000000	0.0
80	0x00000000	0.0
81	0x00000000	0.0
82	0x00000000	0.0
83	0x00000000	0.0
84	0x00000000	0.0
85	0x00000000	0.0
86	0x00000000	0.0
87	0x00000000	0.0
88	0x00000000	0.0
89	0x00000000	0.0
90	0x00000000	0.0
91	0x00000000	0.0
92	0x00000000	0.0
93	0x00000000	0.0
94	0x00000000	0.0
95	0x00000000	0.0
