supervised/saved_models/ff/nhid20_lr0.01_nlayers2_seed5.pt (torch, 46813 bytes, 24 tensors)

layers_mu.0.weight f4 [20, 50]
0.059854247 -0.0034777934 0.29392684 0.0010196473 -0.0074677523 -0.0028569032 -0.37637407 -0.004353701
0.1799253 -0.6837325 -0.050622903 -0.0047895936 0.0038544936 -0.6121893 -0.12258108 0.15556213
0.33597392 0.00036886008 -0.038275752 0.23913129 0.001924037 0.004795837 -0.004427545 0.0011512926
-0.0011388175 -0.0034539448 -0.0017472589 0.0037891315 0.0005820898 -0.0031561125 -0.2418543 0.0028025447
0.51011896 0.26525953 -0.007032583 0.67746145 -0.0027436386 -0.17776193 0.11646576 -0.002881796
0.21794023 -0.20734121 0.0056002485 -0.0072256858 -0.0036610018 0.005234061 -0.0027610397 0.0010683003
-0.0068371445 0.11611746 0.19979407 -0.01699747 -0.32243612 0.0002845236 -0.009214491 0.0018909886
-0.13529485 -0.007031057 0.43857118 0.080069296 0.23519333 -0.0021426552 -0.008116467 -0.29179904
-0.24680147 0.33096758 0.43153453 -0.0005959864 -0.15111372 -0.37181047 0.0024833158 -0.010518238
-0.0012999494 -0.006324134 -0.0031823572 -0.0008852547 -0.0019832505 -0.0073746582 0.0055155028 0.0016676704
0.24739991 -0.0038420917 -0.45956263 0.34458753 0.0065650987 -0.07436576 -0.0036790129 0.500326
-0.25677484 -0.0036098007 0.46659836 0.5572534 -0.0009904929 0.010469357 0.0075913486 0.0025835265
-0.003799388 -0.010762658 0.0058388514 0.086547524 -0.026152441 -0.002740118 0.3052462 0.009132353
0.0019202488 0.00028708443 -0.25984946 0.0005559251 0.11325905 0.6178383 0.1928969 -0.00027576764
-0.011649741 -0.0044541135 0.54419374 0.20253138 0.29003364 0.00936898 -0.66330475 0.2573739
-0.0035176678 -0.0052447044 0.00519289 -0.0045272997 0.0009629675 -0.0005440111 -0.00465351 -0.01016034
0.002745173 0.008583456 -0.23345228 0.00090786105 0.36212212 -0.060957372 0.011748072 0.105672024
-0.00011354801 0.595529 0.014274885 -0.0057228566 -0.52535796 0.21832442 -0.0024401192 0.0019498812
0.0023967237 0.004989023 0.004065099 -0.0062209805 0.0041570296 0.08650048 0.09589416 0.0066498853
0.009481328 -0.003322889 0.0013975261 0.0016699226 -0.73756206 0.0016182452 -0.061511945 -0.011442194
0.2109775 -0.0056047286 0.0036456222 0.014459819 0.27599964 -0.5442451 -0.18353872 0.0082506705
0.6671946 -0.20726693 0.0018717218 -0.00063247175 0.004085362 -0.007515044 0.0025621958 -0.013458099
0.0016905656 -0.0019367835 3.4174882e-05 0.0012935316 0.15377624 -0.0032884423 0.40131754 -0.65108514
0.0008957924 -0.053724788 0.004855289 0.21167989 -0.1645472 0.0018329741 0.42276964 0.3967077
-0.006325412 -0.0077551682 0.0070882817 -0.006691305 0.0036507864 -0.00655266 0.0016175634 0.07522029
0.08180464 0.0039651887 -0.47082496 0.0046933535 0.0024516182 -0.011017157 -0.14750989 0.0056547243
-0.106264785 0.3851219 0.36511043 0.008381963 -0.0015136446 -0.66675884 0.4783428 -0.36882755
0.3373947 -0.0011008801 0.15564668 -0.2979701 0.0019388197 0.002702971 0.0030391868 0.0027733305
0.00070523797 -0.006204658 0.010533171 -0.0023145552 0.0018166995 0.0068472615 0.35732383 -0.0019774777
-0.45238382 0.30442086 0.0034850787 0.2596232 0.009082617 -0.24237406 0.3371306 0.006118933
-0.07616838 -0.49468598 -0.0029396447 -0.00392572 -0.00078825234 -0.0065522357 0.0030424623 -0.0012281083
0.008888649 -0.030618835 0.1727465 0.0005491283 0.28374657 0.003365179 0.0041584233 0.004677865
00000000: ba29 753d b1eb 63bb 947d 963e b0a5 853a
00000010: 0cb4 f4bb e23a 3bbb 1ab4 c0be 7ea9 8ebb
00000020: 563e 383e 1809 2fbf f659 4fbd 06f2 9cbb
00000030: ac9b 7c3b 70b8 1cbf ca0b fbbd ae4b 1f3e
00000040: c604 ac3e 9063 c139 09c7 1cbd d5de 743e
00000050: f82f fc3a 6626 9d3b f014 91bb f8e6 963a
00000060: 6044 95ba 945b 62bb 4804 e5ba 1453 783b
00000070: 6397 183a c8d6 4ebb a7a8 77be e6aa 373b
00000080: 2897 023f 19d0 873e 9571 e6bb 1d6e 2d3f
00000090: 9ece 33bb 3907 36be 9a85 ee3d 84dc 3cbb
000000a0: b92b 5f3e 4151 54be 4a82 b73b 72c5 ecbb
000000b0: 6bed 6fbb 7c82 ab3b 8ff2 34bb 3606 8c3a
000000c0: 200a e0bb fece ed3d d196 4c3e 473e 8bbc
000000d0: 5916 a5be 1c2c 9539 60f8 16bc 0cdb f73a
000000e0: bc8a 0abe c864 e6bb 678c e03e 5ffb a33d
000000f0: 85d6 703e ca6b 0cbb eefa 04bc af66 95be
00000100: 86b9 7cbe 9574 a93e 18f2 dc3e f83b 1cba
00000110: 8ebd 1abe f15d bebe 20bf 223b b054 2cbc
00000120: 1063 aaba ae3a cfbb 188f 50bb 7010 68ba
00000130: 6cf9 01bb 1ea7 f1bb 64bb b43b bc95 da3a
00000140: 6756 7d3e 9acb 7bbb cb4b ebbe c76d b03e
00000150: 0a20 d73b 134d 98bd 981b 71bb 5d15 003f
00000160: fe77 83be 6892 6cbb fbe5 ee3e 29a8 0e3f
00000170: 6dd3 81ba aa87 2b3c d9c0 f83b 6250 293b
00000180: 27ff 78bb dc55 30bc d653 bf3b d43f b13d
00000190: a53d d6bc 8d93 33bb 3b49 9c3e dd9f 153c
000001a0: dcb0 fb3a d283 9639 fd0a 85be 80bb 113a
000001b0: 5cf4 e73d a72a 1e3f c486 453e e894 90b9
000001c0: 8ede 3ebc d0f3 91bb 4850 0b3f 6364 4f3e
000001d0: 4a7f 943e 5a80 193c 57ce 29bf 83c6 833e
000001e0: ac88 66bb c5db abbb 1e29 aa3b be59 94bb
000001f0: a86f 7c3a f89b 0eba 797c 98bb 8e77 26bc
00000200: 5ce8 333b a0a1 0c3c 1d0e 6fbe 86fd 6d3a
00000210: 1268 b93e 70ae 79bd fc7a 403c 936a d83d
00000220: a020 eeb8 9774 183f 35e1 693c cd86 bbbb
00000230: dc7d 06bf 7090 5f3e 68ea 1fbb 2893 ff3a
00000240: 5a12 1d3b f57a a33b 8634 853b 5ed9 cbbb
00000250: b137 883b 2a27 b13d 2864 c43d 48e7 d93b
00000260: 9257 1b3c d4c4 59bb 322d b73a 4ee1 da3a
00000270: ded0 3cbf 4c1b d43a f3f3 7bbd 0a78 3bbc
00000280: 7c0a 583e dfa7 b7bb 64eb 6e3b e0e8 6c3c
00000290: d34f 8d3e a653 0bbf 93f1 3bbe d22d 073c
000002a0: 44cd 2a3f c83d 54be 9054 f53a 76cc 25ba
000002b0: 80de 853b c240 f6bb 83ea 273b 5c7f 5cbc
000002c0: f895 dd3a acdb fdba 0057 0f38 b88b a93a
000002d0: 8577 1d3e e882 57bb 7e79 cd3e 84ad 26bf
000002e0: 9cd3 6a3a 860e 5cbd 1e19 9f3b 9dc2 583e
000002f0: 107f 28be 6840 f03a 4375 d83e 461d cb3e
00000300: 6745 cfbb 111f febb d144 e83b bc42 dbbb
00000310: 0842 6f3b b2b7 d6bb 6c04 d43a 180d 9a3d
00000320: 3189 a73d 6aee 813b f80f f1be b4ca 993b
00000330: 54ab 203b 4e81 34bc d50c 17be 444b b93b
00000340: 5aa1 d9bd b32e c53e c1ef ba3e 8054 093c
00000350: 7c65 c6ba b5b0 2abf 59e9 f43e f7d6 bcbe
00000360: 00bf ac3e 684b 90ba d861 1f3e 898f 98be
00000370: fe1f fe3a 5424 313b 182d 473b c4c0 353b
00000380: b8df 383a 7250 cbbb 5293 2c3c cbaf 17bb
00000390: 521e ee3a fe5e e03b 26f3 b63e 9298 01bb
000003a0: da9e e7be 0ddd 9b3e eb65 643b 55ed 843e
000003b0: 42cf 143c e830 78be 629c ac3e 5581 c83b
000003c0: 2bfe 9bbd 7b47 fdbe 0ea7 40bb 54a3 80bb
000003d0: b8a2 4eba 23b4 d6bb 0c64 473b 7af8 a0ba
000003e0: b2a1 113c 5ad4 fabc 75e4 303e 60f3 0f3a
000003f0: 3b47 913e 568a 5c3b 6243 883b c748 993b

layers_mu.0.bias f4 [20]
0.008079191 0.0040819645 0.020357173 0.016128074 0.022995679 -0.00069063157 0.004942877 -0.0062210644
-0.01421164 -0.007022883 0.0035261791 0.014353689 -0.054546807 0.013193005 -0.004705821 0.0015566021
0.01982327 -0.0010965676 0.008786565 -0.009887876
00000000: 955e 043c 00c2 853b 16c4 a63c 061f 843c
00000010: 6f61 bc3c 800b 35ba dcf7 a13b 12da cbbb
00000020: f0d7 68bc 3620 e6bb 7817 673b bc2b 6b3c
00000030: 796c 5fbd 7927 583c 4a33 9abb e606 cc3a
00000040: 6964 a23c b4ba 8fba 86f5 0f3c c200 22bc

layers_mu.1.weight f4 [20, 20]
-0.09021888 -0.018821156 -0.36847597 0.13741352 -0.10610429 0.21106401 -0.05482448 -0.031961218
0.0052098036 0.025643764 0.09723185 -0.16759017 0.11959614 -0.05012659 0.030489987 -0.017009998
0.13552237 0.2977761 0.0137420045 -0.04149711 0.10956193 -0.14117165 -0.12385167 0.09393653
-0.2638285 -0.17638838 -0.044815652 -0.06430386 0.025425725 0.035504043 0.19878663 0.25931278
0.016770663 -0.096520424 0.053598683 0.22581103 0.0448659 0.06838305 0.011560167 0.28280282
0.005757526 -0.062622815 0.02770631 0.11439485 0.1708751 -0.009185818 -0.059782766 0.21851297
-0.13652202 0.019295987 0.1125234 -0.10445117 0.2434574 -0.21501891 0.20962556 0.18073365
0.048581727 -0.14845724 0.07438816 -0.10446953 -0.09671691 -0.07087344 0.111247376 -0.059724417
-0.29403567 -0.07096769 0.16443631 -0.04920381 -0.15333039 0.13340935 -0.0986191 -0.0872427
0.13841411 -0.22492334 -0.0029740073 -0.096872345 -0.095984444 0.15197706 -0.11126724 -0.21410465
-0.33657715 0.1284205 0.018209819 -0.17496201 -0.12126251 0.2331646 -0.08506171 0.085592605
-0.19866383 0.15676774 -0.032445908 0.1587171 0.09671252 0.12006642 0.015501697 0.18206309
0.09766362 -0.06392882 0.020174194 -0.004563541 0.15981568 -0.14800335 -0.011101822 -0.06014519
-0.02522597 0.31037995 0.1823359 0.015044563 -0.08039864 -0.15120625 -0.079659335 -0.1553129
0.09273126 0.0041589253 0.24972597 -0.040342532 -0.101516254 -0.020696383 -0.051387414 0.26906398
0.09853807 -0.0818868 -0.15853664 -0.19124503 -0.015651219 -0.011857248 -0.031317797 -0.09756321
-0.09851378 -0.35108015 0.096710354 0.06632898 0.17766768 0.17691185 0.04313119 0.16271064
-0.0016432172 0.02717964 -0.067925386 -0.26050332 -0.07840707 -0.35525987 0.05618889 -0.07068059
0.08145307 -0.048055064 -0.02086395 0.0076777497 0.10874288 0.15301594 -0.12174681 0.13080198
0.15931742 0.070390925 0.1678705 -0.03870474 0.017333703 0.22499333 0.29427522 0.056462504
0.22138897 0.20954256 0.15171406 -0.11393848 -0.08017751 0.077639274 -0.26668152 -0.07016593
0.059576012 0.06616295 -0.0013935557 0.14867343 0.1801062 -0.14336964 0.14153777 -0.16523379
0.07631351 0.1359307 -0.032359455 0.040231176 -0.1603513 -0.075766295 -0.04261144 -0.103582844
-0.19357292 -0.12382071 -0.13711697 -0.14584056 0.07381695 -0.10311321 0.20145564 -0.14217964
-0.056066163 0.04114417 0.2732518 -0.13799517 0.0679351 -0.22813903 0.06544363 -0.028119722
0.016188566 -0.04106067 0.068947084 -0.17533275 0.007745683 0.0075895805 0.023073371 -0.1483623
0.13264611 0.17081183 -0.042946108 -0.164512 0.15482455 0.039666213 -0.023019368 0.21463396
0.31507587 -0.050947964 -0.15986727 0.035119653 0.020112019 -0.086645044 0.025573209 0.024598943
-0.2555795 0.20476604 -0.09343425 -0.10966871 0.17929384 -0.09618846 -0.12618282 -0.00039721443
0.09558576 -0.105587654 -0.17965037 0.11694069 -0.05054552 -0.18304776 0.25442263 -0.07801992
-0.0030978036 0.09284143 -0.08445216 0.035308685 -0.18486139 -0.20555174 -0.029652055 0.2720752
0.021639522 -0.15683423 -0.2257684 -0.024523893 0.21492305 0.07071342 -0.015987147 -0.113731235
00000000: adc4 b8bd d32e 9abc e2a8 bcbe 21b6 0c3e
00000010: 354d d9bd 2a21 583e a28f 60bd c4e9 02bd
00000020: 00b7 aa3b df12 d23c 7e21 c73d c29c 2bbe
00000030: d2ee f43d 8a51 4dbd 23c6 f93c 8d58 8bbc
00000040: 60c6 0a3e 1c76 983e 2526 613c e0f8 29bd
00000050: 0162 e03d 4d8f 10be f2a5 fdbd cc61 c03d
00000060: 8714 87be 289f 34be 9e90 37bd beb1 83bd
00000070: 9c49 d03c b06c 113d b98e 4b3e a5c4 843e
00000080: a162 893c 80ac c5bd 4b8a 5b3d 023b 673e
00000090: 4ec5 373d 6a0c 8c3d db66 3d3c 88cb 903e
000000a0: a1a9 bc3b 6440 80bd 58f8 e23c d947 ea3d
000000b0: e2f9 2e3e 1d80 16bc c6de 74bd ddc1 5f3e
000000c0: 6ecc 0bbe 9e12 9e3c ab72 e63d 7fea d5bd
000000d0: e64c 793e eb2d 5cbe 15a8 563e 3e12 393e
000000e0: a2fd 463d 2d05 18be d258 983d 1ff4 d5bd
000000f0: 8413 c6bd 1826 91bd aad5 e33d 97a1 74bd
00000100: d88b 96be 8257 91bd fe61 283e ef89 49bd
00000110: a402 1dbe 769c 083e d0f8 c9bd 4dac b2bd
00000120: 6ebc 0d3e 4e52 66be 90e7 42bb 0265 c6bd
00000130: 7e93 c4bd e09f 1b3e 14e0 e3bd 403e 5bbe
00000140: d753 acbe aa80 033e c22c 953c 3e29 33be
00000150: 7b58 f8bd b3c2 6e3e d534 aebd 2d4b af3d
00000160: 886e 4bbe b987 203e 00e6 04bd bc86 223e
00000170: 3711 c63d 62e5 f53d d4fa 7d3c bf6e 3a3e
00000180: dd03 c83d 1ded 82bd 5a44 a53c c289 95bb
00000190: b9a6 233e 318e 17be 6be4 35bc ce5a 76bd
000001a0: b2a6 cebc 1fea 9e3e 43b6 3a3e 797d 763c
000001b0: 0ba8 a4bd d0d5 1abe 6f24 a3bd 580a 1fbe
000001c0: e3e9 bd3d 9847 883b 2ab8 7f3e 363e 25bd
000001d0: c1e7 cfbd 768b a9bc 9c7b 52bd c1c2 893e
000001e0: 54ce c93d 44b4 a7bd 6e57 22be bdd5 43be
000001f0: fc36 80bc e744 42bc 1747 00bd 38cf c7bd
00000200: 98c1 c9bd c7c0 b3be 1410 c63d 7dd7 873d
00000210: 84ee 353e 6128 353e 55aa 303d 9e9d 263e
00000220: 3861 d7ba d6a7 de3c 771c 8bbd b160 85be
00000230: e393 a0bd 9fe4 b5be 5226 663d fcc0 90bd
00000240: ded0 a63d 63d5 44bd e0ea aabc a295 fb3b
00000250: 96b4 de3d 36b0 1c3e 6456 f9bd f4f0 053e
00000260: 1b24 233e 1e29 903d 3fe6 2b3e dd88 1ebd
00000270: 69ff 8d3c a764 663e 3eab 963e 3a45 673d
00000280: cab3 623e 5392 563e ee5a 1b3e 9458 e9bd
00000290: 1b34 a4bd 5701 9f3d 7b8a 88be 28b3 8fbd
000002a0: fa05 743d 7180 873d f8a7 b6ba d93d 183e
000002b0: c26d 383e 7ecf 12be 47ef 103e 0c33 29be
000002c0: 424a 9c3d 6b31 0b3e 598b 04bd 72c9 243d
000002d0: 2233 24be 5c2b 9bbd 5589 2ebd 3e23 d4bd
000002e0: fb37 46be b695 fdbd 6468 0cbe 3a57 15be
000002f0: 572d 973d 052d d3bd 634a 4e3e 8a97 11be
00000300: a2a5 65bd ca86 283d a9e7 8b3e 9b4e 0dbe
00000310: 8f21 8b3d 479d 69be 4f07 863d 555b e6bc
00000320: e29d 843c 3c2f 28bd 2134 8d3d 6e8a 33be
00000330: 80cf fd3b 04b2 f83b 5e04 bd3c 49ec 17be
00000340: 62d4 073e 4ce9 2e3e 42e8 2fbd d575 28be
00000350: 548a 1e3e 0a79 223d 1d93 bcbc 01c9 5b3e
00000360: a051 a13e d0ae 50bd 3fb4 23be a0d9 0f3d
00000370: f6c1 a43c f572 b1bd e87e d13c b983 c93c
00000380: 51db 82be 30ae 513e 755a bfbd fd99 e0bd
00000390: ce98 373e 75fe c4bd 1236 01be 3841 d0b9
000003a0: 78c2 c33d 573e d8bd 44f6 37be 9a7e ef3d
000003b0: d208 4fbd df70 3bbe af43 823e e8c8 9fbd
000003c0: 8504 4bbb a623 be3d 41f5 acbd d79f 103d
000003d0: 4e4c 3dbe 287c 52be dee8 f2bc 714d 8b3e
000003e0: 5e45 b13c 2799 20be d52f 67be 55e6 c8bc
000003f0: ca14 5c3e 33d2 903d 7af7 82bc eceb e8bd

layers_mu.1.bias f4 [20]
-0.11853289 -0.08641397 -0.10814673 -0.1320861 -0.10236701 -0.107656315 -0.09591036 -0.09126218
-0.116047025 -0.10828316 -0.12734352 -0.10165085 -0.10822262 -0.11256855 -0.12215898 -0.09554639
-0.12579615 -0.11020663 -0.11901752 -0.08815473
00000000: 5fc1 f2bd cff9 b0bd 087c ddbd 9441 07be
00000010: cca5 d1bd ea7a dcbd a76c c4bd aae7 babd
00000020: 10aa edbd 90c3 ddbd 5766 02be 522e d0bd
00000030: d2a3 ddbd 578a e6bd 7d2e fabd d3ad c3bd
00000040: b5d0 00be 03b4 e1bd 75bf f3bd 788a b4bd

layers_mu.3.weight f4 [50, 20]
0.2727239 1.3512444 1.2008158 -0.75391656 0.738477 -0.41338834 0.5191503 -0.7271508
0.4562688 0.31147838 -0.5762298 -0.390843 -1.5985643 -0.0783172 -0.82308817 1.1424521
0.14237237 -0.7432537 -0.5070035 1.1284631 -0.17611696 0.82156795 0.01268187 0.4547558
-0.0577761 0.3188696 0.87344027 0.71239525 -0.5016487 0.030523572 0.16371681 -0.0015105791
0.29604048 -0.30535662 -0.5675281 -0.46018776 0.24095403 -0.061099216 0.251863 0.22658545
0.49212652 1.7828704 -1.3076888 -0.3435911 -1.0738256 2.450195 -0.6304948 0.67524225
1.329679 1.2921041 0.45912796 0.90754735 -0.23228613 -0.039442338 -1.3109232 -0.7766497
-1.208274 -1.7051032 0.6138142 -0.5881033 0.15042031 -0.1986317 0.07900286 -0.54065746
-0.29545236 -0.26572105 0.04354165 -0.111289 0.22638917 0.11238314 -0.3453767 -0.1600441
0.406761 0.17083883 0.39941588 -0.008318991 -0.44659954 -0.18152545 0.09683694 -0.3675985
0.23744799 -0.6366746 -0.04308564 0.08244215 -0.48233688 -0.55386496 0.038270436 0.38446364
-0.6260309 0.11172101 -0.08514305 -0.5614576 -0.20285194 -0.3202952 0.08231044 -0.4392719
-0.0423539 -0.2527179 -0.11737288 0.553571 -0.27299547 0.70170534 -0.26346597 0.099300265
0.2919083 -0.12264207 -0.041166235 0.18450776 -0.13641077 0.043729626 -0.16491356 0.29471987
0.03713198 -0.10725937 0.31698912 -0.077173255 -0.54912746 0.31819358 0.16965361 0.24937709
0.64361423 -0.91484845 0.21241933 0.50517267 0.28126597 0.7506971 -0.16267751 0.39666522
0.43070173 1.689901 -2.305335 -0.8585635 0.42865527 0.2164298 2.1111813 2.4610984
-0.38408995 -0.95882946 2.1768675 -0.28882995 -0.12582552 0.02828371 0.27285424 0.31491515
-0.3577347 0.1818555 -0.060141146 -0.29541183 0.15494144 -0.28810394 -0.044057757 0.012013918
-0.09707837 0.18120773 -0.1325562 -0.3421783 -0.17309086 -0.23205474 0.84435177 -0.10719144
0.21648744 -1.6334004 -0.78587615 -0.19115095 -0.40215802 1.0301731 2.0539186 -1.4259328
0.72538733 0.18273228 0.37526104 1.0306839 -0.16904236 -2.3169446 -0.8805296 1.4443462
-0.21815178 1.3715701 0.07039711 -0.3666334 -0.5213768 -0.2303338 0.06419548 -0.22725339
1.2979527 1.0870928 -2.1676323 0.22278619 0.00773609 -0.8786559 1.2130892 -0.8970042
-1.4010931 -1.3499061 -0.08819213 0.003959272 0.14367951 0.9061774 2.0560915 1.0588982
-0.6696842 -1.1428386 -0.8959527 -0.61559385 0.16873257 -0.3211641 -0.9366699 -0.86700886
-0.8731145 -0.016565982 -1.615767 -1.3493675 -0.9870295 -0.6882544 -0.33103177 0.08312041
-1.0947111 -1.653757 -0.2947388 -1.014125 -0.1507609 -0.15012355 0.25484687 0.38424596
-0.47902352 0.10876424 -0.19176817 0.5068547 0.01578277 0.09679697 -0.3243728 -0.43680394
0.1041661 0.55090433 0.56655806 0.0033880277 0.28142262 -0.24157405 -0.24190989 -0.6122036
0.20504375 0.3063903 0.045533348 -0.5155666 -0.6202243 -0.14697452 0.39676285 -0.2255942
-0.5041487 0.3775608 0.19848937 0.43364552 -0.26450244 -0.23720726 -0.22795796 -0.108651884
00000000: 78a2 8b3e 94f5 ac3f 55b4 993f ad00 41bf
00000010: d40c 3d3f a3a7 d3be 09e7 043f 8e26 3abf
00000020: 109c e93e 187a 9f3e cc83 13bf 931c c8be
00000030: c19d ccbf c564 a0bd e8b5 52bf df3b 923f
00000040: 10ca 113e e045 3ebf fbca 01bf 7b71 903f
00000050: 0158 34be 4752 523f 9ec7 4f3c c1d5 e83e
00000060: a2a6 6cbd e042 a33e c899 5f3f 895f 363f
00000070: 0d6c 00bf 920c fa3c 61a5 273e a0fe c5ba
00000080: 9e92 973e b457 9cbe 8649 11bf bb9d ebbe
00000090: a7bc 763e 2c43 7abd 30f4 803e 0406 683e
000000a0: 02f8 fb3e 1935 e43f 5962 a7bf 2ceb afbe
000000b0: 1e73 89bf ffcf 1c40 1b68 21bf addc 2c3f
000000c0: ec32 aa3f ab63 a53f d212 eb3e 0655 683f
000000d0: 6adc 6dbe 4a8e 21bd 55cc a7bf 84d2 46bf
000000e0: b9a8 9abf d240 dabf ed22 1d3f f08d 16bf
000000f0: c807 1a3e 1c66 4bbe 40cc a13d 8768 0abf
00000100: 8845 97be 970c 88be bb58 323d 7deb e3bd
00000110: 90d2 673e 2229 e63d 37d5 b0be 9ae2 23be
00000120: fa42 d03e 60f0 2e3e 3d80 cc3e 614c 08bc
00000130: b2a8 e4be cfe1 39be 7252 c63d df35 bcbe
00000140: 9125 733e 1bfd 22bf 917a 30bd 6ed7 a83d
00000150: dcf4 f6be 18ca 0dbf 76c1 1c3d 6bd8 c43e
00000160: 9043 20bf fccd e43d 7b5f aebd afbb 0fbf
00000170: 6bb8 4fbe bcfd a3be 6092 a83d 3fe8 e0be
00000180: 487b 2dbd 3e64 81be 3161 f0bd d4b6 0d3f
00000190: 10c6 8bbe f6a2 333f 03e5 86be f05d cb3d
000001a0: 0175 953e c42b fbbd ed9d 28bd 9aef 3c3e
000001b0: 44af 0bbe d61d 333d 1adf 28be 86e5 963e
000001c0: b417 183d cdaa dbbd 664c a23e 030d 9ebd
000001d0: 9e93 0cbf 45ea a23e adb9 2d3e b55c 7f3e
000001e0: e7c3 243f 8233 6abf 7484 593e ff52 013f
000001f0: 1802 903e af2d 403f ef94 26be b417 cb3e
00000200: f084 dc3e ad4e d83f 9c8a 13c0 d1ca 5bbf
00000210: b478 db3e c69f 5d3e 981d 0740 a382 1d40
00000220: 70a7 c4be d975 75bf cc51 0b40 85e1 93be
00000230: 68d8 00be 3db3 e73c 8db3 8b3e 8f3c a13e
00000240: 0129 b7be 5438 3a3e 9056 76bd 3840 97be
00000250: f8a8 1e3e 5c82 93be e875 34bd 06d6 443c
00000260: 06d1 c6bd 858e 393e d0bc 07be fe31 afbe
00000270: bb3e 31be c29f 6dbe 7027 583f 3087 dbbd
00000280: e2ae 5d3e 4413 d1bf 2e2f 49bf 13bd 43be
00000290: a8e7 cdbe b6dc 833f 6773 0340 f784 b6bf
000002a0: fcb2 393f 2c1e 3b3e 3722 c03e 73ed 833f
000002b0: 7119 2dbe d248 14c0 636a 61bf 56e0 b83f
000002c0: 2e63 5fbe 9c8f af3f 5c2c 903d 5fb7 bbbe
000002d0: f378 05bf a0dc 6bbe eb78 833d 1db5 68be
000002e0: 5023 a63f db25 8b3f 7dba 0ac0 1022 643e
000002f0: 077f fd3b 98ef 60bf 8246 9b3f 11a2 65bf
00000300: 0557 b3bf b9c9 acbf 139e b4bd c8bc 813b
00000310: b920 133e 3efb 673f 0197 0340 fa89 873f
00000320: 6c70 2bbf 8948 92bf 285d 65bf 8f97 1dbf
00000330: 3bc8 2c3e 9f6f a4be 99c9 6fbf 4bf4 5dbf
00000340: 6f84 5fbf 62b5 87bc 74d1 cebf 13b8 acbf
00000350: f7ad 7cbf 7131 30bf ff7c a9be 093b aa3d
00000360: 7e1f 8cbf 4fae d3bf 01e8 96be d9ce 81bf
00000370: 1161 1abe fdb9 19be 4a7b 823e e3bb c43e
00000380: 9242 f5be c9bf de3d e05e 44be 3bc1 013f
00000390: de4a 813c 7d3d c63d 3114 a6be c4a4 dfbe
000003a0: 0955 d53d 1108 0d3f f309 113f ac09 5e3b
000003b0: a016 903e 305f 77be 3ab7 77be 60b9 1cbf
000003c0: fdf6 513e 30df 9c3e 2d81 3a3d 2cfc 03bf
000003d0: 05c7 1ebf 7d80 16be 8024 cb3e 2a02 67be
000003e0: e40f 01bf a64f c13e cc40 4b3e c906 de3e
000003f0: dd6c 87be 76e6 72be d06d 69be e184 debd

layers_mu.3.bias f4 [50]
-0.24884619 -0.99009997 -0.19324462 0.49327433 1.2893077 -0.39660692 -3.0325723 0.04853063
-0.037121963 -0.18803877 7.128783 0.030977812 0.46452153 -0.31003523 0.3829698 -0.23461795
0.30035168 0.26396185 -0.42979974 -0.5697294 0.3331487 0.11648266 0.36961567 -1.0656538
0.31007802 -0.07418004 0.9868713 -0.7957024 -0.39376792 0.63430774 -0.20501985 0.15039879
0.38892272 0.28954607 0.97892886 0.16654709 0.87862706 0.07675629 0.094801016 0.56368643
0.18296364 -0.33848423 -0.35116157 -0.024639973 0.82955813 0.27164572 -0.47572494 0.1644074
1.0033059 -0.24321297
00000000: 89d1 7ebe 3177 7dbf ebe1 45be 748e fc3e
00000010: 0908 a53f 1010 cbbe aa15 42c0 0ec8 463d
00000020: 330d 18bd 3c8d 40be fe1e e440 2ec5 fd3c
00000030: c4d5 ed3e f0bc 9ebe 9e14 c43e b03f 70be
00000040: b2c7 993e 0226 873e b60e dcbe c9d9 11bf
00000050: 7792 aa3e 768e ee3d 443e bd3e 5867 88bf
00000060: 8cc2 9e3e b4eb 97bd 99a3 7c3f 27b3 4bbf
00000070: f39b c9be fe61 223f b9f0 51be 2402 1a3e
00000080: e120 c73e 623f 943e 159b 7a3f 528b 2a3e
00000090: b4ed 603f 6732 9d3d 0927 c23d c14d 103f
000000a0: d25a 3b3e ce4d adbe 73cb b3be c5d9 c9bc
000000b0: ec5d 543f 2615 8b3e 3892 f3be 6a5a 283e
000000c0: 546c 803f d20c 79be

layers_sigma.0.weight f4 [20, 50]
0.02462141 -0.052848123 0.03670062 -0.006780097 0.025937319 0.31038097 0.29752252 0.024116056
0.25129637 -0.11594558 0.08505206 -0.52046406 -1.3408384 -0.2546326 0.31690535 -0.037749942
-0.3473806 1.0524782 -0.22951147 0.30323797 0.0073925722 -0.08652399 -0.08857399 0.052541036
0.0057836687 0.027004385 0.008088931 -1.0733423 -0.019184683 -0.13482125 -0.051761746 -1.7391338
-0.15959468 0.17658623 -0.0054595205 0.13160256 -0.03754893 -0.55529326 0.29891402 0.76045066
0.13601801 -0.11337985 -0.081001855 0.0054272627 0.023022557 0.08241734 -0.0059553394 -0.045315463
0.042129755 0.19020148 -0.06262523 0.032428354 0.07029621 -0.18984385 1.1424294 -1.1855425
0.08955172 -0.016234597 -0.1416494 -0.18294932 -0.16364168 -0.0741367 -0.9015969 -0.091601305
-0.16580649 -0.37207755 -0.24818026 0.97269785 -0.12750062 0.020482086 -0.0034953384 -0.023769416
0.0067637432 -0.019905742 -0.058719344 -0.04438626 -0.007967339 -0.9753818 0.003360406 -0.015629115
-0.0035800636 0.86640793 0.08913358 0.3916595 0.057099346 -0.053372372 0.010849248 -0.4835837
0.19439837 -1.2905691 0.14924097 0.1351555 -0.040361464 -0.03275404 0.0017074228 0.023021095
-0.055167865 0.016243542 0.015487353 0.1107538 0.0690858 0.006347141 0.175988 -1.4572653
-0.8685205 -1.1200699 -0.0104417745 -0.12334572 0.4254651 0.2557903 0.0976988 1.4042524
-0.79931515 0.51247835 -0.077617526 -0.08562125 -0.020842442 0.08382572 0.21789627 -0.38100272
-0.008780129 0.21014914 0.28138518 -0.04532832 0.032872174 0.055782214 -0.016024781 -0.26622924
0.0057645235 0.28216434 -0.0039323363 -0.04004535 0.013735573 -0.058779947 -0.08674873 -0.2530695
0.11130354 -0.43071958 -0.026252605 0.17032164 -0.3025135 0.102558106 0.2137321 0.028362395
-0.0013821181 -0.21321467 0.055086017 0.107230924 -0.08015491 0.06283657 -0.06675598 -0.028817985
0.13927928 0.054979183 -0.7231568 -0.23730077 -0.13944155 -0.20121154 -0.1107355 -0.0100511
0.07241493 0.2100681 0.19820866 0.017728005 -0.0012295162 0.12046771 -0.04791432 -1.094623
-0.029814182 -0.25657344 -0.062063023 0.043432776 0.09745008 0.060704768 0.008070409 -0.08464626
0.07167091 -0.2671025 0.015598936 0.07859653 -0.07299302 -0.15950336 0.0004951982 -0.09117052
0.06478216 -0.09955782 0.011451629 0.060837623 0.052610423 0.3274734 -0.12039052 -0.058290575
0.11894672 -0.025608264 -0.029154131 -0.056706544 -0.0017004658 -0.01817339 0.011033469 -0.10497033
-0.05565955 -0.017606972 -0.10925676 0.1464438 0.44893736 0.3647624 -0.20252973 -0.15285991
0.098169506 0.120630644 -0.022515446 -0.8693453 -0.72019273 0.14946161 -0.11945883 -0.0055086464
0.040990043 0.67802626 0.09821223 0.081829906 -0.02143738 0.12443667 0.18681958 0.016387418
0.04377141 0.01042173 0.0046510417 1.699012 0.005801609 0.15825878 0.003137595 0.47991696
0.04960135 0.05302341 -0.0658796 -0.20763953 0.05513324 0.13879563 -0.065137185 -0.33006474
0.18795781 -0.2791951 0.20356734 0.008918861 -0.04966157 -0.18000168 0.054893836 0.039460998
-0.05098919 -0.03558194 0.07619472 -0.040123984 -0.11677703 -0.105560824 -1.3453912 0.8680542
00000000: d7b2 c93c 4677 58bd 6453 163d 932b debb
00000010: 807a d43c 41ea 9e3e df54 983e 098f c53c
00000020: eba9 803e e074 edbd c62f ae3d 223d 05bf
00000030: 98a0 abbf 345f 82be 6b41 a23e af9f 1abd
00000040: dfdb b1be 9bb7 863f 0e05 6bbe 0242 9b3e
00000050: 643d f23b 7d33 b1bd 4866 b5bd 4535 573d
00000060: ee84 bd3b 4d38 dd3c 7087 043c 4863 89bf
00000070: 3229 9dbc 950e 0abe 2004 54bd f09b debf
00000080: ca6c 23be 05d3 343e c7e5 b2bb d2c2 063e
00000090: e8cc 19bd b327 0ebf 420b 993e e5ac 423f
000000a0: 4e48 0b3e b233 e8bd 4de4 a5bd 2ed7 b13b
000000b0: cd99 bc3c 6cca a83d 0225 c3bb b59c 39bd
000000c0: 4090 2c3d 2dc4 423e a841 80bd 98d3 043d
000000d0: 76f7 8f3d 6d66 42be 203b 923f dbbf 97bf
000000e0: e466 b73d 6bfe 84bc 8a0c 11be 1157 3bbe
000000f0: af91 27be fbd4 97bd 0ecf 66bf 7799 bbbd
00000100: 2dc9 29be f380 bebe f722 7ebe ba02 793f
00000110: 868f 02be 0cca a73c 0c12 65bb 14b8 c2bc
00000120: 64a2 dd3b 5e11 a3bc b283 70bd 5ece 35bd
00000130: 7189 02bc 9fb2 79bf 423a 5c3b a108 80bc
00000140: 809f 6abb e9cc 5d3f ab8b b63d 9887 c83e
00000150: 01e1 693d fd9c 5abd 0bc1 313c 4898 f7be
00000160: 5e10 473e 5e31 a5bf a0d2 183e 3466 0a3e
00000170: 1052 25bd 1a29 06bd 9acb df3a bc96 bc3c
00000180: b3f7 61bd 2d11 853c abbe 7d3c e3d2 e23d
00000190: db7c 8d3d aefb cf3b 3336 343e ab87 babf
000001a0: 5c57 5ebf 735e 8fbf fa13 2bbc ae9c fcbd
000001b0: 90d6 d93e f2f6 823e 4f16 c83d 8bbe b33f
000001c0: eb9f 4cbf c831 033f f0f5 9ebd 325a afbd
000001d0: c5bd aabc d2ac ab3d 3320 5f3e ca12 c3be
000001e0: 88da 0fbc 5631 573e b811 903e 30aa 39bd
000001f0: f9a4 063d e47b 643d 6746 83bc 334f 88be
00000200: 54e4 bc3b d877 903e d4da 80bb 9806 24bd
00000210: 2b0b 613c 3ec3 70bd 51a9 b1bd 5392 81be
00000220: 1cf3 e33d 4787 dcbe b40f d7bc cc68 2e3e
00000230: 0de3 9abe fc09 d23d 96dc 5a3e 4158 e83c
00000240: 3028 b5ba f254 5abe e0a1 613d e39b db3d
00000250: 4228 a4bd 76b0 803d 5cb7 88bd b213 ecbc
00000260: 3a9f 0e3e da31 613d ce20 39bf f9fe 72be
00000270: c4c9 0ebe 660a 4ebe 4bc9 e2bd 5ead 24bc
00000280: 474e 943d 181c 573e 36f7 4a3e 523a 913c
00000290: b827 a1ba c6b7 f63d ce41 44bd 9b1c 8cbf
000002a0: df3c f4bc 985d 83be cc35 7ebd 91e6 313d
000002b0: e893 c73d 90a5 783d c039 043c 055b adbd
000002c0: 33c8 923d a9c1 88be ae92 7f3c 38f7 a03d
000002d0: 5d7d 95bd d954 23be 30d0 013a 9cb7 babd
000002e0: 82ac 843d f8e4 cbbd 9d9f 3b3c df30 793d
000002f0: 077e 573d 98aa a73e 4e8f f6bd 19c2 6ebd
00000300: 579a f33d 6cc8 d1bc a5d4 eebc 1f45 68bd
00000310: 2ae2 deba 5ce0 94bc b9c5 343c affa d6bd
00000320: 45fb 63bd 7f3c 90bc 02c2 dfbd 5df5 153e
00000330: 1edb e53e 23c2 ba3e f463 4fbe 4f87 1cbe
00000340: 180d c93d 330d f73d 5072 b8bc 6a8d 5ebf
00000350: 8d5e 38bf 770c 193e d5a6 f4bd e081 b4bb
00000360: 2de5 273d 2193 2d3f 7e23 c93d 7096 a73d
00000370: 729d afbc a7d8 fe3d a24d 3f3e e83e 863c
00000380: a649 333d e7bf 2a3c c467 983b 3a79 d93f
00000390: 6c1b be3b 970e 223e 1ca0 4d3b adb7 f53e
000003a0: c92a 4b3d 132f 593d e2eb 86bd 759f 54be
000003b0: 64d3 613d 7120 0e3e a566 85bd 3ffe a8be
000003c0: 0378 403e a9f2 8ebe f573 503e 6a20 123c
000003d0: ee69 4bbd 5c52 38be 5cd8 603d dba1 213d
000003e0: 0ada 50bd 5ebe 11bd fa0b 9c3d 0c59 24bd
000003f0: cc28 efbd 4630 d8bd c735 acbf cd38 5e3f

layers_sigma.0.bias f4 [20]
0.40057 -0.20028408 0.136486 0.058783907 0.07741929 0.12602401 0.0039341394 -0.003634781
-0.32245317 0.04911208 -0.43263832 0.30433744 -0.047293924 -0.029769056 0.058787506 0.01054235
-0.35959974 -0.036679342 0.1493799 -0.059082992
00000000: 8317 cd3e 4517 4dbe fcc2 0b3e 65c7 703d
00000010: 018e 9e3d 700c 013e f4e9 803b 8235 6ebb
00000020: 9518 a5be c029 493d c582 ddbe 1ed2 9b3e
00000030: 46b7 41bd 3cde f3bc 2bcb 703d d2b9 2c3c
00000040: 751d b8be 143d 16bd 0bf7 183e 0201 72bd

layers_sigma.1.weight f4 [20, 20]
0.53320754 0.44348443 0.28642398 -0.027526326 0.42517346 0.79584014 0.061427545 0.003737947
0.5256798 -0.059958752 0.3701589 -0.36613876 -0.04762164 -0.012836253 0.32070613 -0.22972992
0.0019591795 0.0051282397 0.63920504 -0.023745088 -0.48376432 -0.0063068047 0.6794601 0.0995999
-0.7113794 -0.20396659 -0.26363313 -0.009500009 -0.45576882 0.04631213 0.85910577 0.18177305
-0.3727188 0.06964876 0.48799574 -0.0206136 0.60283196 0.057885777 0.16589652 0.023725761
0.20459144 0.041878868 0.7384965 0.0015095281 -0.08632021 0.1618657 -0.053253178 0.0077083255
-0.7995839 -0.04624541 -1.0171788 -0.30126426 -0.7241812 -0.020732984 0.035226144 -0.30239925
-0.6108696 0.010286203 0.34115103 -0.35046262 -0.60655326 -0.5110997 -0.19790092 -0.24922481
0.89529854 -0.3390443 0.008766825 -0.0028934013 0.42369622 0.071784735 -0.2481106 0.050339676
-0.6190449 0.00979301 0.4497503 -0.45310798 0.26160675 0.076272905 0.4181215 -0.026993556
-1.4029782 0.6099426 -0.26340997 -0.19871819 -0.23500852 0.45505637 0.04788865 0.017777113
0.14120518 -0.082098484 0.4229469 -1.353484 -0.23103279 -0.0076264306 -0.09101218 -0.34392202
0.28542393 0.048383277 -0.2876525 -0.109099805 -0.106112875 -0.6800845 -0.5754079 0.09819865
0.20622511 0.599252 0.059680123 0.037139215 -0.9642566 0.04792647 0.10447787 -0.49949098
0.2404144 0.0017514275 0.5611367 0.16680636 0.15515462 -0.04824056 0.573675 0.00044976594
0.37399206 0.026114246 -0.63090545 -0.09294212 0.58092 0.16303782 0.2376893 -0.01156581
0.45622352 -0.02436634 -0.76610446 -0.26675928 0.32280618 -0.03182833 -0.3778916 0.03842624
-0.51974 -0.019707918 -0.12944631 0.01880616 1.3600047 -0.6284775 0.080975704 0.13230003
-0.020804472 -0.42312825 -0.010830796 -0.029173024 -0.0015756693 0.04066899 -0.3718943 1.2458247
0.04022876 -0.032509413 0.19979301 0.2553573 -0.255299 -0.0016866135 0.13986352 0.10767588
0.06715144 0.77465373 0.58714634 -0.10284385 -0.27108502 -0.6723056 -0.09221775 -0.03236735
1.0901757 -0.03598626 -0.12770917 0.44319004 -0.2896436 0.03867599 -0.5544682 -0.16381842
-0.1593683 0.010380913 -0.57432425 0.085047364 0.39791042 -0.14033337 0.7870066 0.012876431
0.124343775 0.17988561 0.046498656 0.021492003 -0.8129804 -0.19527768 -0.8143299 0.15304501
-0.52239954 -0.003345922 -0.39038134 -0.24835852 -0.48282963 0.032687493 0.34140226 -0.24635881
-0.14287746 -0.031777576 -0.53204316 0.03098169 0.05489769 -0.12099787 0.08745664 0.026999403
0.61613846 0.030789835 0.7365437 0.26131606 0.5259978 0.0022678422 -0.10124436 0.35210496
0.50789416 0.043153815 -0.14524363 0.30542472 -0.61851734 -0.44499874 -0.34277114 0.05405616
-0.4723982 -0.8681271 -0.09449013 -0.023563337 -0.52649283 0.10618955 -0.39982477 0.30273995
0.008598987 -0.003991437 -0.29329503 0.2471098 -0.0037792083 -0.03327584 -0.6812018 0.043073237
-0.025007274 -0.65335166 0.4637658 0.4105177 -0.30344042 0.72318166 -0.05289678 -0.058924995
0.39058414 0.04902675 -0.5547474 -0.112278074 -0.07598949 0.03883529 -0.027225234 0.05708346
00000000: 4a80 083f 6410 e33e 2aa6 923e e47e e1bc
00000010: 56b0 d93e 2ebc 4b3f 739b 7b3d 58f8 743b
00000020: f492 063f 4f97 75bd 7885 bd3e 8a76 bbbe
00000030: e90e 43bd 264f 52bc 9833 a43e 523e 6bbe
00000040: 9465 003b cb0a a83b f1a2 233f 0f85 c2bc
00000050: f5af f7be 50a9 cebb 19f1 2d3f 08fb cb3d
00000060: f61c 36bf 9edc 50be ecfa 86be eda5 1bbc
00000070: 885a e9be cab1 3d3d 5bee 5b3f b722 3a3e
00000080: 00d5 bebe 02a4 8e3d 94da f93e dadd a8bc
00000090: 3253 1a3f a319 6d3d c7e0 293e 875c c23c
000000a0: 6b80 513e 2d89 2b3d 1b0e 3d3f 5cdb c53a
000000b0: a6c8 b0bd 1fc0 253e 0120 5abd 1f96 fc3b
000000c0: 88b1 4cbf d46b 3dbd ea32 82bf 4f3f 9abe
000000d0: f063 39bf 38d8 a9bc 4a49 103d 13d4 9abe
000000e0: f361 1cbf 7687 283c 59ab ae3e d66f b3be
000000f0: 1347 1bbf 6ed7 02bf 8aa6 4abe ca34 7fbe
00000100: 4932 653f 3797 adbe bba2 0f3c 389f 3dbb
00000110: b6ee d83e e003 933d b510 7ebe fa30 4e3d
00000120: ba79 1ebf dc72 203c ac45 e63e c5fd e7be
00000130: 52f1 853e f834 9c3d 0514 d63e 9721 ddbc
00000140: ca94 b3bf 3325 1c3f acdd 86be c87c 4bbe
00000150: 13a6 70be 26fd e83e e426 443d 4fa1 913c
00000160: 1798 103e 4023 a8bd 7f8c d83e f73e adbf
00000170: dc93 6cbe 23e7 f9bb 9864 babd 8c16 b0be
00000180: 1623 923e 8b2d 463d 3047 93be b86f dfbd
00000190: b551 d9bd 051a 2ebf ef4d 13bf 601c c93d
000001a0: ad2c 533e 9468 193f 2573 743d 4a1f 183d
000001b0: 85d9 76bf 8c4e 443d 7ef8 d53d 48bd ffbe
000001c0: 312f 763e 2890 e53a a8a6 0f3f 49cf 2a3e
000001d0: dae0 1e3e e597 45bd 5ddc 123f 90ce eb39
000001e0: e37b bf3e 8bed d53c 0583 21bf 7058 bebd
000001f0: 2cb7 143f 63f3 263e d364 733e 867e 3dbc
00000200: 2196 e93e eb9b c7bc 6c1f 44bf ac94 88be
00000210: da46 a53e 6c5e 02bd 027b c1be d564 1d3d
00000220: ae0d 05bf 8072 a1bc 938d 04be 600f 9a3c
00000230: a214 ae3f e7e3 20bf 97d6 a53d a979 073e
00000240: 246e aabc 44a4 d8be a773 31bc 44fc eebc
00000250: b086 ceba 8794 263d ee68 bebe 2f77 9f3f
00000260: eac6 243d 9728 05bd 8a96 4c3e 31be 823e
00000270: 8db6 82be 5c11 ddba 6238 0f3e 2c85 dc3d
00000280: b286 893d b54f 463f 394f 163f cc9f d2bd
00000290: a8cb 8abe 381c 2cbf a9dc bcbd a093 04bd
000002a0: e18a 8b3f 5466 13bd 31c6 02be cee9 e23e
000002b0: 2a4c 94be b76a 1e3d a1f1 0dbf 04c0 27be
000002c0: 7231 23be b414 2a3c ea06 13bf 502d ae3d
000002d0: eaba cb3e 8db3 0fbe 4479 493f abf7 523c
000002e0: f3a7 fe3d ef33 383e 6075 3e3d ff0f b03c
000002f0: 7c1f 50bf dff6 47be ed77 50bf d5b7 1c3e
00000300: fabb 05bf 4247 5bbb 10e0 c7be b251 7ebe
00000310: 7235 f7be 52e3 053d 47cc ae3e 7c45 7cbe
00000320: 784e 12be 3429 02bd fb33 08bf 50cd fd3c
00000330: 66dc 603d bbcd f7bd 781c b33d da2d dd3c
00000340: 40bb 1d3f f73a fc3c 218e 3c3f 38cb 853e
00000350: cba7 063f 14a0 143b 3459 cfbd 1a47 b43e
00000360: 5a05 023f 0ec2 303d bfba 14be a160 9c3e
00000370: 2757 1ebf e0d6 e3be b37f afbe fe69 5d3d
00000380: 2dde f1be 943d 5ebf 0b84 c1bd e607 c1bc
00000390: 3cc8 06bf e879 d93d d5b5 ccbe bb00 9b3e
000003a0: c4e2 0c3c 9aca 82bb c42a 96be 5a0a 7d3e
000003b0: 98ac 77bb 3f4c 08bd 3e63 2ebf 906d 303d
000003c0: 0edc ccbc 0e42 27bf b672 ed3e 602f d23e
000003d0: 8b5c 9bbe 6f22 393f 4baa 58bd 565b 71bd
000003e0: a5fa c73e 46d0 483d ed03 0ebf 0cf2 e5bd
000003f0: 61a0 9bbd c111 1f3d 7407 dfbc 59d0 693d

layers_sigma.1.bias f4 [20]
-2.1370995 -1.8008558 -2.8245878 -2.0164938 -0.8526708 -2.296779 -2.4843428 0.8736196
-2.0195498 -0.07304676 -0.15236962 -2.210611 -2.2135963 -1.8474141 -2.7967162 -2.1779811
0.31536096 -2.3585427 -2.1214077 -2.568638
00000000: 3dc6 08c0 7182 e6bf 0cc6 34c0 3c0e 01c0
00000010: a248 5abf 6dfe 12c0 79ff 1ec0 89a5 5f3f
00000020: 4e40 01c0 8a99 95bd c806 1cbe a77a 0dc0
00000030: 90ab 0dc0 1178 ecbf 66fd 32c0 0b64 0bc0
00000040: fe76 a13e 5df2 16c0 25c5 07c0 9164 24c0

layers_sigma.3.weight f4 [50, 20]
-0.000870781 -0.0168649 -0.057459436 -0.022390168 -0.5838413 -0.04454865 -0.052522022 -0.61435163
-0.03276243 -0.7926419 -0.8572368 -0.0030435575 0.0039058737 -0.047388613 0.0024404954 0.11381691
-0.17053361 -0.022872698 -0.035195787 -0.008557282 0.1800218 -0.14502218 -0.13836612 -0.11632483
-0.09137736 0.15885273 -0.14838639 -0.037007466 0.16691652 0.07194593 -0.07219756 0.18918106
0.2584715 -0.23370562 -0.058967065 0.3735373 -0.36628398 -0.11674937 0.25895575 -0.22462505
0.0031557716 -0.05628755 -0.09121288 0.0009531155 -0.6312369 -0.016856188 -0.06315378 -0.6218302
0.037001792 -0.6161916 -0.74424225 0.03774771 0.022850558 -0.0322994 0.02015297 0.10969246
-0.10985957 -0.04223831 -0.03269267 -0.0022212863 0.0036391793 0.016002052 4.881677 0.01642365
-0.556837 -0.014204071 0.018584765 -0.55929214 0.023055496 -2.2376196 2.7515056 0.00500967
0.028084056 0.0039945487 0.02927014 0.032667514 -0.034258354 -0.0014252849 -0.0027537541 -0.0041328846
0.013675797 0.008288691 0.032484498 0.0009621908 -0.0022535191 0.012808426 -0.010603886 0.005456174
-0.00433127 -0.058802743 -0.0824742 0.0018895078 3.6085377 -0.014620658 0.044089142 0.03131106
0.0421634 0.0025754573 3.660423 0.021213584 0.0037040827 0.03829444 0.017601842 -0.021372162
-0.020772465 3.5612154 0.044874478 0.012003762 3.4870706 0.0010451879 0.0032233172 0.013048166
0.01769619 -0.0018843167 0.0058888886 0.051050004 0.0007922179 -0.015217831 0.024266029 0.017443813
0.018109437 -0.026114848 -0.0988186 -0.0068536997 -0.56230783 0.014281049 -0.045541696 -0.5181577
0.024628174 -0.6528997 -0.75934184 0.038014587 0.022583067 -0.023973916 -0.0084860725 0.1764048
-0.20249383 -0.008810043 -0.014573043 0.0032086466 0.09567881 0.062157296 0.13985129 -0.07147358
0.2989528 0.21575582 0.05500015 0.40107486 0.20179085 -0.14542969 0.004692442 0.08947085
-0.086283766 -0.24333563 -0.12347777 0.15231267 -0.16175747 -0.06366798 -0.076498404 -0.24895233
-0.09157436 -0.0907538 -0.14110081 -0.051781718 -0.61071396 -0.02758282 -0.063998446 -0.607091
-0.031803817 -0.624012 -0.72804874 -0.047199123 -0.017906435 -0.09406459 -0.048786074 0.04758884
-0.13551658 -0.0796628 -0.07590931 -0.06275598 -0.03423232 -0.05859596 -0.1418025 -0.0278133
-0.71566343 -0.044014703 -0.047217 -0.6787935 -0.04567634 -0.66798407 -0.7854097 -0.033168018
-0.033445813 -0.049178567 -0.0718427 0.080801696 -0.17855947 -0.051742986 -0.08269199 0.00028491695
-0.050210718 -0.07025844 -0.10476133 -0.023518788 -0.91974115 -0.08909855 -0.089766115 -0.90301454
-0.054622307 -0.88204783 -0.9854663 -0.018127587 -0.03423795 -0.09506141 -0.07150349 0.1425663
-0.26072165 -0.053813852 -0.09909094 -0.02238323 -0.010169113 3.6143732 0.01331134 0.04021759
-0.10240193 -0.0057151085 3.707943 -0.084969364 -0.00405275 0.038899854 -0.0006991124 -0.011134521
0.033603866 -0.0021520806 0.072701335 0.0018743263 0.10199372 0.031354256 0.007103233 0.033889208
3.7263303 0.0059950193 -0.007066355 0.019526318 -0.07109551 0.016652219 -0.004452778 -0.043924253
0.0056230454 0.0057549127 -0.051530614 3.7055295 -0.00069529284 0.0050838995 -0.00039168913 -0.034597874
00000000: 2045 64ba 4228 8abc 965a 6bbd 966b b7bc
00000010: a076 15bf a578 36bd 5521 57bd 2646 1dbf
00000020: e631 06bd 94ea 4abf df73 5bbf 6c76 47bb
00000030: b0f9 7f3b 901a 42bd b8f0 1f3b d718 e93d
00000040: 5da0 2ebe 865f bbbc 7529 10bd d833 0cbc
00000050: a257 383e b280 14be d9af 0dbe b63b eebd
00000060: 0e24 bbbd 4aaa 223e 9af2 17be 2495 17bd
00000070: 2aec 2a3e 6358 933d 50dc 93bd aeb8 413e
00000080: 6056 843e 8750 6fbe 7387 71bd 4840 bf3e
00000090: 9389 bbbe 4b1a efbd d995 843e 1c04 66be
000000a0: 10d1 4e3b c68d 66bd d2cd babd 80da 793a
000000b0: be98 21bf fd15 8abc c556 81bd 4430 1fbf
000000c0: 318f 173d bcbe 1dbf a986 3ebf 589d 1a3d
000000d0: 1831 bb3c 604c 04bd d717 a53c 71a6 e03d
000000e0: 0efe e0bd 1402 2dbd c0e8 05bd 0093 11bb
000000f0: 4c7f 6e3b bc16 833c b336 9c40 e48a 863c
00000100: df8c 0ebf 31b8 68bc 143f 983c c52d 0fbf
00000110: e1de bc3c 2935 0fc0 ab18 3040 2828 a43b
00000120: 8910 e63c b4e4 823b efc7 ef3c 5fce 053d
00000130: 7d52 0cbd a0d0 baba 5478 34bb 266d 87bb
00000140: 7310 603c 4acd 073c 770e 053d 883b 7c3a
00000150: c7af 13bb 6fda 513c ecbb 2dbc b4c9 b23b
00000160: 54ed 8dbb 25db 70bd 3ce8 a8bd 5ca9 f73a
00000170: 48f2 6640 7c8b 6fbc d196 343d 0740 003d
00000180: 88b3 2c3d 01c9 283b 5f44 6a40 1cc8 ad3c
00000190: 32c0 723b a1da 1c3d bd31 903c ac14 afbc
000001a0: 042b aabc f4ea 6340 4dce 373d 6dab 443c
000001b0: 2a2c 5f40 b0fe 883a 4a3e 533b fac7 553c
000001c0: 9af7 903c 2dfb f6ba 94f7 c03b cf19 513d
000001d0: d8ac 4f3a 3654 79bc 8dc9 c63c 54e6 8e3c
000001e0: 3e5a 943c ceee d5bc 6861 cabd 0095 e0bb
000001f0: 68f3 0fbf 10fb 693c ee89 3abd fca5 04bf
00000200: 06c1 c93c 6f24 27bf 3a64 42bf 2fb5 1b3d
00000210: 2000 b93c f264 c4bc 2b09 0bbc 76a3 343e
00000220: 8b5a 4fbe 0058 10bc c6c3 6ebc 2848 523b
00000230: 40f3 c33d a698 7e3d 2d35 0f3e be60 92bd
00000240: 5710 993e 18ef 5c3e d647 613d af59 cd3e
00000250: 43a2 4e3e 85eb 14be 0ec3 993b 7e3c b73d
00000260: 8bb5 b0bd fa2c 79be eae1 fcbd daf7 1b3e
00000270: c0a3 25be 5c64 82bd 32ab 9cbd 5ced 7ebe
00000280: 578b bbbd 21dd b9bd bb7c 10be 1119 54bd
00000290: c057 1cbf 5ef5 e1bc 9e11 83bd 516a 1bbf
000002a0: b844 02bd 40bf 1fbf 6761 3abf de53 41bd
000002b0: 84b0 92bc f0a4 c0bd e8d3 47bd 84ec 423d
000002c0: dcc4 0abe 4026 a3bd 5776 9bbd 3586 80bd
000002d0: 3037 0cbd 5102 70bd ad34 11be b8d8 e3bc
000002e0: b835 37bf c348 34bd 9d66 41bd 69c5 2dbf
000002f0: 1d17 3bbd 0101 2bbf 9c10 49bf 30db 07bd
00000300: 7afe 08bd 776f 49bd 4422 93bd 5c7b a53d
00000310: 4bd8 36be 74f0 53bd 6b5a a9bd e860 9539
00000320: c1a9 4dbd a8e3 8fbd 1c8d d6bd 79aa c0bc
00000330: 2874 6bbf 4d79 b6bd 4cd7 b7bd f62b 67bf
00000340: a4bb 5fbd e3cd 61bf 8547 7cbf 4e80 94bc
00000350: 183d 0cbd 8eaf c2bd 6c70 92bd e6fc 113e
00000360: 4f7d 85be ea6b 5cbd 31f0 cabd 095d b7bc
00000370: 5a9c 26bc e451 6740 ce17 5a3c 33bb 243d
00000380: 1ab8 d1bd ce45 bbbb f04e 6d40 6b04 aebd
00000390: eecc 84bb 7455 1f3d a444 37ba 916d 36bc
000003a0: 35a4 093d ec09 0dbb 70e4 943d f4ab f53a
000003b0: 15e2 d03d 526d 003d 3dc2 e83b 69cf 0a3d
000003c0: 327c 6e40 de71 c43b e28c e7bb a8f5 9f3c
000003d0: 869a 91bd 3c6a 883c 9ce8 91bb ebe9 33bd
000003e0: 8641 b83b b593 bc3b c411 53bd 6527 6d40
000003f0: 5044 36ba d796 a63b a05b cdb9 80b6 0dbd

layers_sigma.3.bias f4 [50]
-0.78518444 0.17239188 -0.7750732 -1.3087814 -2.6129463 -2.613931 -0.7938802 -0.30005148
-1.0037282 -0.8887038 -0.3431531 -2.574375 -2.533876 -1.0005435 -0.7559097 -0.9889823
-0.8175151 -2.663783 -0.9291088 -0.78076047 -0.6266118 -0.37312335 -1.1368618 1.3462576
0.019157667 -0.49032846 0.26273355 -2.5916593 -0.45411915 1.0605427 -1.0426996 -0.5039745
-0.81193423 -0.92220217 -0.9404287 -0.7891144 0.27736086 -0.9195368 -0.87321573 0.6889997
-0.8654257 -0.79642034 0.701893 0.44979182 -1.0666282 0.21034463 0.023725763 1.4381173
0.5522059 -0.6021018
00000000: d901 49bf 7f87 303e 326b 46bf 2686 a7bf
00000010: 833a 27c0 a54a 27c0 bc3b 4bbf 59a0 99be
00000020: 2a7a 80bf 1882 63bf c3b1 afbe 8fc2 24c0
00000030: 062b 22c0 cf11 80bf 4c83 41bf f22d 7dbf
00000040: ab48 51bf 6c7b 2ac0 13da 6dbf ebdf 47bf
00000050: a269 20bf 060a bfbe b084 91bf 2b52 ac3f
00000060: 8af0 9c3c 550c fbbe 0385 863e bfdd 25c0
00000070: 4e82 e8be ddbf 873f 2e77 85bf 7904 01bf
00000080: ecda 4fbf 7115 6cbf efbf 70bf 6703 4abf
00000090: 3e02 8e3e c466 6bbf 118b 5fbf 4962 303f
000000a0: 8a8c 5dbf 34e2 4bbf 42af 333f 1d4b e63e
000000b0: 4687 88bf 9564 573e 885c c23c 3a14 b83f
000000c0: 5e5d 0d3f 5823 1abf

square_avg f4 [20, 50]
0.84284925 0.1977864 0.70922184 0.13858989 0.18373318 0.114962 0.73019946 0.15234484
0.5009969 0.38351223 0.6061587 0.21343882 0.20142226 0.6876248 0.6876185 0.490621
0.625532 0.2120346 0.50431514 0.44106913 0.11948778 0.27746728 0.13713022 0.27784044
0.16591671 0.13454565 0.18698767 0.17280711 0.3497516 0.19606428 0.62185377 0.24010484
0.69792044 0.4568101 0.15915045 0.3629104 0.1347389 0.35219827 0.39223248 0.16991034
0.6268824 0.58246845 0.26185822 0.09402844 0.17998025 0.11216724 0.11568029 0.21947643
0.1970576 0.84284925 0.8864408 0.23963988 1.29721 0.15038835 0.21263649 0.23841234
0.8598539 0.29615918 0.5197671 0.6468435 0.70320225 0.20377515 0.23285344 0.7753425
0.9630944 0.42893127 0.5145067 0.24816024 0.48879343 0.5879459 0.19096321 0.3204786
0.10734918 0.2440493 0.23917422 0.14988355 0.23198089 0.21450272 0.41159034 0.21283628
0.83864874 0.27274308 0.86894244 0.53848916 0.16143575 0.63665503 0.20742452 0.6751823
0.52799165 0.15486555 0.9793369 0.5027278 0.21747863 0.18576586 0.15998493 0.11834162
0.18178974 0.21295094 0.21630733 0.8864408 0.46517846 0.15481225 0.5014217 0.1116008
0.15444483 0.18263866 0.4377387 0.1835931 0.26740262 0.327451 0.5691029 0.18800296
0.12722383 0.48914734 0.5580816 0.20312594 0.290918 0.12951085 0.27294368 0.4221522
0.08936879 0.11558501 0.11778733 0.13683487 0.19213533 0.100435704 0.16431542 0.15154347
0.2671477 0.11906012 0.44169983 0.14825155 0.4869839 0.3333817 0.12319807 0.42121542
0.12658209 0.31580514 0.31079245 0.11240251 0.51489246 0.3067181 0.13645786 0.12519921
0.08527607 0.11333436 0.109736085 0.13271645 0.20923749 0.4651784 0.48209086 0.11375731
0.6182829 0.08914326 0.110980265 0.14632617 0.69164234 0.1111293 0.37482467 0.3785774
0.43363866 0.15519103 0.15590343 0.5115593 0.4810092 0.3024586 0.34930575 0.14111234
0.503909 0.34844542 0.13708624 0.19303557 0.09789429 0.13050692 0.112110935 0.0754484
0.12645237 0.14469893 0.28477186 0.13364302 0.3217464 0.13047326 0.4175912 0.3995878
0.11744598 0.3230996 0.11628721 0.4038967 0.36787543 0.1215539 0.35044402 0.3701565
0.17612976 0.119403206 0.1127008 0.09111721 0.11195418 0.13802007 0.15805623 0.48209086
0.81916815 0.14638391 0.5722525 0.121018395 0.1301755 0.12032322 0.54755527 0.191675
0.32659584 0.28504482 0.41819087 0.14621355 0.17174014 0.3659786 0.47109795 0.22352237
0.24105799 0.17602892 0.35328627 0.44715142 0.1262204 0.1728358 0.11011228 0.15033825
0.21605319 0.1590493 0.15305854 0.1639392 0.33307007 0.18942375 0.4643397 0.19965899
0.6743133 0.41645432 0.13252777 0.3952046 0.11177322 0.2679442 0.28955653 0.17407429
0.5738667 0.38485417 0.19282903 0.096541576 0.11998016 0.12593007 0.107418895 0.19441319
0.2077727 0.8191682 0.64816886 0.15168224 0.6878679 0.13562457 0.17708853 0.15745826
00000000: f8c4 573f 8588 4a3e 908f 353f 82ea 0d3e
00000010: 8d24 3c3e 3271 eb3d 5aee 3a3f 4900 1c3e
00000020: 5541 003f b75b c43e 372d 1b3f b58f 5a3e
00000030: a341 4e3e 2e08 303f c407 303f ad32 fb3e
00000040: dd22 203f 991f 593e cc1a 013f d0d3 e13e
00000050: 02b6 f43d 3110 8e3e dd6b 0c3e 1a41 8e3e
00000060: 12e6 293e 56c6 093e b279 3f3e 59f4 303e
00000070: a412 b33e 13c5 483e cf31 1f3f 0bde 753e
00000080: eaaa 323f 03e3 e93e 56f8 223e 64cf b93e
00000090: fff8 093e 5553 b43e b2d2 c83e fafc 2d3e
000000a0: 5d7b 203f a71c 153f 4812 863e fc91 c03d
000000b0: be4c 383e f0b7 e53d cae9 ec3d 6ebe 603e
000000c0: 78c9 493e f8c4 573f c9ed 623f 2864 753e
000000d0: fa0a a63f 67ff 193e 61bd 593e 5d22 743e
000000e0: 631f 5c3f 2da2 973e 750f 053f 8997 253f
000000f0: 1005 343f 6faa 503e 2271 6e3e d97c 463f
00000100: 5b8d 763f e19c db3e b6b6 033f b81d 7e3e
00000110: 2243 fa3e 9f83 163f dc8b 433e c515 a43e
00000120: e3d9 db3d 0fe8 793e 16ea 743e 137b 193e
00000130: 668c 6d3e 9aa6 5b3e f8bb d23e c1f1 593e
00000140: afb1 563f fba4 8b3e 0373 5e3f 6dda 093f
00000150: 6a4f 253e d3fb 223f 1867 543e bfd8 2c3f
00000160: 762a 073f 1395 1e3e d3b5 7a3f c5b2 003f
00000170: b8b2 5e3e 6839 3e3e 17d3 233e 175d f23d
00000180: 1727 3a3e d00f 5a3e ab7f 5d3e c9ed 623f
00000190: df2b ee3e 1a87 1e3e 2c5d 003f f68e e43d
000001a0: c926 1e3e a105 3b3e 491f e03e d4ff 3b3e
000001b0: ffe8 883e a8a7 a73e bab0 113f d983 403e
000001c0: f746 023e 8571 fa3e 70de 0e3f 3f00 503e
000001d0: 34f3 943e 7e9e 043e 46bf 8b3e 5524 d83e
000001e0: fc06 b73d d5b7 ec3d 7c3a f13d 711e 0c3e
000001f0: 20bf 443e 3cb1 cd3d 4d42 283e 362e 1b3e
00000200: 95c7 883e cbd5 f33d 7b26 e23e 41cf 173e
00000210: f455 f93e 02b1 aa3e 454f fc3d 8ca9 d73e
00000220: bc9e 013e 36b1 a13e 3020 9f3e 4a33 e63d
00000230: fecf 033f 280a 9d3e 9cbb 0b3e 3934 003e
00000240: 38a5 ae3d d81b e83d 50bd e03d d2e6 073e
00000250: 5a42 563e dd2b ee3e 9dd4 f63e 98f9 e83d
00000260: ca47 1e3f be90 b63d 9f49 e33d 87d6 153e
00000270: 790f 313f c297 e33d 05e9 bf3e e6d4 c13e
00000280: e305 de3e 66ea 1e3e 26a5 1f3e 8df5 023f
00000290: d646 f63e dbdb 9a3e 34d8 b23e c17f 103e
000002a0: 2e00 013f 7067 b23e 5660 0c3e 1eab 453e
000002b0: cd7c c83d 9ba3 053e 6b9a e53d b184 9a3d
000002c0: bb7c 013e f52b 143e 9ecd 913e b7d9 083e
000002d0: f2bb a43e c89a 053e 84ce d53e c696 cc3e
000002e0: 8587 f03d 506d a53e fd27 ee3d 8ccb ce3e
000002f0: 2b5a bc3e 40f1 f83d 666d b33e 2785 bd3e
00000300: 5c5b 343e ab89 f43d adcf e63d a99b ba3d
00000310: 3c48 e53d 2255 0d3e 7ed9 213e 9dd4 f63e
00000320: 01b5 513f aae5 153e 247f 123f 7ed8 f73d
00000330: ba4c 053e 056c f63d 952c 0c3f 7446 443e
00000340: 9237 a73e 65f1 913e 1d1d d63e 01b9 153e
00000350: a6dc 2f3e 8c61 bb3e c033 f13e 0ce3 643e
00000360: e8d7 763e ed40 343e f0e1 b43e 08f1 e43e
00000370: ec3f 013e defb 303e 8c82 e13d 45f2 193e
00000380: 0c3d 5d3e d2dd 223e 61bb 1c3e addf 273e
00000390: 2988 aa3e 4df8 413e efbd ed3e 6873 4c3e
000003a0: cc9f 2c3f 8039 d53e 5cb5 073e 4258 ca3e
000003b0: 5ce9 e43d fb2f 893e c140 943e 8840 323e
000003c0: eee8 123f 9b0b c53e f974 453e 97b7 c53d
000003d0: 28b8 f53d d0f3 003e 70fe db3d 4014 473e
000003e0: 5ec2 543e 02b5 513f 65ee 253f 9752 1b3e
000003f0: 1c18 303f 2be1 0a3e b256 353e bd3c 213e

square_avg f4 [20]
30.504705 29.617971 23.35718 18.022715 24.541098 26.90469 28.911453 28.367807
26.979649 45.480076 92.64775 39.853115 24.366152 20.073235 28.170557 26.627228
20.65963 53.91043 31.606148 19.906218
00000000: a309 f441 9bf1 ec41 81db ba41 852e 9041
00000010: 2b54 c441 ce3c d741 a84a e741 45f1 e241
00000020: 52d6 d741 99eb 3542 a64b b942 9769 1f42
00000030: e1ed c241 fc95 a041 4d5d e141 9004 d541
00000040: ec46 a541 48a4 5742 64d9 fc41 ef3f 9f41
