supervised/saved_models/ff/nhid30_lr0.01_nlayers2_seed7.pt (torch, 70685 bytes, 24 tensors)

layers_mu.0.weight f4 [30, 50]
00000000: 001b 12bd 268a 123e 2a4a 1c3e 65f3 9a3e
00000010: aeb5 9ebe 9cdc 35be b66a 92bd 269c ebbb
00000020: e797 03bc 4433 e93e 46f1 173d 2cb2 d93d
00000030: f359 42be 20c2 9e38 46b7 8f3b b020 6bb9
00000040: a4be 3bbc 74a1 8f3b b208 a73e 1690 1dbc
00000050: 1b53 b3bd bce3 ab39 35aa 9f3d 559e b3be
00000060: 67a8 4f3b aa10 343c 92f8 08be c0c9 3639
00000070: 4ca6 3cbc e6d2 b6ba 41f2 643e e828 d73c
00000080: 50cf 03bc 8cfb 0fbb fe98 8a3e 522c ce3b
00000090: 7bde 293e 5d38 483c b8c6 a7be 23b0 383e
000000a0: 5696 3bbe 5cef 49bc 2bd7 bfbe 5a8e 27bc
000000b0: a89e 463e c292 00bf 2981 b8ba bd76 06bd
000000c0: fe7c 05bc e261 1abd 3509 e53c 5306 dcbe
000000d0: b3ac b93b 22b0 8bbd 6dbc a83e bbe1 76be
000000e0: ae3b a1be c32f e8bb 24d9 46bb c6ea cb3c
000000f0: 637a 853d 3ee1 91be ab5d 903e d4b8 fd39
00000100: e878 b23b a0b8 aabb f134 66bd b892 f43a
00000110: ea12 d6bd 80a1 9cbb 829b 73be 10df edba
00000120: c9a2 cbbe b50d 843d b94e 323b 0697 f13b
00000130: f0ea e0bd 8ffe 943b 969a 96bb d89b 1abb
00000140: 62d5 71be df35 37be c059 62ba 5a10 be3a
00000150: 4fc3 fd3d 9e48 f33b 580f 6c3e 1b25 ccbe
00000160: a247 7b3e 364b 4bbb 992f b0be a522 063d
00000170: d2fc 6e3d 980d d1bb 439d cf3e a8d7 b0be
00000180: 87a4 50ba 90cb 1a3d f806 d1ba e674 023d
00000190: c251 343c de8d b73c 9fc8 323e 7623 41bd
000001a0: 5d34 693e a466 92be a0ee 1cbf 904e 72ba
000001b0: 188b 5ebb a9f7 1a3e d7b1 a03d 4c97 79be
000001c0: 4ef9 7abd 9062 013b b032 71bb a029 7a39
000001d0: 8966 263d 34d8 c8bb ffc8 22be 7e7b 77bb
000001e0: d910 4bbe 3c02 04bc 055d 343d 6524 5a3e
000001f0: bc91 4a3b 90dc cc3a a1e3 6ebe 547e 333b
00000200: 225c ab3b b420 2f3a 8d62 a33e 8049 5fbd
00000210: 7858 743b 6aac dcbb c681 8cbe 5055 283b
00000220: 69ae d9be 04e5 b83e 6461 35be 3113 243e
00000230: f3c0 2dbe 0023 8839 5dd2 5a3c 9a17 f43a
00000240: 512d adbe ecc0 6abd cc19 0cbb 9c6d 3bbd
00000250: b0b8 a63b 7c18 7ebb f7c5 12bd 6dc0 803e
00000260: 2de1 513e 3fce a3be 740c 4c3e 6c7a 9b3e
00000270: 9e76 04be e436 94bb 6023 1fba b3ce fabc
00000280: 0737 58be e2e8 3f3e 17aa 2f3e b52c c43b
00000290: 6046 ec3a 4742 f1ba e08b 9cbe 9675 2a3b
000002a0: 73b2 873e 409d 34ba 9f69 553e da85 2a3b
000002b0: 410d 78be cd92 5d3e eaf7 943b 5af7 823b
000002c0: 57a9 903e c0c2 95b8 544d 98bb 4891 3eba
000002d0: 4aed b43e d525 8bbe 42e4 73bb 2469 a23b
000002e0: 6461 88be 1666 423b 1be8 873e b904 c9be
000002f0: 2118 8fbe 62f7 24bd d3b6 26be 31a0 adbe
00000300: 20cc 54be f216 cebb 7232 afbd 61be 163d
00000310: 07db c2bb 32e4 1dbe 50a0 7f39 8d93 df3d
00000320: 0e6e 5e3d 96c0 463d 9e51 55bc 7b2c febd
00000330: d2e5 f7be 8d75 9abd 5004 b8be 04ba a13b
00000340: 13ea 8e3a 03a6 cb3e b1be afbd 4767 993e
00000350: 90a0 a53c 8033 9a37 50a3 b53a 6017 7739
00000360: d265 5bbd 922d 953b 83ed 13be ca42 0bbb
00000370: 816d 413e 94ff b33b a9df 4bbd f6c3 013e
00000380: 0092 5138 68b9 3abb d4a3 58be 505f 49bb
00000390: f06a adba f098 dfb9 97f6 f83d 111a d83e
000003a0: dc96 47bb d7e1 413b 39ab 0e3d 781e b0bb
000003b0: cc4f 18bd 9572 b8be 9adf bd3e c217 963e
000003c0: 5de4 29be 6a0f 60be 45b2 533e 4bd8 283b
000003d0: be17 2fbd 6d97 af3e aff7 bcba 20ea 3ebc
000003e0: fcce 26bb 27d3 29bd 78a0 173d 35a7 463c
000003f0: f938 1bbe 002e c1bd a06f bfbe 3a38 b33e
-0.03567028 0.14310512 0.15262666 0.3026382 -0.30997986 -0.17759937 -0.0714926 -0.007190245
-0.008031822 0.45546925 0.03709533 0.10629687 -0.18979625 7.570186e-05 0.0043858616 -0.00022423523
-0.0114590265 0.0043832604 0.32623821 -0.009616872 -0.087560855 0.00032785337 0.07796136 -0.35081735
0.003168607 0.010990301 -0.13376072 0.0001743203 -0.011514258 -0.0013948351 0.22358038 0.026264623
-0.008045033 -0.0021970002 0.2706985 0.0062919045 0.16588776 0.012220469 -0.32768798 0.18035941
-0.18319067 -0.012325134 -0.37468848 -0.01022681 0.1939646 -0.50223935 -0.0014076579 -0.03282808
-0.008147476 -0.037691005 0.027958492 -0.42973575 0.0056663393 -0.06820704 0.32956257 -0.24109547
-0.31490844 -0.0070857718 -0.0030341828 0.024892222 0.06517484 -0.2849216 0.28196463 0.00048393628
0.005446542 -0.0052099973 -0.056202833 0.0018659448 -0.10452826 -0.0047799945 -0.2378979 -0.0018148143
-0.39772633 0.06447927 0.0027207567 0.0073727397 -0.10982311 0.0045469473 -0.004596065 -0.0023591425
-0.23616555 -0.17891644 -0.00086345896 0.0014500723 0.12390768 0.007424428 0.23052728 -0.3987206
0.24539044 -0.003102017 -0.34411314 0.032747883 0.058346577 -0.0063797943 0.4054967 -0.34539533
-0.0007959087 0.03779179 -0.0015947511 0.031849764 0.011005821 0.022406515 0.17459343 -0.04715296
0.22773881 -0.28593934 -0.6130161 -0.0009243274 -0.0033957418 0.15133537 0.0784642 -0.24374121
-0.06127291 0.0019742586 -0.0036803894 0.00023857364 0.04062513 -0.006129289 -0.15896986 -0.0037762816
-0.19830646 -0.008057173 0.044034023 0.21302946 0.0030909618 0.0015629698 -0.23329021 0.002738853
0.005229489 0.00066805934 0.31911126 -0.054513454 0.0037284177 -0.0067344205 -0.2744276 0.0025685616
-0.42515877 0.36112225 -0.17712933 0.16022946 -0.16968136 0.00025966018 0.013355819 0.0018622756
-0.33823636 -0.05731289 -0.002137768 -0.04575883 0.0050879344 -0.0038771918 -0.035833325 0.2514681
0.20496054 -0.3199329 0.19926625 0.30366838 -0.12935874 -0.004523145 -0.000607064 -0.03061614
-0.21114741 0.18741181 0.17154728 0.005986775 0.0018026344 -0.0018406593 -0.30575466 0.0026010028
0.26503333 -0.0006889887 0.20841072 0.0026019723 -0.24223806 0.21638031 0.004546155 0.0039967718
0.28254196 -7.141149e-05 -0.00464789 -0.00072695734 0.35337287 -0.271773 -0.003721491 0.0049563814
-0.26636803 0.0029662899 0.2654427 -0.39261416 -0.27948096 -0.040274985 -0.1628068 -0.3391128
-0.20780993 -0.0062893564 -0.085545436 0.036802653 -0.0059465203 -0.15419081 0.00024378416 0.10916815
0.054304175 0.048523508 -0.013019947 -0.12410828 -0.48417526 -0.07541952 -0.3594079 0.004935505
0.00109035 0.39775094 -0.085812934 0.29961607 0.020218164 1.8382212e-05 0.0013857875 0.00023564463
-0.0535639 0.0045525515 -0.14446072 -0.0021249526 0.18889429 0.005493114 -0.049773846 0.1267241
4.9965456e-05 -0.0028491858 -0.21156245 -0.0030726977 -0.0013230722 -0.00042647822 0.12156408 0.42207387
-0.003045491 0.0029584074 0.03483126 -0.005374726 -0.037185475 -0.3602492 0.37084657 0.29315
-0.1659102 -0.2188088 0.20673473 0.0025763686 -0.04274725 0.34295216 -0.0014417077 -0.011652499
-0.0025452962 -0.041461136 0.03701827 0.012124826 -0.15158452 -0.09432602 -0.3738985 0.35003835

layers_mu.0.bias f4 [30]
00000000: c644 b33c 606f 64bc 08bd 1d3a 342c 6dbb
00000010: cc35 9439 b312 773c 4f53 1bbb d4c4 733b
00000020: d357 93bc f605 6c3c 5e1e 323d 8165 4a3c
00000030: fa35 403c a85a fcbc c03b f7ba df2e 5b3c
00000040: a86e 9fbb 8e4b cd3c 3ec9 a7bb e695 2f3c
00000050: 7035 553c 0058 ed3b 08fa 79bc 7c4f 5cbb
00000060: 0672 7dbc 6f49 51bc 7afe dbbb 066c c5bc
00000070: d7b2 b83c 0445 bebc
0.02188338 -0.0139425695 0.00060172426 -0.0036189677 0.00028268842 0.015080142 -0.002370078 0.0037196176
-0.017986214 0.014405718 0.04348599 0.012353302 0.011731619 -0.030804947 -0.0018862411 0.013377874
-0.004865486 0.025060441 -0.0051204255 0.010716891 0.013013229 0.0072431564 -0.015257366 -0.0033616712
-0.01546908 -0.012773856 -0.0067136856 -0.024099361 0.022546215 -0.023226269

layers_mu.1.weight f4 [30, 30]
00000000: f0f3 c0bc 1b1d 8f3d c419 a63d 5e08 a4bc
00000010: 55c0 453d 5fd7 6dbe 2f48 90bd f710 313e
00000020: 7ed6 a8bc 435d f2bc d0bc 6dbe a2cf 3bbd
00000030: 8695 0cbe 92cc abbd 009b 203c c598 42be
00000040: c223 d63c 5491 05be 8bca 48bd fd2e 5e3d
00000050: 6328 d83d cf54 0cbe b3ca e2bd 5e4a 493d
00000060: edbb 70be 2500 a53e 7a26 56bd 2105 85be
00000070: 1105 5dbd bb1a 293d d022 463e 1e09 d4bd
00000080: 5133 c9bd 0aa7 543e d3b7 01be 1cc4 2b3d
00000090: 0254 c13d f077 123e 16d1 29bb 5997 663d
000000a0: 44e3 74be 21eb 57bd 4641 673e 4a80 a83d
000000b0: 7419 5f3e 78cb 68bd 512e c2bd fcfa 9f3c
000000c0: 8d6a 2dbe a694 123e f43d 9bbd 5e08 0abd
000000d0: 36a3 32be 4dd2 d23d 44b4 343e e22f 4c3e
000000e0: 0b8e fb3d 0fb8 bc3d d8eb ec3c 3c81 163d
000000f0: fd19 ff3d def8 493e 00dd d43d 392f d5bd
00000100: 34c0 d53c 9810 99bc 48f4 cf3d 857b 863e
00000110: a2fb 093d 7666 e9bd 86b2 103d 8f2d fdbc
00000120: 03b3 483d bf28 d33d ad19 24be 42aa 703c
00000130: d065 613a 2d06 9ebd d85f f43d 3866 983c
00000140: bb29 a6bd a030 c6bd 49c3 78be dd8a 8f3d
00000150: 8aaf 1b3e 7e53 ecbd d814 f0bd 5454 d63d
00000160: cc4c 7ebe 1dab 403e 920a 9d3d b02d 953d
00000170: e54c b2be 90a4 0d3e 801f 273d 77ae b1bc
00000180: 5b73 25be 29a2 033c 4581 323e 41b4 04be
00000190: 1027 5c3d ed68 9abb 2cb8 043e f836 aebd
000001a0: 33bf f3bc ce12 1abe 2066 d63d 8989 20be
000001b0: eccd 44bd 4a48 abbe 620a abbd 65fe 823d
000001c0: f5d3 0ebd 6448 08be b2fe da3d 7fa7 4e3d
000001d0: a223 e93c e769 14be 07b1 95bd b919 eb3d
000001e0: 3f50 483e 5394 153d 4a4f fabc 70f9 a63d
000001f0: 700d 72bd d5ea b5bd 4a3f 463e 64d9 a5bc
00000200: 56fb e13a 30a2 83be 4f43 573b fe64 7a3e
00000210: 608b aebe df59 8b3d 2852 263d 92da 803d
00000220: 028f aebd 8530 263d d0b8 82bb b2b4 70bd
00000230: 06fd 17be 1388 013c 1b0c 873d 4db3 01be
00000240: 6726 9cbd 4302 4d3e 4bb6 c23d 2fe8 f53d
00000250: 846e df3a 0ea3 1c3e 8443 3f3c 8e21 76bd
00000260: 61ef 95bd 2889 983b 582a 9b3d d6b0 603b
00000270: ac02 45bd c912 5fbe 39be f83d 7f53 6a3c
00000280: d2c3 e9bd 5450 34be 37eb 2dbe 20c5 82bd
00000290: 71e2 1d3d f932 7e3e 6265 d83d 6c34 6f3d
000002a0: edd7 963d 6385 2bbe 477e 273e 58ea 4dbc
000002b0: 90fa 81be 1cbe 6b3e 2483 063d f1b4 0a3e
000002c0: 2b61 913d 43c9 df3d f8f0 f5bd e6cc 243e
000002d0: 60c1 9b3a f5a8 3bbd 1432 663d 102c 143e
000002e0: 0f22 863e 9cfc ea3c a926 b3bd 00f1 d7b8
000002f0: d166 0bbe 1624 2dbd 11ba 78be dec2 f33d
00000300: 00aa 9c3b 1b3a 0e3e ba50 883b 6bf3 aabd
00000310: 8af2 0d3d ebe2 1abe b870 af3d 05a7 52be
00000320: 2fea 4abd b651 33be 58a3 b5bd acbb 113d
00000330: b54b 06be 7186 1dbe 0db9 473d 5cb1 7f3e
00000340: e550 343e 905c a13d 7597 17be 4b8a 883d
00000350: eb57 f23d c4c6 683e 8a38 143c a809 1d3d
00000360: ba38 64bd 2105 5f3e 9c2c bd3d 2555 01be
00000370: 9886 86bd 62f9 92be 511d 14be 9710 803d
00000380: 1a49 2b3e 65a4 113e e0b3 563e 2fbd a3bc
00000390: 805d 38bd 749f 593d ea1f 94be c663 c23d
000003a0: b1dd 213e ed3a 6f3d b1ab 41bd c426 7cbd
000003b0: 17eb a33d cd50 4dbd 57f7 14bd 1b5a 573c
000003c0: 16a5 0b3d a815 a9ba e1cc 383e 2d82 3b3e
000003d0: 2ac9 fbbd 0605 ea3d 3b58 9abd db40 a6bd
000003e0: 0762 3ebd d659 0abd ae85 afbd 3045 18be
000003f0: d247 20be af12 c73d 44b8 9dbe 1f8a ccbc
-0.023553818 0.06987973 0.08110383 -0.020023521 0.048279125 -0.23226689 -0.07045018 0.17291628
-0.02061009 -0.029585486 -0.23216558 -0.04585231 -0.13728914 -0.08388628 0.00980258 -0.1900359
0.026140098 -0.1304372 -0.049021285 0.05424403 0.10554578 -0.13704227 -0.11073818 0.049143188
-0.23509188 0.32226673 -0.052282788 -0.25980476 -0.05395991 0.041285258 0.19349217 -0.103533015
-0.09824241 0.20766845 -0.1266778 0.04193507 0.09439851 0.14303565 -0.0025911978 0.05629668
-0.2391482 -0.05271447 0.22583494 0.08227594 0.21787053 -0.056834668 -0.094814904 0.019528858
-0.16935177 0.14314517 -0.07580176 -0.033699386 -0.17445073 0.10294018 0.17646891 0.19940141
0.12282952 0.09214794 0.028921053 0.03674434 0.12456129 0.19723842 0.10393715 -0.10409398
0.026092626 -0.01868467 0.10154015 0.26266113 0.03368724 -0.11396496 0.035326503 -0.030905513
0.048998844 0.10310506 -0.1602542 0.01468903 0.000859824 -0.07716022 0.11932343 0.01860343
-0.08113428 -0.09677243 -0.24293245 0.07008908 0.15203682 -0.11539362 -0.11722726 0.10465303
-0.24833983 0.18815275 0.07668032 0.07284105 -0.3482429 0.13832307 0.040801525 -0.021689637
-0.16157286 0.008034267 0.17432125 -0.12959386 0.05374819 -0.004712215 0.12960881 -0.08506578
-0.029754257 -0.15046236 0.104686975 -0.15677465 -0.048047945 -0.3345359 -0.0835159 0.06396178
-0.034870107 -0.13308865 0.106931105 0.050452705 0.028459374 -0.14493524 -0.07309156 0.114795156
0.19561861 0.036518406 -0.030555386 0.08153045 -0.059094846 -0.08882681 0.1936008 -0.020245261
0.0017241042 -0.25709677 0.0032846516 0.24452588 -0.3409071 0.06804251 0.040605694 0.06291689
-0.0852337 0.040573616 -0.0039893165 -0.058766074 -0.14842615 0.007905978 0.06594106 -0.12666054
-0.07624512 0.20020394 0.09507426 0.12007176 0.0017046486 0.15296575 0.011673812 -0.060090594
-0.073210485 0.004655022 0.07576436 0.003428509 -0.04809825 -0.2178451 0.12145657 0.014302134
-0.11414303 -0.17608768 -0.16984259 -0.06385255 0.03854603 0.24824132 0.10566212 0.058399603
0.07365403 -0.16750102 0.16356765 -0.012568079 -0.25386477 0.2302174 0.03283991 0.13545586
0.070986114 0.109270595 -0.12008852 0.16093788 0.0011883192 -0.045815427 0.056200102 0.14469934
0.2619786 0.028684907 -0.08747608 -0.00010296889 -0.1361344 -0.042270742 -0.24289729 0.11902402
0.0047810078 0.13889353 0.004160014 -0.083472095 0.03465513 -0.15125625 0.08566421 -0.20571525
-0.04953974 -0.17511639 -0.08869046 0.03557937 -0.13114817 -0.15383317 0.048760463 0.24970001
0.17608984 0.07878983 -0.1480387 0.06667002 0.11833175 0.22732073 0.009046683 0.038339287
-0.05571816 0.217793 0.09237024 -0.12630136 -0.065686405 -0.2870589 -0.14464308 0.06253164
0.16727105 0.14222868 0.20967054 -0.01998767 -0.045011044 0.053130582 -0.28930598 0.094916865
0.15807225 0.058405805 -0.04728288 -0.061560407 0.08003824 -0.050125886 -0.036368694 0.013144041
0.034092985 -0.0012900131 0.18046905 0.18311377 -0.122942284 0.114267394 -0.0753636 -0.08117839
-0.046480205 -0.03377708 -0.08570419 -0.14870143 -0.15652397 0.097203605 -0.30804646 -0.024968205

layers_mu.1.bias f4 [30]
00000000: 6158 47be fd1d 4cbe 9b99 45be de0f 56be
00000010: fea0 55be c11b 50be 489e 52be 3d0e 5dbe
00000020: 54e2 58be 3b22 55be 76c5 54be 41e1 3bbe
00000030: 7e42 5dbe 8705 59be 953d 47be 1831 55be
00000040: 3546 53be 8075 69be 90c9 4fbe 8a06 4abe
00000050: 855c 50be 5384 52be da9c 63be fead 46be
00000060: c9da 5ebe 1073 4cbe e414 50be f421 62be
00000070: 2ad8 5bbe 8495 4ebe
-0.19467308 -0.19933315 -0.19296877 -0.2090449 -0.20862195 -0.20323087 -0.20568192 -0.21587463
-0.21180087 -0.20813839 -0.2077845 -0.18347646 -0.21607396 -0.21193515 -0.19457085 -0.20819509
-0.2063225 -0.22798729 -0.20291734 -0.19729057 -0.20347793 -0.2055829 -0.22227803 -0.1940231
-0.21763147 -0.19965768 -0.20320469 -0.22083265 -0.21469179 -0.20174223

layers_mu.3.weight f4 [50, 30]
00000000: 1a9b 13bf 3a0a 4abf 4d4c 85bf 1e53 e9bc
00000010: 5d26 733e 36fe 9abf abdb e1be b713 6a3f
00000020: e2dd ea3d c6ca 463f 0803 2e3f 928f 82bf
00000030: 6691 103d 297a 7d3f eb39 e5be da85 b33d
00000040: 778d 833f fae6 403f 8cab 15be cea6 7e3f
00000050: 21cc 52be 4b2e 633f 0a0c 10bd 9970 93bf
00000060: a7c2 183e e945 1cbf 1f49 febd 1f75 453e
00000070: 786a 403f 095e 5fbf 5279 2dbe 26fd d63e
00000080: 2a0e a8bf 0d14 82bf 3024 f0be ac46 8b3f
00000090: 1bde ce3f 49f9 abbd abb6 6d3f a7b3 753f
000000a0: 4f8f 353f 61ff 373f 4d57 91bf d0f7 b8bf
000000b0: a8ca ecbe 6f05 9cbf f03d 983f 4988 adbe
000000c0: 0471 b13f 93bb a7bf ef46 45bf 81fa 053f
000000d0: c8cc 1a3f 98b2 033f 617c ba3e 19a1 c3bf
000000e0: e332 093f 55eb 81be 2ed9 623f fef5 84bf
000000f0: 6fde 4c3e 5952 33bf c814 0c3f 1fab 94be
00000100: 05ea b13f edb0 05bf ba8b 6bbe 0c4b dfbd
00000110: f249 fbbc 5337 1640 e387 e1bd f029 5f3f
00000120: 3507 f93e 53fb 43bf 58c9 393d 1b81 c2be
00000130: befd c7bf 6bfb 913f 68fb 64be 7fe0 12bf
00000140: 0152 913f e8a9 dfbf 53bb 693f 68f1 43bf
00000150: 5f0a 9cbe 8fe1 ef3e 2703 313f 74bc d6bc
00000160: 8567 e3bd dcf3 09c0 c1f1 8dbe fbb0 7c3d
00000170: 17c3 163f 53a8 883f fbb6 ca3f 7153 f83d
00000180: 29f3 dfbe 7c22 ddbf 16d9 8abe 374a 523f
00000190: 299b adbf 6a8d 783f 6269 44bf d3cd 7a3f
000001a0: 6f67 7dbf 390a c9bf c899 c13f 2186 8ebf
000001b0: 7aaf fbbf 5fc7 dabd a29f 3bbe b5ae b83e
000001c0: b5c9 8e3e 4e28 023d f8c2 ccbd 5143 e9bd
000001d0: 0730 f73e d790 3d3f 1981 703f 22ec 073f
000001e0: f8c1 133f abce c03e 3a9f a7bf ceec 56bf
000001f0: 86bb c6be 7e38 22bf 48f7 e7be 2aab 4f3f
00000200: 7d17 443f 16eb 8bbf 5a85 09c0 347c 733f
00000210: 6cd6 683f 98ea 533f 6e0c 913f 2e0e 2bbe
00000220: e207 a63f 91b2 453f 8a07 c5be ff5b 92bf
00000230: 4fb6 6f3f f797 6bbf b5f2 a03f e9bf 5fbf
00000240: e163 fd3e 1ca4 56bf 211a ce3e 4671 18bf
00000250: a769 55bd 389c 3c3f 844c 65be bdd1 be3f
00000260: 4faa fd3e fa74 903f 8808 debe 2b53 0c3f
00000270: 2889 53bf 149d 033f 3912 0d3f 5849 c23d
00000280: 2de9 9f3e 70b1 86bf c9e0 77bf 6139 40bc
00000290: 2dc0 a53f 18b3 1ec0 9e3f 253f 53e1 70bf
000002a0: 01c2 5d3f 0ca4 ab3f ee30 4f3f d147 b5bf
000002b0: 0181 ce3e e278 7fbf c5ad 0a3f 1cfb eb3c
000002c0: 83b2 65bf b809 cb3e 73de 82bf 4c1b 2ebf
000002d0: afdf 45bf 8f67 7d3f 0435 eebf 2c30 27bf
000002e0: d3e9 393f 6377 9dbe 2541 92bf 7738 0ebd
000002f0: 10f9 6bbf e897 9abe 5597 763f 113f 2c3f
00000300: df78 25bf e263 6c3e c635 3a3f dc72 a8bf
00000310: e8dc 02c0 1649 3e3f 2ac3 1fbf 4dd1 913f
00000320: ef38 6f3f 7c93 ee3e c01c 143d 41c6 d43f
00000330: 1ba4 0c3f 4f0a 56bf 11cc 0b3f 0239 56be
00000340: ffa3 4d3f 251d 7d3f e13f fcbd 1083 1d3a
00000350: a620 c13c b86f 32bd aac9 26bc 5399 d7bd
00000360: a7d1 4dbd 5268 3ebe cea2 8b3e c7c8 363e
00000370: 3d8d eebd 8abc a83d 0fec 933d 2d15 b7bd
00000380: e40b 04be a212 a5bd 109f 6cbc 8e9c 86bb
00000390: 1b46 d43d da88 663d 0473 353e 008f e43d
000003a0: 2798 d53d 58ea ad3d 3428 b2bd 0c0b 7c3e
000003b0: 52b6 d0bd 3bd7 283d 188d e23d 021f 0fbe
000003c0: e0fc 57bd 1857 1abb 6963 c9bd 7a4e babc
000003d0: 85a0 86bd 69b0 38be 55ae 1bbd 17b6 f33c
000003e0: d95c 14be 28e6 19be 9a60 36bd f9a8 c2bd
000003f0: daa7 bb3c 06c8 9dbd 0aad 44bd db94 0bbe
-0.5765854 -0.78921854 -1.041391 -0.028482016 0.23745103 -1.2108829 -0.44112906 0.9143633
0.11468102 0.7765316 0.67973375 -1.0200064 0.035294913 0.99014527 -0.4477075 0.087657645
1.0277547 0.7535244 -0.14616221 0.99473274 -0.20585681 0.8874251 -0.03516773 -1.1518737
0.14918004 -0.61044174 -0.124162905 0.1928296 0.7516246 -0.8725286 -0.16940811 0.41990012
-1.3129323 -1.0162369 -0.4690261 1.0880942 1.6161531 -0.08397157 0.92856854 0.9597725
0.70921797 0.7187405 -1.1354767 -1.4450626 -0.46248364 -1.2189158 1.1893902 -0.3389304
1.3862615 -1.3104118 -0.7706136 0.52335364 0.6046872 0.5144439 0.3642302 -1.5283538
0.5359327 -0.25374857 0.8861264 -1.0387571 0.20006727 -0.7004753 0.5471921 -0.29036805
1.3899542 -0.5222309 -0.2300252 -0.10902986 -0.030674908 2.3471267 -0.110122465 0.87173367
0.4863831 -0.76555365 0.045358032 -0.37989125 -1.5624311 1.1404852 -0.22361529 -0.57373804
1.1353151 -1.7473726 0.9130146 -0.7654023 -0.30476663 0.46851775 0.69145435 -0.026212908
-0.11103729 -2.155509 -0.27723506 0.06169222 0.58891433 1.0676368 1.5837091 0.1212529
-0.43740204 -1.7276149 -0.27118748 0.8214449 -1.3562976 0.9709078 -0.767233 0.9797031
-0.9898595 -1.5706245 1.5125055 -1.1134683 -1.9662926 -0.10682558 -0.18322614 0.3607079
0.27888265 0.03177672 -0.09998125 -0.11389793 0.4827883 0.74049133 0.9394699 0.53094685
0.5771785 0.37657675 -1.3095467 -0.83955085 -0.38814944 -0.6336745 -0.45305848 0.8112055
0.7659834 -1.0931118 -2.1487641 0.95111394 0.9095218 0.82779837 1.1331918 -0.16704628
1.2971156 0.77225596 -0.38482314 -1.1434325 0.93637556 -0.92028755 1.2574068 -0.87402207
0.49490264 -0.8384416 0.4025431 -0.5954784 -0.05210271 0.7367587 -0.2239247 1.4907757
0.49543998 1.1285698 -0.43365884 0.54814404 -0.8263116 0.5141156 0.5510593 0.094866455
0.31232587 -1.05229 -0.9682737 -0.01173243 1.2949272 -2.479681 0.645502 -0.9409382
0.8662415 1.3409438 0.80934036 -1.4162542 0.40332797 -0.9979383 0.541714 0.028806262
-0.8972551 0.39655852 -1.0224136 -0.680104 -0.7729444 0.9898614 -1.8609929 -0.6530788
0.7262241 -0.30755147 -1.142613 -0.034721818 -0.92176914 -0.3019402 0.96324664 0.6728373
-0.6463756 0.23084977 0.727383 -1.3160052 -2.044733 0.7433027 -0.6240717 1.1391999
0.9344625 0.46596897 0.03616023 1.6623002 0.54937905 -0.8360948 0.54608256 -0.20920184
0.80328363 0.98872596 -0.123168714 0.00060086045 0.023575138 -0.043563575 -0.010179916 -0.10527291
-0.05024877 -0.18594483 0.27272648 0.17850028 -0.11648033 0.08239086 0.07222759 -0.08939586
-0.12895161 -0.080601946 -0.01444222 -0.0041080182 0.10364934 0.056282856 0.17719656 0.111600876
0.104294114 0.08491963 -0.086990744 0.24613589 -0.10191025 0.041220885 0.11062068 -0.13976672
-0.052731395 -0.0023550447 -0.09833414 -0.022742499 -0.065735854 -0.18036045 -0.038008053 0.029749913
-0.14488544 -0.15029204 -0.04452572 -0.09504885 0.022907186 -0.07704167 -0.048016585 -0.13631003

layers_mu.3.bias f4 [50]
00000000: 2426 febd 5f14 bb3c d577 f43d 62ab 7fbc
00000010: b940 27be 5e49 403e 19e0 57be 690f cfbd
00000020: 7a1d 2c3f 5743 723d aa59 4e3d ac13 4b3e
00000030: 7c6f ebc0 9772 733d 881c 183f 5087 da3e
00000040: 76a8 8dbc 68a7 433d f2d2 633e b030 83be
00000050: ee5a 79bb a9ff 61be 1710 68be 8a16 7c3d
00000060: 2d50 4a3e 3171 2b3e f35e 12be 01f6 96be
00000070: 5316 2f3e 2c3d acbd a7f2 543d 59b2 ba3d
00000080: eecb 5bbf 62ac f93d 89b9 e03d dca1 4abe
00000090: d22e 39be f656 243e f3b1 6f3e 9972 a8bd
000000a0: ae19 e3bb 26c0 703e f681 e83b 7061 1b3c
000000b0: 3c10 a2be ecba 383e 2a31 0b3e d3f9 b6bd
000000c0: c23c 8f3d 5170 f8bd
-0.124096185 0.022836862 0.11936919 -0.015604826 -0.16333283 0.18777987 -0.2108158 -0.10110361
0.6723248 0.05914625 0.05037848 0.19831723 -7.357359 0.059435453 0.59418535 0.4268136
-0.017292242 0.047767073 0.22248438 -0.25623083 -0.0038048583 -0.22070183 -0.22662388 0.061544932
0.19757147 0.16742398 -0.14294033 -0.2948456 0.1709836 -0.08410105 0.051989224 0.09116048
-0.85858047 0.121910825 0.10972888 -0.19788307 -0.18084267 0.16048798 0.23407726 -0.08224983
-0.0069305515 0.23510799 0.0070955707 0.00948368 -0.3165301 0.18040055 0.13592973 -0.08934369
0.069940105 -0.12130798

layers_sigma.0.weight f4 [30, 50]
00000000: 5834 7d3c ce94 db3c ecf0 673d aac7 c63c
00000010: e90e f3bd 4826 f1bc 0cfb 6c3d cd7c 583d
00000020: 05e0 4abe 91a2 10bd 7e73 ca3b ce16 4dbd
00000030: 0d0f 0f3e 8956 5f3e 2e5d 383d 9859 cb3f
00000040: c0b2 923c ff61 de3b 6c3a 3d3c a500 5e3e
00000050: 175e cabc 689f c9bd e4e8 edbc a50f 9bbc
00000060: cae0 2abf 15d4 3e3f 00a9 2338 1cbd b2bd
00000070: bedf 6b3c 6422 a53c 1525 f13d a5c4 243d
00000080: 5a55 f73e 820f 2e3e 9009 ca3c c481 41bb
00000090: 3891 203d 74ab 513c d42b 87bd 0e45 04be
000000a0: 725a 9cbc 17cb b83c 786a 9c3d 0fe8 38bf
000000b0: 4ffb c4bd 32c8 0fbd fdf2 0a3d 8772 b0bb
000000c0: a166 613e e934 613d 221e 173c f850 57bb
000000d0: 1b4a a53c b65d 8bbd 35a3 43bb 7798 4bbd
000000e0: 5494 d13d 6b77 3dbc edae af3d 0dcb 7abd
000000f0: 09d2 863d 212b 35be 8abf 7abc 1826 53bd
00000100: 8ad8 99bd 3f34 093d 08ad c2bb 12a7 82bc
00000110: b76b 05be 311b 033c 2235 2abe 62cc 03bd
00000120: 572e f2bd b371 8bbd ea0a 55bd 8c8f 84bc
00000130: 5c06 343c 3147 853d 8f4e 0f3d b492 3bbc
00000140: b0f9 79bd 90b8 6abd 38c7 e5bc 99c2 01be
00000150: b684 c2bd 8c10 563d 0c57 50bc 020c 37bc
00000160: 4fde e13c 661e dbbd 71f6 5abc 7ea3 f9bc
00000170: a18f 31bc 5de7 773d ec95 a33d 365b 1d3e
00000180: 4d40 233d c510 3ebd 2006 ee3b d732 bb3d
00000190: 2b70 eebb fbbc c1bd 96bf 6abd 6685 41bd
000001a0: 16c7 4f3d 7dbe bd3d 1512 85bd 0716 9ebd
000001b0: dad2 eabd 3309 c63c fb58 9ebc 73a1 7fbd
000001c0: 9f9e 273d 1955 72bf fb12 0dbe d834 7e3f
000001d0: ed72 7cbc 5c65 bb3b db7a 81bd 88a5 53bf
000001e0: fc9d 403d 5ec0 713f ec03 013d 57c6 aabd
000001f0: cddb 273e 4184 703e 920d bd3d 2e71 223e
00000200: cea1 7bbc 47f2 483e b297 703c be12 e6bb
00000210: e9f8 593e 97f8 283e 4d93 0cbe 5a93 ea3c
00000220: 6eab a9bd e699 7b3d 24ea b6bd 8464 3fbd
00000230: b0f6 54bd b5bd 123d 52f6 9abd 9986 763f
00000240: 54e5 e33c 7b79 ecbd 58e8 40bd 3099 753d
00000250: fd9c 4d3e fe1d e93d 4c5c 2ebd 8403 85bd
00000260: 2440 95bc 333e 033c 4faf bf3d e74f c9bc
00000270: c22e 93bc 3e46 283d 446a f2be 20d3 c4bb
00000280: 0151 e3bb 1939 1dbc af05 16be 2b67 1ebb
00000290: 3c70 373f 57c2 b93e b6be 21bd 0454 a2bb
000002a0: 87b9 713c bc23 213f 3e16 863a 5aa4 cd3e
000002b0: b4e2 15bc 42c1 07bd 6632 ca3e 34b4 fabe
000002c0: f5ae 53bd 56ee 403f e0b9 3fbb 2bdf 113f
000002d0: c994 b2bc d8d3 51bc 3fd2 5bbe e0a8 63be
000002e0: a6d0 93bc d30e a83b 6ab2 6f3c 5ce4 1b3b
000002f0: 527b a03b d286 473b f084 e3bc 08f0 8bbc
00000300: e10e 2bbd ddb6 bb3e 163c a53d a5cf b13d
00000310: cdb1 3b3d 7c86 c13c 98fa e63e 2bd5 cb3c
00000320: e4b5 1d3e 7ff1 ce3b 07e1 0abe 84f1 de3d
00000330: 7009 6aba 676c 113d 458a 323d 60c5 5f3b
00000340: 7a9b 6ebd d873 03bc f180 13bd 2b0e f6bd
00000350: 09fd c33b e6fd aa3d 1922 3c3d 1253 d6bb
00000360: a4d9 36bb 61d3 95bd ad6f d1bd 8ef1 003d
00000370: 09ab 1abd 7ee2 e43d c46d 483c 934f bdbd
00000380: fa89 bf3d 0750 8cbc 6404 dd3b 6585 873d
00000390: bd59 fdbc 80c1 c53d acf0 803d 0e0d 96bc
000003a0: dad0 3d3d adce 093e fffd 8bbd fa41 353d
000003b0: aa8b 213e cedb 8abd 1317 0f3d 678d 6ebd
000003c0: 8184 383d beff 0fbe 75c5 5e3d da80 79bc
000003d0: 0ea3 f7bd b92c 063e edba 813d eed7 e23d
000003e0: d9a3 aa3d 806a 953a a73f 973d f491 ef3c
000003f0: f990 87bd 84be 323c e1c4 ccbd 97d6 73bc
0.015454374 0.026804354 0.056626245 0.02426513 -0.11868078 -0.0294372 0.057856604 0.052853394
-0.19812019 -0.035311285 0.0061783185 -0.050070576 0.13970585 0.21810354 0.045010738 1.5886717
0.0179075 0.0067865844 0.011549573 0.21679933 -0.024703069 -0.098448575 -0.029041715 -0.018928358
-0.6674925 0.7454236 3.9019622e-05 -0.08727476 0.014396606 0.020158 0.11774651 0.040226597
0.48307306 0.16998103 0.024662763 -0.002952681 0.03920099 0.012797225 -0.066001564 -0.12916967
-0.019086096 0.022557778 0.07637495 -0.72229093 -0.09618246 -0.03510303 0.033923138 -0.0053847465
0.22011806 0.0549821 0.009223493 -0.0032854658 0.020176938 -0.06804983 -0.0029851918 -0.04970595
0.102333695 -0.011564116 0.08578286 -0.0612288 0.0658303 -0.17692234 -0.0153044555 -0.05155
-0.07512005 0.03349709 -0.005941037 -0.015948806 -0.13029371 0.008002088 -0.16621831 -0.032177337
-0.11825245 -0.06808796 -0.05201236 -0.01618173 0.010987844 0.06507719 0.03498703 -0.011448551
-0.061029136 -0.05730492 -0.028049096 -0.1267189 -0.09497969 0.052261874 -0.012716066 -0.0111722965
0.027571825 -0.106991574 -0.01336442 -0.030473467 -0.010837466 0.06052338 0.0798758 0.15366825
0.039856244 -0.04640271 0.0072639138 0.09140556 -0.007276555 -0.09459873 -0.057311617 -0.04724636
0.050726973 0.092648484 -0.064975895 -0.07719045 -0.11465998 0.024174308 -0.019329539 -0.06240983
0.040922757 -0.946611 -0.13776772 0.99299383 -0.01540826 0.00571887 -0.06322261 -0.82674456
0.047025666 0.94434154 0.03149788 -0.083386116 0.16392441 0.23487951 0.09231104 0.15863487
-0.015358401 0.19623671 0.0146846045 -0.007021277 0.21286358 0.1650108 -0.13728066 0.028634716
-0.08284651 0.061426066 -0.089313775 -0.04672672 -0.051993072 0.03582545 -0.07566513 0.9629913
0.027819313 -0.11546608 -0.04709658 0.059960544 0.20079418 0.11382674 -0.04256849 -0.06494811
-0.018219061 0.008010435 0.09359609 -0.024574233 -0.017966632 0.041082613 -0.473467 -0.0060066134
-0.0069371467 -0.009596133 -0.14650606 -0.002417038 0.7165563 0.36281082 -0.039488517 -0.004953863
0.014753706 0.6294515 0.0010230017 0.40164453 -0.0091482885 -0.03314329 0.39491576 -0.4896561
-0.051680524 0.7536367 -0.0029255077 0.5698115 -0.021799462 -0.012806855 -0.21466921 -0.2223239
-0.018043827 0.0051287203 0.01462994 0.0023787236 0.0048975134 0.003044535 -0.02777335 -0.01708223
-0.041762237 0.3666295 0.08068101 0.08682183 0.04582386 0.023623697 0.45113063 0.02488192
0.15401417 0.0063154097 -0.13562404 0.10885909 -0.0008927798 0.03550377 0.043588895 0.0034144744
-0.058253743 -0.008023225 -0.03601164 -0.12014421 0.005981092 0.083492085 0.045930956 -0.0065406645
-0.002790072 -0.07315708 -0.102263786 0.031480365 -0.037760768 0.111760125 0.012233201 -0.09243693
0.09352489 -0.017128004 0.006744908 0.0661724 -0.03092658 0.09656048 0.062959045 -0.018316772
0.046341754 0.13457747 -0.06835555 0.044252373 0.15775934 -0.06780206 0.034934115 -0.05824032
0.04504824 -0.14062402 0.05438753 -0.0152284745 -0.12091647 0.13102998 0.063344814 0.110763416
0.08332033 0.0011399537 0.073851876 0.0292444 -0.06619448 0.01090968 -0.09998489 -0.014882705

layers_sigma.0.bias f4 [30]
00000000: fa4d 43bd 56a6 503c 1744 d2bd 833f babd
00000010: ecb5 093a 4fad 01bc 674c 11be 9d21 a43c
00000020: b18b 523e cee7 67bd d45b a5bb f9b7 a83c
00000030: d079 d83c 38c4 cebb 839c b4bd c8de 9f3e
00000040: d143 9abf bea0 6abc 6af8 abbe fe24 213a
00000050: 4a61 87bb 6dd1 2bbd ebeb 3c3c deb2 97bd
00000060: d322 063f 243f 95be f795 173d 083c b9bd
00000070: b764 cbbd 0909 803d
-0.047681786 0.01273497 -0.10266893 -0.09094145 0.0005253244 -0.007914855 -0.14189301 0.02003556
0.205611 -0.05661755 -0.005046347 0.020595537 0.026425272 -0.006310012 -0.08818915 0.31224656
-1.2051946 -0.0143205505 -0.33587962 0.0006147175 -0.004131471 -0.04194777 0.011530857 -0.07407163
0.5239689 -0.29149735 0.037008252 -0.09044653 -0.09931319 0.06251723

layers_sigma.1.weight f4 [30, 30]
00000000: 8573 743f 4d01 43bd 9b2d 0a3f 23c8 e3be
00000010: 645b b03d 9d0f 78bd 2cd3 c73e 7cd4 8ebc
00000020: e60a 843e 7f3a 3fbe 0a84 cc3c 98c1 813d
00000030: 7ab5 2f3f 5b7d 27be b78c 943e 8d7c 813f
00000040: 2b3d 3a3f c030 2f3e dfff 383f 27b2 9b3e
00000050: a38d e3bc 46cb 06be ec38 b0bc ac0c a4be
00000060: 18d1 e73a 215d e03d 1e13 16be 02a3 06be
00000070: 01cb 393d 5244 3abe 7f27 68be 7b17 26bd
00000080: 0b10 793f 0a13 ba3e 7f35 7e3d f7e1 2bbe
00000090: 4421 533d 9c24 28bc 4c7a 623e 68e2 683f
000000a0: 7296 89be 4377 e1be 3e90 bc3d 5aca dbbd
000000b0: 401f d83e 9237 05be db26 f13e be18 953d
000000c0: 9300 6dbe 4648 8bbc 0243 2a3b 91dc 213f
000000d0: b1b1 84bc 3b62 aebe b84b bbba 9cb2 783f
000000e0: 182c 2a3b 39a2 b13e a981 933e 87c1 2abf
000000f0: e735 b1be 0599 b83d 3ce2 973f 5493 153f
00000100: c3bc 213d be7d cdbd 52f7 66be bbae dc3c
00000110: 5b8f 82be 1dde 86bf f10c b7bc dea6 8e3e
00000120: b735 f7bd 8931 513e e54e 093f 5a6e b63d
00000130: 1669 1a3f ab7d ccbd f04d ebbd 9fb6 1bbe
00000140: 999f 16bd 1a34 b9bd fd72 eb3b 36ca 55be
00000150: 2cf5 33be 1a33 463e 9f61 7a3f 3e0e 373e
00000160: 0cf9 b9bb 9a0c 363b cc44 9bbe d9f6 9dbb
00000170: 2353 efbd aecb 0abf aa56 053d 59f1 0abe
00000180: 9bc3 3b3f 6140 0ebd 3ec8 91bf 193f 183f
00000190: cfa4 c1bd 9f81 ac3e a19f 6bbd f2fa b2ba
000001a0: c83c 1b3f cfab d23e e2c9 1e3f d66b 90bd
000001b0: 25ec 2fbf 7008 a73e e6da 20bd 6492 40be
000001c0: 8ddf aebc 53f4 c3be 5e46 7cbf d235 0b3f
000001d0: 9285 a13e a7f8 09be 5a61 563e 8e20 743e
000001e0: e03c 59bf 3aaa 2abb d25f f6be b6f5 b8bd
000001f0: 4991 043d b13d c93d 0b18 5d3e fc41 20bd
00000200: 0946 1c3e 8af2 1e3d 059e c1bd 0e60 a43d
00000210: 01e5 a0bd 6d2a 013e 98ee 9d3e ea61 1f3e
00000220: fb53 413f 80ac c638 8c09 b63e 806a 9ebd
00000230: c266 003e 1000 b63e 9ead 45bc 0f2d 1dbe
00000240: 8ea2 d1be c7cc 323d 720a d1bd da69 1b3f
00000250: 38f4 933e 57d3 a1bd e681 c33d 679c cb3e
00000260: d836 a83e 88f7 10bf da58 3abe 2c6e bc3e
00000270: 3f82 a1be 0903 133d 90ff cebe c637 003f
00000280: b5d0 dc3d a472 643f 60d9 1e3f dfe1 d0bd
00000290: 673d 273e 4584 babf 041c 783f d0f2 8fbe
000002a0: 1a1d 963f 60d3 2abe 1e06 9abe 5010 87be
000002b0: 16d5 603e 070e 32bf 9e51 10bf 1b26 823f
000002c0: 6887 083f 2905 bdbe 150b 19bf 56a7 a83e
000002d0: 90a1 783f b774 af3c d9e0 153f ff29 3a3e
000002e0: c882 2bbb 3316 b0bd 228c 2abe a900 183d
000002f0: 4e72 8ebe f349 6abd 218d e83d 5020 d5bd
00000300: 0e09 a33d ecc6 aebd f497 b9be 91e6 88be
00000310: 58c2 cf3d 023f c2bb e90b 66be 3cfd ee3c
00000320: c78c 12be b243 babe 0e66 773c b1b6 803e
00000330: 941d 34be d0d0 093e 5b49 0a3e 156b 1fbf
00000340: e87a 1cbe 8e4d 6b3c 72e3 dc3d 371e 81bc
00000350: 19aa 543d f0df 2c3f 5d63 9b3c d5f2 3ebe
00000360: 8dd9 0ebf 4dd5 f13c 5b8f 84bf 1a72 a1bc
00000370: 88d5 d8bc 2b1f 1ebf 5f96 f03c bb24 a5bd
00000380: 578b 773e e469 bc3d 2a5e 043f d467 523e
00000390: dcfd d33e bc5e 2ebe 1cfd 6fbd a350 453d
000003a0: 9265 683c 8b83 94bf 7524 16bf 00da 11bf
000003b0: ae85 e7be 677d 9fbe 8ac9 f63c e8bb 91bd
000003c0: e22b f5be f60a f0bc aab5 2abe a829 f93e
000003d0: 4625 853d 4814 12bd 2d46 a7bd 9d0e f53c
000003e0: d25a f4be 73da 433d 1a1f e9bb ed53 8b3d
000003f0: a717 c23f 317f 5dbd 449e ef3e 1e0d 8bbe
0.9548877 -0.047608662 0.5397584 -0.4448863 0.086111814 -0.060561765 0.390283 -0.017435305
0.25789565 -0.18674658 0.024965305 0.06335753 0.68636286 -0.16356413 0.29013607 1.0116135
0.72749585 0.1710844 0.7226543 0.30409357 -0.027777499 -0.1316348 -0.021511517 -0.32040918
0.0017686216 0.10955263 -0.1465573 -0.1314812 0.045359615 -0.18190125 -0.22671317 -0.040549736
0.97290105 0.3634265 0.062062737 -0.16785417 0.051545396 -0.010262635 0.22116965 0.9097047
-0.26872593 -0.44036302 0.092071995 -0.10731955 0.42211342 -0.1300948 0.47099957 0.0728011
-0.2314475 -0.017002236 0.0025979881 0.6322718 -0.016198011 -0.3405932 -0.0014289534 0.97147536
0.0025966223 0.3469408 0.2880986 -0.6670155 -0.34611437 0.09013561 1.1865916 0.5842793
0.039486658 -0.10033749 -0.22555283 0.026938787 -0.25499997 -1.0536534 -0.022345038 0.27861685
-0.12070792 0.20429052 0.5363601 0.08907767 0.603166 -0.09984907 -0.11489475 -0.15206383
-0.036773298 -0.09043141 0.0071853385 -0.20877919 -0.17573994 0.19355431 0.9780521 0.17876527
-0.0056754407 0.0027778507 -0.30325925 -0.0048206863 -0.11685779 -0.5421704 0.032553352 -0.1356863
0.73345345 -0.034729365 -1.1389234 0.5947128 -0.09455263 0.33692643 -0.05752528 -0.001365511
0.6063962 0.41146705 0.620268 -0.07051818 -0.687197 0.32623625 -0.039271258 -0.18805844
-0.021346832 -0.38272342 -0.9854487 0.54379 0.3154722 -0.1347376 0.20935574 0.23840544
-0.8485851 -0.0026041404 -0.4811998 -0.09031241 0.032365117 0.0982622 0.21591203 -0.039125428
0.15261091 0.038805522 -0.09453968 0.080261335 -0.07856179 0.1261384 0.30846095 0.15564695
0.7551877 9.473506e-05 0.3555416 -0.07735157 0.12539199 0.35546923 -0.012065319 -0.1534922
-0.40944332 0.043652322 -0.102070704 0.6070839 0.28897262 -0.07901638 0.095462605 0.39767763
0.32854342 -0.566277 -0.18197957 0.36802804 -0.31544682 0.035891566 -0.40429354 0.50085104
0.10781995 0.8923743 0.6205044 -0.101993315 0.16332017 -1.4571615 0.9691775 -0.2811494
1.1727631 -0.16682196 -0.30082792 -0.26379633 0.21956286 -0.69552654 -0.5637454 1.0167879
0.53331614 -0.36918 -0.59782535 0.32940167 0.97121525 0.021417959 0.58546215 0.18180083
-0.002617048 -0.08597984 -0.16655019 0.037110005 -0.27821583 -0.05719943 0.11355043 -0.10406554
0.079607114 -0.08534035 -0.36248744 -0.26738408 0.1014449 -0.0059279213 -0.22465481 0.029173486
-0.14311515 -0.36379772 0.015100015 0.25139382 -0.17589408 0.13458562 0.13504545 -0.6227277
-0.1528126 0.014361752 0.10785569 -0.015761478 0.05192003 0.675292 0.018968279 -0.1864732
-0.55800706 0.029520655 -1.0356249 -0.019707728 -0.026469007 -0.6176631 0.029368578 -0.080636464
0.24174248 0.091998845 0.5170618 0.2054742 0.41404617 -0.17028326 -0.058590993 0.048172604
0.0141843725 -1.1602644 -0.5864938 -0.56973267 -0.45219177 -0.31150362 0.030125398 -0.071159184
-0.47885042 -0.029302102 -0.16670862 0.48664594 0.0650125 -0.035663873 -0.08167682 0.029914195
-0.4772554 0.04781575 -0.0071143033 0.06803117 1.5163468 -0.054076377 0.46800435 -0.27158445

layers_sigma.1.bias f4 [30]
00000000: 4836 02c0 7d37 e3bf 4909 00c0 7286 c9bf
00000010: bed3 313d 8b13 463e 0a80 9c3f 1566 efbf
00000020: 3b31 14c0 bad8 0ec0 401d e4bf 4dad 13c0
00000030: 1e0d f2bf aba0 fabf 0d85 503f 91eb e1bf
00000040: 8f94 fbbf 8fc4 c7bf f086 05c0 50f1 e9bf
00000050: 84f0 0bc0 be3d 13c0 a938 cabf ae50 f7bf
00000060: 964a c6bf 8257 bcbf 1e3f 08c0 9f62 dbbf
00000070: 4fb5 ffbf 1be4 11c0
-2.034563 -1.7751309 -2.0005667 -1.5744154 0.043414824 0.19343393 1.2226574 -1.8703028
-2.3155048 -2.231978 -1.7821426 -2.3074524 -1.8910253 -1.9580282 0.8145302 -1.7650014
-1.9654711 -1.560686 -2.086361 -1.8276768 -2.186555 -2.3006434 -1.5798541 -1.9321496
-1.5491512 -1.4714205 -2.1288524 -1.7139472 -1.9977206 -2.2795475

layers_sigma.3.weight f4 [50, 30]
00000000: 0974 25bd 2d6e 3bbd 533f 16bd 9e3c 3abd
00000010: 1283 10bf 21c9 2abf a3a5 0bbf 0ddf 29bd
00000020: e8b2 3bbd c8ed 4fbd aa34 44bd dac1 3ebd
00000030: 877c 54bd 1133 06bd 27c2 24bf 2994 22bd
00000040: 7a55 26bd 342e c9bc ca9b 0dbd 227f 3bbd
00000050: 12e3 3fbd 272b 2cbd feb0 33bd 3610 2ebd
00000060: 683d 32bd b83d 51bd e5a5 07bd dc42 45bd
00000070: 76f9 25bd 6b99 27bd db81 4d3b c8aa 6e3c
00000080: 8fad 2a3b f068 eaba e426 15bf 6fd8 23bf
00000090: f647 15bf 5e5f 3ebc e0f8 00b9 8064 973b
000000a0: ae55 26bc d255 2dbb cb99 023c 38c6 a53c
000000b0: 5aab 22bf 20a2 503c bac5 023c 602c ab3b
000000c0: 0dfd b1bb 8e9e 92bb f455 91bb 5479 643c
000000d0: bcd4 2c3b e61e 66bc fb17 f23b 663f f1bb
000000e0: 9f71 3f3b 9888 b2bb 962b 963b b001 a1bb
000000f0: c37e 8f3c d99c cb3b 56b8 943c 53f1 393c
00000100: db21 1cbf 9c98 2abf f10e 1ebf a01f 453c
00000110: f4b9 9a3c ca33 d13c 22dc f13c e0de 633c
00000120: 95ff b73c 040d 533d 2f77 25bf d88a e03c
00000130: 6e65 173c 6dfa 933c 6e4c 283d 5618 543c
00000140: 4403 523c bb54 163d d8ba d43c 49cc 7c3c
00000150: 7417 b03c 8a3e 9c3b e6ee be3c c601 6fbb
00000160: 3031 193d 2b99 903c ce29 c7bc cfd7 87bc
00000170: cd98 18bd 526d 9cbc 51e1 22bf b327 2cbf
00000180: 2d9d 27bf 9e22 04bd 11c4 ecbc b613 9ebc
00000190: 1abf 82bc 4680 38bc 5afe 2abd 228a 003d
000001a0: 8fc1 26bf 5f3a 08bc cef0 a5bc a70a 3fbc
000001b0: 17f3 7bbb 5802 b5bc 29d0 a9bc 5988 acbc
000001c0: 72c7 28bd 9d1d 3cbd 8b43 6cbb b92d d6bc
000001d0: 2cd3 b1bc 5624 56bd 3a5c c2bc 0878 d7bc
000001e0: c24a 83bc 78d6 d9bc d207 05bd cbaa 8ebc
000001f0: d6ed 2abf 2892 26bf 1376 34bf 8b33 8cbc
00000200: 8b6b 02bc cc02 1cbd e570 c2bc 5a2a dbbc
00000210: 809b 9cbc 4450 a2bb df88 28bf e51c d5bc
00000220: b90f 97bc 382a 88bc c5c4 b1bc a3ae dfbc
00000230: cc5b e2bc 51e8 d2bc 98ce bbbc b240 95bc
00000240: 5319 d0bc 36c3 88bc b6b6 c4bc 1f99 2fbd
00000250: 0327 09bd 7de0 ddbc 9c4a 44ba 7c10 793c
00000260: 364d 9fbb 7e58 e03c 7f1c 19bf bc06 23bf
00000270: e06d 19bf a2fd 933c 0848 bd3c 24da aebb
00000280: 4ad9 7bbb f875 ba3a 6813 1ebc fa97 163d
00000290: 4134 1ebf cb3f 433c 0e2f 853b 8c66 323c
000002a0: 8c80 cc3c bd9c 1c3b d996 613b dc53 c53c
000002b0: e878 ac3c b275 a63b bad2 b33c 04c0 143c
000002c0: adca 6f3c a8e9 27bc 8c33 ef3b 0861 e93a
000002d0: dde5 1dbd d03a 2dbd 7cda dfbc 456e 00bd
000002e0: 63e7 20bf f98c 39bf 9fa5 1fbf 2d3c 41bc
000002f0: 126c 00bd deb6 b2bc 2780 09bd d2c0 fbbc
00000300: b4d5 cebc 7e56 7fbb e840 35bf d0c0 a8bc
00000310: 8b5b fcbc 758b 8bbc e1af 81bc 4c87 dbbc
00000320: c6a1 abbc 56a4 a1bc 1885 08bd 90bd d8bc
00000330: 3ef3 0ebc cbbe 15bd 008c 0e3a ffb5 42bd
00000340: 072d aebc c300 01bd 143a 73bc 093e 04bd
00000350: c5e9 2a3c 4ebd cbbc e93f 19bd ebfa c4bd
00000360: 18f4 8cbb 2b87 543c aeb5 91bb 0472 b13c
00000370: 7289 4d3d 6f2f c2bc 2135 71bc 0cd4 10bd
00000380: 1b4f c4bd 8813 d0bb 4a26 02bd f813 d83c
00000390: 5728 4d3d 608c 3ebd fb6b 943d 8c88 e23c
000003a0: e006 913d 8eff 32bd 23ae 9e3c 5aba c43d
000003b0: 3b48 e73b 5c91 143c 3cf2 543c 62b0 ca3d
000003c0: 26bc 19bc 44ab 77bc 8475 3b3b 67f5 f4bb
000003d0: 7451 2bbf 0773 d73f 62c1 25bf dfa2 e53b
000003e0: 5097 89bc 9ce5 4e3c 9cee 98bc d06c 9b3b
000003f0: 6614 87bc e19c b73d eefd bdbf 9486 093c
-0.040393863 -0.04575937 -0.036681484 -0.045467965 -0.5645 -0.6671315 -0.54549617 -0.041472483
-0.045824915 -0.050763875 -0.047901787 -0.04657159 -0.05187657 -0.032763544 -0.6435875 -0.039692078
-0.04060886 -0.024558164 -0.0345724 -0.04577554 -0.04684741 -0.04203334 -0.043869965 -0.04249593
-0.043515593 -0.05108425 -0.033117194 -0.048159465 -0.040521108 -0.040917795 0.0031357917 0.014567085
0.002604339 -0.0017884057 -0.5826247 -0.64002126 -0.5831293 -0.011619417 -0.00012299744 0.004620135
-0.010152264 -0.0026448858 0.007971237 0.02023612 -0.6354271 0.012733966 0.007981712 0.005223796
-0.0054317773 -0.0044744676 -0.0044352952 0.0139449425 0.0026371917 -0.014045453 0.0073881126 -0.007362294
0.002921201 -0.005448412 0.0045828326 -0.0049135312 0.0175165 0.006213766 0.018154304 0.01134904
-0.6098916 -0.66639113 -0.6174155 0.012031466 0.018887497 0.02553739 0.029523913 0.013908118
0.022460738 0.051526085 -0.64634985 0.027409956 0.009240491 0.018063748 0.041088514 0.012945255
0.012818161 0.0367019 0.025968 0.015429565 0.021495558 0.0047681974 0.023307275 -0.0036469563
0.037400424 0.017651161 -0.024311926 -0.016582398 -0.037255097 -0.019095097 -0.63625056 -0.67248076
-0.65474206 -0.032259576 -0.028902085 -0.019296508 -0.015960265 -0.0112610515 -0.041746475 0.031381734
-0.65139097 -0.008314698 -0.020256426 -0.011660255 -0.0038444453 -0.022095844 -0.020729141 -0.02106111
-0.04120583 -0.04592668 -0.0036051 -0.02614485 -0.02170714 -0.052280746 -0.023725618 -0.026302353
-0.016026858 -0.026591524 -0.03247816 -0.017415425 -0.6676916 -0.65066767 -0.70492667 -0.017114421
-0.007960211 -0.038088605 -0.023735473 -0.026753593 -0.019117117 -0.004953416 -0.6583385 -0.026014755
-0.018440114 -0.016621694 -0.021700272 -0.027304953 -0.027631663 -0.025745543 -0.02292566 -0.018219326
-0.0254027 -0.016694646 -0.024012905 -0.042870637 -0.03348447 -0.027084583 -0.00074879243 0.015201684
-0.004861499 0.027385946 -0.59809107 -0.6368215 -0.5993328 0.018065277 0.023105636 -0.005336063
-0.0038429075 0.0014225831 -0.0096481815 0.03676603 -0.61798483 0.011917065 0.0040644472 0.010888707
0.02496364 0.0023897134 0.0034422188 0.024087839 0.021053746 0.0050799483 0.021951068 0.009078983
0.014635724 -0.010248579 0.007299846 0.0017805407 -0.038549293 -0.042292416 -0.027325861 -0.03135516
-0.6285307 -0.7248073 -0.6236209 -0.011794132 -0.031353064 -0.021815713 -0.03356948 -0.030731592
-0.025248386 -0.0038961465 -0.70802164 -0.020599753 -0.03080537 -0.017034272 -0.015830936 -0.026797913
-0.020951163 -0.019731682 -0.033330053 -0.026457578 -0.008724986 -0.036558907 0.0005437732 -0.047536846
-0.021261705 -0.031494867 -0.01484539 -0.032285724 0.010431712 -0.024870541 -0.037414465 -0.09618171
-0.004301559 0.01297168 -0.0044467067 0.021660812 0.050179906 -0.023704259 -0.01472214 -0.035358474
-0.09585401 -0.0063499846 -0.031774797 0.02637671 0.0500873 -0.04652059 0.07247158 0.027653001
0.070813894 -0.043700747 0.019370144 0.09605856 0.007058171 0.0090678595 0.012997206 0.098969236
-0.009383237 -0.0151165165 0.002860398 -0.0074755433 -0.6692116 1.6831979 -0.64748204 0.007007941
-0.016795784 0.012627985 -0.018668465 0.004743196 -0.016489219 0.08965469 -1.4843118 0.008393902

layers_sigma.3.bias f4 [50]
00000000: d051 66bf e2ba 5bbf 2157 55bf a169 5fbf
00000010: 286f 5cbf 8a39 6cbf 69c0 4abf d27d 9d3c
00000020: 8a68 75be 27d7 61bf 86b3 4fbf 588b 45bf
00000030: ba3f 5bbf cbb8 90bf 8b3a 99bf 6e23 87be
00000040: 4774 68bf e5a8 fdbd 169e 6dbf 427f 94bf
00000050: 937f 64bf 746c 90bf 83a3 5dbf 9555 56bf
00000060: 1d85 99bf 3a24 93bf 03f0 46bf 2f68 97bf
00000070: df45 553d 9be6 94bf e3ab 56bf 87a4 47bf
00000080: a1c4 6abf f2b2 8fbf 8aea 5ebf dcc0 c03c
00000090: 9c2d 5cbf e444 58bf a7c8 64bf 8e6e 5fbf
000000a0: 2a8c 75bf 7d8d 67bf 8a96 4cbf a752 8ebf
000000b0: 8377 6dbf b850 6abf dae3 e73d 943c 71bf
000000c0: ff5d 91bf f214 2dbf
-0.89968586 -0.85832036 -0.83336073 -0.8727055 -0.8610711 -0.922753 -0.79199845 0.019225035
-0.2396566 -0.8821892 -0.81133306 -0.77165747 -0.85644114 -1.1306394 -1.1970991 -0.26394218
-0.90802425 -0.1238573 -0.92819345 -1.1601336 -0.8925716 -1.1283097 -0.86577624 -0.8372434
-1.1993748 -1.149543 -0.7770998 -1.1828669 0.052068587 -1.1632875 -0.8385603 -0.77985424
-0.9170628 -1.1226485 -0.8707663 0.023529463 -0.86007094 -0.8448012 -0.8936867 -0.8727807
-0.95917 -0.9045027 -0.79917204 -1.1118973 -0.92760485 -0.9152942 0.11322756 -0.9423306
-1.135681 -0.67610085

square_avg f4 [30, 50]
00000000: 3738 b93e 22b8 503e d364 7e3e 8886 333e
00000010: eca6 5e3e 0ec2 523e 866d 913e 4304 283d
00000020: 3935 483d ebf1 853e 0b96 843e 5e8c 513e
00000030: 5a16 a53e c655 233d c257 5a3d 8234 513d
00000040: b7dc 4c3e e54e 713d 4493 8c3e d44e 823d
00000050: 4c59 5d3e 2abf 153d 0aa6 533e 8e92 7c3e
00000060: 9b48 4e3d c063 643d 8a13 703e 6446 563d
00000070: 33dd 4d3d ac6f 523d 6eaf 2f3e 842c 883e
00000080: 4481 4a3d b206 fa3c f221 453e a596 3f3d
00000090: fa8b 473e fbc8 7b3e a110 4d3e e8e0 833e
000000a0: 43fb 723e d0ec 503e 1402 623e 93d7 343d
000000b0: 084e 3e3e 4149 323e b2c2 413d b1b1 843e
000000c0: c1e0 4f3d 3738 b93e 8abe e13e e8e1 933e
000000d0: 877a 7f3e 71b8 8c3e e31f 463e f483 3c3e
000000e0: 1d0a 2d3e aecf 533d 0908 483d 9a3a 8e3e
000000f0: acaa 2c3e ae31 783e 5d83 9d3e e246 793d
00000100: 67b6 783d f4eb 273d 486f 663e 19b9 623d
00000110: 5c1b 893e 224c 5d3d d6f0 863e f416 263d
00000120: 29f8 563e 7a3d 8e3e 01cb 823d 1615 923d
00000130: f36c 603e e422 6e3d c440 623d 4020 413d
00000140: 0460 283e a4da 663e 98cb 673d 0438 253d
00000150: dac9 2f3e ce7d 503d 67d1 593e ed1c 733e
00000160: 8d0e 643e 5611 5f3e 316f 7a3e 4e99 473e
00000170: 138f 423e c46f 4f3d c97d 933e 3986 7a3e
00000180: c3a9 523d ed0b 443e 0a32 7c3d 8abe e13e
00000190: c72a d63e b937 b93e 1a36 9c3e 52cf 913e
000001a0: 615c 7d3e b712 813e 45dd 823e 99de b13d
000001b0: 4ca8 7e3d e3b7 8a3e 1513 833e a5d7 9b3e
000001c0: 64df b73e ec10 9b3d 99e2 2f3d 3348 623d
000001d0: 3217 843e 2015 4d3d 09fc 8c3e 6dcb 7c3d
000001e0: 2dd6 9f3e 5d95 783d 20a9 5a3e f923 8d3e
000001f0: bc94 943d 7464 933d 50ac 8b3e 350c 843d
00000200: ffa8 343d e6e8 843d 336c 783e 4709 393e
00000210: 5f13 6e3d 979f 5b3d d05a 493e 4c21 483d
00000220: 793f 7d3e f9fc 9a3e da41 863e c015 593e
00000230: 0711 9c3e 0ac5 763e b99c 8f3e 61f7 943d
00000240: 5cae 7a3e b2cb 8f3e 0b9c 913d 9dca 7a3e
00000250: 10d9 713d c72a d63e 97b1 f53e 72a9 923e
00000260: 9a61 673e 0d04 5b3e 210f 4e3e dc0a 503e
00000270: e494 503e b6c3 3a3d 1b5a 353d f6ae 4b3e
00000280: c3c8 1d3e dfab 6f3e 1bfe 9d3e 4aa6 143d
00000290: 1fce 223d a5d4 513d 8d9e 313e 333a 533d
000002a0: 44d5 293e cc28 6a3d 5c3a 593e 0a6e 463d
000002b0: 9f40 403e bcaa 203e c5ed 403d 83f2 4e3d
000002c0: 1c09 883e e6c7 2d3d 4219 363d 0f36 443d
000002d0: d626 253e cfd8 5d3e 62b9 2c3d d3d0 063d
000002e0: b4c7 513e 8035 2c3d e09c 0a3e d775 5f3e
000002f0: 34c9 733e d8dd 1a3e c550 383e 5143 2b3e
00000300: 9fdc 253e ef23 413d 3466 4e3e a28c 703e
00000310: 5cb0 333d 9e13 573e 4ed2 123d 97b1 f53e
00000320: b020 d53e 8f2d bd3e 2af4 713e 8a67 723e
00000330: 285f 833e fce8 813e c45a 8f3e d2bf 443d
00000340: a4d5 893d 740d a53e efcc 633e 9f83 593e
00000350: 49a1 973e 1fed 443d 9ec2 413d 5245 8f3d
00000360: 72fa 833e 55df 7a3d 99a3 8e3e d575 803d
00000370: a6f3 853e d311 7e3d 8e18 803e bc6d 613e
00000380: 6ab9 383d 8c08 4d3d eedc 833e 5c1d 933d
00000390: 788c 5b3d 2032 6e3d fb2b 703e e3b8 413e
000003a0: e70d 493d b3a4 4a3d 22d6 993e 48d2 3f3d
000003b0: cb8a 9e3e 4acf 7a3e 920a 713e 958d 683e
000003c0: 304c 833e 35e5 763e e6fe 5b3e 0777 8f3d
000003d0: 1ca2 803e 4042 8c3e 5a57 743d ee3f 8f3e
000003e0: e883 563d b020 d53e bb31 053f 2909 593e
000003f0: 7e8a 343e 4ca9 423e 23d8 2d3e 4563 2a3e
0.361757 0.20382741 0.24843149 0.17531788 0.21743363 0.20581838 0.28403872 0.04101969
0.048878882 0.2616113 0.25895724 0.20463702 0.32243615 0.03987672 0.05330635 0.051075466
0.20006071 0.05891313 0.27456105 0.063626915 0.21616095 0.03655926 0.20668808 0.24665281
0.05036221 0.05575919 0.23444954 0.052313223 0.05025978 0.05137603 0.17156765 0.26596463
0.049439684 0.03052077 0.1925123 0.046774525 0.1948699 0.24588387 0.20025875 0.25757527
0.23728661 0.20402837 0.22071105 0.0441509 0.18584454 0.17410757 0.047304817 0.25916818
0.05075145 0.361757 0.44090682 0.2888329 0.24949084 0.27484468 0.19348101 0.18409711
0.16898389 0.05171173 0.048835788 0.27779084 0.16861981 0.24237701 0.30764285 0.060858615
0.060720827 0.040996507 0.22503388 0.055352304 0.26778686 0.054027684 0.26355618 0.040549234
0.20993103 0.27781278 0.06386376 0.07132928 0.21916561 0.058138743 0.055237547 0.047149897
0.16442877 0.22544342 0.056590647 0.040336624 0.17166844 0.050901227 0.21271287 0.23741503
0.22271176 0.21783957 0.24456479 0.19492075 0.18999891 0.050643697 0.28806904 0.24465264
0.05143143 0.19145174 0.06157116 0.44090682 0.41829512 0.36175326 0.30510026 0.28478485
0.24742271 0.2520959 0.2555944 0.08685035 0.06217222 0.2709342 0.25600496 0.3043796
0.3591262 0.07571587 0.04294071 0.055244636 0.25798947 0.050068974 0.27536038 0.06171744
0.3121809 0.06068932 0.21353579 0.27566507 0.07254931 0.07196894 0.27279902 0.06447641
0.04410648 0.06489734 0.24260025 0.18069945 0.058123942 0.053618994 0.19663548 0.04885988
0.24731244 0.30271128 0.26222116 0.21199703 0.3048174 0.24098602 0.28049257 0.07273746
0.24480575 0.28085095 0.07109841 0.24491353 0.059044898 0.41829512 0.47987053 0.28644902
0.22595826 0.21388264 0.20122959 0.20316643 0.20369297 0.0455968 0.044275384 0.19890961
0.15408616 0.23405407 0.3085793 0.036291398 0.039747354 0.051228184 0.17345639 0.051569175
0.1658526 0.057167813 0.21213669 0.048444785 0.18774651 0.1569013 0.047101755 0.050524246
0.2656945 0.042426966 0.04445768 0.047903117 0.16128096 0.21664737 0.042168982 0.032913994
0.20486337 0.04204321 0.13536406 0.21822296 0.23807222 0.15123689 0.17999561 0.16724898
0.16197442 0.04715341 0.20156175 0.23491147 0.04386936 0.21003577 0.035845093 0.47987053
0.416265 0.3694882 0.23628297 0.2367231 0.25658536 0.25373065 0.27998936 0.048034497
0.06730202 0.32236826 0.22246145 0.21241616 0.29615238 0.0480777 0.047304742 0.06995644
0.25777012 0.061248142 0.2785919 0.06272475 0.26162452 0.062028717 0.25018734 0.22014517
0.0450987 0.05005698 0.25754493 0.07183334 0.05360076 0.05815327 0.23454277 0.18918185
0.049085524 0.049473476 0.30046183 0.0468314 0.30965266 0.24493137 0.23539189 0.2271026
0.25644064 0.24110873 0.21483955 0.070051245 0.2512368 0.27394295 0.059653617 0.27978462
0.05237189 0.416265 0.5202901 0.211949 0.17630956 0.19009894 0.16976981 0.16639431

square_avg f4 [30]
00000000: 209b f541 cf0f e141 21c5 0942 f80f a041
00000010: dd31 e541 2ca6 c141 d387 0542 1989 ba41
00000020: cd74 fc41 3639 d441 3372 e041 fb48 ed41
00000030: 90dc 1742 e77f 0642 7d73 0142 2af3 f241
00000040: 2499 f541 e6c7 0442 1d17 0342 7e58 a841
00000050: cdf5 0a42 c8ee bb41 708a ad42 5168 c641
00000060: a264 1942 393c 0f42 0592 fd41 ba0c 9741
00000070: 7b07 d741 c8c0 b541
30.700745 28.132719 34.44251 20.007797 28.649347 24.206139 33.38264 23.316942
31.557032 26.527935 28.055761 29.660635 37.965393 33.624905 32.36278 30.368732
30.699776 33.195213 32.77257 21.04321 34.74004 23.491592 86.770386 24.800936
38.348274 35.80881 31.696299 18.881214 26.878653 22.719131
