supervised/saved_models/ff/nhid100_lr0.01_nlayers2_seed5.pt (torch, 330973 bytes, 24 tensors)

layers_mu.0.weight f4 [100, 50]
0.37259337 0.098368995 0.2829986 0.14496961 -0.19664714 0.008530231 -0.116301775 0.04673094
-0.04357218 -0.31487212 0.27224857 0.17704381 -0.09330807 0.015880587 -0.08406665 0.18152364
0.34767333 0.07186512 -0.036373667 0.09137515 0.0059208637 0.0028416617 -0.16531245 -0.28390983
-0.10503841 -0.16586149 -0.21470208 -0.17991774 0.018779868 -0.03164548 0.018240329 -0.037534066
0.12539852 0.23538154 0.3501515 0.0649298 0.23485474 0.23273386 -0.09276609 -0.0021557016
-0.01959291 0.08641632 0.36345923 0.12820978 0.10812477 -0.22371477 -0.032795265 -0.20960553
0.2066341 0.22127797 -0.090005845 0.007245443 0.0017582992 -0.0070237727 -0.009357955 -0.0009198452
-0.00064968003 0.011385767 -0.00022488006 0.0020434153 -0.0050784503 0.00047436974 0.0051523736 0.00013444992
0.0060883947 0.018542293 0.0019181506 -0.0066307206 -0.0051998566 -0.00442577 0.0066093784 -0.005581204
-0.00018588919 0.008575639 -0.0014415502 0.00074909173 0.00202037 0.008279776 -0.005585538 0.013974099
0.0017067817 -0.0006924044 0.00079063076 0.009916668 0.005334258 0.006546135 -0.0007036531 0.0001361139
-0.008880905 -2.7602073e-07 -0.0073158294 -0.006989016 -0.007437915 -0.019073745 -0.0033635846 0.003380912
0.006473772 0.0004957282 0.004786892 0.0910096 -0.4564875 0.07422347 -0.1854291 0.03935107
-0.050645623 0.07688294 -0.180174 -0.06692386 -0.20484923 0.031923216 -0.03628209 -0.15125059
-0.0684966 -0.109628774 -0.20801446 0.021883566 0.11766985 0.090032 0.016796121 0.04028417
-0.051264953 0.16494994 -0.08171709 0.13267374 -0.12015213 0.13483572 -0.22001512 0.10430708
0.047118805 -0.013810698 -0.1964615 -0.045757346 -0.09612343 -0.07967443 0.21028194 -0.09761985
0.12961991 0.022391718 0.058215383 -0.0053656558 -0.13174558 0.15976715 0.15593511 0.120125465
0.053586084 -0.08010392 -0.06681487 -0.07960513 -0.032935973 -0.4323275 -0.017312458 0.004132271
0.0018352511 -0.0066845757 -0.012735915 0.0056953277 -0.005019312 0.012094125 -0.01072882 -0.008401195
0.0123280855 -0.0067272466 -0.0032074184 -0.01206 -0.005741073 0.00957048 0.0011348783 -0.002573134
0.008536629 -0.0068157483 0.008914352 -0.004970681 0.008248199 0.013566048 -0.00068036444 -0.0077881906
8.573022e-05 0.008919539 0.0008571186 -0.011308957 0.004113805 0.0054569156 0.0038446262 0.0051908493
-0.0018353816 0.01150412 -0.0050364346 -0.004207768 -0.011655351 0.0022233024 -0.004487261 -0.006634575
0.016003968 -0.015231262 -0.01562124 0.021451842 0.004676745 -0.0054234825 0.017240833 0.009229259
-0.04423918 0.0057305666 0.0016113516 -0.0070315404 -0.005467397 0.00886289 0.012345926 0.008028938
-0.005150865 -0.0079733 0.0022001422 -0.011151882 0.0024259337 -0.0106956065 -0.0029974442 0.010483613
-0.0045443145 -0.0011867858 -0.0005012592 -0.012793684 0.0013354401 -0.002610531 0.0073482944 -0.0007680517
0.0052165873 -0.00791039 0.0020225137 0.007045002 -0.004882349 0.0053711096 0.0024559766 0.00055252213
-0.003119286 0.0039849733 0.00534547 0.006943612 -0.0010908445 -0.0008867982 -0.008079769 -0.0006857491
0.0013057542 -0.0029372694 0.0029939718 -0.015045521 -0.006138387 0.014592723 0.0019170172 -0.006807275
0.011435816 0.039985307 0.0570456 -0.18065937 -0.15208736 -0.021549199 0.64003044 0.12546234
00000000: 8fc4 be3e af75 c93d 31e5 903e ea72 143e
00000010: de5d 49be 62c2 0b3c a02f eebd f168 3f3d
00000020: be78 32bd eb36 a1be 2a64 8b3e f94a 353e
00000030: 4d18 bfbd 0118 823c 232b acbd 55e1 393e
00000040: 3d02 b23e 052e 933d 8efc 14bd e522 bb3d
00000050: ce03 c23b 2c3b 3a3b ab47 29be a15c 91be
00000060: 611e d7bd 98d7 29be ddda 5bbe 5b3c 38be
00000070: 3dd8 993c b19e 01bd be6c 953c 52bd 19bd
00000080: 7868 003e dc07 713e 0f47 b33e eaf9 843d
00000090: c37d 703e c951 6e3e 26fc bdbd ac46 0dbb
000000a0: 4f81 a0bc 0afb b03d 5417 ba3e 6d49 033e
000000b0: 8570 dd3d 7c15 65be 5454 06bd d5a2 56be
000000c0: e497 533e b196 623e fc54 b8bd 2e6b ed3b
000000d0: bb76 e63a ad27 e6bb 1c52 19bc c421 71ba
000000e0: 4a4f 2aba 5e8b 3a3c c8cd 6bb9 d2ea 053b
000000f0: 2169 a6bb d4b4 f839 3ed5 a83b 20fb 0c39
00000100: 2881 c73b 02e6 973c 746a fb3a 8446 d9bb
00000110: 8f63 aabb 0d06 91bb 7c93 d83b 88e2 b6bb
00000120: 40eb 42b9 d680 0c3c 66f2 bcba b25e 443a
00000130: 2f68 043b e6a7 073c e406 b7bb 9ff3 643c
00000140: 17b6 df3a 7982 35ba 5542 4f3a 8579 223c
00000150: 00cb ae3b f680 d63b 5c75 38ba ccb9 0e39
00000160: 3781 11bc 0030 94b4 a0b9 efbb 1e04 e5bb
00000170: c1b9 f3bb 8b40 9cbc 966f 5cbb 4a92 5d3b
00000180: f021 d43b c2f3 013a 5cdb 9c3b 3e63 ba3d
00000190: bbb8 e9be 7a02 983d 20e1 3dbe 962e 213d
000001a0: c971 4fbd ce74 9d3d 887f 38be 600f 89bd
000001b0: ffc3 51be ebc1 023d 879c 14bd 6fe1 1abe
000001c0: f247 8cbd 0d85 e0bd be01 55be 2a45 b33c
000001d0: e4fc f03d b262 b83d 0598 893c 0401 253d
000001e0: 33fb 51bd a3e8 283e 4a5b a7bd a0db 073e
000001f0: 5212 f6bd 6012 0a3e a54b 61be f39e d53d
00000200: a6ff 403d 4446 62bc 342d 49be 0e6c 3bbd
00000210: 5cdc c4bd 592c a3bd 2654 573e eaec c7bd
00000220: 15bb 043e d66e b73c 4173 6e3d 62d2 afbb
00000230: 50e8 06be 009a 233e 74ad 1f3e 5704 f63d
00000240: 157d 5b3d 860d a4bd 3cd6 88bd 0408 a3bd
00000250: dfe7 06bd 085a ddbe dbd2 8dbc 0068 873b
00000260: cf8c f03a 490a dbbb 4daa 50bc df9f ba3b
00000270: 0a79 a4bb 7026 463c efc7 2fbc 2aa5 09bc
00000280: bdfb 493c 3c70 dcbb 8d33 52bb 4e97 45bc
00000290: 9c1f bcbb 81cd 1c3c 32c0 943a 06a2 28bb
000002a0: 38dd 0b3c a456 dfbb 810d 123c 18e1 a2bb
000002b0: 7423 073c 2144 5e3c 7c5a 32ba 1434 ffbb
000002c0: 10ca b338 4223 123c 41b0 603a 3449 39bc
000002d0: 19cd 863b edcf b23b 20f6 7b3b 0018 aa3b
000002e0: 3091 f0ba c77b 3c3c ad08 a5bb 51e1 89bb
000002f0: 16f6 3ebc d3b4 113b e009 93bb d966 d9bb
00000300: c11a 833c 8b8c 79bc 3bf0 7fbc c6bb af3c
00000310: 613f 993b 78b7 b1bb a63c 8d3c 5136 173c
00000320: 2434 35bd 7ac7 bb3b fd33 d33a d668 e6bb
00000330: da27 b3bb a835 113c 9146 4a3c cf8b 033c
00000340: 96c8 a8bb 72a2 02bc 4330 103b 62b6 36bc
00000350: 6afc 1e3b a03c 2fbc c570 44bb 76c3 2b3c
00000360: 79e8 94bb ec8d 9bba ef66 03ba 9a9c 51bc
00000370: ef09 af3a 7115 2bbb f6c9 f03b 1457 49ba
00000380: e8ef aa3b 959a 01bc 268c 043b c3d9 e63b
00000390: 1dfc 9fbb 2200 b03b 73f4 203b 22d7 103a
000003a0: ef6c 4cbb 6194 823b 0d29 af3b 3d87 e33b
000003b0: abfa 8eba 0578 68ba 0261 04bc d8c3 33ba
000003c0: d725 ab3a 347f 40bb 8336 443b 7d81 76bc
000003d0: 8624 c9bb 5116 6f3c 6c44 fb3a 900f dfbb
000003e0: 4a5d 3b3c a2c7 233d a6a8 693d c5fe 38be
000003f0: cabc 1bbe f287 b0bc 09d9 233f 3379 003e

layers_mu.0.bias f4 [100]
-0.0129539715 0.0014869268 -0.019209959 -8.404569e-05 0.0021050973 0.0016106665 -0.00047827268 -0.00025888393
-0.00502128 -0.00017889481 -0.0024251142 -5.699927e-05 -0.001714396 -0.005293015 0.005513318 -0.004385804
-0.005616704 0.0029701693 0.0024606078 0.020141495 0.0013736296 -0.0015286871 0.0013832175 -0.00036369124
0.010340847 -0.003007005 -0.0029050696 -0.0006322877 0.0112899225 -0.0012742716 -0.0049021575 -0.0019423764
0.0021871943 -0.00351694 -0.006627974 -0.0030209878 -0.0012758089 0.0014710993 -0.004947323 0.009519601
0.0023871816 -0.0043080393 -0.0009738276 -0.010288702 0.002109073 0.00024338881 0.0019463412 0.00021889084
-0.0013394505 -0.002234001 0.0060307435 0.017511692 -0.00240922 -0.0013346153 -0.0017348585 0.011481624
0.017122805 1.2732903 -0.00018104911 0.0027519332 -0.00047558127 0.004047519 -0.0003857459 0.0028062025
0.015064999 -0.00011612917 -0.0012221701 -0.0015280605 -0.0059984606 0.00010145684 0.0009228317 0.0020754386
0.0021044202 0.00016330375 0.0020118551 -0.0023567416 0.016285066 0.00059007667 0.00136034 0.0011954816
-0.00325775 0.0027019195 -0.007262105 -0.0016894112 -0.0043022856 -0.00044762203 0.0027694702 0.0070439326
-0.0069792075 -0.015913991 -0.0003899436 6.0414895e-06 0.0011239548 0.0013951752 -0.005383797 -0.0026764735
0.007911797 0.0012705922 0.0021829938 -0.0011945055
00000000: e53c 54bc fce4 c23a 345e 9dbc b041 b0b8
00000010: acf5 093b 001d d33a acc0 fab9 d0ba 87b9
00000020: 8d89 a4bb b695 3bb9 aaee 1ebb 8012 6fb8
00000030: 96b5 e0ba 0771 adbb 10a9 b43b cab6 8fbb
00000040: 540c b8bb 2ca7 423b 2642 213b c7ff a43c
00000050: 5c0b b43a 3a5e c8ba 144d b53a d0ad beb9
00000060: a86c 293c 2c11 45bb fb62 3ebb 1cc0 25ba
00000070: 5ef9 383c 7605 a7ba 47a2 a0bb 5697 feba
00000080: 0857 0f3b 767c 66bb 7a2f d9bb c4fb 45bb
00000090: 0b39 a7ba e7d1 c03a 271d a2bb 1af8 1b3c
000000a0: 4372 1c3b 742a 8dbb 7748 7fba f291 28bc
000000b0: 6038 0a3b 3036 7f39 601c ff3a 1086 6539
000000c0: 8090 afba 5168 12bb 8b9d c53b ae74 8f3c
000000d0: 01e4 1dbb 42ee aeba 3164 e3ba 6c1d 3c3c
000000e0: 2045 8c3c 2dfb a23f 00d8 3db9 c759 343b
000000f0: 7057 f9b9 0da1 843b f03d cab9 44e8 373b
00000100: 30d3 763c 608a f3b8 3931 a0ba 3449 c8ba
00000110: bc8e c4bb 3ac5 d438 30ea 713a 1504 083b
00000120: 50ea 093b 843c 2b39 54d9 033b 9073 1abb
00000130: 4268 853c 60af 1a3a 704d b23a b5b1 9c3a
00000140: fa7f 55bb b012 313b f4f6 edbb 3c6f ddba
00000150: 30fa 8cbb d0ae eab9 0080 353b cad0 e63b
00000160: d6b1 e4bb 0f5e 82bc 5871 ccb9 00b8 ca36
00000170: aa51 933a 50de b63a 906a b0bb c667 2fbb
00000180: 7ba0 013c 008a a63a 8f10 0f3b f490 9cba

layers_mu.1.weight f4 [100, 100]
0.45725706 0.0016815218 -0.3890701 0.0009262288 0.0032882476 0.0050421627 0.003817001 0.0081048235
-0.036903616 0.0018400695 0.04716828 0.46386546 0.05041674 0.07594102 -0.044606827 0.0016433254
0.019702021 -0.05110926 0.00030396204 -0.10752354 -0.005555808 0.011617907 0.09990916 0.19880548
-0.013286552 0.013539281 0.018558355 0.007004492 0.017355755 0.10707836 -0.023869257 0.015982103
0.09623008 -0.047646552 0.0055309515 0.05774251 -0.00062162394 -0.0072734603 -0.10361664 -0.014101841
-0.012309372 0.008070398 0.0045761783 -0.0017305394 -0.0017734262 -0.2209143 -0.00903388 0.030058447
0.009406922 0.0029366284 0.058797263 -0.015856352 0.0025883045 0.0010937968 -0.005228751 -0.021419102
0.045622297 -0.70741457 -0.0016768818 0.41956756 -0.046020538 0.07295474 0.0010741609 0.001750539
0.24381521 -0.0032630179 0.008007064 0.07306621 0.004261002 -0.005347751 -0.024359647 -0.00780499
-0.0008814484 -0.017107142 -0.0152676385 0.014283935 0.014072198 -0.008005254 -0.13837598 0.0012347649
0.019466745 -0.008211003 0.13717055 -0.056507293 0.041019075 0.0013534529 -0.0043318397 -0.075149685
0.023092682 0.0019085668 -0.0009130519 -0.014591733 -0.039560687 -0.051125973 -0.07798326 0.0063641598
0.12057334 -0.008287428 -0.0053077303 -0.16182373 0.056174807 -0.008344353 0.12663443 0.0056327614
1.0170566e-05 0.032368697 -0.010508235 0.12644249 0.01859623 -0.002514674 0.12033783 0.05014996
-0.00039803341 0.013996593 0.43450585 0.07728399 -0.00060086953 0.022492167 0.0074460474 0.070809186
0.0051712813 -0.004565221 -0.056447368 0.017893663 0.0008811079 0.0052458895 0.001668104 -0.011309418
-0.024277573 -0.0034493918 -0.0047270027 -0.008454087 -0.06574959 0.015132012 -0.010457916 0.5996544
0.0045127533 0.007922553 0.004929254 0.0008034811 0.042738754 -0.08178634 -0.00782789 0.0137474565
0.0036218932 -0.017746253 0.003387795 -0.028957784 0.0062250067 -0.007046569 0.04634032 -0.004381346
-0.0024295042 -0.0034222144 -0.0029591317 -0.0013687558 -0.05089664 -0.8492195 0.0059953607 -0.077375256
-0.0089257555 0.03720855 -0.004119915 0.03177884 -0.06941672 0.000370465 -0.0019235355 0.05066714
-0.014986379 0.0027992348 -0.0056062825 0.0041075363 0.0010784126 0.014377892 0.0040546977 -0.006983272
-0.083295695 0.005008398 0.035444062 -0.008688356 -0.0077304672 0.014160241 0.0450657 -0.08476281
-0.065485746 0.006927147 -0.006976907 0.075052835 -0.29878393 0.0055122133 -0.01247268 0.030815462
0.045383852 -0.08994406 0.24327455 -0.003236296 0.009130344 0.012473157 -0.012170448 -0.04191832
-0.0063502826 -0.004668935 0.5763921 0.009897652 0.00629533 0.061647184 -0.01779069 -0.19758172
-0.08463174 -0.0049432116 -0.012701631 -0.1292391 0.34929156 0.061878566 -0.06505999 0.031214291
-0.1676011 0.11224416 0.009869063 -0.47526902 0.024613868 -0.0034648525 0.12066247 -0.11331684
-0.00041405065 -0.0052056448 -0.12903717 -0.021018492 0.6259027 -0.059047766 0.052709457 -0.016594857
-0.020573137 -0.12291482 0.1360691 0.20081346 0.003564445 0.010119393 -0.17413326 0.004911544
-0.013824035 -0.038609006 -0.05562468 -0.11412533 0.009101109 -0.04551844 -0.0032573775 -0.06794493
-0.0025377497 -0.0116691915 -0.021373449 0.0047822795 -0.008211384 -0.010789358 -0.036603026 0.0028949473
00000000: 991d ea3e 8266 dc3a 3234 c7be 2ace 723a
00000010: a47f 573b ba38 a53b a626 7a3b 18ca 043c
00000020: 3f28 17bd 7d2e f13a 8733 413d c67f ed3e
00000030: c981 4e3d f786 9b3d a6b5 36bd da64 d73a
00000040: 2266 a13c f257 51bd 185d 9f39 4d35 dcbd
00000050: 7f0d b6bb 0959 3e3c 2c9d cc3d aa93 4b3e
00000060: d7af 59bc dcd3 5d3c b107 983c f085 e53b
00000070: a82d 8e3c e64b db3d 7689 c3bc e6ec 823c
00000080: 4714 c53d 0829 43bd fc3c b53b 6983 6c3d
00000090: 7af4 22ba 3556 eebb f634 d4bd 680b 67bc
000000a0: 40ad 49bc b439 043c c4f3 953b 44d3 e2ba
000000b0: 4f72 e8ba 5c37 62be d702 14bc 223d f63c
000000c0: 7e1f 1a3c 7374 403b 66d5 703d 2ee5 81bc
000000d0: 8ba0 293b bb5d 8f3a f155 abbb 1d77 afbc
000000e0: 72de 3a3d 1f19 35bf d1ca dbba 8fd1 d63e
000000f0: 0880 3cbd 4b69 953d dcca 8c3a 5872 e53a
00000100: b2aa 793e 5bd8 55bb 1030 033c bda3 953d
00000110: e09f 8b3b 303c afbb e28d c7bc 00c1 ffbb
00000120: 0011 67ba 4724 8cbc 1e25 7abc 2a07 6a3c
00000130: 148f 663c 7828 03bc 6fb2 0dbe d6d7 a13a
00000140: b978 9f3c 7187 06bc 7076 0c3e 3174 67bd
00000150: 9e03 283d 5866 b13a 1bf2 8dbb 14e8 99bd
00000160: dd2c bd3c e028 fa3a e059 6fba 2a12 6fbc
00000170: 630a 22bd 7869 51bd b0b5 9fbd 718a d03b
00000180: 28ef f63d fec7 07bc 78ec adbb 1fb5 25be
00000190: 8e17 663d c1b6 08bc 75ac 013e 0793 b83b
000001a0: 40a2 2a37 0a95 043d bb2a 2cbc 247a 013e
000001b0: 1f57 983c 3bcd 24bb ae73 f63d 0b6a 4d3d
000001c0: 24af d0b9 f751 653c 8d77 de3e 1247 9e3d
000001d0: ac83 1dba 7e41 b83c f9fd f33b 6804 913d
000001e0: da73 a93b d997 95bb 5b35 67bd bb95 923c
000001f0: 26fa 663a b6e5 ab3b 48a4 da3a 234b 39bc
00000200: c3e1 c6bc 310f 62bb f9e4 9abb 0383 0abc
00000210: b9a7 86bd 42ec 773c ae57 2bbc f382 193f
00000220: b8df 933b 99cd 013c 9485 a13b b4a0 523a
00000230: d50e 2f3d 997f a7bd 8d40 00bc 033d 613c
00000240: 495d 6d3b 9760 91bc c505 5e3b e038 edbc
00000250: 24fb cb3b e8e6 e6bb 59cf 3d3d 6591 8fbb
00000260: 5138 1fbb 3b47 60bb feed 41bb d367 b3ba
00000270: ff78 50bd 7366 59bf bb74 c43b eb76 9ebd
00000280: 553d 12bc fe67 183d 5a00 87bb 872a 023d
00000290: 5a2a 8ebd f83a c239 241f fcba 5988 4f3d
000002a0: 6e89 75bc 5e73 373b e8b4 b7bb 8398 863b
000002b0: 8659 8d3a 4091 6b3c 45dd 843b eed3 e4bb
000002c0: ef96 aabd 7d1d a43b cb2d 113d 9b59 0ebc
000002d0: dc4f fdbb 5b00 683c d096 383d 2098 adbd
000002e0: 641d 86bd 1ffd e23b 8a9e e4bb 4db5 993d
000002f0: 35fa 98be cc9f b43b 365a 4cbc b570 fc3c
00000300: 6be4 393d 9734 b8bd f71c 793e 0918 54bb
00000310: 7097 153c 365c 4c3c 8f66 47bc 8bb2 2bbd
00000320: 0816 d0bb defd 98bb 6f8e 133f c329 223c
00000330: 0e49 ce3b c281 7c3d c8bd 91bc dd52 4abe
00000340: 6853 adbd aafa a1bb 801a 50bc 4157 04be
00000350: 58d6 b23e 6174 7d3d 2c3e 85bd 1db5 ff3c
00000360: 9f9f 2bbe 44e0 e53d dab1 213c 7656 f3be
00000370: 06a3 c93c 9412 63bb e31d f73d a912 e8bd
00000380: f014 d9b9 1d94 aabb 5222 04be f92e acbc
00000390: 293b 203f 12dc 71bd dfe5 573d f0f1 87bc
000003a0: ff88 a8bc c4ba fbbd b355 0b3e 0ba2 4d3e
000003b0: 7799 693b cfcb 253c fd4f 32be 04f1 a03b
000003c0: 357e 62bc 7a24 1ebd b4d6 63bd 8aba e9bd
000003d0: d11c 153c 8b71 3abd ba79 55bb b626 8bbd
000003e0: 6050 26bb 2330 3fbc 5f17 afbc abb4 9c3b
000003f0: 0a89 06bc d9c5 30bc 0eed 15bd 28b9 3d3b

layers_mu.1.bias f4 [100]
-1.0054445 -1.4416907 -2.0136523 -1.2455864 -1.2942343 -1.2923219 -1.3210555 -1.494164
-1.2545547 -1.3245531 -1.3378614 -1.3999406 -1.5498203 -1.2662606 -1.0926996 -1.4379946
-1.4696155 -1.2763295 -1.4259293 -1.2346537 -0.6742007 -1.2570637 -1.3605355 -1.3131939
-1.2976521 -1.5219151 -1.2976447 -1.4825635 -1.3027449 -1.7702242 -1.2934195 -1.1272082
-1.5328542 -1.2870024 -1.3671445 -1.2017051 -1.3163134 -1.2424072 -1.2889236 -1.2856269
-1.1606455 -0.55025375 -1.3183899 -1.3089011 -1.0800273 -1.5267794 -1.0930121 -1.0980333
-1.6500355 -1.3831319 -0.99630487 -1.2207326 -1.39233 -1.1542186 -1.4447522 -1.4488088
-1.1780046 -1.2881279 -1.5039653 -3.280388 -1.5690261 -1.3886851 -1.3671646 -1.3891622
-1.394522 -3.6362936 -1.2513486 -1.3762989 -0.96845263 -1.2932153 -1.5498056 -1.5196946
-1.0370704 -1.526878 -0.2586374 -1.3490872 -1.1581085 -1.3523716 -1.428941 -1.2800373
-1.3629435 -1.4983613 -1.2718052 -1.3530905 -1.3564303 -1.2874905 -1.4582005 -1.4718865
-1.6251622 -1.1132812 -1.4736489 -1.2365402 -1.1515051 -1.0768123 -1.3256702 -4.3019505
-1.3249731 -1.5453446 -1.4822499 -1.3020313
00000000: 68b2 80bf 5289 b8bf aedf 00c0 606f 9fbf
00000010: 78a9 a5bf ce6a a5bf 5918 a9bf c440 bfbf
00000020: 4095 a0bf f58a a9bf 0b3f abbf 4131 b3bf
00000030: 8360 c6bf d414 a2bf 95dd 8bbf 3510 b8bf
00000040: 5c1c bcbf c45e a3bf da84 b6bf 2209 9ebf
00000050: 6b98 2cbf 77e7 a0bf 0726 aebf bd16 a8bf
00000060: 7719 a6bf 1dce c2bf 3919 a6bf a4c4 bdbf
00000070: 58c0 a6bf b596 e2bf c58e a5bf 5c48 90bf
00000080: 9134 c4bf 7fbc a4bf 97fe aebf 79d1 99bf
00000090: f57c a8bf 3307 9fbf 73fb a4bf 6c8f a4bf
000000a0: 0890 94bf 6edd 0cbf 00c1 a8bf 128a a7bf
000000b0: 563e 8abf 826d c3bf d2e7 8bbf 5b8c 8cbf
000000c0: 5d34 d3bf 770a b1bf d60d 7fbf f740 9cbf
000000d0: df37 b2bf 6fbd 93bf a4ed b8bf 9172 b9bf
000000e0: dbc8 96bf 60e1 a4bf ef81 c0bf e1f1 51c0
000000f0: d9d5 c8bf 6fc0 b1bf 40ff aebf 11d0 b1bf
00000100: b27f b2bf 09b9 68c0 312c a0bf 902a b0bf
00000110: 83ec 77bf 1488 a5bf 0860 c6bf 5a85 c2bf
00000120: b9be 84bf bd70 c3bf 1f6c 84be e4ae acbf
00000130: e63c 94bf 831a adbf 8ae7 b6bf 43d8 a3bf
00000140: ef74 aebf 4eca bfbf 83ca a2bf 1232 adbf
00000150: 829f adbf 7dcc a4bf 50a6 babf c766 bcbf
00000160: 5105 d0bf 0080 8ebf 87a0 bcbf f346 9ebf
00000170: 8564 93bf fcd4 89bf 90af a9bf 94a9 89c0
00000180: b898 a9bf dacd c5bf 5dba bdbf f6a8 a6bf

layers_mu.3.weight f4 [50, 100]
0.29433507 0.014796642 -0.5663961 0.30174303 -0.114670254 -0.16438155 -0.19183855 -0.21315569
-0.4034923 -0.07650839 -0.54739493 0.15885487 0.035652116 -0.03267148 0.2739341 0.27804744
0.23880889 0.0945398 -0.1340495 0.19818258 -0.14956982 0.13455403 -0.012888243 0.2575291
0.034254424 -0.30531636 -0.091502786 0.20129742 0.089179866 0.22487293 0.08834196 0.21618216
0.47182396 0.47643083 0.17464122 -0.31281558 -0.47169816 -0.015406528 0.13475937 -0.15297687
0.44386327 0.4517549 -0.70425713 -0.15665962 0.050284065 -0.18436193 0.019120157 0.08883817
0.66610426 0.113566436 0.26409817 -0.13460025 -0.22341666 -0.2070925 -0.29181808 -0.24433924
-0.01655184 -0.27301303 -0.08519102 0.12842724 0.060268812 -0.2029084 0.7690601 -0.46500474
-0.018845782 -0.57016057 0.27035004 0.18130794 0.0020084246 0.22649363 -0.23659453 0.02281589
-0.6953761 0.13310239 0.27641454 -0.26179346 -0.03819809 0.45992765 -0.12841952 0.41825485
0.15686484 -0.23358345 0.21967489 0.086565115 0.022596357 0.61745733 -0.08746963 0.3138415
0.001584348 0.065568276 -0.059041787 -0.43978265 -0.09496164 -0.46005994 -0.14806998 0.4535594
0.11933441 -0.047963936 -0.059817288 -0.24528833 0.0798517 0.12802587 -0.7741603 0.47041243
0.012666766 0.36758304 0.9466913 -0.8017073 0.49335864 0.0012288652 -0.35791382 0.79128426
-0.08993031 0.7730768 -0.65327185 -0.19086608 -0.539375 0.035057284 -0.33568034 -0.9735638
-0.6956302 0.3403053 0.31731987 -0.16857052 -0.7574373 -0.48392996 -0.044189963 -0.22013919
-0.6394314 0.9877739 -0.01926485 -0.8185805 0.12140813 -0.22338492 -0.39555934 -0.4664187
0.002778709 0.69079095 0.05406729 0.18112421 -0.026347842 0.5920038 -0.05776409 -0.83170795
0.19595404 0.13739866 -0.3236791 0.46726984 0.025971677 -0.014072195 -0.023855347 -0.4061089
-0.20074041 0.21168469 0.65897924 -0.06692007 -0.11546332 0.18932647 -0.46838093 -0.21300939
0.13405187 0.7733243 0.06205099 0.21320996 0.1648877 0.30567873 0.090612285 -0.16157745
-0.3562162 0.8330861 0.031087788 -0.6949663 -0.030581774 0.39296168 -0.45205268 -0.10315088
0.09034579 -0.36651042 -0.059187025 -0.50508296 -0.18154083 0.5526055 0.18243423 -0.23466241
-0.18538684 0.37512878 0.2209959 0.45187068 0.31811962 -0.1534866 0.12943392 0.33998263
0.6555315 -0.13017032 -1.3120631 -0.27932915 1.0346755 -0.19902574 -0.12914073 0.13921176
0.85965294 0.029691162 -0.24601348 -0.4201101 0.18085082 0.59816 -0.4311135 -0.033056185
-0.17371932 0.15077433 0.46255097 0.128254 -0.026259884 0.00041634403 -0.25091532 0.23976098
0.2655725 0.5877634 -0.5672285 0.42051217 -0.23798293 0.5757031 0.5618136 -0.7881175
-0.022347901 0.4065847 -0.59428203 0.09332788 -0.77295434 0.32120955 -0.17062692 -0.68209344
-0.22501516 0.06126233 -0.6459635 0.1161693 -0.5208408 -0.748664 0.032475978 -0.26847467
0.45620623 0.16284981 0.042753585 -0.16209161 -0.39021832 0.11180692 -0.5914828 0.25227952
0.09252364 -0.19530505 1.244626 0.037952513 0.070434906 -0.11108386 0.23199332 -0.75009084
00000000: 16b3 963e 9d6d 723c 56ff 10bf 107e 9a3e
00000010: 3dd8 eabd a353 28be 5371 44be 7c45 5abe
00000020: 8b96 cebe 6eb0 9cbd 1322 0cbf daaa 223e
00000030: f407 123d 88d2 05bd 1741 8c3e 3c5c 8e3e
00000040: 518a 743e 159e c13d 4644 09be 60f0 4a3e
00000050: d528 19be 88c8 093e 3629 53bc dbda 833e
00000060: 5e4e 0c3d 6d52 9cbe d065 bbbd e920 4e3e
00000070: efa3 b63d 1745 663e a1ec b43d db5e 5d3e
00000080: e992 f13e beee f33e 26d5 323e 5d29 a0be
00000090: 6c82 f1be a96b 7cbc 5cfe 093e f8a5 1cbe
000000a0: 0c42 e33e 6b4c e73e 324a 34bf 616b 20be
000000b0: aaf6 4d3d 60c9 3cbe e0a1 9c3c c9f0 b53d
000000c0: cf85 2a3f 8595 e83d e037 873e a6d4 09be
000000d0: 56c7 64be 0e10 54be 2e69 95be 1134 7abe
000000e0: b997 87bc 5dc8 8bbe a178 aebd 6e82 033e
000000f0: 6edc 763d 38c7 4fbe 1fe1 443f 1a15 eebe
00000100: 7862 9abc 0bf6 11bf 526b 8a3e caa8 393e
00000110: c69f 033b f2ed 673e d645 72be 64e8 ba3c
00000120: 2b04 32bf fe4b 083e 3586 8d3e cb09 86be
00000130: 9a75 1cbd a37b eb3e 6880 03be 8025 d63e
00000140: 2da1 203e 8030 6fbe 74f2 603e 0d49 b13d
00000150: ff1b b93c af11 1e3f 4723 b3bd d5af a03e
00000160: e6a9 cf3a a948 863d cdd5 71bd 312b e1be
00000170: 407b c2bd fa8c ebbe a89f 17be f038 e83e
00000180: 9965 f43d d575 44bd f902 75bd dd2c 7bbe
00000190: 4a89 a33d 3719 033e 5f2f 46bf e6d9 f03e
000001a0: 4488 4f3c d833 bc3e 5c5a 723f b13c 4dbf
000001b0: 8199 fc3e e011 a13a 7b40 b7be 9b91 4a3f
000001c0: 622d b8bd 5ce8 453f d33c 27bf 6672 43be
000001d0: 7b14 0abf 3a98 0f3d 4bde abbe 7a3b 79bf
000001e0: d214 32bf 7f3c ae3e c077 a23e c09d 2cbe
000001f0: 69e7 41bf abc5 f7be 8900 35bd 2b6c 61be
00000200: c7b1 23bf c0de 7c3f 52d1 9dbc 7e8e 51bf
00000210: d3a4 f83d 04bf 64be c186 cabe 6fce eebe
00000220: 001b 363b add7 303f aa75 5d3d a078 393e
00000230: 6ed7 d7bc 908d 173f 0a9a 6cbd d0ea 54bf
00000240: 2da8 483e 3cb2 0c3e 44b9 a5be fe3d ef3e
00000250: 8ec2 d43c 108f 66bc 4a6c c3bc 81ed cfbe
00000260: e58e 4dbe dfc3 583e ddb2 283f 640d 89bd
00000270: 0878 ecbd ccde 413e a0cf efbe 221f 5abe
00000280: e544 093e 95f8 453f 2e29 7e3d b653 5a3e
00000290: 52d8 283e ec81 9c3e ef92 b93d 8f74 25be
000002a0: f861 b6be 2145 553f d1ab fe3c 50e9 31bf
000002b0: a186 fabc 4632 c93e 7373 e7be c540 d3bd
000002c0: 3707 b93d 41a7 bbbe 186e 72bd 1e4d 01bf
000002d0: d7e5 39be 8e77 0d3f 0ad0 3a3e 584b 70be
000002e0: 0cd6 3dbe e110 c03e c04c 623e 985b e73e
000002f0: 93e0 a23e 972b 1dbe 538a 043e 3412 ae3e
00000300: ead0 273f 5e4b 05be aff1 a7bf 3b04 8fbe
00000310: 3f70 843f 67cd 4bbe 783d 04be 878d 0e3e
00000320: 3712 5c3f e13a f33c f5ea 7bbe ac18 d7be
00000330: f530 393e 0421 193f e9ba dcbe ec65 07bd
00000340: 7ae3 31be 9664 1a3e 7bd3 ec3e 0455 033e
00000350: f81e d7bc c048 da39 f977 80be e783 753e
00000360: 1ef9 873e aa77 163f e335 11bf 5f4d d73e
00000370: ccb1 73be 4761 133f 04d3 0f3f 12c2 49bf
00000380: f212 b7bc df2b d03e de22 18bf b022 bf3d
00000390: 56e0 45bf 9475 a43e d3b8 2ebe ad9d 2ebf
000003a0: 606a 66be 35ee 7a3d dd5d 25bf 2cea ed3d
000003b0: d355 05bf 72a8 3fbf 8805 053d 8375 89be
000003c0: dd93 e93e 1ac2 263e 621e 2f3d 58fb 25be
000003d0: b2ca c7be 07fb e43d 6b6b 17bf c82a 813e
000003e0: 097d bd3d 0cfe 47be e84f 9f3f 1874 1b3d
000003f0: 2d40 903d ef7f e3bd a88f 6d3e f405 40bf

layers_mu.3.bias f4 [50]
-0.32030296 0.09448982 0.041964315 -0.1481418 -0.02923895 0.28158802 0.12246423 0.15435839
0.037019704 0.20687822 -0.22953041 -0.12659407 -0.08539895 -0.11277022 -0.3770419 0.0050215186
-0.18782501 -0.090094194 -0.17313373 0.09880014 -0.0065372316 0.07418997 0.38594607 -0.7094366
0.23231493 -0.049063157 0.0499698 0.0044954573 0.11589605 0.2709151 0.1218729 0.0055618817
-0.4178239 -0.35900345 0.27507746 0.19305123 0.20024098 -0.49595183 -0.11826575 0.2921047
0.014325059 0.42573613 -0.68156964 0.24035795 0.3699044 -0.0166855 -0.6448229 -0.18386045
0.11698527 -0.33712977
00000000: c0fe a3be e183 c13d c6e2 2b3d 7cb2 17be
00000010: 8686 efbc 4e2c 903e 87ce fa3d 2010 1e3e
00000020: f9a1 173d e2d7 533e 050a 6bbe e0a1 01be
00000030: a5e5 aebd 13f4 e6bd a30b c1be 8d8b a43b
00000040: 3355 40be 4e83 b8bd f849 31be ba57 ca3d
00000050: 4636 d6bb e9f0 973d b99a c53e a39d 35bf
00000060: f7e3 6d3e 73f6 48bd 22ad 4c3d a14e 933b
00000070: e95a ed3d 62b5 8a3e 8098 f93d 7240 b63b
00000080: 04ed d5be 4dcf b7be f4d6 8c3e 39af 453e
00000090: f90b 4d3e 66ed fdbe 5035 f2bd bf8e 953e
000000a0: a7b3 6a3c 16fa d93e 597b 2ebf 6520 763e
000000b0: 1c64 bd3e 08b0 88bc 1d13 25bf ea45 3cbe
000000c0: f995 ef3d 469c acbe

layers_sigma.0.weight f4 [100, 50]
0.06729868 0.04592288 0.29065508 -0.074152775 -0.012197639 0.14516614 0.028413966 0.025170261
-0.25573182 -0.09127985 0.13986433 0.1319808 -0.15136528 -0.07763508 0.100079805 0.31042603
0.11642405 0.14114127 0.17749846 -0.012940366 0.07962093 -0.033007998 0.124904394 -0.12128247
0.0004535794 0.329365 -0.046258923 -0.16606857 0.055275805 0.16480292 0.27558243 0.035261847
-0.13690427 0.12079785 -0.22069806 0.35106567 -0.11070718 0.253379 0.03154608 0.1221233
0.1351854 0.061244708 0.067866005 0.11729233 -0.11547684 -0.07893522 0.06525228 0.074214645
0.038818672 0.00874383 -0.2863266 -0.27840725 -0.02977937 -0.15381283 0.03375253 0.01735832
0.14850682 0.058844127 -0.13133483 0.18954282 0.2767948 -0.09357656 -0.013816317 0.036868505
-0.027728818 -0.09805303 0.09281289 0.06891034 -0.18030329 -0.1755223 0.12689616 0.026998762
0.19741018 0.07571857 0.08444698 -0.07683865 -0.17535947 -0.30069917 0.20883726 -0.14468811
0.06851624 -0.036741152 0.26492995 0.040733382 -0.11809283 -0.3595296 0.19004852 -0.004364443
-0.02841072 0.09501745 -0.061080966 -0.025847932 0.0310131 0.242455 0.30677062 -0.115760095
-0.113384396 0.02845952 0.19221321 -0.14044414 -0.19442281 -0.2440122 -0.13250889 0.27571544
0.1432613 0.20504987 -0.053763483 0.07911758 0.116603866 0.47768608 -0.04734253 0.056983873
-0.04629477 -0.3896086 -0.112272106 0.1399843 -0.018931843 -0.092838675 0.00011572207 -0.045284066
0.05910357 0.04848952 -0.098934144 0.15558863 0.32808787 -0.036683287 -0.10059084 -0.0043224194
-0.15857574 -0.124339685 -0.07066911 -0.005360331 -0.19690724 -0.2835306 -0.09962697 0.07173219
0.076916255 -0.11110847 0.13084286 -0.15741609 -0.15292282 0.031723693 0.04487232 0.33783707
0.075307444 -0.021058518 -0.33460414 -0.27615464 0.27950934 -0.09322746 -0.028928075 0.04694945
-0.020421635 -0.097613804 -0.0051636538 0.01333769 -0.08536968 0.0053652814 0.05476694 0.14528163
-0.041945573 0.11226381 -0.2893589 -0.11273716 -0.1713118 0.15974599 0.0015811631 0.20360631
0.27808362 -0.122106336 -0.13655257 -0.06568402 -0.017301451 -0.03379505 0.10452099 -0.037471857
-0.2013419 0.016509902 0.08699922 0.14676486 -0.12025375 -0.13139696 -0.33065987 -0.2638969
-0.040957343 0.008785707 -0.17869364 0.3132798 -0.01580054 0.10133921 -0.050966106 0.055302363
-0.100148745 0.1518244 0.012299145 -0.13535419 0.06941302 -0.1812356 0.24680372 -0.10287058
-0.07283698 0.2116234 -0.09736798 0.31447223 0.04988271 0.17499898 -0.17997187 -0.34504983
-0.31476706 -0.13982098 -0.050617635 0.030163461 -0.0897531 -0.23006009 0.097969756 0.05471261
0.029056858 0.22767277 0.019488337 -0.11331612 -0.2515356 -0.31746083 0.15074427 -0.114749335
0.060351416 -0.12356157 -0.1340184 -0.17001505 0.28218004 0.18535317 0.10842412 0.3499197
-0.24053507 -0.15041909 0.079964384 0.26690662 -0.07866088 -0.037931472 -0.11982364 0.19999588
-0.16075216 0.18594642 0.13457972 0.052663572 0.10606877 -0.09207774 -0.11323212 -0.19243534
0.17733738 -0.09775217 -0.17142475 0.053110123 0.025919821 0.012303309 -0.28103423 0.15341102
00000000: e4d3 893d a119 3c3d bed0 943e 69dd 97bd
00000010: 9bd8 47bc 6fa6 143e 68c4 e83c dd31 ce3c
00000020: 48ef 82be eef0 babd 9838 0f3e fa25 073e
00000030: 80ff 1abe 24ff 9ebd a4f6 cc3d 29f0 9e3e
00000040: bb6f ee3d 5687 103e 28c2 353e d403 54bc
00000050: 4c10 a33d 6533 07bd e0cd ff3d f262 f8bd
00000060: 66ce ed39 87a2 a83e ff79 3dbd e10d 2abe
00000070: e268 623d 19c2 283e 2419 8d3e ba6e 103d
00000080: a230 0cbe dd64 f73d acfe 61be e1be b33e
00000090: 72ba e2bd e4ba 813e 7636 013d c81b fa3d
000000a0: 0b6e 0a3e bbdb 7a3d 55fd 8a3d f636 f03d
000000b0: 1f7f ecbd caa8 a1bd fda2 853d d9fd 973d
000000c0: 5400 1f3d 4842 0f3c 6699 92be 658b 8ebe
000000d0: def3 f3bc 1c81 1dbe 1840 0a3d 0933 8e3c
000000e0: 2c12 183e 8a06 713d a37c 06be 8317 423e
000000f0: 0cb8 8d3e 11a5 bfbd d55d 62bc 6e03 173d
00000100: 8c27 e3bc 07d0 c8bd af14 be3d dd20 8d3d
00000110: 6da1 38be 1ebc 33be 11f1 013e 822c dd3c
00000120: e525 4a3e 5612 9b3d 8af2 ac3d 955d 9dbd
00000130: 6f91 33be 3ef5 99be 6fd9 553e 1f29 14be
00000140: 3e52 8c3d e47d 16bd e6a4 873e 0cd8 263d
00000150: a7da f1bd 4414 b8be 149c 423e 9a03 8fbb
00000160: 99bd e8bc 8298 c23d 0930 7abd 0bbf d3bc
00000170: 2f0f fe3c 2046 783e 0a11 9d3e a113 edbd
00000180: 1436 e8bd f023 e93c 8ad3 443e 97d0 0fbe
00000190: c616 47be 56de 79be 69b0 07be 932a 8d3e
000001a0: 17b3 123e 98f8 513e 1937 5cbd 6608 a23d
000001b0: 02ce ee3d 4593 f43e 3eea 41bd ec67 693d
000001c0: 969f 3dbd c77a c7be ebee e5bd 0b58 0f3e
000001d0: f416 9bbc 3422 bebd d0af f238 c97b 39bd
000001e0: 9616 723d f29c 463d fc9d cabd a052 1f3e
000001f0: 22fb a73e 3741 16bd 9202 cebd 15a3 8dbb
00000200: ae61 22be cea5 febd f7ba 90bd b7a5 afbb
00000210: 0da2 49be ec2a 91be 3a09 ccbd 54e8 923d
00000220: 4586 9d3d d68c e3bd acfb 053e af31 21be
00000230: cd97 1cbe b4f0 013d 0acc 373d fbf8 ac3e
00000240: ca3a 9a3d ea82 acbc 3c51 abbe 2464 8dbe
00000250: d91b 8f3e 0aee bebd 92fa ecbc 114e 403d
00000260: 464b a7bc bfe9 c7bd de33 a9bb 5486 5a3c
00000270: 4cd6 aebd 3ecf af3b 4d53 603d b5c4 143e
00000280: 1fcf 2bbd 92ea e53d da26 94be bde2 e6bd
00000290: 5c6c 2fbe 7494 233e 083f cf3a 2c7e 503e
000002a0: fa60 8e3e e312 fabd 70d4 0bbe 5885 86bd
000002b0: c6bb 8dbc ae6c 0abd 1a0f d63d 177c 19bd
000002c0: 922c 4ebe c63f 873c a62c b23d 8749 163e
000002d0: 9947 f6bd ed8c 06be 404c a9be 7f1d 87be
000002e0: e3c2 27bd edf1 0f3c 77fb 36be 3666 a03e
000002f0: 2270 81bc ef8a cf3d d6c1 50bd bb84 623d
00000300: c91a cdbd db77 1b3e 5a82 493c 4a9a 0abe
00000310: 6a28 8e3d d395 39be 1dba 7c3e d0ad d2bd
00000320: 8e2b 95bd ceb3 583e dd68 c7bd 8102 a13e
00000330: d051 4c3d ef32 333e 8c4a 38be 5faa b0be
00000340: 2629 a1be 3b2d 0fbe 7054 4fbd 5d19 f73c
00000350: 79d0 b7bd df94 6bbe 5ea4 c83d 541a 603d
00000360: a608 ee3c 0d23 693e 01a6 9f3c 4812 e8bd
00000370: 46c9 80be 3a8a a2be b55c 1a3e b301 ebbd
00000380: 0c33 773d d90d fdbd 1f3c 09be 6d18 2ebe
00000390: e779 903e 39cd 3d3e 770d de3d ad28 b33e
000003a0: d34e 76be 7607 1abe 5ec4 a33d fca7 883e
000003b0: f518 a1bd 085e 1bbd 1966 f5bd b8cb 4c3e
000003c0: 379c 24be bd68 3e3e 44cf 093e c2b5 573d
000003d0: 953a d93d 4193 bcbd 3ee6 e7bd c50d 45be
000003e0: ee97 353e 4a32 c8bd f889 2fbe 008a 593d
000003f0: ce55 d43c d193 493c b8e3 8fbe c717 1d3e

layers_sigma.0.bias f4 [100]
-0.21696949 0.1761933 -0.5984689 -1.054407 0.1309026 0.055768535 -0.58195525 -0.20503
-0.35275182 -0.28850704 0.07081498 0.14526835 0.082299024 -0.6495517 0.29811814 -0.7818999
-0.26578453 -0.3778918 -0.23261034 -0.111406155 -0.6833493 0.28578195 -0.053248726 0.1809613
0.93313175 -0.044426184 0.47321728 0.26913056 -0.4866189 0.64301693 0.15238936 -0.3745427
-0.29104105 0.34089497 2.15239 -0.027462786 3.0611255 -1.473453 0.79041547 -0.035956357
-2.16998 -0.7347245 0.9954735 0.85276055 0.7208463 -0.82660365 0.12756766 0.7637941
-0.037975248 -0.82585406 0.17766514 0.97986835 -1.127749 -0.7592637 -0.65358603 -0.1858887
0.95354456 -0.13817067 -0.35277227 -0.70318466 -6.80961 0.9075865 0.3859157 0.25470757
-0.5587184 -0.26392573 0.13488133 -1.0771105 -0.94089985 0.4760802 -0.99155533 -0.29998586
-0.8991861 0.108962186 1.316315 0.10766475 0.0053077484 0.24304222 0.5434778 -0.79498136
0.9544169 0.36623177 -0.17422025 -0.49390996 -0.16576155 -0.4917572 0.042400412 0.79043126
5.6609583 -0.4688304 0.39277834 3.9713085 0.9591433 -0.42493296 -0.056965876 0.66723883
-0.39835897 0.575346 0.07925024 -0.4020737
00000000: 402d 5ebe 046c 343e 4235 19bf cff6 86bf
00000010: 550b 063e 8c6d 643d 05fb 14bf 62f3 51be
00000020: e39b b4be 32b7 93be 7207 913d 3ac1 143e
00000030: 648c a83d 0549 26bf f1a2 983e 982a 48bf
00000040: e914 88be 097b c1be 6831 6ebe e928 e4bd
00000050: fbef 2ebf 0352 923e 561b 5abd eb4d 393e
00000060: b9e1 6e3f 3bf8 35bd 8949 f23e 7bcb 893e
00000070: 1d26 f9be c29c 243f f50b 1c3e 10c4 bfbe
00000080: 5503 95be c989 ae3e c2c0 0940 a3f9 e0bc
00000090: 7be9 4340 1c9a bcbf ab58 4a3f f946 13bd
000000a0: f4e0 0ac0 e816 3cbf 5ad7 7e3f 844e 5a3f
000000b0: 6289 383f 4c9c 53bf 19a1 023e 0388 433f
000000c0: ef8b 1bbd 2c6b 53bf daed 353e a7d8 7a3f
000000d0: 145a 90bf 1b5f 42bf 6a51 27bf 9b59 3ebe
000000e0: 7f1b 743f 9d7c 0dbe 919e b4be e903 34bf
000000f0: 53e8 d9c0 9757 683f be96 c53e 0869 823e
00000100: 2b08 0fbf 4621 87be 551e 0a3e c2de 89bf
00000110: d0de 70bf c9c0 f33e 92d6 7dbf bf97 99be
00000120: 0f31 66bf 9127 df3d 037d a83f 567f dc3d
00000130: 9fec ad3b 0fe0 783e 5c21 0b3f e683 4bbf
00000140: aa54 743f bb82 bb3e cb66 32be c4e1 fcbe
00000150: 65bd 29be 9ac7 fbbe 0eac 2d3d b459 4a3f
00000160: 9226 b540 8a0a f0be 3e1a c93e eb29 7e40
00000170: 6a8a 753f d090 d9be 0d55 69bd 2ad0 2a3f
00000180: b5f5 cbbe e049 133f f34d a23d 9bdc cdbe

layers_sigma.1.weight f4 [100, 100]
0.3180829 0.038747884 0.4059202 0.4241349 0.22597556 -0.1082364 0.5823227 0.32686692
0.05484581 0.56944066 0.59022355 -0.39073932 -0.14763895 0.37732872 -0.098940745 0.09449292
-0.015575564 0.17265658 -0.11981592 -0.3468855 0.7585908 -0.17243461 0.14443265 0.5344824
-0.08089281 -0.42867547 -0.3413718 -0.92534184 -0.3061818 -0.0142520685 0.27734375 0.72197413
-0.37042546 -0.39746794 -0.038759463 -0.113543905 -0.73362124 -0.044525586 -0.081515506 -0.086149834
0.21745797 0.471481 -0.4335752 -0.5533311 -0.44531238 0.22102858 -0.27231616 -0.35295743
-0.9242239 0.3599712 0.37832955 -0.1107873 0.0072022947 -0.5751267 0.20983441 -0.5142709
-1.0663655 -0.33340046 1.0856247 0.78989583 0.81188685 -0.57156765 -0.07780682 -0.19986486
0.10793275 0.29810324 0.2096509 0.34238282 0.4299425 -0.30775785 0.5960293 -0.099839896
-0.022304181 -0.4008293 -0.57503676 -0.17446765 -0.099527165 0.0328018 -0.545263 0.4093418
-0.49756742 -0.81970763 0.06195791 0.2748218 0.048245966 0.39790726 -0.25969803 -0.1129606
-0.95202124 -0.08489969 -0.29463068 -0.957103 -0.86228126 0.3208257 0.40177587 -0.2857441
0.15945384 -0.11539707 0.08761988 0.106359564 0.42994824 0.09252067 0.42169496 -0.34956944
-0.8408491 -0.08389444 -0.026140638 0.47030383 -0.20277502 0.3700908 -0.40349847 -0.40024382
-0.30661792 0.50441706 0.50309056 0.092625014 -0.45415556 0.31336918 -0.21155551 -0.104559064
0.23886143 -0.56707644 -0.28722468 -0.46648163 -0.6560895 0.42878106 0.0012180906 0.040569402
-0.07047283 -0.36798832 -0.3282003 -0.27582154 -0.35115644 -0.33717543 -0.9051876 -0.5632484
-0.73967326 0.8263412 0.15475038 0.30629817 0.61926687 0.21937135 -0.32045826 -0.6073418
0.33488038 -0.066029 0.6756604 -1.1186937 0.1995095 0.033822995 -0.5603041 -0.21625467
0.018020457 0.49321738 -0.9017111 -0.27931103 -0.07770557 0.24507296 0.59716696 0.6324461
0.88035905 0.11530743 -0.7740727 0.34618142 0.3119965 0.097709335 -0.7567878 0.42017695
0.001503407 0.3570418 0.42562371 0.39321932 0.4782259 0.123388335 -0.019336522 0.4847932
-0.2543986 -0.26149097 0.61730725 0.3121832 -0.26328894 -0.16263591 0.090747476 0.11123664
0.13985252 0.35696664 0.7157883 -0.035678014 -0.8328296 -0.06613834 0.20807348 -0.88450116
-0.33822834 0.44610617 -0.038013637 -0.333648 0.30872247 -0.44770452 -0.30286422 0.3847048
0.5854665 0.54597944 0.68112504 0.8023662 0.50414383 -0.3059544 0.6659636 -1.2740501
0.58196855 -0.16978107 -0.23165335 0.36498448 -0.42647907 -0.35336825 0.87160593 -0.1462226
0.49642417 0.2181419 -0.46577832 -0.4783656 0.80802757 0.6462916 -0.7179866 0.31968898
-0.21672273 -0.106466085 -0.92175925 -0.6133449 0.39262086 0.8556757 -1.327554 -0.22700825
-0.9985093 -0.14241384 -0.89914024 0.5794568 -0.770351 0.88275355 -0.40207666 0.33571228
1.0656139 0.2775726 -0.10710086 -0.040579658 -0.5069087 1.1475375 -0.6237719 -0.69366306
0.16494028 -0.34637237 0.16666842 -0.7189693 0.8908717 0.22401002 0.32387328 0.5184143
00000000: c3db a23e 1ab6 1e3d c6d4 cf3e 3628 d93e
00000010: 2366 673e 0cab ddbd 1a13 153f 1a5b a73e
00000020: 00a6 603d ddc6 113f e418 173f fc0e c8be
00000030: aa2e 17be 3b31 c13e 72a1 cabd 8185 c13d
00000040: a630 7fbc e3cc 303e 0d62 f5bd fa9a b1be
00000050: 0233 423f b392 30be 27e6 133e d7d3 083f
00000060: 21ab a5bd 5a7b dbbe 49c8 aebe 34e3 6cbf
00000070: dcc3 9cbe 8281 69bc 0000 8e3e 4cd3 383f
00000080: 68a8 bdbe eb80 cbbe 3ec2 1ebd b589 e8bd
00000090: 9ace 3bbf 7660 36bd 9af1 a6bd 536f b0bd
000000a0: 4dad 5e3e f565 f13e 92fd ddbe 1ba7 0dbf
000000b0: fcff e3be 5155 623e 066d 8bbe d6b6 b4be
000000c0: f099 6cbf 254e b83e 69b4 c13e 74e4 e2bd
000000d0: 3a01 ec3b 813b 13bf d5de 563e 42a7 03bf
000000e0: aa7e 88bf 77b3 aabe c0f5 8a3f 9d36 4a3f
000000f0: d1d7 4f3f 4252 12bf 2f59 9fbd 60a9 4cbe
00000100: d80b dd3d fda0 983e baae 563e cd4c af3e
00000110: 6c21 dc3e 7092 9dbe 6095 183f dc78 ccbd
00000120: 42b7 b6bc 7f39 cdbe 9c35 13bf a6a7 32be
00000130: e6d4 cbbd 2e5b 063d 5b96 0bbf 4095 d13e
00000140: 28c1 febe 5cd8 51bf 94c7 7d3d 71b5 8c3e
00000150: 909d 453d 80ba cb3e 24f7 84be e357 e7bd
00000160: aab7 73bf e3df adbd d5d9 96be b404 75bf
00000170: 77be 5cbf 4443 a43e 91b5 cd3e 0d4d 92be
00000180: de47 233e 4d55 ecbd 0d72 b33d 0bd3 d93d
00000190: 2d22 dc3e 7a7b bd3d 67e8 d73e c4fa b2be
000001a0: e341 57bf d9d0 abbd e424 d6bc aacb f03e
000001b0: 41a4 4fbe 8b7c bd3e 5a97 cebe c2ec ccbe
000001c0: 06fd 9cbe 7a21 013f 8bca 003f 2fb2 bd3d
000001d0: 1487 e8be ed71 a03e 02a2 58be 1023 d6bd
000001e0: 1798 743e ec2b 11bf 1d0f 93be aed6 eebe
000001f0: 7bf5 27bf 3189 db3e 57a8 9f3a 1a2c 263d
00000200: 0f54 90bd f768 bcbe df09 a8be 7b38 8dbe
00000210: c7ca b3be 42a2 acbe 60ba 67bf 0c31 10bf
00000220: 3a5b 3dbf 198b 533f e276 1e3e 1dd3 9c3e
00000230: 4688 1e3f e2a2 603e 1b13 a4be c17a 1bbf
00000240: 7175 ab3e 363a 87bd 14f8 2c3f 5b31 8fbf
00000250: 384c 4c3e fb89 0a3d 1770 0fbf dd71 5dbe
00000260: a39f 933c fd86 fc3e 8ad6 66bf db01 8fbe
00000270: 1924 9fbd 68f4 7a3e efdf 183f fde7 213f
00000280: 365f 613f 4d26 ec3d a129 46bf b13e b13e
00000290: 01be 9f3e d51b c83d d8bc 41bf 6f21 d73e
000002a0: f80d c53a 2fce b63e 5aeb d93e 0b54 c93e
000002b0: 06da f43e 06b3 fc3d a067 9ebc d036 f83e
000002c0: 8940 82be 25e2 85be d907 1e3f 7ad6 9f3e
000002d0: cfcd 86be 078a 26be d0d9 b93d 09d0 e33d
000002e0: 8035 0f3e 55c4 b63e e73d 373f 1c23 12bd
000002f0: 5234 55bf 8a73 87bd 3711 553e ab6e 62bf
00000300: 442c adbe 0768 e43e 30b4 1bbd e9d3 aabe
00000310: df10 9e3e 8739 e5be 0511 9bbe 07f8 c43e
00000320: 22e1 153f 4fc5 0b3f 365e 2e3f df67 4d3f
00000330: 920f 013f 0ea6 9cbe 977c 2a3f 1314 a3bf
00000340: e4fb 143f 17db 2dbe 8936 6dbe 3fdf ba3e
00000350: 775b dabe afec b4be 9121 5f3f 61bb 15be
00000360: 4f2b fe3e 9760 5f3e 7f7a eebe 56ec f4be
00000370: e5da 4e3f 5e73 253f f8cd 37bf 46ae a33e
00000380: 90ec 5dbe e40a dabd 6af8 6bbf 2c04 1dbf
00000390: 9a05 c93e 900d 5b3f 4aed a9bf da74 68be
000003a0: 4e9e 7fbf efd4 11be 0e2e 66bf 4857 143f
000003b0: b935 45bf 23fc 613f fedc cdbe 7be2 ab3e
000003c0: 0966 883f ff1d 8e3e b257 dbbd db36 26bd
000003d0: c5c4 01bf 82e2 923f 84af 1fbf e793 31bf
000003e0: 1be6 283e b857 b1be 20ab 2a3e 5f0e 38bf
000003f0: 2b10 643f e262 653e b8d2 a53e cdb6 043f

layers_sigma.1.bias f4 [100]
-0.8925817 -0.5175212 -0.7728754 -1.2843045 -0.9507899 -0.65222937 -1.0621605 -0.40079665
-0.5003442 -0.8235656 -0.35884568 -0.9371823 -1.1330031 -0.4930993 -0.04062016 -0.42576295
-0.84583837 -0.7526503 -1.0796984 -0.11949643 -0.7080545 -0.387156 -0.5972578 -0.36127326
-0.7511495 -0.54821104 -0.9033206 -1.0219369 -0.6094282 -1.2074134 -0.22699507 -0.6903014
-0.47653648 -1.096535 -0.9278438 -0.7830022 -0.9480158 -0.1331536 -0.77255476 -0.34544083
-0.69628674 -0.72937393 -1.0149399 -0.8212745 -0.31498906 -0.6715436 -0.9252346 -0.5398243
-0.995316 -1.0469153 -1.1380754 -0.9264169 -0.16013731 -1.1448879 -0.7155654 -0.44633847
-0.82179844 -1.4940779 -1.1031705 -0.64902616 -0.1608041 -1.0144253 -0.6406024 -1.1420454
-0.26750445 -0.4629114 -1.1070348 -0.53656405 -0.14669687 -0.4737054 -0.65277815 -0.89437956
-1.2673174 -0.3826324 -1.1445657 -1.0230976 -0.91393906 -0.73693824 -0.088299714 -0.7745964
-1.385023 -0.079219095 -0.08631939 -1.2570773 -0.70682347 -0.14621438 -0.63917255 -0.22046596
-0.7356654 -1.0559394 -0.7009093 -0.6304531 -1.3851644 -0.38967228 -0.8119012 -0.6147979
0.00969835 -0.9167916 -0.72189206 -0.6500993
00000000: 3c80 64bf 457c 04bf 2adb 45bf 1764 a4bf
00000010: f866 73bf 81f8 26bf e0f4 87bf 3835 cdbe
00000020: 8f16 00bf 32d5 52bf 9fba b7be 2eeb 6fbf
00000030: 3f06 91bf 8377 fcbe 5361 26bd 9afd d9be
00000040: dd88 58bf b1ad 40bf 8f33 8abf 8bba f4bd
00000050: 0f43 35bf 5039 c6be e3e5 18bf cff8 b8be
00000060: 554b 40bf 8f57 0cbf 0540 67bf d4ce 82bf
00000070: 7d03 1cbf 868c 9abf 6571 68be 98b7 30bf
00000080: 97fc f3be 425b 8cbf 2c87 6dbf d572 48bf
00000090: 2ab1 72bf 6b59 08be 26c6 45bf 9fdd b0be
000000a0: d93f 32bf 40b8 3abf 8de9 81bf 0c3f 52bf
000000b0: 3f46 a1be 48ea 2bbf 2ddc 6cbf ed31 0abf
000000c0: 08cd 7ebf 5201 86bf 74ac 91bf a829 6dbf
000000d0: 09fb 23be b08b 92bf 4b2f 37bf 7a86 e4be
000000e0: 6261 52bf f23d bfbf b134 8dbf 9426 26bf
000000f0: d4a9 24be b0d8 81bf 85fe 23bf 8b2e 92bf
00000100: 58f6 88be b902 edbe 51b3 8dbf 435c 09bf
00000110: b437 16be 8489 f2be 781c 27bf 0ff6 64bf
00000120: 7537 a2bf 65e8 c3be 2181 92bf ddf4 82bf
00000130: e9f7 69bf fca7 3cbf 7bd6 b4bd f34b 46bf
00000140: 6f48 b1bf 9f3d a2bd 38c8 b0bd e9e7 a0bf
00000150: 62f2 34bf 39b9 15be d0a0 23bf d4c1 61be
00000160: 9154 3cbf 0629 87bf cb6e 33bf 6065 21bf
00000170: 114d b1bf 2083 c7be c2d8 4fbf 6563 1dbf
00000180: d4e5 1e3c dbb2 6abf ebcd 38bf e86c 26bf

layers_sigma.3.weight f4 [50, 100]
0.13281487 -0.037962403 0.19566375 -0.29792756 -0.25434375 -0.13134032 -0.0525216 0.08751903
-0.25132427 0.12113957 0.14500175 0.085332 -0.16162598 -0.29117206 0.008303078 0.061268702
-0.66752195 -0.5875513 -0.30629 -0.30997312 -0.3589696 -0.060147274 0.03856199 0.55545074
-0.11206962 0.14318852 0.31685132 -0.1216914 0.13009466 -0.23053516 -0.557397 -0.20065816
-0.08048169 0.11095986 0.37476358 -0.40133917 0.21599476 -0.874143 -0.07620735 0.20433484
-0.0016600225 0.02567283 0.32222587 0.15091564 -0.013277242 -0.07051496 0.12507842 -0.14338017
-0.37153435 0.18640462 0.13688253 -0.12733649 -0.020857573 0.1518424 0.11793037 0.23136212
-0.046338093 0.12352411 -0.13257508 0.0778642 -0.868291 -0.25310394 -0.25747803 0.23867543
0.51071733 -0.060873657 -0.23778674 -0.5765097 -0.29002732 -0.06641666 -0.03417207 -0.0054542213
-0.09999598 0.09207083 0.23179182 -0.34771624 0.16227537 -0.21892683 -0.23479308 0.12512499
-0.043753732 0.26412135 -0.22262134 -0.0021849684 -0.37767386 -0.3916765 0.0891507 -0.19073208
-0.4047535 0.048910633 -0.10338505 -0.78183556 -0.23350117 0.19294283 -0.21910836 0.38317803
-0.80422693 -0.43913636 -0.115701765 0.11426851 -0.02944833 0.17206517 0.0070970776 -0.19688934
0.1433488 -0.14716528 -0.0994591 -0.0019350655 0.112692125 0.0034882254 0.10100024 0.27888426
0.00039935453 0.27221563 0.19046132 0.11124941 0.022674209 0.16231248 -0.21560185 -0.4392772
-0.23290293 0.088814005 -0.027256189 0.33874702 -0.29140973 0.14697687 -0.07570481 -0.09040372
-0.16041683 0.01682814 -0.7067776 0.017833153 0.1162049 -0.09276583 0.21929865 0.11553187
0.03549255 -0.62382203 0.28917608 0.09421542 -0.13262951 -0.14613931 0.053653065 0.29580742
0.021900956 -0.037053496 0.024518179 -0.23193619 -0.38075683 0.15851472 -0.2606004 0.14725916
-0.06585296 -0.24365689 0.18901578 0.15773945 0.007856719 0.044681143 -0.17392963 0.20057978
-0.3061048 -0.3086856 -0.4229155 0.44281015 0.26213822 -0.08228239 -0.29756677 -0.20422323
-0.22692445 -0.33833015 0.03204281 0.114373006 0.18913269 0.28463587 0.15137167 -0.054134216
-0.28153166 0.051682502 -0.137539 0.095603704 -0.19141674 0.012394218 -0.32057896 0.12316208
-0.16724294 -0.593375 0.090315044 -0.23691171 -0.3631818 -0.17695902 -0.015569523 -0.13529228
0.07932253 0.08054251 -0.19912215 -0.13884704 -0.58139676 -0.044111807 0.15462714 0.15869506
0.3128143 0.09258295 0.10901348 -0.12337903 0.20877557 -0.07803395 0.030908536 -0.12208113
0.20089695 0.33291718 0.1721928 -0.05230392 0.41771454 -0.034708034 0.2090073 0.1094912
-0.010134433 0.00012253028 -0.16395116 -0.32615316 -0.03560718 0.06320803 0.20376757 0.2992805
-0.1508956 0.10978101 -0.12130816 0.10532061 0.10765521 0.09817836 -0.05269008 -0.10742034
0.09843663 0.25488257 -0.41392148 0.16152935 0.12572797 -0.38713613 0.11105533 0.058607686
0.30339757 0.42591155 0.08869905 0.05600037 -0.11964624 -0.26175728 0.12827282 0.12884757
-0.12738566 0.14415179 -0.14285761 0.10170025 -0.38827136 -0.4785304 -0.037899762 -0.14261536
00000000: 9f00 083e 777e 1bbd 145c 483e f689 98be
00000010: 5839 82be 147e 06be e420 57bd 2d3d b33d
00000020: 93ad 80be 0618 f83d 577b 143e 8bc2 ae3d
00000030: 4881 25be 8114 95be a209 083c e4f4 7a3d
00000040: b8e2 2abf c369 16bf 0bd2 9cbe ccb4 9ebe
00000050: ddca b7be fd5c 76bd 2df3 1d3d 0532 0e3f
00000060: c284 e5bd 03a0 123e 563a a23e 5739 f9bd
00000070: 8937 053e 6911 6cbe 92b1 0ebf 5579 4dbe
00000080: 96d3 a4bd ec3e e33d 03e1 bf3e 547c cdbe
00000090: bb2d 5d3e d6c7 5fbf 9912 9cbd 273d 513e
000000a0: 1d95 d9ba d44f d23c cafa a43e a189 1a3e
000000b0: ca88 59bc 266a 90bd 8f14 003e 40d2 12be
000000c0: c039 bebe dae0 3e3e ef2a 0c3e 7f64 02be
000000d0: 80dd aabc 937c 1b3e 7a85 f13d 31ea 6c3e
000000e0: 03cd 3dbd 35fa fc3d c3c1 07be 4477 9f3d
000000f0: 5248 5ebf d796 81be 29d4 83be 5567 743e
00000100: 5fbe 023f a856 79bd 5e7e 73be 2496 13bf
00000110: 767e 94be 7505 88bd 03f8 0bbd 53b9 b2bb
00000120: b1ca ccbd a28f bc3d d65a 6d3e dd07 b2be
00000130: 842b 263e 5b2e 60be 996d 70be c420 003e
00000140: 1d37 33bd ea3a 873e d9f6 63be b031 0fbb
00000150: 785e c1be d289 c8be a494 b63d 454f 43be
00000160: da3b cfbe 8456 483d 8bbb d3bd 6026 48bf
00000170: ee1a 6fbe ce92 453e f15d 60be e92f c43e
00000180: d1e1 4dbf 7bd6 e0be 0cf5 ecbd 9c05 ea3d
00000190: a03d f1bc da31 303e 9a8e e83b 5c9d 49be
000001a0: 07ca 123e 7fb2 16be 36b1 cbbd 06a2 fdba
000001b0: 21cb e63d b69a 643b 37d9 ce3d ebc9 8e3e
000001c0: 7560 d139 d95f 8b3e 4b08 433e bbd6 e33d
000001d0: 43bf b93c 3e35 263e bbc6 5cbe f1e8 e0be
000001e0: 1b7e 6ebe 1ee4 b53d 5f48 dfbc 4070 ad3e
000001f0: a833 95be 1b81 163e 200b 9bbd 9625 b9bd
00000200: 4f44 24be 2bdb 893c 60ef 34bf d516 923c
00000210: d6fc ed3d 03fc bdbd d38f 603e f99b ec3d
00000220: a360 113d cdb2 1fbf e30e 943e 04f4 c03d
00000230: 08d0 07be 8ba5 15be 51c3 5b3d 1274 973e
00000240: a269 b33c 68c5 17bd 59da c83c ae80 6dbe
00000250: 8ff2 c2be af51 223e 6a6d 85be 1bcb 163e
00000260: ebdd 86bd 3181 79be 5a8d 413e 7386 213e
00000270: 78b9 003c 9303 373d 9c1a 32be c964 4d3e
00000280: c5b9 9cbe 0a0c 9ebe 6188 d8be 03b8 e23e
00000290: fb36 863e ab83 a8bd ac5a 98be e51f 51be
000002a0: e25e 68be 9c39 adbe 523f 033d 653c ea3d
000002b0: 00ac 413e cbbb 913e 2d01 1b3e d7bb 5dbd
000002c0: eb24 90be 08b1 533d 06d7 0cbe e0cb c33d
000002d0: c002 44be 1e11 4b3c ed22 a4be 673c fc3d
000002e0: bc41 2bbe 6de7 17bf 18f7 b83d fc98 72be
000002f0: f7f2 b9be bf34 35be 5017 7fbc 0f8a 0abe
00000300: da73 a23d 79f3 a43d ade6 4bbe eb2d 0ebe
00000310: 6bd6 14bf 95ae 34bd 9456 1e3e f580 223e
00000320: 3229 a03e 219c bd3d 7642 df3d 25ae fcbd
00000330: 43c9 553e 43d0 9fbd e633 fd3c ac05 fabd
00000340: eeb7 4d3e 1f74 aa3e 4f53 303e a33c 56bd
00000350: aede d53e 032a 0ebd 0206 563e ec3c e03d
00000360: e50a 26bc 797b 0039 d0e2 27be 8cfd a6be
00000370: d6d8 11bd 3673 813d 72a8 503e 4b3b 993e
00000380: 6084 1abe ded4 e03d 6a70 f8bd 55b2 d73d
00000390: 567a dc3d bc11 c93d 8ed1 57bd 32ff dbbd
000003a0: 2599 c93d f87f 823e 84ed d3be f367 253e
000003b0: d5be 003e b536 c6be fa70 e33d 9d0e 703d
000003c0: ed56 9b3e 1411 da3e d9a7 b53d a560 653d
000003d0: 1609 f5bd 0d05 86be f359 033e 9ef0 033e
000003e0: 6371 02be 879c 133e 4449 12be 3848 d03d
000003f0: 81cb c6be f001 f5be c83c 1bbd c309 12be

layers_sigma.3.bias f4 [50]
0.20917794 0.037180137 -0.5657222 -0.118011825 -0.28078982 -0.19997284 -0.046057098 -0.43599355
-0.5502289 -0.22177017 -0.5973182 -0.044822406 -0.5116847 -0.22170416 -0.20084941 -0.5383329
-0.1915873 -0.49317893 0.084048204 0.06234846 0.0389885 -0.38084915 -0.6860768 -0.39095342
-0.568159 -0.66014487 -0.57511485 -0.41191244 -0.09794083 0.011985448 -0.44971702 0.0273825
0.06832775 -0.09559999 -0.23065439 -0.6215426 -0.37023535 -0.2243262 -0.27626166 -0.09545504
-0.12218355 -0.25881505 -0.36267635 -0.07349484 -0.10579814 -0.5141267 -0.2906036 -0.16658317
-0.1264207 0.08247499
00000000: be32 563e 334a 183d 2cd3 10bf 2fb0 f1bd
00000010: afc3 8fbe aec5 4cbe 5ea6 3cbd 8c3a dfbe
00000020: cddb 0cbf b817 63be d8e9 18bf b397 37bd
00000030: c5fd 02bf 6a06 63be 78ab 4dbe 2fd0 09bf
00000040: 762f 44be f381 fcbe 7721 ac3d 1961 7f3d
00000050: 68b2 1f3d a9fe c2be bba2 2fbf 0c2b c8be
00000060: de72 11bf 41ff 28bf ba3a 13bf 30e6 d2be
00000070: 3495 c8bd 9d5e 443c 4f41 e6be 4451 e03c
00000080: 6bef 8b3d edc9 c3bd aa30 6cbe 6a1d 1fbf
00000090: 7d8f bdbe c4b5 65be 2b72 8dbe ef7d c3bd
000000a0: 5e3b fabd 6883 84be b7b0 b9be 7684 96bd
000000b0: b2ac d8bd cf9d 03bf ffc9 94be c794 2abe
000000c0: 6e74 01be a6e8 a83d
